lightning_logs/version_12/checkpoints/epoch=199-step=1600.ckpt (torch, 464377 bytes, 23 tensors)

model.0.weight f4 [1024]
0	0x3f801a3a	1.0008004
1	0x3f7fb9db	0.9989297
2	0x3f7f63f2	0.9976188
3	0x3f807143	1.0034565
4	0x3f7ff4d9	0.9998298
5	0x3f8014cf	1.000635
6	0x3f8032e9	1.0015537
7	0x3f800e6c	1.0004401
8	0x3f7fc87f	0.9991531
9	0x3f7f2b8a	0.9967581
10	0x3f7fcfc4	0.999264
11	0x3f801250	1.0005589
12	0x3f7f3889	0.9969564
13	0x3f7fef84	0.99974847
14	0x3f801883	1.000748
15	0x3f80347f	1.001602
16	0x3f7f6f98	0.99779654
17	0x3f808073	1.00392
18	0x3f802cf8	1.0013723
19	0x3f80236d	1.0010811
20	0x3f802eb4	1.0014253
21	0x3f7f8ff9	0.9982906
22	0x3f8038b0	1.00173
23	0x3f803e36	1.0018985
24	0x3f7feabc	0.9996755
25	0x3f8018d3	1.0007576
26	0x3f8055fc	1.002624
27	0x3f7fb143	0.99879855
28	0x3f803d71	1.001875
29	0x3f801345	1.000588
30	0x3f800e4a	1.0004361
31	0x3f803633	1.001654
32	0x3f80118b	1.0005354
33	0x3f7fe229	0.9995447
34	0x3f804fa8	1.0024309
35	0x3f803049	1.0014735
36	0x3f8041f6	1.002013
37	0x3f806577	1.0030965
38	0x3f800455	1.0001322
39	0x3f802aec	1.0013099
40	0x3f80255b	1.00114
41	0x3f7fd37b	0.9993207
42	0x3f7fab6a	0.9987093
43	0x3f802906	1.0012519
44	0x3f7f5941	0.99745566
45	0x3f7fd24c	0.9993026
46	0x3f802c0a	1.001344
47	0x3f7f2e81	0.99680334
48	0x3f806be5	1.0032927
49	0x3f8015a0	1.00066
50	0x3f7fffd2	0.99999726
51	0x3f7f9498	0.9983611
52	0x3f80a8a6	1.0051467
53	0x3f7fdba0	0.99944496
54	0x3f8081d5	1.0039622
55	0x3f7fffa2	0.9999944
56	0x3f80146b	1.0006231
57	0x3f80190f	1.0007647
58	0x3f800077	1.0000142
59	0x3f7f438f	0.9971246
60	0x3f802eed	1.0014321
61	0x3f800ca2	1.0003855
62	0x3f7fc8ca	0.99915755
63	0x3f7ff6a3	0.9998571
64	0x3f7fc391	0.99907786
65	0x3f7fe36b	0.9995639
66	0x3f7fcdb2	0.9992324
67	0x3f806be1	1.0032922
68	0x3f7fcf14	0.9992535
69	0x3f8002c3	1.0000843
70	0x3f7ff9c7	0.99990505
71	0x3f804e81	1.0023957
72	0x3f7f4e81	0.9972916
73	0x3f7ec851	0.9952441
74	0x3f8031dd	1.0015217
75	0x3f7fe454	0.99957776
76	0x3f7f4c5a	0.9972588
77	0x3f802068	1.000989
78	0x3f8029f5	1.0012804
79	0x3f7ff4fa	0.9998318
80	0x3f7fadcc	0.9987457
81	0x3f7fed20	0.999712
82	0x3f8023b4	1.0010896
83	0x3f7fb7d3	0.9988987
84	0x3f8015f6	1.0006702
85	0x3f80e05c	1.0068469
86	0x3f802495	1.0011164
87	0x3f805bac	1.0027976
88	0x3f80339f	1.0015754
89	0x3f8010f5	1.0005175
90	0x3f801ab2	1.0008147
91	0x3f7ef19a	0.99587405
92	0x3f7fad0c	0.99873424
93	0x3f8088ce	1.004175
94	0x3f808998	1.004199
95	0x3f8033df	1.001583
96	0x3f809c33	1.0047668
97	0x3f8008d7	1.0002698
98	0x3f808f24	1.0043683
99	0x3f800442	1.0001299
100	0x3f7fda66	0.99942625
101	0x3f7f9ff4	0.99853444
102	0x3f7fc957	0.99916595
103	0x3f802c4e	1.0013521
104	0x3f806abe	1.0032575
105	0x3f7fd077	0.9992747
106	0x3f7fd71b	0.999376
107	0x3f8009e0	1.0003014
108	0x3f803bb1	1.0018216
109	0x3f7fe2ac	0.9995525
110	0x3f7facd4	0.9987309
111	0x3f7fd405	0.9993289
112	0x3f800b96	1.0003536
113	0x3f7f717d	0.99782544
114	0x3f8055b9	1.002616
115	0x3f7fe883	0.9996416
116	0x3f7fbb3f	0.9989509
117	0x3f7faeda	0.9987618
118	0x3f804cf3	1.0023483
119	0x3f7ff22a	0.9997889
120	0x3f7f9fa2	0.99852955
121	0x3f7fe3f1	0.99957186
122	0x3f7fb05e	0.9987849
123	0x3f8014ab	1.0006307
124	0x3f805e4f	1.0028781
125	0x3f7fc9b8	0.99917173
126	0x3f803d8a	1.001878
127	0x3f7faf0e	0.9987649
128	0x3f806335	1.0030276
129	0x3f7ff0bc	0.99976707
130	0x3f7f89ce	0.9981965
131	0x3f7fe14b	0.99953145
132	0x3f7fc914	0.99916196
133	0x3f7f4289	0.997109
134	0x3f7fdbc3	0.99944705
135	0x3f802f7f	1.0014495
136	0x3f7fa531	0.9986144
137	0x3f804b9c	1.0023074
138	0x3f80381f	1.0017127
139	0x3f7ff3c0	0.9998131
140	0x3f8036d2	1.001673
141	0x3f8022a1	1.0010568
142	0x3f807792	1.003649
143	0x3f7f8148	0.9980664
144	0x3f8082de	1.0039937
145	0x3f8038e3	1.001736
146	0x3f80174e	1.0007112
147	0x3f803aac	1.0017905
148	0x3f8035be	1.0016401
149	0x3f804bdc	1.002315
150	0x3f8006ea	1.000211
151	0x3f7fcac1	0.9991875
152	0x3f7f91ce	0.99831855
153	0x3f7fd8e3	0.9994032
154	0x3f7f08f4	0.99623036
155	0x3f804649	1.0021449
156	0x3f7f3869	0.9969545
157	0x3f7ffc2f	0.99994177
158	0x3f7fc634	0.9991181
159	0x3f80a8d7	1.0051526
160	0x3f800db7	1.0004185
161	0x3f800c83	1.0003818
162	0x3f80f3bf	1.0074385
163	0x3f7ff9cb	0.9999053
164	0x3f8017c6	1.0007255
165	0x3f7f8dcb	0.99825734
166	0x3f800138	1.0000372
167	0x3f80403f	1.0019606
168	0x3f7f52fc	0.99736
169	0x3f7f3660	0.99692345
170	0x3f7fb531	0.9988585
171	0x3f7f9302	0.9983369
172	0x3f801028	1.000493
173	0x3f7fd6e7	0.9993729
174	0x3f7f9df2	0.9985038
175	0x3f7f4da4	0.99727845
176	0x3f7faaed	0.9987019
177	0x3f805675	1.0026385
178	0x3f804537	1.0021123
179	0x3f800b49	1.0003444
180	0x3f807999	1.0037109
181	0x3f7f8390	0.99810123
182	0x3f7fa6ac	0.99863696
183	0x3f80399c	1.0017581
184	0x3f8017c9	1.0007259
185	0x3f7fdf73	0.9995033
186	0x3f7ffaf4	0.999923
187	0x3f8008e0	1.0002708
188	0x3f8058ff	1.002716
189	0x3f8034dc	1.0016131
190	0x3f7ff724	0.9998648
191	0x3f804f86	1.0024269
192	0x3f7feb24	0.9996817
193	0x3f802bf0	1.0013409
194	0x3f801c84	1.0008702
195	0x3f803588	1.0016336
196	0x3f7f0c8b	0.99628514
197	0x3f808dd3	1.0043281
198	0x3f7fa9c4	0.99868417
199	0x3f7f4569	0.99715286
200	0x3f7ffcef	0.9999532
201	0x3f800eaa	1.0004475
202	0x3f7ffe21	0.99997145
203	0x3f7feaea	0.99967825
204	0x3f80156e	1.000654
205	0x3f80401c	1.0019565
206	0x3f803faf	1.0019435
207	0x3f802f4b	1.0014433
208	0x3f80628e	1.0030077
209	0x3f7fc798	0.9991393
210	0x3f7f4328	0.9971185
211	0x3f80165f	1.0006827
212	0x3f7f9961	0.9984341
213	0x3f806b2d	1.0032707
214	0x3f800a38	1.0003119
215	0x3f801d72	1.0008986
216	0x3f7fb585	0.9988635
217	0x3f80470b	1.002168
218	0x3f80594f	1.0027255
219	0x3f806bee	1.0032938
220	0x3f7fb6c0	0.9988823
221	0x3f8027d7	1.0012158
222	0x3f8043c0	1.0020676
223	0x3f7faa96	0.9986967
224	0x3f80235d	1.0010792
225	0x3f7fe716	0.99961984
226	0x3f7f7e7f	0.9980239
227	0x3f808011	1.0039083
228	0x3f80266c	1.0011725
229	0x3f8017eb	1.0007299
230	0x3f7f3d57	0.9970297
231	0x3f7fff2c	0.99998736
232	0x3f806cea	1.0033238
233	0x3f801d99	1.0009032
234	0x3f80503a	1.0024483
235	0x3f7f998d	0.99843675
236	0x3f803b6a	1.0018132
237	0x3f7fb68a	0.9988791
238	0x3f801007	1.0004891
239	0x3f806ee0	1.0033836
240	0x3f801e6f	1.0009288
241	0x3f7f9b75	0.99846584
242	0x3f7f8119	0.9980636
243	0x3f800206	1.0000618
244	0x3f800323	1.0000957
245	0x3f7ff778	0.9998698
246	0x3f807837	1.0036687
247	0x3f7fe17e	0.9995345
248	0x3f80cfe9	1.0063449
249	0x3f801884	1.0007482
250	0x3f7f939f	0.99834627
251	0x3f806b5f	1.0032767
252	0x3f7f89fa	0.9981991
253	0x3f7ffb26	0.999926
254	0x3f8057b9	1.0026771
255	0x3f8008d8	1.0002699

model.0.bias f4 [1024]
0	0x38ce83ba	9.8473814e-05
1	0xbb633c57	-0.0034673417
2	0xb9a84e5a	-0.00032101833
3	0xbb79d189	-0.0038119277
4	0xba3bc755	-0.00071631867
5	0xbaa33430	-0.0012451466
6	0xb8daac02	-0.00010427089
7	0x39820f62	0.00024806993
8	0xbad1dcfb	-0.0016011292
9	0xba550ffd	-0.00081276876
10	0xbb05be72	-0.0020407704
11	0x3b052738	0.0020317566
12	0x3a9e4635	0.0012075367
13	0xbb658465	-0.003502154
14	0xbb93063d	-0.0044868276
15	0x3b1f0906	0.0024266853
16	0xbb1a4757	-0.0023541057
17	0xbb80c58f	-0.003929801
18	0xbbaa904a	-0.005205189
19	0x3b0deb0b	0.002165499
20	0x398c8247	0.00026799945
21	0xbabd145c	-0.0014425623
22	0x3b2b5ef7	0.0026149133
23	0xbb090530	-0.0020907633
24	0xba900b28	-0.0010989653
25	0x39df462e	0.00042586162
26	0xbb26957e	-0.0025418694
27	0xba52cfee	-0.0008041848
28	0x3b9fe402	0.0048794756
29	0xbb8332ea	-0.004003872
30	0x39e2344c	0.00043145043
31	0xbb284bdc	-0.0025679981
32	0x3b81de00	0.003963232
33	0xba0449b8	-0.00050463853
34	0xb8b033c0	-8.401973e-05
35	0xb8840139	-6.294478e-05
36	0x3a55c978	0.00081553264
37	0x3ab9d4c6	0.0014177791
38	0xbb115781	-0.00221774
39	0x39f6c443	0.00047067003
40	0xbafad14a	-0.0019135859
41	0x3b64ae7a	0.0034894035
42	0xbb310fcc	-0.0027017472
43	0x3b473d50	0.0030401535
44	0xbb2746e8	-0.002552444
45	0x3b5524ac	0.003252308
46	0xb8fe12c7	-0.000121151614
47	0xb9b224c2	-0.00033978192
48	0xbbd78e55	-0.0065782466
49	0xbb2534e9	-0.002520854
50	0xbad333db	-0.0016113477
51	0x3b34ef5c	0.002760849
52	0x3b6bfbb9	0.0036008193
53	0xbb37617a	-0.0027981685
54	0x3b61c61c	0.0034450358
55	0x3acfa55a	0.0015842125
56	0xbac12840	-0.0014736727
57	0xbb49ab3d	-0.0030772232
58	0xb97e4b13	-0.00024251295
59	0xbb2a3007	-0.0025968568
60	0xbb75e07e	-0.003751784
61	0x3b3514a1	0.0027630704
62	0x3a760491	0.0009384836
63	0xbaedd91e	-0.0018146371
64	0x3ae1aea9	0.001721819
65	0x3ae095e8	0.0017134519
66	0xbaea1c26	-0.0017861172
67	0xbb58a892	-0.003305946
68	0xb9bb76f8	-0.00035756058
69	0xba691d3c	-0.0008892601
70	0x3b171dbb	0.0023058492
71	0xbaaf5af2	-0.0013378544
72	0x3bb6c045	0.0055771195
73	0xbb4a494d	-0.0030866445
74	0xbb685964	-0.0035453672
75	0xba99c606	-0.0011731989
76	0x3a762da1	0.00093909545
77	0x384d631b	4.8968108e-05
78	0xbae9b2a4	-0.0017829728
79	0x3ad19e75	0.0015992658
80	0xba9e521a	-0.0012078912
81	0x37b61913	2.1707767e-05
82	0xbafe6b7c	-0.0019410695
83	0xbaa99e3a	-0.0012940832
84	0x3a9b4d27	0.0011848555
85	0xbb92539a	-0.0044655325
86	0x3b3511d8	0.0027629044
87	0x3b1802cd	0.0023195029
88	0xb8d66ba7	-0.00010224367
89	0x392b3b06	0.00016329819
90	0x3b89bc56	0.0042033596
91	0xbab75bff	-0.0013989209
92	0x3b38baa4	0.0028187418
93	0x3a120217	0.00055697694
94	0xbaaf35fe	-0.0013367531
95	0x3ae0f777	0.0017163594
96	0x3a399ff3	0.0007081024
97	0x3a925f80	0.0011167377
98	0xbaeee05e	-0.0018224826
99	0xba989a8c	-0.0011642738
100	0x3b3a0f88	0.0028390605
101	0xb9d8448c	-0.00041249802
102	0xbade1ef9	-0.0016946486
103	0x379ba159	1.8552573e-05
104	0xbb8184d9	-0.0039526043
105	0xbbb7e9c5	-0.0056125843
106	0xb9752ac1	-0.00023380948
107	0xbac5215d	-0.001503985
108	0xba2ffb57	-0.0006713173
109	0xbab54ecd	-0.0013832689
110	0x392a40f3	0.00016236659
111	0x3b88453d	0.0041586445
112	0xba72a807	-0.00092566054
113	0x3ad7519a	0.0016427517
114	0xbb355418	-0.0027668532
115	0xba7788a1	-0.00094426615
116	0xbb8a819f	-0.004226878
117	0xbaaa008b	-0.0012970133
118	0x3b8cfeb7	0.0043028253
119	0xbb0ec7ac	-0.0021786494
120	0x3a157f82	0.0005702899
121	0x3a0240b3	0.00049687474
122	0x3b71718f	0.0036841368
123	0x3b4215cc	0.0029615043
124	0x3a5d8336	0.0008450033
125	0x3a2150b2	0.0006153687
126	0x3a642f52	0.0008704561
127	0xb9da9847	-0.00041693656
128	0x3b150ea2	0.0022744318
129	0xbaeadf1e	-0.0017919277
130	0xbad8715d	-0.0016513277
131	0x3a62a8d6	0.00086463743
132	0x3b5fff14	0.0034179138
133	0x3a56de6f	0.00081965973
134	0xba4632ee	-0.00075606897
135	0xb9a1d496	-0.00030866702
136	0x3bc2e7a5	0.0059480243
137	0x39a82d83	0.00032077366
138	0x3af654a3	0.0018793534
139	0x3b33246d	0.0027334944
140	0x3b0dbcfc	0.0021627536
141	0xbb44d5d7	-0.0030034685
142	0x3a80b0fc	0.000981837
143	0x3b666e2d	0.0035160885
144	0x3b142452	0.0022604656
145	0x3bcd024a	0.0062563764
146	0xbadb699f	-0.0016739852
147	0xba9d3a07	-0.0011995443
148	0x3ab07e24	0.0013465327
149	0x3b656f6e	0.0035009044
150	0x3a223bff	0.00061887497
151	0xbb228552	-0.0024798703
152	0x3b6f95b8	0.0036557745
153	0xbb05311d	-0.0020323463
154	0x3a462e01	0.00075599557
155	0xbb0cdbc0	-0.0021493286
156	0x3b182dac	0.0023220582
157	0xba4b4062	-0.0007753429
158	0xb956d464	-0.00020487752
159	0x3aae7cde	0.001331236
160	0x3a8e86a5	0.0010873867
161	0x3a895f51	0.0010480677
162	0xbadf3a98	-0.0017031012
163	0xbb552507	-0.003252329
164	0xbaadbdb9	-0.0013255394
165	0x3b6f17a2	0.0036482592
166	0x3b2f4504	0.0026744017
167	0xbb0f28a2	-0.0021844287
168	0x3aad9ec5	0.001324617
169	0xbb0cd9cd	-0.0021492124
170	0xbb247c8b	-0.0025098647
171	0x3b91f4c1	0.004454226
172	0x3aa5bc8e	0.0012644695
173	0xba9d587b	-0.0012004519
174	0x3b3f84f6	0.0029223538
175	0xbb2d638f	-0.0026457047
176	0xbb94d767	-0.0045422795
177	0xbb11057b	-0.002212851
178	0xbb850889	-0.0040598554
179	0xbb37b927	-0.0028033943
180	0xba136b8d	-0.00056236313
181	0xba7fc0d2	-0.00097562105
182	0x3a30f54b	0.00067504187
183	0x3b542eab	0.003237645
184	0xbb8a0525	-0.004212039
185	0x3b090434	0.0020907046
186	0xbb4e285d	-0.0031457164
187	0xbaab81c9	-0.0013084944
188	0xbb6cc78e	-0.0036129686
189	0x3a2d847d	0.00066191686
190	0xbb210ad1	-0.0024573097
191	0x3b8ce7de	0.0043001017
192	0xbaf80a73	-0.0018924013
193	0x3b67c0b3	0.003536266
194	0x3ab1a26e	0.0013552436
195	0xba90318a	-0.0011001092
196	0xba9b4507	-0.0011846133
197	0xbb353020	-0.0027647093
198	0xbb6d0e47	-0.003617184
199	0xbb8b0773	-0.0042428314
200	0x39b51266	0.00034536718
201	0xbb6e65fb	-0.0036376703
202	0x3a60543e	0.0008557475
203	0xbafd27e3	-0.0019314255
204	0xbb3c9f50	-0.002878148
205	0x3a9d1a58	0.0011986
206	0x3b8ad188	0.004236404
207	0x399b0cdf	0.00029573494
208	0xba0b3512	-0.00053103373
209	0xbb582398	-0.00329802
210	0x3abf21c8	0.0014582211
211	0x3b0b0b20	0.0021216348
212	0x3b41fd05	0.0029600274
213	0xba061552	-0.00051148713
214	0xbb243df6	-0.0025061346
215	0xbb800dd3	-0.003907898
216	0x3aeb88c7	0.001796984
217	0x3a546713	0.00081025175
218	0x3ad36ff6	0.001613139
219	0xba17c95e	-0.0005790199
220	0x3b7444c6	0.0037272437
221	0x3b8936d5	0.0041874447
222	0x39a2e4bf	0.00031069477
223	0xbb42c42d	-0.002971898
224	0xba40dbce	-0.0007356972
225	0xbb8239a8	-0.0039741583
226	0xb9c65989	-0.00037832212
227	0xbb20e701	-0.0024551752
228	0x3afe4803	0.0019400123
229	0xbac95c41	-0.0015362577
230	0xbb5e1370	-0.0033886097
231	0xba27c8b8	-0.0006400454
232	0x3a581855	0.0008243372
233	0x39a078fb	0.00030607716
234	0xba935c11	-0.0011242648
235	0xbb682399	-0.0035421608
236	0x3ab7a142	0.001400985
237	0xb996583d	-0.00028675972
238	0xbab8c2a7	-0.0014096097
239	0xbb0b789a	-0.00212816
240	0x3b8f66f1	0.0043762852
241	0x3af5d871	0.0018756521
242	0x3b3217b2	0.0027174768
243	0xba0576e8	-0.0005091266
244	0xbaf507f8	-0.0018694391
245	0xb92b32d0	-0.0001632676
246	0x3b5e36d9	0.0033907203
247	0x3b2c603a	0.0026302473
248	0xbb85852b	-0.0040747127
249	0x3b22b1e4	0.002482527
250	0xbad153a7	-0.0015970365
251	0xba1f815c	-0.00060846447
252	0x38a7a7fd	7.994471e-05
253	0xbae13bd0	-0.0017183963
254	0x3b1f2b20	0.002428718
255	0xbb093a94	-0.0020939456

model.0.running_mean f4 [1024]
0	0xbd67a2ba	-0.056551673
1	0xbc8b7240	-0.017022252
2	0x3be72326	0.0070537506
3	0xbcd6a6ef	-0.026202647
4	0x3b487dba	0.0030592517
5	0xbc6de837	-0.014520696
6	0x3d21b8ec	0.039482996
7	0xbb91a68e	-0.0044449037
8	0xbb9953d7	-0.004679184
9	0x3d074a98	0.033030123
10	0xbc3620e3	-0.011116239
11	0x3b9b1252	0.0047324086
12	0xbb951e51	-0.004550733
13	0xbc517920	-0.012785226
14	0x3b9055f2	0.0044047767
15	0x3c2d3c52	0.0105734635
16	0xbd13db60	-0.036097884
17	0xbcc7caec	-0.024388753
18	0xba298084	-0.00064659887
19	0x3c0cad22	0.0085862
20	0x3c802926	0.015644621
21	0xb92d885c	-0.00016549363
22	0x3c9741ab	0.01846393
23	0x3d92f1c4	0.071750194
24	0x3ca5e2e3	0.02024979
25	0x3cf0bb59	0.02938621
26	0xbcd2bc64	-0.025724597
27	0x3c3baffc	0.011455532
28	0xbbcfd3aa	-0.006342371
29	0xbc4486bd	-0.011995015
30	0x3cd4fb3a	0.0259987
31	0xbc7c99b8	-0.015417509
32	0xbc0a6bb0	-0.008448526
33	0x3c11ed61	0.008906693
34	0xbb63cda5	-0.0034760025
35	0x3c8061d3	0.015671646
36	0xbc336141	-0.01094848
37	0x3becd1d5	0.0072271624
38	0xbcdfd297	-0.027322097
39	0xbbc21bde	-0.005923732
40	0x3c454f9e	0.012042908
41	0x3cd4833f	0.02594149
42	0xba0ffefe	-0.0005493014
43	0xbd3c44d9	-0.045964096
44	0xbcc3a61c	-0.023882918
45	0x3b62bec1	0.0034598561
46	0xba2c2306	-0.0006566498
47	0xbcc2e028	-0.023788527
48	0xbc3a32f7	-0.01136469
49	0x3daaef1c	0.08346388
50	0xbccfc7c5	-0.025363812
51	0xbc8794bb	-0.016550412
52	0xbc9f2595	-0.0194271
53	0x3c0f8652	0.008760052
54	0x3c134106	0.008987671
55	0xbc09e6f2	-0.008416878
56	0x3d03600d	0.032074023
57	0x3c1cd387	0.009571916
58	0xbbd86121	-0.0066033755
59	0xbc245782	-0.010030629
60	0x3c313a59	0.010817134
61	0xbcb1349b	-0.02163153
62	0xbc48467c	-0.012223836
63	0x3cb7a23d	0.022416228
64	0x3a36f58e	0.00069793395
65	0xbc72090f	-0.014772668
66	0x3b99dc20	0.0046954304
67	0x3be2b786	0.0069188504
68	0x3b17ab5c	0.002314291
69	0x3bca9532	0.0061823362
70	0x3d1b726d	0.03795092
71	0x3c44e472	0.012017356
72	0xbc83bc14	-0.016080894
73	0x3d310046	0.04321315
74	0x3cf1667d	0.029467816
75	0xbc4b9a31	-0.012426899
76	0x3cd2e1cc	0.025742434
77	0xbc8f2b76	-0.017476778
78	0x3c8b6623	0.017016476
79	0xbc960f28	-0.018317774
80	0xbbf78c6e	-0.0075545823
81	0x3cdf332a	0.027246077
82	0xbd508a06	-0.05091288
83	0x3cab3924	0.02090127
84	0xbc8dffde	-0.017333921
85	0xbd2544d4	-0.040348843
86	0x3cc1816e	0.023621287
87	0xbc9a07f6	-0.018802624
88	0x3c3c4cfc	0.011492964
89	0x3cb64474	0.022249438
90	0xbcc1bc76	-0.023649435
91	0xbbb6606b	-0.005565693
92	0xbc453e46	-0.012038773
93	0x3c50c8b6	0.012743166
94	0x3c452731	0.01203327
95	0x3c944316	0.018098395
96	0x3c0a0440	0.008423865
97	0x3d6e369a	0.05815754
98	0xbc0c9906	-0.0085814055
99	0x3cb82e83	0.022483116
100	0x3c690911	0.014223353
101	0x3cd5b56e	0.026087489
102	0xbacf4792	-0.0015814176
103	0x3c3a0b85	0.0113552855
104	0x3d9c42b9	0.07629914
105	0x3c7dfd73	0.0155023215
106	0x3b2cd11c	0.0026369756
107	0xbcbb3bf9	-0.022855746
108	0xbcf5605d	-0.029953176
109	0x3d4e31c0	0.050340414
110	0xbc32a34e	-0.010903193
111	0x3b2b244c	0.0026114164
112	0x3d833aa0	0.06407666
113	0xbb4b815a	-0.0031052441
114	0xbb9ff62f	-0.0048816423
115	0x3c970b66	0.018438052
116	0xbad16622	-0.0015975873
117	0xbbe47385	-0.006971779
118	0x3aa16316	0.0012312855
119	0xbbe8b63c	-0.007101802
120	0xbcac0c1d	-0.02100187
121	0xbc10311b	-0.00880077
122	0xbc826820	-0.015918791
123	0xbc429261	-0.01187572
124	0xbd4bbfa0	-0.049743295
125	0xbcbadde7	-0.02281089
126	0xbc320c0f	-0.010867133
127	0xbcadc0e7	-0.021210147
128	0x3cabb784	0.02096153
129	0xbc99e165	-0.018784234
130	0xbd8374a4	-0.06418732
131	0xbc6d0a0b	-0.014467726
132	0x3c8af3d9	0.016961979
133	0xbb588e94	-0.0033043968
134	0xba41ff2e	-0.00074003905
135	0xbceae3e1	-0.028673114
136	0x3d2e4f7b	0.042556267
137	0x3cbce50e	0.02305844
138	0xbb2938c8	-0.0025821198
139	0xbcb3b87a	-0.021938551
140	0x3b5261e4	0.0032101804
141	0xbd2ae763	-0.041724574
142	0xbc3206ce	-0.01086588
143	0xbba8d761	-0.0051526283
144	0xbaec1962	-0.0018012936
145	0xbc2a869b	-0.010408069
146	0x3d397656	0.04527887
147	0xbcb829ea	-0.022480924
148	0xbd07f3df	-0.033191558
149	0x3b0aff7e	0.0021209414
150	0xbbf61b1e	-0.007510557
151	0x39a71806	0.0003187062
152	0x3be1a01d	0.006885542
153	0xba4b9146	-0.0007765483
154	0x3c84424c	0.016144894
155	0x3cdb25be	0.026751395
156	0x3cde37eb	0.027126273
157	0xbc099fc3	-0.008399907
158	0xbb94413c	-0.004524378
159	0x3bd47d45	0.00648466
160	0x3abda4c2	0.0014468657
161	0x3ce26a26	0.027638506
162	0x3c824976	0.01590417
163	0x3b673995	0.0035282124
164	0xbbb1e7fa	-0.005429265
165	0xbb8fe9e0	-0.0043918937
166	0xbd63144b	-0.055439275
167	0xbbd9d1ab	-0.006647309
168	0xbd1a64e1	-0.037693862
169	0x3cdb348a	0.026758451
170	0x3ce32c3c	0.027731054
171	0x3cf9c13e	0.030487653
172	0x3ccec29a	0.025239278
173	0xbbf40b83	-0.0074476614
174	0x3cb98d95	0.02265052
175	0x3c2ac70a	0.010423431
176	0xbc3d6e45	-0.011561935
177	0xbc63d922	-0.013906749
178	0xbc925d92	-0.017866883
179	0xbb4e6a56	-0.0031496487
180	0xbd01f17b	-0.031724434
181	0xbc89b4d9	-0.016809868
182	0xbbc13c42	-0.005897076
183	0x3c33baf5	0.010969867
184	0xbc381a1e	-0.011236696
185	0x3ccd1c81	0.025038006
186	0x3d3e2b83	0.046428215
187	0xbc713d9b	-0.014724161
188	0xbc874ec4	-0.01651705
189	0xbd08043e	-0.03320717
190	0x3d1d070a	0.03833679
191	0x3c4fa55d	0.012673703
192	0x3c72b871	0.014814482
193	0x3cfe1363	0.031015104
194	0x3c3b6700	0.011438131
195	0x3c3ca55f	0.011514037
196	0xbc331306	-0.0109298285
197	0xbb8705da	-0.0041205706
198	0x3caa1d66	0.020765971
199	0x3d06c217	0.032899942
200	0x3bc88cfe	0.006120323
201	0xbc471487	-0.01215089
202	0x3b048c97	0.00202254
203	0xbccdf419	-0.025140809
204	0xbcc99dbf	-0.024611352
205	0x3bf6a490	0.0075269416
206	0xbc379400	-0.01120472
207	0xbc58d100	-0.013233423
208	0x3c8d075e	0.017215427
209	0xbc19047c	-0.009339448
210	0xbd09f0da	-0.03367696
211	0xbcb40f1d	-0.021979863
212	0x3c68453c	0.014176663
213	0x3cd41dc0	0.025893092
214	0x3bea8e78	0.007158097
215	0xbc6db606	-0.01450873
216	0x3c4dbe09	0.012557515
217	0x3cd6fc3e	0.026243325
218	0xbbdca023	-0.006732957
219	0xbbf2afcf	-0.007406212
220	0x3c2156dd	0.00984737
221	0xbc98ff9c	-0.018676572
222	0xbd486b06	-0.04893019
223	0xbcafca79	-0.021458851
224	0x3caf61ca	0.021408934
225	0x3c50e964	0.012750957
226	0x3b44b266	0.003001356
227	0xbc9eaefb	-0.019370547
228	0x3b4124cd	0.0029471398
229	0xbca5394d	-0.020168925
230	0xbc14fb69	-0.009093144
231	0xbd042d3b	-0.032269698
232	0xbb94c1f2	-0.0045397216
233	0xbcef6606	-0.029223453
234	0xbc51fa5c	-0.012816038
235	0xbc910831	-0.017704101
236	0xbcf40ea4	-0.029792137
237	0x3d0d130a	0.034441985
238	0x3cab2758	0.020892784
239	0xbc8e8064	-0.017395206
240	0x3d03707c	0.032089695
241	0xbb001ec7	-0.0019549595
242	0xbbaf8f89	-0.005357687
243	0x3cd0030d	0.02539208
244	0xbcb5d1aa	-0.022194702
245	0xba10a940	-0.0005518384
246	0x3c374df3	0.011188018
247	0x3cae7578	0.021296248
248	0x39ce35ec	0.00039331557
249	0x3ce0b18c	0.027428411
250	0xbc9195ed	-0.017771685
251	0x3cc3e6db	0.023913791
252	0x3c972130	0.018448442
253	0x3b15433c	0.002277567
254	0x3c81d509	0.015848653
255	0x3cb694bc	0.022287719

model.0.running_var f4 [1024]
0	0x3915fdad	0.00014304249
1	0x392c8078	0.00016451057
2	0x3917b67f	0.00014468467
3	0x390ce128	0.00013435318
4	0x39238933	0.00015596002
5	0x39410461	0.00018407546
6	0x3920eb15	0.00015346364
7	0x38dcffd4	0.00010538069
8	0x3913a7c0	0.00014081504
9	0x392b5620	0.00016339915
10	0x39295568	0.00016148912
11	0x393d822c	0.00018072937
12	0x393e5b8f	0.0001815392
13	0x391195b5	0.00013884048
14	0x39110e8c	0.00013833697
15	0x38fcf9c5	0.000120628196
16	0x38f293d0	0.000115669915
17	0x392f8f0c	0.0001674259
18	0x3948a103	0.00019133468
19	0x391cf952	0.00014970198
20	0x393d26ed	0.00018038946
21	0x3914a352	0.00014175221
22	0x38e8321f	0.00011071958
23	0x3953dc24	0.00020204537
24	0x390b1e9e	0.00013267479
25	0x39340819	0.00017169154
26	0x39489fcd	0.00019133017
27	0x38fba1b3	0.000119987315
28	0x39398f6b	0.00017696402
29	0x39c0a6fd	0.0003674551
30	0x396b23e4	0.00022424717
31	0x394581dc	0.0001883576
32	0x393286e9	0.00017025661
33	0x38f62679	0.0001173736
34	0x3957b4df	0.00020571378
35	0x394b14a2	0.00019367275
36	0x390b2532	0.0001326993
37	0x38a775f7	7.985153e-05
38	0x38fe7087	0.00012132624
39	0x39960aac	0.0002861818
40	0x398f46e6	0.0002732791
41	0x391eb20d	0.00015134383
42	0x394ba7e4	0.00019422133
43	0x39262dc2	0.0001584804
44	0x3947cfd3	0.0001905554
45	0x396732de	0.00022048826
46	0x396d9e5d	0.00022661076
47	0x3958df21	0.00020682487
48	0x390dd2e0	0.00013525365
49	0x39c02072	0.00036645267
50	0x3971d18b	0.00023061612
51	0x398d4bf3	0.00026950202
52	0x3943ec02	0.00018684569
53	0x3958df2a	0.000206825
54	0x391032f5	0.00013751893
55	0x3918dd07	0.00014578189
56	0x3983c177	0.0002513041
57	0x38e31901	0.00010828861
58	0x3908339c	0.00012989197
59	0x3918bc17	0.00014565919
60	0x392e821b	0.00016642401
61	0x39599910	0.00020751753
62	0x3999b438	0.00029316708
63	0x395a2ec6	0.00020807525
64	0x390944a5	0.0001309091
65	0x38f2eb76	0.00011583317
66	0x392ef257	0.00016684212
67	0x3912554e	0.00013955423
68	0x3911cb26	0.00013903956
69	0x393a6b69	0.00017778356
70	0x3981f0e1	0.00024784266
71	0x3962b6f7	0.00021621199
72	0x3976250b	0.00023474188
73	0x394b6c5e	0.00019399959
74	0x396c4c43	0.00022535124
75	0x39542287	0.00020230758
76	0x38df3cf6	0.000106448235
77	0x39410e7b	0.00018411309
78	0x3920365c	0.0001527904
79	0x394fa525	0.0001980258
80	0x39404481	0.00018336067
81	0x38d07320	9.9396566e-05
82	0x3964319c	0.00021762255
83	0x390ee787	0.00013628426
84	0x39036a20	0.00012532668
85	0x39b1afff	0.00033891198
86	0x393569b9	0.0001730089
87	0x398c6672	0.0002677921
88	0x3900129e	0.00012213967
89	0x3977d573	0.00023635272
90	0x39bb81ba	0.00035764073
91	0x395da926	0.00021139215
92	0x39142c65	0.00014130918
93	0x397c0856	0.00024035698
94	0x3921f266	0.00015444457
95	0x3941a9ba	0.00018469142
96	0x3930a151	0.00016844763
97	0x392b134b	0.00016315018
98	0x3947b765	0.00019046439
99	0x39b2240f	0.0003397767
100	0x3909e7c1	0.00013151673
101	0x38fcb945	0.000120508055
102	0x3954e81a	0.0002030436
103	0x38ea0347	0.000111586
104	0x3a3a8d4c	0.0007116392
105	0x39324761	0.00017001994
106	0x392acf8f	0.00016289785
107	0x39605889	0.00021395287
108	0x393c5164	0.00017959398
109	0x392c1123	0.00016409582
110	0x393bae44	0.00017898629
111	0x39080dc5	0.000129751
112	0x394ca67c	0.00019516976
113	0x39603408	0.00021381688
114	0x39766196	0.00023496742
115	0x3990e088	0.0002763311
116	0x39064e7a	0.0001280847
117	0x392ea90c	0.00016656908
118	0x3968bb59	0.00022195037
119	0x39978e4f	0.00028906993
120	0x396c10e5	0.00022513008
121	0x392aff36	0.00016307537
122	0x39343807	0.0001718701
123	0x3940c9a9	0.00018385671
124	0x3918b079	0.00014561591
125	0x38dada2e	0.00010435689
126	0x38d26068	0.000100315374
127	0x3904b15f	0.00012654577
128	0x39485cc0	0.00019108038
129	0x399d8f49	0.0003005213
130	0x395c26cb	0.00020995286
131	0x38ff1640	0.00012163492
132	0x3942cf72	0.00018578561
133	0x390576ff	0.00012728198
134	0x39124f86	0.0001395327
135	0x394d00f2	0.00019550676
136	0x398757d8	0.00025814655
137	0x3921a11e	0.00015414177
138	0x393de1a1	0.00018108498
139	0x3926b3ea	0.00015898017
140	0x390f0ce0	0.00013642339
141	0x391cce63	0.00014954204
142	0x3925d24f	0.00015813972
143	0x3921c4cd	0.0001542747
144	0x39b14e7f	0.00033818555
145	0x397535e1	0.00023385092
146	0x39439ac9	0.00018654311
147	0x39260b4c	0.00015835202
148	0x3985f2f4	0.0002554875
149	0x393baf3b	0.00017898988
150	0x398471b5	0.0002526172
151	0x392ae154	0.00016296405
152	0x38fa7763	0.000119431665
153	0x3982b926	0.0002493348
154	0x39046572	0.00012626292
155	0x3944853b	0.00018741649
156	0x3918ede5	0.00014584472
157	0x3919ee83	0.0001468007
158	0x39a01ff8	0.00030541397
159	0x392d8d56	0.00016551217
160	0x3921d42e	0.000154332
161	0x39136136	0.00014055226
162	0x38f2f4a1	0.00011585025
163	0x390b30df	0.00013274279
164	0x390634a6	0.00012798849
165	0x38eacdba	0.00011196309
166	0x3a5f554f	0.0008519487
167	0x39054283	0.00012708646
168	0x39259676	0.00015791677
169	0x39452d29	0.00018804208
170	0x3926706f	0.00015872878
171	0x392bfdc3	0.00016402364
172	0x393d2df1	0.00018041559
173	0x390760ea	0.00012910707
174	0x3984ffeb	0.00025367676
175	0x395c4b49	0.00021008881
176	0x390a69da	0.00013200138
177	0x3911b5da	0.00013896023
178	0x39083972	0.00012991371
179	0x398dde3a	0.00027059187
180	0x394ac2cb	0.00019336787
181	0x39604e15	0.00021391393
182	0x398840cf	0.00025988228
183	0x39463188	0.00018901203
184	0x39163e27	0.00014328268
185	0x38fd83ca	0.00012088528
186	0x3984c493	0.0002532346
187	0x3935cbe5	0.00017337462
188	0x393794ee	0.0001750772
189	0x3918d2a5	0.00014574321
190	0x395d1064	0.00021082308
191	0x393dddba	0.00018107044
192	0x39864e1d	0.0002561667
193	0x38fd2110	0.000120701385
194	0x3913cdab	0.0001409563
195	0x395affb1	0.00020885353
196	0x3952b475	0.00020094386
197	0x39304d48	0.00016813457
198	0x39464ebd	0.00018912084
199	0x391efb8a	0.0001516176
200	0x39176a69	0.00014440123
201	0x39370d12	0.00017457109
202	0x393eebab	0.00018207605
203	0x390e1402	0.00013549629
204	0x39244f90	0.00015669898
205	0x392a43ae	0.00016237676
206	0x390bfb01	0.00013349579
207	0x3929781e	0.00016161843
208	0x392a6470	0.00016249879
209	0x3921662f	0.00015392223
210	0x39420c39	0.00018505835
211	0x39183c0c	0.00014518219
212	0x391baadc	0.00014845602
213	0x3937b5e3	0.00017519998
214	0x3a15041a	0.000568451
215	0x38f047fa	0.000114574985
216	0x38f77bdd	0.00011800949
217	0x3911ac5b	0.00013892485
218	0x38eff397	0.0001144178
219	0x39418fd7	0.00018459499
220	0x393993d6	0.00017698048
221	0x3920527c	0.00015289517
222	0x39173356	0.00014419606
223	0x393b37e8	0.00017854536
224	0x39426954	0.0001854052
225	0x392709db	0.00015930033
226	0x390224bd	0.00012411452
227	0x38f8153d	0.000118295175
228	0x38e467f9	0.000108912536
229	0x3924ccea	0.00015716595
230	0x39120b7d	0.00013927925
231	0x39cc76b3	0.0003899835
232	0x394653c7	0.00018913961
233	0x395c86c0	0.00021031033
234	0x38e25253	0.00010791854
235	0x38e8a6f2	0.00011093718
236	0x392a16c8	0.0001622095
237	0x39128035	0.00013971406
238	0x391188fd	0.0001387931
239	0x3913dce1	0.00014101296
240	0x392ab11b	0.0001627844
241	0x391ee64a	0.00015153844
242	0x395a6a34	0.00020829664
243	0x393d2791	0.00018039184
244	0x3953ddf3	0.0002020521
245	0x3a0415c9	0.00050386466
246	0x39019d4a	0.00012360993
247	0x39009d55	0.00012265642
248	0x39173e70	0.00014423742
249	0x390a45dc	0.0001318673
250	0x391eb547	0.00015135585
251	0x39113d03	0.00013851006
252	0x393e7b57	0.0001816576
253	0x38e8bf94	0.00011098306
254	0x39211bf8	0.00015364576
255	0x3915dac1	0.0001429124

model.1.weight f4 [32, 1024]
0	0xbaa5db7f	-0.0012653916
1	0xbc5c405d	-0.01344308
2	0x3c0d73c8	0.008633561
3	0xbc5efe6b	-0.013610463
4	0x3ca37d0e	0.019957092
5	0xbc9e1d1e	-0.019300994
6	0x3c49bf3b	0.012313659
7	0xbcb14ce9	-0.021643119
8	0x3b554cd5	0.0032547016
9	0x3ced069a	0.028933812
10	0x3baaf19a	0.0052167894
11	0x3c22bc64	0.009932611
12	0x3c65198b	0.013983141
13	0x3c6c3ee5	0.014419292
14	0xbcfecaa0	-0.031102479
15	0x3cdea731	0.027179332
16	0x3c9015df	0.017588554
17	0xbce8359a	-0.028345872
18	0xbcb3a29c	-0.021928124
19	0x3c9a0b70	0.018804282
20	0x3cc55ca2	0.024092022
21	0xbc94343b	-0.018091312
22	0xbc109582	-0.008824708
23	0xbcd2c0c2	-0.02572668
24	0x3c5280e6	0.012848115
25	0xbbc9bfea	-0.006156911
26	0x3b200e12	0.002442245
27	0xbc6f8154	-0.014618237
28	0x3ce3f77f	0.027827976
29	0xbb9c109b	-0.0047627217
30	0xbc77023d	-0.015076217
31	0xbc9b0555	-0.018923441
32	0xbbd66bd5	-0.0065436163
33	0xbb450943	-0.0030065335
34	0x3af0bcd0	0.0018366817
35	0xbcb2d962	-0.021832172
36	0xbc4e9543	-0.012608829
37	0x3c82bb70	0.015958518
38	0x3cae194c	0.021252297
39	0x3cb8a8f4	0.0225415
40	0xbc53afd6	-0.0129203405
41	0xbca3f30f	-0.02001336
42	0xbce32a99	-0.027730273
43	0x3bfbaef4	0.007680768
44	0x3c26d858	0.010183416
45	0x3be3c863	0.006951378
46	0x3ae66bf9	0.0017579786
47	0xbd000b45	-0.031260747
48	0xbcef890b	-0.029240152
49	0x3bf14ded	0.007364026
50	0xbc24011d	-0.010010031
51	0xbc29b150	-0.010357216
52	0x3c5a866e	0.013337715
53	0xbcbba576	-0.022906046
54	0xbc34c83e	-0.01103407
55	0x3c57428d	0.013138426
56	0xbb8f7aba	-0.004378644
57	0xbc612d18	-0.013743661
58	0x3bf03a14	0.007331142
59	0xbc8e129d	-0.01734286
60	0x389dcbe6	7.5243224e-05
61	0x3c3915a8	0.011296667
62	0xba462088	-0.0007557948
63	0xbcb4f06c	-0.022087298
64	0x3cc24b26	0.023717474
65	0xbcbcc094	-0.023041047
66	0xbbca13e6	-0.006166923
67	0xbc068c24	-0.008212123
68	0xbc2c45e4	-0.01051471
69	0x3bc17152	0.0059034014
70	0xbc8e6184	-0.017380483
71	0xbcdb21f9	-0.026749598
72	0x3cc0b67e	0.023524519
73	0xbbdfdbdf	-0.0068316306
74	0xbbbaaf72	-0.0056971842
75	0xbc4b5e62	-0.012412639
76	0x3b94d42e	0.0045418954
77	0x3cd788a8	0.02631028
78	0xbbc681f9	-0.0060579744
79	0xbc82eebd	-0.01598298
80	0xbc596ae0	-0.01327011
81	0x3c05de32	0.008170651
82	0x3a9a66aa	0.0011779864
83	0xbc96d3d6	-0.018411558
84	0x3aeb783a	0.0017964907
85	0xbc9d67cf	-0.019214539
86	0x3cadedb2	0.021231506
87	0x3cf3e1e1	0.029770793
88	0x3c277385	0.010220413
89	0xbc883fa8	-0.016631916
90	0xbc895e80	-0.016768694
91	0xbc67b455	-0.014142116
92	0x3ca73910	0.020412952
93	0xbc2c6ec3	-0.0105244545
94	0xbcf47c8b	-0.029844543
95	0x3c653300	0.01398921
96	0xbc43cc80	-0.011950612
97	0xbbd9fdf0	-0.006652586
98	0xbcfb0fd6	-0.0306472
99	0x3ce242d4	0.027619757
100	0xbc831121	-0.015999379
101	0x3b652909	0.0034967086
102	0xbc8a3bb6	-0.016874176
103	0x3c547849	0.012968131
104	0xbc3ca96d	-0.011515004
105	0x3c64c092	0.013961928
106	0xbce7e8d0	-0.028309256
107	0xbcc356d1	-0.023845108
108	0x3bf4c6e3	0.007469998
109	0xbacf2731	-0.0015804527
110	0xbcd82e7f	-0.026389359
111	0x3cc4b916	0.024014037
112	0x3c9b5b6d	0.018964494
113	0xbbd49c1e	-0.006488337
114	0xbce6eebe	-0.028190013
115	0x3c3da0d8	0.011573993
116	0xbd066b75	-0.032817323
117	0xbb011e15	-0.0019701768
118	0xba97a1f7	-0.0011568655
119	0xbcf01175	-0.0293052
120	0xbc9f9838	-0.019481763
121	0x3c71375b	0.01472267
122	0xbb21b135	-0.0024672274
123	0x3cf7ad43	0.030233985
124	0xbd05d953	-0.03267796
125	0xbbbd61af	-0.005779467
126	0x3c3a324c	0.011364531
127	0x3cc5b732	0.024135206
128	0x3c5f20c3	0.013618651
129	0x3c09e80d	0.008417142
130	0xbcd9a016	-0.026565593
131	0x3c92e6f5	0.017932395
132	0xbbd39c3b	-0.006457833
133	0x3cd9bc4c	0.026579045
134	0xbc92b6ef	-0.017909495
135	0x3b6c192f	0.0036025753
136	0x3ccb266f	0.0247986
137	0x3ccd603f	0.025070308
138	0x3c90bd5e	0.017668422
139	0x3c9b38db	0.01894801
140	0x3ca9f50d	0.020746732
141	0x3c8be3d5	0.017076412
142	0xbbec25bb	-0.0072066463
143	0x3cb96814	0.022632636
144	0x3ce63625	0.02810199
145	0x3c9fa69c	0.019488625
146	0xbcda332f	-0.026635734
147	0xbc3fdd7a	-0.011710519
148	0xbcad93e9	-0.021188693
149	0x3cc6adfa	0.02425288
150	0x3c11e77a	0.008905286
151	0xbcc5ee80	-0.024161577
152	0xbb9600b1	-0.004577719
153	0x3c85072a	0.016238768
154	0xbc06407c	-0.008194085
155	0x3bc3fcb6	0.005981053
156	0xbc2ec896	-0.010667941
157	0x3c46afcc	0.012126874
158	0x3c13a6fb	0.009011979
159	0xbd04cbf3	-0.032421064
160	0x3bad2c9c	0.005284859
161	0x3c70ca44	0.014696661
162	0x3c9c4d59	0.019079851
163	0xbc86589a	-0.01639967
164	0xbcac5990	-0.0210388
165	0x3cae32ad	0.021264398
166	0x3c7b7d2a	0.015349666
167	0xbca4b6e8	-0.020106748
168	0xbc8e7b14	-0.017392673
169	0xbcd96ade	-0.026540216
170	0xbc7a7253	-0.015286046
171	0x3ce6bf23	0.028167313
172	0x3bc277a8	0.0059346743
173	0xbccc77ec	-0.024959527
174	0x3ce4eda4	0.027945347
175	0xbc7a519f	-0.015278249
176	0xbcc2ae67	-0.023764802
177	0xbc9ef1a4	-0.019402333
178	0xbcda5a21	-0.026654305
179	0xbce2cc47	-0.027685298
180	0xbc93e4dc	-0.018053465
181	0xbc8a237c	-0.016862623
182	0xbc51ed38	-0.012812905
183	0x3c31526e	0.010822875
184	0xbc85d332	-0.016336057
185	0x3c317c59	0.010832869
186	0xbcb4b30a	-0.022058029
187	0x3cfe4539	0.031038867
188	0xbcc3c9d2	-0.023899946
189	0xbcb6b29e	-0.022301968
190	0x3c7337fa	0.014844889
191	0x3c9b1c1f	0.018934308
192	0xbc787dd9	-0.015166723
193	0xbc1fd627	-0.009755648
194	0x3cf3603d	0.029708976
195	0x3c68d88c	0.014211785
196	0xb98e9e32	-0.00027202215
197	0xbb6206d2	-0.0034488929
198	0xbc3385cd	-0.010957194
199	0xbcc80cb9	-0.02442013
200	0xbc933010	-0.017967254
201	0xbc56696c	-0.013086658
202	0x3ae3c7ab	0.0017378231
203	0xbb959793	-0.004565188
204	0xbcf3b4e0	-0.029749334
205	0xbc887901	-0.016659262
206	0x3ca67222	0.020318095
207	0xbc8e9e3c	-0.017409436
208	0xbc10a792	-0.008829014
209	0x3c679f7d	0.014137146
210	0x3c83c447	0.016084803
211	0x3ccf6a50	0.025319248
212	0xbc821f25	-0.015883991
213	0xbc089237	-0.008335642
214	0xbc129232	-0.0089459885
215	0xbc718428	-0.014740981
216	0x3ccc1645	0.024912963
217	0xbc2d651c	-0.010583188
218	0x3c5bc89e	0.01341453
219	0xbbf901e5	-0.007599103
220	0x3cb603e5	0.022218654
221	0x3c391d7b	0.011298533
222	0xb9978847	-0.000289025
223	0x3c10040a	0.0087900255
224	0xbc9c762b	-0.019099316
225	0xbbc94dbe	-0.006143301
226	0x3ccee115	0.025253812
227	0xbd031b0e	-0.032008223
228	0xbc9220e5	-0.017837951
229	0xbcfa04b6	-0.030519824
230	0xbc4c2eea	-0.012462357
231	0xbc6cce98	-0.014453553
232	0xbbe340ee	-0.0069352305
233	0x3cc39dc9	0.023878949
234	0xbcb59642	-0.022166375
235	0xbcaefd5e	-0.02136105
236	0x3cefa903	0.029255396
237	0x3b835ca7	0.0040088478
238	0xbc4d598f	-0.012533559
239	0xbb54ffb5	-0.0032501046
240	0x3cef1218	0.029183432
241	0xbb8522b4	-0.004062975
242	0x3cb2fb9a	0.021848489
243	0xbca44140	-0.020050645
244	0xbc939a00	-0.018017769
245	0x3b9b55b3	0.0047404408
246	0x3ccc20b4	0.024917938
247	0xbc0264d1	-0.007958607
248	0xbc80b83a	-0.015712846
249	0x3c864d56	0.016394299
250	0xbc952a11	-0.018208535
251	0xbcd7feac	-0.026366554
252	0xbcbc45a2	-0.022982422
253	0x3c81189e	0.015758809
254	0x3cded7a6	0.027202439
255	0x3cd6bcf5	0.026213149

model.1.bias f4 [32]
0	0xbc075c5f	-0.008261769
1	0xbbf3ad75	-0.007436449
2	0x3c51281e	0.012765912
3	0x3c5d4975	0.013506283
4	0xbce59155	-0.028023401
5	0xbcee1905	-0.029064665
6	0xbcbc1d8d	-0.02296331
7	0x3c8370bb	0.016044965
8	0xbc14dff6	-0.0090866
9	0x3c26bf10	0.010177389
10	0x3cc07172	0.023491595
11	0x3cfc06a9	0.030764895
12	0xbca79dcd	-0.020460987
13	0x3c8cd7b6	0.017192703
14	0x3d0fddc5	0.035123605
15	0xbcb5f6ff	-0.022212503
16	0xbc5f2aef	-0.013621076
17	0xbc68627f	-0.01418364
18	0xbb417e14	-0.0029524611
19	0x3c8b3238	0.01699172
20	0x3c8575da	0.016291548
21	0x3c8f893a	0.01752149
22	0x3c5b21a5	0.013374721
23	0xbc84ef80	-0.016227484
24	0x3bfe17d2	0.0077543044
25	0x3c866447	0.016405238
26	0x3c69fdc1	0.014281691
27	0xbd15c444	-0.036564127
28	0xbc8ab483	-0.016931778
29	0xb8aa68ae	-8.12573e-05
30	0x3caa3648	0.020777836
31	0xbcb69b42	-0.02229083

model.4.weight f4 [64, 32]
0	0x3e05b980	0.13059044
1	0xbe0be898	-0.13662946
2	0xbd945cb6	-0.07244246
3	0xbd1c7ee9	-0.03820697
4	0xbdc335c3	-0.095317386
5	0xbe002eb0	-0.1251781
6	0x3d7e5978	0.062097043
7	0xbe1eaed0	-0.15496373
8	0x3d429334	0.047503665
9	0xbd3f53f6	-0.04671093
10	0xbe0b2a84	-0.13590437
11	0xbdb16684	-0.086621314
12	0x3e17dde9	0.14830746
13	0x3dbd9dc5	0.09258608
14	0x3e005e3d	0.12535949
15	0xbdebd48d	-0.1151515
16	0xbbd33b0b	-0.0064462475
17	0xbdb4de5c	-0.08831474
18	0xbc097071	-0.0083886245
19	0x3e23af4e	0.15984842
20	0xbe2b8140	-0.16748524
21	0x3c379f62	0.011207433
22	0xbc37e42c	-0.011223834
23	0x3dd5e012	0.10443129
24	0xbde24feb	-0.110503994
25	0xbcb44de0	-0.02200979
26	0x3963daa0	0.00021729851
27	0xbd03952d	-0.032124687
28	0x3e08f704	0.13375479
29	0x3e0c67f7	0.13711534
30	0xbdedd773	-0.11613359
31	0xbe290447	-0.16505538
32	0x3d9f8e0b	0.077907644
33	0xbcfaea39	-0.030629264
34	0xbdb3292c	-0.08748087
35	0x3d8401aa	0.0644563
36	0xbdb0fa9f	-0.08641552
37	0x3dec1edd	0.11529324
38	0xbe2adb2c	-0.1668517
39	0xbe0e8524	-0.13917977
40	0x3e13ecf7	0.14445864
41	0x3e27f401	0.16401674
42	0xbe12ab7a	-0.14323226
43	0x3cbac4e5	0.022798965
44	0x3c99a5c8	0.018755808
45	0xbdd7c84f	-0.10536253
46	0xbde15547	-0.110025935
47	0xbdd3b010	-0.10336316
48	0xbdb311a2	-0.087435976
49	0xbd863ead	-0.06554923
50	0xbe0d0593	-0.13771658
51	0xbd87190f	-0.065965764
52	0x3d8a9b51	0.067679055
53	0xbe2db6ea	-0.16964307
54	0x3d875822	0.06608607
55	0xbd27a184	-0.040925518
56	0xbdf9589e	-0.121751055
57	0xbcf780ff	-0.030212877
58	0xbdc38644	-0.095470935
59	0x3cdff42a	0.027338106
60	0xbe09627d	-0.13416477
61	0xbd7587fb	-0.059944134
62	0xbe024a2d	-0.12723608
63	0x3c0d1b0a	0.008612404
64	0x3e0b7a54	0.13620883
65	0xbd80aa9f	-0.062825434
66	0x3e2e0c42	0.16996863
67	0xbbb22cbc	-0.0054374617
68	0xbd7a8556	-0.061162315
69	0x3dd2b407	0.10288244
70	0xbda7a719	-0.08186168
71	0xbe15a35e	-0.14613101
72	0xbd237e05	-0.039915103
73	0xbd6e7d3c	-0.0582249
74	0xbe0ff46f	-0.14058088
75	0xbd5818e2	-0.052758105
76	0xbdde7427	-0.10861998
77	0x3da1d793	0.07902446
78	0xbdf7583f	-0.120773785
79	0x3e070ff5	0.13189681
80	0xbd939524	-0.07206181
81	0xb9dce9ab	-0.00042135766
82	0xbd861687	-0.065472655
83	0x3da4a6c8	0.080396235
84	0x3e05609a	0.13025132
85	0x3dcb5ce8	0.0992983
86	0x3e19787d	0.14987369
87	0x3e367f6d	0.17822047
88	0xbe223f12	-0.15844372
89	0x3d1090e1	0.035294417
90	0x3d7e60df	0.062104102
91	0xbdd92acb	-0.10603865
92	0xbe19e524	-0.15028816
93	0x3e080d3f	0.13286303
94	0x3d9b69d1	0.07588542
95	0xbe18928d	-0.14899655
96	0x3e0bd20c	0.13654345
97	0x3d6925f4	0.05692096
98	0xbd56707c	-0.052353367
99	0x3cf14177	0.029450161
100	0xbd9b4773	-0.07581987
101	0x3d872268	0.06598359
102	0x3d0614d0	0.032734692
103	0xbd717417	-0.058948603
104	0x3bbbe18f	0.005733676
105	0xbb8d6ff5	-0.004316325
106	0xbdaec62c	-0.08533892
107	0xbd84d32c	-0.0648559
108	0xbcecba2d	-0.02889737
109	0x3e1c81d0	0.15283895
110	0xbe0fa211	-0.14026667
111	0xbd99168c	-0.074750036
112	0xbe2819d1	-0.16416098
113	0xbc30f43e	-0.010800419
114	0x3de3dbc1	0.11125899
115	0x3d47b1e5	0.048753638
116	0xbe278db3	-0.16362648
117	0x3d0c09d9	0.03418908
118	0xbe053a7a	-0.13010588
119	0x3d3d7b70	0.046260297
120	0x3da9cf25	0.08291463
121	0x3e2ec49c	0.17067188
122	0x3d071777	0.032981362
123	0xbd840232	-0.06445731
124	0xbda7e480	-0.0819788
125	0xbd5abeb7	-0.053404536
126	0x3d81c626	0.06336622
127	0xbd6e120e	-0.058122687
128	0xbdb16546	-0.086618945
129	0x3d94b3b5	0.07260839
130	0xbe0ee439	-0.13954248
131	0x3d0869db	0.033304077
132	0xbd2b7cc3	-0.04186703
133	0xbdc69452	-0.096962586
134	0x3e14f91c	0.14548153
135	0x3df5280c	0.11970529
136	0x3c79e9e5	0.015253519
137	0xbc5cbb7a	-0.013472432
138	0x3c06aad8	0.008219443
139	0x3d4e2506	0.050328277
140	0xbe14ef00	-0.14544296
141	0xbb2b853b	-0.002617194
142	0xbe207a11	-0.15671565
143	0x3d255789	0.040366683
144	0xbe0e375c	-0.13888305
145	0xbd191528	-0.03737369
146	0x3ca1a2c0	0.019730926
147	0x3d6bb85c	0.057548866
148	0x3d0042d1	0.03131372
149	0x3dbfac82	0.09359075
150	0xbd819f53	-0.06329217
151	0xbdc23797	-0.09483259
152	0xbcbae8f1	-0.022816153
153	0xbe11f271	-0.1425264
154	0xbe040759	-0.12893428
155	0xbe05373a	-0.13009349
156	0xbd283392	-0.041064806
157	0xbe334a48	-0.17508805
158	0x3d880920	0.066423655
159	0xbb80bd31	-0.0039288034
160	0x3e20656c	0.1566369
161	0xbcea697f	-0.028614758
162	0xbe0f798f	-0.14011215
163	0x3d873f1b	0.06603833
164	0xbe17fb57	-0.14841972
165	0xbd97a149	-0.074038096
166	0xbdf0a58f	-0.11750328
167	0xbda01923	-0.078172944
168	0x3da76945	0.081743754
169	0xbd6bc89a	-0.057564355
170	0xbe1ae118	-0.15124929
171	0x3e1b987d	0.15194888
172	0xbca8f5b9	-0.020624982
173	0x3d492452	0.049106903
174	0x3de28643	0.11060765
175	0x3dcd5984	0.100268394
176	0xbdeab41e	-0.11460136
177	0xbd03276c	-0.032020018
178	0xbdb5fbb5	-0.088859
179	0xbdb78942	-0.08961727
180	0xbdb965aa	-0.09052594
181	0x3c0fa49d	0.008767274
182	0xbe24259d	-0.16029973
183	0x3c5eb995	0.013594051
184	0xbe095ae6	-0.13413581
185	0xbe2df787	-0.16988955
186	0x3ded12ff	0.11575889
187	0xbdddebf9	-0.10836024
188	0x3d82bc9b	0.0638363
189	0x3d08f523	0.033436906
190	0x3d7c6ac2	0.06162525
191	0xbcdcc581	-0.026949646
192	0xbd2607ed	-0.040534902
193	0xbd8795fc	-0.06620404
194	0x3db5e218	0.088810146
195	0x3d114535	0.03546639
196	0x3e214446	0.157487
197	0x3b59e972	0.0033250717
198	0x3cb81d87	0.022475017
199	0x3d805287	0.06265741
200	0x3dce8477	0.100838594
201	0xbcc0eac7	-0.02354945
202	0xbd99d81a	-0.07511921
203	0x3dc3e747	0.09565597
204	0x3dfd5c83	0.12371161
205	0x3e103634	0.14083177
206	0xbe0a7504	-0.135212
207	0xbe11bd97	-0.14232479
208	0x3d834190	0.064089894
209	0x3e3249c9	0.1741096
210	0xbe0ddba8	-0.13853323
211	0xbd890531	-0.06690443
212	0x3cf5f7e5	0.030025432
213	0xbe089ceb	-0.1334111
214	0x3d87f358	0.06638211
215	0x3d15369f	0.036429044
216	0xbd31efe3	-0.043441664
217	0x3e0fc018	0.14038122
218	0x3dd77d44	0.105219394
219	0xbde644dc	-0.11243603
220	0x3d01549f	0.03157484
221	0xbdd36149	-0.1032129
222	0x3e30c1a3	0.17261367
223	0x3e09464c	0.13405722
224	0x3e00ab32	0.12565306
225	0x3ce4b5e7	0.027918769
226	0xbe28aae6	-0.16471443
227	0x3cb2a20b	0.021805784
228	0x3d7ff1b4	0.062486365
229	0xbdaa1573	-0.08304872
230	0xbdd100f3	-0.10205259
231	0xbe2617a9	-0.16219963
232	0x3e029c57	0.12754951
233	0xbe2ad58a	-0.16683021
234	0xbe2541c1	-0.16138364
235	0x3da80d5a	0.082056716
236	0xbc4f37eb	-0.012647609
237	0x3dfb2270	0.12262428
238	0x3c3dc87f	0.0115834465
239	0xbe184ae0	-0.14872313
240	0xbd7c7587	-0.06163552
241	0x3e1e3803	0.15451054
242	0x3e16e8da	0.14737263
243	0x3e24e1b3	0.16101722
244	0x3d252f2b	0.040328186
245	0x3cd20c26	0.025640558
246	0xbdf33902	-0.11876108
247	0x3e1dc714	0.15407974
248	0x3df290b5	0.11844007
249	0xbc9730bb	-0.018455854
250	0xbe3415e6	-0.17586479
251	0xbe15bfdd	-0.14623971
252	0x3d934682	0.07191183
253	0xbe0ab3f8	-0.13545215
254	0x3d9c01f3	0.07617559
255	0xbd9ea747	-0.07746749

model.4.bias f4 [64]
0	0xbd9b1cd4	-0.07573858
1	0xbe270e9e	-0.1631417
2	0x3da0274c	0.07819995
3	0x3cc121a9	0.02357562
4	0x3e12a167	0.14319383
5	0xbd82a181	-0.06378461
6	0xbe295452	-0.16536072
7	0xbe0dcf16	-0.13848528
8	0xbb64032e	-0.0034791934
9	0xbde9cbfd	-0.11415861
10	0xbd190cdc	-0.03736578
11	0xbe1a26d0	-0.15053868
12	0x3dcac477	0.09900754
13	0x3e161ed4	0.14660197
14	0x3da9c521	0.082895525
15	0x3cb5d505	0.022196302
16	0x3e1116c6	0.14168844
17	0x3e0f57d7	0.13998352
18	0xbe224a95	-0.15848763
19	0x3e06f402	0.13179019
20	0xbd6d65fa	-0.05795858
21	0x3dd9c8e8	0.10634023
22	0xbdab0e7b	-0.08352371
23	0xbda6b831	-0.081406005
24	0xbce14b5c	-0.027501754
25	0x3df6afa3	0.12045219
26	0xbb6f15c6	-0.0036481484
27	0x3e295c9b	0.16539232
28	0xbe10e1b2	-0.14148596
29	0xbd73eb46	-0.059550546
30	0x3c80713c	0.015678994
31	0xbc092adc	-0.008372035
32	0x3bbdacb9	0.0057884124
33	0x3d3efcb3	0.04662771
34	0xbe1c81a9	-0.15283836
35	0xbdfc14cb	-0.123086534
36	0x3c8809d5	0.01660625
37	0xbdaab65c	-0.083355635
38	0xbdb638d8	-0.08897561
39	0xbdc3e5be	-0.09565304
40	0x3deacf44	0.11465314
41	0x3c8a656e	0.016894069
42	0xbdc01ff2	-0.09381093
43	0x3df73fea	0.120727375
44	0x3dc91736	0.0981888
45	0xbda3c777	-0.07997029
46	0xbdeee0d6	-0.11663978
47	0x3dd66a3a	0.1046948
48	0x3de8a8ef	0.113603465
49	0x3dcb1291	0.09915651
50	0xbdee963a	-0.11649747
51	0xbd609f09	-0.054839168
52	0x3e02904a	0.12750354
53	0x3e37742f	0.17915414
54	0x3db2e94a	0.087359026
55	0xbe24318c	-0.16034526
56	0xbd0cd1b8	-0.03437969
57	0x3d431297	0.04762515
58	0xbd10e67c	-0.035376057
59	0x3dd1173e	0.10209511
60	0xbda031fb	-0.07822033
61	0x3ceb7849	0.02874388
62	0xbcab4e13	-0.020911252
63	0x3d82390e	0.063585386

model.7.weight f4 [1, 64]
0	0xbc88de8f	-0.016707687
1	0x3db156cc	0.08659133
2	0xbd955944	-0.07292417
3	0x3d111eed	0.035429884
4	0x3d1a8b8a	0.03773073
5	0x3c3d1942	0.011541666
6	0x3da5d7ff	0.080978386
7	0x3dc9e9b5	0.09859029
8	0xbdf6b2d5	-0.12045828
9	0x3c3b4fcf	0.011432602
10	0x3de6995a	0.11259718
11	0xbdb5aa29	-0.08870346
12	0x3da35836	0.07975809
13	0xbd9ffc95	-0.07811848
14	0xbdb3c248	-0.087772906
15	0xbd44b8d1	-0.048027817
16	0x3c7d6764	0.015466545
17	0xbdbd7472	-0.09250726
18	0x3c35b6ff	0.011090993
19	0x3de09138	0.10965198
20	0x3db533f8	0.08847803
21	0x3ce3a7f7	0.027790053
22	0xbdcc9a27	-0.0999034
23	0xbd4c215e	-0.04983651
24	0xbcf1db28	-0.029523447
25	0x3dca77b8	0.09886116
26	0xbb59427a	-0.0033151195
27	0xbd7c2bb4	-0.061565116
28	0x3db543fd	0.08850858
29	0x3d4513a7	0.048114445
30	0xbd9d22bd	-0.076726414
31	0xbd9010fd	-0.0703449
32	0xbdfbd4cc	-0.12296447
33	0xbd758a4c	-0.059946343
34	0x3dab8edb	0.08376857
35	0xbddd6947	-0.10811096
36	0xbdef0181	-0.11670209
37	0xbcf3a6eb	-0.029742679
38	0xbd5f3783	-0.0544963
39	0xbb5a137d	-0.0033275776
40	0x3d1ab096	0.03776606
41	0x3dc96d66	0.09835319
42	0xbc608c4a	-0.0137053225
43	0xbd32ee2a	-0.043684162
44	0xbdfa90f5	-0.122346796
45	0x3cd8afbf	0.02645099
46	0xbde8e05c	-0.11370918
47	0x3ddb462d	0.10706744
48	0xbbd88a6d	-0.0066082985
49	0x3daac029	0.08337433
50	0x3c64490b	0.01393343
51	0xbdf6ee61	-0.12057186
52	0x3d785eb4	0.06063719
53	0xbdaecc29	-0.08535034
54	0x3cffa179	0.031204926
55	0x3cf0443e	0.029329415
56	0x3da981fc	0.08276746
57	0xbc15a84a	-0.0091343615
58	0xbdf79252	-0.12088455
59	0x3d1d35c2	0.038381346
60	0x3ddba0d0	0.10724032
61	0x3e0332e0	0.12812376
62	0xbcda0600	-0.02661419
63	0x3d7b2c0b	0.0613213
