lightning_logs/version_14/checkpoints/epoch=199-step=1600.ckpt (torch, 464377 bytes, 23 tensors)

model.0.weight f4 [1024]
0	0x3f805630	1.0026302
1	0x3f800f6c	1.0004706
2	0x3f7fbbe3	0.9989607
3	0x3f7edc22	0.99554646
4	0x3f7f96e2	0.99839604
5	0x3f803af0	1.0017986
6	0x3f7ff4ad	0.9998272
7	0x3f7ee0cd	0.9956177
8	0x3f800a20	1.000309
9	0x3f801341	1.0005876
10	0x3f80208e	1.0009935
11	0x3f800fc1	1.0004808
12	0x3f806d1c	1.0033298
13	0x3f7f7bda	0.9979836
14	0x3f7f5a5b	0.99747247
15	0x3f803e96	1.00191
16	0x3f7f781a	0.99792635
17	0x3f7fa507	0.99861187
18	0x3f80152c	1.0006461
19	0x3f7f922b	0.9983241
20	0x3f7ffa46	0.9999126
21	0x3f7f613b	0.99757737
22	0x3f7f8d55	0.9982503
23	0x3f7fd35c	0.99931884
24	0x3f800ff4	1.0004869
25	0x3f7fbfee	0.99902236
26	0x3f800b34	1.0003419
27	0x3f80d2a0	1.0064278
28	0x3f802a30	1.0012875
29	0x3f804b90	1.002306
30	0x3f7f5bf9	0.99749714
31	0x3f7f7e1b	0.99801797
32	0x3f7f9496	0.998361
33	0x3f7f9084	0.9982989
34	0x3f7fe1d1	0.99953943
35	0x3f80e063	1.0068477
36	0x3f80d8c9	1.0066158
37	0x3f800b39	1.0003425
38	0x3f7ffbb0	0.9999342
39	0x3f8000da	1.000026
40	0x3f80723f	1.0034865
41	0x3f803d76	1.0018756
42	0x3f80676a	1.003156
43	0x3f7fa4cd	0.9986084
44	0x3f7fcea1	0.99924666
45	0x3f7f4473	0.9971382
46	0x3f802c94	1.0013604
47	0x3f8053bd	1.0025555
48	0x3f8032d3	1.001551
49	0x3f8001f1	1.0000592
50	0x3f7f7038	0.9978061
51	0x3f7ff6c3	0.99985904
52	0x3f80d2b7	1.0064305
53	0x3f7fc4bd	0.99909574
54	0x3f805299	1.0025207
55	0x3f7fff7a	0.999992
56	0x3f803b33	1.0018066
57	0x3f7f1494	0.99640775
58	0x3f7fbdcf	0.99899
59	0x3f800791	1.0002309
60	0x3f7fc123	0.9990408
61	0x3f7fde6d	0.9994877
62	0x3f802366	1.0010803
63	0x3f80585b	1.0026964
64	0x3f802408	1.0010996
65	0x3f7fb388	0.9988332
66	0x3f7f7047	0.99780697
67	0x3f7fbe9b	0.99900216
68	0x3f805bae	1.0027978
69	0x3f80476b	1.0021795
70	0x3f7ff4ad	0.9998272
71	0x3f7f5979	0.997459
72	0x3f7fafcd	0.99877626
73	0x3f80da9f	1.0066718
74	0x3f7fa4f4	0.99861073
75	0x3f7f7d4f	0.9980058
76	0x3f7f2172	0.9966041
77	0x3f7fd40b	0.99932927
78	0x3f7f2f3b	0.9968144
79	0x3f7ff9a8	0.9999032
80	0x3f806d31	1.0033323
81	0x3f7f9fa8	0.9985299
82	0x3f805111	1.002474
83	0x3f7fd03e	0.9992713
84	0x3f8034ec	1.001615
85	0x3f80a7c5	1.0051199
86	0x3f7f5bfa	0.9974972
87	0x3f809e4a	1.0048306
88	0x3f8070d5	1.0034434
89	0x3f8008a1	1.0002633
90	0x3f807319	1.0035125
91	0x3f800daa	1.000417
92	0x3f800e3e	1.0004346
93	0x3f8009f1	1.0003034
94	0x3f80314b	1.0015043
95	0x3f800966	1.0002868
96	0x3f8073d8	1.0035353
97	0x3f806dcf	1.0033511
98	0x3f802d6d	1.0013863
99	0x3f7fde80	0.99948883
100	0x3f7fbf5a	0.99901354
101	0x3f7fcca6	0.99921644
102	0x3f7ff066	0.99976194
103	0x3f8042d8	1.0020399
104	0x3f806294	1.0030084
105	0x3f7f476a	0.99718344
106	0x3f805024	1.0024457
107	0x3f801d11	1.000887
108	0x3f7fa068	0.99854136
109	0x3f8083d1	1.0040227
110	0x3f80194f	1.0007724
111	0x3f7f9aa6	0.9984535
112	0x3f804563	1.0021175
113	0x3f807ba8	1.0037737
114	0x3f802228	1.0010424
115	0x3f8015d8	1.0006666
116	0x3f80f729	1.0075427
117	0x3f7fdbdb	0.9994485
118	0x3f801f48	1.0009546
119	0x3f802fc8	1.0014582
120	0x3f802c77	1.001357
121	0x3f800f11	1.0004598
122	0x3f800b55	1.0003458
123	0x3f804519	1.0021087
124	0x3f7fde9d	0.99949056
125	0x3f803967	1.0017518
126	0x3f7f7329	0.99785095
127	0x3f800f39	1.0004646
128	0x3f801e06	1.0009162
129	0x3f802639	1.0011665
130	0x3f801788	1.0007181
131	0x3f804cdd	1.0023457
132	0x3f80315b	1.0015062
133	0x3f7fc628	0.9991174
134	0x3f8010b9	1.0005103
135	0x3f7fc3af	0.99907964
136	0x3f80602a	1.0029347
137	0x3f7f48a2	0.99720204
138	0x3f8028bc	1.0012431
139	0x3f800dfa	1.0004265
140	0x3f7ffaa0	0.999918
141	0x3f7fed3b	0.9997136
142	0x3f807762	1.0036433
143	0x3f807c61	1.0037957
144	0x3f80228c	1.0010543
145	0x3f802bed	1.0013405
146	0x3f7ff1ea	0.99978507
147	0x3f8001fd	1.0000607
148	0x3f801472	1.000624
149	0x3f8018b8	1.0007544
150	0x3f804332	1.0020506
151	0x3f805306	1.0025337
152	0x3f7f4fc7	0.99731106
153	0x3f801a9a	1.0008118
154	0x3f807d54	1.0038247
155	0x3f802766	1.0012023
156	0x3f7f9357	0.998342
157	0x3f8035e0	1.0016441
158	0x3f7f92c6	0.99833333
159	0x3f803f81	1.001938
160	0x3f8009b1	1.0002958
161	0x3f800667	1.0001954
162	0x3f801c40	1.0008621
163	0x3f7fea3d	0.99966794
164	0x3f807007	1.0034188
165	0x3f7fea41	0.9996682
166	0x3f802941	1.001259
167	0x3f7fee9d	0.9997347
168	0x3f7f8438	0.99811125
169	0x3f80b34d	1.0054718
170	0x3f8000d4	1.0000253
171	0x3f80469f	1.0021552
172	0x3f8029c8	1.0012751
173	0x3f7fd0bb	0.9992787
174	0x3f7f53a4	0.99737
175	0x3f807833	1.0036682
176	0x3f7fe826	0.99963605
177	0x3f801fbe	1.0009687
178	0x3f8019e6	1.0007904
179	0x3f80001f	1.0000037
180	0x3f7fe625	0.9996055
181	0x3f7f5c33	0.9975006
182	0x3f800490	1.0001392
183	0x3f806742	1.0031512
184	0x3f80820a	1.0039685
185	0x3f7ffc3a	0.9999424
186	0x3f801ddd	1.0009114
187	0x3f8017f0	1.0007305
188	0x3f8001ba	1.0000527
189	0x3f8055a7	1.0026139
190	0x3f802413	1.0011009
191	0x3f7f838b	0.99810094
192	0x3f8026b9	1.0011817
193	0x3f8051cf	1.0024966
194	0x3f7fc0d6	0.9990362
195	0x3f804c21	1.0023233
196	0x3f7feeeb	0.99973935
197	0x3f7f737b	0.99785584
198	0x3f7f499a	0.9972168
199	0x3f806add	1.0032612
200	0x3f7fec5f	0.9997005
201	0x3f8026ca	1.0011837
202	0x3f7fdb09	0.99943596
203	0x3f8075a6	1.0035903
204	0x3f8048d6	1.0022228
205	0x3f7fd14c	0.99928737
206	0x3f803b15	1.001803
207	0x3f7f805f	0.99805254
208	0x3f802af1	1.0013105
209	0x3f7fa607	0.9986271
210	0x3f7fb2cf	0.99882215
211	0x3f7ffe77	0.9999766
212	0x3f8010ad	1.0005089
213	0x3f7f2e07	0.9967961
214	0x3f800f56	1.000468
215	0x3f8048da	1.0022233
216	0x3f7fd7df	0.9993877
217	0x3f808057	1.0039166
218	0x3f7f4f9f	0.9973087
219	0x3f805a6c	1.0027595
220	0x3f7f5e5d	0.9975336
221	0x3f7fbbef	0.9989614
222	0x3f7f3c1a	0.9970108
223	0x3f8013e1	1.0006067
224	0x3f802209	1.0010387
225	0x3f80198c	1.0007796
226	0x3f802d65	1.0013853
227	0x3f803dc4	1.0018849
228	0x3f7fe89d	0.99964315
229	0x3f7ffd3c	0.9999578
230	0x3f7fb923	0.9989187
231	0x3f80a4e5	1.0050322
232	0x3f801a59	1.0008041
233	0x3f7f1d6f	0.9965429
234	0x3f803e1f	1.0018958
235	0x3f7fc99b	0.99917
236	0x3f801e93	1.000933
237	0x3f802009	1.0009776
238	0x3f7f31bb	0.9968526
239	0x3f7f7477	0.99787086
240	0x3f7f4622	0.9971639
241	0x3f801014	1.0004907
242	0x3f7fee65	0.99973136
243	0x3f7fee98	0.9997344
244	0x3f7f7e53	0.9980213
245	0x3f80677b	1.003158
246	0x3f806465	1.0030638
247	0x3f800246	1.0000694
248	0x3f80167f	1.0006865
249	0x3f800a64	1.0003171
250	0x3f7feef1	0.9997397
251	0x3f80204f	1.000986
252	0x3f8069e8	1.003232
253	0x3f802e50	1.0014133
254	0x3f803352	1.0015662
255	0x3f802555	1.0011393

model.0.bias f4 [1024]
0	0xba24af33	-0.000628221
1	0xbb6a4512	-0.0035746736
2	0xbaec6ea6	-0.0018038347
3	0x3abe5d70	0.0014523696
4	0xbb467679	-0.0030283018
5	0xb9be21fe	-0.0003626495
6	0x3b7f0c8b	0.0038917388
7	0x39f68bde	0.00047024986
8	0xb70f51a7	-8.542475e-06
9	0xb92af97b	-0.00016305402
10	0xbb8a830e	-0.0042270487
11	0x3a877f5a	0.0010337636
12	0xbb30f3eb	-0.0027000855
13	0x3b56b166	0.0032759546
14	0xba1a5650	-0.00058874954
15	0x3a8d4374	0.0010777549
16	0xbb204212	-0.0024453443
17	0xb8c1a638	-9.233918e-05
18	0xbb3bf0ef	-0.0028677543
19	0xba46caa9	-0.00075832993
20	0xbac10cdc	-0.0014728564
21	0xbb3f89b9	-0.0029226376
22	0x3b60b1cf	0.003428567
23	0x3b816e58	0.0039499216
24	0x3b7540db	0.003742269
25	0x3ad50d3f	0.0016254558
26	0xba9b64b3	-0.0011855572
27	0x3b76dc7f	0.0037668047
28	0xbb89f81f	-0.0042104865
29	0x3a54aa40	0.00081125274
30	0xbbc2b200	-0.0059416294
31	0xbb1b928a	-0.0023738467
32	0x3b5e4104	0.0033913264
33	0x3ba62ea9	0.0050714803
34	0xbb28e51c	-0.0025771325
35	0xbabb3e34	-0.0014285506
36	0xbb637d65	-0.0034712192
37	0xbb90434a	-0.0044025527
38	0xbacb1a83	-0.0015495572
39	0x3b39b68b	0.0028337564
40	0x3a5a5a5e	0.0008329506
41	0xbaf52513	-0.0018703066
42	0xba951231	-0.0011373219
43	0xbaacd524	-0.001318608
44	0xba2512c9	-0.00062970497
45	0xbb630212	-0.0034638685
46	0x3ab7e599	0.0014030217
47	0xbb2b8a33	-0.0026174902
48	0xb9a87fdc	-0.0003213872
49	0xba9bc06a	-0.0011882905
50	0xba518bbb	-0.0007993539
51	0xb8fa4bb1	-0.000119350276
52	0xbb3466c3	-0.002752707
53	0xbb8cd585	-0.0042979144
54	0xbb0f03b7	-0.0021822283
55	0xbb34e208	-0.0027600545
56	0xb9f6422d	-0.0004697008
57	0x3b810879	0.0039377776
58	0xbaa14b1d	-0.0012305711
59	0x39cf801a	0.0003957756
60	0xbb03777f	-0.002006024
61	0xb9b2e27a	-0.00034119544
62	0xbb36ff25	-0.0027923074
63	0xbaae3191	-0.0013289918
64	0x3b9b88a2	0.0047465125
65	0xbb643d85	-0.0034826708
66	0xbb83ee94	-0.0040262435
67	0x3a91b28c	0.0011115833
68	0x3ae2f46a	0.0017315273
69	0x39409c96	0.0001836888
70	0x3900c282	0.00012279491
71	0x39a9260d	0.00032262542
72	0x3b84e3b0	0.004055463
73	0x3a84b2d2	0.0010124093
74	0x3b928a90	0.0044720843
75	0x3b251780	0.002519101
76	0x3b3c3104	0.002871574
77	0x3b8f357c	0.0043703895
78	0x3b34282a	0.002748976
79	0xba8e64e6	-0.001086381
80	0x3b9d03c5	0.004791709
81	0xbb032211	-0.0020009319
82	0xba7c0356	-0.0009613534
83	0xbb06ed5c	-0.0020588255
84	0x3b20a08a	0.0024509751
85	0x39fb3874	0.00047916512
86	0xbbbc3e94	-0.0057447646
87	0x3ac06b07	0.0014680334
88	0x3b4fadae	0.0031689215
89	0x3af7a1a4	0.0018892777
90	0x3aa70f9b	0.001274574
91	0x3b3fe12a	0.0029278495
92	0xbac7d06d	-0.0015244611
93	0x3a14b94f	0.0005673365
94	0x3a977ed9	0.0011558189
95	0x39ba0bc6	0.00035485456
96	0x3b6f8808	0.0036549587
97	0xbac2051e	-0.001480255
98	0xbae0456d	-0.0017110534
99	0xba9b68cb	-0.0011856792
100	0x39daddfb	0.00041745589
101	0x3b511186	0.0031901314
102	0x3a2e2f30	0.0006644605
103	0xba7f27af	-0.00097333913
104	0xbaf575ef	-0.0018727164
105	0x3a13b748	0.0005634916
106	0x3b148614	0.0022662925
107	0x3b4a3401	0.003085375
108	0x3b93dee1	0.004512653
109	0x3aad7f75	0.0013236838
110	0x39419732	0.00018462239
111	0xb85cae29	-5.2614287e-05
112	0xbad67919	-0.0016362994
113	0x3aa81b42	0.0012825506
114	0x3b1ccda5	0.0023926285
115	0x3a6488a8	0.0008717873
116	0x3a034a98	0.0005008369
117	0x3b99d044	0.0046940167
118	0xb9e811a4	-0.00044263632
119	0x3b6d13c5	0.0036175114
120	0xbbee0db3	-0.0072648167
121	0xbbb4d4de	-0.00551854
122	0x3ab2a677	0.0013629933
123	0x3bce0f47	0.0062884423
124	0xba6bce17	-0.00089952484
125	0x3aadb078	0.0013251444
126	0xbb0f06c0	-0.0021824092
127	0x3b710365	0.0036775705
128	0x3990dc33	0.00027629882
129	0xbb28a773	-0.0025734573
130	0xba5fe9f8	-0.0008541639
131	0xbb0b75c2	-0.0021279906
132	0xbae28a99	-0.0017283737
133	0x3b07471c	0.002064175
134	0xba9a804a	-0.0011787501
135	0xba342a4f	-0.00068727595
136	0xb9e6c755	-0.00044017532
137	0x3a82562d	0.0009943895
138	0x392ff509	0.00016780583
139	0xbb2b9d8a	-0.002618643
140	0x3a201d43	0.0006107876
141	0xb9bf66b9	-0.00036506893
142	0xbb274380	-0.002552241
143	0x39eccdb1	0.0004516668
144	0x3af903c8	0.0018998319
145	0x3a9fffd4	0.001220698
146	0xba108705	-0.00055132835
147	0x3b82dd72	0.0039936835
148	0xbb962e02	-0.0045831213
149	0xbb1e87a2	-0.002418973
150	0xbb49d247	-0.00307955
151	0xbafc9deb	-0.0019273137
152	0xbb972617	-0.004612695
153	0xbbc82968	-0.0061084516
154	0xbafcf337	-0.0019298558
155	0xba6d3930	-0.0009049354
156	0xbb2579ae	-0.0025249529
157	0xbb4d882b	-0.003136168
158	0xbad7b0ff	-0.0016455947
159	0xb5f7f6d7	-1.8474774e-06
160	0x3accdf03	0.0015630428
161	0xba14a058	-0.0005669645
162	0xbaf7e3b1	-0.0018912462
163	0xbaab47eb	-0.0013067698
164	0x3af99401	0.0019041301
165	0x3bbef3d5	0.005827407
166	0x3b6dc9bf	0.003628358
167	0xbba336db	-0.0049809045
168	0x3bbb6c21	0.005719677
169	0xba8132bf	-0.0009857042
170	0xbb492a91	-0.0030695538
171	0x3b239b03	0.002496422
172	0x3b8df9b5	0.004332746
173	0x39c662e3	0.0003783918
174	0xbaf3b945	-0.0018594643
175	0x3b1119ef	0.0022140702
176	0x3b380f8a	0.0028085434
177	0xbb5f7462	-0.003409647
178	0x3af10834	0.0018389286
179	0x3a3d3c28	0.0007218742
180	0xba36ed1f	-0.0006978083
181	0x3b8e7e76	0.0043485714
182	0xba8e5ae2	-0.0010860825
183	0x3b7b2f5f	0.0038327796
184	0xbb1a109c	-0.0023508435
185	0xbb8e57b4	-0.004343951
186	0xbaf5e7f1	-0.001876114
187	0xbac0cd40	-0.0014709607
188	0x3a9ebedf	0.0012111327
189	0x3ac03cd5	0.0014666567
190	0xbaeaf716	-0.001792642
191	0x3a2fbcd1	0.0006703856
192	0x3ba43dbd	0.0050122426
193	0x3adead27	0.0016988859
194	0x3aecc6f4	0.0018064664
195	0x3b62ac7d	0.0034587674
196	0x3b1a5511	0.0023549239
197	0xbaec618f	-0.0018034446
198	0xbac503d5	-0.0015031049
199	0x3a96c107	0.0011501618
200	0x3abb3ad7	0.0014284503
201	0xbbcaeb8a	-0.006192629
202	0xbac755d8	-0.0015208079
203	0xbb809181	-0.0039235954
204	0xba8f97ad	-0.0010955237
205	0xb8a33b1e	-7.783457e-05
206	0xbbced6e3	-0.0063122376
207	0x3b9ca188	0.004779998
208	0x3b194c2d	0.0023391352
209	0xbac5dce4	-0.0015095738
210	0xbb29f778	-0.0025934856
211	0xb94ce79b	-0.00019541236
212	0xba0dff63	-0.0005416779
213	0xbb88f7d9	-0.0041799364
214	0xbb52f0db	-0.0032187018
215	0xbab41013	-0.0013737701
216	0x39d878ce	0.00041288737
217	0xba87411d	-0.0010319088
218	0xb9e56037	-0.0004374997
219	0x3af3cfcb	0.0018601356
220	0x3aa14a9a	0.0012305558
221	0xbb20592c	-0.0024467213
222	0xba7e3837	-0.0009697708
223	0xbb60dc10	-0.0034310855
224	0xbab9b96e	-0.0014169642
225	0xbac7ba1a	-0.0015237958
226	0x3a9c205d	0.00119115
227	0x3afd4b82	0.0019324871
228	0xbb118aa7	-0.0022207887
229	0x3a7bf423	0.00096112693
230	0x3b04144d	0.0020153702
231	0xb814a9a8	-3.5443954e-05
232	0xbbbc8140	-0.0057527125
233	0x3a411170	0.0007364964
234	0x3b4a646c	0.003088261
235	0x3b3e5a7f	0.002904564
236	0x3aad9d00	0.0013245642
237	0x3b60db6a	0.0034310468
238	0x3a8e06b2	0.0010835736
239	0x3b4effc9	0.0031585565
240	0xbaac3fdf	-0.0013141594
241	0xbb7ad388	-0.0038273055
242	0x3af1c207	0.0018444665
243	0x39c56086	0.00037646684
244	0x3b01a250	0.0019780584
245	0xb97f1f5a	-0.00024330374
246	0x3abee2fb	0.0014563495
247	0xbb2d7638	-0.002646817
248	0x3aae90e5	0.0013318328
249	0xbb53b2fa	-0.0032302723
250	0x398943ad	0.000261811
251	0xbb77ce93	-0.0037812337
252	0x3ab0a942	0.0013478177
253	0xbbf0a8eb	-0.0073443553
254	0xb99f1d9d	-0.00030348907
255	0xba0cf51d	-0.0005377101

model.0.running_mean f4 [1024]
0	0xbd68da8a	-0.05684904
1	0xbc8eaea0	-0.017417252
2	0x3bf746e5	0.007546293
3	0xbcda7729	-0.026668148
4	0x3b6adc67	0.0035836936
5	0xbc67dc8c	-0.014151704
6	0x3d250f1f	0.040297624
7	0xbb95ead9	-0.004575115
8	0xbb90f09d	-0.0044232146
9	0x3d0421bb	0.03225873
10	0xbc4b08cc	-0.012392234
11	0x3bb09b0e	0.0053895777
12	0xbb531996	-0.0032211295
13	0xbc52d479	-0.01286804
14	0x3b93dc27	0.004512328
15	0x3c3a2d39	0.011363321
16	0xbd11e98f	-0.03562313
17	0xbcc9000c	-0.024536155
18	0x3756ea80	1.2809993e-05
19	0x3c0b3022	0.0084953625
20	0x3c866ced	0.016409362
21	0x38ffcf10	0.00012197916
22	0x3ca3e010	0.020004302
23	0x3d915003	0.07095339
24	0x3ca0b769	0.019618707
25	0x3ceb1391	0.028695853
26	0xbccd15c6	-0.025034796
27	0x3c2bbe55	0.01048239
28	0xbbb02e14	-0.0053765867
29	0xbc1f0650	-0.009706095
30	0x3cd725d8	0.026263162
31	0xbc8483e8	-0.016176179
32	0xbc0183ac	-0.007904928
33	0x3c1a0246	0.009399956
34	0xbb6bef86	-0.0036000921
35	0x3c75c22e	0.014999909
36	0xbc33c832	-0.010973023
37	0x3bda1a72	0.0066559846
38	0xbce36ce0	-0.027761877
39	0xbba4615e	-0.00501649
40	0x3c30cae0	0.010790557
41	0x3ccff279	0.025384175
42	0xb970802f	-0.00022935936
43	0xbd3704da	-0.04468236
44	0xbcc04dd2	-0.023474608
45	0x3b7f21c7	0.0038930045
46	0xb96892e3	-0.00022179964
47	0xbcb9bfad	-0.022674406
48	0xbc3aca65	-0.011400794
49	0x3da6c4ad	0.08142982
50	0xbccb9951	-0.02485338
51	0xbc8e96d5	-0.017405907
52	0xbcac0c9c	-0.021002106
53	0x3c1e1b2a	0.009650031
54	0x3c34a738	0.011026196
55	0xbc05f668	-0.008176424
56	0x3cff81bc	0.031189792
57	0x3c1fd3e2	0.009755107
58	0xbbadd66f	-0.0053051035
59	0xbc21261b	-0.009835745
60	0x3c3630ec	0.011120062
61	0xbcaf2a5e	-0.021382507
62	0xbc31a2e7	-0.010842062
63	0x3cb95367	0.022622777
64	0x3a99aa75	0.0011723774
65	0xbc63d64e	-0.013906075
66	0x3be3539b	0.006937457
67	0x3bfdc9de	0.0077450117
68	0x3a71123c	0.00091961375
69	0x3bb6f3e2	0.0055832723
70	0x3d1885e8	0.037237078
71	0x3c48cb96	0.01225557
72	0xbc73ae64	-0.014873121
73	0x3d2d565c	0.042318687
74	0x3cf62898	0.030048653
75	0xbc446d59	-0.011988961
76	0x3cd183e1	0.02557558
77	0xbc901000	-0.017585754
78	0x3c87e3d6	0.016588133
79	0xbc8f45e2	-0.017489377
80	0xbc01768d	-0.0079018
81	0x3ce037a9	0.02737029
82	0xbd5013fd	-0.050800312
83	0x3cb0f082	0.021599058
84	0xbc8b8032	-0.017028902
85	0xbd1f6c6c	-0.03892176
86	0x3cbea06b	0.023269853
87	0xbc90145a	-0.01758783
88	0x3c42cd84	0.011889819
89	0x3cb87538	0.022516832
90	0xbcb82ae8	-0.022481397
91	0xbb9dac0f	-0.0048117707
92	0xbc3c24ff	-0.01148343
93	0x3c41a444	0.011818949
94	0x3c570495	0.013123651
95	0x3ca626b7	0.020282133
96	0x3c05e409	0.008172044
97	0x3d6a2e67	0.05717316
98	0xbc0462ab	-0.008080165
99	0x3cbe0c37	0.023199184
100	0x3c679c42	0.014136376
101	0x3cd56a2a	0.0260516
102	0xbb1d398b	-0.0023990597
103	0x3c49f580	0.012326598
104	0x3d969688	0.0735293
105	0x3c8a76d6	0.016902369
106	0x3b59334d	0.003314215
107	0xbcb83f62	-0.02249116
108	0xbcf5159a	-0.029917527
109	0x3d47ea02	0.04880715
110	0xbc2afa49	-0.010435649
111	0x3b2c5a27	0.0026298852
112	0x3d8246a1	0.06361128
113	0xbb9dd0fd	-0.004816173
114	0xbbdc47e0	-0.0067224354
115	0x3c80ea5c	0.015736751
116	0xbae627e7	-0.0017559499
117	0xbbc6573b	-0.006052879
118	0xba58f29e	-0.0008275899
119	0xbb9edce0	-0.0048481077
120	0xbcbc9b60	-0.023023307
121	0xbc12c8ff	-0.008959054
122	0xbc7cbb26	-0.015425479
123	0xbc6013ea	-0.013676623
124	0xbd4a00a9	-0.049317036
125	0xbcb92d5c	-0.022604637
126	0xbc27e5c2	-0.01024765
127	0xbca88d6b	-0.020575246
128	0x3cb0f82c	0.021602713
129	0xbca477b3	-0.020076608
130	0xbd85607c	-0.065125436
131	0xbc66a6e2	-0.014077874
132	0x3c8f5238	0.01749526
133	0xbb84e4c0	-0.0040555894
134	0xba499636	-0.00076899247
135	0xbce636dd	-0.028102333
136	0x3d2d19dc	0.04226099
137	0x3cc76476	0.024339896
138	0xbb288ee9	-0.0025719947
139	0xbcb4e57c	-0.022082083
140	0x3af887dc	0.0018961388
141	0xbd2d5aea	-0.04232303
142	0xbc2134d4	-0.009839255
143	0xbba890e0	-0.0051442236
144	0xbb948f11	-0.0045336564
145	0xbc020bd4	-0.00793739
146	0x3d399a9f	0.045313474
147	0xbcb41f25	-0.021987507
148	0xbd0b4c14	-0.0340081
149	0x3ae28a45	0.0017283639
150	0xbc031ee6	-0.008002972
151	0x3a3c3a07	0.00071802776
152	0x3bc21dd5	0.0059239664
153	0x3aae6ca3	0.0013307523
154	0x3c7e0d28	0.015506066
155	0x3cd9c684	0.026583917
156	0x3ce50f1b	0.027961304
157	0xbc051c2c	-0.0081243925
158	0xbb680df2	-0.0035408703
159	0x3be22358	0.006901186
160	0x3a7a1188	0.00095393555
161	0x3ceb09e9	0.028691249
162	0x3c8ab25d	0.016930753
163	0x3b8bac5b	0.0042624897
164	0xbba47b89	-0.0050196094
165	0xbb9d5351	-0.004801192
166	0xbd6919a6	-0.056909226
167	0xbbd92815	-0.0066270926
168	0xbd17e1a6	-0.03708043
169	0x3ce0ff42	0.027465466
170	0x3ce649c2	0.028111342
171	0x3cf15b29	0.029462414
172	0x3cca1651	0.024668844
173	0xbbe89435	-0.007097746
174	0x3cac5419	0.021036195
175	0x3c34dc72	0.011038886
176	0xbc4bf159	-0.0124476785
177	0xbc46aceb	-0.012126188
178	0xbc947b16	-0.018125098
179	0xba8bc989	-0.001066492
180	0xbcffa734	-0.031207658
181	0xbc907dbf	-0.017638085
182	0xbb989f06	-0.004657629
183	0x3c2ce8e0	0.010553569
184	0xbc3add9c	-0.011405375
185	0x3ccf6d96	0.02532081
186	0x3d36dbb1	0.044643108
187	0xbc76fea6	-0.015075361
188	0xbc8412d5	-0.016122261
189	0xbd05f67c	-0.03270577
190	0x3d16ae09	0.036787067
191	0x3c4a98b2	0.012365507
192	0x3c55ae85	0.013042097
193	0x3d009fad	0.03140228
194	0x3c412939	0.011789613
195	0x3c5079f0	0.012724385
196	0xbc3c5228	-0.011494197
197	0xbb63933b	-0.0034725207
198	0x3c977273	0.01848719
199	0x3d013f6e	0.031554632
200	0x3bada53e	0.0052992394
201	0xbc57b492	-0.01316561
202	0x3ad56fda	0.0016283945
203	0xbcd69f40	-0.026198983
204	0xbcc3592c	-0.023846231
205	0x3c0d7d78	0.008635871
206	0xbc328bb6	-0.0108975675
207	0xbc5aa31b	-0.013344551
208	0x3c9135a4	0.017725773
209	0xbc06d7d2	-0.0082301665
210	0xbd0f750a	-0.035023727
211	0xbcacce01	-0.021094324
212	0x3c52bec3	0.012862864
213	0x3cccc10e	0.0249944
214	0x3bd98088	0.0066376366
215	0xbc6b143e	-0.014348088
216	0x3c44b00b	0.012004863
217	0x3ce12376	0.02748273
218	0xbbecf0cb	-0.007230853
219	0xbbe8b790	-0.0071019605
220	0x3c228fe8	0.009922005
221	0xbc9a1bca	-0.018812079
222	0xbd483963	-0.048882853
223	0xbcabb389	-0.020959632
224	0x3cabeee6	0.02098794
225	0x3c6d468a	0.01448215
226	0x3b1e6a90	0.0024172403
227	0xbc9fa76b	-0.01948901
228	0x3b40bdae	0.0029409933
229	0xbcaa708f	-0.020805625
230	0xbc14cdf8	-0.00908231
231	0xbd0086c4	-0.031378523
232	0xbbcee97f	-0.006314456
233	0xbcec650c	-0.028856777
234	0xbc454b54	-0.012041885
235	0xbc908cbe	-0.017645236
236	0xbcf1a134	-0.029495813
237	0x3d119346	0.03554084
238	0x3ca43813	0.02004627
239	0xbc8eb142	-0.017418507
240	0x3d033158	0.03202948
241	0xbaafe7f8	-0.0013420573
242	0xbbc44426	-0.0059895692
243	0x3ccc4609	0.02493574
244	0xbcbe0a82	-0.02319837
245	0xb96d0576	-0.00022604116
246	0x3c39c19e	0.011337666
247	0x3cb4893f	0.0220381
248	0x39dc30c9	0.00041998018
249	0x3ce0442c	0.027376257
250	0xbc9025e2	-0.017596189
251	0x3cc2cefb	0.023780337
252	0x3c964cc6	0.018347155
253	0x3ae26c90	0.0017274786
254	0x3c670d83	0.014102343
255	0x3cbe41b3	0.023224687

model.0.running_var f4 [1024]
0	0x39235f82	0.00015580471
1	0x3923e568	0.00015630352
2	0x39254c08	0.0001576395
3	0x391466be	0.00014152654
4	0x3922ad0f	0.00015513993
5	0x395724bb	0.00020517681
6	0x392a3676	0.00016232752
7	0x38eab5a1	0.000111918205
8	0x39122391	0.00013936895
9	0x392758d9	0.0001595946
10	0x3936a58a	0.0001741854
11	0x394a8b49	0.00019316109
12	0x39231140	0.00015551317
13	0x3911c620	0.00013902085
14	0x39207fc5	0.00015306387
15	0x390032db	0.00012225976
16	0x38ea121a	0.00011161361
17	0x391adf7d	0.0001476984
18	0x39572b5a	0.00020520148
19	0x390e9f33	0.00013601482
20	0x39313158	0.00016898417
21	0x391c571c	0.0001490977
22	0x3905069f	0.00012686335
23	0x3957c303	0.00020576645
24	0x390f2457	0.0001365108
25	0x393346ca	0.00017097141
26	0x3947fec3	0.00019073025
27	0x38f78427	0.00011802493
28	0x39287cfe	0.00016068292
29	0x39c6e733	0.0003793776
30	0x39861d15	0.0002558014
31	0x395d9af6	0.0002113393
32	0x3939f97d	0.00017735916
33	0x38e4048b	0.000108727334
34	0x396cf6ff	0.00022598727
35	0x3963cfa7	0.00021725764
36	0x3909caec	0.00013140932
37	0x38b303f5	8.536122e-05
38	0x390af5cd	0.00013252273
39	0x398d22a5	0.00026919428
40	0x39970c61	0.00028810187
41	0x3927f3dd	0.00016017207
42	0x39513745	0.00019952383
43	0x390ded71	0.00013535262
44	0x3949120c	0.00019175577
45	0x39580bb4	0.00020603725
46	0x396cdb59	0.00022588427
47	0x3969ef03	0.0002230965
48	0x3909ac37	0.00013129493
49	0x39bfe5a8	0.00036601466
50	0x3982133e	0.0002480987
51	0x397d2cdc	0.00024144672
52	0x3926c682	0.00015904944
53	0x39655834	0.00021872
54	0x3901ce9e	0.0001237937
55	0x39016b29	0.00012342319
56	0x3982c2d1	0.00024940682
57	0x38bf6df9	9.128074e-05
58	0x39085d98	0.00013004837
59	0x3913adc4	0.00014083745
60	0x3949352e	0.00019188665
61	0x39615757	0.00021490209
62	0x3990ac21	0.00027594066
63	0x3955b3e7	0.00020380282
64	0x391409f1	0.00014118083
65	0x38e52e1d	0.0001092816
66	0x3949a14d	0.00019228943
67	0x39078688	0.0001292472
68	0x390f13e4	0.00013644953
69	0x39332ecd	0.00017088205
70	0x3979c0b3	0.00023818277
71	0x396c0739	0.00022509405
72	0x3981318b	0.0002464171
73	0x3948e7f9	0.00019159903
74	0x3954e62f	0.00020303646
75	0x395c59d4	0.00021014299
76	0x38edd382	0.00011340437
77	0x39458920	0.00018838467
78	0x392efb88	0.00016687636
79	0x395b0633	0.00020887777
80	0x395fed9b	0.00021355452
81	0x38dfd066	0.00010672286
82	0x394397ff	0.00018653272
83	0x3912a4c7	0.0001398503
84	0x39078d62	0.00012927272
85	0x39b5c831	0.00034672164
86	0x39262d1f	0.00015847803
87	0x397db235	0.00024194347
88	0x38e4d05d	0.00010910698
89	0x399058b7	0.00027531918
90	0x39cdcd89	0.00039253783
91	0x393ee487	0.00018204945
92	0x390dabbe	0.00013510787
93	0x39683f69	0.00022148866
94	0x391e2d50	0.00015084934
95	0x3929b701	0.0001618527
96	0x393ece1b	0.00018196592
97	0x392bdc4d	0.00016389899
98	0x3949114b	0.00019175296
99	0x39b36208	0.0003421458
100	0x39242355	0.00015653421
101	0x38fd3381	0.000120735735
102	0x3955a7b7	0.00020375742
103	0x38d433f4	0.00010118625
104	0x3a3b5dff	0.00071474904
105	0x393bad68	0.00017898309
106	0x395c1e1a	0.00020992049
107	0x397be00b	0.00024020688
108	0x3923394c	0.00015566236
109	0x392f2088	0.0001670142
110	0x394d2e37	0.0001956754
111	0x38f104b8	0.000114926544
112	0x395daebf	0.000211413
113	0x394853b9	0.00019104675
114	0x395580ba	0.00020361217
115	0x39942b08	0.0002826082
116	0x391354d6	0.00014050616
117	0x393b419c	0.00017858151
118	0x3953d248	0.00020200864
119	0x3990cc5b	0.00027618077
120	0x39727f0b	0.00023126246
121	0x39178371	0.00014449448
122	0x393b502a	0.00017863573
123	0x3933f64c	0.00017162523
124	0x39297d79	0.00016163838
125	0x38e4755d	0.00010893748
126	0x38d2d092	0.000100524296
127	0x38fb0a01	0.00011970476
128	0x3973afbd	0.00023239754
129	0x399b553b	0.00029627405
130	0x395d2275	0.00021089039
131	0x38ec1b73	0.0001125847
132	0x396742f6	0.00022054822
133	0x390fcd5a	0.00013714042
134	0x390c5bf9	0.00013385703
135	0x394162ba	0.00018442693
136	0x399bf82f	0.00029748815
137	0x391a0d45	0.00014691528
138	0x39312499	0.00016893669
139	0x39447335	0.00018734935
140	0x390c7324	0.00013394334
141	0x39240b8e	0.00015644563
142	0x393e9d9f	0.0001817853
143	0x3947317f	0.00018996558
144	0x39c89df5	0.0003826466
145	0x3974eedd	0.00023358637
146	0x39619b3e	0.00021515504
147	0x39365bc4	0.00017391058
148	0x39a3784a	0.00031179405
149	0x393c44eb	0.00017954751
150	0x397f9cbc	0.00024377083
151	0x3930a888	0.00016847451
152	0x3915d1f9	0.00014287968
153	0x396ede46	0.00022780252
154	0x38fc1654	0.00012020455
155	0x394a0256	0.00019265091
156	0x3905e30c	0.0001276845
157	0x39145924	0.00014147587
158	0x39abcd0d	0.00032768436
159	0x393bd5e2	0.00017913387
160	0x39280ad1	0.00016025758
161	0x39128dec	0.00013976515
162	0x3910a09b	0.0001379274
163	0x3925cf0a	0.00015812754
164	0x39071050	0.0001288068
165	0x3900884d	0.00012257807
166	0x3a608c9d	0.0008565875
167	0x391699ad	0.00014362363
168	0x393ee0cb	0.00018203554
169	0x394b4ad0	0.00019387458
170	0x3925b05c	0.00015801325
171	0x393f0a33	0.00018218979
172	0x3945fb95	0.00018881106
173	0x38e6ccc5	0.00011005396
174	0x398c0704	0.00026708108
175	0x39562dc6	0.00020425682
176	0x38f8cd0e	0.00011863756
177	0x390e615d	0.00013578446
178	0x38def180	0.00010630768
179	0x3987571e	0.00025814114
180	0x394cd26a	0.00019533341
181	0x39638ec0	0.00021701586
182	0x39710031	0.00022983622
183	0x3956a233	0.00020469054
184	0x39172bf5	0.00014416857
185	0x391b3b5a	0.00014804062
186	0x3979bb15	0.00023816184
187	0x3928313b	0.00016040068
188	0x39336dbf	0.00017111654
189	0x39184457	0.00014521308
190	0x3970150a	0.00022896021
191	0x395045f5	0.00019862487
192	0x39893a51	0.00026174125
193	0x392267a8	0.00015488139
194	0x39141432	0.00014121903
195	0x398fd46b	0.0002743335
196	0x3962b945	0.00021622058
197	0x393ba595	0.00017895394
198	0x392eb5c6	0.00016661649
199	0x392a8155	0.00016260643
200	0x392ba32c	0.00016368617
201	0x39366fc4	0.00017398508
202	0x394ad33f	0.00019342916
203	0x391dc46f	0.00015045864
204	0x3918f131	0.000145857
205	0x391471b7	0.00014156742
206	0x391af1f7	0.00014776723
207	0x3926cdaa	0.0001590761
208	0x391ac49f	0.00014759832
209	0x393b93b0	0.00017888728
210	0x395cef96	0.00021070088
211	0x3917534d	0.00014431514
212	0x392a5390	0.00016243593
213	0x3943f77e	0.00018688847
214	0x3a1e6329	0.00060419977
215	0x38e77795	0.00011037212
216	0x390dbff0	0.0001351831
217	0x39122c2b	0.00013940099
218	0x38eae546	0.00011200695
219	0x39404b33	0.00018338561
220	0x39438692	0.0001864678
221	0x3923e8cd	0.00015631616
222	0x39145cef	0.00014149
223	0x39603937	0.00021383619
224	0x39589693	0.00020655459
225	0x39198c11	0.00014643396
226	0x38fccf9f	0.00012054969
227	0x38fa2be6	0.00011929106
228	0x38c951e3	9.5996795e-05
229	0x39194e62	0.00014620417
230	0x3917fefa	0.00014495468
231	0x39df0dcb	0.0004254415
232	0x393003fe	0.00016786155
233	0x3941355c	0.00018425792
234	0x3904aa29	0.0001265189
235	0x38da7e94	0.00010418627
236	0x393c6d71	0.00017969847
237	0x390b1b24	0.00013266184
238	0x39216296	0.00015390883
239	0x3917f1bc	0.00014490535
240	0x391bada8	0.00014846644
241	0x39285f00	0.00016057119
242	0x39574bdb	0.00020532256
243	0x3962dc53	0.00021635117
244	0x395eaecb	0.00021236685
245	0x3a014913	0.00049318484
246	0x390d9090	0.00013500662
247	0x38f799be	0.000118065145
248	0x39309268	0.00016839209
249	0x391132c4	0.00013847189
250	0x39394747	0.00017669528
251	0x39143d4f	0.00014137219
252	0x394ab45a	0.00019331407
253	0x38e86143	0.000110807385
254	0x39255c99	0.00015770122
255	0x391b3cce	0.00014804603

model.1.weight f4 [32, 1024]
0	0xbcd51786	-0.026012193
1	0x3ccbafd5	0.024864117
2	0xbcb00f99	-0.021491813
3	0xbc859036	-0.016304117
4	0xbccc0864	-0.024906345
5	0xbb2ed3d5	-0.0026676555
6	0x3cee5b55	0.029096285
7	0x3b6be8f6	0.003599701
8	0xbce25dbf	-0.027632592
9	0x3cee605e	0.029098686
10	0xbcc4d204	-0.024025925
11	0x3b809039	0.0039234427
12	0x3c5b53fe	0.0133867245
13	0x3bfb9353	0.0076774745
14	0x3c837b4d	0.016050005
15	0x3ac99141	0.0015378372
16	0xbba2df41	-0.0049704616
17	0x3c50a0f2	0.012733685
18	0x3c23fd58	0.010009132
19	0x3bf9d9e6	0.0076248525
20	0xbc091b7f	-0.008368372
21	0x3bd157f0	0.006388657
22	0xbc699aa7	-0.014258063
23	0xbcc926ac	-0.024554573
24	0x3cc69ec9	0.024245637
25	0x3c56d9fc	0.013113495
26	0xbac10cef	-0.0014728586
27	0x3c1d3cfa	0.0095970575
28	0x3ced7acf	0.028989224
29	0xbc8b43ee	-0.017000165
30	0xbbafa21b	-0.0053599006
31	0xbcb02d65	-0.02150602
32	0xbcc236b9	-0.023707734
33	0xbc2e5c64	-0.010642145
34	0x3c7cb75f	0.015424578
35	0x3cd98a5a	0.026555229
36	0xbcb90514	-0.02258543
37	0x3b393dbf	0.0028265563
38	0x3ceeed43	0.02916587
39	0xbc8b4339	-0.016999828
40	0xbcc9a22d	-0.024613464
41	0xbc0f3ab8	-0.008742027
42	0xbb19aed9	-0.0023450165
43	0x3cfaf83b	0.030635944
44	0x3cf23047	0.029564036
45	0xbcee4d82	-0.029089693
46	0x3a842e2e	0.0010084563
47	0x3cc336e0	0.023829877
48	0xbc73f115	-0.014889021
49	0xbcb1ae5f	-0.021689592
50	0x3bcb2be1	0.006200299
51	0x3a022935	0.0004965247
52	0xbcda9523	-0.026682442
53	0x3cd5a9f6	0.02608202
54	0xbcf17ac5	-0.029477486
55	0x3b3631ed	0.0027800754
56	0xbb391d0a	-0.0028246068
57	0xbca8f4dc	-0.02062457
58	0xbcedf26f	-0.029046265
59	0xbabd0beb	-0.0014423107
60	0x3b92073b	0.0044564283
61	0x3c231768	0.009954311
62	0x3c7c2f3a	0.015392119
63	0xbcd37618	-0.025813147
64	0x3ceb9cf2	0.02876136
65	0xba417639	-0.0007379982
66	0xbc76a524	-0.015054021
67	0x3c9617d1	0.018321903
68	0xbcada98c	-0.02119901
69	0x3ba6f049	0.005094562
70	0xbcf6aa0d	-0.030110383
71	0xbc219de6	-0.009864306
72	0x3c2a318c	0.010387789
73	0xbc84ce89	-0.016211765
74	0x3c998962	0.018742267
75	0xbb94f0c4	-0.004545303
76	0xbcbf537a	-0.023355234
77	0x3b945ccd	0.0045276643
78	0xbc07ecd3	-0.008296209
79	0xbcf38e66	-0.029730987
80	0xbcb4ff32	-0.022094343
81	0x3cb058a1	0.021526637
82	0x3b32f332	0.00273056
83	0xbca71edc	-0.020400457
84	0x3cf7247a	0.03016876
85	0x3c775c56	0.015097698
86	0xbcddd5a1	-0.027079405
87	0xbc11688d	-0.0088750245
88	0xbcb7987b	-0.022411576
89	0x3cd003ac	0.025392376
90	0xbc048883	-0.008089188
91	0x3cdac6ea	0.026706178
92	0xbc9ba9ba	-0.01900183
93	0xbc07bce7	-0.008284784
94	0x3c8f8a88	0.017522112
95	0x3cb58b33	0.022161102
96	0x3beda9fd	0.00725293
97	0x3bde0c1a	0.006776345
98	0xbb36c3d0	-0.002788771
99	0xbcd90f5f	-0.026496587
100	0xbc65c96a	-0.014025072
101	0x3ce31197	0.027718348
102	0xbaca6b66	-0.0015443384
103	0xbb23f524	-0.0025017941
104	0x3cd6169f	0.026133833
105	0x3cfd1a1b	0.030896237
106	0xbc1f8320	-0.0097358525
107	0xbc13f4b4	-0.00903051
108	0x3be50a3c	0.0069897454
109	0x3ce92b1c	0.028462939
110	0xbc882ddf	-0.016623436
111	0x3cd93523	0.026514595
112	0x3cb68d5d	0.022284204
113	0xbc823d38	-0.015898332
114	0xbca6ffe1	-0.020385684
115	0xbcd83c0c	-0.02639582
116	0xbd014db4	-0.031568244
117	0x3cc01a80	0.023450136
118	0x3c980c8b	0.018560668
119	0x3cabf399	0.02099018
120	0xbcc7e7f3	-0.024402594
121	0xbc5dcedc	-0.013538089
122	0x3cad52f3	0.021157717
123	0x3b4030f4	0.0029326053
124	0x3c95173e	0.01819956
125	0xbc3ac91c	-0.011400487
126	0xbc64eeb9	-0.013972932
127	0x3c806565	0.015673349
128	0x3c98debe	0.0186609
129	0x3c28e3c0	0.010308206
130	0xbc11e3f4	-0.008904446
131	0xbc0f77ba	-0.008756572
132	0xbbbaa6c9	-0.005696152
133	0x3cc89507	0.024485124
134	0xbbfcde78	-0.00771695
135	0x3cf522c3	0.029923802
136	0x3af24238	0.001848287
137	0xbcb26b91	-0.021779807
138	0xbc1d857c	-0.009614345
139	0xba8b924a	-0.0010648456
140	0xbb8aec04	-0.004239561
141	0xbca904fa	-0.020632256
142	0xbc60b01b	-0.013713862
143	0x3c970c8b	0.018438598
144	0x3ac5c989	0.0015089969
145	0x3cc3f4fa	0.023920525
146	0xbce7dd25	-0.028303692
147	0xbcb16ec8	-0.02165927
148	0xbcfdc00f	-0.03097537
149	0xbb98f98e	-0.004668421
150	0xbccbf29b	-0.024895957
151	0x3a18c326	0.0005827419
152	0xbbe7d900	-0.007075429
153	0xbc3179ae	-0.010832233
154	0x3c854cfb	0.016272059
155	0x3c41e39f	0.011834054
156	0xbcb214f1	-0.021738501
157	0xbc3a033e	-0.011353312
158	0x3cdf0a99	0.027226733
159	0x3c753441	0.014966072
160	0xbc0ba5fc	-0.0085234605
161	0x3ad20fbe	0.001602642
162	0xbc31deb8	-0.010856323
163	0x3cdd1795	0.026988784
164	0xbc865a54	-0.016400494
165	0x3cb74147	0.022369994
166	0x3ccc6afb	0.024953356
167	0xbc4ef416	-0.012631437
168	0x3ab1b37a	0.0013557517
169	0x3ca206a7	0.019778563
170	0xbc83b65a	-0.016078163
171	0xbc7fe9de	-0.015619723
172	0xbbd5222c	-0.0065043177
173	0x3a5c5264	0.0008404611
174	0x3bfb34c3	0.007666202
175	0xbc401509	-0.011723765
176	0xbca11e4f	-0.019667773
177	0x3b219b99	0.0024659394
178	0xbc242ad0	-0.010019973
179	0xbcaa4ca9	-0.020788508
180	0x3cc9a4ad	0.024614656
181	0x3cbe7ee6	0.02325387
182	0x3cee3f67	0.029082967
183	0x3c3b05cf	0.011414959
184	0xbc98b3a4	-0.018640347
185	0x3b2680bd	0.0025406324
186	0x3c291925	0.010320936
187	0xbcaf0d0a	-0.021368522
188	0xbc975fcd	-0.018478299
189	0x3d0ae868	0.033913046
190	0xbcd4e835	-0.025989631
191	0x3cdf4b34	0.02725754
192	0xbc36eb7b	-0.011164541
193	0x3c017ca1	0.007903249
194	0xbb9d89df	-0.0048076953
195	0x3b3218e9	0.0027175492
196	0x3a8aa428	0.0010577487
197	0xb9aa6bbb	-0.00032505192
198	0x3c86751e	0.016413268
199	0x3c968599	0.018374251
200	0xbc4a1b3f	-0.012335598
201	0xbc86b453	-0.016443407
202	0x3cc2c155	0.023773829
203	0xbc96c413	-0.018404042
204	0x3c137f34	0.009002496
205	0x3c176db6	0.009242466
206	0xbc08bfc5	-0.008346503
207	0x3cd86644	0.026415952
208	0x3ce73bb7	0.028226716
209	0x3cc8043e	0.024416085
210	0x3bddf7e9	0.006773938
211	0x3c9df988	0.019284025
212	0x3cfb81fb	0.030701628
213	0x3cdb2537	0.026751144
214	0x3cc00340	0.02343905
215	0xbcb50464	-0.02209682
216	0x3cdf384a	0.02724852
217	0xbc21ed31	-0.009883211
218	0xbcce96a7	-0.025218321
219	0x3ccc122c	0.024911009
220	0x3c599893	0.013281005
221	0xbc4f449d	-0.012650636
222	0x3c45e43e	0.012078343
223	0x3cec155f	0.028818784
224	0x3c04da27	0.008108652
225	0xbc59e37d	-0.013298866
226	0x3ac90687	0.0015337028
227	0x3c840bf2	0.016118977
228	0xbcba13ac	-0.022714458
229	0x3c02e867	0.007989979
230	0x3c4b17b0	0.012395784
231	0xbc4db800	-0.012556076
232	0x3c0267be	0.007959304
233	0x3cc1d1ce	0.023659613
234	0x3cdcf254	0.02697102
235	0xbc98c230	-0.018647283
236	0xbc58593a	-0.013204867
237	0xbcc27f07	-0.023742212
238	0xbd10b7e6	-0.03533163
239	0x3ccfadf7	0.025351508
240	0x3c12650a	0.008935222
241	0xba27eaf6	-0.00064055563
242	0x3cc6d3b9	0.02427088
243	0xba6ab154	-0.00089528156
244	0xbba70c8a	-0.0050979303
245	0x3c247d62	0.010039659
246	0x3cfca85f	0.030842004
247	0xbc5fe2e9	-0.013664939
248	0x3cbee31b	0.023301652
249	0x39d03625	0.00039713192
250	0xbbe3d4b3	-0.006952846
251	0xbc89462a	-0.01675709
252	0xbcb1b4f9	-0.02169274
253	0x3ba2ab11	0.0049642404
254	0x3c5691df	0.013096302
255	0x3af6df1f	0.0018834806

model.1.bias f4 [32]
0	0xbce28c7e	-0.027654883
1	0xb9bd81fa	-0.0003614573
2	0xbb3341fe	-0.0027352567
3	0xbc3d343e	-0.0115481
4	0xba3f364a	-0.00072941615
5	0x3cd469f5	0.02592943
6	0xba719780	-0.00092159957
7	0xbca147e0	-0.019687593
8	0xbc67b34c	-0.014141869
9	0xbcd66182	-0.026169542
10	0x3a9987e6	0.0011713475
11	0xbc14f1eb	-0.009090881
12	0xbbb168e0	-0.0054141134
13	0x3c6fadbe	0.014628826
14	0xbc9c6d2d	-0.019095028
15	0xbc392957	-0.01130136
16	0x3c06a322	0.008217605
17	0xbccdb5f9	-0.025111185
18	0xbcd7f285	-0.02636076
19	0x3c39c678	0.011338823
20	0x3c2e62db	0.010643686
21	0xbc79d11b	-0.015247609
22	0x3cc8c3f1	0.024507495
23	0x3adcf4d4	0.0016857632
24	0xbcec9656	-0.02888028
25	0x3cfc6150	0.030808121
26	0xbc783385	-0.015149002
27	0xbcecbff5	-0.028900126
28	0x3cd8c40f	0.026460676
29	0xbc1e6340	-0.009667218
30	0x3bfe7f9b	0.0077666766
31	0xbb112c64	-0.0022151703

model.4.weight f4 [64, 32]
0	0xbe2228d0	-0.15835881
1	0x3ca2db72	0.01988003
2	0xbdb5455d	-0.088511206
3	0x3d3f0ded	0.04664414
4	0x3dba07ad	0.09083495
5	0x3dca9f13	0.09893622
6	0x3d6229bd	0.055215586
7	0xbd92b8e9	-0.07164175
8	0xbe224d1a	-0.15849724
9	0x3e159e3a	0.1461114
10	0xbdd9a2c9	-0.10626752
11	0xbd84a836	-0.06477396
12	0x3e278e5b	0.16362898
13	0xbdc5aff1	-0.09652699
14	0xbe0b7dc2	-0.13622192
15	0x3d5fbbfb	0.05462263
16	0xbc8b3108	-0.016991153
17	0xbdaa0120	-0.08300996
18	0x3e1bca1b	0.15213816
19	0x3d53c23f	0.05169892
20	0x3e0846e4	0.13308293
21	0xbdd1c74f	-0.10243093
22	0xbcafe6e9	-0.021472411
23	0x3bf4f844	0.0074758846
24	0xbd4214ec	-0.047383234
25	0xbdef3580	-0.11680126
26	0xbdce47d7	-0.10072296
27	0x3e13a11b	0.14416926
28	0xbd19e118	-0.03756818
29	0x3dd0d7ab	0.101973854
30	0x3d11e141	0.03561521
31	0x3da7a02f	0.081848495
32	0x3e1a1b46	0.15049466
33	0x3e242c68	0.16032565
34	0x3d6a3b31	0.057185356
35	0xbd210585	-0.039311904
36	0xbd9a9afd	-0.07549093
37	0x3e11cc79	0.14238156
38	0x3e1640e4	0.14673191
39	0xbd7198df	-0.05898368
40	0x3bc75227	0.0060827914
41	0x3cd7194f	0.026257185
42	0x3e390475	0.18068106
43	0xbe14167a	-0.14461699
44	0xbe27d62e	-0.16390297
45	0xbdaedab4	-0.08537808
46	0xbd241720	-0.040061116
47	0x3cf8a261	0.030350866
48	0xbe09ef6b	-0.13470237
49	0x3db33064	0.08749464
50	0xbc4c92d3	-0.0124861775
51	0x3da8b280	0.08237171
52	0x3d3fbf65	0.046813387
53	0xbe151fa2	-0.14562848
54	0x3d022840	0.031776667
55	0x3de7cf23	0.11318805
56	0xbdea2edb	-0.11434718
57	0xbdd411cd	-0.10354958
58	0x3dee9b09	0.11650664
59	0x3da340d3	0.079713486
60	0xbdb8e597	-0.09028166
61	0x3daa1505	0.083047904
62	0x3df5f432	0.12009467
63	0xbdd02caf	-0.10164773
64	0x3d589354	0.052874878
65	0xbe1c5c90	-0.15269685
66	0x3df8d5cb	0.12150153
67	0x3db259a4	0.08708504
68	0xb9bf2403	-0.0003645719
69	0x3db85d9f	0.09002232
70	0x3c8a1167	0.016854001
71	0xbd25997a	-0.04042957
72	0x3d0b93b2	0.0340764
73	0xbdceb909	-0.100938864
74	0xbd2f3e53	-0.042784046
75	0x3e1421c3	0.14466004
76	0x3d52aa70	0.051432073
77	0x3d9df611	0.07712949
78	0xbd7e9c92	-0.062161036
79	0xbd7e3717	-0.062064257
80	0xbd32d920	-0.043664098
81	0xbdf887aa	-0.12135251
82	0x3e1ceb0b	0.15324037
83	0x3dcf6d45	0.101282634
84	0xbd79f142	-0.061021097
85	0x3d05dafb	0.03267954
86	0x3d058f44	0.032607332
87	0x3d1d249f	0.038365003
88	0xbca6bba3	-0.020353144
89	0xbd38633b	-0.04501651
90	0xbe2d94a5	-0.16951235
91	0xbe0d31cb	-0.13788526
92	0x3da57bd8	0.08080262
93	0xbd84e8be	-0.064897045
94	0x3d7fe134	0.06247063
95	0x3ddb4b36	0.10707705
96	0x3e2aeba7	0.16691457
97	0x3e0659da	0.13120213
98	0x3dc5f54c	0.09665927
99	0xbd541420	-0.051777005
100	0x3d8e8056	0.06958072
101	0xbdb67cf0	-0.08910549
102	0x3e0f5eb8	0.14000976
103	0x3cae7774	0.021297194
104	0xbe20b778	-0.15694988
105	0xbe12d869	-0.14340366
106	0x3e181c24	0.14854485
107	0x3df86016	0.12127702
108	0xbd65981a	-0.05605326
109	0x3dd1087f	0.102066986
110	0xbdb23771	-0.08701981
111	0xbe2507bd	-0.16116233
112	0x3deab56f	0.11460387
113	0xbe2858c5	-0.16440113
114	0x3b469af1	0.0030304755
115	0xbde16abb	-0.11006685
116	0xbdf9c58c	-0.12195882
117	0xbd673cd5	-0.0564545
118	0x3dbf0cb2	0.09328593
119	0x3df3229f	0.11871838
120	0x3d9e54eb	0.077310406
121	0xbe2b13ee	-0.16706821
122	0x3d8af127	0.067842774
123	0x3dde6ce1	0.10860611
124	0xbd9fc3ca	-0.07801016
125	0x3d89f232	0.06735648
126	0xbd75fdf4	-0.06005664
127	0x3dcb2ff3	0.09921255
128	0xbdba03f6	-0.09082787
129	0xbd62b39d	-0.055347074
130	0x3d56363e	0.052297823
131	0xbcf1cc1b	-0.02951627
132	0xbe295fdf	-0.16540478
133	0x3cdacea2	0.026709858
134	0x3e246d5e	0.16057345
135	0xbdddd98e	-0.10832511
136	0x3dc01da4	0.093806535
137	0x3cc7b166	0.024376582
138	0xbdc765ef	-0.09736239
139	0xbd2e0c4d	-0.0424922
140	0xbd8bbd61	-0.068232305
141	0xbd03f83e	-0.032219164
142	0x3cedde99	0.029036807
143	0x3d7d0006	0.0617676
144	0xbe2a8ca5	-0.16655214
145	0xbe2689d2	-0.16263512
146	0x3af8b607	0.0018975147
147	0x3b9a6b47	0.0047124955
148	0x3d506183	0.050874244
149	0xbe237f7a	-0.15966597
150	0xbe06dc68	-0.13170016
151	0xbd2e141f	-0.042499658
152	0x3d7b9074	0.061417058
153	0x3d0e15d9	0.034688804
154	0xbd669ecf	-0.056303795
155	0x3dd8d9cb	0.10588416
156	0xbdf55329	-0.11978752
157	0xbbcb569f	-0.0062053944
158	0xbcd662b0	-0.026170105
159	0x3d2ceabe	0.042216055
160	0xbd37eb83	-0.044902336
161	0x3dcfc651	0.10145248
162	0x3dd4cb33	0.1039032
163	0xbdffc298	-0.12488288
164	0x3b6c45d2	0.0036052358
165	0xbd67e314	-0.056613043
166	0xbd683889	-0.05669454
167	0x3dc6295e	0.09675859
168	0x3d01317a	0.031541325
169	0xbe0695c5	-0.1314307
170	0x3e22105f	0.15826558
171	0xbd9e7d6a	-0.077387646
172	0xbe0b344c	-0.13594168
173	0xbe16bc3c	-0.14720243
174	0x3e31d5b8	0.17366683
175	0xbd98a5ef	-0.07453524
176	0x3e1303fe	0.14356992
177	0xbce96926	-0.028492521
178	0x3dc7c48c	0.09754285
179	0xbc808fc2	-0.015693549
180	0x3dec92c8	0.11551434
181	0xbe2bb6d7	-0.16768967
182	0xbda25318	-0.07926005
183	0x3d0c750b	0.03429131
184	0xbc278177	-0.010223738
185	0x3dc50cd7	0.0962159
186	0xbe18fac1	-0.14939405
187	0xbbb8d287	-0.005640331
188	0x3d767a56	0.060175262
189	0xbbe2d729	-0.0069226217
190	0xbde868df	-0.113481276
191	0xbcaec2a4	-0.021333046
192	0xbd876edf	-0.06612944
193	0x3d169cf6	0.036770783
194	0xbe09c823	-0.13455252
195	0x3c80611b	0.015671303
196	0xbcee910b	-0.029121896
197	0xbca71ad9	-0.020398544
198	0x3da7da71	0.08195961
199	0x3cacc3f7	0.021089537
200	0x3cf35cbb	0.029707303
201	0xbe0a15a4	-0.13484818
202	0xbe13af57	-0.14422356
203	0xbdcde28c	-0.10052976
204	0xbc451239	-0.01202827
205	0x3e337b94	0.1752761
206	0x3d3d3758	0.046195358
207	0x3d9d57cb	0.07682761
208	0x3e2ed6a5	0.17074068
209	0xbd87cece	-0.06631242
210	0xbe0948df	-0.13406704
211	0x3da1031f	0.078619234
212	0xbe13cdb1	-0.14433934
213	0xbdc81d98	-0.097712696
214	0x3d2f522a	0.042802967
215	0x3dc3301e	0.09530662
216	0x3d9675b4	0.07346669
217	0xbe2088e8	-0.15677226
218	0x3d91a0f8	0.071107805
219	0xbdb58300	-0.08862877
220	0xbe15f879	-0.14645566
221	0xbe1b4bc2	-0.15165618
222	0x3db3796b	0.08763393
223	0xbd344ff7	-0.044021573
224	0xbe14294c	-0.14468879
225	0xbd878ae2	-0.06618287
226	0xbe17b483	-0.14814954
227	0x3c63dfd2	0.013908343
228	0xbd816963	-0.06318929
229	0x3e2cc869	0.16873325
230	0xbe09255f	-0.13393162
231	0xbdd73628	-0.10508376
232	0x3dd1379e	0.10215686
233	0xbdaf3f9f	-0.08557057
234	0xbdfc4d28	-0.12319404
235	0xbdcac36d	-0.09900556
236	0x3d1613c5	0.036639947
237	0x3c7b112b	0.015323917
238	0xbd22a711	-0.03971011
239	0xbe196d92	-0.14983204
240	0xbdfe6bf4	-0.12422934
241	0x3d03833f	0.032107588
242	0x3e14937f	0.1450939
243	0x3e2c3eec	0.16820878
244	0x3c8644b4	0.016390182
245	0x3d98fc4e	0.07469998
246	0xbdbb79bc	-0.09154078
247	0xbe1b36a5	-0.15157564
248	0xbe331383	-0.17487912
249	0xbe13ce13	-0.1443408
250	0xbd723266	-0.059130095
251	0xbcffc4cf	-0.031221775
252	0xbd51cd4d	-0.05122118
253	0x3e0d7bb5	0.13816722
254	0xbdee8c0c	-0.116478056
255	0xbe1cbd5c	-0.1530661

model.4.bias f4 [64]
0	0x3db983b6	0.09058325
1	0x3cbda5e8	0.0231504
2	0x3e078f10	0.13238168
3	0xbe1e74d7	-0.15474258
4	0xbe2c99e5	-0.16855581
5	0xbce8aedb	-0.02840369
6	0x3c7b7132	0.015346812
7	0xbbc6f5ac	-0.006071767
8	0xbd206d87	-0.039166953
9	0xbdb6229d	-0.08893321
10	0xbe0cdd2e	-0.13756248
11	0xbdb35d35	-0.08758012
12	0xbdb8cbed	-0.09023271
13	0xbde7e99b	-0.113238536
14	0xbe2c0220	-0.16797686
15	0x3c414cc9	0.011798092
16	0x3e14c1dd	0.14527078
17	0xbe28af29	-0.16473068
18	0xbe034417	-0.12818943
19	0x3da00ea1	0.0781529
20	0xbe13292d	-0.14371176
21	0xbd9d287d	-0.07673738
22	0xbd50535f	-0.05086076
23	0x3dd43e9f	0.103635065
24	0xbdefb2ce	-0.11704026
25	0x3db8b01f	0.090179674
26	0xbd851f83	-0.06500151
27	0xbd3de9db	-0.0463656
28	0xbe2e222a	-0.1700522
29	0x3cbf2037	0.02333079
30	0xbd9e6a0b	-0.0773507
31	0xbe0d3752	-0.13790634
32	0xbe220424	-0.15821892
33	0x3e32db21	0.17466404
34	0xbd6cf2a7	-0.0578486
35	0x3d0f17cd	0.034934808
36	0x3dfb01bd	0.12256191
37	0x3e00c155	0.1257375
38	0x3e14578e	0.14486524
39	0xbd946f49	-0.072477885
40	0x3e0fc7a1	0.14040996
41	0x3cbc3cdf	0.022978244
42	0x3d1dfe92	0.038572855
43	0x3dd91c90	0.10601151
44	0x3c29c093	0.010360855
45	0x3d6fb0dc	0.058518276
46	0xbcdf31d9	-0.027245449
47	0xbd0d8cbd	-0.034558047
48	0xbe2ad087	-0.1668111
49	0x3e3b1af2	0.18271998
50	0x3dab85d2	0.083751336
51	0x3c910d49	0.01770653
52	0xbd5e4399	-0.054263685
53	0xbd5c245c	-0.053745613
54	0xbe0f5e6d	-0.14000864
55	0x3e0d6db4	0.1381138
56	0x3d7c1707	0.061545398
57	0xbd0b6db0	-0.034040153
58	0xbdab2372	-0.0835637
59	0x3d68cbfc	0.05683516
60	0x3e2b8013	0.16748075
61	0xbdde45dd	-0.10853169
62	0xbd43c135	-0.04779168
63	0xbe047fce	-0.12939379

model.7.weight f4 [1, 64]
0	0x3d22d3a6	0.039752625
1	0x3d806d03	0.06270792
2	0x3de86ee9	0.113492794
3	0xbcca0dbe	-0.024664756
4	0x3d236cf7	0.03989884
5	0xbcf1e476	-0.029527884
6	0x3cf09ccf	0.029371647
7	0xbd78a5c7	-0.060704973
8	0x3da20fb3	0.07913151
9	0xbd506431	-0.0508768
10	0x3dea13aa	0.11429532
11	0xbda0adbe	-0.07845639
12	0xbd69f850	-0.057121575
13	0xbc834253	-0.016022837
14	0x3c9e040c	0.01928904
15	0x3d898cb3	0.06716289
16	0x3ddb8259	0.10718221
17	0x3d201503	0.03908254
18	0x3d3477b8	0.044059485
19	0xbb7fdf4f	-0.0039043014
20	0xbd089c1d	-0.033352006
21	0xbd185327	-0.037188675
22	0xbd47aee6	-0.04875078
23	0xbcf99df4	-0.030470826
24	0x3cdf5b5e	0.027265247
25	0xbcb453fa	-0.0220127
26	0x3d64ee6e	0.055891447
27	0x3d4e67da	0.05039201
28	0x3c1dc54e	0.009629561
29	0xbdbe4cf6	-0.09292023
30	0x3d44ae06	0.048017524
31	0x3ddc414c	0.10754642
32	0x3c684476	0.014176479
33	0xbddaab71	-0.10677231
34	0xbd4804a7	-0.04883256
35	0x3d125b66	0.035731696
36	0xbdebc6f9	-0.115125604
37	0xbdf431ce	-0.11923562
38	0x3d9e771d	0.07737563
39	0xbd002cc1	-0.03129268
40	0xbdb5fe4a	-0.088863924
41	0xbdbc3999	-0.091906734
42	0xbdd9348c	-0.10605726
43	0x3d29d10b	0.041459125
44	0xbd5a6922	-0.05332292
45	0xbd4ebfa9	-0.05047575
46	0x3d56e44c	0.052463815
47	0xbd9ba342	-0.07599498
48	0x3d0f316e	0.03495925
49	0xbdfc73a0	-0.12326741
50	0x3c8f4fc9	0.0174941
51	0x3d9d0390	0.07666695
52	0x3df2da49	0.11858041
53	0xbd91f746	-0.07127242
54	0xbc400a24	-0.011721168
55	0x3c8db270	0.017297
56	0xbc68666e	-0.014184577
57	0x3d4b233f	0.04959416
58	0xbde7dd52	-0.113215104
59	0xbd958f32	-0.07302703
60	0xbd8a12af	-0.06741845
61	0x3dc8a1e9	0.09796507
62	0xbcdbbd48	-0.026823655
63	0xbd8ee347	-0.069769435
