mlp_binary_model.pth (torch, 612092 bytes, 9 tensors)

model.0.weight f4 [1024]
0	0x3f800a07	1.000306
1	0x3f7f2389	0.996636
2	0x3f803b63	1.0018123
3	0x3f80bb3f	1.0057143
4	0x3f805a8a	1.002763
5	0x3f7e8c52	0.9943286
6	0x3f81b90d	1.0134598
7	0x3f80f0be	1.0073469
8	0x3f80b4d0	1.005518
9	0x3f7fa8fa	0.9986721
10	0x3f804617	1.002139
11	0x3f803eb3	1.0019134
12	0x3f80597c	1.0027308
13	0x3f801c3f	1.000862
14	0x3f80eb7a	1.0071862
15	0x3f8041d6	1.0020092
16	0x3f808ba1	1.0042611
17	0x3f8067e1	1.0031701
18	0x3f80f4b1	1.0074674
19	0x3f80c3af	1.0059718
20	0x3f7fd73a	0.99937785
21	0x3f808895	1.0041682
22	0x3f81917d	1.0122524
23	0x3f8016e8	1.000699
24	0x3f810f17	1.008273
25	0x3f7f11ae	0.9963635
26	0x3f7fbf0a	0.9990088
27	0x3f7f866e	0.998145
28	0x3f7f5d6f	0.99751943
29	0x3f7f1a72	0.9964973
30	0x3f802b93	1.0013298
31	0x3f7f4fb8	0.99731016
32	0x3f807b90	1.0037708
33	0x3f80245d	1.0011097
34	0x3f7f2d5a	0.99678576
35	0x3f807003	1.0034183
36	0x3f81d13f	1.0141982
37	0x3f8092b1	1.0044767
38	0x3f80140a	1.0006115
39	0x3f8069c8	1.0032282
40	0x3f8060b0	1.0029507
41	0x3f7e202b	0.99267834
42	0x3f7fffb9	0.99999577
43	0x3f813ee3	1.0097317
44	0x3f7ef7e5	0.9959701
45	0x3f82aa4d	1.0208222
46	0x3f80016f	1.0000437
47	0x3f7eda90	0.9955225
48	0x3f7f5ef9	0.9975429
49	0x3f80180a	1.0007336
50	0x3f8137fb	1.0095209
51	0x3f7fbcf4	0.99897695
52	0x3f804dcc	1.0023742
53	0x3f800836	1.0002506
54	0x3f7e3d03	0.99311846
55	0x3f7fd78a	0.9993826
56	0x3f8015fa	1.0006707
57	0x3f81af8c	1.0131698
58	0x3f814544	1.0099263
59	0x3f8014d0	1.0006351
60	0x3f80fc07	1.0076913
61	0x3f81d71a	1.0143769
62	0x3f8096d2	1.0046027
63	0x3f7f8f33	0.9982788
64	0x3f80ccd9	1.0062515
65	0x3f80b69c	1.0055728
66	0x3f8035df	1.001644
67	0x3f81b159	1.0132247
68	0x3f807d7e	1.0038297
69	0x3f806bbc	1.0032878
70	0x3f811c81	1.0086824
71	0x3f8078f8	1.0036917
72	0x3f7f8b49	0.9982191
73	0x3f812531	1.0089475
74	0x3f801619	1.0006744
75	0x3f80de90	1.0067921
76	0x3f806f79	1.0034019
77	0x3f80fd26	1.0077255
78	0x3f7fdd74	0.99947286
79	0x3f805273	1.0025162
80	0x3f7fecca	0.99970686
81	0x3f80ecff	1.0072325
82	0x3f7f6aba	0.99772227
83	0x3f805b25	1.0027815
84	0x3f80be7c	1.0058131
85	0x3f7f5373	0.9973671
86	0x3f81a32e	1.0127923
87	0x3f80839c	1.0040164
88	0x3f7f98b0	0.9984236
89	0x3f7fa1d4	0.99856305
90	0x3f80000d	1.0000015
91	0x3f7fec87	0.9997029
92	0x3f7e37c4	0.9930384
93	0x3f7f9a2c	0.9984462
94	0x3f80ffbf	1.0078048
95	0x3f804c48	1.0023279
96	0x3f81503f	1.0102614
97	0x3f8089f7	1.0042104
98	0x3f8013fd	1.00061
99	0x3f7e4a0a	0.99331725
100	0x3f7fbf06	0.99900854
101	0x3f80e204	1.0068974
102	0x3f7f9a17	0.998445
103	0x3f807be9	1.0037814
104	0x3f809861	1.0046502
105	0x3f805850	1.0026951
106	0x3f804ef2	1.0024092
107	0x3f8054b5	1.002585
108	0x3f80985d	1.0046498
109	0x3f7fb490	0.9988489
110	0x3f802cfc	1.0013728
111	0x3f80aaab	1.0052084
112	0x3f807234	1.0034852
113	0x3f801bde	1.0008504
114	0x3f806386	1.0030372
115	0x3f803894	1.0017266
116	0x3f7ffe0a	0.9999701
117	0x3f7fd867	0.9993958
118	0x3f805316	1.0025356
119	0x3f7fe8dc	0.9996469
120	0x3f7fbbe8	0.998961
121	0x3f80991f	1.0046729
122	0x3f8099a9	1.0046893
123	0x3f7ec7dc	0.9952371
124	0x3f81b563	1.013348
125	0x3f7f49b0	0.99721813
126	0x3f80c957	1.0061444
127	0x3f81402c	1.0097709
128	0x3f80a593	1.0050529
129	0x3f80ba06	1.005677
130	0x3f806a12	1.003237
131	0x3f806640	1.0031204
132	0x3f7df2f1	0.99198824
133	0x3f7f2931	0.9967223
134	0x3f80c2a0	1.0059395
135	0x3f813838	1.0095282
136	0x3f8018dd	1.0007588
137	0x3f80f98c	1.0076156
138	0x3f7f8877	0.99817604
139	0x3f804651	1.0021459
140	0x3f808aad	1.004232
141	0x3f814b41	1.0101091
142	0x3f802e38	1.0014105
143	0x3f81d8f2	1.0144331
144	0x3f80e67e	1.0070341
145	0x3f806bc3	1.0032886
146	0x3f80da6d	1.0066658
147	0x3f7fd857	0.99939483
148	0x3f80454f	1.0021151
149	0x3f812937	1.0090703
150	0x3f800ef4	1.0004563
151	0x3f800e8d	1.000444
152	0x3f7f9e13	0.9985058
153	0x3f80a6d1	1.0050908
154	0x3f8030c4	1.0014882
155	0x3f80167e	1.0006864
156	0x3f807578	1.0035849
157	0x3f7e1d77	0.9926371
158	0x3f7ed4e6	0.9954361
159	0x3f8020a2	1.0009959
160	0x3f8158f2	1.0105269
161	0x3f808d20	1.0043068
162	0x3f81410e	1.0097978
163	0x3f801283	1.0005649
164	0x3f7fab05	0.9987033
165	0x3f801c14	1.0008569
166	0x3f80212a	1.0010121
167	0x3f7f5e19	0.99752957
168	0x3f80111e	1.0005224
169	0x3f801d98	1.0009031
170	0x3f80b303	1.005463
171	0x3f7f95c8	0.99837923
172	0x3f810e67	1.008252
173	0x3f802504	1.0011296
174	0x3f801bf3	1.000853
175	0x3f80f638	1.007514
176	0x3f81f43a	1.0152657
177	0x3f810d25	1.0082136
178	0x3f80a039	1.0048896
179	0x3f800b58	1.0003462
180	0x3f80335a	1.0015671
181	0x3f800f1c	1.0004611
182	0x3f7fd38a	0.9993216
183	0x3f80d8ad	1.0066124
184	0x3f801cab	1.0008749
185	0x3f808186	1.0039527
186	0x3f7fbb53	0.9989521
187	0x3f80306f	1.0014781
188	0x3f7fd2e4	0.9993117
189	0x3f80773c	1.0036387
190	0x3f801705	1.0007025
191	0x3f8092d7	1.0044812
192	0x3f8067fe	1.0031736
193	0x3f803a65	1.0017821
194	0x3f7fcbfe	0.9992064
195	0x3f7f6d65	0.997763
196	0x3f80446a	1.0020878
197	0x3f81a188	1.012742
198	0x3f8099ba	1.0046914
199	0x3f7fc1fa	0.9990536
200	0x3f81600d	1.0107437
201	0x3f80472c	1.002172
202	0x3f81275a	1.0090134
203	0x3f7ed445	0.9954265
204	0x3f7e9243	0.9944193
205	0x3f80f44d	1.0074555
206	0x3f801bad	1.0008446
207	0x3f7ff42a	0.9998194
208	0x3f7dfc32	0.99212945
209	0x3f800825	1.0002486
210	0x3f7f784c	0.99792933
211	0x3f800834	1.0002503
212	0x3f80a0f0	1.0049114
213	0x3f8016ae	1.0006921
214	0x3f807f05	1.0038763
215	0x3f80be4a	1.0058072
216	0x3f800ac4	1.0003285
217	0x3f81cbe5	1.0140349
218	0x3f80172c	1.0007071
219	0x3f7ffe54	0.9999745
220	0x3f7fee39	0.99972874
221	0x3f808fb7	1.0043858
222	0x3f806925	1.0032088
223	0x3f80502a	1.0024464
224	0x3f7e4648	0.9932599
225	0x3f806a0d	1.0032364
226	0x3f806ead	1.0033776
227	0x3f806bbc	1.0032878
228	0x3f8101bf	1.0078658
229	0x3f809011	1.0043966
230	0x3f8001fd	1.0000607
231	0x3f80458a	1.0021222
232	0x3f803935	1.0017458
233	0x3f809e7b	1.0048364
234	0x3f80e466	1.0069702
235	0x3f7e6a0c	0.99380565
236	0x3f80ac85	1.0052649
237	0x3f811d43	1.0087055
238	0x3f81648b	1.0108808
239	0x3f809f15	1.0048548
240	0x3f805b18	1.00278
241	0x3f809b8d	1.004747
242	0x3f81486e	1.0100229
243	0x3f807c47	1.0037926
244	0x3f807227	1.0034837
245	0x3f7fe9ba	0.99966013
246	0x3f80120a	1.0005505
247	0x3f80d62a	1.0065358
248	0x3f80a89f	1.0051459
249	0x3f7fb527	0.9988579
250	0x3f800003	1.0000004
251	0x3f80ac7a	1.0052636
252	0x3f80192f	1.0007685
253	0x3f7f4857	0.99719757
254	0x3f7ec2c7	0.99515957
255	0x3f80f238	1.0073919

model.0.bias f4 [1024]
0	0xbb500fd9	-0.0031747727
1	0x3ba931f4	0.0051634256
2	0xbba742a2	-0.005104379
3	0xbad98371	-0.0016594959
4	0x3ac20a3f	0.0014804079
5	0x398c8417	0.00026801295
6	0xbc6976da	-0.014249528
7	0x3c8762d7	0.016526623
8	0xbb963d06	-0.0045849113
9	0x3be3233b	0.00693169
10	0x3a820aff	0.000992149
11	0x3a8b7bd1	0.0010641759
12	0xbbb2cf8f	-0.005456872
13	0x3c21f7fc	0.009885784
14	0x3b8cc72c	0.004296204
15	0x3c39a430	0.011330649
16	0x3c5c9ccb	0.013465117
17	0x3aafa88b	0.001340167
18	0xbb33b024	-0.002741822
19	0x3c52578b	0.012838255
20	0xbbfad455	-0.0076547065
21	0xbb06e178	-0.0020581167
22	0xbc31f5a7	-0.010861791
23	0x3b4406ff	0.0029911397
24	0xbc7deb1b	-0.015497948
25	0xbc4c9f8e	-0.012489213
26	0xbb473e32	-0.0030402062
27	0x39cec26e	0.00039436243
28	0x3b8ae166	0.0042382954
29	0xbc1254a3	-0.008931312
30	0xbb18643c	-0.0023253104
31	0x3b86d904	0.0041152257
32	0x3b6adf14	0.0035838531
33	0xbaf521c0	-0.0018702075
34	0xbae926a2	-0.0017788003
35	0xbb10d1d3	-0.0022097721
36	0xbc394214	-0.011307258
37	0x3ba2b812	0.0049657905
38	0x3b54d46b	0.0032475244
39	0xb84e567a	-4.9194765e-05
40	0x3c6eebb7	0.014582566
41	0xbcaf4afc	-0.02139806
42	0xbc133355	-0.0089844065
43	0x3be1a6cf	0.00688634
44	0xbc47da15	-0.012197991
45	0xbc37519b	-0.01118889
46	0x3c387b0e	0.011259807
47	0xbc0a5e48	-0.00844533
48	0xbbc2a2ec	-0.005939832
49	0xbb41b945	-0.0029559892
50	0x3cacf199	0.021111296
51	0x3a54e2d6	0.00081209594
52	0x3c473429	0.012158432
53	0xbae0d7cf	-0.001715416
54	0x3b3112db	0.0027019295
55	0xbb3a5370	-0.002843108
56	0x3b72e839	0.0037064685
57	0x3c435d53	0.011924106
58	0x3c2c43b9	0.010514193
59	0xbb4331e1	-0.0029784369
60	0xbc21e902	-0.009882214
61	0x3c1cf4fe	0.009579895
62	0x3b386904	0.0028138766
63	0xbc351e55	-0.011054595
64	0xbb279d30	-0.0025575869
65	0x3b97e204	0.0046350975
66	0x3bb74dc0	0.0055939853
67	0xbc0c7689	-0.008573183
68	0x3c608005	0.013702397
69	0xbc13887d	-0.009004709
70	0xbb4b151b	-0.0030987922
71	0x3be3f7f4	0.0069570486
72	0x3c39439d	0.011307624
73	0xbc47b12b	-0.012188236
74	0xbc3917ac	-0.011297148
75	0x3bfadde2	0.007655845
76	0x3bb51aa4	0.0055268575
77	0x3aaa8056	0.0013008218
78	0xbb5e4ad2	-0.0033919108
79	0xbbfa74e9	-0.0076433313
80	0xbc115401	-0.008870126
81	0xbbbe3e3d	-0.005805759
82	0xbc3b4b28	-0.011431493
83	0x39ed48d6	0.0004525843
84	0x3c7594b7	0.01498907
85	0x3c43db09	0.0119540775
86	0xbbc1077c	-0.005890785
87	0x3b04de55	0.0020274122
88	0xbb2b10b7	-0.0026102492
89	0xbc1f4cc5	-0.009722893
90	0x3c20ef5e	0.009822695
91	0xbbe8a556	-0.0070997877
92	0x3c091fe8	0.008369423
93	0xb9724d86	-0.00023107798
94	0x3b9289e9	0.0044720066
95	0xbb78c2c6	-0.003795789
96	0x3c32d85c	0.010915842
97	0x3a01c83c	0.0004950797
98	0x3c678135	0.014129926
99	0xbbbad5ce	-0.005701757
100	0xbc25f77b	-0.010129805
101	0x3c148979	0.009065979
102	0x3bb85504	0.005625369
103	0x3bc719d5	0.0060760775
104	0xbae94d9b	-0.0017799617
105	0xbb8a5ed9	-0.0042227325
106	0x3c659fc3	0.014015141
107	0x3c5f4726	0.013627803
108	0x3b86ebb5	0.004117454
109	0xbab45d76	-0.0013760764
110	0x3aab90de	0.0013089438
111	0x3c475455	0.012166102
112	0xba798ce0	-0.0009519588
113	0x38b3bdf6	8.570768e-05
114	0xbb224a0c	-0.0024763374
115	0x3b7f7b73	0.0038983494
116	0x3c1ecc9d	0.009692338
117	0x3bed470d	0.007241136
118	0x3bff48f4	0.007790679
119	0xbc365dc5	-0.011130755
120	0x3bbb1de8	0.005710352
121	0x3c36e882	0.011163833
122	0x3ad0e0bb	0.0015936116
123	0xbbe9f12f	-0.007139347
124	0x3c8c7e86	0.017150175
125	0xbc6ccbce	-0.014452888
126	0xbbdfbecc	-0.0068281647
127	0x3c56ace9	0.013102748
128	0xbc437026	-0.011928594
129	0xbc58eb1b	-0.013239647
130	0xbbbdb34f	-0.0057891975
131	0xbc0ad938	-0.008474641
132	0x3bfdfb57	0.0077509093
133	0x3bf40dad	0.0074479193
134	0xbbd39b0f	-0.0064576934
135	0x3b5ed5de	0.0034001986
136	0xbbc6b615	-0.0060641863
137	0x3c183f51	0.00929244
138	0x3aab1838	0.0013053482
139	0xbb9748d1	-0.0046168347
140	0xbbcd0979	-0.0062572327
141	0x3c0f5013	0.0087471185
142	0x3c09c792	0.008409398
143	0xbc9aa3be	-0.018876906
144	0xbbd90121	-0.006622449
145	0xbba9b9fd	-0.0051796422
146	0x3ae34336	0.0017338756
147	0xbc43a992	-0.011942284
148	0xba19f0cc	-0.00058723683
149	0x3bf9745c	0.007612748
150	0x3c4a5d42	0.012351336
151	0x3ba44bb5	0.005013908
152	0xbc3724c6	-0.011178201
153	0xbb32892a	-0.00272424
154	0x3a26bcd6	0.0006360536
155	0xbc05d58c	-0.008168589
156	0xbc0cd4fa	-0.008595699
157	0xbb87d9af	-0.004145823
158	0x3c343b6b	0.0110004945
159	0x3ad5f6a8	0.001632412
160	0xba8a626d	-0.0010557898
161	0x3c7c2c74	0.015391458
162	0xbc8e96a3	-0.017405814
163	0x3c13f837	0.009031347
164	0x3bc7af5a	0.0060939016
165	0xba4a6062	-0.00077200506
166	0xbbb869c0	-0.0056278408
167	0x3b301aaf	0.0026871373
168	0x3a90f6ee	0.0011059919
169	0xbbbcfebb	-0.005767671
170	0x3bf30749	0.00741664
171	0x3a4d71fc	0.00078371144
172	0x3c435b75	0.0119236605
173	0x3c92a18f	0.017899303
174	0xbbc81b85	-0.006106796
175	0x3c46e6b1	0.012139962
176	0x3c7622eb	0.0150229735
177	0x3c688593	0.014192003
178	0xbb6e3242	-0.0036345874
179	0xbb8d3ab9	-0.004309979
180	0x3b4ae1fc	0.003095745
181	0x3bd1ae46	0.006398949
182	0x3b91cb44	0.00444928
183	0x3c0af544	0.008481327
184	0x3bdcb725	0.0067356997
185	0xbc7f823b	-0.015595014
186	0xbb06829c	-0.0020524627
187	0x3c645dcc	0.013938379
188	0x3c55a741	0.013040365
189	0x3c142362	0.009041639
190	0xbc554589	-0.013017067
191	0x3be0bd4b	0.006858503
192	0xbbeddcf6	-0.0072590066
193	0x3c0ea32a	0.0087058935
194	0x3bdf14d6	0.0068079038
195	0x3ab97421	0.0014148989
196	0xbbb47340	-0.005506903
197	0xbbb5097f	-0.0055248137
198	0x3bb1c060	0.005424544
199	0xb4c5ad0f	-3.6820026e-07
200	0xbc753880	-0.014967084
201	0x3c5fa54c	0.01365025
202	0x3b1a743f	0.0023567823
203	0xbc810292	-0.015748296
204	0xba2add0b	-0.00065179233
205	0xbbb29a5f	-0.0054505314
206	0xbbd4dc3e	-0.0064959815
207	0x3c5b9b13	0.013403672
208	0x3b6872c7	0.0035468803
209	0x3aff9b0c	0.0019501164
210	0xbc29b8d1	-0.010359005
211	0xbc25b565	-0.010114049
212	0x3bba62a2	0.0056880275
213	0xbc670258	-0.01409968
214	0x3b62d7e4	0.0034613544
215	0xbc9517a3	-0.018199747
216	0xbb0a17a6	-0.0021071224
217	0x3c2bfa17	0.010496638
218	0x3be45d50	0.0069691315
219	0xb9e78dce	-0.00044165406
220	0x3c2fe1df	0.010735004
221	0x3b4c6dfb	0.0031193483
222	0xbc36b333	-0.011151123
223	0xbc91d4ea	-0.01780172
224	0x39b05459	0.0003363218
225	0x3c3e6e65	0.011623
226	0xbbb50e91	-0.005525418
227	0x3a0bddbc	0.000533547
228	0x3c0500a2	0.008117827
229	0xbbb44e90	-0.0055025294
230	0x3b460460	0.003021501
231	0xbc30f79e	-0.010801224
232	0x3c3b8b1b	0.01144674
233	0xbc7108f5	-0.014711608
234	0x3aa14bb2	0.0012305884
235	0xbb864515	-0.0040975907
236	0x39d2d455	0.0004021252
237	0xbc9a3a24	-0.018826552
238	0x3c3d5e86	0.011558181
239	0xbc348f94	-0.01102056
240	0x3b72d164	0.0037051076
241	0xba9f9d6f	-0.0012177656
242	0x3c95ad6a	0.018271167
243	0xbc7db5a8	-0.015485205
244	0x3babe8c4	0.0052462537
245	0xbc14717f	-0.009060263
246	0x3c798da2	0.015231522
247	0x3c7a76f8	0.015287153
248	0x3b82e06e	0.0039940393
249	0xbc890703	-0.016726976
250	0x3c1bb111	0.009502665
251	0x3b958853	0.0045633703
252	0xba1a8db4	-0.0005895749
253	0xb97638a8	-0.00023481494
254	0x3c5afe5a	0.013366306
255	0xbb7b8c6a	-0.0038383254

model.0.running_mean f4 [1024]
0	0xbd6caf8c	-0.057784602
1	0xbc912706	-0.017718803
2	0x3c024997	0.0079521155
3	0xbcd06a71	-0.02544138
4	0x3b2c6c49	0.002630966
5	0xbc55928e	-0.01303543
6	0x3d218c3b	0.039440375
7	0xbba2622a	-0.0049555497
8	0xbb9939ce	-0.0046760803
9	0x3d0517c0	0.032493353
10	0xbc2f1767	-0.010686732
11	0x3b98bad4	0.0046609435
12	0xbb903f86	-0.004402104
13	0xbc5acb60	-0.013354152
14	0x3bbbe5fe	0.0057342043
15	0x3c2823ff	0.010262488
16	0xbd0b4dec	-0.03400986
17	0xbccc9396	-0.024972718
18	0xba336a90	-0.0006844187
19	0x3c0edf78	0.008720271
20	0x3c76b9c4	0.015058938
21	0xbac00d6a	-0.0014652435
22	0x3c97af73	0.018516278
23	0x3d945a57	0.072437935
24	0x3c9e08fe	0.019291397
25	0x3cf46db3	0.029837465
26	0xbcd61d1f	-0.026136933
27	0x3c38fb25	0.011290346
28	0xbbb92c5f	-0.0056510414
29	0xbc449e00	-0.012000561
30	0x3cce3215	0.025170365
31	0xbc790a98	-0.01520028
32	0xbc01b039	-0.00791555
33	0x3c1a46b9	0.009416276
34	0xbb2c30d2	-0.0026274216
35	0x3c829123	0.015938347
36	0xbc3a11a7	-0.011356748
37	0x3bd749ff	0.0065701003
38	0xbced6370	-0.02897808
39	0xbbb684ef	-0.005570046
40	0x3c40f128	0.011776246
41	0x3ccaca3d	0.024754638
42	0xbaa39b07	-0.0012482115
43	0xbd36c0f5	-0.044617612
44	0xbcc59571	-0.02411911
45	0x3b5e43e7	0.0033914985
46	0xba24b78c	-0.0006283454
47	0xbcca4788	-0.024692312
48	0xbc453ad3	-0.012037951
49	0x3dab9c9c	0.0837948
50	0xbccc8151	-0.024964007
51	0xbc8be873	-0.017078614
52	0xbc9e9c39	-0.019361602
53	0x3c0fc7c7	0.008775658
54	0x3c20ca90	0.00981392
55	0xbc0d33e9	-0.008618333
56	0x3d076443	0.0330546
57	0x3c10e937	0.008844665
58	0xbbb49ca9	-0.0055118394
59	0xbc355537	-0.01106768
60	0x3c334b4c	0.010943245
61	0xbcaf7532	-0.021418188
62	0xbc2feb20	-0.0107372105
63	0x3cbfa0fe	0.023392197
64	0xba9a735e	-0.001178365
65	0xbc744210	-0.014908329
66	0x3babdbe3	0.0052447184
67	0x3bd76902	0.006573797
68	0x3af4a4d1	0.0018664842
69	0x3bc94122	0.0061417976
70	0x3d1d4848	0.03839901
71	0x3c3c2b42	0.011484923
72	0xbc817511	-0.015802892
73	0x3d2ec11a	0.042664625
74	0x3cf39385	0.029733429
75	0xbc40c2c7	-0.011765189
76	0x3cd1fc5b	0.025633028
77	0xbc93964c	-0.018016003
78	0x3c874993	0.016514575
79	0xbc95a24e	-0.01826587
80	0xbc03c294	-0.0080419965
81	0x3ce0d179	0.027443634
82	0xbd525427	-0.051349785
83	0x3caf0f37	0.02136956
84	0xbc8ba910	-0.017048389
85	0xbd2804a6	-0.041020058
86	0x3cc3243c	0.023820989
87	0xbc9bd4f4	-0.019022442
88	0x3c3a8733	0.011384773
89	0x3cbe2312	0.023210082
90	0xbcc20001	-0.023681642
91	0xbbb88c0e	-0.00563193
92	0xbc4405c2	-0.011964263
93	0x3c68584d	0.014181209
94	0x3c332da0	0.010936171
95	0x3c9555fd	0.018229479
96	0x3c16f036	0.009212544
97	0x3d67d4f8	0.056599587
98	0xbc1d4b2b	-0.009600441
99	0x3cb7e313	0.022447145
100	0x3c59482e	0.013261838
101	0x3cdefbbd	0.027219648
102	0xba6c0155	-0.0009002884
103	0x3c585150	0.01320298
104	0x3d946c5e	0.07247232
105	0x3c7ed59e	0.01555386
106	0x3b6aa05f	0.0035801155
107	0xbcbcb5f4	-0.02303598
108	0xbcf7cfa0	-0.03025037
109	0x3d4c87ff	0.049934383
110	0xbc395ba5	-0.011313354
111	0x3b2bc454	0.002620955
112	0x3d87e7bc	0.06635997
113	0xbb817102	-0.003950239
114	0xbba362b4	-0.0049861316
115	0x3c9456fe	0.018107887
116	0xbae5d652	-0.0017535186
117	0xbbcf2736	-0.006321813
118	0x3ab16150	0.001353303
119	0xbbc07c8d	-0.0058742226
120	0xbcade38e	-0.02122667
121	0xbc0c1f6f	-0.008552416
122	0xbc87ba5c	-0.016568355
123	0xbc3d4876	-0.011552921
124	0xbd45e93e	-0.04831814
125	0xbcb44ec4	-0.022010215
126	0xbc27f0da	-0.010250295
127	0xbca8590e	-0.020550277
128	0x3ca530c3	0.020164853
129	0xbc964a44	-0.01834596
130	0xbd82d571	-0.06388367
131	0xbc6bb7df	-0.0143871
132	0x3c8b0b4e	0.016973164
133	0xbb711ef5	-0.0036792133
134	0xbacacaab	-0.0015471777
135	0xbce03e6b	-0.027373513
136	0x3d315523	0.043294083
137	0x3cb2b3bd	0.021814222
138	0xbb1893cd	-0.0023281456
139	0xbcb7f39c	-0.02245503
140	0x3b5a01d6	0.0033265254
141	0xbd279e21	-0.040922288
142	0xbc298bc5	-0.010348265
143	0xbbe2d41a	-0.006922257
144	0xbad61441	-0.001633294
145	0xbc26c05d	-0.010177699
146	0x3d37ec90	0.044903338
147	0xbcbe63f8	-0.023241028
148	0xbd069e2b	-0.032865684
149	0x3ae1aa0d	0.0017216817
150	0xbbe323ae	-0.0069317436
151	0x394e93ad	0.00019700704
152	0x3bd769f2	0.006573909
153	0xbad2c7c9	-0.0016081269
154	0x3c8b2cf2	0.016989205
155	0x3cd93953	0.026516592
156	0x3cdd3b34	0.02700577
157	0xbc14eb85	-0.009089355
158	0xbb8e3898	-0.0043402426
159	0x3bdd8d26	0.006761211
160	0x3abe2843	0.0014507849
161	0x3cdec448	0.027193204
162	0x3c7a1e0d	0.015265954
163	0x3b76d164	0.0037661428
164	0xbb94e76a	-0.0045441883
165	0xbb984585	-0.0046469592
166	0xbd65bc19	-0.056087587
167	0xbbd51f88	-0.006504003
168	0xbd1d6f42	-0.03843618
169	0x3cdcfb75	0.026975373
170	0x3ce71e2b	0.028212627
171	0x3cf8c162	0.03036565
172	0x3cced152	0.025246296
173	0xbc042ae7	-0.008066869
174	0x3cbfc6aa	0.02341016
175	0x3c426ff4	0.011867512
176	0xbc2fd15b	-0.010731067
177	0xbc591b7c	-0.013251182
178	0xbc96cf6f	-0.018409459
179	0xbb525887	-0.0032096223
180	0xbd02fff2	-0.03198237
181	0xbc8fe466	-0.017564964
182	0xbbb8df0e	-0.0056418246
183	0x3c3c1c62	0.011481376
184	0xbc29cba9	-0.010363498
185	0x3cc62dbe	0.024191733
186	0x3d3f2ec5	0.046675462
187	0xbc73617c	-0.014854785
188	0xbc6cada4	-0.014445696
189	0xbd09ed3b	-0.033673506
190	0x3d1bf5ed	0.03807633
191	0x3c438422	0.011933358
192	0x3c5835c4	0.0131964125
193	0x3d03253b	0.032017928
194	0x3c3510f0	0.0110514015
195	0x3c406dd6	0.011744937
196	0xbc23ffff	-0.010009765
197	0xbb2b4dfe	-0.0026139016
198	0x3ca77f70	0.02044651
199	0x3d040bd4	0.032237843
200	0x3ba5d043	0.005060227
201	0xbc46e13f	-0.012138664
202	0x3b059d8f	0.0020388102
203	0xbcd41029	-0.025886612
204	0xbcce6115	-0.025192777
205	0x3c19031e	0.009339122
206	0xbc4f5aaa	-0.012655893
207	0xbc6bc54b	-0.0143903
208	0x3c873785	0.016505966
209	0xbc15bdfc	-0.009139534
210	0xbd0a780f	-0.033805903
211	0xbcb557cc	-0.022136591
212	0x3c6e4622	0.014543088
213	0x3cd1392f	0.025539963
214	0x3bd75780	0.00657171
215	0xbc818589	-0.015810745
216	0x3c4d0c48	0.012515135
217	0x3cdfe536	0.027330976
218	0xbc04f745	-0.008115594
219	0xbbac314b	-0.0052548996
220	0x3c2e2b55	0.010630448
221	0xbc95615f	-0.018234907
222	0xbd487b67	-0.04894581
223	0xbc9f9938	-0.01948224
224	0x3cb1c256	0.021699112
225	0x3c5617d8	0.013067208
226	0x3b788c9a	0.0037925602
227	0xbca3c3a2	-0.019990746
228	0x3b4acf55	0.0030946333
229	0xbcaa5fde	-0.020797666
230	0xbc29543a	-0.010335023
231	0xbd01f52a	-0.031727947
232	0xbba969f7	-0.0051701027
233	0xbce7ab8f	-0.028280048
234	0xbc43fb24	-0.011961732
235	0xbc91085c	-0.017704181
236	0xbcf3b814	-0.029750861
237	0x3d0db6e3	0.034598242
238	0x3ca7cb8e	0.020482805
239	0xbc8c7570	-0.017145842
240	0x3d03497e	0.03205251
241	0xbab39a09	-0.0013702522
242	0xbbdb1d15	-0.0066868165
243	0x3cc8437d	0.024446243
244	0xbcbd5856	-0.02311341
245	0xba726eec	-0.0009248096
246	0x3c3ad072	0.011402236
247	0x3caf7cf8	0.021421894
248	0xba5059c5	-0.0007947947
249	0x3cdf3142	0.027245168
250	0xbc93ab2d	-0.018025959
251	0x3cd048f7	0.025425417
252	0x3c9d36c6	0.019191157
253	0x3aefaa9f	0.0018285102
254	0x3c70f21b	0.01470616
255	0x3cb5cefe	0.022193428

model.0.running_var f4 [1024]
0	0x39065593	0.00012811115
1	0x3912082b	0.00013926688
2	0x391c5b3a	0.00014911304
3	0x38e3a67d	0.00010855214
4	0x3926e321	0.00015915606
5	0x3932a1c5	0.00017035667
6	0x39267962	0.00015876212
7	0x38f265b7	0.00011558405
8	0x390ca009	0.00013411058
9	0x391492e6	0.00014169104
10	0x39475234	0.00019008742
11	0x3943c02f	0.00018668243
12	0x39135f0b	0.00014054419
13	0x38fc67ec	0.00012035653
14	0x3913d98b	0.00014100054
15	0x39041c35	0.00012599009
16	0x38f4f26e	0.00011679983
17	0x391a6175	0.0001472289
18	0x395cc71d	0.0002105501
19	0x3916b4ae	0.00014372423
20	0x390c49f6	0.00013378993
21	0x390787b5	0.00012925158
22	0x38f37957	0.00011609744
23	0x394b625f	0.00019396235
24	0x3905355f	0.0001270375
25	0x3938e891	0.00017634245
26	0x3952155f	0.00020035122
27	0x38fbe8e7	0.00012011994
28	0x3935d6d7	0.00017341539
29	0x39c6aee0	0.00037895795
30	0x39866af6	0.00025638164
31	0x394aabf1	0.00019328274
32	0x394f0297	0.00019742023
33	0x38da789a	0.00010417514
34	0x39444672	0.0001871826
35	0x394515ef	0.00018795555
36	0x38f93a4b	0.00011884103
37	0x38b37494	8.5570995e-05
38	0x38fda97d	0.0001209555
39	0x397c53a8	0.00024063757
40	0x398cea4a	0.0002687744
41	0x391ca041	0.00014937019
42	0x3930cfda	0.00016862099
43	0x392b500f	0.00016337655
44	0x3933a811	0.0001713338
45	0x395e4a9d	0.00021199365
46	0x3959889a	0.0002074562
47	0x39831170	0.0002499926
48	0x38f537a4	0.00011692874
49	0x39b1decf	0.00033926076
50	0x3981a2fc	0.0002472623
51	0x39629178	0.00021607231
52	0x393efd9d	0.0001821429
53	0x3947e2f5	0.00019062667
54	0x38fab07f	0.00011953804
55	0x390380f4	0.00012541172
56	0x39738355	0.00023223211
57	0x38bacc6c	8.907248e-05
58	0x38f7edd7	0.00011822179
59	0x3918aa2b	0.00014559242
60	0x394b6e96	0.00019400785
61	0x393c5838	0.00017961941
62	0x39996e2c	0.00029264519
63	0x39277f6b	0.00015973828
64	0x390be73a	0.00013342212
65	0x38cd226e	9.781575e-05
66	0x3930cb99	0.00016860514
67	0x39009d3c	0.00012265606
68	0x39139220	0.00014073448
69	0x393ce238	0.0001801335
70	0x3956fc3a	0.00020502592
71	0x3950d080	0.00019914098
72	0x3984a07c	0.00025296572
73	0x393b4cca	0.00017862316
74	0x393ae684	0.00017824216
75	0x39317b72	0.00016926022
76	0x38e10659	0.000107300184
77	0x393a0006	0.00017738351
78	0x39266f66	0.00015872493
79	0x395fa28e	0.00021327494
80	0x394f0a1f	0.00019744829
81	0x38d48590	0.00010133826
82	0x3968c290	0.00022197724
83	0x391024f2	0.00013746673
84	0x390b2b54	0.00013272214
85	0x39b16190	0.0003383276
86	0x39372986	0.00017467709
87	0x3962a3c1	0.00021614043
88	0x39010fd9	0.00012308302
89	0x39685fb7	0.000221609
90	0x39b4aa40	0.00034459122
91	0x3953cce7	0.0002019886
92	0x39104b19	0.00013760886
93	0x3986daad	0.00025721398
94	0x39169d19	0.00014363638
95	0x3933ce05	0.00017147519
96	0x394f487c	0.00019768061
97	0x392f23fc	0.00016702706
98	0x392ca281	0.00016463736
99	0x39bcb4a5	0.00035992745
100	0x3914d083	0.00014192057
101	0x38efd4b8	0.0001143603
102	0x3949b896	0.00019237617
103	0x38d66331	0.00010222791
104	0x3a1f0a6f	0.00060669234
105	0x3911bb4d	0.00013898053
106	0x392d990e	0.00016555583
107	0x397ed249	0.00024301665
108	0x391afa06	0.00014779725
109	0x3914832e	0.00014163248
110	0x3935c0c3	0.00017333314
111	0x38e44322	0.00010884392
112	0x393d57f3	0.00018057208
113	0x394e5460	0.00019677123
114	0x3973a773	0.00023236666
115	0x3997644b	0.00028875688
116	0x3915a083	0.00014269543
117	0x392881f1	0.00016070135
118	0x3940408c	0.00018334592
119	0x396bccd7	0.00022487655
120	0x395272c5	0.00020069916
121	0x390fbd1b	0.0001370799
122	0x3934876c	0.00017216586
123	0x394869d8	0.00019112916
124	0x3926e7f5	0.00015917404
125	0x38bbe806	8.9600726e-05
126	0x38fc8156	0.00012040387
127	0x3909c2e9	0.00013137948
128	0x395a4b77	0.00020818213
129	0x39b140c2	0.0003380832
130	0x39658f23	0.00021892464
131	0x38c5352a	9.4035946e-05
132	0x39500470	0.00019838079
133	0x3901210c	0.0001231471
134	0x3900af5a	0.00012272355
135	0x3931bd47	0.00016950547
136	0x3999b3ad	0.00029316303
137	0x39270715	0.00015929
138	0x39349bc2	0.00017224162
139	0x392a38d2	0.0001623363
140	0x3915f403	0.00014300649
141	0x391fadff	0.0001522824
142	0x39206d7d	0.00015299577
143	0x391f2d22	0.00015180235
144	0x39bbc0ae	0.00035810977
145	0x398be02d	0.0002667917
146	0x393a0e11	0.00017743582
147	0x391a94a6	0.0001474196
148	0x397be6c1	0.00024023188
149	0x39313746	0.00016900626
150	0x396dfdb4	0.00022696593
151	0x3933e6c5	0.00017156739
152	0x38fad472	0.000119605
153	0x3983c2ce	0.00025131408
154	0x39112e10	0.00013845437
155	0x393e1ca6	0.00018130484
156	0x3901136b	0.00012309632
157	0x390b1860	0.00013265153
158	0x399dbf7f	0.0003008805
159	0x392ff7d3	0.00016781622
160	0x390c2839	0.00013366425
161	0x39201733	0.00015267431
162	0x3907a657	0.0001293657
163	0x3910ec9e	0.00013821057
164	0x390e5cd8	0.00013576762
165	0x38d05373	9.9337565e-05
166	0x3a7dfffb	0.0009689328
167	0x3914883b	0.0001416513
168	0x394e5c6b	0.0001968012
169	0x39622b94	0.00021569274
170	0x39146f3f	0.00014155822
171	0x3928b87d	0.00016090456
172	0x39232bfb	0.00015561275
173	0x390e8bd2	0.00013594262
174	0x39915782	0.00027721754
175	0x394f90ee	0.00019795049
176	0x3909c16c	0.00013137393
177	0x390eed8a	0.00013630665
178	0x38ec76b4	0.00011275467
179	0x3984aadc	0.00025304302
180	0x396317cb	0.0002165727
181	0x394af157	0.00019354127
182	0x395e9ef1	0.0002123078
183	0x3966c05b	0.00022006167
184	0x393f4d9e	0.00018244094
185	0x393329aa	0.00017086291
186	0x3975d1fd	0.00023443247
187	0x39105af7	0.00013766797
188	0x39223cef	0.00015472223
189	0x3917ac58	0.00014464685
190	0x3970853e	0.0002293782
191	0x39231598	0.00015552936
192	0x398e2c64	0.00027117424
193	0x38e6f040	0.00011012005
194	0x3912cddd	0.00014000335
195	0x39721f8f	0.00023090675
196	0x394e41ca	0.00019670199
197	0x39112743	0.00013842904
198	0x39463094	0.00018900848
199	0x3933e356	0.0001715546
200	0x391bd986	0.00014862986
201	0x3938ae92	0.0001761264
202	0x3928cbca	0.00016097646
203	0x3925f410	0.00015826547
204	0x391899bd	0.00014553122
205	0x3910b3de	0.00013799916
206	0x39213b6a	0.0001537629
207	0x390a7549	0.00013204398
208	0x39255c5b	0.00015770031
209	0x391a6458	0.00014723965
210	0x3966b20b	0.00022000835
211	0x3912e6e3	0.00014009657
212	0x391977d0	0.0001463585
213	0x3937942b	0.00017507437
214	0x3a1aa7b6	0.00058996247
215	0x38b13c45	8.451244e-05
216	0x3905cd18	0.00012760272
217	0x390f9770	0.00013693958
218	0x38b07de1	8.415781e-05
219	0x394ce8a0	0.00019541616
220	0x393b1cdd	0.00017844462
221	0x39045eb9	0.00012623788
222	0x392b0b8c	0.00016312132
223	0x394e786e	0.00019690554
224	0x39386c56	0.00017587966
225	0x3921b916	0.00015423106
226	0x39121154	0.000139301
227	0x390ab6aa	0.00013228753
228	0x38f5d064	0.00011721326
229	0x3909fb4b	0.00013158952
230	0x39162b4d	0.00014321246
231	0x39c375ed	0.0003728116
232	0x394a8864	0.0001931503
233	0x39288af1	0.00016073488
234	0x38dc5e28	0.000105079554
235	0x38ed362a	0.000113111295
236	0x393040b3	0.0001680877
237	0x3902bd5d	0.0001246831
238	0x391136f7	0.00013848754
239	0x38fe31c1	0.00012120931
240	0x390f3bf6	0.0001365988
241	0x3915254c	0.00014223641
242	0x393f4986	0.00018242569
243	0x3949cdc2	0.00019245505
244	0x3948a395	0.00019134425
245	0x39d59975	0.0004074086
246	0x38cf5d1c	9.887872e-05
247	0x39056fd4	0.00012725528
248	0x3914ba00	0.0001418367
249	0x39027d40	0.00012444425
250	0x3902ae4e	0.000124627
251	0x39160105	0.00014305495
252	0x3933d313	0.00017149402
253	0x38dfcb8a	0.00010671381
254	0x3918de9c	0.00014578778
255	0x391d793f	0.00015017854

model.1.weight f4 [128, 1024]
0	0x3c0927d1	0.008371309
1	0xbca5e0cd	-0.020248795
2	0x3cf5f47f	0.030023811
3	0x3c4c0199	0.012451553
4	0x3ca6f882	0.02038217
5	0x3c8fa670	0.017535418
6	0x3bd028b0	0.0063525066
7	0x3c6c0ca9	0.014407315
8	0xbc31571f	-0.010823994
9	0xbcca213b	-0.024674049
10	0x3cce95c5	0.0252179
11	0x3ce10775	0.027469376
12	0xbb08741d	-0.0020821162
13	0x3cb60dbe	0.02222335
14	0x3cf9c0c0	0.030487418
15	0xbc029d34	-0.00797205
16	0x3c8adb03	0.016950136
17	0xbc5c8356	-0.013459047
18	0x3c20193e	0.009771643
19	0x3b538c57	0.0032279694
20	0xbc5a93c1	-0.013340891
21	0x3cda6d72	0.026663516
22	0x3c33537f	0.0109452
23	0x3bb896e1	0.0056332205
24	0xbbdfcc91	-0.006829806
25	0xbcb17805	-0.021663675
26	0x3b91d19a	0.0044500353
27	0xbd193be2	-0.037410624
28	0x3c38d014	0.011280078
29	0xbacf6800	-0.0015823841
30	0xbcbd5975	-0.023113945
31	0xbcae3fbc	-0.021270625
32	0x3c3ff82d	0.011716885
33	0xbca602b4	-0.02026496
34	0xbc88467b	-0.01663517
35	0xbb791378	-0.003800599
36	0xba906494	-0.0011016303
37	0xbd140026	-0.036132954
38	0xbc9e25ea	-0.019305188
39	0xbb5ce68f	-0.003370676
40	0xbcb4b957	-0.022061033
41	0xbc414c54	-0.011797983
42	0xba6a98eb	-0.0008949178
43	0x3c8455ea	0.016154248
44	0xbaeeb494	-0.0018211775
45	0x3c8b8211	0.017029794
46	0xbb5f5a01	-0.0034080746
47	0xbcd1944c	-0.025583409
48	0x3caf0c81	0.021368267
49	0xbc318fa9	-0.010837474
50	0x3c870fae	0.016486969
51	0x3ad5d06c	0.0016312725
52	0xbb8d705c	-0.004316373
53	0xbcc5c166	-0.024140071
54	0xbc925778	-0.017863974
55	0x3c31f663	0.010861966
56	0xbc735c68	-0.014853574
57	0x3c9ff098	0.019523904
58	0x3ac1853b	0.0014764437
59	0xbcb09c06	-0.021558773
60	0xbbf1f09e	-0.00738342
61	0x3d00ab4f	0.031413373
62	0xba8acb2c	-0.0010589114
63	0xbc9e4fb5	-0.019325117
64	0x3ce7d7e9	0.028301196
65	0xba970c1b	-0.0011523993
66	0x3c1e3170	0.0096553415
67	0xbc8429ad	-0.016133154
68	0xbcb26008	-0.021774307
69	0x3cec8449	0.028871672
70	0x3cc20f25	0.023688862
71	0xba8aaf65	-0.0010580836
72	0x3cf1274a	0.02943768
73	0x3cd3ea95	0.025868693
74	0xbd1316a5	-0.035910267
75	0x3c910142	0.017700795
76	0x3c6ad6ba	0.014333421
77	0xbaf3c280	-0.0018597394
78	0x3c43d68c	0.011953007
79	0xbca683de	-0.020326551
80	0xbd054f6a	-0.03254644
81	0xbcd9ed15	-0.026602307
82	0xbb70cb67	-0.003674233
83	0xbc9532c1	-0.018212678
84	0x3acde5f8	0.0015708795
85	0x3c878a74	0.016545512
86	0xbc903448	-0.017603055
87	0xbbff55a0	-0.0077921897
88	0xbc6890ec	-0.014194708
89	0x3cafcbe8	0.021459535
90	0xbcddcec5	-0.027076134
91	0x3a29b681	0.00064740336
92	0xbcce937d	-0.025216812
93	0x3b1d000a	0.0023956322
94	0xbc9457a5	-0.018108198
95	0x3bebae09	0.0071923775
96	0x3bd35630	0.0064494833
97	0xbc2dec4b	-0.010615419
98	0xbcc06035	-0.023483375
99	0xbca2d963	-0.019879049
100	0xbb2a42bd	-0.002597972
101	0x3c493410	0.012280479
102	0xbb243491	-0.0025055746
103	0x3b889338	0.0041679405
104	0xbbccef98	-0.0062541477
105	0x3b91db79	0.004451212
106	0x3a4d66dc	0.00078354566
107	0x3d003fbf	0.031310793
108	0x3ce8f086	0.028435003
109	0xbd01a407	-0.03165057
110	0x3cfc5fb8	0.030807361
111	0x3cba7d22	0.022764746
112	0x3d01fb17	0.0317336
113	0xbba763a7	-0.005108315
114	0xbc978f37	-0.018500907
115	0x3c4b3fbb	0.012405331
116	0xbbecaa8e	-0.00722248
117	0x3cbf5636	0.023356538
118	0xbccf60d2	-0.025314722
119	0x3b3c4d80	0.0028732717
120	0xbc5c95f5	-0.013463487
121	0x3ca3647a	0.019945372
122	0xbcd71de7	-0.026259376
123	0xbc36a56a	-0.011147836
124	0x3c48c892	0.012254851
125	0x3c81a7d2	0.015827093
126	0xbc96d642	-0.018412713
127	0x3d0b8355	0.034060795
128	0x3b7700a1	0.0037689584
129	0xbcc7572a	-0.024333555
130	0xbc2146a7	-0.009843505
131	0xbceb2a60	-0.02870673
132	0x3c377b46	0.011198824
133	0x3c64e271	0.013970003
134	0xbc255a19	-0.010092282
135	0x3cb565e6	0.022143316
136	0x3bf3fbb3	0.0074457764
137	0x3ae84dea	0.0017723416
138	0xbcc2209f	-0.023697196
139	0xbc4ade2b	-0.0123820705
140	0xbd05955c	-0.032613143
141	0x3cea3180	0.028588057
142	0x3ce64912	0.028111015
143	0xbccae7e4	-0.024768777
144	0xbc9a895e	-0.01886433
145	0xbc0efd74	-0.00872742
146	0xbd09322b	-0.03349511
147	0xbb2e9f11	-0.0026645104
148	0x39e43422	0.0004352639
149	0xbceab690	-0.028651506
150	0x3cd5e956	0.02611224
151	0xbcd911ea	-0.0264978
152	0xbbd3ce48	-0.0064637996
153	0x3c58bb42	0.0132282395
154	0x3cde8186	0.027161371
155	0xbca747f6	-0.020420056
156	0xbbfd259e	-0.0077254316
157	0xbbf8df55	-0.0075949826
158	0xbc28c02d	-0.0102997245
159	0x3a248c48	0.0006277007
160	0xbcb29ff1	-0.021804782
161	0xbc3a9d81	-0.011390091
162	0x3c900927	0.01758249
163	0x3c75b6f2	0.014997231
164	0x3cb0dffd	0.021591181
165	0xbc0d61ec	-0.008629303
166	0xbc26c20c	-0.0101781
167	0x3c002b2e	0.007822795
168	0x3bcddd1d	0.0062824623
169	0x3a87226f	0.0010309945
170	0x3bb7f3eb	0.005613794
171	0x3a847d36	0.0010108117
172	0x3b523fe8	0.0032081548
173	0xbc963375	-0.018335083
174	0x3ca8ab55	0.02058951
175	0xbce7b3c0	-0.028283954
176	0xbbbe80ed	-0.005813709
177	0x3c505d19	0.012717509
178	0x3cad6aee	0.021169152
179	0x3ca4492a	0.020054419
180	0x3c54cf29	0.012988844
181	0xbc9c3784	-0.01906944
182	0x3c8fa777	0.017535908
183	0x3c9003bd	0.017579908
184	0x3cb91996	0.022595208
185	0x3c94e435	0.018175224
186	0xbc896845	-0.016773352
187	0x3cd3b6f5	0.025844077
188	0x3c9a1c59	0.018812345
189	0x3cca3a8a	0.024686117
190	0x3c7bfdea	0.015380362
191	0x3cc59749	0.02411999
192	0x3c98bbb3	0.01864419
193	0x3cd8db2c	0.026471697
194	0xbc41580b	-0.011800776
195	0x3cd82a67	0.026387407
196	0xbcb4ca33	-0.022069072
197	0xbce9c05e	-0.02853411
198	0x3cb49c69	0.022047238
199	0x3b1f1adf	0.002427749
200	0x3c1fb753	0.009748298
201	0xbccc2f38	-0.02492486
202	0x3c62ee88	0.013850816
203	0xbd0ccd9a	-0.034375764
204	0xbc3b5aac	-0.011435192
205	0xbc15ced2	-0.009143548
206	0xbc43c75c	-0.011949386
207	0x3c44244b	0.011971544
208	0x3ce627a7	0.02809508
209	0x3c666b33	0.014063644
210	0xbbc5d83b	-0.0060377396
211	0x3c274f3c	0.010211762
212	0xbc8efa81	-0.017453434
213	0xbc8a498e	-0.016880777
214	0xbbe31518	-0.006930005
215	0x3caf672c	0.0214115
216	0xbbff7124	-0.00779547
217	0x3c5773ef	0.013150199
218	0x3ae2db1d	0.0017307732
219	0xbc3c3670	-0.011487588
220	0xbc3c0368	-0.0114754215
221	0xbc6064cc	-0.013695907
222	0x3c1ebeaf	0.009689017
223	0x3c8d46f8	0.017245755
224	0xbcb98e4f	-0.022650866
225	0x3c34163a	0.010991627
226	0xbcda59a4	-0.026654072
227	0xbc862a76	-0.016377669
228	0xbc2d6f14	-0.010585565
229	0xb62744d8	-2.4925012e-06
230	0x3cd82450	0.026384503
231	0x3cc1bd11	0.023649724
232	0xbc1a12c6	-0.00940389
233	0x3c97cd36	0.01853047
234	0x3c2ce96b	0.010553698
235	0x3ce80520	0.028322756
236	0x3c85c6bf	0.016330121
237	0xbc8843a2	-0.016633812
238	0x3ccd48cc	0.025059126
239	0x3d0c5ffd	0.03427123
240	0xbc8a92e1	-0.01691574
241	0x3c970bb4	0.018438198
242	0x3c6f4d8f	0.014605894
243	0xbcaf4eb5	-0.021399835
244	0x3cfc7454	0.030817188
245	0xbc31e868	-0.010858633
246	0x3cd47637	0.025935275
247	0x3cae97d1	0.021312626
248	0x3bf3cb8f	0.0074400376
249	0x3cc30ed6	0.023810785
250	0x3cccd698	0.02500467
251	0x3ca47f0e	0.020080116
252	0xbca4c20b	-0.020112058
253	0xbc9ea3e9	-0.019365268
254	0x3b33da49	0.002744334
255	0x3cf09737	0.02936898

model.1.bias f4 [128]
0	0xbbd27103	-0.0064221635
1	0x3ca2718d	0.019829536
2	0xbc0774cb	-0.008267592
3	0x3cb63f8e	0.022247102
4	0x3cf98142	0.030457143
5	0x3aa41e2f	0.0012521202
6	0xba95efa6	-0.0011439219
7	0xbd01a323	-0.03164972
8	0x3d12e2bd	0.035860766
9	0xbcfe69b1	-0.031056257
10	0x3b3b54e5	0.0028584537
11	0x3b980716	0.0046395166
12	0xbc530254	-0.012878973
13	0xbbfce57a	-0.0077177854
14	0x3c4907ed	0.012269956
15	0x3c8c5b8e	0.0171335
16	0x3ce39f06	0.02778579
17	0x3accd718	0.0015628068
18	0xbc9e6383	-0.01933456
19	0x3d1d826e	0.038454466
20	0x3c96f53f	0.01842749
21	0xba40eb85	-0.0007359314
22	0xbcb4849e	-0.022035893
23	0xbc4dd67e	-0.012563346
24	0x3c5e868b	0.013581882
25	0xbc2c9b34	-0.01053505
26	0xbbcd50a8	-0.0062657185
27	0x3cc13f92	0.023589883
28	0x3cbff053	0.023430025
29	0xbd1a7f91	-0.037719313
30	0x3c00c2d3	0.00785895
31	0x3d14d216	0.036333166
32	0x3c37a5c2	0.011208953
33	0x3d027582	0.031850345
34	0xbcf29a98	-0.029614732
35	0x3cc3ce3c	0.023902051
36	0x3ccb6d1c	0.0248323
37	0x3cff7ad9	0.031186508
38	0x3b96eaba	0.0046056183
39	0x3cc9abaf	0.024617998
40	0x3c1986c5	0.0093705105
41	0xbc161b02	-0.009161713
42	0xbb5f8504	-0.0034106383
43	0xbcea8209	-0.028626459
44	0x3c84ec6f	0.016226022
45	0xbcaa963a	-0.020823587
46	0xbb33db9a	-0.0027444125
47	0xbc77ca80	-0.015123963
48	0x3afce355	0.0019293824
49	0x3d1f1e05	0.03884699
50	0x3c3d17af	0.011541291
51	0xbcb0840b	-0.021547338
52	0x3d09bc2d	0.033626724
53	0xbc793f14	-0.015212793
54	0x3cc157e5	0.023601482
55	0xbcb5ebc9	-0.022207158
56	0xbc235e78	-0.009971254
57	0xbba415d7	-0.0050074863
58	0xbb7296c7	-0.003701614
59	0xbc756a56	-0.014978966
60	0x3c6cbbd7	0.014449081
61	0xbb6409ab	-0.0034795802
62	0x3c14bbfd	0.009078023
63	0xbc7d9878	-0.015478246
64	0x3cb33bbc	0.02187907
65	0x3c50d80d	0.012746823
66	0x3cb92d53	0.02260462
67	0x3d1266ea	0.035742678
68	0xbcdc68ce	-0.026905444
69	0xbca670fd	-0.020317549
70	0x3bebd04c	0.007196462
71	0x3d361657	0.0444549
72	0x3c9a07f3	0.018802619
73	0x3d043cd0	0.032284558
74	0x3cd096b1	0.02546248
75	0xbc287ae4	-0.010283206
76	0x3c1c8993	0.009554285
77	0xbcacbd43	-0.02108634
78	0xbc526568	-0.01284156
79	0x3caace99	0.020850467
80	0x3be5b90f	0.007010586
81	0xbc4f2dd6	-0.0126452055
82	0xbbe5b915	-0.007010589
83	0xbc06eb5d	-0.008234826
84	0x3c26b935	0.010175993
85	0xbc93a9ba	-0.018025268
86	0x3cf8dd05	0.030378828
87	0x3d026fb3	0.031844806
88	0xbcbae503	-0.02281428
89	0xbc7a1c84	-0.015265588
90	0x3c096365	0.008385514
91	0xbc4ed0c9	-0.01262302
92	0x3ca8f179	0.020622956
93	0xbcfdbe11	-0.03097442
94	0x3c222477	0.009896389
95	0x3d091c95	0.033474524
96	0x3cee72bc	0.029107444
97	0x3cb1fb0a	0.02172615
98	0x3b3957d5	0.0028281112
99	0x3bf39825	0.0074339085
100	0x3b146beb	0.0022647332
101	0xbc51bf28	-0.012801923
102	0xbc0b2115	-0.008491774
103	0xbc0795db	-0.008275474
104	0xbc93146f	-0.01795408
105	0xbc554f80	-0.013019443
106	0xbcd29242	-0.025704507
107	0x3c15cf8e	0.009143723
108	0xbc19be89	-0.009383806
109	0x3c32e723	0.010919365
110	0x3d054692	0.032538004
111	0x3b9f4ff5	0.0048618265
112	0xbcafc261	-0.021454992
113	0xbbb403c0	-0.005493611
114	0xbc1f5b85	-0.00972641
115	0xbaa8cf64	-0.001287919
116	0x3d0b9623	0.03407873
117	0x3cb71cc5	0.022352586
118	0x3c1a539d	0.009419349
119	0x3d223d03	0.039608967
120	0xbc235d4c	-0.009970974
121	0x3cf0e4c3	0.029405957
122	0x3d2f5c1e	0.04281246
123	0xbc944840	-0.018100858
124	0x3cb30c9a	0.021856595
125	0x3ce9689f	0.02849227
126	0x3c5a98c8	0.01334209
127	0xbbdff51b	-0.006834639

model.4.weight f4 [128, 128]
0	0xbd85d062	-0.065338865
1	0xbdbd2dbf	-0.09237241
2	0x3d6f4e62	0.05842436
3	0xbd2405b2	-0.040044494
4	0x3d90543f	0.07047319
5	0x3d751d84	0.0598426
6	0xbd7911b9	-0.060807917
7	0xbd0f76de	-0.03502547
8	0xbd3beebf	-0.045881983
9	0xbd67fa33	-0.056635093
10	0xbd16f116	-0.03685101
11	0x3d8d5b61	0.06902195
12	0xbdad6b48	-0.08467728
13	0xbd911182	-0.070834175
14	0xbdc491c5	-0.09598116
15	0xbd2c9300	-0.042132378
16	0x3c7c4dbb	0.015399392
17	0xbd976486	-0.0739222
18	0x3d942d78	0.07235235
19	0xbd9c18bb	-0.076219045
20	0xbc9ceb37	-0.019155128
21	0xbd9ec53d	-0.07752464
22	0xbc6eb5e3	-0.014569732
23	0xbb8898d1	-0.0041686078
24	0x3c814d35	0.015783885
25	0x3d95de6f	0.073178165
26	0x3c64a96f	0.013956412
27	0x3c92a0a1	0.01789886
28	0xbdbb710c	-0.09152421
29	0xbd2f8fc7	-0.042861726
30	0xbd99d0f8	-0.07510561
31	0xbb87fb81	-0.0041498546
32	0x3d985086	0.074372336
33	0xbccb3675	-0.02480624
34	0xbd0660ad	-0.03280704
35	0xbdb735ad	-0.08945785
36	0xbd09a725	-0.033606667
37	0x3cffe1ed	0.03123566
38	0xbc91b665	-0.017787168
39	0x3d79e79e	0.061011903
40	0x3d46bd3c	0.04852031
41	0x3c51b432	0.01279931
42	0xbb9a5adc	-0.0047105383
43	0x3bfcdf2c	0.007717034
44	0x3d8c6fa0	0.06857228
45	0x3d3af75f	0.045646068
46	0xbca2e116	-0.01988272
47	0x3d8498e1	0.06474472
48	0x3d35294e	0.044228844
49	0xbc5dc626	-0.013536012
50	0xbdb8e353	-0.09027734
51	0x3c7d6e04	0.015468124
52	0xbda64735	-0.081190504
53	0xbc25785a	-0.010099495
54	0xbd807ba9	-0.06273586
55	0x3c9da575	0.019243935
56	0x3ca7f08b	0.020500442
57	0x3d898e9a	0.06716652
58	0x3d80fe79	0.06298537
59	0x3ca12759	0.019672083
60	0x3cb03bdc	0.021512918
61	0x3d89dc08	0.06731421
62	0x3cb045a5	0.021517584
63	0xbd393681	-0.045217995
64	0xbd6e2b94	-0.058147028
65	0xbdb6d687	-0.089276366
66	0x3d1c1b9f	0.03811228
67	0xbd8cdb1c	-0.06877729
68	0xbd6eaf55	-0.05827268
69	0xbd3c283f	-0.04593682
70	0xbd8946d0	-0.067029595
71	0xbda0924f	-0.07840406
72	0xbd717ec0	-0.05895877
73	0x3d8f158f	0.06986534
74	0x3c1baf43	0.009502235
75	0x3d8573d8	0.06516236
76	0xbbf79292	-0.0075553143
77	0x3d0a3b64	0.033748046
78	0xbda7eab3	-0.08199062
79	0x3bd863a8	0.006603677
80	0x3ca81bfd	0.020521158
81	0xbd615faa	-0.055022873
82	0x3c7bd307	0.015370137
83	0x3d82811d	0.06372283
84	0x3ce30d72	0.027716372
85	0x3d2b648f	0.041843947
86	0x3d1a1015	0.037612993
87	0x3d38a42f	0.045078453
88	0xbc575f31	-0.013145254
89	0x3bbc6f86	0.0057505993
90	0xbd71cc11	-0.059032504
91	0xbd3ffb46	-0.046870492
92	0x3d85eebc	0.065396756
93	0x3c6735a6	0.014111912
94	0xbc44d7e5	-0.012014364
95	0xbcd74a99	-0.026280688
96	0x3d737d6a	0.059445776
97	0xbd41e651	-0.047338787
98	0x3dbd4079	0.09240813
99	0xbda8ba76	-0.082386896
100	0xbc30ad61	-0.010783524
101	0xbd93b55c	-0.07212326
102	0xbcfcc16e	-0.030853953
103	0x3d6b3617	0.05742463
104	0x3c5f3096	0.013622424
105	0xbc19fbdf	-0.00939843
106	0xbdaf5f04	-0.08563045
107	0xbdade3c4	-0.084907085
108	0x3d03d378	0.032184094
109	0x3accd272	0.0015626682
110	0x3cae8331	0.021302791
111	0xbd6ca65c	-0.05777584
112	0xbc889d29	-0.016676502
113	0x3d05e2cb	0.03268699
114	0x3c8a03fb	0.016847601
115	0x3b47d13a	0.00304897
116	0xbd83f3cf	-0.06442987
117	0x3c9902a1	0.018678011
118	0x3d84a714	0.0647718
119	0xbda8133a	-0.08206792
120	0x3d3403c7	0.043948915
121	0xbbf41bb0	-0.0074495897
122	0x3c4d8f60	0.01254639
123	0x3b68de26	0.0035532801
124	0xbd935d49	-0.07195527
125	0xbc0cfe59	-0.008605563
126	0x3d3853fe	0.045001976
127	0x3da4f1a6	0.08053903
128	0xbd3d6701	-0.04624081
129	0xbc8af045	-0.016960273
130	0xbcfa85cf	-0.030581383
131	0x3caaf7ba	0.020870078
132	0xbd82671b	-0.06367322
133	0x3aaf4a17	0.0013373521
134	0xbd55d737	-0.052207198
135	0xbc84d792	-0.016216073
136	0x3d8aabd7	0.06771057
137	0x3d75ff3f	0.060057875
138	0x3d25757b	0.04039524
139	0x3da59221	0.080845125
140	0x3c51a247	0.012795038
141	0x3dbb2538	0.09137958
142	0xbd197c6c	-0.037472174
143	0xbd221ca3	-0.03957809
144	0xbdaa6c4b	-0.083214365
145	0x3d8350a1	0.06411863
146	0x3d2a84ff	0.04163074
147	0x3d44e1a3	0.048066746
148	0xbccfdcb0	-0.025373787
149	0x3c28b37d	0.0102967
150	0xbdb6a05f	-0.08917307
151	0xbc328e79	-0.010898226
152	0xbd9401da	-0.07226916
153	0x3d4735fb	0.048635464
154	0x3d9cb66b	0.07651981
155	0xbd3902a3	-0.04516853
156	0xbd8914d4	-0.06693426
157	0x3cfb3022	0.0306626
158	0xbc04decb	-0.008109759
159	0xbd8f6d15	-0.070032276
160	0xbd94a92c	-0.072588295
161	0xbcba2d34	-0.022726633
162	0xbd48ca04	-0.049020782
163	0x3d6bf058	0.057602257
164	0x3cbef3bd	0.023309583
165	0xbd96fba2	-0.07372214
166	0x3d6f9abe	0.058497183
167	0xbd668ad9	-0.05628476
168	0xbdb1a533	-0.086740874
169	0xbd5d694e	-0.054055505
170	0xbd8eae9f	-0.069669
171	0x3d98ac77	0.0745477
172	0xbb9c19b5	-0.0047638067
173	0xbb3520fb	-0.0027638066
174	0xbd4216a2	-0.047384866
175	0x3cb28b40	0.021794915
176	0xbd0969a3	-0.03354801
177	0x3c9bc397	0.019014163
178	0xbd250c4e	-0.040294938
179	0xbd99f774	-0.07517901
180	0xbce752af	-0.028237669
181	0xbd8ab70e	-0.06773196
182	0x3c08329b	0.0083128465
183	0x3da24d73	0.079249285
184	0x3dad33d1	0.08457149
185	0xbd15d35d	-0.036578525
186	0x3c8ec361	0.017427148
187	0x3bb78651	0.0056007286
188	0xbc89a6f3	-0.01680324
189	0xbc37b014	-0.011211414
190	0xbdafd86c	-0.08586201
191	0xbd75bad4	-0.059992626
192	0x3c1eb4c1	0.00968665
193	0x3d583523	0.05278505
194	0xbc5884d5	-0.013215263
195	0xbd9bedb5	-0.076136984
196	0x3d81f606	0.06345753
197	0x3d4a4519	0.049382303
198	0x3c452e38	0.012034945
199	0xbdbb7490	-0.09153092
200	0x3bddf227	0.0067732516
201	0xbbfa93d6	-0.007647018
202	0x3bf8b57e	0.007589995
203	0xbd4fd6d6	-0.050741993
204	0x393a89ab	0.00017789628
205	0x3d758e78	0.059950322
206	0xbd93fc82	-0.072258964
207	0xbdb1227c	-0.086491555
208	0xbc87fba0	-0.016599476
209	0x3d403c5b	0.04693256
210	0xbda05bc0	-0.0783
211	0x3ca44bca	0.02005567
212	0xbd5fbb5c	-0.05462204
213	0x3cb46708	0.022021785
214	0x3cbca35f	0.02302712
215	0x3be2ddae	0.006923399
216	0x3d7ef4e8	0.06224528
217	0x3c94dd6c	0.018171988
218	0xbc018e30	-0.007907435
219	0x3d545f8c	0.051848933
220	0x3d8deac7	0.06929546
221	0xbd6d337a	-0.05791042
222	0xbcd62de5	-0.026144931
223	0x3caefb98	0.021360204
224	0x3d9cd5ee	0.07657991
225	0xbd6ab7d2	-0.05730421
226	0xbd630730	-0.055426776
227	0x3c313443	0.010815683
228	0xbb46a58b	-0.0030311074
229	0x3cc508b1	0.024051996
230	0x3c699043	0.014255586
231	0xbdabede4	-0.083949834
232	0x3cbb5687	0.022868408
233	0xbc9c5251	-0.01908222
234	0x3d21d3d9	0.039508674
235	0x3d907e4a	0.07055338
236	0xbd84e939	-0.06489796
237	0x3d2dafac	0.042403862
238	0xbcafff37	-0.021484
239	0x3d6475eb	0.055776518
240	0xbb444470	-0.0029948018
241	0xbd382329	-0.044955406
242	0x3d2c78ac	0.04210727
243	0xbd3dedec	-0.046369478
244	0xbb6260d3	-0.0034542575
245	0xbc332617	-0.010934374
246	0x3dae89c0	0.085223675
247	0x3d54b7eb	0.05193321
248	0x3b868972	0.00410574
249	0xbd4f75ad	-0.050649334
250	0x3c5418a1	0.012945325
251	0x3bc2f9ed	0.0059502036
252	0xbdb02256	-0.08600299
253	0xbdb565c9	-0.088573046
254	0xbd423f9b	-0.04742394
255	0x3d4c95c1	0.049947504

model.4.bias f4 [128]
0	0x3d3f5e08	0.046720535
1	0xb98382c0	-0.00025083683
2	0x3d8f7a49	0.07005746
3	0x3d48575b	0.048911434
4	0xbd6d2e56	-0.057905518
5	0x3d6f338b	0.058398765
6	0x3cbbcc81	0.022924663
7	0x3cc31c0d	0.023817087
8	0xbda04ef0	-0.07827556
9	0x3d62ea84	0.055399433
10	0xbd85f08e	-0.06540023
11	0x3db0cd0b	0.08632859
12	0x3b01ee71	0.001982596
13	0x3d8d08f1	0.06886471
14	0xbda3d98c	-0.08000478
15	0xbd365e3b	-0.04452346
16	0x3dc10ddd	0.09426472
17	0x3d4e295f	0.050332423
18	0xbd6ca62b	-0.057775658
19	0xbb660488	-0.0035097916
20	0xbd52d351	-0.05147106
21	0xbd4c7e01	-0.049924854
22	0x3dab7b6c	0.0837315
23	0x3d90ac99	0.070641704
24	0xbd85b730	-0.06529081
25	0xbd07e4e3	-0.033177268
26	0x3d29554f	0.041341122
27	0x3983b475	0.00025120718
28	0xbca17154	-0.01970736
29	0xbd4bd19f	-0.049760457
30	0x3d5506b4	0.052008346
31	0x3da2820a	0.07934959
32	0xbd90eb33	-0.07076111
33	0x3c825b51	0.015912684
34	0x3dbf5d8d	0.09344015
35	0xbcacfa1e	-0.021115359
36	0xbd37612e	-0.044770412
37	0xbc28a355	-0.010292848
38	0x3d48ce8c	0.049025103
39	0x3d8ad56d	0.06778989
40	0xbdc312d4	-0.095250756
41	0xbd9af4cc	-0.075662225
42	0xbd71ac13	-0.059001993
43	0x3dbc8d31	0.092066176
44	0xbc3f5cf2	-0.011679875
45	0xbcf67778	-0.030086264
46	0xbd2fc611	-0.0429135
47	0xbd3e32ce	-0.04643517
48	0x3d6ac5c9	0.05731753
49	0x3d01ab8d	0.031657744
50	0xbb1c0e65	-0.002381229
51	0xbd13d5e6	-0.03609266
52	0xbd4a054f	-0.04932147
53	0xbcd647a8	-0.026157215
54	0x3d9fd6b4	0.07804623
55	0x3d0c4066	0.034241103
56	0xbcfd84b9	-0.030947076
57	0xbbec992d	-0.0072204084
58	0xbcc3c394	-0.02389697
59	0x3c0d03ab	0.008606832
60	0xbb9f70f5	-0.0048657604
61	0xbd881c8a	-0.066460684
62	0x3abd0d8f	0.0014423596
63	0xbd25a20a	-0.040437736
64	0xbdbc794a	-0.092028216
65	0x3d7995dd	0.060933936
66	0xbd7229cf	-0.059121903
67	0xbdb755f8	-0.08951944
68	0x3db73869	0.08946306
69	0xbd26e8a0	-0.040749192
70	0xbca07865	-0.019588659
71	0xbd25b74f	-0.04045802
72	0xbc973a8d	-0.018460536
73	0x3d28e5b7	0.0412347
74	0x3c3c62df	0.011498182
75	0xbd81c3db	-0.063361846
76	0xbd10db98	-0.03536567
77	0x3d43da4b	0.047815602
78	0x3d3b8d00	0.045788765
79	0x3d2733ae	0.04082077
80	0x3d41c18f	0.047303732
81	0xbc35c12c	-0.011093419
82	0xbbe33b7f	-0.0069345827
83	0xbc9bdff6	-0.019027691
84	0xbd36834b	-0.044558804
85	0x3d24bfc0	0.04022193
86	0xbcc9db7d	-0.024640793
87	0xbd6bdeda	-0.057585575
88	0x3d03f8aa	0.032219566
89	0x3a73af34	0.00092958217
90	0xbd9c822b	-0.07642015
91	0xbd68d7b0	-0.05684632
92	0xbc8285a5	-0.015932867
93	0xbcf70e83	-0.030158287
94	0xbd363d5f	-0.04449212
95	0x3d67a535	0.056554038
96	0xbd8f40de	-0.06994794
97	0xbd3639a8	-0.04448858
98	0xbd3b6f15	-0.045760233
99	0x3d5c903a	0.053848483
100	0x3d833160	0.06405902
101	0x3d9d4c9f	0.0768063
102	0xbcd10c3e	-0.025518533
103	0x3d747055	0.05967744
104	0xbd0be8df	-0.03415763
105	0xbdb6cef7	-0.08926194
106	0x3dd4ef55	0.103972115
107	0x3d86827a	0.06567855
108	0x3d033828	0.032035977
109	0xbb5533e1	-0.0032532143
110	0xbd4019d0	-0.046899617
111	0x3d583012	0.05278022
112	0x39a97ca4	0.00032327056
113	0x3ce25f02	0.027633194
114	0xbd33b48e	-0.043873362
115	0xbcd11570	-0.025522918
116	0xbcc0dc77	-0.023542626
117	0xbc17f0ef	-0.009273752
118	0xbd30e0ab	-0.04318301
119	0xbc81d541	-0.015848758
120	0x3d52547b	0.051350098
121	0xbd176c19	-0.036968324
122	0x3dc67c8d	0.09691725
123	0x3db92d8b	0.0904189
124	0xbc255c4f	-0.010092809
125	0xbcdab163	-0.026695913
126	0xbccdef52	-0.02513853
127	0xbbde8fd1	-0.0067920466
