mlp_cox_model.pth (torch, 160872 bytes, 9 tensors)

model.0.weight f4 [1024]
0	0x3f806cf8	1.0033255
1	0x3f8013d7	1.0006055
2	0x3f7f9e54	0.99850965
3	0x3f80c605	1.0060431
4	0x3f807338	1.0035162
5	0x3f801c57	1.0008649
6	0x3f7fb5a5	0.9988654
7	0x3f7fe539	0.9995914
8	0x3f800c33	1.0003723
9	0x3f7fcef1	0.9992514
10	0x3f7fce18	0.9992385
11	0x3f7f6124	0.997576
12	0x3f80e869	1.0070926
13	0x3f810681	1.008011
14	0x3f806573	1.003096
15	0x3f802d2b	1.0013784
16	0x3f7e6a1f	0.9938068
17	0x3f805e33	1.0028747
18	0x3f803314	1.0015588
19	0x3f808b3c	1.0042491
20	0x3f800769	1.0002261
21	0x3f7f8a09	0.9982
22	0x3f7f98d1	0.99842554
23	0x3f80239b	1.0010866
24	0x3f801d98	1.0009031
25	0x3f801e22	1.0009196
26	0x3f7fb369	0.99883133
27	0x3f806ced	1.0033242
28	0x3f806961	1.0032159
29	0x3f7fdbac	0.9994457
30	0x3f805d40	1.0028458
31	0x3f80b3de	1.0054891
32	0x3f801961	1.0007745
33	0x3f811907	1.0085763
34	0x3f800056	1.0000103
35	0x3f7fcffe	0.99926746
36	0x3f81969b	1.0124086
37	0x3f808dc9	1.0043269
38	0x3f7f5ab6	0.9974779
39	0x3f803484	1.0016026
40	0x3f80e356	1.0069377
41	0x3f7ff10d	0.9997719
42	0x3f7f800e	0.9980477
43	0x3f802ca1	1.001362
44	0x3f801f2d	1.0009514
45	0x3f7ebb22	0.9950429
46	0x3f802b34	1.0013185
47	0x3f7f754b	0.9978835
48	0x3f80947d	1.0045315
49	0x3f8038d5	1.0017344
50	0x3f803bfa	1.0018303
51	0x3f801f13	1.0009483
52	0x3f7f8ca3	0.9982397
53	0x3f7f9167	0.9983124
54	0x3f803589	1.0016338
55	0x3f7f29e3	0.9967329
56	0x3f801c95	1.0008723
57	0x3f80ab4f	1.0052279
58	0x3f804b60	1.0023003
59	0x3f7f74e7	0.99787754
60	0x3f7f9a77	0.9984507
61	0x3f8037c7	1.0017022
62	0x3f808f5b	1.0043749
63	0x3f80467d	1.0021511
64	0x3f7fa80c	0.99865794
65	0x3f80169f	1.0006903
66	0x3f803291	1.0015432
67	0x3f803bdd	1.0018269
68	0x3f7fc108	0.9990392
69	0x3f7fb3a7	0.998835
70	0x3f7f81e1	0.99807554
71	0x3f7fd1d8	0.9992957
72	0x3f8020af	1.0009974
73	0x3f7fc64e	0.99911964
74	0x3f803dc6	1.0018852
75	0x3f80217b	1.0010217
76	0x3f807187	1.0034646
77	0x3f7f49f0	0.99722195
78	0x3f80562c	1.0026298
79	0x3f800f3b	1.0004648
80	0x3f7ffa4d	0.99991304
81	0x3f7fd3eb	0.99932736
82	0x3f800bc3	1.0003589
83	0x3f80c060	1.0058708
84	0x3f7fdde2	0.9994794
85	0x3f809551	1.0045568
86	0x3f80850d	1.0040604
87	0x3f8002b1	1.0000821
88	0x3f7fd445	0.9993327
89	0x3f802e4b	1.0014127
90	0x3f80018b	1.0000471
91	0x3f803de5	1.0018889
92	0x3f807efa	1.003875
93	0x3f7fcebf	0.99924845
94	0x3f7fcd7a	0.9992291
95	0x3f809608	1.0045786
96	0x3f81288b	1.0090498
97	0x3f7f9559	0.9983726
98	0x3f7ee852	0.9957324
99	0x3f7fab69	0.99870926
100	0x3f7f33ae	0.9968823
101	0x3f803773	1.0016922
102	0x3f803cc4	1.0018544
103	0x3f80d0f6	1.006377
104	0x3f7f51a5	0.99733955
105	0x3f8062d4	1.003016
106	0x3f80303e	1.0014722
107	0x3f800138	1.0000372
108	0x3f7faafb	0.9987027
109	0x3f805e5e	1.0028799
110	0x3f7f808b	0.99805516
111	0x3f801e3b	1.0009226
112	0x3f7f61ab	0.99758404
113	0x3f8083f4	1.0040269
114	0x3f8009bd	1.0002972
115	0x3f7fbd58	0.9989829
116	0x3f80e2b9	1.006919
117	0x3f801c15	1.000857
118	0x3f7e1d82	0.99263775
119	0x3f805b5a	1.0027878
120	0x3f7fdeba	0.9994923
121	0x3f7f9665	0.9983886
122	0x3f81299e	1.0090826
123	0x3f808f14	1.0043664
124	0x3f81fb7f	1.0154876
125	0x3f80af71	1.005354
126	0x3f80e0ba	1.0068581
127	0x3f8036e0	1.0016747
128	0x3f802b93	1.0013298
129	0x3f7f9b27	0.9984612
130	0x3f807445	1.0035483
131	0x3f800ec8	1.0004511
132	0x3f806f99	1.0034057
133	0x3f8008c7	1.0002679
134	0x3f802858	1.0012312
135	0x3f803216	1.0015285
136	0x3f7f6dd1	0.9977694
137	0x3f805dcc	1.0028625
138	0x3f80e33b	1.0069345
139	0x3f7ff87c	0.9998853
140	0x3f7f45ef	0.99716085
141	0x3f804877	1.0022115
142	0x3f803863	1.0017208
143	0x3f7fd1e9	0.9992967
144	0x3f800bce	1.0003603
145	0x3f8025d6	1.0011547
146	0x3f808ade	1.0042379
147	0x3f8022f1	1.0010663
148	0x3f7fd872	0.99939644
149	0x3f8049a1	1.002247
150	0x3f7fb6a2	0.9988805
151	0x3f8038c0	1.0017319
152	0x3f7ebff2	0.99511635
153	0x3f7fe29a	0.9995514
154	0x3f7fda7a	0.99942744
155	0x3f7fcac3	0.99918765
156	0x3f80900c	1.004396
157	0x3f7ff0ae	0.99976623
158	0x3f7fd259	0.9993034
159	0x3f8104d5	1.00796
160	0x3f7f64c6	0.99763143
161	0x3f8045b8	1.0021276
162	0x3f7f727b	0.9978406
163	0x3f7fca61	0.9991818
164	0x3f80c76a	1.0060856
165	0x3f7f7b24	0.9979727
166	0x3f805b2a	1.0027821
167	0x3f7fd4c4	0.9993403
168	0x3f8018e9	1.0007602
169	0x3f807a5c	1.0037341
170	0x3f8024a3	1.0011181
171	0x3f801934	1.0007691
172	0x3f7f81ae	0.9980725
173	0x3f7f3ffa	0.99706995
174	0x3f8044b6	1.0020969
175	0x3f7fa82a	0.99865973
176	0x3f7fed85	0.999718
177	0x3f802865	1.0012327
178	0x3f801a3d	1.0008007
179	0x3f80b5ec	1.0055518
180	0x3f802883	1.0012363
181	0x3f80344d	1.0015961
182	0x3f804782	1.0021822
183	0x3f803205	1.0015265
184	0x3f806b83	1.003281
185	0x3f7fc6b4	0.9991257
186	0x3f80042f	1.0001277
187	0x3f804b89	1.0023052
188	0x3f7fb071	0.99878603
189	0x3f7f1536	0.9964174
190	0x3f804d0e	1.0023515
191	0x3f7f406b	0.9970767
192	0x3f8026e7	1.0011872
193	0x3f800579	1.000167
194	0x3f7ea00f	0.9946298
195	0x3f801950	1.0007725
196	0x3f8026a7	1.0011796
197	0x3f811590	1.0084705
198	0x3f7fd0bf	0.99927896
199	0x3f7ee4e4	0.9956801
200	0x3f8003a5	1.0001112
201	0x3f80c368	1.0059633
202	0x3f81193c	1.0085826
203	0x3f8039f1	1.0017682
204	0x3f806022	1.0029337
205	0x3f807d2d	1.0038201
206	0x3f8034f0	1.0016155
207	0x3f80245b	1.0011095
208	0x3f80152a	1.0006459
209	0x3f7fb84e	0.998906
210	0x3f7fe740	0.99962234
211	0x3f7fdaf9	0.999435
212	0x3f7ffc7a	0.99994624
213	0x3f809b78	1.0047445
214	0x3f802a2d	1.0012871
215	0x3f817bd2	1.0115912
216	0x3f7fe246	0.9995464
217	0x3f806014	1.0029321
218	0x3f805366	1.0025451
219	0x3f80469b	1.0021547
220	0x3f7f72c3	0.9978449
221	0x3f806e1f	1.0033606
222	0x3f800eb3	1.0004486
223	0x3f7ffa94	0.99991727
224	0x3f7ff7b0	0.99987316
225	0x3f7f4d6a	0.997275
226	0x3f7ffc4b	0.99994344
227	0x3f8106f2	1.0080245
228	0x3f7fb6a6	0.99888074
229	0x3f80da4b	1.0066618
230	0x3f812e4b	1.0092252
231	0x3f7f70a9	0.9978128
232	0x3f802917	1.001254
233	0x3f8111fc	1.0083613
234	0x3f7f5e4e	0.9975327
235	0x3f80254e	1.0011384
236	0x3f7f96de	0.9983958
237	0x3f8076a5	1.0036207
238	0x3f81a132	1.0127318
239	0x3f7f4d10	0.99726963
240	0x3f800346	1.0000999
241	0x3f7fd37a	0.9993206
242	0x3f8046b6	1.0021579
243	0x3f7ffbb2	0.9999343
244	0x3f804ac4	1.0022817
245	0x3f801bdd	1.0008503
246	0x3f7f2988	0.99672747
247	0x3f802cab	1.0013632
248	0x3f7edb96	0.9955381
249	0x3f7f6a31	0.9977141
250	0x3f805d2c	1.0028434
251	0x3f7fe615	0.9996045
252	0x3f80763f	1.0036086
253	0x3f7e7f89	0.99413353
254	0x3f811c43	1.008675
255	0x3f7f742c	0.9978664

model.0.bias f4 [1024]
0	0xbb65a41e	-0.0035040448
1	0xbbcc154d	-0.006228125
2	0xbab91e81	-0.0014123471
3	0xb9a88a4f	-0.00032146505
4	0x3b699b1d	0.0035645433
5	0x39b1a563	0.00033883294
6	0xba04b769	-0.00050627306
7	0x3b476751	0.0030426572
8	0x3b458952	0.0030141664
9	0xbb59d5aa	-0.0033238926
10	0xbb6cbef1	-0.0036124552
11	0x3b75fe0c	0.0037535457
12	0xbac9cc34	-0.001539594
13	0xbbd4f01e	-0.0064983508
14	0xbb7bd2b0	-0.003842514
15	0xba289d29	-0.000643211
16	0xbabf367d	-0.0014588382
17	0x3b842fe8	0.004034031
18	0xbb68fb44	-0.0035550157
19	0xbb40967a	-0.0029386566
20	0xba1dc8d5	-0.0006019001
21	0xbacd1e33	-0.0015649259
22	0xbbc5f209	-0.0060408157
23	0xbbbcc374	-0.0057606045
24	0xbbdf8deb	-0.006822338
25	0x3b366efe	0.0027837153
26	0x3be1d334	0.0068916325
27	0x3bc390d2	0.0059681917
28	0xbbe0717e	-0.006849467
29	0x3bd2cc97	0.0064330804
30	0xb9287589	-0.00016065514
31	0x3ad67cfc	0.0016364153
32	0xba4e8c93	-0.00078792236
33	0xba3ce581	-0.00072058296
34	0xba272fbd	-0.0006377658
35	0xbb05f09c	-0.0020437604
36	0x3b1f72e5	0.0024329957
37	0x395b4e22	0.00020914574
38	0xbabed7cc	-0.0014560162
39	0x3b2b6a8a	0.0026156032
40	0x3a72b321	0.00092582597
41	0xbbe1e899	-0.006894183
42	0x3b1d7377	0.0024025121
43	0x3b13a62b	0.0022529464
44	0xbb591d1b	-0.003312892
45	0xbae54281	-0.0017491133
46	0xbbc30480	-0.005951464
47	0xbb2311c9	-0.0024882427
48	0xbbfc4549	-0.007698689
49	0xbb20126f	-0.002442505
50	0xbc0811e1	-0.008305044
51	0xbc0408de	-0.008058755
52	0x3804ff98	3.1709293e-05
53	0x3b8b0a06	0.0042431382
54	0xbbf464bf	-0.007458299
55	0xbbc06261	-0.0058711027
56	0xba0e3619	-0.00054249313
57	0xbc38884f	-0.011262967
58	0xbb4e75b5	-0.0031503264
59	0xba580337	-0.0008240225
60	0xbbd8abbe	-0.00661227
61	0x3b859262	0.004076288
62	0x3bfd93b2	0.007738554
63	0xbb3a9e6c	-0.0028475774
64	0xbaa64f6c	-0.0012688464
65	0xbbd855bd	-0.0066020177
66	0x3bb45991	0.005503841
67	0xbbb01e41	-0.0053747003
68	0xba8e37cd	-0.001085037
69	0xbc07ce2e	-0.008288903
70	0xbb177ddd	-0.0023115792
71	0x3b607e6e	0.0034255045
72	0x39154b8f	0.00014237895
73	0xbab25e03	-0.001360834
74	0x3c2b05bc	0.010438379
75	0x3b8af4f3	0.004240626
76	0x3b06b9ea	0.002055759
77	0x3c2571b6	0.010097912
78	0xbba4b8f9	-0.0050269333
79	0xbad66beb	-0.0016359066
80	0xbb89719d	-0.004194452
81	0x3b4d6dab	0.0031345885
82	0x3b051fbb	0.0020313102
83	0xbb07d1f3	-0.0020724505
84	0xbb6c4c2c	-0.0036056144
85	0xbb020715	-0.0019840647
86	0x398ab2f5	0.00026454745
87	0xbba2adb8	-0.0049645565
88	0xbb979419	-0.004625809
89	0x3b9e82b5	0.004837359
90	0xbbc68ef1	-0.0060595204
91	0xbb62c2df	-0.0034601016
92	0xbb44c32c	-0.0030023558
93	0x3bee859e	0.007279112
94	0xb9901470	-0.00027481047
95	0xbc0d1ee5	-0.008613323
96	0xbadd6024	-0.0016889614
97	0xbb02d870	-0.0019965433
98	0x3ab95e47	0.0014142477
99	0x3b0bfc13	0.0021359965
100	0xbb5eeaa5	-0.003401437
101	0xbb8fa18f	-0.004383273
102	0xba38c5a4	-0.0007048494
103	0x3bc29410	0.0059380606
104	0xbbf345b0	-0.007424079
105	0x399d7986	0.00030035916
106	0x3aee41f7	0.0018177618
107	0xbbc63083	-0.0060482635
108	0x3ab879e8	0.0014074417
109	0xbacb1eb3	-0.001549682
110	0x3b7a97dd	0.003823749
111	0xbb945ed5	-0.0045279064
112	0x3b5340fa	0.0032234774
113	0xbbd18c86	-0.0063949255
114	0xbb7d881f	-0.003868587
115	0x3b7b9f9e	0.00383947
116	0x3b64e0aa	0.003492395
117	0xbb77ad36	-0.003779245
118	0xba9cb2c6	-0.0011955134
119	0x3bac784c	0.005263364
120	0xbb171185	-0.0023051214
121	0x3b143c28	0.0022618864
122	0xbb927288	-0.0044692196
123	0xbb04cbfa	-0.002026318
124	0xbb20f3fa	-0.0024559484
125	0x3a85a1e0	0.0010195337
126	0x3b80ce58	0.003930848
127	0xba80f51e	-0.0009838676
128	0xbb1ddaee	-0.002408679
129	0x3b7765b4	0.0037749829
130	0xba75a9e6	-0.0009371325
131	0xbb4fd61d	-0.0031713315
132	0xba830afb	-0.0009997779
133	0xbae6d2fa	-0.0017610483
134	0x3ab04034	0.0013446868
135	0xba0fd173	-0.00054862275
136	0xbb78af4e	-0.0037946287
137	0xbba8db9a	-0.0051531317
138	0x3bc62a1f	0.0060475017
139	0xb910ddcc	-0.00013815536
140	0xbbdfa08d	-0.006824559
141	0xbb4fede0	-0.0031727478
142	0xbb017d32	-0.001975846
143	0xbb8daa0d	-0.00432325
144	0x3bd518ad	0.0065031857
145	0xbbff0961	-0.0077831005
146	0x3b484d21	0.003056355
147	0x3b9df994	0.004821012
148	0x3abaaaa0	0.0014241524
149	0xbabef249	-0.0014568056
150	0x3b16a0e3	0.002298408
151	0x3af4aace	0.0018666626
152	0xbbbddd67	-0.0057942155
153	0xbb1a833f	-0.0023576764
154	0x3bb3ca2f	0.0054867486
155	0xbbda0fc3	-0.006654711
156	0xba409ed7	-0.0007347888
157	0x3a9cb788	0.0011956552
158	0x3af1e291	0.0018454363
159	0xba962cf0	-0.0011457484
160	0x3c0c98e3	0.008581373
161	0xbad180a8	-0.0015983777
162	0xbc2539a4	-0.010084543
163	0x3b4b8f1c	0.0031060642
164	0xbb9e2ee2	-0.004827366
165	0xbb636c3d	-0.0034701966
166	0x3a401251	0.0007326948
167	0xbb8e017c	-0.004333673
168	0x3b6394ee	0.003472622
169	0x3b8e762a	0.0043475823
170	0xb9d55584	-0.0004069024
171	0xbb663bc2	-0.0035130833
172	0xbc2d8d88	-0.010592826
173	0x3bbdfe3d	0.00579813
174	0x3b5555d5	0.003255238
175	0xbb240f19	-0.0025033413
176	0x3c33861a	0.010957265
177	0x3a5498c5	0.00081099226
178	0xbaa8033c	-0.0012818347
179	0xb9ec80d9	-0.00045109427
180	0xbb4e5b19	-0.0031487404
181	0xbbaf95a3	-0.0053584143
182	0x3b4e360d	0.0031465322
183	0x3b931ff5	0.0044898936
184	0x3a130a21	0.00056091143
185	0xbad16cff	-0.0015977918
186	0x3af13013	0.0018401168
187	0xbab57c25	-0.0013846202
188	0x3bed58ed	0.007243267
189	0xbb1c151d	-0.0023816295
190	0xbc029854	-0.007970888
191	0x3b9877a2	0.004652933
192	0xbbf1cffd	-0.0073795305
193	0x3b3d5bd3	0.0028893843
194	0x3b1739bf	0.002307519
195	0x3b7cf2dc	0.0038596904
196	0xbaf0f38a	-0.0018383127
197	0x3a8b33d2	0.0010620302
198	0xba258439	-0.0006313953
199	0xba48f73a	-0.0007666234
200	0xbacd8676	-0.0015680331
201	0xbbeb3dc0	-0.007178992
202	0xbb5359cd	-0.003224957
203	0x3b501c31	0.0031755085
204	0x3b7b9073	0.003838566
205	0x3b78b7e2	0.00379514
206	0x3be314fe	0.0069299927
207	0x3b748778	0.003731219
208	0xb9f4f457	-0.00046721354
209	0x3b1e53a3	0.0024158738
210	0xbaab20eb	-0.0013056075
211	0x3baa0aa9	0.005189259
212	0x3bbb385c	0.0057135057
213	0xbba5115d	-0.0050374703
214	0xbac0361c	-0.0014664563
215	0xbb92fb49	-0.004485522
216	0xbb2b9525	-0.0026181426
217	0x3be11200	0.006868601
218	0xb98639fb	-0.0002560167
219	0xbb38b5c6	-0.0028184517
220	0xbbf07f7a	-0.007339415
221	0xb9c51dba	-0.00037596916
222	0xbb27f9ef	-0.002563115
223	0xbb408b5d	-0.0029379942
224	0xb9fc3954	-0.00048107898
225	0xb9dcf300	-0.0004214272
226	0x39902637	0.00027494293
227	0x3b6d34e9	0.0036194867
228	0x3ab967f1	0.0014145357
229	0x3bf71621	0.00754048
230	0xbb893cb7	-0.004188146
231	0xbbba4c6b	-0.0056853793
232	0x3ad7f807	0.0016477116
233	0xbb01693c	-0.0019746562
234	0xbb25d640	-0.0025304705
235	0xbb622c3e	-0.0034511234
236	0x3bbf9410	0.005846508
237	0xbb93d657	-0.0045116353
238	0xbb97cc63	-0.004632519
239	0x3a8cff00	0.0010757148
240	0xbc174024	-0.009231601
241	0x39d7f9c3	0.00041194083
242	0xbbfe57ea	-0.007761945
243	0x3b919c47	0.0044436785
244	0xbaaa1672	-0.001297666
245	0xba25a0c1	-0.00063182047
246	0xbc1644c2	-0.009171667
247	0xbb71840b	-0.0036852385
248	0x3b198ed3	0.0023431077
249	0x3b4a7ee6	0.0030898391
250	0xbb3a6a66	-0.0028444766
251	0xba932eae	-0.0011229122
252	0x3bd1c2fa	0.006401417
253	0xbb90daa2	-0.0044205943
254	0x3c03d402	0.008046152
255	0xbafe247f	-0.0019389539

model.0.running_mean f4 [1024]
0	0xbd6ba8ac	-0.057533905
1	0xbc880da6	-0.01660807
2	0x3bf5e230	0.0075037703
3	0xbcd97aaf	-0.026547758
4	0x3b2ae1dd	0.0026074566
5	0xbc668296	-0.01406922
6	0x3d22cc4c	0.039745614
7	0xbb9e8eaf	-0.0048387866
8	0xbb861b98	-0.004092645
9	0x3d0703c5	0.03296258
10	0xbc3e752b	-0.011624615
11	0x3bac600b	0.0052604727
12	0xbb7888ca	-0.003792333
13	0xbc451471	-0.012028799
14	0x3b87a5c4	0.004139634
15	0x3c34e3f1	0.011040674
16	0xbd13cb36	-0.03608247
17	0xbccf11fb	-0.025277128
18	0xb92d2dc4	-0.00016515615
19	0x3bfe717c	0.0077649932
20	0x3c840f1f	0.016120492
21	0xb9ea6095	-0.00044703917
22	0x3c9f3a89	0.019437091
23	0x3d91f58e	0.07126914
24	0x3c9e3683	0.019313103
25	0x3ceeb03c	0.02913677
26	0xbccdbae5	-0.025113532
27	0x3c35078c	0.011049163
28	0xbbbdc1a8	-0.005790908
29	0xbc32fe3b	-0.010924871
30	0x3cd076b0	0.02544722
31	0xbc82d4c1	-0.01597059
32	0xbbf2d8f8	-0.0074111186
33	0x3c24fc44	0.01006991
34	0xbb4f88bc	-0.0031667193
35	0x3c73fa53	0.014891225
36	0xbc27fa86	-0.010252601
37	0x3bd3fcc4	0.006469341
38	0xbce6d9ca	-0.028180022
39	0xbb94bd65	-0.004539179
40	0x3c2bd40f	0.01048757
41	0x3cce53ac	0.025186382
42	0xb99ac6bc	-0.00029521238
43	0xbd3b710b	-0.045762103
44	0xbcc72272	-0.024308417
45	0x3b2c1394	0.0026256787
46	0xb9cf968c	-0.00039594283
47	0xbcc2c6c0	-0.023776412
48	0xbc47d956	-0.012197813
49	0x3da99dab	0.08282026
50	0xbcce3e36	-0.025176149
51	0xbc914a16	-0.017735522
52	0xbc9a0bbc	-0.018804424
53	0x3c1d00e8	0.009582736
54	0x3c1bf85c	0.009519663
55	0xbc19a462	-0.009377571
56	0x3d046325	0.032321114
57	0x3c17bc85	0.009261255
58	0xbbc94c9b	-0.0061431653
59	0xbc33175b	-0.010930861
60	0x3c23838f	0.0099800965
61	0xbcb44a2c	-0.022008024
62	0xbc4613e3	-0.012089702
63	0x3cbc0297	0.022950454
64	0x3a86f983	0.0010297749
65	0xbc6ca9fd	-0.014444825
66	0x3b9e249a	0.0048261406
67	0x3be470d6	0.006971459
68	0x39ab11fb	0.00032629058
69	0x3bcf505e	0.006326719
70	0x3d19092d	0.037362266
71	0x3c35ddc5	0.011100237
72	0xbc84e95d	-0.016224558
73	0x3d2ff008	0.04295352
74	0x3cf45f4d	0.0298306
75	0xbc25ca2a	-0.010119
76	0x3cd71da5	0.026259253
77	0xbc9254d6	-0.017862719
78	0x3c8cee40	0.01720345
79	0xbc8f17f5	-0.017467478
80	0xbc135a4c	-0.008993696
81	0x3ce37786	0.027766954
82	0xbd522b1d	-0.051310647
83	0x3cad81ff	0.021180151
84	0xbc84f5fa	-0.016230572
85	0xbd2329ee	-0.03983491
86	0x3cc06c19	0.023489045
87	0xbc8f1b70	-0.017469138
88	0x3c4562c0	0.01204747
89	0x3cb6b53c	0.022303216
90	0xbcb84c93	-0.022497451
91	0xbbb55465	-0.0055337423
92	0xbc412177	-0.011787764
93	0x3c599b82	0.013281705
94	0x3c4e076c	0.012575012
95	0x3ca35c50	0.019941479
96	0x3c1a39c4	0.009413186
97	0x3d6cb071	0.057785455
98	0xbc04e6b5	-0.0081116455
99	0x3cc06081	0.023483517
100	0x3c62cdf7	0.013843051
101	0x3cd3978c	0.0258291
102	0xbb132803	-0.0022454269
103	0x3c3d2381	0.011544109
104	0x3d99f1c4	0.07516816
105	0x3c86ee06	0.01647092
106	0x3b485f0f	0.0030574237
107	0xbcb9349b	-0.022608092
108	0xbcfac0d0	-0.030609518
109	0x3d4d7bcf	0.0501669
110	0xbc33cce4	-0.010974143
111	0x3b08fa7d	0.0020901256
112	0x3d85f5eb	0.06541046
113	0xbb8049bb	-0.0039150394
114	0xbbbb4572	-0.0057150656
115	0x3c8d1357	0.017221136
116	0xbaeb34f6	-0.0017944861
117	0xbbd63eb4	-0.0065382365
118	0x397bd170	0.00024015247
119	0xbbdef362	-0.006803916
120	0xbcb0bfb1	-0.02157578
121	0xbc0da270	-0.008644685
122	0xbc812c75	-0.01576827
123	0xbc519b2b	-0.012793343
124	0xbd4a8fb9	-0.04945347
125	0xbcb2bdfa	-0.021819104
126	0xbc2c0d4d	-0.010501218
127	0xbca6d78e	-0.020366456
128	0x3cad7a14	0.021176375
129	0xbca30fc5	-0.01990498
130	0xbd8436c4	-0.06455758
131	0xbc680d4c	-0.0141633265
132	0x3c845920	0.01615578
133	0xbb82e129	-0.0039941263
134	0xba246e91	-0.0006272579
135	0xbce623e9	-0.028093295
136	0x3d2eaff3	0.042648267
137	0x3cb805a6	0.02246363
138	0xbb38c8e0	-0.0028195903
139	0xbcb51ffd	-0.02210998
140	0x3b65f1b1	0.0035086686
141	0xbd2adff2	-0.041717477
142	0xbc2c5d0e	-0.010520233
143	0xbbd4fb50	-0.0064996853
144	0xbb65249d	-0.003496445
145	0xbc163389	-0.00916756
146	0x3d353223	0.044237267
147	0xbcbceff8	-0.023063645
148	0xbd072938	-0.032998294
149	0x3a808559	0.0009805366
150	0xbc103300	-0.008801222
151	0x396468b2	0.00021782776
152	0x3bdfcd39	0.0068298844
153	0xb91a9f19	-0.00014745853
154	0x3c81e3e4	0.015855737
155	0x3cd81078	0.02637504
156	0x3ce40ffc	0.027839653
157	0xbc08c136	-0.008346846
158	0xbb99e0d0	-0.004695989
159	0x3bec6506	0.0072141914
160	0x3af83372	0.001893623
161	0x3ce518c5	0.027965913
162	0x3c82937d	0.015939469
163	0x3b8825bc	0.004154889
164	0xbba4dd99	-0.0050312993
165	0xbbb5453d	-0.0055319355
166	0xbd664486	-0.056217693
167	0xbbdc3bfe	-0.006721019
168	0xbd1b5a04	-0.037927642
169	0x3cd6288b	0.02614238
170	0x3ceb234e	0.028703358
171	0x3cf9fb8c	0.030515455
172	0x3cd13c7b	0.025541535
173	0xbc02903f	-0.007968961
174	0x3cb69a26	0.0222903
175	0x3c3318eb	0.010931234
176	0xbc4014b9	-0.011723691
177	0xbc52c3d6	-0.012864074
178	0xbc939904	-0.0180173
179	0xbb04912f	-0.0020228138
180	0xbd014500	-0.031559944
181	0xbc7ac9cc	-0.015306901
182	0xbbc1ec34	-0.00591805
183	0x3c33ee84	0.0109821595
184	0xbc394927	-0.011308945
185	0x3ccb3318	0.024804637
186	0x3d41b596	0.047292314
187	0xbc826c42	-0.015920762
188	0xbc8039cf	-0.015652565
189	0xbd065cb5	-0.032803256
190	0x3d16ec22	0.036846288
191	0x3c3edb62	0.011648985
192	0x3c642a3e	0.013926087
193	0x3d041e19	0.032255266
194	0x3c405b5e	0.011740534
195	0x3c428745	0.011873071
196	0xbc1ed40c	-0.009694111
197	0xbb86eaed	-0.004117361
198	0x3ca39e2c	0.019972883
199	0x3d019b6e	0.03164237
200	0x3bcdf465	0.0062852376
201	0xbc4e6eeb	-0.012599687
202	0x3afa45fd	0.0019094344
203	0xbcd0d68a	-0.025492925
204	0xbcc6930d	-0.024240041
205	0x3c13beb8	0.009017639
206	0xbc4a8c8c	-0.012362611
207	0xbc57d95e	-0.013174383
208	0x3c8fff67	0.01757784
209	0xbc0fcf65	-0.008777474
210	0xbd075778	-0.0330424
211	0xbcb1eb02	-0.021718506
212	0x3c611a28	0.013739146
213	0x3cd04116	0.02542166
214	0x3bdbab84	0.006703796
215	0xbc7324b8	-0.014840297
216	0x3c48886c	0.012239557
217	0x3ce133a8	0.027490452
218	0xbbf94e87	-0.007608238
219	0xbbe06a2b	-0.0068485937
220	0x3c19fbc5	0.009398405
221	0xbc9c2ada	-0.019063402
222	0xbd4a076d	-0.049323488
223	0xbcb5ae6a	-0.022177894
224	0x3cb36f2a	0.021903593
225	0x3c5d35ab	0.013501565
226	0x3b5899c6	0.003305064
227	0xbca2da6f	-0.019879548
228	0x3b0b0ee0	0.0021218583
229	0xbca2a7e6	-0.01985545
230	0xbc107107	-0.00881601
231	0xbd027bdc	-0.031856403
232	0xbba03223	-0.0048887893
233	0xbcf18611	-0.029482873
234	0xbc3ccbf7	-0.011523238
235	0xbc93d97a	-0.018048037
236	0xbcf83f0f	-0.030303506
237	0x3d0f30d1	0.034958664
238	0x3caca194	0.02107314
239	0xbc8c57fa	-0.017131794
240	0x3d05a952	0.03263218
241	0xbaca97d1	-0.0015456622
242	0xbbbbef3e	-0.005735307
243	0x3cc968ba	0.02458607
244	0xbcbb35ab	-0.02285274
245	0xb94d8619	-0.00019600279
246	0x3c44443b	0.011979158
247	0x3cb4a6a3	0.022052115
248	0x3a1af5df	0.00059112714
249	0x3cddc8c1	0.027073266
250	0xbc8cd9cd	-0.0171937
251	0x3cc711ee	0.024300542
252	0x3c9b1cfc	0.01893472
253	0x3ab77ce0	0.0013999008
254	0x3c804f9f	0.015662966
255	0x3cb8e13c	0.022568338

model.0.running_var f4 [1024]
0	0x3917aed7	0.00014465615
1	0x3925e9b6	0.0001582269
2	0x39153ff8	0.00014233578
3	0x390d1e42	0.0001345808
4	0x3926ca91	0.00015906456
5	0x3931f08d	0.00016969648
6	0x39267d3f	0.00015877651
7	0x38f86dc6	0.000118460084
8	0x38f813c7	0.00011829245
9	0x3931b2d6	0.00016946657
10	0x394418a2	0.00018701193
11	0x3943ddc4	0.00018679263
12	0x39375e49	0.00017487364
13	0x39088c67	0.00013022275
14	0x39266cdd	0.00015871548
15	0x39081a87	0.00012979853
16	0x38d663f6	0.00010222934
17	0x39229774	0.00015505945
18	0x39595e64	0.00020729896
19	0x3920ce2d	0.00015335596
20	0x392b3eff	0.00016331299
21	0x391c52a7	0.0001490811
22	0x3907bee4	0.00012945716
23	0x394e5f5e	0.00019681218
24	0x39014fde	0.00012332152
25	0x391fbf28	0.00015234633
26	0x3943454f	0.00018622469
27	0x38fdcbad	0.00012101918
28	0x392aaf14	0.00016277685
29	0x39c1f2f4	0.00036992843
30	0x398480a7	0.00025272855
31	0x39434c8d	0.00018625167
32	0x394b47df	0.00019386363
33	0x38f6eefe	0.0001177471
34	0x3943477b	0.00018623278
35	0x395225f0	0.00020041293
36	0x3902896e	0.00012448963
37	0x38b23865	8.498206e-05
38	0x390995d4	0.00013121153
39	0x39861585	0.00025574505
40	0x3986b6de	0.00025694718
41	0x393dd22d	0.00018102741
42	0x3940394d	0.00018331893
43	0x3909bfcf	0.00013136792
44	0x393f9fd0	0.00018274714
45	0x3972062a	0.00023081215
46	0x3980d75e	0.00024574524
47	0x39593fc6	0.0002071849
48	0x390ae755	0.00013246883
49	0x39bcb1b7	0.00035990562
50	0x3972b62d	0.00023146784
51	0x398363d5	0.00025060648
52	0x393a3ac9	0.00017760241
53	0x39547651	0.00020261972
54	0x3907e7fd	0.00012961026
55	0x3906ccb0	0.00012855488
56	0x3981cf1e	0.00024759112
57	0x38d350e0	0.00010076328
58	0x390eaab2	0.00013605764
59	0x391a9c31	0.0001474477
60	0x395599f3	0.00020370613
61	0x3961299d	0.00021473174
62	0x39878f87	0.00025856143
63	0x3949dcff	0.00019251181
64	0x390a232d	0.0001317381
65	0x38db27bf	0.00010450137
66	0x395240db	0.00020051321
67	0x39198928	0.00014642312
68	0x390b79e1	0.00013301476
69	0x392d33a9	0.0001651781
70	0x39660457	0.00021936126
71	0x395f979a	0.00021323413
72	0x39595a09	0.00020728273
73	0x39418e5f	0.00018458952
74	0x3942f0c3	0.00018590972
75	0x39504cf3	0.00019865092
76	0x38e40047	0.00010871939
77	0x3946389d	0.00018903842
78	0x39295388	0.00016148214
79	0x3959f1b0	0.00020784768
80	0x395563fa	0.00020350507
81	0x38f318f1	0.00011591789
82	0x395867c0	0.00020638015
83	0x3913967f	0.00014075077
84	0x39075930	0.00012907828
85	0x39a6d5cc	0.00031821278
86	0x392cad61	0.00016467787
87	0x397fce64	0.00024395582
88	0x38fc3ecc	0.00012027993
89	0x3987810a	0.00025845348
90	0x39ccfb8f	0.00039097338
91	0x3947ad03	0.00019042571
92	0x3903c9ee	0.00012568358
93	0x3967ccb1	0.0002210613
94	0x392a03d6	0.00016213892
95	0x394234c9	0.00018520946
96	0x3931cddc	0.00016956724
97	0x3928a229	0.00016082138
98	0x393fd512	0.00018294554
99	0x39ac2f10	0.0003284146
100	0x39220e49	0.00015454846
101	0x3908be78	0.00013040926
102	0x39598cf3	0.0002074724
103	0x38fb2c44	0.00011976858
104	0x3a2f335c	0.00066833734
105	0x39331065	0.00017076878
106	0x39484ecb	0.00019102839
107	0x397e250b	0.00024237127
108	0x3926c6a8	0.00015904999
109	0x3926920b	0.00015885399
110	0x393525bf	0.00017275567
111	0x38fe78aa	0.00012134139
112	0x39393aab	0.0001766483
113	0x39563eca	0.00020432021
114	0x3974a1c4	0.00023329916
115	0x398900ae	0.00026131183
116	0x38fb0d03	0.00011971036
117	0x393bb9ba	0.00017902898
118	0x39617e9b	0.00021504836
119	0x399da657	0.00030069306
120	0x39679f86	0.00022089304
121	0x391dd638	0.0001505249
122	0x393ad746	0.00017818538
123	0x3947b820	0.00019046711
124	0x391d7f89	0.00015020197
125	0x38e01351	0.0001068475
126	0x38cb7180	9.700935e-05
127	0x38fa311c	0.00011930076
128	0x394da504	0.00019611797
129	0x39992891	0.00029212658
130	0x3927ac5f	0.00015990574
131	0x38c9d219	9.6235606e-05
132	0x394f96e0	0.00019797264
133	0x3900ab7a	0.00012270911
134	0x3903bfe9	0.00012564626
135	0x393c4ae2	0.00017956973
136	0x39824ceb	0.0002485284
137	0x390ffb41	0.00013731142
138	0x39300703	0.0001678728
139	0x393a4d8a	0.00017767228
140	0x390f2128	0.00013649894
141	0x392830d2	0.00016039915
142	0x39290f8f	0.00016122892
143	0x3928ac45	0.00016085904
144	0x39b2bbfb	0.00034090862
145	0x3977faf4	0.00023649243
146	0x395148cb	0.0001995891
147	0x390c60d1	0.00013387507
148	0x39911426	0.00027671567
149	0x3956ede5	0.00020497253
150	0x397aefa8	0.00023931137
151	0x392ba182	0.00016367997
152	0x3911c639	0.00013902121
153	0x3969bb11	0.00022290299
154	0x38ff36cf	0.000121695564
155	0x39234456	0.00015570348
156	0x391e45c3	0.00015094042
157	0x391070fe	0.00013775003
158	0x39a7859d	0.00031952272
159	0x393c6a27	0.00017968622
160	0x3920ca46	0.00015334142
161	0x391d5fa1	0.00015008311
162	0x38fafaea	0.00011967665
163	0x391dbdb8	0.00015043363
164	0x390aa835	0.00013223368
165	0x38e1a63d	0.000107598
166	0x3a117f1d	0.00055502524
167	0x391927ca	0.0001460604
168	0x394ed916	0.00019726562
169	0x39421889	0.00018510422
170	0x391c2403	0.00014890735
171	0x3929ef58	0.00016206258
172	0x393c086f	0.00017932219
173	0x38f1935a	0.00011519222
174	0x39832f42	0.00025021477
175	0x3953c7eb	0.00020197003
176	0x38f9da41	0.00011913898
177	0x391afa31	0.00014779788
178	0x38f5556b	0.00011698421
179	0x39928371	0.00027945222
180	0x392db65a	0.00016566497
181	0x39750433	0.00023366585
182	0x39879d17	0.00025866248
183	0x394a938b	0.00019319185
184	0x392b0b89	0.00016312128
185	0x39135c0d	0.00014053304
186	0x396ad1ba	0.00022394108
187	0x392a62d5	0.00016249281
188	0x3935c237	0.00017333856
189	0x392b926b	0.00016362376
190	0x3990b099	0.00027597396
191	0x3944862f	0.00018742004
192	0x396a43f5	0.00022341295
193	0x3915abce	0.0001427375
194	0x3914505e	0.00014144319
195	0x39740caa	0.00023274371
196	0x394580ea	0.00018835408
197	0x392b93e7	0.00016362929
198	0x393cb671	0.00017997042
199	0x3934004d	0.0001716625
200	0x39195730	0.00014623697
201	0x392c52b7	0.00016434012
202	0x3944f3fd	0.0001878291
203	0x390b6d17	0.00013296712
204	0x39114ffd	0.00013858076
205	0x392fb194	0.00016755454
206	0x39175ba5	0.00014434622
207	0x3910f4ad	0.00013824059
208	0x391aa291	0.00014747145
209	0x391cd2b6	0.00014955815
210	0x393a5852	0.00017771244
211	0x390b2851	0.00013271092
212	0x3908c392	0.00013042826
213	0x3939c4a8	0.00017716235
214	0x3a1014c2	0.0005496257
215	0x38dc06e6	0.000104917024
216	0x38faff89	0.00011968526
217	0x391159db	0.00013861751
218	0x38d90746	0.00010348721
219	0x3956f286	0.00020498977
220	0x39187bec	0.00014542014
221	0x391bd18d	0.00014860016
222	0x39124701	0.00013950096
223	0x3951f9c4	0.00020024838
224	0x3952623e	0.00020063759
225	0x391bf4fc	0.00014873216
226	0x38ed9096	0.00011327972
227	0x38def26d	0.0001063094
228	0x38ea8fed	0.00011184798
229	0x39176400	0.00014437735
230	0x39106c7c	0.00013773324
231	0x39cc0e18	0.00038920413
232	0x392be2ee	0.00016392369
233	0x394e774a	0.0001969013
234	0x38db2317	0.0001044927
235	0x38f3701c	0.00011608025
236	0x393861cc	0.0001758404
237	0x391b472d	0.00014808467
238	0x391ea08a	0.0001512786
239	0x3904d839	0.0001266905
240	0x390c80c9	0.00013399417
241	0x3914cab3	0.00014189891
242	0x394e0de8	0.00019650871
243	0x395d77e8	0.00021120871
244	0x396b77db	0.00022455996
245	0x39fd0e07	0.00048266372
246	0x3912d4ee	0.00014002968
247	0x38f6313f	0.00011739367
248	0x392fab20	0.0001675305
249	0x38f8dbc8	0.00011866499
250	0x3933587e	0.00017103736
251	0x3913fbc7	0.00014112807
252	0x3937d5f0	0.00017531938
253	0x38d690d9	0.00010231295
254	0x391e5359	0.00015099104
255	0x390cbbb2	0.00013421362

model.1.weight f4 [32, 1024]
0	0xbb9d04f8	-0.004791852
1	0x3c83f153	0.016106283
2	0xbc65ec9a	-0.014033461
3	0x3c539c1c	0.012915637
4	0x3d0091f7	0.031389203
5	0xbc930a38	-0.017949209
6	0x3cd3cc1b	0.025854161
7	0x3b884b40	0.004159361
8	0x3cc0738d	0.023492599
9	0x3b8de5bb	0.0043303645
10	0x3c95d151	0.018288286
11	0x3b9a56d0	0.004710056
12	0x3d035773	0.03206582
13	0x3c02f745	0.007993524
14	0xbc35012d	-0.011047644
15	0x3c1698a8	0.0091916695
16	0xbc0a1ab8	-0.008429222
17	0xbbd814ee	-0.006594292
18	0xbc7b17ac	-0.015325468
19	0x3c9ac1bf	0.018891213
20	0xbca81535	-0.020517925
21	0xbbd29f0d	-0.0064276517
22	0xbc7c0eb0	-0.015384361
23	0xbc84ad34	-0.016195871
24	0x3b105a77	0.0022026577
25	0xbcf25558	-0.02958171
26	0x3c9dbc9d	0.019254977
27	0xbd00f8d6	-0.03148731
28	0x3cd3c05b	0.025848558
29	0x3b0ee9fc	0.0021806946
30	0xbc3e4de9	-0.011615255
31	0x3cc554e5	0.024088332
32	0x3ba1cc6e	0.0049377
33	0x3d07a917	0.03312024
34	0x3ba4b77e	0.005026757
35	0xbc56d9e3	-0.013113472
36	0x3c9516c4	0.018199332
37	0xbc71b493	-0.014752525
38	0x3c6b1475	0.014348139
39	0x3cd61d5b	0.026137045
40	0x3caa6910	0.02080205
41	0xbc3deb0e	-0.011591686
42	0x3c7ecde7	0.015552021
43	0x3bf5c645	0.007500442
44	0x3c79852d	0.0152295055
45	0xbca07ce7	-0.019590808
46	0xbd0d5b09	-0.034510646
47	0xbc25ee37	-0.010127596
48	0xbcb3e636	-0.021960359
49	0x3cf4c909	0.029881017
50	0x3bf39201	0.0074331765
51	0x3c3ed066	0.011646366
52	0x3c8247b2	0.015903328
53	0xbb0a054c	-0.0021060286
54	0x3ce83023	0.028343266
55	0xbc9d709b	-0.019218734
56	0x3bacbf61	0.0052718376
57	0xbca23203	-0.019799238
58	0x3c596f62	0.013271185
59	0xbbfe67ef	-0.0077638547
60	0x3c3d6cb7	0.011561564
61	0xbab8ed30	-0.0014108773
62	0x3cd1ced2	0.025611315
63	0xbcb183a5	-0.021669218
64	0xbc5f4a73	-0.01362859
65	0xbcaf1f96	-0.021377366
66	0x3ccb1485	0.024790058
67	0x3be76e2b	0.0070626936
68	0x3ce316ee	0.027720895
69	0xbcb23dec	-0.021758042
70	0xbcdbe331	-0.026841732
71	0xbcc44d7b	-0.023962727
72	0xbcc89d17	-0.024488969
73	0x3c14c7fb	0.009080882
74	0x3ca8f153	0.020622885
75	0x3cc2d731	0.023784252
76	0xbc309f41	-0.010780157
77	0xbc936188	-0.017990842
78	0x3c844d81	0.016150238
79	0xbc87e0f0	-0.01658675
80	0x3c84fe23	0.016234463
81	0xbbdb2bee	-0.0066885864
82	0x3cb89b22	0.02253491
83	0xbcd4b7be	-0.025966521
84	0xbc631894	-0.01386084
85	0x3b5c1c11	0.0033586065
86	0x3bb2ee60	0.0054605454
87	0xbbac1035	-0.0052509555
88	0x3c1629af	0.009165212
89	0x3cae625d	0.021287138
90	0xbccc4a14	-0.024937667
91	0xbc82bb23	-0.015958374
92	0x3cf637e3	0.030055946
93	0xbc11d134	-0.008899976
94	0xbbe57895	-0.0070029
95	0xbd0ae380	-0.033908367
96	0xbc88a39c	-0.016679578
97	0x3c347473	0.011014092
98	0xba4119b7	-0.00073661975
99	0xbcacae63	-0.021079248
100	0xbb216b1d	-0.0024630495
101	0xbc862b08	-0.01637794
102	0xbcf00d54	-0.02930323
103	0xbc9f5093	-0.0194476
104	0xbcc0bd1d	-0.023527676
105	0xbcb0cb80	-0.021581411
106	0x3d032886	0.032021068
107	0x3b8cf2c1	0.0043013995
108	0x3b9ad1fe	0.00472474
109	0xbd0daf0b	-0.034590762
110	0xbcb64842	-0.022251252
111	0xbc82e5c3	-0.0159787
112	0x3bb56f17	0.0055369246
113	0xbcfab34b	-0.030603072
114	0xbc3f1c00	-0.011664391
115	0xbc8962a9	-0.016770678
116	0x3be1ae18	0.0068872087
117	0xbc96f281	-0.018426182
118	0xbaa45578	-0.0012537679
119	0xbcbf4504	-0.023348339
120	0xbc8f2367	-0.017472936
121	0xbc8491ec	-0.016182862
122	0xbc74208e	-0.01490034
123	0xbcc18130	-0.023621172
124	0x3d11d6c3	0.035605203
125	0xbc3efabb	-0.0116564585
126	0x3d0a5170	0.03376907
127	0x3c57b86e	0.01316653
128	0xbcf7a3bb	-0.03022944
129	0x3cd3a9d9	0.025837826
130	0xbc08bde0	-0.008346051
131	0xbca44ba9	-0.020055609
132	0xbcd484af	-0.025942175
133	0xbcd80308	-0.026368633
134	0x3c0abe32	0.008468198
135	0xbab38f6a	-0.0013699357
136	0x3c487d58	0.0122369155
137	0xbcf1cef5	-0.02951763
138	0x3cbb0b75	0.022832612
139	0xbcbf3799	-0.02334194
140	0xbb83378d	-0.004004425
141	0x3bcc03b4	0.0062260274
142	0x3c64f0c6	0.0139734205
143	0x3cbc86e4	0.02301354
144	0x3ced03cb	0.028932473
145	0xbccd762a	-0.02508076
146	0x3c0fdcb8	0.008780651
147	0xbc8a1f60	-0.016860664
148	0x39866c46	0.00025639142
149	0xbcc2b587	-0.0237682
150	0x3cf50ae0	0.029912412
151	0xbcd5ce6c	-0.026099406
152	0x3c5e0a4b	0.013552259
153	0x3c25993e	0.010107337
154	0x3c44cc31	0.012011574
155	0xbc9d6729	-0.01921423
156	0x3cc8644d	0.02446189
157	0x3b915499	0.0044351337
158	0x3bcc869e	0.0062416336
159	0xbce1d8b8	-0.02756916
160	0x3c721739	0.0147760445
161	0xbbe3eec2	-0.0069559524
162	0xbc8a93d4	-0.016916193
163	0x3cd17731	0.02556953
164	0x3bf02d87	0.007329646
165	0xbc8d7e19	-0.017272042
166	0xbc9539f9	-0.01821612
167	0xb9931ad2	-0.00028058008
168	0x3c8fd998	0.017559811
169	0xbc357fb7	-0.011077813
170	0xbc829f1e	-0.015945014
171	0xbb729234	-0.0037013413
172	0xbcb57732	-0.022151563
173	0x3c582c99	0.013194227
174	0x3cba304e	0.022728112
175	0xbcf74db8	-0.030188426
176	0x3c327f50	0.0108946115
177	0x3c63007d	0.013855097
178	0x3be2d340	0.0069221556
179	0xbc396bfc	-0.011317249
180	0x3c769fec	0.015052777
181	0x3ca88ff0	0.020576447
182	0x3c3010e8	0.010746218
183	0x3aac2e9a	0.0013136447
184	0xb9a0fbec	-0.00030705275
185	0x3ab51bc3	0.0013817478
186	0xbb69b9ff	-0.003566384
187	0xbbfa35fc	-0.00763583
188	0x3c806fe0	0.015678346
189	0x3cdc92e6	0.026925515
190	0xba5fea54	-0.00085416925
191	0xbc23e673	-0.010003674
192	0x3b9214b6	0.0044580353
193	0x3887c368	6.473699e-05
194	0x3b279816	0.0025572828
195	0x3c67be73	0.014144528
196	0xbcf37d6c	-0.029722892
197	0xbc950961	-0.018192949
198	0x3cd803b8	0.02636896
199	0x3c391085	0.0112954425
200	0xbc26a3c7	-0.0101708835
201	0xbc2b50e0	-0.010456294
202	0xbcd7968a	-0.0263169
203	0xbcfe429a	-0.031037617
204	0xbbc978e8	-0.0061484464
205	0x3c28c400	0.010300636
206	0x3c4149d2	0.011797385
207	0x3c5f1cef	0.013617738
208	0xbcf4032c	-0.029786669
209	0xbca8dc29	-0.020612793
210	0xbc23a4e7	-0.009988046
211	0x3cf85377	0.030313237
212	0x3ba40097	0.005004953
213	0xbc255f8b	-0.01009358
214	0x3c94a8da	0.018146921
215	0xbc962033	-0.0183259
216	0xbc8bca73	-0.017064309
217	0x3ceb6bde	0.028737959
218	0xbc800c11	-0.015630754
219	0xbb34e863	-0.0027604334
220	0xbcd632a2	-0.02614719
221	0x3cb8f3b2	0.02257714
222	0x3cd21e36	0.025649171
223	0x3c85f6d8	0.016353056
224	0xbcc2dbb8	-0.02378641
225	0xbcf108e0	-0.029423177
226	0xbcd11365	-0.025521943
227	0x3cc6e112	0.024277244
228	0x3c788f3b	0.015170868
229	0x3ccd5621	0.025065484
230	0x3cbd0f24	0.023078509
231	0x3bb7e353	0.005611816
232	0xbb0cc7f0	-0.0021481477
233	0xbd00b318	-0.031420797
234	0xbcb4659e	-0.022021111
235	0xbcf627ab	-0.030048212
236	0x3c67ef27	0.014156139
237	0xbc7da6f2	-0.015481697
238	0xb978e341	-0.00023735782
239	0xbccc476d	-0.024936402
240	0xbbb38da0	-0.0054795295
241	0xbc9e87da	-0.019351888
242	0xbca27fe3	-0.019836372
243	0x3c30586c	0.010763269
244	0xbc20180c	-0.009771358
245	0x3ca1ed6a	0.019766528
246	0xbc910b68	-0.017705634
247	0xbcc18884	-0.023624666
248	0xbb47ba4e	-0.0030476036
249	0xbc4bc4f0	-0.01243709
250	0xbc036bf7	-0.008021346
251	0xbcc64487	-0.024202598
252	0x3c796c8b	0.015223633
253	0xbca70b7e	-0.020391222
254	0x3c8085f3	0.015688872
255	0x3c50c40e	0.012742056

model.1.bias f4 [32]
0	0x3b2f6d00	0.002676785
1	0x3caffbd3	0.021482384
2	0xbca83a70	-0.020535678
3	0x3bd39ca4	0.006457882
4	0xbbd69a8b	-0.0065491847
5	0xbb7f8159	-0.003898701
6	0x3a599d7c	0.000830136
7	0x3d15a9dd	0.036538947
8	0xbc1d7a0c	-0.009611618
9	0xbce9e2a8	-0.028550461
10	0xbc4cd85c	-0.012502756
11	0xbc03e868	-0.008051015
12	0x3cc61a5b	0.02418249
13	0x3c843fb4	0.016143657
14	0xbca2fcc2	-0.019895915
15	0x3b603d95	0.0034216393
16	0x3c5a67d8	0.013330422
17	0x3badeafd	0.005307554
18	0x3bbd77f3	0.0057821213
19	0xbcc509ce	-0.024052527
20	0x3bb05184	0.005380811
21	0xbccb2b8c	-0.024801038
22	0xbbb1f9f9	-0.0054314104
23	0x3c569f14	0.013099451
24	0x3c4821ca	0.012215087
25	0xbcc4bd14	-0.02401594
26	0x39ea2770	0.0004466134
27	0x3ca4c46a	0.020113189
28	0x3d07ad55	0.033124287
29	0xbc004315	-0.007828494
30	0x3c63f192	0.013912575
31	0x3ba0ae27	0.004903573

model.4.weight f4 [64, 32]
0	0xbdf1fd5f	-0.11815905
1	0x3c45d8b3	0.012075591
2	0xbded4115	-0.11584679
3	0xbc136dde	-0.008998362
4	0xbe0e64f1	-0.13905694
5	0xbdc52c8d	-0.09627638
6	0xbd51491b	-0.05109511
7	0xbca50408	-0.020143524
8	0xbe136798	-0.14394987
9	0xbd813810	-0.06309521
10	0xbe33bd14	-0.17552596
11	0xbe0e3881	-0.13888742
12	0xbe26a504	-0.16273886
13	0xbdec8551	-0.115488656
14	0xbc5ccb60	-0.013476223
15	0x3de7684b	0.11299189
16	0x3c0d0332	0.008606719
17	0xbe2c0553	-0.16798906
18	0x3e16d411	0.14729334
19	0xbdeffc33	-0.11718025
20	0xbd9ed817	-0.077560596
21	0x3d21a96b	0.03946821
22	0xbd64974d	-0.055808354
23	0x3c515037	0.012775472
24	0xbd3eb2a1	-0.046557073
25	0xbc4781a2	-0.012176903
26	0xbe2bdae0	-0.16782713
27	0xbad403d6	-0.001617546
28	0x3c49061b	0.012269522
29	0x3dd72387	0.10504823
30	0xba0c75f4	-0.00053581526
31	0x3dca19fd	0.09868238
32	0x3c46d6ae	0.012136145
33	0x3dc47bee	0.0959395
34	0xbd7d63e0	-0.061862826
35	0x3c707431	0.01467614
36	0xbba4e732	-0.0050324434
37	0xbe070123	-0.13184027
38	0x3e2fca28	0.1716696
39	0x3e05104b	0.12994497
40	0x3dbf6bc0	0.093467236
41	0xbe0d5a6a	-0.13804021
42	0x3e3733bc	0.17890829
43	0x3e37b784	0.179411
44	0xbc71217d	-0.014717457
45	0xbce03f46	-0.027373921
46	0x3e182017	0.14855991
47	0xbe11af73	-0.14227085
48	0x3e26af59	0.16277827
49	0xbd5e233e	-0.05423283
50	0xbdaf2ea9	-0.085538216
51	0x3c638ee5	0.013889049
52	0x3d6b8640	0.057501078
53	0x3cb441f1	0.0220041
54	0x3dd66bdf	0.104697935
55	0xbe0aed67	-0.13567124
56	0xbc9cdf5c	-0.019149475
57	0xbbeb7932	-0.0071860785
58	0xbe00a94c	-0.12564582
59	0xbe031ce6	-0.12803993
60	0xbd677804	-0.05651094
61	0xbd7094e8	-0.058735758
62	0x3c08deaa	0.0083538685
63	0xbd8a7a47	-0.06761604
64	0x3e313742	0.17306235
65	0x3d9e0ef6	0.07717697
66	0xbd9b7b5e	-0.0759189
67	0xbcafbd03	-0.021452432
68	0xbe1c7a30	-0.15280986
69	0x3dbba2cc	0.091619104
70	0xbdae5c5a	-0.085137084
71	0x3e192748	0.14956391
72	0x3ddb82ee	0.10718332
73	0xbd4e5457	-0.0503734
74	0x3d142bf7	0.03617474
75	0xbc5dd14e	-0.013538672
76	0xbe1762ba	-0.14783755
77	0xbdfd9e38	-0.123836935
78	0xbdb3d357	-0.08780544
79	0x3e35b7de	0.17745921
80	0xbdf1f33d	-0.11813972
81	0x3d923606	0.071392104
82	0xbd90cb83	-0.07070067
83	0x3d8dce7f	0.06924152
84	0x3e0a2790	0.13491654
85	0x3e035b73	0.12827854
86	0xbe161f5c	-0.146604
87	0x3ca66af0	0.020314664
88	0x3d2ba03e	0.041900866
89	0x3d08b0d5	0.033371765
90	0x3c2b5eb0	0.010459587
91	0x3e3eeb1e	0.18644378
92	0xbe024265	-0.1272064
93	0x3d29b480	0.041431904
94	0x3d197f51	0.037474934
95	0x3e249015	0.16070588
96	0x3dc6f2d0	0.097142816
97	0xbd6e8d2b	-0.058240097
98	0xbc049855	-0.008092959
99	0xbe073c8c	-0.1320669
100	0x3bfde607	0.0077483687
101	0x3cb805bd	0.022463674
102	0x3e19057e	0.14943501
103	0x3e29d995	0.16586907
104	0xbdefaad4	-0.11702505
105	0x3e34f381	0.17671014
106	0xbe18ba6c	-0.14914864
107	0x3d63db56	0.055629097
108	0x3da53da0	0.08068395
109	0x3db1139f	0.086463206
110	0x3e0c683c	0.13711637
111	0xbd395911	-0.045250956
112	0x3e14647d	0.14491458
113	0x3c27c765	0.01024041
114	0xba9db120	-0.0012030937
115	0xbd684e47	-0.056715276
116	0xbe1621ba	-0.14661303
117	0xbd3d27b0	-0.046180427
118	0xbc42f966	-0.0119002815
119	0x3ce8c7f8	0.028415665
120	0xbd0557cf	-0.032554444
121	0xbb3ddb2c	-0.0028969748
122	0x3b79dd49	0.003812628
123	0xbdbef228	-0.093235314
124	0xbbc318ee	-0.0059538996
125	0xbe18669d	-0.14882894
126	0x3b8a9eea	0.00423037
127	0x3e290537	0.16505896
128	0xbda807b7	-0.082045965
129	0x3de9718a	0.11398609
130	0xbd6a77ad	-0.057243038
131	0xbda1e0d4	-0.07904211
132	0x3d9da44e	0.07697354
133	0xbe32d7a7	-0.17465077
134	0x3dde9ec2	0.108701244
135	0x3dfa3169	0.122164555
136	0x3d86361a	0.06553288
137	0xbba253aa	-0.004953821
138	0xbda51a94	-0.0806171
139	0xbde171d7	-0.11008041
140	0x3e1ab533	0.15108185
141	0x3d957816	0.07298295
142	0x3dc07a4a	0.09398325
143	0xbde66976	-0.11250584
144	0x3dcd053a	0.100107625
145	0xbdede385	-0.116156615
146	0x3e03a40e	0.1285555
147	0x3e0d9953	0.1382802
148	0xbe22b542	-0.15889457
149	0xbe2a2b01	-0.16617967
150	0xbe2403ee	-0.16017124
151	0xbd9fd943	-0.07805111
152	0x3d2a4ca1	0.041576985
153	0xbe204dc9	-0.15654673
154	0x3e116528	0.14198744
155	0xbde4dc09	-0.11174781
156	0xbd5dbf8b	-0.054137748
157	0x3d22d820	0.039756894
158	0xbdd63950	-0.1046015
159	0xbb3097b6	-0.0026945896
160	0xbe1ae0ee	-0.15124866
161	0xbe1ffe37	-0.15624319
162	0x3c6ad793	0.014333623
163	0xbd94db85	-0.072684325
164	0x3dfbac11	0.122886784
165	0xbdcdd9a0	-0.10051274
166	0x3dc7c24c	0.09753856
167	0x3e0ab1ba	0.1354436
168	0xbd35d53f	-0.04439282
169	0xbd076304	-0.033053413
170	0x3d7790b7	0.060440745
171	0xbdbf255d	-0.09333298
172	0x3d388a87	0.045053985
173	0xbd67babd	-0.056574572
174	0xbd345245	-0.04402377
175	0xbe10f681	-0.14156534
176	0x3e0e27cf	0.13882373
177	0xbe1fc764	-0.15603405
178	0xbd0f6139	-0.035004828
179	0x3d99dac8	0.07512432
180	0xbdf3aac9	-0.11897809
181	0x3c6db429	0.014508286
182	0x3e283296	0.16425547
183	0x3d66a404	0.05630876
184	0x3def57d3	0.11686673
185	0xbe07c43c	-0.13258451
186	0x3db59d65	0.08867911
187	0x3c4d1cab	0.012519042
188	0x3cbc5ca8	0.0229934
189	0xbd8747b9	-0.06605477
190	0xbd2cbe88	-0.042173892
191	0x3de896da	0.11356898
192	0x3dcee398	0.10102004
193	0xbe132ef8	-0.14373386
194	0x3e17341b	0.1476597
195	0x3e32aabf	0.17447947
196	0xbd5ba7d0	-0.053626835
197	0x3ca4b3b8	0.020105228
198	0x3dcc045e	0.099617705
199	0xbe35334d	-0.17695351
200	0x3d755e4d	0.059904385
201	0x3e168cc3	0.14702134
202	0xbd752692	-0.059851237
203	0xbe1ca2af	-0.15296434
204	0xbdced197	-0.1009857
205	0x3dfbb2ce	0.12289964
206	0xbc142d27	-0.009043968
207	0xbc69b7e7	-0.014265037
208	0x3d0d1247	0.03444126
209	0x3d93e833	0.07222023
210	0x3de09253	0.10965409
211	0x3b93143a	0.004488495
212	0xbe33c1e3	-0.1755443
213	0x3de2e06a	0.1107796
214	0x3df6da9d	0.12053416
215	0x3bc75eeb	0.006084313
216	0xbdb887d1	-0.0901028
217	0xbd2f0832	-0.042732425
218	0x3daaa51c	0.08332273
219	0x3dfb329d	0.12265513
220	0xbe247f42	-0.1606417
221	0x3cf89240	0.030343175
222	0x3cb36aa4	0.021901436
223	0x3cf7b5d8	0.030238077
224	0xbd1910d3	-0.03736956
225	0xbbb59ddc	-0.0055425
226	0xbe2afd2b	-0.16698138
227	0xbc8342b6	-0.016023021
228	0xbe1a5223	-0.15070395
229	0x3e232a09	0.15934004
230	0x3d8ace59	0.06777639
231	0x3d959987	0.07304674
232	0xbdaa0c11	-0.08303083
233	0xbd8eb066	-0.06967239
234	0x3cf375ea	0.029719312
235	0xbcbac6ba	-0.022799838
236	0xbc056a11	-0.008142964
237	0x3c152920	0.009104043
238	0x3b82d161	0.003992245
239	0xbe1a61f9	-0.15076436
240	0x3e294c7a	0.1653308
241	0xbda21a1a	-0.07915135
242	0x3cad1efb	0.021132937
243	0xbde5f383	-0.11228087
244	0x3e264782	0.16238216
245	0xbda52fcc	-0.08065757
246	0x3db76ca6	0.0895627
247	0x3da16b66	0.07881813
248	0xbd0dc4c5	-0.034611482
249	0x3d388ce7	0.04505625
250	0xbe09f640	-0.13472843
251	0xbe1d5e10	-0.15367913
252	0x3ddb8ef6	0.10720627
253	0x3de3c845	0.11122183
254	0xbe158ba5	-0.14604051
255	0xbd5598ba	-0.052147605

model.4.bias f4 [64]
0	0x3dd0c543	0.10193875
1	0x3db11935	0.08647386
2	0x3dc74aca	0.09731062
3	0xbe2abada	-0.1667284
4	0xbd13e2c4	-0.036104932
5	0xbe366f57	-0.1781591
6	0xbd036472	-0.032078214
7	0x3ddb1c7b	0.106987916
8	0xbc960e52	-0.018317375
9	0x3e38a844	0.18032938
10	0x3e25e577	0.16200815
11	0xbcf2fe71	-0.029662343
12	0x3ca6357e	0.020289179
13	0x3df0b286	0.11752801
14	0x3b7b1354	0.003831108
15	0xbcc529ff	-0.024067877
16	0x3e0829b3	0.13297157
17	0xbe0252a9	-0.12726845
18	0xbd940ffe	-0.07229613
19	0xbd0362bc	-0.032076582
20	0x3e2f3d0b	0.1711313
21	0xbe1a85bc	-0.15090078
22	0xbdf32d7c	-0.1187391
23	0xbd869079	-0.06570525
24	0xbd5fce98	-0.054640383
25	0xbe1db193	-0.1539977
26	0xbe0b3e31	-0.13597943
27	0x3d11c9ba	0.035592772
28	0x3e0b6707	0.1361352
29	0x3d0a403f	0.033752676
30	0x3d198d3a	0.0374882
31	0x3e1d6102	0.15369037
32	0x3bc69b23	0.006060974
33	0x3dd5d588	0.104411185
34	0x3d178d8e	0.03700023
35	0xbdb36e01	-0.08761216
36	0x3de083ae	0.10962616
37	0x3cd32f10	0.025779277
38	0xba1e6135	-0.00060417067
39	0x3e1239ee	0.14279911
40	0x3dc88ed5	0.09792868
41	0x3d601065	0.054703135
42	0xbdcc7121	-0.09982515
43	0xbb60f081	-0.003432304
44	0xbdbf2fb3	-0.0933527
45	0xbd42eb6c	-0.047587797
46	0xbd639fcd	-0.05557232
47	0x3cef8f1f	0.02924305
48	0x3c3ca06d	0.011512858
49	0x3d854fdb	0.06509372
50	0xbe08adaf	-0.13347505
51	0xbd26433c	-0.040591463
52	0xbc89c399	-0.016816901
53	0x3e03020c	0.1279375
54	0xbd90f782	-0.07078458
55	0x3dc3328e	0.09531127
56	0x3c7861ed	0.015160066
57	0x3e19e850	0.15030026
58	0xbe292457	-0.16517769
59	0x3dddefb8	0.10836738
60	0xbd675969	-0.056481753
61	0xbdc88cbd	-0.09792469
62	0xbdf8976f	-0.12138259
63	0x3bc97788	0.0061482824

model.7.weight f4 [1, 64]
0	0x3ccd1c8d	0.025038028
1	0xbd7fb625	-0.062429566
2	0xbd4d7bb0	-0.050166786
3	0xbc2e8b20	-0.010653287
4	0xbd2210a2	-0.039566644
5	0xb99ce3c9	-0.00029924352
6	0x3dd15ca6	0.102227494
7	0xbdef63cd	-0.11688957
8	0xbda4117a	-0.08011146
9	0x3d4c246e	0.04983943
10	0xbd88c549	-0.06678254
11	0x3c56e40d	0.013115895
12	0x3df10fa7	0.117705636
13	0xbdcd6f7c	-0.100310296
14	0xbe03e755	-0.12881215
15	0x3d3639a8	0.04448858
16	0x3defe859	0.11714239
17	0xbde6a462	-0.11261822
18	0x3dd7c675	0.105358995
19	0xbd1feaa5	-0.039042134
20	0xbd6c6c6a	-0.05772058
21	0x3dab1da0	0.0835526
22	0x3de5272c	0.11189112
23	0x3d0c4796	0.034247957
24	0xbd469439	-0.0484812
25	0xbd5c285a	-0.05374942
26	0xbcf9ce67	-0.030493928
27	0xbe0d274b	-0.1378452
28	0x3c9dc6f4	0.019259907
29	0x3d6325c2	0.05545593
30	0xbcb57261	-0.022149267
31	0x3cf969d0	0.030445963
32	0x3d5ca328	0.053866535
33	0x3d90e65b	0.07075187
34	0x3cda0903	0.026615625
35	0x3db60bd8	0.08888978
36	0xbdb5de85	-0.08880333
37	0x3d32bd37	0.04363748
38	0x3d78c55a	0.060735084
39	0xbde4d621	-0.11173654
40	0x3d95426b	0.07288059
41	0xbdce286f	-0.10066306
42	0xbd92e07c	-0.07171723
43	0xbd889358	-0.066687286
44	0xbd43c77e	-0.047797672
45	0x3d9e3748	0.07725388
46	0xbcfe8de7	-0.031073524
47	0x3d462dab	0.048383396
48	0xbda1663c	-0.07880828
49	0xbd9950ad	-0.07486091
50	0xbdeeb2ec	-0.116552204
51	0x3d84ed43	0.064905666
52	0xbdb33bb4	-0.08751622
53	0xbdd7de89	-0.10540492
54	0xbd998171	-0.07495392
55	0xbde49c1d	-0.11162589
56	0xbd9e0d87	-0.07717424
57	0x3d7b7676	0.06139227
58	0x3d18e79e	0.037330262
59	0xbdc990cd	-0.09842072
60	0x3d6b2707	0.057410266
61	0x3d4f5342	0.05061651
62	0x3b2bf29a	0.002623713
63	0x3e01eed4	0.12688762
