mlp_cox_model.pth (torch, 160655 bytes, 9 tensors)

survival_head.0.weight f4 [1024]
0	0x3f828207	1.0195931
1	0x3f8276c0	1.019249
2	0x3f809821	1.0046426
3	0x3f80d208	1.0064096
4	0x3f82d2ec	1.0220618
5	0x3f819fd8	1.0126905
6	0x3f826b49	1.0188991
7	0x3f811dd4	1.0087228
8	0x3f834740	1.0256119
9	0x3f7da0b4	0.9907334
10	0x3f8255ad	1.0182396
11	0x3f7f40f0	0.9970846
12	0x3f833f7f	1.0253752
13	0x3f7d9f49	0.99071175
14	0x3f80eb78	1.0071859
15	0x3f7fa0be	0.9985465
16	0x3f813500	1.0094299
17	0x3f7fee84	0.9997332
18	0x3f7fd576	0.9993509
19	0x3f81d6a4	1.0143628
20	0x3f816d6c	1.0111518
21	0x3f80eb30	1.0071774
22	0x3f8561ad	1.0420433
23	0x3f8142b7	1.0098485
24	0x3f82838e	1.0196397
25	0x3f7d5739	0.98961216
26	0x3f8280cc	1.0195556
27	0x3f803829	1.0017139
28	0x3f814913	1.0100425
29	0x3f7df288	0.991982
30	0x3f82ce3a	1.0219185
31	0x3f822f7c	1.0170741
32	0x3f825716	1.0182827
33	0x3f82338d	1.0171982
34	0x3f828c66	1.0199096
35	0x3f8097e9	1.0046359
36	0x3f806487	1.0030679
37	0x3f7cf557	0.9881186
38	0x3f80fdbe	1.0077436
39	0x3f81ba63	1.0135006
40	0x3f7f3ff8	0.99706984
41	0x3f80361d	1.0016514
42	0x3f81856e	1.0118845
43	0x3f824b69	1.0179263
44	0x3f7e45aa	0.9932505
45	0x3f815c26	1.0106246
46	0x3f7fad1d	0.99873525
47	0x3f80fa54	1.0076394
48	0x3f7b717a	0.98220026
49	0x3f80b9c6	1.0056694
50	0x3f7ddd30	0.9916563
51	0x3f804a89	1.0022746
52	0x3f83528f	1.025957
53	0x3f8126e8	1.0089998
54	0x3f8496b7	1.0358495
55	0x3f842ecf	1.0326785
56	0x3f806023	1.0029339
57	0x3f812534	1.0089478
58	0x3f7ec1e6	0.99514616
59	0x3f847c7f	1.0350493
60	0x3f82f30a	1.023042
61	0x3f811dc3	1.0087208
62	0x3f825f02	1.0185244
63	0x3f807d00	1.0038147
64	0x3f7d1b0a	0.98869383
65	0x3f843bbd	1.0330731
66	0x3f81135b	1.0084032
67	0x3f7f5070	0.9973211
68	0x3f822d7a	1.0170128
69	0x3f8105e6	1.0079925
70	0x3f810b6c	1.0081611
71	0x3f812a16	1.0090969
72	0x3f80edea	1.0072606
73	0x3f7d31ab	0.9890391
74	0x3f818c60	1.0120964
75	0x3f8110d8	1.0083265
76	0x3f811078	1.0083151
77	0x3f82d06e	1.0219858
78	0x3f80e921	1.0071145
79	0x3f80d090	1.0063648
80	0x3f818c24	1.0120893
81	0x3f8240ca	1.0176022
82	0x3f7d1157	0.98854584
83	0x3f87ba09	1.0603648
84	0x3f81a619	1.0128814
85	0x3f80935d	1.0044972
86	0x3f80d0e1	1.0063745
87	0x3f80e32f	1.0069331
88	0x3f82bb20	1.0213356
89	0x3f7e5a35	0.99356395
90	0x3f801360	1.0005913
91	0x3f7de0be	0.99171054
92	0x3f8203c6	1.0157402
93	0x3f809176	1.0044391
94	0x3f83eb95	1.0306269
95	0x3f8146f6	1.009978
96	0x3f827584	1.0192113
97	0x3f811d7e	1.0087125
98	0x3f7eb6f0	0.9949789
99	0x3f812176	1.0088336
100	0x3f829e5c	1.0204577
101	0x3f816fbb	1.0112222
102	0x3f7f217b	0.9966046
103	0x3f825bcb	1.0184263
104	0x3f7d9ae1	0.9906445
105	0x3f7fa940	0.9986763
106	0x3f82b3ca	1.0211117
107	0x3f81a0e9	1.0127231
108	0x3f8273c1	1.0191575
109	0x3f8117f2	1.0085433
110	0x3f82ad8e	1.0209215
111	0x3f7a7beb	0.97845334
112	0x3f81864f	1.0119113
113	0x3f82327d	1.0171658
114	0x3f800c69	1.0003787
115	0x3f832861	1.0246698
116	0x3f815616	1.0104396
117	0x3f825188	1.0181131
118	0x3f81f80d	1.0153824
119	0x3f7f9f10	0.99852085
120	0x3f7fc35a	0.9990746
121	0x3f83a904	1.0285954
122	0x3f80dac3	1.0066761
123	0x3f7e618c	0.99367595
124	0x3f864b56	1.0491741
125	0x3f8068f1	1.0032026
126	0x3f83a3d6	1.0284374
127	0x3f8557fd	1.0417477
128	0x3f7f4b30	0.997241
129	0x3f7ecfa2	0.9953557
130	0x3f7e1c81	0.99262244
131	0x3f802815	1.0012232
132	0x3f81095a	1.0080979
133	0x3f84f75c	1.0387988
134	0x3f7ef123	0.99586695
135	0x3f80f7c3	1.0075611
136	0x3f814a96	1.0100887
137	0x3f800f52	1.0004675
138	0x3f8117d9	1.0085403
139	0x3f7d5e12	0.98971665
140	0x3f802f7b	1.001449
141	0x3f82c935	1.0217654
142	0x3f80f2e1	1.0074121
143	0x3f81b5ac	1.0133567
144	0x3f8028ac	1.0012412
145	0x3f7e37b5	0.9930375
146	0x3f802623	1.0011638
147	0x3f7fd226	0.99930036
148	0x3f7f6402	0.99761975
149	0x3f805c00	1.0028076
150	0x3f80e85b	1.0070909
151	0x3f7e9c7a	0.99457514
152	0x3f7e256e	0.99275863
153	0x3f81cf93	1.0141472
154	0x3f7ea57f	0.99471277
155	0x3f803ea8	1.0019121
156	0x3f80549c	1.0025821
157	0x3f8108aa	1.0080769
158	0x3f8116da	1.0085099
159	0x3f807f2d	1.0038811
160	0x3f8216ad	1.016317
161	0x3f7f3705	0.9969333
162	0x3f81f290	1.0152149
163	0x3f8257da	1.018306
164	0x3f7e977e	0.9944991
165	0x3f818dac	1.012136
166	0x3f7db7a5	0.99108344
167	0x3f81b5e4	1.0133634
168	0x3f813942	1.0095599
169	0x3f80d295	1.0064265
170	0x3f82ea88	1.0227823
171	0x3f7e47f1	0.99328524
172	0x3f7fa64a	0.9986311
173	0x3f805bb7	1.0027989
174	0x3f8048f2	1.0022261
175	0x3f806d83	1.003342
176	0x3f815e35	1.0106875
177	0x3f8113c3	1.0084156
178	0x3f820872	1.0158827
179	0x3f829017	1.0200223
180	0x3f80d738	1.006568
181	0x3f80609b	1.0029482
182	0x3f808189	1.0039531
183	0x3f7fbf10	0.99900913
184	0x3f808109	1.0039378
185	0x3f801136	1.0005252
186	0x3f802377	1.0010823
187	0x3f7ff973	0.99990004
188	0x3f8117a7	1.0085343
189	0x3f81dab4	1.0144868
190	0x3f809082	1.00441
191	0x3f813a37	1.0095891
192	0x3f805377	1.0025471
193	0x3f7e8fd9	0.99438244
194	0x3f8216b6	1.0163181
195	0x3f81e953	1.014933
196	0x3f8296aa	1.0202229
197	0x3f8167dc	1.010982
198	0x3f817641	1.0114213
199	0x3f8364df	1.0265158
200	0x3f8070f7	1.0034474
201	0x3f80fd5c	1.0077319
202	0x3f8020fb	1.0010065
203	0x3f83ade9	1.0287448
204	0x3f830b59	1.0237838
205	0x3f8230c0	1.0171127
206	0x3f7fc11d	0.9990404
207	0x3f82a810	1.0207539
208	0x3f816515	1.0108973
209	0x3f81cbef	1.014036
210	0x3f81321f	1.0093421
211	0x3f803b70	1.0018139
212	0x3f804ab6	1.00228
213	0x3f807b4f	1.0037631
214	0x3f80469d	1.002155
215	0x3f81faa8	1.0154619
216	0x3f803d16	1.0018642
217	0x3f825699	1.0182678
218	0x3f812846	1.0090415
219	0x3f7cbd59	0.9872642
220	0x3f7db6a7	0.9910683
221	0x3f83e61c	1.0304599
222	0x3f829f74	1.0204911
223	0x3f816826	1.0109909
224	0x3f812278	1.0088644
225	0x3f81df4b	1.0146269
226	0x3f81111e	1.0083349
227	0x3f81baf5	1.013518
228	0x3f854737	1.0412358
229	0x3f7ff47f	0.99982446
230	0x3f81d885	1.0144202
231	0x3f800cec	1.0003943
232	0x3f7e5f10	0.99363804
233	0x3f82bf32	1.0214598
234	0x3f7f2285	0.9966205
235	0x3f80c399	1.0059692
236	0x3f8016b1	1.0006925
237	0x3f81a595	1.0128657
238	0x3f826faa	1.0190327
239	0x3f830822	1.0236857
240	0x3f830429	1.0235645
241	0x3f7dc15c	0.9912317
242	0x3f80a4be	1.0050275
243	0x3f7fa1b1	0.99856097
244	0x3f7fcecb	0.99924916
245	0x3f82babf	1.021324
246	0x3f831812	1.0241721
247	0x3f804f55	1.002421
248	0x3f80460a	1.0021374
249	0x3f7e669b	0.99375314
250	0x3f8215d1	1.0162908
251	0x3f807871	1.0036756
252	0x3f7eccba	0.9953114
253	0x3f81c7a2	1.0139048
254	0x3f825831	1.0183164
255	0x3f81c9d4	1.0139718

survival_head.0.bias f4 [1024]
0	0xbd171c3b	-0.036892157
1	0x3d22adfb	0.039716702
2	0xbba30f96	-0.004976223
3	0x3c3f6056	0.011680683
4	0x3cdd801c	0.027038626
5	0xbcd1e234	-0.025620557
6	0xbb6873b0	-0.0035469346
7	0xbcaef111	-0.021355184
8	0x3c0178f1	0.00790237
9	0x3ccbee66	0.02489395
10	0xbc51b8c0	-0.0128003955
11	0x3b3d4d58	0.0028885212
12	0xbbb88f97	-0.0056323516
13	0x3c3fdc25	0.011710201
14	0x3c397b37	0.011320881
15	0xbce8a60a	-0.028399486
16	0x3c24818f	0.010040655
17	0x3c0b8bbb	0.008517201
18	0xbbbe24f8	-0.005802747
19	0x3ccb9963	0.024853414
20	0xbcb0bf8d	-0.021575714
21	0x3cc631be	0.02419364
22	0xbcfdb9c1	-0.030972363
23	0xbc65ed62	-0.014033647
24	0x3c0bf883	0.0085431365
25	0xbbbda45e	-0.0057874164
26	0xbcb3e873	-0.021961426
27	0xbb3c73e8	-0.002875561
28	0x3bcdaa2a	0.0062763887
29	0x3cd3c832	0.025852297
30	0xbce9a725	-0.028522084
31	0x3c38abef	0.011271461
32	0x3d0c94f9	0.03432176
33	0x3cade3b6	0.021226745
34	0x3d366167	0.044526484
35	0x3c9f1ed3	0.019423878
36	0x3cc7e17d	0.024399513
37	0xbc85c2db	-0.016328266
38	0xbc2b2cc5	-0.010447686
39	0x3d2a5eea	0.041594423
40	0x3bb054c0	0.0053811967
41	0xbcc97076	-0.024589758
42	0xbd015ecc	-0.031584546
43	0x3cccc416	0.024995845
44	0xbcae8d26	-0.02130754
45	0xbd28a25f	-0.041170474
46	0xbcf465f6	-0.029833775
47	0xbcf836fc	-0.030299656
48	0x3cc33207	0.023827566
49	0xba9c9412	-0.0011945984
50	0x3ceda21c	0.029007964
51	0x3af56853	0.0018723108
52	0x3cb2ddc4	0.021834262
53	0xbc96b855	-0.018398443
54	0xbca264e9	-0.019823508
55	0x3cb34e95	0.021888057
56	0xbcd3d652	-0.025859032
57	0xbc576a18	-0.013147853
58	0x3c958a84	0.018254526
59	0xbd0a5dc9	-0.033780847
60	0xbc85d0db	-0.016334942
61	0xbc226710	-0.009912267
62	0x3ce08edf	0.027411876
63	0xbcb913d5	-0.022592464
64	0xbc883a04	-0.016629227
65	0xbd60500d	-0.054763842
66	0xbc867fcf	-0.016418366
67	0x3c43d5bc	0.011952814
68	0x3d00fe38	0.031492442
69	0xbb63547d	-0.003468781
70	0x3d0d1223	0.034441125
71	0x3c0df03d	0.008663234
72	0x3ab6e722	0.0013954381
73	0x3cc3d16f	0.023903577
74	0x3cf45914	0.029827632
75	0x3c5e8ab5	0.013582875
76	0x3ba48d5d	0.0050217346
77	0x3bd6fe89	0.0065611047
78	0xb8bb9369	-8.944312e-05
79	0x3c8a2567	0.016863538
80	0xbd01709f	-0.031601544
81	0x3c6b295e	0.014353124
82	0x3d468b6e	0.048472814
83	0xbd50af28	-0.050948292
84	0xbce19432	-0.027536485
85	0xb76ac206	-1.39926615e-05
86	0xbcbace6b	-0.022803506
87	0x3d0707d1	0.03296644
88	0x3b5ff0c5	0.003417061
89	0x3cb9f81c	0.022701316
90	0x3d63fb87	0.055659797
91	0x3c08f064	0.008358095
92	0xbca2efe0	-0.019889772
93	0x3ccb723d	0.024834746
94	0x3d21dc4b	0.03951673
95	0x3cf049b8	0.029332027
96	0x3d2185bc	0.03943418
97	0x3b5b55b7	0.0033467838
98	0x3cede382	0.029039148
99	0xbd0fbfe5	-0.035095114
100	0x3bc2f019	0.005949032
101	0xbc8b514e	-0.017006543
102	0x3bcd8d8b	0.0062729768
103	0x3c7523ce	0.01496215
104	0x3c6ed7fc	0.014577862
105	0x3c93d60c	0.018046401
106	0xbca0a6c0	-0.019610763
107	0xb939c176	-0.00017715045
108	0xbd029f8d	-0.03189044
109	0xbc777698	-0.015103959
110	0x3d0a1982	0.033715732
111	0x3ce3def7	0.027816279
112	0x3c59f525	0.013303076
113	0xbc15bd3f	-0.009139358
114	0x3cac28f1	0.021015616
115	0x3c9e2b89	0.019307869
116	0x3d0c7f8b	0.034301322
117	0xbd3b2752	-0.045691796
118	0x3c844bdc	0.016149454
119	0xbd0f1f98	-0.03494224
120	0xbcb7d599	-0.022440718
121	0xbd0dcee2	-0.034621127
122	0xbd0731f5	-0.033006627
123	0xbbe47223	-0.006971614
124	0x3ceee799	0.029163169
125	0x3cb1a151	0.021683367
126	0x3cd94310	0.026521236
127	0x3d078c4b	0.03309278
128	0x3a808e4b	0.0009808032
129	0xbc9dc861	-0.019260587
130	0x3b7c3062	0.0038480987
131	0xbc5966e2	-0.013269158
132	0xbd2775fa	-0.040883996
133	0xbd2136c9	-0.039358888
134	0x3b90f1cf	0.004423357
135	0x3ce3881a	0.02777486
136	0x3d21b46f	0.039478716
137	0xbba69a6f	-0.005084328
138	0x3b96b537	0.004599239
139	0xbad27b8f	-0.0016058552
140	0xbcaf76f3	-0.021419024
141	0x3d143598	0.036183923
142	0x3ce35f20	0.02775532
143	0xbc23c4e2	-0.009995671
144	0xbd121634	-0.035665706
145	0x3bd7d931	0.0065871705
146	0xbcc730e0	-0.024315298
147	0x3c3a6787	0.011377222
148	0x3c707572	0.014676439
149	0x3c2371fc	0.009975906
150	0xbd2a4fc1	-0.041579966
151	0x3c4e3bff	0.012587546
152	0xbcb9bbaa	-0.022672493
153	0x3d139712	0.036032744
154	0x3cc89333	0.024484253
155	0xbb9bef09	-0.00475872
156	0x3d5fe307	0.05465987
157	0xbd21a518	-0.039464086
158	0x3c035a30	0.008017108
159	0x3c22d49a	0.0099383835
160	0x3cc69006	0.024238598
161	0xbcea9861	-0.028637113
162	0xbd1cee6c	-0.038313314
163	0x3cad4cdd	0.021154815
164	0x3be9038e	0.0071110195
165	0x3c9ad6ff	0.018901346
166	0x3bc1beb1	0.0059126248
167	0xbcd1ab89	-0.02559449
168	0x3cd366f9	0.025805937
169	0xbbda3a8a	-0.0066598104
170	0x3cb4879f	0.022037325
171	0xbb9229c1	-0.004460544
172	0x3c3f01bb	0.011658127
173	0x3c09017d	0.008362171
174	0xbc94657b	-0.018114796
175	0xba5a4581	-0.0008326397
176	0x3c6a9340	0.014317334
177	0x3cc2ddaa	0.023787338
178	0xbd14b373	-0.03630395
179	0xbcab667c	-0.020922892
180	0x39a4068f	0.00031285404
181	0xbc2cadb9	-0.010539466
182	0x3cce2dd5	0.025168339
183	0xbc6d9fb4	-0.014503408
184	0x3c928112	0.017883811
185	0x3cc11481	0.023569347
186	0x3d0682a9	0.03283945
187	0xbb232c06	-0.0024898066
188	0x3d1d7e97	0.038450804
189	0xbca8a611	-0.020587
190	0x3b01ae57	0.0019787753
191	0x3d4d01f3	0.050050687
192	0x3d3d085e	0.046150558
193	0xbc285c2d	-0.010275883
194	0xbcaef092	-0.021354947
195	0x3c25d05f	0.01012048
196	0xbbed5254	-0.0072424803
197	0xbcff818a	-0.031189699
198	0x3bc62d02	0.006047846
199	0xbd0f7647	-0.035024907
200	0xbc737454	-0.014859278
201	0xbbc2a70e	-0.0059403246
202	0xbcd666da	-0.02617209
203	0xbc9aef28	-0.018912867
204	0x3cb8b6fb	0.02254819
205	0xbccd7623	-0.025080746
206	0xbcec59e0	-0.02885145
207	0xbd39f724	-0.045401707
208	0xbd20360e	-0.03911405
209	0xbc923f1e	-0.017852362
210	0x3c838dc4	0.01605881
211	0x3ca1f69e	0.019770917
212	0x3c6c48ad	0.014421624
213	0xba9dbd27	-0.0012034521
214	0x3ca76363	0.020433133
215	0xbd31ccb2	-0.043408103
216	0x3beab6da	0.007162911
217	0x3ceb11bb	0.028694978
218	0x3d06d891	0.032921378
219	0x3c141b36	0.009039691
220	0xbc218ecf	-0.009860708
221	0x3d5508c6	0.05201032
222	0xbd01ba75	-0.03167196
223	0x3c86d79a	0.016460229
224	0xbbb5d5ab	-0.005549153
225	0xbc85b50f	-0.016321687
226	0x3d144a37	0.03620359
227	0x3b348fb9	0.0027551486
228	0x3d55ec99	0.05222759
229	0x3ce1df8c	0.027572416
230	0x3ca03076	0.019554358
231	0x3b2be59c	0.0026229387
232	0x3bf49168	0.007463623
233	0x3ba8b06b	0.005147984
234	0x3a259382	0.0006316231
235	0x3caa3822	0.02077872
236	0xbcbde71f	-0.023181496
237	0x3cd2f019	0.025749253
238	0x3cd93111	0.026512654
239	0xbcb6d95d	-0.022320444
240	0x3d6ef9bb	0.05834363
241	0xb99c4632	-0.00029806938
242	0xbca78644	-0.020449765
243	0x3d080cc7	0.03321531
244	0x3ba93faa	0.00516506
245	0x3d3ba2d1	0.04580957
246	0xbd092a0c	-0.033487365
247	0x3d28a945	0.041177053
248	0xbc8a1439	-0.016855346
249	0xbd19ee03	-0.0375805
250	0x3d15e9d5	0.036599953
251	0x3cc1db45	0.023664126
252	0x3c20d77f	0.009817003
253	0xbc3ad6f0	-0.011403784
254	0xbd03c427	-0.032169487
255	0x3c1f697c	0.009729739

survival_head.0.running_mean f4 [1024]
0	0xbd712a09	-0.05887798
1	0xbc8cdee9	-0.017196136
2	0x3c0610d1	0.00818272
3	0xbcd1f865	-0.025631139
4	0x3b442681	0.0029930177
5	0xbc7761aa	-0.0150989685
6	0x3d1d2336	0.038363658
7	0xbbb164ef	-0.0054136436
8	0xbb7da656	-0.003870388
9	0x3d079291	0.03309876
10	0xbc324950	-0.010881737
11	0x3b92b07f	0.0044766064
12	0xbba42dca	-0.0050103413
13	0xbc49c48d	-0.012314928
14	0x3b95b994	0.004569242
15	0x3c398072	0.011322128
16	0xbd10722b	-0.03526513
17	0xbcc60baa	-0.024175484
18	0xbacaf623	-0.0015484731
19	0x3c11483b	0.008867319
20	0x3c730906	0.014833694
21	0xba46b311	-0.00075797836
22	0x3c9dd6df	0.019267498
23	0x3d94036b	0.072272144
24	0x3ca821c2	0.02052391
25	0x3cf112dc	0.029427938
26	0xbccac8d1	-0.02475396
27	0x3c37126c	0.011173826
28	0xbbb60d6a	-0.0055557983
29	0xbc4c6a39	-0.012476497
30	0x3cc9f26b	0.024651727
31	0xbc89870d	-0.01678803
32	0xbbf0dc85	-0.0073505067
33	0x3c1a714a	0.009426424
34	0xbb779a3b	-0.0037781138
35	0x3c83f9a1	0.016110243
36	0xbc239ca5	-0.009986077
37	0x3bcaeee4	0.0061930288
38	0xbced1086	-0.028938543
39	0xbbdc05de	-0.0067145666
40	0x3c1d4ca0	0.009600788
41	0x3ccdf0cd	0.025139237
42	0xba20a537	-0.00061281346
43	0xbd3be3d5	-0.045871574
44	0xbcc1ff5d	-0.023681337
45	0x3b1f321a	0.0024291337
46	0x3862b04b	5.4046784e-05
47	0xbcc213eb	-0.023691138
48	0xbc4480b4	-0.011993576
49	0x3daa2b72	0.08309068
50	0xbcc8dca6	-0.024519276
51	0xbc87a9f6	-0.016560536
52	0xbca1c33e	-0.019746419
53	0x3c164def	0.009173854
54	0x3c41dbaf	0.011832162
55	0xbc048ca0	-0.008090168
56	0x3d05f7fb	0.032707196
57	0x3c10ef0b	0.008846055
58	0xbbab15e2	-0.0052211145
59	0xbc2c3d20	-0.01051262
60	0x3c3170e9	0.010830143
61	0xbcb44e76	-0.02201007
62	0xbc26994c	-0.010168385
63	0x3cb7cc65	0.02243633
64	0x39dd9520	0.00042263512
65	0xbc7c4f74	-0.0153998025
66	0x3baf33bd	0.005346744
67	0x3bec7a30	0.0072167143
68	0x3b2a3325	0.0025970426
69	0x3bb4db37	0.0055192965
70	0x3d1d204c	0.03836088
71	0x3c476a41	0.012171329
72	0xbc7ef569	-0.01556144
73	0x3d2884dd	0.041142333
74	0x3cf148c6	0.029453646
75	0xbc42bb1f	-0.011885433
76	0x3cd0a190	0.025467664
77	0xbc8af807	-0.016963972
78	0x3c86f034	0.01647196
79	0xbc94647e	-0.018114325
80	0xbc0d2697	-0.008615158
81	0x3cdc6eb3	0.026908254
82	0xbd5387ee	-0.051643305
83	0x3ca5f526	0.020258497
84	0xbc86e36f	-0.01646587
85	0xbd244a8c	-0.040110156
86	0x3cc273bc	0.023736827
87	0xbc9f41f6	-0.019440632
88	0x3c396078	0.011314504
89	0x3cb7cdad	0.022436941
90	0xbcbfa26f	-0.023392884
91	0xbb9f2e26	-0.0048577962
92	0xbc439428	-0.011937179
93	0x3c67c6af	0.014146491
94	0x3c3e48f1	0.01161407
95	0x3c9a6979	0.018849121
96	0x3c036b90	0.00802125
97	0x3d6c0a35	0.05762692
98	0xbc1693a4	-0.009190474
99	0x3cc0a4cb	0.02351608
100	0x3c61a090	0.013771191
101	0x3ccf8640	0.02533257
102	0xbb1698da	-0.002297929
103	0x3c4f3960	0.012647957
104	0x3d949201	0.072544105
105	0x3c90bf52	0.017669354
106	0x3b48bd4c	0.0030630408
107	0xbcb96222	-0.022629801
108	0xbcf2a8a1	-0.029621424
109	0x3d4aa8d1	0.049477402
110	0xbc315c2d	-0.010825199
111	0x3b364da6	0.0027817278
112	0x3d85535b	0.065100394
113	0xbb98b5ac	-0.004660329
114	0xbbb1163e	-0.005404263
115	0x3c93ff74	0.018066145
116	0xbb0fc0ef	-0.0021935066
117	0xbbcd6ee1	-0.0062693213
118	0x3a2ebc66	0.0006665647
119	0xbbd0f4ee	-0.006376854
120	0xbcb8d2cd	-0.022561455
121	0xbc1a7f7a	-0.009429807
122	0xbc759fb2	-0.014991688
123	0xbc3f6692	-0.0116821695
124	0xbd4714a1	-0.048603658
125	0xbcb6279d	-0.022235686
126	0xbc2a9666	-0.010411834
127	0xbca910de	-0.020637926
128	0x3ca06cdb	0.019583156
129	0xbc9affba	-0.018920768
130	0xbd844951	-0.064592965
131	0xbc67ce96	-0.014148375
132	0x3c8bfb10	0.01708749
133	0xbb267847	-0.002540128
134	0xbadd5ecb	-0.0016889212
135	0xbce9d094	-0.02854184
136	0x3d313e46	0.04327228
137	0x3cb8789c	0.022518449
138	0xbb20a546	-0.0024512573
139	0xbcbc71f9	-0.023003565
140	0x3b52753a	0.003211333
141	0xbd288788	-0.041144878
142	0xbc31118b	-0.010807405
143	0xbbad836e	-0.0052952087
144	0xbb1b4e84	-0.0023697922
145	0xbc29ca1e	-0.01036313
146	0x3d36f264	0.044664755
147	0xbcb7044c	-0.022340916
148	0xbd0671fb	-0.032823544
149	0x3b0d4378	0.0021555107
150	0xbbeb313c	-0.0071775
151	0x39dc8b00	0.00042065233
152	0x3bc11234	0.0058920626
153	0xba275b9e	-0.00063841965
154	0x3c8d7aad	0.01727041
155	0x3cd62eab	0.0261453
156	0x3cd92b6a	0.02650996
157	0xbc034a9d	-0.008013395
158	0xbb9f819e	-0.0048677465
159	0x3bd3ca6f	0.006463341
160	0x3b16b0f6	0.002299366
161	0x3ce08387	0.027406467
162	0x3c81eaf3	0.015859103
163	0x3b6c09cf	0.0036016589
164	0xbba5112c	-0.0050374474
165	0xbb9cd1dc	-0.0047857594
166	0xbd65e4c8	-0.056126386
167	0xbbc248e1	-0.005929098
168	0xbd17a206	-0.037019752
169	0x3cdca90d	0.026936078
170	0x3cec44dc	0.028841428
171	0x3cef0e89	0.029181736
172	0x3ccd6da6	0.025076699
173	0xbbed71d7	-0.007246237
174	0x3cbc0ae7	0.022954417
175	0x3c33b978	0.010969512
176	0xbc2c8a2f	-0.010530992
177	0xbc516ff4	-0.012783039
178	0xbc95ad9b	-0.018271258
179	0xba6191a8	-0.00086047733
180	0xbcfe2134	-0.031021692
181	0xbc8d165d	-0.017222578
182	0xbbb71ccd	-0.00558815
183	0x3c4b03b7	0.012391022
184	0xbc35f79f	-0.011106401
185	0x3cc9926d	0.024605954
186	0x3d3bf0ab	0.045883816
187	0xbc74b563	-0.014935824
188	0xbc8185a0	-0.015810788
189	0xbd049fd3	-0.032378983
190	0x3d1e6ef0	0.038680017
191	0x3c417483	0.011807564
192	0x3c6ab902	0.014326336
193	0x3cfd1992	0.030895982
194	0x3c319483	0.010838631
195	0x3c3898ec	0.011266928
196	0xbc399bfb	-0.011328693
197	0xbb83565f	-0.004008099
198	0x3c9b53d9	0.01896088
199	0x3d0777fe	0.033073418
200	0x3bb6f7fd	0.0055837617
201	0xbc4fd9d6	-0.0126862135
202	0x3a7c5a90	0.0009626532
203	0xbccd1510	-0.025034457
204	0xbcc71ce3	-0.024305766
205	0x3c13fa36	0.009031823
206	0xbc4e3697	-0.012586257
207	0xbc5b4747	-0.013383693
208	0x3c8b9e08	0.017043129
209	0xbc1152e1	-0.0088698575
210	0xbd09edd8	-0.03367409
211	0xbcabea86	-0.020985853
212	0x3c627554	0.0138219185
213	0x3ccf6452	0.025316391
214	0x3c038b21	0.008028776
215	0xbc75c6fd	-0.015001056
216	0x3c3a4ecb	0.011371325
217	0x3cdee95c	0.027210884
218	0xbc04e369	-0.008110859
219	0xbbb0ae4b	-0.005391871
220	0x3c243b49	0.0100239
221	0xbc97f8cb	-0.01855125
222	0xbd4787be	-0.04871344
223	0xbca9af3f	-0.020713447
224	0x3cb1a04c	0.02168288
225	0x3c556330	0.013024136
226	0x3b6c403c	0.003604903
227	0xbc9e35b4	-0.019312717
228	0x3b52926a	0.0032130727
229	0xbca93632	-0.020655725
230	0xbc20b867	-0.00980959
231	0xbcf9d31c	-0.030496173
232	0xbb9ae38e	-0.0047268337
233	0xbceab301	-0.028649809
234	0xbc47299b	-0.012155916
235	0xbc86a8e1	-0.01643795
236	0xbcf6b5dc	-0.030116014
237	0x3d0d6505	0.034520168
238	0x3cab0c5a	0.020879913
239	0xbc88ee0e	-0.016715076
240	0x3d0395f4	0.03212543
241	0xbb002e0d	-0.0019558698
242	0xbba0629c	-0.0048945677
243	0x3cd91d8f	0.026503352
244	0xbcbd035d	-0.023072893
245	0xba997560	-0.0011707954
246	0x3c3ed582	0.011647584
247	0x3cb7f319	0.022454785
248	0xba360611	-0.0006943653
249	0x3cdc8d3f	0.02692282
250	0xbc949467	-0.01813717
251	0x3cc33993	0.023831164
252	0x3c8fc183	0.017548328
253	0x3afe5e46	0.0019406758
254	0x3c6e9621	0.014562161
255	0x3cb98ab0	0.02264914

survival_head.0.running_var f4 [1024]
0	0x3904d8ff	0.00012669338
1	0x391d652c	0.00015010376
2	0x392aa9f5	0.00016275777
3	0x39010762	0.00012305149
4	0x3934319a	0.00017184616
5	0x395f7fe7	0.00021314585
6	0x393121e6	0.00016892664
7	0x390f7e30	0.00013684551
8	0x3906ca51	0.00012854605
9	0x393c7e7a	0.00017976193
10	0x394bbeb4	0.00019430631
11	0x394bf2be	0.00019450017
12	0x392c74d1	0.00016446716
13	0x390a5875	0.00013193658
14	0x391b0b54	0.00014786172
15	0x3906a0df	0.00012839165
16	0x38f4be00	0.00011670217
17	0x3931c5f6	0.00016953782
18	0x39609154	0.00021416444
19	0x39143b8d	0.00014136564
20	0x393c8b7d	0.0001798104
21	0x390a2bfa	0.00013177088
22	0x39025c09	0.00012432052
23	0x396e3e5f	0.00022720684
24	0x39045525	0.0001262022
25	0x393d8c89	0.00018076798
26	0x3945cb61	0.00018863149
27	0x38dcb845	0.0001052474
28	0x392f8615	0.0001673925
29	0x39aeea7f	0.0003336258
30	0x3982114b	0.00024808416
31	0x39661423	0.00021942011
32	0x394a721d	0.00019306732
33	0x38ddb829	0.00010572404
34	0x395425b7	0.00020231945
35	0x3946df5a	0.00018965956
36	0x38edc9d5	0.00011338635
37	0x38b23d3e	8.499109e-05
38	0x38fb43a8	0.000119812146
39	0x39847485	0.00025263816
40	0x3982d4da	0.0002495412
41	0x39306cd9	0.00016825217
42	0x3936e827	0.00017443356
43	0x39222520	0.00015463354
44	0x395dd6ff	0.00021156295
45	0x39755a71	0.00023398713
46	0x3985ce4c	0.0002552144
47	0x39767e0d	0.00023507346
48	0x390636ce	0.00012799652
49	0x39c6d313	0.00037922765
50	0x39604eb5	0.00021391625
51	0x394d2e47	0.00019567563
52	0x39628b39	0.00021604904
53	0x395cbddd	0.00021051565
54	0x390cbffa	0.00013422957
55	0x39017fec	0.00012350053
56	0x397c57f3	0.00024065356
57	0x38c0eb56	9.199108e-05
58	0x38f705b4	0.0001177894
59	0x391e096e	0.00015071567
60	0x392e6444	0.00016631285
61	0x395d0f0d	0.00021081809
62	0x399ebc59	0.00030276438
63	0x3955bb8b	0.00020383128
64	0x3912e693	0.0001400954
65	0x38e60f7d	0.000109701396
66	0x3932bb70	0.00017045229
67	0x391097d4	0.0001378947
68	0x3908144d	0.00012977533
69	0x393274d2	0.00017018922
70	0x394ee072	0.00019729303
71	0x3958560a	0.00020631417
72	0x39711b21	0.00022993657
73	0x3935f4a0	0.00017352635
74	0x3941917c	0.00018460111
75	0x3949127c	0.0001917574
76	0x38d18905	9.9914185e-05
77	0x395f7f44	0.00021314347
78	0x3920d02e	0.00015336342
79	0x395e8afb	0.00021223344
80	0x3949316b	0.00019187263
81	0x38eacf74	0.00011196631
82	0x3958b9f6	0.00020668641
83	0x391669a7	0.00014344473
84	0x3900ed1b	0.0001229536
85	0x39b83e0c	0.00035141443
86	0x392aa94d	0.00016275533
87	0x394fa7e0	0.00019803597
88	0x390a5dae	0.00013195604
89	0x3983e917	0.00025159933
90	0x39bf2094	0.00036454631
91	0x39574aca	0.00020531859
92	0x390bd2c7	0.00013334594
93	0x3969490a	0.00022247821
94	0x3918b531	0.00014563349
95	0x3938cd10	0.00017623999
96	0x393ee662	0.00018205636
97	0x39391a62	0.00017652803
98	0x3936e412	0.00017441835
99	0x39b812e1	0.0003510928
100	0x39352bf5	0.0001727788
101	0x390637b9	0.00012799994
102	0x393f4075	0.00018239192
103	0x38fe3c14	0.00012122854
104	0x3a273ca3	0.000637958
105	0x391c9e99	0.00014936402
106	0x3947d7f5	0.00019058569
107	0x396f29f4	0.00022808445
108	0x3922a6b7	0.0001551163
109	0x39071b2f	0.0001288473
110	0x393ee118	0.00018203666
111	0x38ff168c	0.00012163547
112	0x3928cf4d	0.00016098954
113	0x395b986d	0.0002094225
114	0x39770a6e	0.00023559641
115	0x39976eee	0.00028883613
116	0x390482e0	0.00012637256
117	0x393c3ca4	0.00017951668
118	0x395b544a	0.00020916868
119	0x39944f5c	0.00028287887
120	0x39551bf7	0.0002032368
121	0x391b0647	0.0001478429
122	0x393c672c	0.00017967512
123	0x3948bce9	0.00019143861
124	0x392fc2e7	0.00016761907
125	0x38b23db1	8.499192e-05
126	0x38e8f154	0.00011107573
127	0x39044f08	0.00012617942
128	0x39372058	0.00017464289
129	0x39b3e365	0.00034310963
130	0x396777a6	0.00022074449
131	0x38dc0f2b	0.00010493243
132	0x3951f5eb	0.00020023405
133	0x390c11ce	0.00013358073
134	0x38f78160	0.00011801976
135	0x3922a79b	0.00015511962
136	0x3993c9a2	0.00028188253
137	0x39182582	0.00014509822
138	0x39505e12	0.0001987147
139	0x393cc7b7	0.00018003477
140	0x38ec4475	0.00011266108
141	0x392420cd	0.00015652478
142	0x39348c8a	0.00017218493
143	0x39376c57	0.000174926
144	0x39c03ba3	0.00036665527
145	0x395ffcfa	0.00021361178
146	0x39742f87	0.00023287359
147	0x391cb54e	0.0001494486
148	0x398e5623	0.00027148527
149	0x39429ed3	0.00018560448
150	0x3955cb96	0.00020389105
151	0x392dd264	0.00016576942
152	0x39053864	0.00012704876
153	0x3955c79a	0.0002038762
154	0x39085853	0.00013002874
155	0x393b0765	0.00017836464
156	0x392525f9	0.00015749772
157	0x3928247f	0.00016035324
158	0x39946bfd	0.00028309217
159	0x3924704e	0.00015682096
160	0x390ea86c	0.00013604917
161	0x39089f85	0.00013029396
162	0x3906e363	0.00012863944
163	0x3912e71c	0.0001400974
164	0x392687e4	0.00015881617
165	0x38d4db4d	0.00010149796
166	0x3a7234c1	0.00092394283
167	0x39170c1c	0.00014404993
168	0x396690fe	0.00021988523
169	0x3947080c	0.00018981117
170	0x39199cf0	0.00014649681
171	0x3943f637	0.00018688371
172	0x3927db32	0.00016008018
173	0x3907bab8	0.00012944161
174	0x398a2381	0.00026347864
175	0x3935b7f5	0.00017330034
176	0x38fa3f0f	0.000119326745
177	0x39170ac5	0.00014404494
178	0x3901551b	0.00012334103
179	0x39848f56	0.00025283796
180	0x3982ba82	0.0002493449
181	0x39771dcd	0.00023566857
182	0x3949082e	0.00019171901
183	0x3961e158	0.00021541619
184	0x3928cc5b	0.00016097857
185	0x392fc467	0.00016762466
186	0x396903b4	0.00022221991
187	0x3926d7a2	0.00015911323
188	0x39252f43	0.00015753233
189	0x393720b3	0.00017464421
190	0x3988c3cb	0.00026085819
191	0x392cad78	0.0001646782
192	0x3972571e	0.00023111372
193	0x390d15b8	0.00013454899
194	0x391ce62c	0.00014963065
195	0x3965aceb	0.00021903559
196	0x39678351	0.00022078796
197	0x3930550a	0.00016816347
198	0x3946428d	0.00018907544
199	0x393b75dc	0.00017877616
200	0x39276841	0.00015965199
201	0x3930e192	0.000168687
202	0x3929c64c	0.00016190967
203	0x3935305e	0.00017279523
204	0x390cc8eb	0.00013426288
205	0x39114f05	0.00013857715
206	0x391c8b9c	0.00014929328
207	0x3928e18b	0.0001610575
208	0x3922c079	0.00015521226
209	0x391d734c	0.00015015638
210	0x3943e2e5	0.00018681174
211	0x392674c6	0.00015874495
212	0x392720d3	0.00015938589
213	0x392fbe1b	0.0001676012
214	0x3a0e2f28	0.0005423897
215	0x38afddd8	8.385972e-05
216	0x38fc782a	0.00012038679
217	0x391338ad	0.00014040126
218	0x38cfc0a3	9.9064106e-05
219	0x393bb8d2	0.0001790256
220	0x392fc46d	0.00016762475
221	0x39038362	0.00012542077
222	0x39386100	0.00017583743
223	0x395e8356	0.00021220496
224	0x39421be8	0.00018511678
225	0x3909bf50	0.00013136608
226	0x3902af72	0.00012463125
227	0x39001745	0.000122157
228	0x390b46b7	0.00013282416
229	0x390bdcee	0.00013338376
230	0x3915282c	0.00014224713
231	0x39d91e08	0.0004141184
232	0x393e4f28	0.000181493
233	0x39462e96	0.00018900106
234	0x38ceaca7	9.8550045e-05
235	0x38e8a927	0.00011094129
236	0x39289e6a	0.00016080742
237	0x39084c69	0.00012998436
238	0x392bc7a7	0.00016382207
239	0x390994e6	0.00013120807
240	0x392cf11d	0.0001649302
241	0x3917bdef	0.00014471238
242	0x39446309	0.0001872891
243	0x395de821	0.00021162677
244	0x39649242	0.0002179826
245	0x39d6bd3d	0.00040958254
246	0x38df6036	0.00010651389
247	0x38fe2fb8	0.00012120552
248	0x3916758f	0.00014348909
249	0x38fa58d7	0.00011937477
250	0x392ca0d1	0.00016463107
251	0x39109d8a	0.00013791598
252	0x39302253	0.00016797455
253	0x38ee7e48	0.00011372246
254	0x392079ed	0.0001530421
255	0x39266877	0.0001586991

survival_head.1.weight f4 [32, 1024]
0	0xbbbaf28c	-0.0057051834
1	0xbcc21ad2	-0.02369443
2	0xbc6671d7	-0.0140652275
3	0x3cda3d73	0.02664063
4	0x3c9e7832	0.019344423
5	0x3cc57814	0.02410511
6	0xbc51f51f	-0.012814789
7	0x3d2d4334	0.042300418
8	0x3b1c15ba	0.002381666
9	0x3c2d7b99	0.01058855
10	0xbc028544	-0.007966343
11	0x3c0b6412	0.008507745
12	0xbcd1bc4b	-0.02560248
13	0x3c0e0103	0.008667233
14	0xbb6021e8	-0.0034199897
15	0xbc92f9ff	-0.017941473
16	0xbbec6220	-0.007213846
17	0x3c0f2345	0.008736436
18	0xbc8534f1	-0.016260596
19	0x3afdba23	0.0019357841
20	0xbcaa8044	-0.020813115
21	0x3d148f05	0.036269207
22	0xbc20d66c	-0.009816747
23	0x3cf81604	0.030283935
24	0xba09766d	-0.0005243782
25	0xbb3fdda0	-0.0029276386
26	0x3ce13d86	0.027495157
27	0xbbd3966a	-0.0064571397
28	0xbafdebe3	-0.0019372668
29	0x3b750e68	0.003739262
30	0xbcb63c54	-0.022245564
31	0xbcd11940	-0.025524735
32	0x3ad6f3db	0.0016399579
33	0x3cfb136b	0.030648908
34	0x3cbef445	0.023309836
35	0x3caee205	0.021348009
36	0xbc752951	-0.014963464
37	0xbc42d57d	-0.01189172
38	0x3aca0dd0	0.0015415493
39	0xbc83a58b	-0.016070148
40	0x3caa24a3	0.020769423
41	0xbd31ad07	-0.043377902
42	0x3cd677ff	0.026180265
43	0xbba3892a	-0.0049907165
44	0xbcca493b	-0.024693122
45	0xbd0a6964	-0.033791915
46	0xbcd76aa0	-0.02629596
47	0x3cb7d324	0.022439547
48	0xbc965164	-0.018349357
49	0x3cdf3421	0.027246537
50	0x3c8e3a99	0.017361926
51	0x3c44129a	0.011967326
52	0x3d1dcfcf	0.03852826
53	0x3c88dd19	0.01670699
54	0x3bda3046	0.0066585867
55	0xbc8cf53a	-0.017206777
56	0xbd1701ff	-0.036867138
57	0x3cb654d2	0.022257242
58	0xbcfd0ed0	-0.030890852
59	0x3d126c7a	0.035747983
60	0x3d0b434b	0.033999722
61	0xbcafc2ea	-0.021455247
62	0x3ce219cc	0.027600192
63	0xbcc1df0d	-0.02366593
64	0xbc2da92a	-0.010599414
65	0xbcfc66dc	-0.030810766
66	0x3c91650d	0.01774838
67	0xbca435aa	-0.02004512
68	0xbcb595fb	-0.022166243
69	0xbc415445	-0.011799877
70	0x3d3730cc	0.04472427
71	0xbccfce44	-0.02536691
72	0x3c937caa	0.01800378
73	0x3c8c6221	0.017136635
74	0x3bcc2a9c	0.0062306654
75	0xbd02ca5a	-0.03193126
76	0x3c5fbfd1	0.013656572
77	0x3d1aca7c	0.03779076
78	0x3c8a34d4	0.016870894
79	0x3ccf4089	0.025299327
80	0x3c9c7abb	0.019101491
81	0x3c89f589	0.016840713
82	0x3c94f364	0.018182464
83	0xbbf3e843	-0.0074434592
84	0x3c0bc72c	0.008531373
85	0x3bdf7c80	0.0068202615
86	0x3d0336e3	0.032034766
87	0x3ca10706	0.01965667
88	0xbc9647a7	-0.018344713
89	0xbc869763	-0.016429609
90	0x3c7e4d72	0.015521394
91	0xbcb5c1c0	-0.022187114
92	0xbcd5bbbb	-0.026090493
93	0x3a4d54a5	0.00078327424
94	0xbae426ad	-0.0017406546
95	0x3c87eca7	0.016592337
96	0x3cc8947a	0.024484862
97	0x3cb4ca62	0.02206916
98	0x3a97bcbc	0.0011576633
99	0x3c563d84	0.01307619
100	0xbd0763e5	-0.03305425
101	0x3ca763da	0.020433355
102	0x3b47dfee	0.0030498463
103	0x3bf458e5	0.007456886
104	0x3bd2a2cf	0.0064280997
105	0xbc1c7471	-0.009549246
106	0xbc80188a	-0.015636701
107	0x3c6d6d0f	0.014491334
108	0xbc8f3786	-0.01748253
109	0x3cb3d22a	0.0219508
110	0xbcab7888	-0.020931497
111	0x3bd1ee7d	0.006406604
112	0xbbf57f3b	-0.0074919737
113	0xbb2a2549	-0.0025962165
114	0xbc4df520	-0.012570649
115	0x3c937952	0.018002186
116	0x3d3a1783	0.04543258
117	0xbc604d7c	-0.013690349
118	0xbc87c3fd	-0.016572947
119	0xbcae68ff	-0.0212903
120	0xbc8e704e	-0.017387535
121	0xbd0178df	-0.031609412
122	0xbd012a0b	-0.031534236
123	0x3c8e6bb3	0.01738534
124	0x3cb6a3ba	0.022294868
125	0xbb1bac83	-0.0023753948
126	0xbc077a45	-0.008268897
127	0x3c4bc76d	0.0124376835
128	0x3c61ba0d	0.013777268
129	0x3cacdfa0	0.021102726
130	0xbcd5845e	-0.026064094
131	0x3a3edbdd	0.0007280687
132	0xbc111f58	-0.008857571
133	0xbc41f9ae	-0.011839313
134	0xbccc8b06	-0.024968635
135	0xbb8e0bb6	-0.004334892
136	0x3cb022fa	0.021501053
137	0x3ba52fc4	0.0050410945
138	0xbbfc3a1c	-0.007697357
139	0x3be3d7d3	0.0069532185
140	0xbc9402d5	-0.018067757
141	0xbb539e79	-0.0032290502
142	0x3d008b9b	0.03138314
143	0xbd1647a2	-0.036689408
144	0xbcb99584	-0.022654302
145	0x3bf2f928	0.0074149556
146	0xbc32e301	-0.01091838
147	0x3c8be97a	0.017079104
148	0xbce69f08	-0.028152004
149	0x3d08ebc4	0.03342797
150	0xbd06dccb	-0.03292541
151	0x3d042fd1	0.032272164
152	0xbcee870e	-0.029117133
153	0x3cb55776	0.022136431
154	0x3b9ac310	0.0047229603
155	0xbc96eb14	-0.01842264
156	0x3b5b2a68	0.0033442024
157	0x3d04360c	0.032278106
158	0x3c9e497b	0.019322148
159	0x3d0872af	0.033312496
160	0x3c13ad81	0.0090135345
161	0xbbbf9590	-0.0058466867
162	0xbc67de17	-0.014152071
163	0xbcacc19b	-0.021088412
164	0x3c8d0cda	0.017218042
165	0x3c1d8a66	0.009615516
166	0x3cd5dffc	0.02610778
167	0xbc87716a	-0.016533572
168	0xbc343419	-0.010998749
169	0x3cf0d1cc	0.029396914
170	0x3cb7a443	0.022417193
171	0xbbf396b6	-0.0074337376
172	0xbc55db47	-0.013052768
173	0x3c380cd8	0.011233531
174	0x3c75c23e	0.014999924
175	0xbbfb6d30	-0.0076729283
176	0xbcdd4de5	-0.027014682
177	0xbb3f9593	-0.002923344
178	0x3acec3c1	0.0015774892
179	0x3aab5c0b	0.0013073696
180	0xbcae3230	-0.021264166
181	0xba19907c	-0.00058580167
182	0x3bef0d10	0.0072952583
183	0x3aba2a05	0.0014203197
184	0x3c658519	0.014008784
185	0xbb17a7d8	-0.0023140814
186	0xbc829491	-0.015939983
187	0x3d0f4b94	0.034984186
188	0xbd01af69	-0.031661425
189	0xbce84782	-0.02835441
190	0x3c281e23	0.010261091
191	0xbcb4b4d6	-0.022058886
192	0x3c9d18e0	0.0191769
193	0x3c8b25b8	0.01698576
194	0x3b864426	0.0040974794
195	0xbccb96ee	-0.024852242
196	0x3c97f029	0.018547134
197	0xbc8eb6f5	-0.017421225
198	0x3ca82d16	0.020529311
199	0xbbc7f8f9	-0.006102678
200	0x3c5f496a	0.013628343
201	0x3cc6f5f4	0.024287201
202	0x3cea750e	0.02862027
203	0x3d10502f	0.03523272
204	0xbc3fc9d8	-0.011705838
205	0x3ca13a7b	0.019681206
206	0xbb1f1e75	-0.0024279628
207	0x3c65aa14	0.014017601
208	0x3c051f2e	0.00812511
209	0xb98c1f19	-0.0002672605
210	0x3bd6c63c	0.006554393
211	0x3c39c1af	0.011337682
212	0x3b64364a	0.0034822398
213	0x3c5dd0b5	0.013538529
214	0x3c555c46	0.013022488
215	0xbcc534fa	-0.024073113
216	0xbd0c4f94	-0.03425558
217	0x3c6b5905	0.014364486
218	0xbcf717db	-0.030162742
219	0x3d0ae091	0.03390557
220	0xbc888515	-0.016665021
221	0x3c661fff	0.014045714
222	0x3b1898f2	0.0023284522
223	0x3c9f4007	0.01943971
224	0x3c5e0698	0.013551377
225	0x3b5690b9	0.003274007
226	0xbcef74a0	-0.029230416
227	0xbc0fba4f	-0.008772447
228	0xbcfb3bea	-0.030668218
229	0xbc9f69b0	-0.019459575
230	0x3ccb8613	0.024844205
231	0xbbef9691	-0.00731165
232	0xbbb9d5bf	-0.0056712325
233	0xbce42fda	-0.027854849
234	0x3cbf7908	0.023373142
235	0x3cdb50aa	0.026771862
236	0x3c8b2c63	0.016988939
237	0xbcc9e266	-0.024644088
238	0xbcc122d2	-0.023576174
239	0xbcd1f523	-0.025629586
240	0x3a3bf153	0.0007169444
241	0xbcd23234	-0.025658704
242	0x3d133a83	0.035944473
243	0xbc206cd0	-0.009791568
244	0x3cf62162	0.030045215
245	0x3ab13ec1	0.001352273
246	0x3cbcd91d	0.023052746
247	0xbcc3c8f7	-0.023899538
248	0xbb116a24	-0.002218851
249	0x3c16e468	0.00920973
250	0x3ca1b13a	0.019737829
251	0x3ce4d3cd	0.027933026
252	0x3ca0ad52	0.019613896
253	0xbb5a242a	-0.0033285716
254	0x3b312b4b	0.0027033861
255	0x3c8d6339	0.017259227

survival_head.1.bias f4 [32]
0	0x3bb2fe6e	0.0054624593
1	0xbc825f90	-0.015914708
2	0x3c8510aa	0.016243298
3	0x3c793fac	0.015212934
4	0x3bde4931	0.0067836274
5	0x3d124c0a	0.035717048
6	0x3b1b0da3	0.0023659251
7	0xbd001b92	-0.031276293
8	0x3c515c7b	0.012778397
9	0xbc31f42e	-0.01086144
10	0xbd367c2e	-0.04455202
11	0xbcf17391	-0.029474052
12	0xbcec4407	-0.028841032
13	0x3bee0ba1	0.00726457
14	0x3b04f479	0.0020287319
15	0xbd097812	-0.033561774
16	0xbce1145f	-0.027475534
17	0x3af6987f	0.0018813758
18	0xb9bcb823	-0.00035995347
19	0x3d01c96f	0.031686243
20	0x3a60f640	0.0008581616
21	0x3bad96e4	0.0052975286
22	0x3bcd122f	0.006258271
23	0x3c2cfdc1	0.0105585465
24	0x3ca21753	0.019786512
25	0x3c001115	0.007816573
26	0xbad7234a	-0.0016413715
27	0xbcade4c8	-0.021227255
28	0x3d1820b3	0.03714056
29	0x3bdb5b1d	0.006694211
30	0x3b1258a5	0.0022330668
31	0x3b9cab94	0.004781196

survival_head.4.weight f4 [64, 32]
0	0xbc20d2d1	-0.009815888
1	0x3e6379c6	0.22214422
2	0x3df876bd	0.121320225
3	0xbde884a1	-0.11353422
4	0x3d8119f0	0.06303775
5	0x3d6abab0	0.057306945
6	0xbd9623f9	-0.0733108
7	0x3dc3df67	0.09564095
8	0xbd83a9be	-0.0642886
9	0xbdfc586e	-0.12321554
10	0xbe05529d	-0.13019796
11	0x3dc98f87	0.09841829
12	0x3c636b74	0.013880599
13	0xbbbe2333	-0.005802536
14	0x3da91d27	0.082575135
15	0xbdd2c191	-0.10290826
16	0x3bca905f	0.006181761
17	0x3d9097dc	0.07060215
18	0x3e379aea	0.17930189
19	0x3e64c82b	0.22341983
20	0x3d2dfb0b	0.04247574
21	0xbe234468	-0.15944064
22	0xbd8663ac	-0.0656198
23	0x3dc6c21a	0.09704991
24	0xbd1a6e6e	-0.03770297
25	0xbdb7fbb0	-0.089835525
26	0x3e43ec71	0.19133164
27	0x3cec2f68	0.028831199
28	0x3e49a8eb	0.19693343
29	0x3db8297c	0.089922875
30	0x3d898a9b	0.0671589
31	0x3e0e6595	0.13905938
32	0x3dd785ff	0.105236046
33	0xbd9b4c53	-0.07582917
34	0x3d12c548	0.035832673
35	0xbd8dce57	-0.06924122
36	0x3ccc48b7	0.024937017
37	0xbd618251	-0.05505592
38	0x3e4abdc0	0.19798946
39	0xbdf7097b	-0.12062355
40	0x3e0b6c5d	0.13615556
41	0xbd63366f	-0.055471834
42	0x3c38bfac	0.011276167
43	0x3d418de8	0.047254473
44	0xbdb5dd71	-0.08880127
45	0x3dc92d42	0.09823085
46	0x3e434592	0.19069508
47	0xbdbb6544	-0.09150174
48	0x3d891229	0.06692917
49	0x3e01074d	0.12600441
50	0x3dd7937b	0.105261765
51	0x3e467283	0.1937962
52	0xbdd99db7	-0.10625785
53	0xbe2a5ed8	-0.16637743
54	0x3e1a2e03	0.15056615
55	0xbd29b486	-0.041431926
56	0x3e0b30f7	0.13592897
57	0xbd5fea17	-0.054666605
58	0xbd196ae4	-0.037455454
59	0xbccbf1b7	-0.024895532
60	0x3d9cc8ee	0.07655512
61	0x3ce63810	0.028102905
62	0xbda9546c	-0.08268055
63	0x3cabb5a9	0.020960646
64	0x3e1d87c3	0.1538382
65	0xbe1375a6	-0.14400348
66	0xbd87602e	-0.06610142
67	0x3d8f042b	0.06983217
68	0x3c8fd8ca	0.017559428
69	0xbc9110b5	-0.017708162
70	0x3c84e4a9	0.016222315
71	0x3d369c7d	0.044582833
72	0xbd2155e3	-0.03938855
73	0xbd67797c	-0.05651234
74	0x3cac469b	0.021029761
75	0xbdb47b17	-0.0881254
76	0xbde3df44	-0.11126569
77	0xbe0a30a5	-0.13495119
78	0xbd53adf8	-0.05167958
79	0x3e158fd7	0.14605652
80	0xbe3ffcd5	-0.18748792
81	0xbcf73a87	-0.030179275
82	0xbd915fde	-0.07098363
83	0xbe090813	-0.13381986
84	0x3e1e75e4	0.15474659
85	0x3e4d0da7	0.20024739
86	0xbc142e59	-0.009044253
87	0xbdfaaea0	-0.12240338
88	0xbdd23b1d	-0.10265181
89	0x3d300f36	0.042983256
90	0x3d4c19d0	0.049829304
91	0x3dda7966	0.10667686
92	0xbe379a5a	-0.17929974
93	0x3e4116e5	0.1885639
94	0x3e2c202e	0.1680915
95	0x3dacb7a4	0.08433464
96	0x3d855b82	0.06511594
97	0xbd7bace2	-0.06144417
98	0x3dd68bbd	0.10475872
99	0x3dfdb081	0.12387181
100	0xbde824f4	-0.11335173
101	0xbe20ccba	-0.15703097
102	0x3db9dc19	0.090751834
103	0x3d862f02	0.06551935
104	0x3e1e5d84	0.15465361
105	0xbd3f2ccc	-0.04667358
106	0xbd17cbcc	-0.03705959
107	0x3e1ef63c	0.15523618
108	0x3cc16705	0.023608694
109	0xbdf3d6ab	-0.11906179
110	0xbe16c577	-0.14723764
111	0x3ca60876	0.020267706
112	0xbe37c9af	-0.1794803
113	0x3d23b6cc	0.03996925
114	0xbde0a57e	-0.10969065
115	0xbde40f67	-0.1113575
116	0x3e355560	0.17708349
117	0x3dcf1581	0.101115234
118	0x3d58297c	0.052773938
119	0x3d6589e3	0.056039702
120	0xbc43a26d	-0.011940581
121	0x3ce5d5c1	0.028056027
122	0xbd5683cd	-0.05237179
123	0x3d914d02	0.07094766
124	0xbd8b0d69	-0.06789667
125	0xbc5d4399	-0.013504886
126	0x3dd2ba18	0.10289401
127	0xbe1892de	-0.14899775
128	0xbcff9f09	-0.031203764
129	0xbd8f319b	-0.06991883
130	0x3cb80e69	0.022467809
131	0xbe1b182d	-0.15145941
132	0xbe061c04	-0.13096625
133	0xbd3dc188	-0.046327144
134	0xbbca0020	-0.0061645657
135	0x3de1d3d7	0.11026733
136	0x3cc3bbb1	0.02389321
137	0xbdc71c8d	-0.097222425
138	0xbe0855f9	-0.13314046
139	0x3e0094d9	0.12556781
140	0x3d5a33af	0.053271946
141	0xbde513ea	-0.11185439
142	0x3dffbb5a	0.12486906
143	0xbe22ce60	-0.15899038
144	0x3e0885b6	0.13332257
145	0xbe245d00	-0.16051102
146	0x3da2ec8e	0.079552755
147	0x3de5d8c5	0.11222986
148	0xbe2d1290	-0.16901612
149	0xbe2dac6e	-0.16960308
150	0x3e3bb746	0.18331632
151	0x3bcbab58	0.006215494
152	0xbe0c3748	-0.13692963
153	0xbd961594	-0.073283345
154	0xbdcdd5e1	-0.1005056
155	0x3e0c8892	0.13723972
156	0xbc55a244	-0.013039175
157	0xbae27b99	-0.0017279267
158	0xbe0d3408	-0.1378938
159	0xbda0fc79	-0.07860655
160	0x3e153b10	0.14573312
161	0xbd8b61f8	-0.068057954
162	0x3d802be6	0.06258373
163	0x3e23e028	0.16003478
164	0xbdc2753f	-0.09495019
165	0xbdfd7e5c	-0.12377617
166	0xbde3e029	-0.111267395
167	0x3e12da59	0.14341106
168	0x3e0c8970	0.13724303
169	0xbcd5a26e	-0.02607843
170	0x3d0509b2	0.03247995
171	0x3e0bcc9f	0.13652276
172	0x3e073d22	0.13206914
173	0xbe0972b3	-0.1342266
174	0xbdc843e9	-0.09778578
175	0x3d376188	0.044770747
176	0x3dab7921	0.08372713
177	0xbe0c2b6c	-0.13688439
178	0xbdd12f03	-0.10214045
179	0xbe41aadd	-0.18912835
180	0xbdd48701	-0.103773125
181	0xbd988ab9	-0.07448334
182	0xbd2f6a1c	-0.042825803
183	0x3e290860	0.16507101
184	0x39863a54	0.0002560193
185	0xbdc762f9	-0.097356744
186	0xbc80ab3c	-0.01570665
187	0x3e370e94	0.17876655
188	0x3b1df83b	0.0024104256
189	0x3e17b13a	0.148137
190	0x3dfee9ba	0.124469236
191	0xbe08e19e	-0.13367316
192	0x3dd2961f	0.102825396
193	0xbe09b4fd	-0.13447948
194	0xbdbc781f	-0.09202599
195	0xbe210786	-0.15725526
196	0x3df24dd4	0.11831251
197	0x3ccafe78	0.024779543
198	0x3abf3d4b	0.001459041
199	0x3d3fc16f	0.046815332
200	0x3db62a6b	0.08894809
201	0xbdde1f73	-0.10845842
202	0xbde09db3	-0.10967579
203	0xbc96f515	-0.018427411
204	0xbe113442	-0.14180091
205	0xbc066fac	-0.008205336
206	0xbd0e6014	-0.034759596
207	0x3e0ad39c	0.13557285
208	0xbd7fd107	-0.062455203
209	0xbd2727ac	-0.04080932
210	0xbdbc1c97	-0.091851406
211	0xbe11cb5c	-0.14237732
212	0x3e252d5d	0.16130586
213	0xbc213854	-0.00984009
214	0x3cedc92f	0.029026596
215	0xbc913da4	-0.017729588
216	0xbce3def6	-0.027816277
217	0xbe0f52c8	-0.13996422
218	0x3c98061b	0.018557599
219	0xbd2117c3	-0.0393293
220	0xbe264d0c	-0.16240329
221	0x3e10a25b	0.14124434
222	0x3dff8a96	0.12477605
223	0x3d0dd357	0.034625378
224	0xbd923abc	-0.07140109
225	0x3de3024e	0.11084424
226	0xbd5b266f	-0.05350345
227	0xbe07109c	-0.1318993
228	0x3de30616	0.11085145
229	0xbc9a8bce	-0.018865492
230	0xbd0227e8	-0.03177634
231	0xbdc8e87d	-0.098099686
232	0xbda1815c	-0.078860015
233	0x3b40343b	0.0029328007
234	0xbd526e42	-0.05137468
235	0x3d385cd3	0.0450104
236	0xbdc63aca	-0.09679182
237	0x3da30158	0.07959241
238	0x3dc9e29e	0.09857677
239	0xbda0240b	-0.07819375
240	0x3d9eb2d0	0.077489495
241	0x3e1ccd29	0.15312637
242	0x3e6340b8	0.22192657
243	0x3e7f85a1	0.24953319
244	0xbc6bbf4c	-0.01438887
245	0xbe12deed	-0.14342852
246	0x3d5fdd4f	0.054654416
247	0x3dc85660	0.097821
248	0x3e1ea09f	0.1549096
249	0xbd5b2d90	-0.05351025
250	0x3e335b22	0.17515233
251	0x3d714615	0.058904726
252	0xbd9652d4	-0.07340017
253	0xbd823eaf	-0.06359612
254	0xbcc8fa89	-0.024533527
255	0x3df4bca1	0.119500406

survival_head.4.bias f4 [64]
0	0xbdfc186c	-0.123093456
1	0x3b12fa31	0.0022426958
2	0x3e1c3578	0.15254772
3	0x3d693c77	0.05694243
4	0x3dc19318	0.09451884
5	0x3e4ab108	0.19794095
6	0xbd1b9e85	-0.037992973
7	0x3e22fea0	0.15917444
8	0x3e1263fd	0.14295955
9	0x3e159d09	0.14610685
10	0x3e03871b	0.12844507
11	0xbdd7edd1	-0.10543407
12	0x3dcd9531	0.10038222
13	0xbda5e712	-0.08100714
14	0x3e15d855	0.14633305
15	0xbdacfb0d	-0.08446322
16	0xbc0ba9e5	-0.008524393
17	0xbd80bc12	-0.062858716
18	0xbd49adb5	-0.049237926
19	0xbd8387a7	-0.06422358
20	0xbe14e68e	-0.14541075
21	0x3e08c427	0.13356076
22	0xbd0f159c	-0.034932718
23	0x3c4d7950	0.01254113
24	0x3ccfdfa0	0.025375187
25	0xba174212	-0.0005770038
26	0xbdd48f04	-0.103788406
27	0xbdc721ae	-0.09723221
28	0x3c14eaf3	0.009089219
29	0x3ce31205	0.027718553
30	0xbda117e7	-0.07865887
31	0x3e2c9b39	0.16856088
32	0xbdcc8490	-0.09986222
33	0xbd835af7	-0.064138345
34	0xbe3936cf	-0.18087314
35	0xbddbfded	-0.10741792
36	0x3e29813e	0.16553208
37	0x3d9f167d	0.07767961
38	0x3e40b0f9	0.1881751
39	0xbd233d61	-0.039853457
40	0xbe1b2f5e	-0.15154788
41	0xbdab88fe	-0.083757386
42	0xbda67bd3	-0.08129086
43	0xbde45223	-0.11148479
44	0x3df824f2	0.12116422
45	0xbd3481ce	-0.044069104
46	0x3de63c25	0.112419404
47	0xbdd08647	-0.10181861
48	0xbdf8a61a	-0.12141056
49	0x3e5d2558	0.21596277
50	0x3d2276c7	0.039664056
51	0xbe193a59	-0.14963664
52	0x3dc8c036	0.09802286
53	0xbdeacad2	-0.11464466
54	0x3dc6cbee	0.09706865
55	0x3dfd476d	0.12367139
56	0xbdc21ad7	-0.094777755
57	0xbe1ab913	-0.15109663
58	0x3db4e02f	0.08831822
59	0x3e550082	0.20800975
60	0x3d6c1cbe	0.0576446
61	0xbe3920ec	-0.18078965
62	0x3e453d44	0.19261652
63	0xbe0e3751	-0.13888289

survival_head.7.weight f4 [1, 64]
0	0xbe1771cd	-0.14789505
1	0xbe33aba8	-0.1754595
2	0x3e095f3f	0.1341524
3	0x3db5e1a1	0.08880926
4	0xbca56aff	-0.020192621
5	0x3dc0ebfe	0.09420012
6	0x3de10e07	0.10989004
7	0xbe0c8500	-0.1372261
8	0xbe370d42	-0.17876151
9	0xbdc38d25	-0.095484056
10	0x3e224d1c	0.15849727
11	0x3d88cdc3	0.06679871
12	0xbe2d339b	-0.16914217
13	0x3d4ae5c4	0.049535528
14	0x3db25f33	0.08709564
15	0xbd6a5dc3	-0.057218324
16	0xbdb71013	-0.08938613
17	0xbdc0e3da	-0.09418459
18	0xbe353eef	-0.17699789
19	0x3e0f7cd5	0.14012463
20	0x3e208805	0.15676887
21	0xbe25bc82	-0.16185191
22	0xbe00a302	-0.12562183
23	0x3dc76ce2	0.097375646
24	0xbdb076ae	-0.08616386
25	0xbe2d152b	-0.16902606
26	0x3d984318	0.07434672
27	0xbdb3bcac	-0.08776221
28	0x3e2091fb	0.15680687
29	0x3dfdaba4	0.123862535
30	0x3e0daa45	0.13834484
31	0xbd6d78de	-0.057976596
32	0xbdfc1130	-0.12307966
33	0xbe106f1a	-0.14104882
34	0xbd6c4f25	-0.057692666
35	0x3d8dddc0	0.06927061
36	0xbda8c996	-0.082415745
37	0x3d0840d0	0.033264935
38	0xbe00e982	-0.12589076
39	0xbddaa46b	-0.106758915
40	0x3d5edffd	0.05441283
41	0x3d4819a3	0.048852574
42	0xbe12a0a3	-0.1431909
43	0x3b296a7f	0.002585083
44	0xbdcc2185	-0.09967331
45	0x3da936ae	0.082623824
46	0xbdc2deb8	-0.095151365
47	0x3ddb2b3c	0.10701606
48	0xbe19533a	-0.14973155
49	0x3d39f403	0.045398723
50	0x3e0ec9f5	0.13944228
51	0x3e03797a	0.12839308
52	0x3db2eb4a	0.08736284
53	0xbd85c3bc	-0.06531474
54	0xbdb3551f	-0.0875647
55	0x3e236806	0.1595765
56	0x3c4ebf77	0.012618891
57	0x3d87494b	0.066057764
58	0x3ddbbf8e	0.107298955
59	0x3d88b76b	0.06675609
60	0x3e15063a	0.14553156
61	0x3d9ceb0a	0.07662018
62	0xbdfaca3f	-0.12245607
63	0xbdb1f386	-0.086890265
