mlp_cox_model.pth (torch, 160018 bytes, 9 tensors)

model.0.weight f4 [1024]
1.0017183 0.9983904 0.9971552 1.0025632 1.0017532 1.0001044 0.99954754 0.99942344
0.99908423 0.99933094 0.99921167 0.9978251 1.0047522 1.0055238 1.0008496 1.0010173
0.99599695 1.0013059 1.0004548 1.0018305 1.0002162 0.9979946 0.9978718 1.0015273
1.0004086 1.0000697 0.99903613 1.0021007 1.0015229 1.0003716 1.0023361 1.0033003
1.0001358 1.0053695 0.9994897 0.9995556 1.006894 1.0014111 0.9989384 1.0006728
1.0048376 0.9995675 0.9996856 1.00096 0.9996932 0.99641615 1.0012416 0.99795055
1.0026393 1.0016433 1.0025126 1.0000857 0.9970843 0.99876195 1.0007355 0.997573
1.0009313 1.0026966 1.0020196 0.9988856 0.9981695 1.0012511 1.0026917 1.0023005
0.9985915 0.99994236 0.9997662 1.0013298 0.9998218 0.99925435 0.99832886 0.9997791
1.0000559 1.0003324 0.99961615 1.0001674 1.0017059 0.9980995 1.0015581 0.999723
0.9997726 1.000553 0.99957335 1.0038338 1.0001469 1.0019821 1.002228 0.9999498
0.9984096 1.0006918 1.0004904 1.0017518 1.0033869 0.9988737 0.9995105 1.0029992
1.0053823 0.99980384 0.9969568 0.9995499 0.99838537 1.0011184 1.0004405 1.0033292
0.99804485 1.0016203 0.9999595 1.0000145 0.9984885 1.0011637 0.9988401 0.99955964
0.9982534 1.0006052 0.9992286 0.9994142 1.0035784 1.0000935 0.99480194 1.0014086
0.9998581 0.99939233 1.0068457 1.0021378 1.0095953 1.003651 1.0036232 0.99989843
1.0010312 0.9986233 1.0012549 0.99939334 1.0025026 1.0006937 1.0009863 1.0013841
0.99879366 1.0017673 1.0043787 0.99952734 0.9985085 1.0010566 1.0010865 0.9993031
1.0006826 1.0005574 1.0029315 1.0008372 0.9991118 1.0018001 0.99959147 1.0005788
0.99634504 0.99976623 0.9998977 1.0000445 1.0025898 1.0001565 0.9995033 1.00551
0.9983102 1.0008215 0.99942416 0.9996124 1.003713 0.9982403 1.0013325 1.0002539
1.0008355 1.0022905 1.0001098 0.99960876 0.9996397 0.9982321 1.002151 0.99897194
0.9991856 1.0004259 1.0003059 1.0043863 1.000836 1.001723 1.0009483 1.0012426
1.0019568 0.9986873 1.0009937 1.0023345 0.99776465 0.99650913 1.0006881 0.99773145
1.0008405 1.0000135 0.99609387 0.9989188 1.000788 1.0054963 0.998601 0.9972754
1.0000169 1.0040213 1.0050093 1.0004132 1.0017312 1.001622 0.9995092 1.0003704
1.0000529 0.99867105 1.0000669 0.9986968 1.000062 1.0019779 1.0001312 1.006919
0.99986666 1.0013659 1.0010989 1.0014052 0.9983932 1.0004102 1.0001866 0.9997612
0.99955356 0.99895704 0.99980384 1.0057045 0.9985523 1.0029808 1.0055047 0.9973938
1.0004584 1.005761 0.99795544 1.0003998 0.99814683 1.0014662 1.0077596 0.9974037
1.0000948 0.9995592 1.0013665 0.9999811 1.0012872 1.0009471 0.99756974 1.0002741
0.99638176 0.99874383 1.0016673 1.000084 1.0010593 0.9959793 1.0049219 0.9977047
00000000: 4e38 803f 8396 7f3f 9045 7f3f fe53 803f
00000010: 7339 803f 6c03 803f 59e2 7f3f 37da 7f3f
00000020: fcc3 7f3f 27d4 7f3f 56cc 7f3f 7771 7f3f
00000030: b89b 803f 01b5 803f d71b 803f 5621 803f
00000040: a8f9 7e3f cb2a 803f e70e 803f fb3b 803f
00000050: 1607 803f 937c 7f3f 8774 7f3f 0c32 803f
00000060: 640d 803f 4902 803f d5c0 7f3f d644 803f
00000070: e731 803f 2d0c 803f 8d4c 803f 256c 803f
00000080: 7304 803f f3af 803f 8fde 7f3f e0e2 7f3f
00000090: e7e1 803f 3d2e 803f 6dba 7f3f 0c16 803f
000000a0: 859e 803f a8e3 7f3f 65eb 7f3f 751f 803f
000000b0: e5eb 7f3f 2115 7f3f af28 803f b079 7f3f
000000c0: 7c56 803f d935 803f 5552 803f cf02 803f
000000d0: eb40 7f3f ddae 7f3f 1a18 803f f260 7f3f
000000e0: 841e 803f 5d58 803f 2e42 803f f7b6 7f3f
000000f0: 0988 7f3f ff28 803f 3458 803f 624b 803f
00000100: b1a3 7f3f 39fc 7f3f adf0 7f3f 932b 803f
00000110: 52f4 7f3f 22cf 7f3f 7b92 7f3f 86f1 7f3f
00000120: d501 803f e40a 803f d8e6 7f3f 7c05 803f
00000130: e637 803f 7383 7f3f 0e33 803f d9ed 7f3f
00000140: 19f1 7f3f 1f12 803f 0ae4 7f3f a07d 803f
00000150: d004 803f f340 803f 0249 803f b6fc 7f3f
00000160: c697 7f3f ab16 803f 1210 803f 6739 803f
00000170: fb6e 803f 30b6 7f3f ecdf 7f3f 4762 803f
00000180: 5eb0 803f 25f3 7f3f 9038 7f3f 81e2 7f3f
00000190: 2f96 7f3f a624 803f 6f0e 803f 176d 803f
000001a0: de7f 7f3f 1835 803f 59fd 7f3f 7a00 803f
000001b0: f19c 7f3f 2226 803f fcb3 7f3f 24e3 7f3f
000001c0: 898d 7f3f d513 803f 72cd 7f3f 9cd9 7f3f
000001d0: 4275 803f 1003 803f 57ab 7e3f 282e 803f
000001e0: b3f6 7f3f 2dd8 7f3f 52e0 803f 0d46 803f
000001f0: 6b3a 813f a377 803f ba76 803f 58f9 7f3f
00000200: ca21 803f c7a5 7f3f 1f29 803f 3ed8 7f3f
00000210: 0152 803f bb16 803f 5220 803f 5b2d 803f
00000220: f1b0 7f3f e939 803f 7b8f 803f 06e1 7f3f
00000230: 419e 7f3f 9f22 803f 9a23 803f 54d2 7f3f
00000240: 5e16 803f 4412 803f 0f60 803f 6f1b 803f
00000250: cac5 7f3f fc3a 803f 3ae5 7f3f f712 803f
00000260: 7810 7f3f aef0 7f3f 4cf9 7f3f 7501 803f
00000270: dd54 803f 2105 803f 73df 7f3f 8db4 803f
00000280: 4291 7f3f eb1a 803f 43da 7f3f 99e6 7f3f
00000290: ab79 803f ad8c 7f3f aa2b 803f 5208 803f
000002a0: 611b 803f 0e4b 803f 9903 803f 5ce6 7f3f
000002b0: 63e8 7f3f 248c 7f3f 7c46 803f a0bc 7f3f
000002c0: a1ca 7f3f f50d 803f 060a 803f bb8f 803f
000002d0: 651b 803f 7638 803f 131f 803f b828 803f
000002e0: 1f40 803f f9a9 7f3f 9020 803f 7f4c 803f
000002f0: 816d 7f3f 391b 7f3f 8c16 803f 546b 7f3f
00000300: 8b1b 803f 7100 803f 0200 7f3f 24b9 7f3f
00000310: d219 803f 1ab4 803f 51a4 7f3f 714d 7f3f
00000320: 8e00 803f c583 803f 25a4 803f 8a0d 803f
00000330: ba38 803f 2635 803f d6df 7f3f 230c 803f
00000340: bc01 803f e8a8 7f3f 3102 803f 98aa 7f3f
00000350: 0802 803f d040 803f 4d04 803f b9e2 803f
00000360: 43f7 7f3f c22c 803f 0224 803f 0c2e 803f
00000370: b296 7f3f 710d 803f 1d06 803f 5af0 7f3f
00000380: bee2 7f3f a6bb 7f3f 25f3 7f3f edba 803f
00000390: 20a1 7f3f ad61 803f 61b4 803f 3355 7f3f
000003a0: 050f 803f c7bc 803f 027a 7f3f 1a0d 803f
000003b0: 8d86 7f3f 0b30 803f 44fe 803f d955 7f3f
000003c0: 1b03 803f 1de3 7f3f c72c 803f c3fe 7f3f
000003d0: 2e2a 803f 091f 803f bb60 7f3f fb08 803f
000003e0: e012 7f3f adad 7f3f a236 803f c102 803f
000003f0: b622 803f 80f8 7e3f 48a1 803f 9369 7f3f

model.0.bias f4 [1024]
-0.0014329703 -0.0033126841 -0.00043823154 0.0011281017 0.0026484786 0.00035571927 -0.0006134112 0.00027084048
0.00036250806 -0.0016298986 -0.0036016596 0.0012333927 -0.0017983858 -0.004412977 -0.002954774 -0.0013181057
-0.00163023 0.0034789168 -0.0021921832 0.00013334396 -0.0018718251 -0.0025566341 -0.003329831 -0.0027529215
-0.0041355384 0.0012049701 0.004379249 0.0037847147 -0.004205861 0.0035645177 0.0019593486 0.0013832763
-0.00076312025 -0.0011676017 -0.0006618612 -0.0017168325 0.0010848539 -0.0010391666 -0.0004385218 0.002084865
0.0011753371 -0.0036586805 0.0017068585 0.0017452249 -0.0019556417 -0.00091445394 -0.0035404256 -0.0007126822
-0.0048024487 -0.0007075411 -0.004861609 -0.0043693953 -0.00038630082 0.0022105977 -0.004469867 -0.0032760266
0.0017578036 -0.007640846 -0.0013242482 -0.0016877472 -0.004298723 0.0020299728 0.004121506 -0.0010180393
-0.00040436443 -0.0035507418 0.0021515575 -0.0008556437 -0.0004365408 -0.005227904 -0.0021913017 0.0017023403
-0.00021982075 -0.0011517337 0.0066658743 0.0018700403 0.00066694146 0.0048373276 -0.0023328015 -0.0008665902
-0.0023812877 0.0032028367 0.0016089517 -0.0016239245 -0.0019734276 -0.0014867407 0.0013513303 -0.003328402
-0.002041226 0.0013936932 -0.0038241914 -0.0022616326 -0.0014273186 0.0043127406 -0.0010338055 -0.0050076423
-0.0006283554 -0.0017750659 0.0012776199 0.0005905692 -0.0024727087 -0.0031699205 0.0005559005 0.0023548447
-0.0036475006 0.0017162148 0.0019355963 -0.0025648635 0.00012398647 -0.0012629074 0.0026355493 -0.0028726598
0.0025243417 -0.0021292726 -0.0021051732 0.0021577124 0.001122978 -0.0016569617 0.0003396456 0.00397164
-0.0010401051 0.0025709567 -0.0018175853 -0.0011209856 -0.0030802607 0.00013394064 0.0018745665 -0.0015961959
-0.0022389907 0.0008384166 -0.000739856 -0.00090342213 -0.0009324097 -0.0003894448 0.0005871465 -0.0020988283
-0.0028347003 -0.0019756185 0.0033596596 0.0006472001 -0.0037064988 -0.00072341977 -0.0018109964 -0.0023549662
0.0045682555 -0.004663434 0.0018511699 0.0030958792 0.0017444756 0.0006611442 0.0019316098 0.0022849652
-0.0038991375 -9.197717e-05 0.0019343669 -0.0028350882 -0.00103601 0.0016919532 0.00019175414 -0.0025530788
0.005617696 -0.0005158397 -0.005660088 0.0015923859 -0.002175571 -0.0022852467 -0.0004580762 -0.0022783447
0.002196116 0.0032213288 -0.000410812 -0.001122293 -0.0068611205 0.0015537508 0.0014447025 -0.0013821535
0.0055785547 0.0021714717 -0.0017717964 0.00059116556 -0.0030768418 -0.003781369 0.0023654527 0.0015302004
-0.0014387401 -0.0007702689 -0.0003401381 -0.0009552899 0.004460083 -0.0018561189 -0.0048178383 0.001375884
-0.005244055 0.00051167817 0.00207806 0.0012430197 -0.0007459977 0.0018104595 2.6765816e-05 -0.0011244117
-0.0012122986 -0.004706709 0.00019503885 0.0031182794 0.0012907287 0.0027478274 0.003993849 0.0017797718
0.00018253487 0.002827884 9.052652e-05 0.0031511628 0.0037735682 -0.0035218196 -0.0007984051 -0.001049993
-0.00060651917 0.0042198487 -0.0001879937 -0.002037644 -0.004229044 -0.000449448 -0.0024649447 -0.0020782964
0.0006474547 -0.000117074786 0.0002839515 0.0016746885 0.0016289849 0.0037684492 -0.00336048 -0.0028288225
0.001969911 0.00025865546 -0.00080186693 -0.00039850659 0.0031787474 -0.0031513483 -0.0028004847 0.0018226573
-0.004738794 -0.00013221332 -0.0039481907 0.0025315545 -0.000630021 -0.00027161834 -0.006079335 -0.0037178805
0.001822289 0.0021446992 -0.0022727821 0.0004998081 0.0027681561 -0.003469379 0.0048525245 0.0004768519
00000000: 81d2 bbba 9e19 59bb 71c2 e5b9 d0dc 933a
00000010: 1992 2d3b d57f ba39 54cd 20ba 98ff 8d39
00000020: 020f be39 52a2 d5ba d209 6cbb cba9 a13a
00000030: d0b7 ebba bc9a 90bb e2a4 41bb 4ac4 acba
00000040: 71ad d5ba 8afe 633b bbaa 0fbb 3fd2 0b39
00000050: 0758 f5ba 348d 27bb 4b39 5abb 5c6a 34bb
00000060: 6983 87bb 16f0 9d3a ce7f 8f3b fa08 783b
00000070: 52d1 89bb af9a 693b 6a68 003b 0d4f b53a
00000080: 220c 48ba 360a 99ba c180 2dba 5707 e1ba
00000090: a831 8e3a a534 88ba 66e9 e5b9 3ba2 083b
000000a0: c50d 9a3a 79c6 6fbb abb8 df3a 08c0 e43a
000000b0: 392a 00bb f7b7 6fba 7c06 68bb 4bd3 3aba
000000c0: dc5d 9dbb 487a 39ba 224e 9fbb 252d 8fbb
000000d0: 6b88 cab9 addf 103b f677 92bb 9bb2 56bb
000000e0: 1a66 e63a 1060 fabb 6592 adba 6637 ddba
000000f0: 4ddc 8cbb 4b09 053b b30d 873b bb6f 85ba
00000100: e000 d4b9 90b3 68bb 2501 0d3b 474d 60ba
00000110: 84df e4b9 d64e abbb f19b 0fbb 1021 df3a
00000120: af7f 66b9 c5f5 96ba 686d da3b 241c f53a
00000130: afd5 2e3a 7282 9e3b eae1 18bb e22b 63ba
00000140: 610f 1cbb afe6 513b 76e3 d23a ddd9 d4ba
00000150: 9f54 01bb bdde c2ba 1f1f b13a 5221 5abb
00000160: 17c6 05bb 95ac b63a 499f 7abb e637 14bb
00000170: dd14 bbba e451 8d3b c280 87ba 2617 a4bb
00000180: 38b8 24ba 54a9 e8ba cf75 a73a 6ed0 1a3a
00000190: 2b0d 22bb 71be 4fbb dab9 113a bd53 1a3b
000001a0: e80a 6fbb 9df2 e03a d6b3 fd3a 4517 28bb
000001b0: 5d02 0239 2488 a5ba 2eb9 2c3b 3c43 3cbb
000001c0: 6d6f 253b 448b 0bbb f2f6 09bb 6868 0d3b
000001d0: e430 933a 692e d9ba 7612 b239 8824 823b
000001e0: 2354 88ba 7f7d 283b 0b3c eeba 09ee 92ba
000001f0: 33de 49bb 6b72 0c39 04b4 f53a 7237 d1ba
00000200: 08bc 12bb 30c9 5b3a e5f2 41ba a2d3 6cba
00000210: f56c 74ba 652e ccb9 bcea 193a 7f8c 09bb
00000220: 61c6 39bb 6179 01bb bc2d 5c3b dda8 293a
00000230: bbe8 72bb e1a3 3dba f55e edba c755 1abb
00000240: 4eb1 953b b8cf 98bb f4a2 f23a 3ce4 4a3b
00000250: e3a6 e43a a350 2d3a 122e fd3a 5bbf 153b
00000260: ac88 7fbb dee3 c0b8 958a fd3a e3cc 39bb
00000270: baca 87ba 87c4 dd3a 9c11 4939 8e51 27bb
00000280: a614 b83b 6b39 07ba 4278 b9bb 9bb7 d03a
00000290: 0694 0ebb 14c4 15bb f229 f0b9 4850 15bb
000002a0: b6ec 0f3b ee1c 533b 4162 d7b9 e719 93ba
000002b0: 40d3 e0bb 3aa7 cb3a 2c5c bd3a 6029 b5ba
000002c0: 4fcc b63b 404f 0e3b 9f3b e8ba 73f8 1a3a
000002d0: d7a4 49bb d8d0 77bb b605 1b3b 0191 c83a
000002e0: 1b94 bcba dfeb 49ba 9054 b2b9 6c6c 7aba
000002f0: e325 923b 0449 f3ba f5de 9dbb 0257 b43a
00000300: 52d6 abbb 2422 063a 1030 083b d2ec a23a
00000310: 0f8f 43ba f14c ed3a 2787 e037 ff60 93ba
00000320: fee5 9eba bd3a 9abb 5883 4c39 0c5c 4c3b
00000330: ab2d a93a e514 343b d5de 823b 3b47 e93a
00000340: d566 3f39 0554 393b 0ed9 bd38 bd83 4e3b
00000350: f84d 773b 54ce 66bb 0f4c 51ba eb9f 89ba
00000360: d0fe 1eba a846 8a3b 2d20 45b9 fe89 05bb
00000370: cb93 8abb e4a3 ebb9 e98a 21bb 0734 08bb
00000380: f3b9 293a 0c86 f5b8 53df 9439 3981 db3a
00000390: aa83 d53a 16f8 763b 803b 5cbb c463 39bb
000003a0: 9f19 013b 269c 8739 6134 52ba a6ee d0b9
000003b0: 8852 503b da86 4ebb 5688 37bb 3be6 ee3a
000003c0: e347 9bbb bea2 0ab9 d35f 81bb 70e8 253b
000003d0: fe27 25ba ff67 8eb9 2935 c7bb afa7 73bb
000003e0: dfd9 ee3a 158e 0c3b f5f2 14bb 8e05 033a
000003f0: f469 353b 855e 63bb ed01 9f3b fb01 fa39

model.0.running_mean f4 [1024]
-0.057623006 -0.016936047 0.007379454 -0.026440427 0.002423 -0.014160017 0.040137637 -0.0049862494
-0.0041880743 0.03303123 -0.011594043 0.0052755955 -0.0040063956 -0.0122216465 0.0046594916 0.010808049
-0.03602124 -0.024970053 -5.61098e-05 0.0077687567 0.015875664 -0.00080089923 0.019242417 0.07161292
0.01910834 0.029302154 -0.024925247 0.011358044 -0.0058848285 -0.011108579 0.025477044 -0.01600192
-0.007520663 0.00981974 -0.0031250105 0.015185879 -0.010512472 0.0067843646 -0.028419355 -0.004829882
0.010184645 0.025358645 -0.0007595206 -0.045760263 -0.0239954 0.0028239319 -2.208582e-05 -0.024164546
-0.012160605 0.08247077 -0.02537648 -0.017607633 -0.018830897 0.009211629 0.009262969 -0.00929844
0.03240195 0.009269866 -0.0062785526 -0.011050849 0.010384344 -0.022318285 -0.012340439 0.022930723
0.0005701707 -0.014452033 0.005092182 0.007058457 0.00051120034 0.0061359173 0.037096288 0.0112172365
-0.016543565 0.04304436 0.02949927 -0.010424617 0.025990305 -0.0178819 0.017212762 -0.017750945
-0.009140315 0.027771141 -0.051171497 0.021255229 -0.01623597 -0.0396783 0.023542587 -0.017646817
0.012023461 0.022296371 -0.022638584 -0.0057387766 -0.011865977 0.01322547 0.012403693 0.019740101
0.009345196 0.057715133 -0.0082883295 0.023380138 0.013908487 0.025816195 -0.002110459 0.011695586
0.075196035 0.0163473 0.0027001447 -0.022838712 -0.030470937 0.050135568 -0.011059315 0.0021445013
0.065443985 -0.003941072 -0.005211001 0.01768725 -0.0018698169 -0.0064370693 0.00030511964 -0.0064374655
-0.021443658 -0.008484385 -0.015864305 -0.012984434 -0.049467966 -0.021793643 -0.010566936 -0.020425294
0.0210145 -0.019883733 -0.06429018 -0.013918479 0.01636536 -0.004084679 -0.00046644566 -0.027928213
0.042673517 0.022353826 -0.0027054432 -0.022104545 0.0033553604 -0.04180664 -0.010658605 -0.0064194594
-0.002989268 -0.00926793 0.044360843 -0.022783471 -0.032950033 0.0012957776 -0.008646451 0.00011950265
0.0066941483 -9.664605e-05 0.015851773 0.02647567 0.027687583 -0.008407211 -0.0048241047 0.0071891635
0.0018711714 0.027639812 0.0157421 0.0042825346 -0.005183033 -0.00513933 -0.05590314 -0.006997169
-0.037826035 0.026100866 0.028691124 0.030744258 0.025369205 -0.0075917114 0.022276541 0.010926066
-0.011945119 -0.0129215615 -0.018057462 -0.0021300006 -0.031785224 -0.015579518 -0.0059558945 0.010976819
-0.011366291 0.02486756 0.047177896 -0.01590565 -0.015834138 -0.03287688 0.03710625 0.011647828
0.013728665 0.032113258 0.01166152 0.011652836 -0.009704464 -0.0040140254 0.020141117 0.031814124
0.0062115896 -0.012642403 0.0018391021 -0.025312247 -0.024394935 0.009072642 -0.012510983 -0.013362456
0.01756888 -0.008801357 -0.032870587 -0.022013767 0.014041071 0.025275556 0.006827858 -0.015095788
0.012362973 0.027323605 -0.0075393473 -0.0070369933 0.009502599 -0.018941386 -0.049408052 -0.02197765
0.02159056 0.013756464 0.0035017082 -0.019737203 0.002147064 -0.019843373 -0.008920425 -0.032395
-0.004842243 -0.029393258 -0.011491338 -0.018218389 -0.03029256 0.034891874 0.02107185 -0.017124536
0.03266847 -0.0014591626 -0.0060939337 0.024691463 -0.02306752 0.0003679316 0.011725845 0.022019973
0.0004610284 0.026899142 -0.01740997 0.02436309 0.019371789 0.0014568997 0.015574366 0.02249752
00000000: 1a06 6cbd 77bd 8abc 59cf f13b 9899 d8bc
00000010: 32cb 1e3b 6aff 67bc 5d67 243d b163 a3bb
00000020: 1d3c 89bb c14b 073d f1f4 3dbc e7de ac3b
00000030: 1548 83bb 4d3d 48bc a6ae 983b 3e14 313c
00000040: 028b 13bd ff8d ccbc 7057 6bb8 0e91 fe3b
00000050: ae0d 823c 70f3 51ba 46a2 9d3c cba9 923d
00000060: 1889 9c3c 120b f03c 0830 ccbc 1717 3a3c
00000070: 85d5 c0bb c200 36bc 3cb5 d03c 7516 83bc
00000080: e56f f6bb fae2 203c facc 4cbb 31ce 783c
00000090: 813c 2cbc 604f de3b b5cf e8bc fd43 9ebb
000000a0: 7fdd 263c efbc cf3c 911a 47ba 1d6f 3bbd
000000b0: 0092 c4bc b711 393b f044 b9b7 baf4 c5bc
000000c0: 463d 47bc 6fe6 a83d 56e2 cfbc e23d 90bc
000000d0: 4143 9abc 5fec 163c b5c3 173c 7c58 18bc
000000e0: e8b7 043d a3e0 173c 51bc cdbb 9f0e 35bc
000000f0: 1823 2a3c d6d4 b6bc 8d2f 4abc 36d9 bb3c
00000100: 8277 153a 38c8 6cbc 52dc a63b a14a e73b
00000110: 1302 063a ce0f c93b 47f2 173d 80c8 373c
00000120: 5f86 87bc 484f 303d 74a8 f13c 03cc 2abc
00000130: 9fe9 d43c 107d 92bc c701 8d3c 6e6a 91bc
00000140: 43c1 15bc 4e80 e33c 3499 51bd 721f ae3c
00000150: 4c01 85bc b785 22bd 62dc c03c 0f90 90bc
00000160: 0dfe 443c e1a6 b63c 8d74 b9bc 590c bcbb
00000170: 8469 42bc a4af 583c dc38 4b3c feb5 a13c
00000180: 981c 193c b466 6c3d c6cb 07bc b487 bf3c
00000190: 6ce0 633c 7c7c d33c a04f 0abb d89e 3f3c
000001a0: 6100 9a3d c6ea 853c e9f4 303b 4018 bbbc
000001b0: 309e f9bc f45a 4d3d 2132 35bc c38a 0c3b
000001c0: 7f07 863d 1c24 81bb 0bc1 aabb dae4 903c
000001d0: a514 f5ba 0dee d2bb 77f8 9f39 60f1 d2bb
000001e0: 9caa afbc 1702 0bbc dcf5 81bc aabc 54bc
000001f0: ec9e 4abd 9588 b2bc f120 2dbc f252 a7bc
00000200: 9a26 ac3c 36e3 a2bc 92aa 83bd 550a 64bc
00000210: a610 863c c5d8 85bb 478d f4b9 b5c9 e4bc
00000220: 6dca 2e3d 5f1f b73c ce4d 31bb 9714 b5bc
00000230: 9be5 5b3b 703d 2bbd 6ea1 2ebc 545a d2bb
00000240: 98e7 43bb 84d8 17bc b7b3 353d 67a4 babc
00000250: 9df6 06bd 15d7 a93a d8a9 0dbc 7f9d fa38
00000260: 965a db3b 74ae cab8 94db 813c 81e3 d83c
00000270: 12d1 e23c 66be 09bc 8613 9ebb 1393 eb3b
00000280: 1842 f53a e36c e23c 94f5 803c 8154 8c3b
00000290: 6fd6 a9bb d367 a8bb b1fa 64bd 8248 e5bb
000002a0: 79ef 1abd 7cd1 d53c a609 eb3c 62db fb3c
000002b0: 14d3 cf3c e4c3 f8bb 4b7d b63c 3e03 333c
000002c0: 76b5 43bc f5b4 53bc 3eed 93bc 7b97 0bbb
000002d0: 3931 02bd 3c41 7fbc aa29 c3bb 1ed8 333c
000002e0: ae39 3abc 0eb7 cb3c 9c3d 413d 914c 82bc
000002f0: 98b6 81bc e8a9 06bd b9fc 173d 88d6 3e3c
00000300: 32ee 603c 3189 033d f60f 3f3c 89eb 3e3c
00000310: 79ff 1ebc 1688 83bb fcfe a43c 874f 023d
00000320: 978a cb3b 1522 4fbc 070e f13a a15b cfbc
00000330: e3d7 c7bc 6ba5 143c defa 4cbc 34ee 5abc
00000340: 9dec 8f3c 9133 10bc 4fa3 06bd 3756 b4bc
00000350: 850c 663c af0e cf3c 39bc df3b 5354 77bc
00000360: 118e 4a3c c1d5 df3c a10c f7bb 9496 e6bb
00000370: cab0 1b3c f72a 9bbc 1960 4abd 790a b4bc
00000380: b0de b03c cb62 613c ea7c 653b eaaf a1bc
00000390: c2b5 0c3b 928e a2bc f926 12bc 9fb0 04bd
000003a0: aeab 9ebb 21ca f0bc 2a46 3cbc bb3e 95bc
000003b0: 1a28 f8bc c8ea 0e3d df9e ac3c c148 8cbc
000003c0: 60cf 053d 5f41 bfba 9faf c7bb c045 ca3c
000003d0: 18f8 bcbc f2e6 c039 c21d 403c 3b63 b43c
000003e0: 2fb6 f139 975b dc3c 5a9f 8ebc 1a95 c73c
000003f0: 96b1 9e3c 71f5 be3a a02b 7f3c b84c b83c

model.0.running_var f4 [1024]
0.00014929754 0.00015838085 0.00014324092 0.00013204463 0.0001584079 0.00017273375 0.00016458696 0.00012138019
0.00011731518 0.00016438548 0.0001801133 0.00018143798 0.0001777098 0.00012938624 0.00015716998 0.00012629789
0.000108726446 0.00015599112 0.00020723903 0.00015474974 0.00016292775 0.00015179618 0.00013200374 0.00019773327
0.00012569055 0.00014986185 0.00017815965 0.00012295766 0.00015869181 0.00037401964 0.00024787366 0.00018264189
0.00019472292 0.00012065184 0.00018741241 0.00020054863 0.00012327198 8.427982e-05 0.00012966731 0.00026191096
0.00026344493 0.00018159953 0.00017644113 0.00013539325 0.00019043777 0.00022298531 0.00024275262 0.00020545787
0.0001339628 0.0003639011 0.00024560041 0.0002481986 0.00017939319 0.00020733976 0.0001348097 0.00013002154
0.00023842021 9.7877535e-05 0.00013322035 0.0001431713 0.00020776394 0.00021659827 0.00025271546 0.00018364625
0.00013601268 0.00010452686 0.00020396424 0.00014799932 0.00013389511 0.00016922229 0.00021757375 0.0002105045
0.00020433422 0.00018836255 0.00018383074 0.00020611836 0.00010633192 0.00018918088 0.0001615227 0.00019954334
0.00019801332 0.000110882465 0.00020497346 0.00014198509 0.0001244261 0.00031532938 0.00016958709 0.00024385341
0.000121953024 0.00024916485 0.00038358045 0.00019445144 0.00013219292 0.00021658566 0.00017091389 0.00017906897
0.00016330909 0.00016072845 0.00017922067 0.000324692 0.0001537352 0.00013113942 0.00020928745 0.00011877596
0.0006561321 0.00017201477 0.00018923036 0.0002417672 0.00015813847 0.00016298858 0.00017312252 0.00012120411
0.00017675143 0.0002014013 0.0002317738 0.00025450063 0.00011943143 0.0001826823 0.00021100316 0.0003059161
0.00021411398 0.00015425197 0.0001678744 0.00018916251 0.00014945502 0.000106571555 9.7918746e-05 0.00011528441
0.00019632751 0.0002987675 0.00015387908 9.6038646e-05 0.00019953032 0.00012430275 0.000120963705 0.0001855687
0.00024287691 0.00013721656 0.00016082097 0.0001829797 0.0001298196 0.00015845975 0.00015751211 0.00015906374
0.00034539003 0.00023127756 0.00019560657 0.00013778907 0.00027595728 0.00020834617 0.00023865393 0.00016802501
0.00013439525 0.00023136569 0.00011644274 0.00015433195 0.00014883526 0.0001357253 0.0003056477 0.00017497764
0.00015151584 0.0001447231 0.00012151641 0.0001542264 0.00012907431 0.00010101947 0.0005553834 0.00014470216
0.00019985111 0.00018837006 0.00014533875 0.00016481812 0.00017898939 0.000115387425 0.0002544239 0.0002058447
0.000119297016 0.00014096219 0.00011861045 0.0002692886 0.00016789716 0.00023040766 0.000264358 0.00019006593
0.0001610319 0.00014155138 0.0002218228 0.000159119 0.00017111636 0.0001606111 0.0002753719 0.00017951628
0.00022925154 0.00014654342 0.00014810737 0.00022584014 0.00019233348 0.00016736747 0.00018093076 0.00017411308
0.00014809734 0.00016541104 0.00018932189 0.00013393797 0.00014346433 0.00016040077 0.0001474818 0.00014123655
0.00014346313 0.00015021743 0.00018002151 0.0001380931 0.00013051672 0.00017640993 0.00055523496 0.00010384678
0.0001208489 0.00013814193 0.0001013263 0.00020352722 0.00014734104 0.00014686238 0.00014288942 0.0001973759
0.00019884646 0.00015080838 0.00011044849 0.000101887344 0.00011215104 0.00014436406 0.00013972278 0.00038663083
0.00016503138 0.00020460281 0.000104831575 0.00011258578 0.00017782065 0.00014483549 0.00015123299 0.00012116221
0.00013173276 0.00014166956 0.00019511579 0.00020483205 0.00022208388 0.0004827534 0.00013707056 0.00012089933
0.00016299875 0.00012238497 0.0001691648 0.00014010145 0.00017764623 0.0001077243 0.0001528859 0.00013632153
00000000: c18c 1c39 0913 2639 f132 1639 7675 0a39
00000010: 4c1a 2639 dd1f 3539 fa94 2c39 7e8d fe38
00000020: 1c07 f638 e45e 2c39 ccdc 3c39 6340 3e39
00000030: 9c57 3a39 dbab 0739 ffcd 2439 d56e 0439
00000040: 1104 e438 8c91 2339 4e4e 5939 5144 2239
00000050: 96d7 2a39 7a2b 1f39 7c6a 0a39 9f56 4f39
00000060: cdcb 0339 3c24 1d39 5ed0 3a39 32ee 0039
00000070: 8266 2639 1118 c439 0af5 8139 8f83 3f39
00000080: 892e 4c39 7706 fd38 2384 4439 5d4a 5239
00000090: 9242 0139 62bf b038 4ef7 0739 1851 8939
000000a0: fb1e 8a39 c16b 3e39 0e03 3939 59f8 0d39
000000b0: 40b0 4739 2ad1 6939 698b 7e39 2d70 5739
000000c0: 5e78 0c39 fbc9 be39 eec3 8039 a720 8239
000000d0: 7e1b 3c39 5869 5939 b45b 0d39 6456 0839
000000e0: 7000 7a39 9a43 cd38 11b1 0b39 4120 1639
000000f0: 35db 5939 a81e 6339 e57e 8439 2a91 4039
00000100: a09e 0e39 6e35 db38 3cdf 5539 4430 1b39
00000110: 3266 0c39 4371 3139 8224 6439 dfba 5c39
00000120: 8d42 5639 3083 4539 b0c2 4039 7a21 5839
00000130: 84fe de38 db5e 4639 6b5e 2939 823c 5139
00000140: cca1 4f39 9289 e838 25ee 5639 d5e1 1439
00000150: 6078 0239 cb52 a539 30d3 3139 e7b2 7f39
00000160: 08c1 ff38 57a2 8239 4c1b c939 a9e5 4b39
00000170: 449d 0a39 451b 6339 5937 3339 76c4 3b39
00000180: f33d 2b39 3789 2839 2fed 3b39 6c3b aa39
00000190: fa33 2139 7882 0939 2c74 5b39 5c17 f938
000001a0: 4800 2c3a dd5e 3439 236c 4639 e382 7d39
000001b0: f9d1 2539 eae7 2a39 3988 3539 f62e fe38
000001c0: 5a56 3939 402f 5339 4e08 7339 7f6e 8539
000001d0: 4377 fa38 688e 3f39 bb40 5d39 5d63 a039
000001e0: c983 6039 b3be 2139 7107 3039 ed59 4639
000001f0: 07b7 1c39 2b7f df38 ba59 cd38 d9c4 f138
00000200: 44dd 4d39 e5a3 9c39 9a5a 2139 5b68 c938
00000210: 0339 5139 4457 0239 e5ad fd38 3895 4239
00000220: c6ac 7e39 cae1 0f39 0da2 2839 3dde 3f39
00000230: 2f20 0839 3728 2639 d629 2539 59ca 2639
00000240: 7715 b539 1983 7239 bd1b 4d39 797b 1039
00000250: 5cae 9039 8077 5a39 2d3f 7a39 df2f 3039
00000260: 73ec 0c39 c19a 7239 b832 f438 2bd4 2139
00000270: a910 1c39 7c51 0e39 573f a039 347a 3739
00000280: 39e0 1e39 d0c0 1739 a0d6 fe38 d6b7 2139
00000290: 1f58 0739 6ada d338 2697 113a 31bb 1739
000002a0: 208f 5139 3485 4539 1366 1839 07d3 2c39
000002b0: 19af 3b39 27fc f138 3364 8539 04d8 5739
000002c0: 192f fa38 40cf 1339 80be f838 4e2f 8d39
000002d0: 8d0d 3039 9699 7139 8899 8a39 6f4c 4739
000002e0: acda 2839 696d 1439 1b99 6839 2ed9 2639
000002f0: b36d 3339 b769 2839 ca5f 9039 893c 3c39
00000300: 3e63 7039 73a9 1939 454d 1b39 80cf 6c39
00000310: 20ad 4939 5d7f 2f39 3bb8 3d39 2092 3639
00000320: 944a 1b39 3072 2d39 b584 4639 b371 0c39
00000330: ea6e 1639 4131 2839 58a5 1a39 e618 1439
00000340: 976e 1639 af83 1d39 28c4 3c39 16cd 1039
00000350: 51db 0839 aefa 3839 308d 113a 51c8 d938
00000360: 4270 fd38 31da 1039 257f d438 ec69 5539
00000370: 8f7f 1a39 12ff 1939 96d4 1539 b1f6 4e39
00000380: 7181 5039 5122 1e39 95a0 e738 5aac d538
00000390: a232 eb38 6f60 1739 8c82 1239 b6b4 ca39
000003a0: 460c 2d39 a68a 5639 06d9 db38 081c ec38
000003b0: 5e75 3a39 fbde 1739 4c94 1e39 7718 fe38
000003c0: be21 0a39 228d 1439 ff97 4c39 2fc8 5639
000003d0: 30df 6839 111a fd39 99ba 0f39 558b fd38
000003e0: a5ea 2a39 7754 0039 d561 3139 32e8 1239
000003f0: 8c46 3a39 0bea e138 ff4f 2039 88f1 0e39

model.1.weight f4 [32, 1024]
-0.00627697 0.011985502 -0.014138916 0.0151897 0.029172648 -0.019962592 0.027325345 0.0053917523
0.02262872 0.003946209 0.016851807 0.0015161933 0.028690984 0.0064201276 -0.0113823665 0.009302449
-0.010819065 -0.005133068 -0.014843635 0.01965983 -0.022471182 -0.0093151685 -0.012397773 -0.017071873
0.0030888089 -0.029056303 0.022168167 -0.029498195 0.024691176 0.003582592 -0.0106978305 0.022585256
0.0051029087 0.030459993 0.0034346469 -0.012480348 0.01483549 -0.012272244 0.0149223255 0.026954893
0.021043207 -0.013046238 0.01779158 0.006831205 0.0137168905 -0.018829022 -0.03345602 -0.010371642
-0.022121912 0.028673481 0.008257159 0.012641299 0.013480625 -0.0008553935 0.026786534 -0.019615788
0.0042487658 -0.01988868 0.012929243 -0.009044885 0.010497504 -0.0031766426 0.026408393 -0.019804576
-0.014716806 -0.021359602 0.025746893 0.007948588 0.030472277 -0.022993121 -0.028813297 -0.022767488
-0.02152579 0.01133669 0.017632782 0.024157954 -0.0134512745 -0.019350909 0.016329778 -0.0144687705
0.018084921 -0.0078096227 0.021087538 -0.02578799 -0.0140398145 0.0050017056 0.00672463 -0.004874391
0.011996497 0.021321183 -0.023817208 -0.016274752 0.030830035 -0.009769409 -0.007136313 -0.03362728
-0.01640588 0.0107855005 -0.0011794263 -0.021181766 -0.0016394126 -0.016851386 -0.028600505 -0.018152231
-0.024914866 -0.02205305 0.032488704 0.006492438 0.0059066005 -0.0324253 -0.022058897 -0.013725324
0.0056051672 -0.028916748 -0.012739457 -0.0179557 0.004068703 -0.014955765 -0.0002631188 -0.021261292
-0.018772587 -0.01725852 -0.014425113 -0.023617238 0.0337025 -0.010242355 0.03165155 0.01099094
-0.028616264 0.025086641 -0.008003012 -0.018088028 -0.025372779 -0.027752157 0.0100171175 -0.0035580776
0.01180033 -0.028002677 0.02208061 -0.023241686 -0.0044056866 0.0052925264 0.015043301 0.024402924
0.029231198 -0.024842778 0.0092701 -0.015847081 -0.0015731112 -0.02396035 0.029535426 -0.02436903
0.014623445 0.010363744 0.012219084 -0.018405 0.027216073 0.005400306 0.0060981927 -0.027246593
0.012921279 -0.005155799 -0.015117618 0.025461039 0.0073996526 -0.017456943 -0.016740479 0.00022899143
0.017874168 -0.010018406 -0.01690984 -0.0065957955 -0.022002442 0.012242369 0.022601645 -0.02945417
0.009548147 0.014404897 0.0069253184 -0.011604677 0.014290851 0.018641358 0.011858996 -0.0014883842
-0.0020276704 0.0019520039 -0.0051039564 -0.0075670406 0.017191915 0.026364429 -0.0017751445 -0.00727651
0.003991637 -0.00041143503 0.0033244747 0.012810268 -0.029967971 -0.016066972 0.025920916 0.01204238
-0.007351803 -0.012842979 -0.023094589 -0.03009539 -0.007956674 0.010042979 0.014531893 0.014424964
-0.02913744 -0.0213093 -0.009457136 0.030806972 0.005350352 -0.00956313 0.015092049 -0.016509764
-0.018566787 0.026201995 -0.015092182 -0.004601771 -0.028007055 0.021776188 0.025658451 0.013697224
-0.023752403 -0.03045651 -0.02548403 0.024439998 0.016111946 0.025591027 0.020916902 0.0062753335
-0.0018540812 -0.02911263 -0.024633957 -0.028318284 0.013186629 -0.015660904 -0.0013857845 -0.022856258
-0.0042946204 -0.020623617 -0.019599296 0.01103716 -0.010677546 0.01935846 -0.014183306 -0.022634596
-0.004049898 -0.013602901 -0.008180918 -0.026184825 0.016212044 -0.021568777 0.01591234 0.012579971
00000000: 0aaf cdbb d75e 443c e9a6 67bc 38de 783c
00000010: 7afb ee3c 9788 a3bc 67d9 df3c 4cad b03b
00000020: de5f b93c 334f 813b cd0c 8a3c 01bb c63a
00000030: 5b09 eb3c ef5f d23b 1b7d 3abc 4d69 183c
00000040: 7342 31bc 4c33 a8bb b832 73bc a70d a13c
00000050: 7c15 b8bc a69e 18bc 0720 4bbc 50da 8bbc
00000060: 9d6d 4a3b 7c07 eebc 049a b53c 33a6 f1bc
00000070: 2645 ca3c ebc9 6a3b f445 2fbc b704 b93c
00000080: 4d36 a73b 3c87 f93c d017 613b 607a 4cbc
00000090: 8e10 733c 8611 49bc c57c 743c 82d0 dc3c
000000a0: ce62 ac3c e3bf 55bc a6bf 913c 4dd8 df3b
000000b0: cfbc 603c 523f 9abc 2e09 09bd d2ed 29bc
000000c0: 0339 b5bc a6e4 ea3c 0949 073c 731d 4f3c
000000d0: d7dd 5c3c 7c3c 60ba 6f6f db3c 4ab1 a0bc
000000e0: 3b39 8b3b 96ed a2bc 2dd5 533c ff30 14bc
000000f0: b9fd 2b3c 382f 50bb 6a56 d83c 353d a2bc
00000100: c21e 71bc 55fa aebc 26eb d23c cb3a 023c
00000110: ffa0 f93c 125c bcbc dd09 ecbc e282 babc
00000120: db56 b0bc 86bd 393c a072 903c e7e6 c53c
00000130: bc62 5cbc cc85 9ebc 07c6 853c 6c0e 6dbc
00000140: d426 943c dde7 ffbb c6bf ac3c 5641 d3bc
00000150: 4007 66bc 59e5 a33b 495a dc3b 5bb9 9fbb
00000160: f58c 443c c3a9 ae3c 4e1c c3bc a152 85bc
00000170: 458f fc3c df0f 20bc bbd7 e9bb c2bc 09bd
00000180: a065 86bc abb5 303c fb96 9aba 6285 adbc
00000190: 8fe1 d6ba eb0b 8abc 9b4b eabc fdb3 94bc
000001a0: 431a ccbc 99a8 b4bc e012 053d 84be d43b
000001b0: 288c c13b 64d0 04bd dcb4 b4bc 2ee0 60bc
000001c0: 8dab b73b d1e2 ecbc 28b9 50bc d517 93bc
000001d0: c152 853b 0609 75bc 35f3 89b9 292c aebc
000001e0: f8c8 99bc bd61 8dbc 4f57 6cbc f078 c1bc
000001f0: a20b 0a3d 8dcf 27bc 0ea5 013d 5813 343c
00000200: a86c eabc 8082 cd3c 111f 03bc 582d 94bc
00000210: 93da cfbc 7e58 e3bc d61e 243c a32e 69bb
00000220: 2c56 413c df65 e5bc 65e2 b43c 5965 bebc
00000230: 945d 90bb ee6c ad3b 2d78 763c a4e8 c73c
00000240: 4476 ef3c 1583 cbbc 9ee1 173c bdd1 81bc
00000250: da30 ceba 7f48 c4bc 47f4 f13c 8fa1 c7bc
00000260: 2d97 6f3c b1cc 293c 8e32 483c 15c6 96bc
00000270: 3ef4 de3c 0df5 b03b 59d3 c73b 3f34 dfbc
00000280: c6b3 533c faf1 a8bb e3af 77bc ab93 d03c
00000290: c978 f23b dd01 8fbc 5423 89bc 6b1d 7039
000002a0: d96c 923c 3e24 24bc 8186 8abc 8b21 d8bb
000002b0: 773e b4bc 3894 483c 1627 b93c df49 f1bc
000002c0: d56f 1c3c 8402 6c3c c8ed e23b 8b21 3ebc
000002d0: 2c24 6a3c c3b5 983c 3c4c 423c e315 c3ba
000002e0: aae2 04bb 62da ff3a 173f a7bb f0f4 f7bb
000002f0: 0fd6 8c3c 37fa d73c f7ab e8ba ca6f eebb
00000300: 47cc 823b e0b5 d7b9 6edf 593b 29e2 513c
00000310: 647f f5bc e29e 83bc 1a58 d43c 674d 453c
00000320: 65e7 f0bb 5c6b 52bc dd30 bdbc 9b8a f6bc
00000330: b65c 02bc 4f8b 243c 2d17 6e3c af56 6c3c
00000340: a4b1 eebc d790 aebc 1af2 1abc e75e fc3c
00000350: 0152 af3b adae 1cbc a444 773c 7c3f 87bc
00000360: 6019 98bc 91a5 d63c 3345 77bc 74ca 96bb
00000370: 0d6f e5bc fa63 b23c ac31 d23c 526a 603c
00000380: 6694 c2bc ee7f f9bc e2c3 d0bc 6436 c83c
00000390: 33fd 833c 46a4 d13c ec59 ab3c 50a1 cd3b
000003a0: a404 f3ba 9c7d eebc 27cd c9bc bffb e7bc
000003b0: bb0c 583c 4c4b 80bc 36a3 b5ba 0c3d bbbc
000003c0: e3b9 8cbb dcf2 a8bc b48e a0bc 34d5 343c
000003d0: e0f0 2ebc a295 9e3c 1961 68bc 306c b9bc
000003e0: 02b5 84bb b4de 5ebc 4209 06bc 8f81 d6bc
000003f0: 1fcf 843c 01b1 b0bc 985a 823c 391c 4e3c

model.1.bias f4 [32]
-0.00011162516 0.019108351 -0.022165501 0.0050677974 -0.007725619 -0.0035725462 -0.00016094075 0.032425974
-0.009631969 -0.029703125 -0.015805224 -0.010676542 0.02385937 0.012446728 -0.019801637 0.0029110082
0.014498216 0.0028512462 0.0034258494 -0.02295558 0.0039036672 -0.025816461 -0.006763664 0.010387578
0.011219126 -0.0243294 -0.0011407491 0.019103166 0.029800234 -0.0063619767 0.012002934 0.0033467591
00000000: 4d18 eab8 1e89 9c3c 6d94 b5bc c40f a63b
00000010: 3027 fdbb 6121 6abb 34c2 28b9 19d1 043d
00000020: 68cf 1dbc f853 f3bc f579 81bc aaec 2ebc
00000030: ba74 c33c 5ced 4b3c 0b37 a2bc 9dc6 3e3b
00000040: ed89 6d3c f9db 3a3b 3784 603b 570d bcbc
00000050: abd4 7f3b 0b7d d3bc baa1 ddbb a930 2a3c
00000060: 6dd0 373c 734e c7bc 3085 95ba 3e7e 9c3c
00000070: 9f1f f43c 2178 d0bb f4a7 443c 4d55 5b3b

model.4.weight f4 [64, 32]
-0.116172716 0.014367914 -0.113256656 -0.009958575 -0.13900164 -0.094804965 -0.050846 -0.017806316
-0.14303057 -0.061508086 -0.17544764 -0.13740319 -0.16350369 -0.11609827 -0.013064334 0.11404583
0.00867292 -0.16788888 0.14667043 -0.11717846 -0.07749136 0.04058365 -0.05556636 0.015532506
-0.04721335 -0.009563295 -0.16826396 0.0008522373 0.015731221 0.10579606 -0.00023102976 0.10182005
0.0074455123 0.092233546 -0.06328568 0.01783034 -0.0011094776 -0.13286102 0.17457585 0.12556058
0.091384344 -0.14203434 0.1723002 0.17407735 -0.011506298 -0.022174072 0.1483896 -0.14495118
0.16535327 -0.05116206 -0.082483806 0.011606541 0.054812495 0.020630268 0.10867793 -0.1379074
-0.016485367 -0.011021821 -0.12452475 -0.13095768 -0.061422218 -0.05854136 0.010635654 -0.07057597
0.16668192 0.070770286 -0.081554666 -0.022186453 -0.15383103 0.08613692 -0.08582043 0.143865
0.10283827 -0.05538445 0.029355846 -0.01948318 -0.14617713 -0.123101585 -0.09087138 0.17256767
-0.120772116 0.07347739 -0.07008718 0.06572935 0.13022597 0.12570886 -0.148989 0.01464295
0.04427998 0.026255753 0.008793762 0.18033533 -0.13242729 0.040299844 0.036360323 0.1546978
0.092938185 -0.06119985 -0.009479818 -0.13190906 0.011552986 0.0203941 0.15256317 0.16036196
-0.12011697 0.1735417 -0.1518268 0.05181342 0.08446443 0.09157133 0.1356851 -0.04621695
0.14748034 0.0129425945 0.0008928287 -0.057819113 -0.14976344 -0.04632335 -0.008255729 0.024372492
-0.029815018 -0.006805421 0.0069485144 -0.09639705 -0.009292752 -0.14936121 0.0059700636 0.16156746
-0.0835189 0.11099658 -0.057058804 -0.07744367 0.08049794 -0.17374964 0.111350134 0.11874375
0.064423725 -0.005344476 -0.0820913 -0.111150876 0.15579766 0.07792417 0.0939192 -0.11220585
0.10298009 -0.11344033 0.13105744 0.13749486 -0.15991111 -0.16569936 -0.15797353 -0.07887896
0.045102086 -0.1568711 0.14445996 -0.112120844 -0.05594709 0.040856972 -0.101887666 -0.0054418575
-0.15129589 -0.1567742 0.013914154 -0.07209765 0.124180704 -0.10067032 0.09958895 0.13320768
-0.04456034 -0.032273684 0.05962026 -0.094220184 0.04727374 -0.054478 -0.044160254 -0.1410197
0.14066808 -0.15529437 -0.034379836 0.07501922 -0.12084499 0.014611793 0.16631402 0.05440992
0.11833743 -0.13293599 0.089045376 0.011386965 0.022058858 -0.06483819 -0.04112788 0.11230384
0.10550025 -0.14132844 0.14889437 0.17056844 -0.056932095 0.021800406 0.09645632 -0.17557389
0.061655805 0.14998476 -0.05680271 -0.14877178 -0.10474768 0.11777042 -0.011346663 -0.011885733
0.031181026 0.06843267 0.10478996 0.00541342 -0.17405549 0.11239417 0.11695018 0.008658626
-0.09393595 -0.040164 0.08152053 0.12651253 -0.1595936 0.029095279 0.018934928 0.035387773
-0.040111285 -0.011078886 -0.16947609 -0.015304909 -0.1502333 0.15513226 0.06969505 0.06876657
-0.086098805 -0.07259955 0.02461821 -0.02647858 -0.0058682235 0.012756093 0.0023199045 -0.15121394
0.16673635 -0.07851067 0.022895012 -0.113981254 0.15939377 -0.08105335 0.093434244 0.07377569
-0.032486875 0.04115019 -0.13215587 -0.1562165 0.1004868 0.1118728 -0.14542994 -0.05439427
00000000: f6eb edbd 6667 6b3c 1bf3 e7bd 4a29 23bc
00000010: 7256 0ebe 1b29 c2bd e543 50bd 8dde 91bc
00000020: 9b76 12be e7ef 7bbd 8ca8 33be 6cb3 0cbe
00000030: 836d 27be eec4 edbd ca0b 56bc dc90 e93d
00000040: dd18 0e3c 10eb 2bbe c630 163e 43fb efbd
00000050: cab3 9ebd 0b3b 263d 8d99 63bd 0d7c 7e3c
00000060: c962 41bd 5eaf 1cbc 634d 2cbe ad68 5f3a
00000070: c3de 803c 9bab d83d 9440 72b9 0887 d03d
00000080: 7cf9 f33b f1e4 bc3d ec9b 81bd ef10 923c
00000090: e46b 91ba b80c 08be 03c4 323e f492 003e
000000a0: b727 bb3d 7371 11be 776f 303e 5541 323e
000000b0: e984 3cbc 66a6 b5bc 71f3 173e 156e 14be
000000c0: 5e52 293e 4f8f 51bd 45ed a8bd 5d29 3e3c
000000d0: 1183 603d cf00 a93c 8992 de3d 9937 0dbe
000000e0: 520c 87bc de94 34bc d506 ffbd c519 06be
000000f0: dd95 7bbd 11c9 6fbd 2b41 2e3c 228a 90bd
00000100: aaae 2a3e 03f0 903d 2206 a7bd 5dc0 b5bc
00000110: e285 1dbe 8e68 b03d 9fc2 afbd 5951 133e
00000120: df9c d23d ceda 62bd ac7b f03c 319b 9fbc
00000130: 75af 15be af1c fcbd c61a babd 94b5 303e
00000140: 5f57 f7bd 507b 963d de89 8fbd 1c9d 863d
00000150: f559 053e d3b9 003e 9390 18be fce8 6f3c
00000160: ed5e 353d 4e16 d73c b613 103c d3a9 383e
00000170: 059b 07be 7311 253d 90ee 143d 1a69 1e3e
00000180: 6056 be3d b2ac 7abd 3d51 1bbc 2b13 07be
00000190: bc48 3d3c 8711 a73c 8539 1c3e ed35 243e
000001a0: e3ff f5bd eab4 313e 7c78 1bbe 4f3a 543d
000001b0: b0fb ac3d c089 bb3d 09f1 0a3e fc4d 3dbd
000001c0: 1605 173e 2d0d 543c b80c 6a3a bcd3 6cbd
000001d0: 965b 19be 8ebd 3dbd 0a43 07bc d2a8 c73c
000001e0: a03e f4bc 0200 dfbb 5db0 e33b d16b c5bd
000001f0: a040 18bc 25f2 18be 86a0 c33b f171 253e
00000200: f50b abbd 2d52 e33d 7eb6 69bd c99a 9ebd
00000210: 1bdc a43d 6deb 31be 8a0b e43d ec2f f33d
00000220: 96f0 833d b720 afbb 7c1f a8bd 12a3 e3bd
00000230: 6c89 1f3e b596 9f3d b658 c03d 2ecc e5bd
00000240: 3ae7 d23d 6753 e8bd ec33 063e 74cb 0c3e
00000250: bdbf 23be 18ad 29be d0c3 21be 4b8b a1bd
00000260: f7bc 383d d1a2 20be 50ed 133e 9d9f e5bd
00000270: c728 65bd a459 273d 7baa d0bd 9c51 b2bb
00000280: 4fed 1abe 6a89 20be 31f8 633c efa7 93bd
00000290: 7452 fe3d 3e2c cebd 4bf5 cb3d 9867 083e
000002a0: e784 36bd 6931 04bd 6034 743d 83f6 c0bd
000002b0: 1ca2 413d 5324 5fbd 62e1 34bd 7867 10be
000002c0: 4b0b 103e 7d05 1fbe dfd1 0cbd ada3 993d
000002d0: 947d f7bd 4d66 6f3c 394e 2a3e f0dc 5e3d
000002e0: e55a f23d 5f20 08be 6c5d b63d 6590 3a3c
000002f0: c7b4 b43c e3c9 84bd b575 28bd 8eff e53d
00000300: 8410 d83d 67b8 10be c477 183e 7ea9 2e3e
00000310: a131 69bd c496 b23c e48a c53d a4c9 33be
00000320: cc8a 7c3d 9b95 193e f5a9 68bd a157 18be
00000330: f485 d6bd 9e31 f13d 5be7 39bc 61bc 42bc
00000340: 5a6f ff3c 6d26 8c3d 1e9c d63d 0f63 b13b
00000350: 9a3b 32be ea2e e63d 9383 ef3d e9dc 0d3c
00000360: 7e61 c0bd 0283 24bd 3cf4 a63d 808c 013e
00000370: 816c 23be 3959 ee3c 6c1d 9b3c c5f2 103d
00000380: bb4b 24bd 3784 35bc 248b 2dbe 71c1 7abc
00000390: c2d6 19be feda 1e3e 47bc 8e3d 7dd5 8c3d
000003a0: 9254 b0bd 13af 94bd 21ac c93c 9be9 d8bc
000003b0: 3a4a c0bb effe 503c 8a09 183b d4d7 1abe
000003c0: efbc 2a3e 34ca a0bd 528e bb3c 016f e9bd
000003d0: 1f38 233e 4cff a5bd 745a bf3d b517 973d
000003e0: f510 05bd 1a8d 283d de53 07be 38f7 1fbe
000003f0: 06cc cd3d 911d e53d 96eb 14be 87cc 5ebd

model.4.bias f4 [64]
0.10293125 0.08774841 0.09175139 -0.16555834 -0.03248189 -0.17696652 -0.035169598 0.10633369
-0.023314884 0.17775828 0.15859358 -0.03555316 0.020080358 0.11453265 0.0022739898 -0.023808934
0.13417216 -0.13202107 -0.07286859 -0.033661444 0.16978388 -0.15594678 -0.11670826 -0.07086539
-0.05459359 -0.15541619 -0.134913 0.031246157 0.13712202 0.031470504 0.034878377 0.15027727
0.0034013216 0.09913911 0.036787674 -0.08884807 0.10923936 0.026995664 -0.005216986 0.14062127
0.09277766 0.056501355 -0.099750675 -0.0038590494 -0.09666509 -0.049567226 -0.057122815 0.028705828
0.007843479 0.0629913 -0.13518496 -0.039760094 -0.018468961 0.12981874 -0.068942755 0.097847976
0.01417647 0.14869158 -0.16169621 0.106805526 -0.056414496 -0.1004057 -0.12206705 0.0013431057
00000000: 9fcd d23d 70b5 b33d 27e8 bb3d 2088 29be
00000010: bb0b 05bd b636 35be ff0d 10bd 7ac5 d93d
00000020: dbfe bebc 4406 363e 5b66 223e 31a0 11bd
00000030: 907f a43c 1890 ea3d 3807 153b f40a c3bc
00000040: 6d64 093e 8830 07be 213c 95bd 95e0 09bd
00000050: d3db 2d3e 83b0 1fbe bd04 efbd e021 91bd
00000060: 879d 5fbd 6c25 1fbe a226 0abe f1f7 ff3c
00000070: b769 0c3e 37e7 003d a1dc 0e3d 49e2 193e
00000080: b5e8 5e3b 7209 cb3d acae 163d faf5 b5bd
00000090: e3b8 df3d 0326 dd3c 40f3 aabb 06ff 0f3e
000000a0: 3702 be3d f76d 673d 154a ccbd 1be8 7cbb
000000b0: 59f8 c5bd 0107 4bbd 9df9 69bd 7c28 eb3c
000000c0: ef81 003c 9501 813d ed6d 0abe 7bdb 22bd
000000d0: 384c 97bc 34ef 043e dc31 8dbd 8564 c83d
000000e0: 6d44 683c 9b42 183e b193 25be dbbc da3d
000000f0: e312 67bd 81a1 cdbd 4afe f9bd 260b b03a

model.7.weight f4 [1, 64]
0.025852026 -0.060841344 -0.042155482 -0.010210283 -0.043431416 -0.003658205 0.09751184 -0.11412389
-0.07297548 0.046532534 -0.062207922 0.0076613957 0.11668928 -0.09399703 -0.12412252 0.043462835
0.1195149 -0.10740949 0.102455325 -0.037187904 -0.054054637 0.07723072 0.11418041 0.028808132
-0.047559988 -0.049537558 -0.032386214 -0.13003989 0.020938616 0.052441042 -0.016880155 0.026936408
0.050305583 0.06488013 0.025095774 0.08646148 -0.08584941 0.045631614 0.05490554 -0.108135216
0.06639792 -0.1012492 -0.06936754 -0.06487909 -0.043989055 0.07249903 -0.026374742 0.04850711
-0.07488825 -0.070447005 -0.11212932 0.065451466 -0.084436975 -0.1095561 -0.07572209 -0.113610156
-0.07193973 0.057819035 0.042078953 -0.0949922 0.057499107 0.04752842 0.0022351022 0.121039145
00000000: a1c7 d33c c634 79bd 3aab 2cbd 0849 27bc
00000010: 24e5 31bd 7fbe 6fbb 4ab4 c73d c9b9 e9bd
00000020: 2b74 95bd e698 3e3d bccd 7ebd 720c fb3b
00000030: cafa ee3d 8481 c0bd f333 febd 1606 323d
00000040: 3ac4 f43d 82f9 dbbd 19d4 d13d 5852 18bd
00000050: 6568 5dbd 242b 9e3d 6bd7 e93d 08ff eb3c
00000060: 43ce 42bd e5e7 4abd 68a7 04bd 2d29 05be
00000070: 7687 ab3c 6bcc 563d 4048 8abc bea9 dc3c
00000080: 3a0d 4e3d e0df 843d a795 cd3c b712 b13d
00000090: d1d1 afbd 37e8 3a3d a2e4 603d ff75 ddbd
000000a0: a2fb 873d be5b cfbd 9210 8ebd 54df 84bd
000000b0: de2d 34bd 5f7a 943d d80f d8bc 64af 463d
000000c0: 035f 99bd 8546 90bd 0fa4 e5bd 6b0b 863d
000000d0: 4bed acbd f35e e0bd 2f14 9bbd 71ac e8bd
000000e0: 2355 93bd a7d3 6c3d fb5a 2c3d 458b c2bd
000000f0: 2f84 6b3d 29ad 423d cb7a 123b 5fe3 f73d
