mlp_cox_model.pth (torch, 160463 bytes, 9 tensors)

model.0.weight f4 [1024]
00000000: ac52 803f 8c99 7f3f 554e 7f3f 652f 803f
00000010: 3baa 7f3f 77b3 7f3f f625 803f af14 803f
00000020: ded3 7f3f 1ee0 7f3f 7368 7f3f bbe6 7f3f
00000030: d55f 803f 275e 803f 24cd 7f3f 5702 803f
00000040: 403c 7f3f 2239 803f 173e 803f 0bcf 7f3f
00000050: 6650 803f a960 7f3f 5ed2 7f3f cd2d 803f
00000060: be6d 7f3f 5ad7 7f3f e8e3 7f3f 955b 803f
00000070: 1705 803f 720b 803f 7064 803f 75f7 7f3f
00000080: e411 803f 7a5a 803f a5d1 7f3f 83d7 7f3f
00000090: a764 803f 1b3a 803f 0317 803f 3720 803f
000000a0: 9448 803f ac14 803f 6ea9 7f3f 2800 803f
000000b0: cfad 7f3f 38c5 7f3f 6d7b 803f 887f 7f3f
000000c0: e209 803f 2104 803f b92f 803f 421d 803f
000000d0: e08a 7f3f f330 7f3f 591e 803f 5847 7f3f
000000e0: 700b 803f a72c 803f 7637 803f e366 7f3f
000000f0: 3a72 7f3f 6a01 803f a858 803f abdc 7f3f
00000100: eb94 7f3f 4b75 7f3f 2409 803f 9113 803f
00000110: bda0 7f3f 65b9 7f3f a9e4 7f3f 92ef 7f3f
00000120: c035 803f 1418 803f 4caa 7f3f b244 803f
00000130: 1822 803f 1c11 803f c9d0 7f3f 50f5 7f3f
00000140: 488e 7f3f 146c 7f3f 122a 803f 7751 803f
00000150: ab28 803f cb0c 803f aa81 803f 3552 803f
00000160: caf3 7f3f 190b 803f f5f1 7f3f 272e 803f
00000170: f822 803f b854 7f3f f232 803f c154 803f
00000180: 9a69 803f 1f12 803f 4a89 7f3f bd09 803f
00000190: 4f4b 803f e557 803f bcf4 7f3f e832 803f
000001a0: 4022 803f 033c 803f ad89 7f3f 8d2e 803f
000001b0: b775 7f3f 29b4 7f3f 39db 7f3f ded3 7f3f
000001c0: a1b4 7f3f 4bce 7f3f 32fd 7f3f d188 7f3f
000001d0: 5e2e 803f 87b4 7f3f 668b 7f3f a816 803f
000001e0: 2e59 7f3f 7fcf 7f3f b57e 803f 9603 803f
000001f0: 1eb2 803f c9ff 7f3f 8a45 803f 3440 803f
00000200: 3933 803f fcf9 7f3f 9169 803f c423 803f
00000210: da57 803f 4d2f 803f 0646 803f ede5 7f3f
00000220: 35f6 7f3f 6bc2 7f3f 7373 803f 213d 803f
00000230: b0a1 7f3f 6b07 803f 9130 803f cd59 7f3f
00000240: e8f0 7f3f e4f0 7f3f 1b44 803f ac04 803f
00000250: 8322 803f 1d15 803f c6bc 7f3f 26b6 7f3f
00000260: 45d7 7f3f 4506 803f 172c 803f 9d24 803f
00000270: e048 803f 920c 803f 41e4 7f3f 467c 803f
00000280: 5be4 7f3f f1d1 7f3f 3c13 803f 4c21 803f
00000290: 55f9 7f3f b175 7f3f 095f 803f 1ece 7f3f
000002a0: ecfc 7f3f 094e 803f 23fa 7f3f a707 803f
000002b0: eb20 803f 9d8c 7f3f 4256 803f b8df 7f3f
000002c0: 08c0 7f3f ac22 803f 7c4e 803f 4e40 803f
000002d0: fd3c 803f 2a15 803f cee0 7f3f fb25 803f
000002e0: 1927 803f e119 803f 8539 803f b219 803f
000002f0: 0d02 803f 653f 7f3f 2202 803f 5425 803f
00000300: e430 803f 0dea 7f3f 896f 7f3f 5b22 803f
00000310: a232 803f 3892 803f a7de 7f3f f20f 7f3f
00000320: 9316 803f 5859 803f d84b 803f 2f37 803f
00000330: 5773 803f 492b 803f a2cd 7f3f f128 803f
00000340: 201f 803f 8d18 803f 642c 803f 8db8 7f3f
00000350: 1132 803f d706 803f 2a3b 803f ee6e 803f
00000360: 6185 7f3f 7548 803f 108e 7f3f 640e 803f
00000370: cf2f 803f 6080 803f 1e57 803f 8839 7f3f
00000380: 799b 7f3f 8e05 803f cec9 7f3f c478 803f
00000390: 547a 7f3f 2e59 803f 5f41 803f 481c 803f
000003a0: a4bf 7f3f dc1c 803f 8375 803f ca21 803f
000003b0: 8a9a 7f3f bc64 803f fd95 803f e0bb 7f3f
000003c0: 739c 7f3f dcf6 7f3f bcd5 7f3f 9f16 803f
000003d0: 4332 803f a824 803f 1c06 803f d719 803f
000003e0: 5cb7 7f3f 0983 7f3f b14a 803f 41d5 7f3f
000003f0: 3637 803f d156 7f3f e698 803f 5399 7f3f
1.002523 0.9984367 0.997289 1.0014464 0.99869126 0.99883217 1.0011585 1.0006312
0.9993266 0.9995135 0.9976875 0.9996144 1.0029246 1.0028733 0.99922395 1.0000714
0.9970131 1.0017436 1.0018948 0.999253 1.0024536 0.99756867 0.9993037 1.0013977
0.9977683 0.99937975 0.9995713 1.0027949 1.0001553 1.0003493 1.0030651 0.99986964
1.000546 1.0027611 0.9992927 0.9993822 1.0030717 1.0017732 1.0007023 1.0009831
1.0022149 1.0006309 0.99867904 1.0000048 0.99874586 0.99910307 1.0037667 0.9980397
1.0003016 1.000126 1.0014564 1.0008929 0.9982128 0.99684066 1.0009261 0.99718237
1.000349 1.0013627 1.0016925 0.9976637 0.9978367 1.0000432 1.0027056 0.9994609
0.99836606 0.9978835 1.000279 1.0005971 0.9985464 0.99892265 0.9995828 0.9997493
1.0016403 1.0007348 0.9986923 1.0020964 1.0010405 1.0005221 0.99927956 0.9998369
0.9982648 0.9977429 1.0012839 1.0024861 1.0012411 1.0003904 1.003957 1.0025088
0.9998137 1.0003387 0.9997857 1.0014085 1.0010672 0.99738646 1.0015547 1.0025865
1.0032227 1.000553 0.9981886 1.0002972 1.0022982 1.0026823 0.9998281 1.0015535
1.0010452 1.0018314 0.9981945 1.0014206 0.99788994 0.9988428 0.9994388 0.9993266
0.9988499 0.99924153 0.9999572 0.9981814 1.001415 0.9988484 0.9982208 1.0006914
0.9974545 0.9992599 1.0038668 1.0001094 1.0054357 0.9999967 1.0021222 1.0019593
1.0015632 0.9999082 1.0032216 1.0010915 1.002681 1.0014435 1.002137 0.99960214
0.9998506 0.99906033 1.0035232 1.0018655 0.9985609 1.0002264 1.0014821 0.997464
0.9997697 0.99976945 1.0020784 1.0001426 1.0010532 1.0006443 0.9989742 0.9988731
0.9993785 1.0001913 1.0013455 1.0011173 1.002224 1.0003836 0.9995766 1.0037925
0.9995782 0.9992972 1.000587 1.0010161 0.99989825 0.9978896 1.0029002 0.99923885
0.99995303 1.0023814 0.99991053 1.0002335 1.0010046 0.99823934 1.0026324 0.9995074
0.9990239 1.0010581 1.0023952 1.0019624 1.0018612 1.0006459 0.999524 1.0011591
1.0011932 1.0007898 1.0017554 1.0007842 1.0000626 0.9970611 1.0000651 1.0011392
1.001492 0.9996651 0.99779564 1.0010484 1.0015452 1.0044622 0.99949116 0.99633706
1.0006889 1.0027266 1.0023146 1.0016841 1.0035199 1.001321 0.99923146 1.0012494
1.0009499 1.0007492 1.0013547 0.9989098 1.0015279 1.0002087 1.0018055 1.0033853
0.99812895 1.0022112 0.99826145 1.0004392 1.001459 1.0039177 1.0026586 0.9969716
0.9984661 1.0001695 0.99917305 1.0036855 0.9979603 1.0027215 1.001995 1.0008631
0.99901795 1.0008807 1.0035862 1.0010312 0.9984518 1.0030742 1.0045773 0.9989605
0.998481 0.9998605 0.9993551 1.0006903 1.0015339 1.0011187 1.0001864 1.0007886
0.9988916 0.9980932 1.0022794 0.99934775 1.0016849 0.99741846 1.0046661 0.9984333

model.0.bias f4 [1024]
00000000: 8e8c d2ba 0e4c 27bb 4824 8eba ef66 66b9
00000010: 02f0 923a bba5 0e39 ef37 1d38 7d37 dc3a
00000020: 1607 ae3a c2cb 3fb9 8665 ffba bcb0 733a
00000030: 6dab 93ba 4066 1dbb 6735 2dbb d797 9cba
00000040: 6d3a 1638 4aa0 1b3b 37df 64ba 7a71 ecba
00000050: c539 a73a a139 e0ba fe88 33bb 79e4 1ebb
00000060: d29f 42bb 2e6c 813a 4436 3e3b e3fb 6c3b
00000070: 41f8 45bb 90ee f03a 37f9 e539 9d0a e4ba
00000080: 4d3c 1aba 5e6f dfba b989 843a 1150 4fba
00000090: 7939 a93a cd0a 6a3a 022e 20ba 64ff d13a
000000a0: f53f 8dba 0985 36bb 67f9 d23a 9dbf d13a
000000b0: 2158 17bb 4a99 2cba 1f95 deba b988 bdb9
000000c0: b554 53bb 6020 2839 a3b6 3bbb 363e 21bb
000000d0: 142e 88ba b78d 9c3a 3c3c 6ebb 5428 45bb
000000e0: 2d63 69ba a895 63bb 9e6b 29bb 270a 04ba
000000f0: c198 6cbb b5fe 223b b584 553b 9be2 79ba
00000100: 196f d7b6 5126 4dbb 5a64 223b c402 acba
00000110: cd1a 38ba 4ab1 82bb c7dd 7339 84b2 1e3a
00000120: 029b 42b9 2bb1 e739 20cb 393b e480 7b3a
00000130: 3171 0e3a 829e 7a3b 218e 64bb 469c 4eba
00000140: 5183 b0ba b381 103b 59f9 9439 6768 d5ba
00000150: dafc 8fb9 d9b5 29ba 4b36 acb9 3304 ceba
00000160: 5356 1bbb 86e6 073b 41fa 16bb 8493 16bb
00000170: 0dd0 26bb 5b99 3c3b 2e23 91b9 da84 49bb
00000180: cde9 e7ba 1312 36ba 9e62 ec39 65bc 153b
00000190: 79bb c8ba ea7a 2dbb 0d4d 2138 a396 233b
000001a0: 3917 5abb 24a4 103a 1065 033b e322 14bb
000001b0: 74fb 6b3a 1896 8a39 8e04 2e3b 91dc b3ba
000001c0: abe9 613a 7019 28bb 0ebf dfba 8a07 003b
000001d0: 514f d5b8 18f6 7bba 75c9 b7b9 48c1 0a3b
000001e0: bb7d 67b9 62b3 5f3a 99b3 28bb 7e35 aab9
000001f0: 728e 01bb 990c fd39 6be5 b538 4bf0 faba
00000200: 0c81 39ba 2975 cc3a b2e8 93ba 4661 2dba
00000210: e55b 78ba 195a d7b9 a54b dd3a 592c 08b9
00000220: 183a 05bb f135 9cba 7a18 313b 888f b33a
00000230: 2c3f 33bb 635a 35bb 8f4f d7ba 02cb f8ba
00000240: 424f 0f3b 24c7 1ebb 4389 e7b8 d35d b23a
00000250: a9aa a539 cb64 663a 055a 9c3a 79f2 8e3a
00000260: 38ea 20bb 390e 0e39 7b43 093b a448 48bb
00000270: 4a66 613a 6997 72ba c5aa 0839 1544 29ba
00000280: 08d6 4c3b ac0f deb9 de6a 63bb 62a6 7439
00000290: 6a05 94ba 68d9 c5ba 8c27 9039 c6ce 10bb
000002a0: 1459 8b39 529f 9d3a b994 fb3a 3918 10bb
000002b0: 2397 85bb c6dc 2d3b d94a ac3a 3be1 32b9
000002c0: 2b4e 5d3b ba8c 8c39 e106 47ba 2697 4ab9
000002d0: 4f83 22bb 6f6c 27bb 6c17 fc3a b30b bb3a
000002e0: 2338 22b8 c09e cfb9 0559 d8b9 9256 4438
000002f0: 367e 3b3b 94cc a6ba b99a 5dbb e7e0 293b
00000300: 46ee 36bb 8122 7f3a 1446 c33a af3d fe3a
00000310: 9da5 95ba 2cee af3a f62f 67b9 5a93 4cb9
00000320: 7e10 19ba 04fb 62bb 856c 8438 5f60 093b
00000330: 14dc 663a 8cb8 0c3b 5e60 3e3b 7ac6 ed3a
00000340: 3155 7839 1c0a 963a f8dd 43ba edd9 0b3b
00000350: e258 ea3a b42d 12bb b42c cdba 77a0 c8ba
00000360: 0523 9aba 0fdd cd3a b23b 05ba f03c 01bb
00000370: ece5 71bb 656e 5cba d7bd 13bb 0896 163a
00000380: 89ed 19ba a9cb 53b9 8423 14ba 9dd3 193b
00000390: 76dd e639 f743 493b dcc3 f2ba 9374 41bb
000003a0: 832d 2236 86c1 6bba 5ea9 81ba 52a3 9bba
000003b0: cf19 193b a0ba 22bb b18f 49bb ae91 d83a
000003c0: 528c 69bb 923a a6b9 a7db 28bb 5c66 433b
000003d0: ad78 0aba 222e 37ba 69d9 7bbb 15c9 09bb
000003e0: c054 6338 4dbd 2c3a 34b9 01bb ea06 a53a
000003f0: f705 193b d3d6 e8ba ab4c 493b a54b 0bba
-0.0016063617 -0.002552751 -0.0010844553 -0.00021972855 0.0011210444 0.00013603915 3.748381e-05 0.0016801205
0.0013277258 -0.00018291085 -0.0019485212 0.000929605 -0.0011266299 -0.0024017245 -0.0026429535 -0.0011947107
3.58172e-05 0.0023746663 -0.00087307714 -0.001803919 0.0012758306 -0.0017107019 -0.0027394886 -0.0024245067
-0.002969731 0.0009874159 0.0029024044 0.0036160878 -0.0030207785 0.0018381644 0.00043863963 -0.0017398183
-0.00058836193 -0.001704674 0.0010111845 -0.0007908354 0.0012910805 0.0008928001 -0.00061103713 0.0016021547
-0.0010776507 -0.0027850291 0.0016096056 0.001600254 -0.00230933 -0.0006584121 -0.0016981697 -0.00036150755
-0.0032246534 0.00016033789 -0.0028642796 -0.002460373 -0.0010389709 0.001194409 -0.003635182 -0.0030083852
-0.0008903023 -0.0034726653 -0.0025851498 -0.0005036913 -0.003610179 0.0024871056 0.003258032 -0.0009532363
-6.420433e-06 -0.0031303356 0.0024779052 -0.0013123383 -0.00070230366 -0.0039884197 0.00023256904 0.00060538226
-0.00018559027 0.00044191754 0.0028349832 0.00095940963 0.0005433737 0.003824145 -0.0034874754 -0.0007881563
-0.001346687 0.0022049963 0.00028414538 -0.0016281725 -0.00027463475 -0.0006473936 -0.00032846848 -0.0015717804
-0.0023702576 0.0020736768 -0.0023037347 -0.002297611 -0.0025453598 0.002877793 -0.00027682766 -0.0030749352
-0.001769358 -0.00069454423 0.00045086903 0.0022847888 -0.001531466 -0.0026470968 3.845715e-05 0.0024961613
-0.0033278002 0.0005517623 0.0020049252 -0.0022603802 0.0009002008 0.0002643324 0.0026553008 -0.001372235
0.0008617888 -0.0025649928 -0.0017070489 0.0019535744 -0.00010171405 -0.0009611561 -0.00035054577 0.0021172334
-0.00022076715 0.0008533505 -0.0025741814 -0.00032464782 -0.0019768742 0.00048265306 8.673485e-05 -0.0019145099
-0.00070764194 0.0015598881 -0.0011284559 -0.0006613921 -0.00094741426 -0.00041075124 0.0016883506 -0.00012986491
-0.0020328816 -0.0011917931 0.0027022646 0.0013699392 -0.0027350886 -0.0027672283 -0.0016426909 -0.00189814
0.002186731 -0.0024227584 -0.00011040505 0.0013608284 0.00031598404 0.0008788823 0.0011928683 0.0010906003
-0.0024553668 0.00013547474 0.0020944763 -0.0030560875 0.0008598311 -0.0009254129 0.00013033587 -0.00064569834
0.0031255502 -0.00042354816 -0.003470115 0.00023331636 -0.0011293117 -0.0015094699 0.00027495285 -0.0022095903
0.00026578514 0.001202563 0.0019194103 -0.0021987094 -0.004076855 0.0026529296 0.0013144865 -0.00017059308
0.0033768516 0.0002680773 -0.00075922726 -0.00019320528 -0.0024797504 -0.002554681 0.0019233054 0.0014270454
-3.867609e-05 -0.00039600395 -0.00041265055 4.6810666e-05 0.0028609163 -0.0012725764 -0.0033814146 0.0025921406
-0.0027913018 0.00097326195 0.0014898204 0.0019397045 -0.0011417154 0.0013422421 -0.00022047744 -0.00019509849
-0.00058389443 -0.003463448 6.314464e-05 0.0020961983 0.0008806598 0.0021472303 0.0029049139 0.0018140816
0.0002368286 0.0011447105 -0.00074717356 0.002133961 0.0017879272 -0.0022305073 -0.0015653581 -0.0015306611
-0.0011759704 0.0015706139 -0.00050824427 -0.001972016 -0.0036910726 -0.0008408784 -0.0022543573 0.00057444023
-0.00058718823 -0.00020198397 -0.0005651044 0.0023472079 0.0004403402 0.0030710676 -0.0018521505 -0.0029518947
2.4166372e-06 -0.0008993376 -0.0009892394 -0.0011874235 0.002336133 -0.0024830475 -0.0030755813 0.0016522908
-0.0035636616 -0.00031705626 -0.0025765689 0.002981565 -0.00052822643 -0.00069877703 -0.0038429147 -0.0021024395
5.4199947e-05 0.00065894873 -0.0019794228 0.0012590562 0.0023349503 -0.0017764218 0.0030715864 -0.0005313701

model.0.running_mean f4 [1024]
00000000: 7160 70bd 63c0 8ebc 0867 063c a87f dbbc
00000010: 9755 c83a 3fc0 61bc 7111 253d 6b1a a6bb
00000020: e5da 87bb a609 063d 8f6e 31bc b038 ad3b
00000030: e8c8 81bb 5a29 4dbc 29dd 9d3b 6c30 293c
00000040: 6b01 14bd 260c cbbc 8b29 aeba 5dc6 0c3c
00000050: f936 6d3c 6a9c ebba 8327 9d3c 0dc3 943d
00000060: e600 9c3c 7708 f33c d2f7 d1bc 2ebd 3f3c
00000070: 3f45 bdbb 847f 31bc 71c4 ca3c c0e5 7ebc
00000080: 29c8 f6bb ab85 233c 6b6a 4cbb 3138 853c
00000090: 4ce9 39bc 7000 d43b 1df5 edbc 4836 8abb
000000a0: 6493 243c 7e60 c63c 5aae 4dba 6237 39bd
000000b0: da1d c3bc 870c 613b 744f 4639 8d29 c6bc
000000c0: 7a4f 52bc eca1 aa3d bdb8 c8bc 5c11 93bc
000000d0: eed2 9dbc 67f9 123c 76d2 173c 9ac0 17bc
000000e0: 6165 033d c41f 183c 49d2 c0bb aa4a 30bc
000000f0: 2480 2f3c 7ddb b8bc 51ae 3bbc 73a0 c43c
00000100: 33b6 82b9 c5dd 6abc c51c 9f3b 1039 f13b
00000110: ed13 d63a 64e4 c63b f550 1a3d ea24 2f3c
00000120: aa49 86bc f389 323d ee09 f53c 2efc 2cbc
00000130: 271a d53c 852f 9bbc 59e5 883c 5339 8fbc
00000140: d601 0bbc 4b90 df3c 13d5 54bd 5ea8 af3c
00000150: fc91 82bc 9183 23bd 07e9 bf3c 3b57 9bbc
00000160: aa6c 3f3c 204b bf3c d5f7 babc 58db b5bb
00000170: c9f3 46bc e374 533c 6043 403c bd12 973c
00000180: bc97 283c 181d 6b3d 90a9 16bc 3b67 b53c
00000190: 90de 603c 2719 e03c c991 d4ba 943a 563c
000001a0: 8071 973d 3da4 833c 188f 4d3b 708a b9bc
000001b0: 3325 f8bc be36 4e3d 9371 39bc 6eb7 5c3b
000001c0: bfb7 863d 549a 66bb 87a7 a2bb 8f6c 943c
000001d0: fe05 feba cbe2 c7bb 147a 7f3a d60d c4bb
000001e0: f6ec b2bc 293b 0cbc c1db 85bc bb68 50bc
000001f0: dced 46bd 2d4c b1bc 1b27 34bc 0a68 a9bc
00000200: 15e8 a43c d9b7 a5bc 6728 82bd 7d3a 6cbc
00000210: 77fa 8c3c 0229 9cbb 8656 52ba 52e4 e2bc
00000220: a215 2f3d b669 b53c 7ce7 29bb 9720 b8bc
00000230: a564 613b f99f 27bd 189d 24bc b830 dcbb
00000240: 0d51 29bb 8cdf 1ebc 45fb 393d 43b1 c0bc
00000250: 2672 07bd 044c bd3a 9581 0bbc 4c81 36ba
00000260: e42a e93b aafb 51ba d81e 873c dddd db3c
00000270: 8f4b e23c 6e84 0dbc c1ec 93bb 35be f03b
00000280: 761a c43a b4c5 e23c 7099 843c 0902 823b
00000290: 4378 b4bb fdaa 9fbb bb5d 63bd f458 e6bb
000002a0: 92ff 1bbd a21f db3c 9a33 df3c 2e28 fa3c
000002b0: 0513 cd3c f9a3 13bc 5985 ba3c bbe2 3d3c
000002c0: b116 3bbc 8481 5cbc 1838 91bc 7ae5 faba
000002d0: 017d 02bd f41e 89bc cbce c1bb 2b4c 353c
000002e0: baa4 2bbc db49 cc3c c3c0 3f3d b619 80bc
000002f0: 2f23 6dbc c405 05bd c98e 1b3d 3a0a 473c
00000300: 15c2 5a3c 2ce8 023d 21df 483c 3ecc 383c
00000310: b905 22bc 50c7 54bb 6f66 ad3c 992c 053d
00000320: e520 c43b f447 58bc 6b87 073b 9e8d d3bc
00000330: 60e5 cbbc 5861 223c 02bf 57bc d57b 5dbc
00000340: b1d9 8c3c 3759 0abc 7a4c 08bd 917d b8bc
00000350: b7f1 783c e254 d23c 0736 df3b fde9 81bc
00000360: 055c 483c 4b8f e53c 8afa 09bc 2730 cabb
00000370: 58c0 1c3c 01a1 9abc f40e 47bd 7d86 afbc
00000380: bc11 b03c b7f0 643c fd32 9b3b 1064 a0bc
00000390: e515 fb3a d5cf a3bc 162a 29bc e475 03bd
000003a0: f62c a1bb 2036 eabc 38ec 47bc 0363 91bc
000003b0: fe9b f3bc e99d 0d3d 4a9a ae3c 345e 8fbc
000003c0: 170c 053d 857a b1ba 3885 00bc ef16 c53c
000003d0: c43c c1bc 177c 96b9 4c46 463c c40a af3c
000003e0: f250 edb9 5db7 de3c c651 94bc a10f cd3c
000003f0: f3b8 9e3c d7b8 9d3a 09a0 773c d8d9 b83c
-0.058685724 -0.017425722 0.0082032755 -0.02679427 0.0015284297 -0.013778745 0.040299837 -0.0050690672
-0.0041459673 0.032724045 -0.010829582 0.0052862987 -0.0039607175 -0.012522066 0.004817624 0.010326486
-0.036134165 -0.024786066 -0.0013287527 0.008592215 0.0144784385 -0.0017975692 0.01918388 0.072637655
0.019043397 0.029667122 -0.025630865 0.011702819 -0.005776077 -0.010833625 0.024751874 -0.015557706
-0.007531185 0.009980599 -0.003119136 0.016262146 -0.011347126 0.0064697787 -0.029047543 -0.0042178966
0.010044906 0.024215933 -0.000784611 -0.045218833 -0.023817945 0.0034339742 0.0001891235 -0.024189735
-0.0128363315 0.083316654 -0.024502153 -0.017952614 -0.019265618 0.008970595 0.009266486 -0.009262228
0.032079104 0.009284917 -0.005884443 -0.010759989 0.010711703 -0.022565598 -0.0114551345 0.02400229
-0.0002493128 -0.014335101 0.0048557245 0.0073615387 0.0016332843 0.0060697068 0.037674863 0.010689953
-0.016392548 0.04358859 0.029911961 -0.010558171 0.026013447 -0.018943558 0.016710924 -0.017483389
-0.008484324 0.027290484 -0.051961016 0.021442588 -0.015938751 -0.039920393 0.023426546 -0.018962493
0.011683622 0.023351252 -0.022823254 -0.0055498295 -0.012143084 0.012906286 0.011734813 0.018441552
0.010290083 0.057400793 -0.0091957 0.02214395 0.013724938 0.027355744 -0.0016217764 0.01307549
0.07394695 0.016069526 0.0031365808 -0.02264902 -0.030291175 0.050345175 -0.011318582 0.0033678669
0.065780155 -0.0035187202 -0.0049638185 0.018118171 -0.0019380448 -0.006100034 0.0009745669 -0.0059830947
-0.021841507 -0.008559027 -0.016340138 -0.012720282 -0.048566684 -0.021642769 -0.010995652 -0.020679493
0.020130197 -0.020229267 -0.063553624 -0.014418242 0.017209275 -0.0047656307 -0.0008023757 -0.027696762
0.04274524 0.022145133 -0.002592533 -0.022476478 0.0034392264 -0.040924046 -0.01004722 -0.006719675
-0.0025835664 -0.009696852 0.045405645 -0.023522025 -0.033067845 0.001444221 -0.0085147815 -0.0006962016
0.0071157087 -0.0008010218 0.0164942 0.026839191 0.02762392 -0.008637531 -0.0045143072 0.007346893
0.0014961499 0.027682163 0.016186446 0.0039675278 -0.0055075004 -0.0048726783 -0.05550931 -0.007029647
-0.038085528 0.026748482 0.027246285 0.030536737 0.025033483 -0.009011262 0.022768663 0.011589701
-0.011418984 -0.013458613 -0.017726943 -0.0019141876 -0.031857494 -0.016738392 -0.005914544 0.011065523
-0.010476286 0.02493756 0.04681469 -0.01563726 -0.01447372 -0.0324762 0.037977967 0.012148434
0.013351937 0.031959698 0.012260229 0.011279164 -0.00988906 -0.0032467432 0.021167008 0.032513235
0.0059853666 -0.013200749 0.002068008 -0.025824364 -0.024889648 0.009910904 -0.013168098 -0.013518293
0.017193647 -0.008444122 -0.03327606 -0.022520812 0.015194348 0.02567524 0.0068118605 -0.015858645
0.01222897 0.028022429 -0.00842155 -0.006170291 0.009567343 -0.0188756 -0.048598245 -0.021426434
0.021492831 0.0139734065 0.004736303 -0.019578964 0.0019156305 -0.019996563 -0.0103249755 -0.03209485
-0.00491869 -0.028590262 -0.012202315 -0.017747408 -0.029737469 0.034574423 0.021313805 -0.017500974
0.032482233 -0.0013540542 -0.007844262 0.024058787 -0.023588546 -0.00028702684 0.012101721 0.021367438
-0.00045264472 0.027187044 -0.018105399 0.025031867 0.0193753 0.0012033236 0.015113839 0.022564813

model.0.running_var f4 [1024]
00000000: 0f0e 0e39 0cb4 1839 cb3a 1239 10dd cf38
00000010: 813d 3039 13d5 2739 b3db 3639 da36 0e39
00000020: a4e2 0739 c38d 1839 5e45 4c39 7cae 2f39
00000030: 8a95 2f39 7332 f938 4bd9 1939 6fff 0339
00000040: 5e80 e038 c557 1f39 6a4b 5339 8e70 1439
00000050: 09b9 1339 8ee0 fe38 53c6 d138 0132 4639
00000060: afd3 f138 0ac0 2f39 5569 2f39 f1c4 e038
00000070: 2d01 2839 c112 b639 022c 9639 126d 3939
00000080: b928 5139 08ac da38 a62b 4a39 3390 5339
00000090: 8744 da38 a4dd b238 ca1c fc38 60d1 8039
000000a0: 4386 9639 ecbc 2839 569e 1c39 d664 2a39
000000b0: 1d84 3939 1011 5c39 18df 7239 ac0b 7739
000000c0: e4ef 1039 7f78 a939 517e 8639 675e 6739
000000d0: c052 3039 e961 3a39 cb06 ee38 b757 f738
000000e0: c54e 6b39 eaca c238 4372 0339 a4e1 1839
000000f0: 9926 5e39 6f1c 5139 bc64 9239 4a6d 4e39
00000100: c226 1839 acbd cb38 dcd5 3e39 bcc2 2239
00000110: eea2 1639 7086 2c39 183b 5339 598c 5039
00000120: 8699 6939 9c44 4339 e176 2339 c92e 4639
00000130: 246d d638 4be2 4c39 7018 2039 9e55 4739
00000140: 8d2c 5339 be69 cf38 8d8d 5b39 db4d 0d39
00000150: 2243 0739 c3ec ad39 6121 3539 4830 6c39
00000160: 8a6c 0739 6e9f 8739 028e c639 95d3 3339
00000170: b913 0339 fe28 7239 237a 2e39 0246 3a39
00000180: 1a43 4c39 af69 2339 cc90 2139 9645 b739
00000190: fac5 0d39 cc0e 0439 7ef9 5439 450e ed38
000001a0: 101e 283a 5f93 2b39 3c31 1d39 6e42 8039
000001b0: 5dd5 1239 5fad 0e39 7f3c 3e39 862d 0239
000001c0: b31e 3639 2df9 4239 9b4f 6f39 a5d3 9c39
000001d0: 4e09 0839 1724 2239 e85f 3a39 7abf 7e39
000001e0: 65b6 5939 729b 1b39 3a53 1c39 daa3 5039
000001f0: 1a0e 2439 ea78 ab38 de47 ea38 61e0 0339
00000200: c1ef 4a39 9e0d a439 4be1 3439 d334 c838
00000210: f011 5539 5403 e538 b273 f338 fbe8 2c39
00000220: b39a 8a39 d832 2d39 95fc 3439 eb0c 3e39
00000230: 86a9 0939 9ad7 1e39 b6f5 3639 e9d1 1939
00000240: 35ea b839 8371 8d39 039f 3039 425c 0739
00000250: d9c3 8b39 6384 2e39 ccce 7f39 a95d 2639
00000260: 5008 0039 928f 7f39 878f 0139 c6e1 2639
00000270: 5eab 1739 70ce 0439 6f1b a839 eb51 2c39
00000280: 3ff9 0f39 ede2 2239 80c5 0139 c2df 2039
00000290: 3d90 0d39 6928 d138 ebbd 343a a5f1 1939
000002a0: 9cb5 5a39 a1dc 4239 0b68 0739 f59d 1b39
000002b0: 7da5 2539 b5dd 0a39 aa82 9239 6256 4339
000002c0: af69 0239 3257 0c39 08f6 c838 88d8 7539
000002d0: 68cd 4539 2e26 5939 b024 8639 92e7 5c39
000002e0: b532 1c39 0bb8 1c39 ee99 6d39 74bf 0839
000002f0: 7c98 1b39 f911 2439 4d93 8639 d449 3739
00000300: 833b 7a39 9179 0739 d86d 0c39 cf0e 7a39
00000310: 08c3 3e39 9fe3 1039 5649 3b39 400c 3d39
00000320: 32a6 1d39 33f6 3839 06d0 3c39 358d 2039
00000330: a6b6 0939 0931 0039 95bf 0e39 68e2 0739
00000340: 75ac 2439 cb7f 1739 889e 4b39 cda8 ff38
00000350: d4db 1439 1643 3339 671a 0b3a 8659 b438
00000360: c927 f538 a3d8 0939 a333 b538 f4d1 5c39
00000370: b89b 1c39 0baf ee38 aeed 1639 1b4f 6139
00000380: 237f 3b39 1cbb 1439 bae5 0539 93c1 f438
00000390: 9def f738 ff5c 0039 3aae 1039 cad8 ba39
000003a0: 8bdd 3939 e66b 3b39 b853 0539 42ee ef38
000003b0: 065b 3a39 26ca f938 96ed 1c39 4012 ea38
000003c0: 7ce0 1b39 13fc 2539 d8e0 4b39 52e1 5539
000003d0: 3dda 4139 1615 e739 02a9 d238 52e2 0339
000003e0: 94f4 2939 dd04 e638 cf5f 2239 de17 0439
000003f0: 7476 2f39 f263 e338 5469 2139 9430 1839
0.00013547413 0.00014562922 0.00013945547 9.911705e-05 0.0001680758 0.00016005737 0.00017438717 0.00013562609
0.00012959033 0.0001454866 0.00019480797 0.00016754301 0.00016745008 0.00011882642 0.00014672165 0.0001258829
0.000107050626 0.00015196118 0.00020150622 0.0001415631 0.00014087943 0.000121534904 0.000100028374 0.0001890138
0.00011531205 0.0001676084 0.0001672854 0.000107178355 0.00016022167 0.00034727718 0.00028643018 0.00017683607
0.00019946964 0.000104270934 0.00019280482 0.00020176246 0.00010407814 8.528985e-05 0.00012021659 0.0002457006
0.00028710262 0.00016092107 0.00014936304 0.00016250028 0.00017692191 0.00020987191 0.00023162027 0.00023560104
0.00013822276 0.00032323968 0.00025652585 0.00022065044 0.00016815495 0.00017774817 0.0001134999 0.00011794216
0.0002244069 9.2884366e-05 0.000125357 0.00014579907 0.00021185949 0.00019942386 0.00027922343 0.00019686404
0.00014510288 9.7151235e-05 0.00018199481 0.00015522068 0.00014365811 0.0001645328 0.00020144542 0.0001988871
0.00022277804 0.00018622208 0.00015589177 0.0001890018 0.00010224644 0.00019539257 0.00015267893 0.00019010014
0.00020139125 9.890225e-05 0.000209382 0.00013475811 0.00012899612 0.00033173533 0.0001727394 0.000225247
0.00012915037 0.0002586799 0.00037871307 0.0001714959 0.00012500481 0.00023094189 0.00016639433 0.00017764422
0.00019479953 0.00015584262 0.00015408098 0.00034956326 0.0001352056 0.00012594013 0.00020310839 0.000113036986
0.0006413171 0.00016362731 0.00014991028 0.00024463556 0.00014003129 0.00013606761 0.00018142349 0.00012414725
0.00017368309 0.00018594107 0.00022822472 0.00029912326 0.00012973437 0.00015462968 0.0001777407 0.00024294658
0.0002076268 0.0001483986 0.00014908324 0.00019897465 0.00015645512 8.1764374e-05 0.00011171376 0.00012576721
0.00019353536 0.00031290663 0.00017250066 9.5465824e-05 0.00020319945 0.00010920191 0.00011608693 0.0001648999
0.0002643667 0.00016517506 0.00017260232 0.00018124624 0.0001312849 0.00015148372 0.00017448407 0.00014669415
0.00035269713 0.00026978189 0.00016843904 0.00012908972 0.00026658064 0.00016643251 0.00024395733 0.00015865885
0.00012210128 0.00024372179 0.00012355867 0.00015915101 0.00014464321 0.00012665405 0.00032063897 0.00016433715
0.00013730394 0.0001553406 0.00012375973 0.00015342145 0.00013500541 9.9734236e-05 0.0006894755 0.00014681237
0.00020857755 0.00018583472 0.00012913362 0.00014840795 0.00015797275 0.00013243298 0.00027944642 0.0001862883
0.00012437136 0.00013383923 9.58257e-05 0.00023445685 0.00018863904 0.00020708956 0.00025585806 0.00021067102
0.00014896209 0.0001494588 0.00022659425 0.00013041293 0.00014838757 0.00015646954 0.0002566822 0.00017479743
0.00023864028 0.0001291989 0.0001339236 0.00023847375 0.00018192467 0.00013817706 0.0001786103 0.00018029008
0.000150346 0.00017639324 0.00018006572 0.00015311393 0.0001313338 0.00012225298 0.00013613545 0.00012958946
0.00015704504 0.00014448089 0.00019418646 0.00012190789 0.00014196272 0.00017095762 0.00053063635 8.599744e-05
0.00011689921 0.00013146042 8.640371e-05 0.00021059049 0.00014935329 0.00011381329 0.00014393657 0.00021487141
0.00017881072 0.00014184084 0.00012769448 0.00011670883 0.00011822509 0.00012241675 0.00013797815 0.00035638205
0.00017725506 0.00017873905 0.00012715056 0.00011440787 0.00017772251 0.00011910898 0.00014965827 0.00011161389
0.00014865579 0.00015829531 0.0001944335 0.00020397201 0.00018487214 0.00044075464 0.000100450605 0.00012577444
0.00016208208 0.000109681605 0.00015485215 0.00012597392 0.00016733428 0.0001084282 0.00015393394 0.00014513946

model.1.weight f4 [32, 1024]
00000000: 9908 1ebc 8627 113c 8966 4ebc a27c 8d3c
00000010: f647 cf3c 6ab3 adbc b817 e93c 4f35 013c
00000020: 34c3 d43c e619 883b e835 843c 7c46 81bb
00000030: 479d c83c 168f f33b 9505 70bc 1d24 2b3c
00000040: e43f 1fbc e276 85bb 6792 6abc 40f7 913c
00000050: 9cfe ddbc 0ac3 59bc c931 44bc aa8f 94bc
00000060: 6e0d 293b f9fb fdbc a58a e33c c4ed e0bc
00000070: 4fe9 bd3c 0e8d aa3b fa7d 37bc 6fcf a93c
00000080: f4c1 d93b f79b d73c 8de3 3d3b aa0a 3dbc
00000090: 2929 2c3c b6f8 16bc 38b1 3f3c dc3a e53c
000000a0: 0001 8f3c 97b5 3ebc 4ebd 9e3c 1bd4 aa3b
000000b0: 904e 703c 2c85 b0bc 4143 0bbd cce9 3dbc
000000c0: bad7 abbc 7c4c d23c edcb 0c3c 55ac 7e3c
000000d0: a034 493c 51ff 9e3a 6430 d83c eba2 b2bc
000000e0: d1de 3f3a 6209 92bc b7c7 453c 95ec 3cbc
000000f0: bede 113c 776e 9ebb c951 f13c 2847 8cbc
00000100: 421f a7bc 48fc 9abc 9123 e03c 75f2 283c
00000110: e11f f63c 513e c9bc cd28 fbbc 2629 debc
00000120: e48c c3bc 1db7 3a3c c3d0 4f3c 2649 db3c
00000130: eea9 80bc 1e24 bcbc bc29 803c afdc 6abc
00000140: 5bd0 903c 9c65 fcbb 59d2 933c 7974 c8bc
00000150: 9709 5ebc 3744 1a3c 371e 323b cec0 93bb
00000160: a8f4 883c 5b55 ac3c f176 adbc 2f4d 6dbc
00000170: 70d6 f93c fae9 02bc 0b89 2cbc c987 05bd
00000180: 43e6 71bc 8009 0d3c 87e6 cfba 5647 acbc
00000190: 4c00 d03a e5cf b1bc 3902 cabc 2fc4 81bc
000001a0: 46f9 e8bc 9d8e aebc 22c2 043d efa3 013c
000001b0: f42c 293c fa02 f4bc 9c44 a4bc 4747 0dbc
000001c0: 4133 ab3b 6491 dabc 4c52 71bc 75ac 91bc
000001d0: b782 d63a 880a 24bc f4dd 643a 64bb a6bc
000001e0: ecaa abbc 08cf 8dbc c7ba 4fbc c4e8 b5bc
000001f0: 05da f43c 833e 13bc c189 f43c 72c6 533c
00000200: e127 e1bc 0a47 b53c 8175 42bc 0d4a 56bc
00000210: fd70 cebc a955 05bd a1d0 113c c4f0 ecbb
00000220: 708d 133c e350 c0bc 84b5 c13c 91d9 c9bc
00000230: 6dd5 debb f570 f03b 0a6b 923c f875 c23c
00000240: e1a0 df3c dd2a d6bc 917d cb3b 3e8c 4dbc
00000250: 5751 1dbb fe04 bbbc e554 eb3c 1a63 b1bc
00000260: 318e 863c 425a 083c 9358 3b3c b876 90bc
00000270: e801 d63c 2e33 143c ed47 933b ae7b e7bc
00000280: 2ff2 573c 64ca b8bb 341a 97bc afa9 e43c
00000290: 2796 df3b e20b 81bc 3034 a0bc aeb5 0839
000002a0: 5cee 953c 1207 27bc 07db a1bc 074c 10bc
000002b0: 7abd cdbc 1963 463c 8736 ba3c c7f4 f9bc
000002c0: 6ea7 113c 3683 873c 4405 2b3b 80ec 39bc
000002d0: cad5 863c 7688 683c 4082 153c b7f9 cabb
000002e0: d88d 8ebb 0160 5939 666e 91bb c754 edbb
000002f0: 36e5 a93c 2ab6 c73c 5d81 03bb e650 e9bb
00000300: 48d3 3e3a 6bed 34b8 1020 e73b 1f5d 293c
00000310: 496f dbbc 4423 76bc 59b2 d53c 3494 113c
00000320: 05f0 95bb 6510 a1bc d12b a7bc 69ad ecbc
00000330: 568f 20bc 53bc 303c 21b1 833c a22e 743c
00000340: 21ed f3bc 9e1a a5bc a001 a9bb 62bf e03c
00000350: ed0d 8f3b 7666 f2bb 29d9 543c 84a9 77bc
00000360: 3cfe 94bc d323 db3c 43c1 51bc 399d 9fbb
00000370: d9d5 02bd 9cb9 bd3c 70a2 dc3c 687b 1d3c
00000380: 7c1f b4bc 9429 04bd 6570 bdbc 1fc1 d83c
00000390: 7a65 993c 071e df3c 18bf 953c 59d3 bc3b
000003a0: adb9 9bba 89c9 d5bc e3b6 edbc af94 eebc
000003b0: 0d52 3a3c 97ad 89bc 27ca 76bb dce4 99bc
000003c0: f885 51bb fbe6 a3bc e8ba 9abc 8435 1c3c
000003d0: 720a 11bc 3334 833c c114 50bc 4275 b0bc
000003e0: 977e b0bb 20a5 73bc 5d3b 14bc 6421 e1bc
000003f0: 8ea4 953c 38ca b1bc cd3b 683c 1697 4b3c
-0.0096456045 0.008859521 -0.0125976885 0.017271344 0.025302868 -0.021203715 0.028453693 0.007886245
0.025971986 0.004153478 0.016138986 -0.00394517 0.024489058 0.0074328287 -0.014649768 0.010445622
-0.009719823 -0.00407301 -0.014317132 0.017818093 -0.027098946 -0.01329113 -0.01197476 -0.01813491
0.0025795358 -0.031003939 0.027776072 -0.027457125 0.02318254 0.0052048033 -0.011199469 0.020728795
0.0066454355 0.026319487 0.0028974742 -0.011538187 0.01050786 -0.009214571 0.011699967 0.027982168
0.017456532 -0.011639974 0.019377377 0.005213273 0.014667168 -0.021547876 -0.033999685 -0.011591386
-0.02097689 0.025671236 0.008593542 0.015544017 0.012280613 0.0012130534 0.026390262 -0.021806201
0.0007319274 -0.01782674 0.0120715415 -0.011531015 0.0089032035 -0.004834946 0.029457944 -0.017123774
-0.020400647 -0.018919125 0.02736071 0.0103117125 0.030044498 -0.024565848 -0.030659104 -0.02711923
-0.023870893 0.011396197 0.01268405 0.026768278 -0.015706029 -0.02296644 0.0156449 -0.014334842
0.017677477 -0.0077025425 0.018044638 -0.024469601 -0.013552091 0.009415678 0.0027178654 -0.004509068
0.016718224 0.021036794 -0.02117488 -0.014483734 0.03049776 -0.007990355 -0.01053072 -0.032600198
-0.014764371 0.008608222 -0.0015861549 -0.02103011 0.0015869229 -0.021705577 -0.024659263 -0.015840618
-0.028439175 -0.021308238 0.032411702 0.00791262 0.010325659 -0.029786576 -0.020052247 -0.008622951
0.005224616 -0.026680656 -0.014729094 -0.01778243 0.001636586 -0.0100122765 0.00087305834 -0.020353027
-0.020955525 -0.017310634 -0.0126788085 -0.022205718 0.029889116 -0.008987072 0.029850842 0.012925731
-0.027484836 0.0221286 -0.011868835 -0.0130791785 -0.025200361 -0.032552395 0.008899839 -0.00723085
0.009005889 -0.02347607 0.023646124 -0.024639877 -0.0068003447 0.0073376843 0.017873306 0.023737893
0.027298393 -0.026143486 0.006210037 -0.012545643 -0.002400478 -0.022829529 0.028727004 -0.0216537
0.016425224 0.0083223 0.011434692 -0.017634735 0.026123956 0.009045405 0.004494658 -0.028257217
0.0131803 -0.005639361 -0.018445112 0.027912943 0.0068233195 -0.015752736 -0.019556135 0.00013037652
0.018302135 -0.010194557 -0.01975776 -0.008807189 -0.025114764 0.012108588 0.022731079 -0.030512227
0.008890016 0.016542058 0.0026095668 -0.01134789 0.016459364 0.014192691 0.009125292 -0.006194319
-0.004350405 0.00020730497 -0.0044382093 -0.0072427723 0.02073918 0.024378855 -0.002006612 -0.0071202395
0.0007279408 -4.3136457e-05 0.0070533827 0.010337143 -0.026786463 -0.015023056 0.02608602 0.008885432
-0.0045757317 -0.019661138 -0.020406635 -0.028891282 -0.009799799 0.0107870875 0.016075673 0.014903696
-0.029776158 -0.020154294 -0.0051576644 0.027435008 0.0043656738 -0.007397468 0.012991228 -0.015116099
-0.018187635 0.02675048 -0.012802425 -0.0048710373 -0.031942222 0.023159795 0.026932925 0.009611942
-0.02198767 -0.032266214 -0.023124883 0.026459275 0.018725146 0.027235998 0.018279597 0.0057624993
-0.0011880897 -0.026097076 -0.029017871 -0.029123632 0.0113721015 -0.016806407 -0.0037657113 -0.018785886
-0.003197072 -0.020007601 -0.018887952 0.0095342435 -0.008852588 0.016016101 -0.012700261 -0.021540288
-0.0053861844 -0.014870912 -0.009047356 -0.027481742 0.018266942 -0.02170287 0.014174414 0.012426158

model.1.bias f4 [32]
00000000: a394 fcba 7c22 9d3c 5ce2 c3bc 7cd4 973b
00000010: 5b1e 03bc 8592 95bb 646c 6139 f068 033d
00000020: 0e34 20bc 80e8 f2bc 06aa 8bbc 5f5c 24bc
00000030: 4940 ca3c 5ece 463c 5e90 9abc 6b59 613b
00000040: a175 703c b78d 9e39 34bc 413b 8bcc b4bc
00000050: dbf4 a63b 52e6 dbbc bbd9 0cbc 0040 063c
00000060: 8310 1f3c 0176 cabc d279 ddba 9e1a 953c
00000070: 3ef8 013d 1553 c9bb d58d 6b3c 68d2 b03a
-0.0019270371 0.019181482 -0.023911647 0.0046334844 -0.008002843 -0.0045645856 0.00021498051 0.032082498
-0.009778036 -0.02965188 -0.017048847 -0.010031789 0.024688857 0.012134163 -0.018867668 0.0034385573
0.014676482 0.00030241694 0.002956164 -0.02207019 0.005095107 -0.026843224 -0.008596833 0.00819397
0.009708527 -0.024714472 -0.0016897267 0.018201169 0.031730883 -0.0061439374 0.014377077 0.001349044

model.4.weight f4 [64, 32]
00000000: f624 eabd 2c5f 793c 9603 e9bd 06ed 15bc
00000010: 3240 0ebe d606 c2bd 7e80 4abd eda7 92bc
00000020: e440 11be 11a4 7dbd 1a2e 34be 156b 0dbe
00000030: 1a89 29be 7c76 ecbd 334c 40bc ddd5 e93d
00000040: 9817 f33b b1f9 2abe 7aa9 143e 16de f3bd
00000050: c3d9 9ebd ec88 333d 98d4 65bd ab02 873c
00000060: 1cb2 3fbd 52d1 10bc 3268 2bbe 0fdf 373b
00000070: 3715 7c3c 13ea dc3d 5982 b83a bfbd d13d
00000080: e0c9 e03b 45a0 ba3d 7023 80bd 6209 a93c
00000090: a372 7d3a bd8d 07be a5ae 313e 375c 003e
000000a0: da4b b73d 7e08 13be 3e5c 2e3e 8cc4 2f3e
000000b0: 8de9 0cbc 35b3 b8bc 212f 1a3e dd6e 14be
000000c0: 4d1c 2b3e 0455 46bd dda0 a6bd c43a 273c
000000d0: 5fb9 653d 193b 8c3c 6196 e13d 2f36 0dbe
000000e0: 9cbb 81bc cb1f 24bc 8b2c ffbd 66d5 07be
000000f0: 9840 74bd ae77 74bd cb4d 223c 56c8 94bd
00000100: bc22 283e 5ab2 8b3d 3d85 abbd 4c61 adbc
00000110: c723 1bbe 0bf6 a63d e918 b6bd c088 113e
00000120: 9ae3 cc3d e522 71bd eaaf d03c 55df bfbc
00000130: d694 14be 1cab ffbd f93e babd 8dd5 2f3e
00000140: 14d3 fcbd 711a 9b3d 8b20 91bd 9be4 7e3d
00000150: e532 053e 0078 f73d 4a5e 19be 5692 4b3c
00000160: c678 323d 19b7 c93c 6525 d93b 64ee 343e
00000170: 933c 0abe 15e7 173d ce17 103d b06c 1a3e
00000180: 8ea6 bb3d 3c12 7bbd dc03 25bc f0f8 05be
00000190: 6331 5d3c 82e2 9e3c 1e1e 1a3e 32e9 243e
000001a0: b991 f8bd 6903 303e 64f9 1cbe da45 4e3d
000001b0: 9dec b13d 1832 bc3d 031b 0d3e d546 41bd
000001c0: 4936 183e 50b4 733c 2958 393b 45ec 6dbd
000001d0: 92bc 19be 86f0 4bbd e354 0fbc 0fe6 bc3c
000001e0: 031e f4bc a8f7 fdbb 0ac0 a83b 3dee c2bd
000001f0: bb4a 04bc 9c5f 1abe 356a b53b c311 233e
00000200: 84b7 a9bd 91f6 e23d 1726 6abd 7089 9ebd
00000210: cf02 aa3d 0c08 31be 24a9 e03d 85cb f53d
00000220: e156 813d 4536 67bb 07fd a9bd 051b e4bd
00000230: 5721 233e c532 a23d e6fc c23d 6182 e3bd
00000240: 34ca d43d c09a e4bd 40ac 083e 3fd5 0b3e
00000250: 52ff 22be 8474 2bbe 5315 21be b8ea a3bd
00000260: 7673 3c3d d283 21be 25e4 143e 5341 e5bd
00000270: 6777 59bd e3ab 243d 9a47 d3bd 81cd a0bb
00000280: 154b 1cbe 640d 22be 88f7 583c 4105 94bd
00000290: b06a ff3d 40a2 cdbd 6237 c63d 5e36 083e
000002a0: 02c5 3cbd 8dbf 04bd feea 6a3d 945b c1bd
000002b0: b9b5 483d 28e9 5ebd 99aa 33bd f471 0fbe
000002c0: 9d04 103e c84d 1fbe df0b 0abd 70e3 963d
000002d0: e86c f7bd f225 513c 1d1b 2b3e 706a 5b3d
000002e0: abde f23d 3936 08be cc16 b73d 3fb8 283c
000002f0: ff88 bd3c fd17 84bd efb8 2abd 5ec2 e33d
00000300: 4d78 db3d 0c27 10be 9f07 183e ddf1 2b3e
00000310: e7de 72bd dd8b c63c f116 cb3d 1fb4 30be
00000320: 1d6f 803d 1bac 1b3e e631 57bd 72fd 18be
00000330: 566e debd 1372 f03d 30be 47bc 3808 31bc
00000340: 2065 fe3c 1f2f 853d 4c70 d63d 1a58 fe3b
00000350: ba7e 32be 5c2a ef3d 07a6 eb3d 1793 213c
00000360: 98c5 c1bd c342 25bd f231 a63d db52 033e
00000370: dbfb 22be f732 fa3c 393c a03c 368a 1d3d
00000380: 5f9d 2cbd 2df7 35bc 5656 2dbe 9810 55bc
00000390: 30d4 19be 4064 1a3e 3c5a 8b3d 4683 8d3d
000003a0: 6fc6 b4bd db26 96bd 21a3 bf3c 8ce9 e4bc
000003b0: 6d88 16bb 0409 593c 81f6 8c3b 2407 1bbe
000003c0: d894 2b3e e73a 9dbd 8094 c93c f1bf e9bd
000003d0: 8fc5 233e ac3a aabd fea3 c03d f0fb 913d
000003e0: 343d 0abd d8b0 293d a6e0 07be 70de 21be
000003f0: b122 cf3d c439 e23d 7ef5 17be cd3a 69bd
-0.11432831 0.015220445 -0.11377637 -0.009150749 -0.13891676 -0.0947396 -0.049438946 -0.017902339
-0.1418491 -0.061924044 -0.17595711 -0.1381038 -0.16556206 -0.115460366 -0.011736917 0.11417744
0.007418584 -0.16696812 0.14517775 -0.11907594 -0.077563785 0.04383175 -0.05611095 0.016480764
-0.046800718 -0.008838968 -0.16738966 0.0028056537 0.015385917 0.107868336 0.0014076933 0.10241269
0.006860003 0.091126 -0.06256759 0.020634357 0.0009668266 -0.13237663 0.17351778 0.12535177
0.089500144 -0.14358708 0.17027375 0.1716482 -0.008600605 -0.02254639 0.15057041 -0.14495416
0.16710015 -0.04842092 -0.08136151 0.010206882 0.056084987 0.017118024 0.110150106 -0.137902
-0.01583653 -0.010017346 -0.12459668 -0.13264999 -0.059631914 -0.059684448 0.009906243 -0.072647735
0.164195 0.06821127 -0.083750226 -0.021164559 -0.15150367 0.08152398 -0.0889147 0.14212322
0.10004349 -0.05887117 0.025474507 -0.023421923 -0.14509901 -0.124838084 -0.09094042 0.17171307
-0.123449475 0.07573403 -0.07086285 0.062229734 0.13007696 0.12083435 -0.14977375 0.012425026
0.04357221 0.02462344 0.006626772 0.17669064 -0.1349967 0.03708561 0.035178952 0.15080523
0.09162627 -0.061296687 -0.010071721 -0.13083243 0.013500544 0.019395117 0.15050551 0.16104582
-0.121371694 0.17188801 -0.1532951 0.050359584 0.086877085 0.09189242 0.13779835 -0.04718669
0.14864458 0.014874533 0.0028281307 -0.058086652 -0.1501334 -0.049789928 -0.008748266 0.02305892
-0.029799467 -0.00775047 0.005149846 -0.095180966 -0.008074458 -0.15075535 0.0055363425 0.15924744
-0.08286956 0.11082185 -0.05716523 -0.07741058 0.08301317 -0.17288226 0.10969761 0.12001709
0.06315399 -0.003528015 -0.08300214 -0.11137966 0.15930687 0.0791984 0.09520893 -0.11108852
0.1039013 -0.11162329 0.13346958 0.13655566 -0.1591771 -0.16743666 -0.15730791 -0.080037534
0.04600855 -0.15772942 0.14540155 -0.111941 -0.053092387 0.040202986 -0.10316391 -0.0049073105
-0.15263017 -0.1582542 0.01324261 -0.072275646 0.12471521 -0.10040712 0.09678532 0.1330199
-0.04608632 -0.03240924 0.057353012 -0.09441295 0.04900143 -0.054421574 -0.043863866 -0.14008313
0.1406426 -0.15557015 -0.033702727 0.07367599 -0.12081319 0.0127653945 0.16709562 0.053568304
0.11858877 -0.13301934 0.08939895 0.010297834 0.023136614 -0.06449888 -0.041680273 0.11121057
0.10716305 -0.14077395 0.14846657 0.16791482 -0.059294607 0.024236614 0.09916485 -0.1725621
0.06271193 0.15202372 -0.05253782 -0.14940432 -0.10860889 0.11740508 -0.01219134 -0.010805182
0.03105408 0.06503128 0.10470638 0.0077619674 -0.17431155 0.11678001 0.115062766 0.009861729
-0.09461516 -0.040346872 0.08114995 0.12824576 -0.15916388 0.03054188 0.019559966 0.038461886
-0.04214227 -0.011106295 -0.16927466 -0.013004445 -0.1502235 0.15077305 0.0680432 0.06909804
-0.08826911 -0.0733163 0.023393216 -0.027943395 -0.00229695 0.013246778 0.0043018465 -0.15139443
0.16755998 -0.0767725 0.024606943 -0.11413563 0.15993331 -0.08311972 0.09406279 0.071281314
-0.033749774 0.041428417 -0.1326929 -0.1580751 0.10114039 0.11046174 -0.14839742 -0.056940842

model.4.bias f4 [64]
00000000: e203 d33d 4d7f b53d 928b b43d d5a8 29be
00000010: e377 f6bc 03b1 35be cd62 0fbd 227c d93d
00000020: e93f bbbc 6e30 343e 7b9c 223e ecc0 19bd
00000030: 9e09 ab3c 0ca1 e93d 28c1 063b 7004 c0bc
00000040: 2c12 0a3e 20ea 09be d1ef 95bd 180e 11bd
00000050: c544 2c3e a6b9 20be 2b9d ebbd 27e0 96bd
00000060: 462d 62bd 886f 22be 1dfb 08be c1ca f03c
00000070: ae9e 0c3e c1f1 073d 1f3b 0b3d 39d9 163e
00000080: 8fa7 173b 78df c43d 9fd4 0e3d b88c b5bd
00000090: 5ea1 df3d b926 d73c 839e 0bbc 8abc 0f3e
000000a0: 1e07 bb3d eff4 6d3d 16c9 ccbd 6b6c 84bb
000000b0: 8ee9 c0bd 15f8 4ebd 0e36 69bd 2abc ea3c
000000c0: 2d7e 203c 7e13 753d f11a 09be 8a10 1fbd
000000d0: 7797 90bc f7a5 063e 4d69 8bbd 6615 c93d
000000e0: 0f55 693c e1f7 183e 370f 26be b283 db3d
000000f0: 787c 6dbd 23df d0bd 0279 fdbd d13a 1fbb
0.10303475 0.08862171 0.088156834 -0.1656831 -0.030086463 -0.17743306 -0.035006333 0.106193796
-0.022857623 0.175966 0.15880005 -0.0375375 0.02087861 0.114076704 0.0020561907 -0.023439616
0.13483495 -0.13468218 -0.07321132 -0.03541383 0.16823108 -0.1569582 -0.11504587 -0.073669724
-0.055218957 -0.15862858 -0.13377042 0.029393556 0.13732406 0.03318954 0.03399193 0.14731301
0.0023140644 0.09612936 0.03487074 -0.088647306 0.1091945 0.026263582 -0.008521679 0.14036766
0.09132217 0.058094915 -0.099992916 -0.0040412447 -0.09419547 -0.05052956 -0.056936316 0.028654177
0.009795708 0.059833042 -0.13389184 -0.038834132 -0.017650349 0.13149248 -0.06807194 0.098185346
0.014241471 0.14938308 -0.16216742 0.10718478 -0.05798003 -0.1019881 -0.12376596 -0.0024296532

model.7.weight f4 [1, 64]
00000000: 7033 db3c 3248 78bd 9fce 18bd 749a 33bc
00000010: 8311 3cbd 7c18 7cbb d0ae c83d c788 eabd
00000020: e855 94bd 05e4 303d c78b 7fbd 61c1 d63b
00000030: 6f27 ee3d 017b bebd bbe6 fdbd 74e2 2e3d
00000040: 66b2 f63d dff2 d6bd b412 d13d 0b94 10bd
00000050: 4c1a 52bd 7ffb 9a3d f0d9 ef3d f938 d33c
00000060: 120b 3abd f34f 42bd 2500 09bd 91e0 00be
00000070: e688 b83c b067 623d 7a33 89bc 467c c33c
00000080: 2d4f 4c3d 1293 7a3d dd10 b53c f357 b23d
00000090: 9399 acbd eaf1 343d 88a3 553d 8bde dbbd
000000a0: 2dfd 843d ca0b d3bd 915e 8bbd 0c08 83bd
000000b0: c643 3abd 8ed6 903d eb34 d8bc 3467 453d
000000c0: ea3a 9ebd 8b04 85bd ee32 e5bd ae4b 893d
000000d0: a2f6 adbd 95e1 e2bd 10b1 9bbd 4eab eabd
000000e0: 06de 8cbd 926d 673d b344 343d 87ee c1bd
000000f0: 40a6 633d 68ed 3f3d 21bb 0d3a 442d ee3d
0.026757926 -0.060615726 -0.037306424 -0.010962117 -0.045915138 -0.0038466742 0.09798968 -0.114518695
-0.07242948 0.043186206 -0.06238916 0.0065538143 0.11628615 -0.09300805 -0.12397524 0.04269643
0.120457456 -0.10495543 0.102086455 -0.035297435 -0.05129461 0.075675 0.1171149 0.025784003
-0.045420714 -0.047439527 -0.033447403 -0.12585665 0.022526216 0.055274665 -0.016748179 0.02386297
0.049880195 0.061175413 0.022102768 0.08708181 -0.084277295 0.04417602 0.05215791 -0.10735806
0.06493602 -0.10304983 -0.068051465 -0.06398019 -0.04547479 0.07072173 -0.02639242 0.048194125
-0.07726081 -0.06495007 -0.11191355 0.06703888 -0.08494307 -0.110781826 -0.07602131 -0.11458455
-0.06878285 0.05650098 0.04401083 -0.094693236 0.05557847 0.046857268 0.00054066075 0.116297275
