survival_model.pth (torch, 265032 bytes, 4 tensors)

fc1.weight f4 [64, 1024]
0.029068204 0.024971265 -0.015846267 0.023420837 0.013475363 0.00337991 0.013099332 0.016524268
0.022357443 0.020065363 0.027291784 -0.0013119656 0.0023901984 -0.0014561932 -0.0029571876 -0.002079134
-0.014987293 0.00014281142 0.017557798 -0.03668844 -0.017766438 -0.014046823 0.0013330326 -0.016004572
0.009646136 -0.016438521 -0.005262625 -0.014549494 0.022991983 0.033863395 -0.02744482 0.020332264
0.010802412 -0.0058130766 -0.01463898 -0.0019317527 0.007948548 -0.035818066 0.013423377 0.033987418
-0.0049756323 0.021068517 0.02741609 0.024425289 0.002782913 -0.0070919218 0.034501422 0.008821551
0.021471726 -0.020644698 0.008208486 -0.004512722 0.028357534 -0.028933179 0.00659006 0.022321787
0.021380201 -0.015516873 0.019401312 -0.014306726 -0.0026383074 -0.0011643824 -0.014637528 0.0062588025
-0.0075658425 0.024932317 -0.02646008 -0.037115984 -0.026862549 0.004243011 -0.016332848 0.018895324
-0.015977746 -0.02443773 -0.013844437 0.023796896 -0.038453672 0.013001342 -0.027679615 0.019533195
-0.002835744 0.004445098 -0.00021464306 -0.028937701 -0.00293456 -0.019645847 0.0028491642 0.019254643
-0.020862805 0.0090985345 0.009253398 -0.015198309 -0.012506832 0.008650489 -0.01672827 -0.0121124275
0.018904211 -0.011751978 0.010841515 -0.0026940235 0.0075465427 0.0058086016 0.011294407 -0.0024002185
0.020798234 -0.015083605 -0.040120054 0.014255085 0.006841661 0.009219171 0.026439294 -0.019601451
-0.03973257 -0.005533742 0.002768857 0.021313455 -0.0010666095 0.016194945 -0.024471788 -0.004882505
-0.012811964 0.02148793 0.018251462 -0.020539245 0.02621254 0.0057480973 -0.0047665765 0.023020713
-0.03098341 0.039886016 0.012658609 0.028446116 -0.0123434765 -0.020156857 -0.004302898 0.03140445
0.0031984304 -0.0142913 0.03362673 0.02926054 0.013930277 0.023561884 -0.008230937 0.013398142
-0.02168939 -0.0223383 0.0076457458 0.0141465245 -0.012548808 -0.0052960548 -0.0070583164 -0.031609394
0.0036350384 0.0010615954 0.018375352 0.017260779 0.0026136357 -0.021709794 0.021162177 -0.025299773
0.018167479 -0.03171256 0.011415671 -0.019355863 0.012464611 0.005901918 0.02535104 -0.0029959143
0.02493778 -0.005704692 0.010608701 0.0127769355 -0.030833408 -0.001459448 -0.012966289 -0.02205206
-0.015107528 0.02194473 0.010713505 0.0026727444 -0.0051125223 0.029537253 0.03600541 0.011997259
0.02739936 -0.010775348 -0.02993988 -0.018837694 0.03883626 -0.021870721 0.0052445596 -0.018649338
-0.0025758275 0.018681452 -0.030732853 -0.033016853 -0.016093845 -0.019068297 0.02262521 -0.0024268872
-0.038785044 0.00930906 -0.00031647776 -0.0022399307 -0.021709237 -0.023959188 0.039703164 -0.02023757
-0.0105737895 -0.0005150123 0.0029389649 0.024460753 -0.03376237 -0.037134383 -0.02699058 0.03714614
0.016496368 0.019195987 -0.01677094 0.029887082 -0.021766057 0.018358855 -0.015891533 0.018923866
-0.018109499 0.016454248 0.015659211 0.0032427078 0.014681225 0.006294115 7.8152894e-05 0.0030272154
-0.005386576 0.01329538 0.015045221 -0.008752711 0.030746112 -0.024175368 -0.034802362 0.025136564
0.002157632 0.01817429 0.03302871 0.0056519373 0.00720145 0.028597951 -0.008348889 0.010934511
-0.0380342 -0.038836237 -0.0072421413 -0.018111639 -0.0065983646 0.0042614834 0.0026812698 0.018101286
00000000: 7120 ee3c 8a90 cc3c 08d0 81bc 0edd bf3c
00000010: c5c7 5c3c 7b81 5d3b 959e 563c e75d 873c
00000020: f526 b73c 1e60 a43c 0593 df3c 43f6 abba
00000030: e0a4 1c3b bcdd beba 60cd 41bb 1542 08bb
00000040: 438d 75bc a6bf 1539 5fd5 8f3c 9e46 16bd
00000050: ec8a 91bc a524 66bc 27b9 ae3a 051c 83bc
00000060: d40a 1e3c 14aa 86bc 1972 acbb 0061 6ebc
00000070: af59 bc3c 58b4 0a3d f6d3 e0bc d98f a63c
00000080: 9afc 303c 9f7b bebb 55d8 6fbc dd32 fdba
00000090: a03a 023c f7b5 12bd b9ed 5b3c 6436 0b3d
000000a0: a10a a3bb e297 ac3c b597 e03c 8b17 c83c
000000b0: 8861 363b 5a63 e8bb 5d51 0d3d 4488 103c
000000c0: 79e5 af3c 121f a9bc e37c 063c 75df 93bb
000000d0: 0f4e e83c 4605 edbc 6ef1 d73b 2edc b63c
000000e0: 8825 af3c 7c3a 7ebc 80ef 9e3c c266 6abc
000000f0: 74e7 2cbb 319e 98ba 3ed2 6fbc a416 cd3b
00000100: e3ea f7bb dc3e cc3c cfc2 d8bc ee06 18bd
00000110: d90e dcbc f508 8b3b 77cc 85bc 5eca 9a3c
00000120: c3e3 82bc a231 c8bc c7d3 62bc b5f1 c23c
00000130: 9981 1dbd 9503 553c 5cc0 e2bc 1404 a03c
00000140: e4d7 39bb 2fa8 913b cf11 61b9 c20e edbc
00000150: bf51 40bb 54f0 a0bc 0bb9 3a3b eabb 9d3c
00000160: 79e8 aabc 0512 153c 909b 173c 5402 79bc
00000170: 75e9 4cbc c8ba 0d3c ba09 89bc 3473 46bc
00000180: 01dd 9a3c 5e8b 40bc 9ca0 313c 378e 30bb
00000190: fd48 f73b 1556 be3b 2d0c 393c fc4c 1dbb
000001a0: 0f61 aa3c 3a21 77bc ed54 24bd 298e 693c
000001b0: 0330 e03b 010c 173c 3897 d83c 3993 a0bc
000001c0: 9fbe 22bd 6454 b5bb b675 353b 8e99 ae3c
000001d0: 7acd 8bba 43ab 843c 0f79 c8bc 6cfd 9fbb
000001e0: 46e9 51bc 7507 b03c 1784 953c eb41 a8bc
000001f0: aebb d63c 895a bc3b f130 9cbb ef95 bc3c
00000200: ecd0 fdbc 855f 233d 0e66 4f3c d407 e93c
00000210: 4b3c 4abc fe1f a5bc 53ff 8cbb f4a1 003d
00000220: c29c 513b 0f26 6abc 2fbc 093d cdb3 ef3c
00000230: d13b 643c da04 c13c 0ddb 06bc e183 5b3c
00000240: f3ad b1bc cffe b6bc 2a89 fa3b d3c6 673c
00000250: 8499 4dbc 878a adbb 7349 e7bb da78 01bd
00000260: d339 6e3b 3b25 8b3a e887 963c 7a66 8d3c
00000270: 8849 2b3b bdd8 b1bc 4d5c ad3c 7841 cfbc
00000280: f7d3 943c 08e5 01bd cb08 3b3c 3090 9ebc
00000290: 5e38 4c3c e064 c13b fcac cf3c 1a57 44bb
000002a0: 514a cc3c 6dee babb 1ed0 2d3c 5a56 513c
000002b0: 5896 fcbc f34a bfba 8f70 54bc 86a6 b4bc
000002c0: 9185 77bc 6fc5 b33c b287 2f3c 3629 2f3b
000002d0: f286 a7bb 1cf8 f13c 697a 133d 2790 443c
000002e0: 9f74 e03c 168b 30bc 7b44 f5bc 8251 9abc
000002f0: c512 1f3d 3a2a b3bc 8eda ab3b 7fc6 98bc
00000300: 37cf 28bb d809 993c 77c3 fbbc ae3c 07bd
00000310: 3dd7 83bc 1e35 9cbc 8158 b93c 690c 1fbb
00000320: 11dd 1ebd 0785 183c edec a5b9 cdcb 12bb
00000330: 92d7 b1bc 0f46 c4bc c99f 223d 43c9 a5bc
00000340: b03d 2dbc e401 07ba a69b 403b eb61 c83c
00000350: 694a 0abd 391a 18bd 591b ddbc 8d26 183d
00000360: 6423 873c e740 9d3c 3663 89bc c1d5 f43c
00000370: bb4e b2bc 4f65 963c f62e 82bc 3906 9b3c
00000380: 5f5a 94bc 0fcb 863c bf47 803c 9c83 543b
00000390: 8589 703c dd3e ce3b 04e6 a338 3f64 463b
000003a0: e081 b0bb ded4 593c 3b80 763c 8867 0fbc
000003b0: 45df fb3c 6c0b c6bc ec8c 0ebd 32eb cd3c
000003c0: 0f67 0d3b 40e2 943c 1d49 073d e333 b93b
000003d0: 24fa eb3b 4046 ea3c c7c9 08bc aa26 333c
000003e0: c0c9 1bbd bf12 1fbd 7c4f edbb dc5e 94bc
000003f0: 1837 d8bb eaa3 8b3b 3eb8 2f3b 2649 943c

fc1.bias f4 [64]
0.018248824 0.041152723 0.0025494532 -0.019639254 0.037486102 -0.0069428384 0.007542781 -0.011098667
-0.029102424 -0.02793122 -0.026523974 -0.007502398 -0.018697958 -0.013101335 -0.019277472 -0.032396693
-0.009166356 0.01041654 -0.013472714 -0.0023858584 -0.027256 -0.031853482 -0.004294797 0.033879068
0.0410435 -0.03068005 -0.020003919 -0.028202832 0.015438687 -0.033079393 0.019609924 -0.028687311
0.03384762 0.019593298 0.01571014 0.026976127 0.013235808 0.02343379 -0.01235649 -0.02172409
0.010221915 0.009757681 -0.0126726255 0.02844546 -0.0131072495 -0.019581832 0.010013915 -0.019302208
0.021633282 0.04732427 -0.036542732 0.027344298 -0.027439078 0.00036647468 0.025540302 -0.018914897
0.011514348 -0.019603096 0.0018251982 0.016107516 -0.0021282975 -0.019094901 0.0121435495 0.045284968
00000000: 8f7e 953c c28f 283d ba14 273b 80e2 a0bc
00000010: 078b 193d c080 e3bb 6f29 f73b 2fd7 35bc
00000020: 3568 eebc 04d0 e4bc ce48 d9bc add6 f5bb
00000030: 762c 99bc fba6 56bc caeb 9dbc 65b2 04bd
00000040: 7c2e 16bc 23aa 2a3c a9bc 5cbc 105c 1cbb
00000050: fa47 dfbc cc78 02bd 5ebb 8cbb c7c4 0a3d
00000060: 3b1d 283d ba54 fbbc 42df a3bc a009 e7bc
00000070: 8cf2 7c3c 427e 07bd fea4 a03c a701 ebbc
00000080: cda3 0a3d 2082 a03c 8db2 803c 0afd dc3c
00000090: 01db 583c 38f8 bf3c e072 4abc b8f6 b1bc
000000a0: d279 273c aede 1f3c d8a0 4fbc 7406 e93c
000000b0: cabf 56bc 146a a0bc 6711 243c aa1f 9ebc
000000c0: 4838 b13c 18d7 413d d5ad 15bd 2601 e03c
000000d0: ebc7 e0bc 6623 c039 e539 d13c 6af3 9abc
000000e0: ada6 3c3c ac96 a0bc 7d3b ef3a e9f3 833c
000000f0: e87a 0bbb e96c 9cbc bdf5 463c bb7c 393d

fc2.weight f4 [2, 64]
0.06865663 -0.0038944143 0.10575177 -0.09380175 -0.061480626 -0.08433269 -0.045694802 -0.095759384
0.011533215 0.016090244 0.033394635 0.12973365 -0.06654476 0.11821216 -0.01575758 0.093794525
0.10578127 -0.013191508 0.09695374 -0.09163812 0.0060157776 0.046523925 0.10784076 0.12844612
-0.07426615 0.122311994 0.009205177 0.10524874 0.049659308 0.10919657 0.029967902 0.041642927
-0.09736178 -0.08006424 -0.101522766 -0.01039835 -0.09184056 0.08496944 -0.053644985 0.08855863
0.013668098 -0.032159172 0.110185966 0.10243829 -0.014546433 0.06487894 -0.00015305426 -0.01499939
0.054604597 0.06400415 0.0529348 -0.068919584 0.11441909 -0.00271272 0.054424297 -0.043148376
0.00786963 -0.10477726 0.029173736 -0.094528764 0.05328397 -0.055727944 -0.034727316 0.121978074
-0.08952329 0.022253485 0.08919125 -0.017560527 0.08732109 -0.032768622 0.1427066 0.10323028
-0.080882214 -0.081079915 0.05539465 -0.06602189 0.102797255 -0.0025794043 -0.10926073 -0.037727892
-0.011629534 -0.051339634 -0.09143894 -0.068214536 -0.075520486 -0.04336864 0.0037055437 0.06041987
0.044146754 -0.06881116 -0.05037619 -0.051556244 0.114319876 -0.048325256 0.0031296206 -0.053711757
0.058975633 0.13682684 -0.061102867 0.059561405 -0.08385586 0.11883392 -0.09080018 0.051832378
0.107005745 -0.042083386 0.04952532 0.123578295 0.0040156357 -0.10274999 -0.017612886 0.048197195
-0.10796265 0.06318785 -0.11516857 0.10550506 -0.044021994 -0.09132447 -0.06504648 -0.08962478
-0.08430107 0.08285569 -0.06855503 0.0016885597 0.10459698 -0.09098991 0.08952357 0.018652014
00000000: d99b 8c3d 6e39 7fbb 6294 d83d 221b c0bd
00000010: 1cd3 7bbd 9eb6 acbd 792a 3bbd 7f1d c4bd
00000020: cff5 3c3c b0cf 833c d0c8 083d e6d8 043e
00000030: 9e48 88bd 3819 f23d 0a16 81bc 5817 c03d
00000040: daa3 d83d 3221 58bc af8f c63d c4ac bbbd
00000050: 0020 c53b df8f 3e3d 9edb dc3d 6187 033e
00000060: da18 98bd b67e fa3d 50d1 163c a78c d73d
00000070: 8f67 4b3d 74a2 df3d 3f7f f53c c691 2a3d
00000080: 9d65 c7bd b8f8 a3bd 2beb cfbd d75d 2abc
00000090: e716 bcbd 7504 ae3d d8ba 5bbd 3a5e b53d
000000a0: 28f0 5f3c 56b9 03bd 2ea9 e13d 2bcb d13d
000000b0: 2a54 6ebc 40df 843d 317d 20b9 00c0 75bc
000000c0: 12a9 5f3d 9c14 833d 29d2 583d b625 8dbd
000000d0: 8e54 ea3d e4c7 31bb 03ec 5e3d 5abc 30bd
000000e0: 9fef 003c 7695 d6bd c2fd ee3c 4c98 c1bd
000000f0: 4b40 5a3d fc42 64bd 3b3e 0ebd a4cf f93d
00000100: fd57 b7bd f14c b63c e7a9 b63d 18db 8fbc
00000110: 66d5 b23d 6438 06bd ae21 123e 666a d33d
00000120: 93a5 a5bd 3a0d a6bd 80e5 623d 7c36 87bd
00000130: 5e87 d23d 390b 29bb 17c4 dfbd 9088 1abd
00000140: cd89 3ebc 8249 52bd 5744 bbbd 10b4 8bbd
00000150: 7caa 9abd 51a3 31bd b5d8 723b d37a 773d
00000160: 3ad3 343d deec 8cbd 4457 4ebd a42c 53bd
00000170: 8a20 ea3d b4f0 45bd 521a 4d3b dc00 5cbd
00000180: 6f90 713d 561c 0c3e 0047 7abd a9f6 733d
00000190: 9fbc abbd 335f f33d 72f5 b9bd 304e 543d
000001a0: d425 db3d a15f 2cbd 10db 4a3d 9e16 fd3d
000001b0: 9895 833b 966e d2bd e648 90bc 6c6a 453d
000001c0: 861b ddbd a268 813d 80dd ebbd 0913 d83d
000001d0: 6850 34bd 5308 bbbd 1737 85bd 328d b7bd
000001e0: 0aa6 acbd 3eb0 a93d 9466 8cbd a952 dd3a
000001f0: f136 d63d eb58 babd 2258 b73d 1ccc 983c

fc2.bias f4 [2]
-0.03677366 -0.03740272
00000000: fa9f 16bd 9833 19bd
