lightning_logs/version_13/checkpoints/epoch=199-step=1600.ckpt (torch, 464377 bytes, 23 tensors)

model.0.weight f4 [1024]
0	0x3f806db1	1.0033475
1	0x3f7f8327	0.998095
2	0x3f7fd417	0.99933
3	0x3f7edf82	0.99559796
4	0x3f803647	1.0016564
5	0x3f7fec95	0.9997037
6	0x3f801a79	1.0008079
7	0x3f802b22	1.0013163
8	0x3f801db5	1.0009066
9	0x3f7fdeb1	0.99949175
10	0x3f7fc78a	0.9991385
11	0x3f804dc9	1.0023738
12	0x3f803dfb	1.0018915
13	0x3f80020f	1.0000628
14	0x3f7fc2ac	0.9990642
15	0x3f8014f3	1.0006393
16	0x3f7f68e4	0.99769425
17	0x3f7f34c3	0.99689883
18	0x3f807c35	1.0037905
19	0x3f7fea30	0.99966717
20	0x3f805d2c	1.0028434
21	0x3f809908	1.0046701
22	0x3f804228	1.0020189
23	0x3f7fcde9	0.9992357
24	0x3f7fae51	0.9987536
25	0x3f7f2a26	0.9967369
26	0x3f7fcff3	0.9992668
27	0x3f7fcc19	0.99920803
28	0x3f803927	1.0017442
29	0x3f800c11	1.0003682
30	0x3f7fb3ca	0.9988371
31	0x3f804fd4	1.0024362
32	0x3f7faab6	0.9986986
33	0x3f7fca87	0.9991841
34	0x3f7ff980	0.9999008
35	0x3f8030ab	1.0014852
36	0x3f802c7f	1.0013579
37	0x3f809ca3	1.0047802
38	0x3f7fbd2d	0.99898034
39	0x3f7ff0fc	0.9997709
40	0x3f800a61	1.0003167
41	0x3f80209b	1.000995
42	0x3f7fe8a7	0.99964374
43	0x3f7f860b	0.9981391
44	0x3f801ff7	1.0009755
45	0x3f8028c9	1.0012447
46	0x3f8032af	1.0015467
47	0x3f80096a	1.0002873
48	0x3f7fda3f	0.9994239
49	0x3f807693	1.0036186
50	0x3f803323	1.0015606
51	0x3f8039f7	1.001769
52	0x3f801527	1.0006455
53	0x3f8005f3	1.0001816
54	0x3f802a07	1.0012826
55	0x3f7fe6a0	0.9996128
56	0x3f8045d1	1.0021306
57	0x3f7fe4d1	0.9995852
58	0x3f8033fb	1.0015863
59	0x3f7f538e	0.9973687
60	0x3f800949	1.0002834
61	0x3f80154e	1.0006502
62	0x3f7fd41e	0.9993304
63	0x3f8017d7	1.0007275
64	0x3f800577	1.0001668
65	0x3f7fc0b9	0.99903446
66	0x3f7fcecf	0.9992494
67	0x3f7edf8a	0.99559844
68	0x3f80aa92	1.0052054
69	0x3f800d67	1.000409
70	0x3f803ab6	1.0017917
71	0x3f7f92a9	0.9983316
72	0x3f8034b0	1.0016079
73	0x3f8020bd	1.0009991
74	0x3f7ff2c6	0.9997982
75	0x3f8004f5	1.0001513
76	0x3f7f7e60	0.9980221
77	0x3f805fea	1.0029271
78	0x3f8017eb	1.0007299
79	0x3f7fc44f	0.9990892
80	0x3f7fe63b	0.9996068
81	0x3f7f363c	0.9969213
82	0x3f7ffe0f	0.9999704
83	0x3f800be3	1.0003628
84	0x3f803494	1.0016046
85	0x3f804bfb	1.0023187
86	0x3f805888	1.0027018
87	0x3f80a1b9	1.0049354
88	0x3f7fd32c	0.999316
89	0x3f7f8440	0.9981117
90	0x3f805aa8	1.0027666
91	0x3f7fe249	0.9995466
92	0x3f7f4c5a	0.9972588
93	0x3f8017ce	1.0007265
94	0x3f8074c5	1.0035635
95	0x3f803dca	1.0018857
96	0x3f7fb0ea	0.99879324
97	0x3f8059d6	1.0027416
98	0x3f805c1d	1.0028111
99	0x3f8008cd	1.0002686
100	0x3f800129	1.0000354
101	0x3f80345f	1.0015982
102	0x3f7faa76	0.9986948
103	0x3f802b0b	1.0013136
104	0x3f8041a7	1.0020036
105	0x3f804101	1.0019838
106	0x3f802011	1.0009786
107	0x3f7f3a40	0.9969826
108	0x3f7f69ae	0.9977063
109	0x3f801c70	1.0008678
110	0x3f7fce0b	0.9992377
111	0x3f7fd3fb	0.9993283
112	0x3f7ff9bb	0.99990433
113	0x3f7f51d3	0.9973423
114	0x3f805b89	1.0027934
115	0x3f7fe2f5	0.99955684
116	0x3f808233	1.0039734
117	0x3f7fd31f	0.9993152
118	0x3f7fe6c4	0.99961495
119	0x3f803ff4	1.0019517
120	0x3f8036f2	1.0016768
121	0x3f80167f	1.0006865
122	0x3f8086d9	1.0041152
123	0x3f7f4daa	0.9972788
124	0x3f7fa779	0.9986492
125	0x3f803e00	1.0018921
126	0x3f800c22	1.0003703
127	0x3f7fecc9	0.9997068
128	0x3f7ff3ca	0.9998137
129	0x3f8097a5	1.0046278
130	0x3f7f5ce8	0.9975114
131	0x3f804f77	1.0024251
132	0x3f803bf3	1.0018295
133	0x3f800cb7	1.000388
134	0x3f80310b	1.0014967
135	0x3f7ff679	0.9998546
136	0x3f7fe68e	0.99961174
137	0x3f80570e	1.0026567
138	0x3f80c37a	1.0059655
139	0x3f808d24	1.0043073
140	0x3f805255	1.0025126
141	0x3f806ab4	1.0032563
142	0x3f802704	1.0011907
143	0x3f7faf8c	0.9987724
144	0x3f801c77	1.0008687
145	0x3f801979	1.0007774
146	0x3f7fe58a	0.99959624
147	0x3f7fc833	0.99914855
148	0x3f801fa5	1.0009657
149	0x3f7fc8a3	0.9991552
150	0x3f7efbd2	0.99603
151	0x3f7f501d	0.9973162
152	0x3f802a12	1.0012839
153	0x3f802058	1.000987
154	0x3f800903	1.000275
155	0x3f7fc6d8	0.99912786
156	0x3f80468a	1.0021527
157	0x3f802c14	1.0013452
158	0x3f7fe5e5	0.99960166
159	0x3f7fefd1	0.99975306
160	0x3f803028	1.0014696
161	0x3f7fd296	0.99930704
162	0x3f804741	1.0021745
163	0x3f7fcf84	0.9992602
164	0x3f7fb23c	0.9988134
165	0x3f805125	1.0024763
166	0x3f7f5038	0.9973178
167	0x3f800882	1.0002596
168	0x3f803130	1.0015011
169	0x3f7f3f10	0.997056
170	0x3f7fce26	0.9992393
171	0x3f802bd8	1.001338
172	0x3f7fb5be	0.9988669
173	0x3f7f9896	0.998422
174	0x3f7fcde1	0.9992352
175	0x3f80209c	1.0009952
176	0x3f807576	1.0035846
177	0x3f7fe5b8	0.999599
178	0x3f7fe2d1	0.9995547
179	0x3f7fc767	0.9991364
180	0x3f803ce0	1.0018578
181	0x3f80688b	1.0031904
182	0x3f802d00	1.0013733
183	0x3f8043bb	1.002067
184	0x3f80c4ce	1.006006
185	0x3f801889	1.0007488
186	0x3f7fc63d	0.9991186
187	0x3f8051e3	1.002499
188	0x3f8050c5	1.0024649
189	0x3f800548	1.0001612
190	0x3f7fe167	0.9995331
191	0x3f8012ed	1.0005776
192	0x3f7f9914	0.99842954
193	0x3f800c00	1.0003662
194	0x3f7f5d96	0.99752176
195	0x3f7fdff8	0.99951124
196	0x3f8002d2	1.0000861
197	0x3f803e40	1.0018997
198	0x3f8021b8	1.001029
199	0x3f805101	1.002472
200	0x3f804084	1.0019689
201	0x3f80350e	1.0016191
202	0x3f802c9f	1.0013617
203	0x3f801c34	1.0008607
204	0x3f800abb	1.0003275
205	0x3f8014f4	1.0006394
206	0x3f7e9b8a	0.99456084
207	0x3f800b68	1.0003481
208	0x3f7f0a1d	0.99624807
209	0x3f800b96	1.0003536
210	0x3f7f6055	0.99756366
211	0x3f8018c4	1.0007558
212	0x3f7f73d8	0.9978614
213	0x3f800f25	1.0004622
214	0x3f8008ba	1.0002663
215	0x3f806ee7	1.0033845
216	0x3f7f7188	0.9978261
217	0x3f80ff58	1.0077925
218	0x3f7fc3da	0.9990822
219	0x3f7f9b6c	0.9984653
220	0x3f8019f1	1.0007917
221	0x3f802f54	1.0014443
222	0x3f7f65e6	0.9976486
223	0x3f7fde50	0.99948597
224	0x3f80506c	1.0024543
225	0x3f7f9995	0.9984372
226	0x3f806c82	1.0033114
227	0x3f8040b5	1.0019747
228	0x3f7ffb68	0.9999299
229	0x3f7fd5df	0.99935716
230	0x3f7f497c	0.99721503
231	0x3f7fbd4d	0.99898225
232	0x3f7fc4ef	0.9990987
233	0x3f802af6	1.0013111
234	0x3f7f71f8	0.9978328
235	0x3f804546	1.002114
236	0x3f804ea8	1.0024004
237	0x3f7fc943	0.99916476
238	0x3f7f405b	0.99707574
239	0x3f809bde	1.0047567
240	0x3f8022e4	1.0010648
241	0x3f802faf	1.0014552
242	0x3f8013dc	1.0006061
243	0x3f802dbe	1.001396
244	0x3f7f9a13	0.99844474
245	0x3f7fcbf4	0.9992058
246	0x3f7ea1b8	0.99465513
247	0x3f7fb84d	0.99890596
248	0x3f80471a	1.0021698
249	0x3f7fb20a	0.9988104
250	0x3f800a0c	1.0003066
251	0x3f802fca	1.0014584
252	0x3f804f33	1.002417
253	0x3f801c68	1.0008669
254	0x3f7f8ffd	0.99829084
255	0x3f7fe516	0.9995893

model.0.bias f4 [1024]
0	0x3b8221fa	0.0039713355
1	0x3a74ac44	0.0009333531
2	0xbac80448	-0.0015260065
3	0x39ad891e	0.00033099292
4	0x3b2e3cd1	0.0026586542
5	0x39da273e	0.00041609438
6	0xba4bbe08	-0.00077721523
7	0x3b3ae5fd	0.0028518431
8	0x3ab0c253	0.0013485648
9	0x3b133f73	0.0022468239
10	0x3a2a70ba	0.0006501783
11	0x3b978091	0.0046234806
12	0xbb165e07	-0.0022944228
13	0xbaf6dd6e	-0.0018834302
14	0x3b73427d	0.0037118488
15	0x38f052b9	0.000114595
16	0x3b6896ab	0.0035490196
17	0xba1001d3	-0.0005493436
18	0x39c6a050	0.00037884945
19	0xbb136c09	-0.0022494814
20	0x398a24c3	0.000263488
21	0xbab58a3d	-0.0013850402
22	0x3b7c0e23	0.0038460575
23	0xbabc81e2	-0.001438197
24	0xbacf3f14	-0.0015811645
25	0x3a7760a2	0.00094367017
26	0xbae7d8cd	-0.0017688513
27	0x3acbe69c	0.0015556398
28	0x3b2cd657	0.0026372874
29	0x39970e2f	0.00028811532
30	0xbb4afc4a	-0.003097313
31	0x3aa81e4b	0.0012826411
32	0xb7f054b0	-2.8649665e-05
33	0x3abce66c	0.0014411933
34	0xbaeb36ef	-0.0017945449
35	0xbb4c8f1d	-0.0031213232
36	0x3b22111d	0.0024729439
37	0xba3fb5ca	-0.00073131605
38	0xba740164	-0.00093080685
39	0x3b5c42e7	0.0033609213
40	0x3ba9b346	0.0051788418
41	0x3ad9982f	0.001660114
42	0xbaf2ca19	-0.0018523365
43	0xb9018780	-0.00012352876
44	0xbadc9118	-0.0016827909
45	0x3b70a197	0.0036717409
46	0xbaa7e83a	-0.0012810298
47	0x3b1215d4	0.0022290843
48	0xbbf971c7	-0.0076124403
49	0xb98925dd	-0.00026158887
50	0xbb788b9f	-0.0037925018
51	0xbb006cee	-0.0019596177
52	0xbb216a9f	-0.0024630202
53	0xb9d6f1e5	-0.00040997486
54	0xbafe0df0	-0.0019382816
55	0x3bb0c6fe	0.0053948155
56	0xbb248c44	-0.002510802
57	0xbad7af0c	-0.0016455366
58	0x3b1461f0	0.0022641383
59	0x3accf5c9	0.0015637215
60	0x3b03be97	0.0020102614
61	0x3b3304ba	0.002731605
62	0x39a7bb12	0.000319921
63	0x3949297c	0.00019184308
64	0x3ab956e0	0.0014140271
65	0xbbc6f0ad	-0.0060711713
66	0x3953b56b	0.00020190112
67	0x3a4e16f2	0.00078616955
68	0xbae9cc9e	-0.001783747
69	0x3a88de8f	0.0010442304
70	0x3a1f5479	0.0006077956
71	0x3a6ea19b	0.00091030606
72	0x38a05f2a	7.64712e-05
73	0xbb82b071	-0.0039883186
74	0xbac7dc14	-0.0015248084
75	0xbaa4c7b8	-0.0012571728
76	0xbab995a5	-0.0014158977
77	0x3b47303f	0.0030393747
78	0xbb785d4b	-0.0037897404
79	0xbb4ac023	-0.0030937276
80	0xbb6ff2e3	-0.0036613278
81	0xba0c18bb	-0.00053442613
82	0x3b88a8f9	0.0041705337
83	0x3b0d0d19	0.00215227
84	0xbad768e3	-0.0016434457
85	0x3b084b3d	0.0020796799
86	0x3ba9fbf6	0.005187507
87	0x3aa68030	0.0012702998
88	0xbb71a0cd	-0.0036869526
89	0x3a9e4afa	0.0012076788
90	0xba37ac48	-0.0007006568
91	0xb76d1ecd	-1.4133472e-05
92	0x3b4db05f	0.0031385643
93	0x3ba869e0	0.0051395744
94	0x3ab061ea	0.0013456915
95	0xbae5d9ab	-0.0017536184
96	0xbbc381c5	-0.0059663975
97	0x3ba5116a	0.0050374763
98	0xba1d424e	-0.0005998955
99	0x3b460555	0.003021558
100	0x3a88374a	0.0010392454
101	0xba4989ea	-0.00076880923
102	0xbaab2396	-0.001305687
103	0x3b152fb1	0.0022764022
104	0xba1c5ab4	-0.00059644436
105	0x3abcbd56	0.0014399688
106	0xbb4820b2	-0.0030537066
107	0x3aa60265	0.0012665509
108	0x3b54f112	0.0032492322
109	0xba2c9b3a	-0.000658441
110	0x3b4df336	0.0031425483
111	0x3b0c6880	0.0021424592
112	0x3a2b5028	0.00065350765
113	0xbaab5243	-0.001307078
114	0xbb752a6e	-0.0037409323
115	0x3a4aecac	0.00077409553
116	0x3b785d15	0.0037897278
117	0x3738dd4b	1.1018778e-05
118	0xba843756	-0.0010087292
119	0x3b97ab3f	0.0046285684
120	0xbbb31039	-0.0054645804
121	0xbb6f3d57	-0.0036505067
122	0x3af58fa7	0.0018734828
123	0xb9faef8d	-0.00047862195
124	0xba644357	-0.0008707544
125	0xb9a85f98	-0.0003211468
126	0x3a56b40a	0.000819028
127	0x3b723b04	0.0036961446
128	0x3b0953f7	0.0020954588
129	0xbbb9af98	-0.0056666844
130	0x39da3af3	0.0004162412
131	0x39d1cf19	0.00040017886
132	0x39f1cd2b	0.00046119964
133	0xbb6526cd	-0.0034965754
134	0xb970226b	-0.00022901005
135	0xbaa4fa3b	-0.0012586782
136	0x3acac388	0.001546965
137	0x3b99a336	0.0046886457
138	0xbb476eab	-0.0030430953
139	0xbafea8a9	-0.0019428927
140	0x39587e68	0.00020646455
141	0x39c5a621	0.00037698544
142	0x3ae264e9	0.0017272505
143	0xbb252605	-0.0025199663
144	0xbaadb4e1	-0.0013252759
145	0x3a072348	0.00051550986
146	0xb9f375bc	-0.0004643629
147	0xbba5fb46	-0.0050653545
148	0xbb17e2c1	-0.0023175927
149	0x3b847493	0.004042217
150	0x3b320d8d	0.0027168721
151	0xbb2a2019	-0.0025959073
152	0xbb4ed320	-0.0031558946
153	0xbb77bf48	-0.0037803221
154	0xbb22f70e	-0.0024866494
155	0x3ae5d477	0.0017534633
156	0x3a686a75	0.0008865961
157	0xba58ac52	-0.0008265424
158	0x3a4a46d5	0.0007716243
159	0x3b6dac81	0.003626615
160	0xbb0f7e9b	-0.002189553
161	0xbaef7945	-0.0018270394
162	0x39e1a43a	0.00043037703
163	0xbaa0f25f	-0.0012279263
164	0xba98bc4b	-0.0011652795
165	0x3ac1fbaf	0.0014799739
166	0x3ae09d7f	0.0017136781
167	0x3a9c91a5	0.0011945261
168	0x3b7caeaf	0.0038556268
169	0x3ab1e0b8	0.0013571
170	0xb9c222f4	-0.00037028606
171	0xbbb0fb8a	-0.0054010795
172	0x3aff82a3	0.0019493889
173	0xbb69d47f	-0.0035679636
174	0x3aa2f7d3	0.0012433477
175	0xb952d5e0	-0.00020106835
176	0x3a86f582	0.0010296556
177	0xbb7263f3	-0.0036985844
178	0xbb71f4b1	-0.003691953
179	0x3b12f144	0.0022421638
180	0xb990fb9e	-0.0002765329
181	0xbb26374c	-0.002536255
182	0x3b24bd66	0.0025137304
183	0xb97fb0d8	-0.00024384574
184	0xb6b2ca10	-5.3283366e-06
185	0x3a31f11b	0.00067879417
186	0x38991dfa	7.301192e-05
187	0x3aee0191	0.0018158426
188	0x3aa71a55	0.0012748936
189	0xb9d95976	-0.0004145612
190	0x3b8ff464	0.0043931473
191	0x3b9abc24	0.004722135
192	0x3a817026	0.0009875342
193	0x3ad7bd61	0.0016459638
194	0xba796de2	-0.000951497
195	0xb6af2a72	-5.2203477e-06
196	0xbb62997a	-0.0034576342
197	0xbb2fd41b	-0.0026829306
198	0x3af10d06	0.0018390722
199	0x3b21a7c1	0.002466664
200	0x3acdc1cc	0.0015698015
201	0xbb481a0e	-0.0030533108
202	0x3a9c663d	0.0011932325
203	0xba0d6390	-0.0005393559
204	0x3aa3f67e	0.0012509373
205	0xb88f1dc1	-6.8243135e-05
206	0x3aad25bb	0.0013210097
207	0xbb0cc97a	-0.0021482394
208	0xbba03eb8	-0.004890289
209	0x3b5e1990	0.0033889748
210	0xba08be9a	-0.000521639
211	0x3b25c4c0	0.0025294274
212	0xbb10ff59	-0.0022124855
213	0x3820ea03	3.8364913e-05
214	0xbafe5ebb	-0.0019406894
215	0x388f4e94	6.833408e-05
216	0x3aa7516c	0.0012765354
217	0xba0bd500	-0.00053341687
218	0xba9b33b4	-0.001184097
219	0xb897616b	-7.2183866e-05
220	0xba4e9b76	-0.0007881442
221	0xb9127b3d	-0.00013969555
222	0x3b776f2b	0.003775547
223	0x3af811af	0.0018926169
224	0xba96a8e9	-0.0011494431
225	0xbac5a3ef	-0.0015078763
226	0xbb887afb	-0.004165051
227	0x3aaa2bc3	0.0012983013
228	0x3b973445	0.0046143853
229	0xbb94d789	-0.0045422954
230	0x395510a4	0.00020319462
231	0xb9ebb344	-0.00044956256
232	0xba5573a6	-0.0008142538
233	0xbb8074e7	-0.003920186
234	0xbb9bcd65	-0.0047547095
235	0x3b3af762	0.00285288
236	0xbb132e91	-0.0022458176
237	0x3ae6044c	0.0017548888
238	0xbb7d058b	-0.003860804
239	0xba9c041d	-0.0011903081
240	0x3b2b8126	0.0026169508
241	0x3af97244	0.0019031246
242	0x3a2f4fae	0.00066875934
243	0xb98a5fff	-0.00026392934
244	0xba5c13c0	-0.0008395277
245	0xbab8f4eb	-0.0014111077
246	0xb9d7fe09	-0.00041197267
247	0x3a304772	0.00067245134
248	0xbb44c4bf	-0.0030024496
249	0x3adf7748	0.0017049098
250	0xba04adc9	-0.00050612964
251	0x3bc597fc	0.006030081
252	0x3aa0fb55	0.0012281934
253	0xbbc4f7c9	-0.0060109836
254	0xb97cb902	-0.00024101514
255	0xbaacdf58	-0.001318912

model.0.running_mean f4 [1024]
0	0xbd6b73be	-0.057483427
1	0xbc89fe70	-0.016844958
2	0x3bef327e	0.0072997203
3	0xbcd69c7f	-0.02619767
4	0x3b2a311f	0.002596922
5	0xbc690e9d	-0.0142246755
6	0x3d23b082	0.039963253
7	0xbb926fb4	-0.0044688825
8	0xbb7df153	-0.0038748577
9	0x3d0571eb	0.032579344
10	0xbc3d3fd4	-0.011550862
11	0x3b906968	0.0044070967
12	0xbb74da6d	-0.0037361637
13	0xbc4b482d	-0.012407345
14	0x3b88c676	0.004174049
15	0x3c3d4029	0.0115509415
16	0xbd109c98	-0.03530559
17	0xbcd5b876	-0.026088934
18	0xb8bebc3e	-9.094969e-05
19	0x3c0c9172	0.008579599
20	0x3c72aff3	0.014812457
21	0xb96ba04c	-0.00022471062
22	0x3ca2831c	0.019837908
23	0x3d91beab	0.07116445
24	0x3c9c8eb6	0.019111019
25	0x3cf43a7d	0.029813046
26	0xbccc926a	-0.02497216
27	0x3c35e934	0.011102963
28	0xbbbadb61	-0.0057024215
29	0xbc3640c0	-0.011123836
30	0x3cd739d8	0.0262727
31	0xbc8468c3	-0.016163236
32	0xbbfc33a4	-0.0076965857
33	0x3c221b5c	0.009894218
34	0xbb603952	-0.0034213853
35	0x3c788201	0.015167714
36	0xbc29114e	-0.010319067
37	0x3bc95bca	0.0061449753
38	0xbce0f8aa	-0.027462322
39	0xbb8f408f	-0.0043717097
40	0x3c1d8ac8	0.009615608
41	0x3cd519ed	0.026013339
42	0x39c2e468	0.0003717274
43	0xbd3b16f4	-0.045676187
44	0xbcc73e9d	-0.024321849
45	0x3b3e6eef	0.002905782
46	0xba280b19	-0.0006410345
47	0xbcbb38b4	-0.022854187
48	0xbc32c834	-0.01091199
49	0x3da76a24	0.081745416
50	0xbccdda76	-0.025128584
51	0xbc8e9999	-0.017407225
52	0xbca79daf	-0.020460932
53	0x3c20f09b	0.00982299
54	0x3c22fb2a	0.0099475775
55	0xbc1143a1	-0.008866222
56	0x3d0649a1	0.03278506
57	0x3c1e2fb7	0.009654931
58	0xbbbf2b92	-0.0058340514
59	0xbc3a32ae	-0.011364622
60	0x3c2e1964	0.010626171
61	0xbcb440f7	-0.022003634
62	0xbc2c20d8	-0.010505877
63	0x3cb8f3c4	0.022577174
64	0x3a1995be	0.00058588
65	0xbc704bce	-0.014666511
66	0x3bc7b96c	0.006095102
67	0x3bd2d20f	0.0064337323
68	0x3a593647	0.0008285981
69	0x3bbdcd46	0.0057922928
70	0x3d1943f8	0.037418336
71	0x3c406e8f	0.011745109
72	0xbc791002	-0.0152015705
73	0x3d2dd14c	0.04243593
74	0x3cef64cd	0.02922287
75	0xbc332940	-0.010935128
76	0x3cd9876e	0.026553836
77	0xbc96c0b6	-0.018402439
78	0x3c89359b	0.016749194
79	0xbc8db939	-0.017300235
80	0xbbfb7b7d	-0.007674633
81	0x3ce344d2	0.027742777
82	0xbd542b77	-0.051799264
83	0x3cb1f6ad	0.02172407
84	0xbc87878a	-0.016544122
85	0xbd2052a6	-0.03914132
86	0x3cbf8e52	0.023383293
87	0xbc8e8799	-0.017398642
88	0x3c4101cc	0.011780214
89	0x3cb54257	0.02212636
90	0xbcba5f23	-0.022750443
91	0xbb987bc7	-0.0046534273
92	0xbc3d9dcc	-0.011573266
93	0x3c51a738	0.012796216
94	0x3c50b360	0.012738079
95	0x3ca0234b	0.019548079
96	0x3c147772	0.009061681
97	0x3d6ce829	0.057838593
98	0xbc051062	-0.008121582
99	0x3cc0c7a4	0.023532696
100	0x3c693df9	0.014235967
101	0x3ccec6e0	0.025241315
102	0xbac990a5	-0.001537819
103	0x3c4a0c47	0.012332029
104	0x3d95629a	0.072941974
105	0x3c879170	0.016548842
106	0x3b5ce5cd	0.0033706308
107	0xbcb93d08	-0.02261211
108	0xbcf1d3d5	-0.029519955
109	0x3d4b3196	0.049607836
110	0xbc35ce70	-0.011096582
111	0x3b22d5ce	0.0024846676
112	0x3d8447b3	0.06458988
113	0xbb77543f	-0.0037739424
114	0xbbbacc5c	-0.005700631
115	0x3c897762	0.016780559
116	0xba996fdc	-0.001170631
117	0xbbbe7cb4	-0.0058132056
118	0x37d05633	2.4835672e-05
119	0xbbd16748	-0.006390486
120	0xbcb3b809	-0.02193834
121	0xbc0a3f62	-0.008437963
122	0xbc863ab0	-0.016385406
123	0xbc4fef7c	-0.012691375
124	0xbd47b771	-0.048758928
125	0xbcb1e15d	-0.021713907
126	0xbc2df506	-0.0106175
127	0xbca9de54	-0.020735897
128	0x3caa0a3e	0.020756837
129	0xbca6efea	-0.020378072
130	0xbd84f0cf	-0.06491243
131	0xbc70a680	-0.014688134
132	0x3c8b2e1e	0.016989764
133	0xbb6780d9	-0.0035324602
134	0xba8a53b7	-0.0010553513
135	0xbce297b4	-0.027660228
136	0x3d2ca0d5	0.04214557
137	0x3cbe6a49	0.02324404
138	0xbb36384b	-0.002780455
139	0xbcbac4c1	-0.022798898
140	0x3b235493	0.0024922236
141	0xbd2b13da	-0.04176698
142	0xbc214f3f	-0.009845554
143	0xbbbe0503	-0.0057989373
144	0xbb75d817	-0.0037512833
145	0xbc1bfd17	-0.009520791
146	0x3d36e066	0.044647597
147	0xbcb7df54	-0.022445358
148	0xbd0a98c0	-0.03383708
149	0x3aa41a95	0.0012520129
150	0xbc0d5da0	-0.008628279
151	0x3a29c287	0.0006475825
152	0x3bd3b794	0.006461093
153	0xb9cd7df4	-0.0003919449
154	0x3c8560bd	0.01628148
155	0x3cdec53f	0.027193664
156	0x3ce6927c	0.028146021
157	0xbc02c383	-0.007981184
158	0xbb5e2339	-0.0033895506
159	0x3befcff2	0.00731849
160	0x3aa2babd	0.0012415271
161	0x3ce06478	0.027391657
162	0x3c834c76	0.01602767
163	0x3b73b174	0.0037184628
164	0xbbb27df2	-0.0054471428
165	0xbbc0ebf8	-0.0058875047
166	0xbd685de7	-0.056730177
167	0xbbcf17d9	-0.0063199815
168	0xbd1990dd	-0.037491668
169	0x3cde0e20	0.027106345
170	0x3ce3f780	0.027827978
171	0x3cfbf86a	0.030758101
172	0x3cd3064d	0.02575984
173	0xbbf82a21	-0.0075733815
174	0x3cba9701	0.022777082
175	0x3c3a4bdc	0.011370625
176	0xbc408705	-0.011750941
177	0xbc5f994e	-0.0136473905
178	0xbc9e5122	-0.019325797
179	0xbad8dd80	-0.0016545504
180	0xbcfe6b4b	-0.03105702
181	0xbc8cfbd0	-0.017209917
182	0xbbba33ea	-0.005682458
183	0x3c2fcef2	0.010730492
184	0xbc30f670	-0.010800943
185	0x3ccf5ffc	0.025314324
186	0x3d3ec6a3	0.046576153
187	0xbc776b70	-0.015101299
188	0xbc843c39	-0.016141998
189	0xbd083053	-0.03324921
190	0x3d192b10	0.037394583
191	0x3c4a8ccc	0.01236267
192	0x3c599166	0.013279295
193	0x3d02dfc2	0.031951673
194	0x3c37a2b5	0.011208226
195	0x3c3da3d1	0.011574701
196	0xbc2988d3	-0.010347563
197	0xbb5064a4	-0.0031798268
198	0x3ca44878	0.020054087
199	0x3d021306	0.031756423
200	0x3bda1754	0.006655613
201	0xbc58527e	-0.013203261
202	0x3b150fd9	0.0022745042
203	0xbcd65e35	-0.026167968
204	0xbcc945a6	-0.024569344
205	0x3c14fd0c	0.009093534
206	0xbc3d2dc2	-0.011546554
207	0xbc65a624	-0.014016662
208	0x3c882981	0.016621353
209	0xbc0d0afc	-0.008608576
210	0xbd0aa3a0	-0.03384745
211	0xbcb4e86a	-0.02208348
212	0x3c61ed22	0.013789447
213	0x3cd34de4	0.025793977
214	0x3bbdb51e	0.005789413
215	0xbc727527	-0.014798439
216	0x3c47a1d6	0.012184581
217	0x3ce51d67	0.027968122
218	0xbbffd15a	-0.007806939
219	0xbbe749a2	-0.0070583383
220	0x3c1cda64	0.009573553
221	0xbc97a862	-0.018512908
222	0xbd46ca7b	-0.048532944
223	0xbcb2124c	-0.02173724
224	0x3cb47dee	0.022032704
225	0x3c65b3f9	0.01401996
226	0x3b5d446b	0.0033762704
227	0xbca1b8fa	-0.019741524
228	0x3b13a92b	0.0022531252
229	0xbca7c97d	-0.02048182
230	0xbc1fef8d	-0.009761703
231	0xbcfc14ee	-0.030771699
232	0xbba3d43c	-0.0049996655
233	0xbcee4531	-0.029085727
234	0xbc3f84d0	-0.01168938
235	0xbc8eb02b	-0.017417988
236	0xbcf1bd36	-0.029509168
237	0x3d0e59e3	0.03475369
238	0x3ca8c284	0.020600565
239	0xbc8d9b12	-0.017285857
240	0x3d022502	0.031773575
241	0xbab35f63	-0.0013685044
242	0xbbb4a52c	-0.005512854
243	0x3cccb8fb	0.02499055
244	0xbcbdcb03	-0.023168093
245	0x385c83f7	5.257499e-05
246	0x3c429286	0.011875754
247	0x3cba3b5a	0.02273338
248	0x39ec3d1b	0.00045058955
249	0x3cdd8476	0.027040701
250	0xbc8c19b6	-0.017102104
251	0x3cc6f16a	0.024285037
252	0x3c99e702	0.01878691
253	0x3abe46e1	0.0014516973
254	0x3c75333c	0.0149658285
255	0x3cb93f32	0.022613142

model.0.running_var f4 [1024]
0	0x39255d99	0.00015770494
1	0x39129e79	0.0001398268
2	0x3918bcb9	0.00014566154
3	0x39042fd6	0.00012606321
4	0x391cc35f	0.00014950101
5	0x394a1759	0.00019272919
6	0x391d569f	0.00015004956
7	0x38f0c51c	0.00011480806
8	0x391316e5	0.00014027541
9	0x392ea3e4	0.00016654987
10	0x394a36bf	0.00019284616
11	0x394ed391	0.00019724506
12	0x393bb81f	0.000179023
13	0x3912a95d	0.00013986738
14	0x3914107e	0.00014120524
15	0x390afc0c	0.000132546
16	0x3900782d	0.000122518
17	0x39291873	0.00016126204
18	0x395f0deb	0.00021272122
19	0x39114961	0.00013855613
20	0x393bae9e	0.0001789876
21	0x391e4e87	0.00015097308
22	0x38fa1596	0.0001192495
23	0x395fe3eb	0.00021351843
24	0x3910dd32	0.00013815312
25	0x393445d9	0.00017192158
26	0x395592e4	0.00020367984
27	0x38fa0546	0.00011921911
28	0x39350934	0.00017264934
29	0x39c3a492	0.00037315913
30	0x397417e8	0.00023278559
31	0x39669467	0.00021989793
32	0x39412bb4	0.00018422195
33	0x38f51bad	0.000116876654
34	0x394c1e77	0.00019466305
35	0x395bc0de	0.00020957316
36	0x390389c5	0.00012544457
37	0x38a0446c	7.642139e-05
38	0x3908e595	0.00013055497
39	0x398ac2be	0.00026466505
40	0x3989b50a	0.0002626556
41	0x392b2052	0.00016319871
42	0x395259b3	0.00020060576
43	0x390fe549	0.00013722958
44	0x395b927d	0.00020940039
45	0x3958a94c	0.00020662433
46	0x3980499e	0.00024468912
47	0x3954d6ee	0.00020297963
48	0x38f918f0	0.0001187789
49	0x39d9befd	0.00041531763
50	0x39828e12	0.00024901383
51	0x39972cb2	0.00028834265
52	0x3942525f	0.00018531967
53	0x394487b2	0.00018742567
54	0x3915fffc	0.00014305109
55	0x3906e88d	0.00012865868
56	0x398d2f4e	0.0002692886
57	0x38d59f51	0.000101863065
58	0x39138550	0.00014068675
59	0x3932873c	0.00017025782
60	0x39612981	0.00021473134
61	0x39466123	0.00018918938
62	0x3998b3b1	0.0002912558
63	0x3949275b	0.00019183515
64	0x390c12dd	0.00013358468
65	0x38e228b8	0.00010784104
66	0x39566632	0.00020446701
67	0x391a7eb2	0.00014733782
68	0x39014447	0.00012327834
69	0x39335302	0.00017101693
70	0x397bad82	0.00024001862
71	0x395b72c4	0.00020928221
72	0x39673ecf	0.00022053275
73	0x394a2c5a	0.00019280743
74	0x39605139	0.00021392562
75	0x394dfa49	0.00019643562
76	0x38c0798b	9.1779126e-05
77	0x3935080a	0.000172645
78	0x39270e99	0.00015931799
79	0x394a24f9	0.00019277995
80	0x39565b0a	0.00020442545
81	0x38d69517	0.00010232085
82	0x39473dd4	0.00019001152
83	0x390f3674	0.00013657828
84	0x38f0763d	0.000114661154
85	0x39aec7e6	0.00033336802
86	0x391c15ec	0.00014885486
87	0x396beef5	0.00022500365
88	0x38e23d5b	0.00010787948
89	0x39861682	0.0002557524
90	0x39ba9d5e	0.00035593932
91	0x3938ec85	0.00017635718
92	0x390e38e8	0.00013563375
93	0x39782956	0.00023666522
94	0x392313f0	0.00015552319
95	0x393dccea	0.00018100781
96	0x393c9c22	0.00017987241
97	0x39403035	0.00018328505
98	0x39390550	0.00017644954
99	0x39adb08d	0.00033128672
100	0x391aeb35	0.00014774206
101	0x38ef4386	0.00011408985
102	0x393fa12e	0.00018275224
103	0x38e83a0a	0.00011073433
104	0x3a3255a0	0.000680292
105	0x3939a780	0.00017705373
106	0x393b960f	0.00017889611
107	0x39711441	0.00022991096
108	0x39219338	0.00015409
109	0x393186be	0.00016930231
110	0x39399877	0.00017699772
111	0x38fa7176	0.00011942063
112	0x39455a08	0.00018820923
113	0x396a1d55	0.00022326906
114	0x396afd5b	0.00022410361
115	0x399d081f	0.00029951424
116	0x3901d419	0.00012381411
117	0x392dbeb5	0.0001656961
118	0x395ebc0c	0.00021241623
119	0x399611fa	0.00028623623
120	0x396b7fa8	0.00022458902
121	0x39225acd	0.0001548335
122	0x3927bd61	0.0001599691
123	0x39340629	0.00017168433
124	0x3917c532	0.00014473943
125	0x38f05284	0.000114594615
126	0x38d9e9dd	0.00010390927
127	0x39025722	0.00012430226
128	0x395e0839	0.00021174633
129	0x399e4871	0.0003019008
130	0x394c30e4	0.00019473169
131	0x38e048e5	0.0001069473
132	0x3945ff69	0.00018882532
133	0x39124b6e	0.00013951745
134	0x390230d6	0.00012415959
135	0x395ebdbe	0.00021242254
136	0x3993fa6f	0.00028224612
137	0x392218de	0.00015458788
138	0x3930866f	0.00016834748
139	0x392fbc46	0.00016759438
140	0x39114b7b	0.00013856396
141	0x391b2d6d	0.00014798874
142	0x392c9e34	0.00016462133
143	0x392416fc	0.00015648821
144	0x39c4e8f5	0.000375576
145	0x3972ebcd	0.00023166761
146	0x39497286	0.00019211517
147	0x392afc2a	0.00016306402
148	0x3987ca74	0.00025900046
149	0x393de7dc	0.00018110819
150	0x397d3906	0.00024149203
151	0x392f97a8	0.00016745797
152	0x39145f4d	0.00014149882
153	0x3987e45c	0.00025919348
154	0x390416c8	0.00012596988
155	0x392c3492	0.00016422782
156	0x390e0246	0.00013543022
157	0x3912f236	0.00014013876
158	0x399ab4e1	0.00029507934
159	0x392fa347	0.00016750126
160	0x391cdac6	0.00014958819
161	0x3919f396	0.0001468196
162	0x39133d9e	0.00014041967
163	0x391ed7df	0.00015148472
164	0x390d8a9b	0.00013498442
165	0x38d6df17	0.00010245869
166	0x3a510ecf	0.0007974924
167	0x390f40bb	0.00013661657
168	0x394e1fe6	0.00019657574
169	0x3941fc5e	0.00018499928
170	0x392e7c8b	0.00016640329
171	0x3934ba82	0.00017235617
172	0x39400968	0.00018314051
173	0x38e7e0a8	0.00011056784
174	0x3990d21f	0.00027622373
175	0x395a8fbd	0.00020843647
176	0x39070dd4	0.00012879755
177	0x39122aec	0.00013939635
178	0x390275f5	0.00012441709
179	0x3983214f	0.00025011084
180	0x3941c852	0.0001848054
181	0x39735b6a	0.0002320834
182	0x397b6de7	0.00023978167
183	0x394e4a56	0.00019673383
184	0x392fd42e	0.00016768344
185	0x3912e7a5	0.0001400994
186	0x396d45f6	0.00022628144
187	0x390fa202	0.00013697895
188	0x393bc5b1	0.00017907356
189	0x392da784	0.0001656097
190	0x3984b9da	0.00025315472
191	0x392fee50	0.00016778079
192	0x397b11d2	0.00023943864
193	0x39117c05	0.00013874478
194	0x39130377	0.00014020303
195	0x39800c8e	0.00024423416
196	0x394b7385	0.00019402623
197	0x392f81a9	0.00016737603
198	0x393bd416	0.00017912718
199	0x393aed8e	0.00017826838
200	0x39224d29	0.00015478268
201	0x3939b3bb	0.0001770993
202	0x39416c1e	0.00018446191
203	0x391a5937	0.0001471982
204	0x391923a2	0.00014604491
205	0x391b3d72	0.00014804842
206	0x3913b83d	0.00014087647
207	0x3919f951	0.00014684095
208	0x39196053	0.000146271
209	0x392f01fc	0.0001669004
210	0x3953d2dc	0.0002020108
211	0x392b5809	0.00016340626
212	0x391852bb	0.00014526669
213	0x393357e4	0.00017103512
214	0x3a275cce	0.00063843734
215	0x38f6a647	0.00011761166
216	0x3907ed51	0.0001296301
217	0x392875e1	0.00016065642
218	0x390286b2	0.00012447944
219	0x394f5674	0.00019773265
220	0x393689e0	0.00017408235
221	0x391076c8	0.0001377716
222	0x390d714c	0.00013489014
223	0x3967bd88	0.00022100483
224	0x39343cc1	0.0001718877
225	0x39390941	0.00017646422
226	0x38f178f4	0.00011514305
227	0x38fdd9f0	0.00012104574
228	0x38d4d3a0	0.00010148366
229	0x391e869e	0.00015118203
230	0x390dd636	0.00013526608
231	0x39d8301c	0.00041234575
232	0x393e724c	0.00018162391
233	0x3969c737	0.00022294825
234	0x3903e6dc	0.00012579135
235	0x38e47577	0.00010893767
236	0x39418915	0.00018456981
237	0x3916fa0a	0.00014398262
238	0x390a7490	0.00013204128
239	0x390ebeed	0.000136133
240	0x39207fc5	0.00015306387
241	0x3916f39d	0.00014395868
242	0x39485304	0.00019104412
243	0x393f8c61	0.00018267475
244	0x395cf7be	0.00021073126
245	0x39f8e101	0.00047469887
246	0x38ffa910	0.00012190838
247	0x38fdbf4e	0.000120996134
248	0x390be74e	0.0001334224
249	0x390819f5	0.0001297964
250	0x391c2a46	0.00014893067
251	0x3913d7d0	0.00014099409
252	0x39472d69	0.00018995035
253	0x38f33eff	0.00011598877
254	0x392227e3	0.00015464383
255	0x3910d525	0.00013812313

model.1.weight f4 [32, 1024]
0	0x3abd1ea7	0.0014428691
1	0xbcf226b0	-0.029559463
2	0x3c0d10ee	0.008609993
3	0x3c610215	0.013733407
4	0xbce98c6c	-0.028509341
5	0x3c13f37e	0.009030221
6	0x3b2e427c	0.002658992
7	0x3c570a77	0.013125054
8	0x382d9618	4.13862e-05
9	0xbbdfd56d	-0.0068308623
10	0xbb82a4c6	-0.0039869277
11	0xbcc08b8d	-0.023504043
12	0xbaeead43	-0.0018209595
13	0xbbfe6db8	-0.0077645443
14	0xbc8e6241	-0.017380835
15	0x3ce683ae	0.028138962
16	0xbb0f2c98	-0.0021846648
17	0x3ca3faca	0.020017046
18	0x3cca0fa1	0.024665656
19	0xbbc779ab	-0.006087502
20	0x3c730296	0.0148321595
21	0x3c890801	0.01672745
22	0xbca692bb	-0.020333638
23	0xbc92b132	-0.017906759
24	0xbc0828b0	-0.008310482
25	0xb9d60cd2	-0.00040826813
26	0xbb8195f7	-0.003954645
27	0xbb4385cd	-0.002983439
28	0xbc80496b	-0.015660008
29	0xba3c7be4	-0.0007190092
30	0x3c109fff	0.008827209
31	0xbcde69f7	-0.027150137
32	0x3bbd1419	0.005770218
33	0xbbdf778b	-0.0068196706
34	0xbbcc07b8	-0.006226506
35	0xbc391523	-0.011296543
36	0x3cd8c0e2	0.026459161
37	0x3cc66084	0.024215944
38	0xbc09a498	-0.008401059
39	0xbbc8c35e	-0.006126805
40	0x3b007f42	0.0019607102
41	0x3b04c43b	0.0020258564
42	0x3bfc9330	0.007707976
43	0xbcbad226	-0.022805285
44	0x3cea1ee3	0.028579181
45	0x3b19d170	0.0023470782
46	0xbce7f713	-0.028316056
47	0xbb5b11cf	-0.0033427363
48	0x3bdad528	0.0066782422
49	0xbd08420f	-0.033266123
50	0x3cb47aba	0.022031177
51	0x3cae538f	0.021280078
52	0x3aa10cb0	0.0012287106
53	0xbcbca5e6	-0.023028325
54	0xbba233fd	-0.004950045
55	0xbcd1c214	-0.025605239
56	0x3b0a9b96	0.0021149865
57	0x3cb0147a	0.021494139
58	0xbb8227c8	-0.0039720275
59	0x3c6e06c8	0.014527984
60	0xbb6f5d0b	-0.0036523964
61	0xbbdc6a42	-0.006726534
62	0x3cac324a	0.021020073
63	0x3ccbe5ad	0.024889791
64	0x3cd54920	0.026035845
65	0x3c8bf86b	0.017086228
66	0x3b210350	0.0024568625
67	0xbcb1b364	-0.021691985
68	0x3cfd3eb1	0.030913683
69	0xbc6f55e9	-0.014607885
70	0xbced4de8	-0.028967813
71	0xbc1f3972	-0.009718286
72	0x3bf4580e	0.007456786
73	0x3ce74b17	0.028234048
74	0xbce3090e	-0.027714279
75	0xbc5ccae6	-0.013476109
76	0x3cb6f04c	0.02233138
77	0xbb9a99f6	-0.0047180606
78	0x3c8f52f2	0.017495606
79	0x3c2cfbbe	0.010558067
80	0xbc83df16	-0.016097587
81	0xbb2f953c	-0.0026791831
82	0x3c061a7e	0.008185027
83	0x3aaee700	0.001334399
84	0xbc29bbb6	-0.010359695
85	0x3ce8d3fa	0.02842139
86	0xbb036aca	-0.0020052665
87	0xbabce236	-0.0014410678
88	0x3ba4b04c	0.005025899
89	0xbcf2b8e7	-0.029629184
90	0x3c4895ee	0.012242777
91	0x3cdcb0f9	0.026939856
92	0xbcebb9a8	-0.028775051
93	0x3cb723d7	0.022355957
94	0x3c109f94	0.008827109
95	0x3c83852e	0.016054716
96	0xbb411cd1	-0.0029466639
97	0xbbad4f64	-0.005289005
98	0x3cc3a030	0.023880094
99	0x3cd51c0a	0.026014347
100	0xbbf248f5	-0.007393951
101	0xbc69b878	-0.014265172
102	0xbcee5b78	-0.02909635
103	0x3ceb67b5	0.028735975
104	0xbcd994b2	-0.026560161
105	0xbc974446	-0.018465172
106	0xbcc86306	-0.02446128
107	0x3ba951b1	0.005167209
108	0xbc019dc9	-0.007911154
109	0xbd0042c8	-0.031313688
110	0x3bf418ef	0.0074492614
111	0xbcac4354	-0.021028198
112	0xbc1f1d6d	-0.0097116055
113	0x3c4751f7	0.012165538
114	0xbbec3b90	-0.007209249
115	0xbd01b0d9	-0.031662796
116	0xbcb30e00	-0.021857262
117	0x3ca4a557	0.020098371
118	0x3c6003ae	0.013672752
119	0x3b377891	0.0027995447
120	0xbc7695b5	-0.015050341
121	0xbc6db265	-0.014507865
122	0x3cbf2d4e	0.023337033
123	0xbcff8554	-0.031191505
124	0xbc54c094	-0.012985367
125	0x3c2e7f35	0.010650446
126	0x3b329b1e	0.0027253102
127	0xbc34603f	-0.011009275
128	0xbcecf088	-0.028923288
129	0x3c9cf9e7	0.019162131
130	0x3ce68db7	0.028143747
131	0x3c7403af	0.014893456
132	0x3c62c78b	0.01384152
133	0xbbcf41a8	-0.0063249655
134	0xbcece9f1	-0.028920146
135	0x3cd605f2	0.026125882
136	0x3cc74ebf	0.024329541
137	0xbc697111	-0.014248149
138	0xbc8a1d0e	-0.016859557
139	0xbbc1a966	-0.0059100864
140	0xbb823653	-0.003973761
141	0xbcc1a329	-0.023637371
142	0xbc5d1f15	-0.01349618
143	0x3bc21101	0.005922437
144	0xbcd792b0	-0.026315063
145	0x3c5df477	0.0135470545
146	0xbcb7640a	-0.02238657
147	0xbca69ed1	-0.020339401
148	0x3ca55ae7	0.020184947
149	0x3c17b24f	0.009258821
150	0x3cae7065	0.021293828
151	0x3cfa679c	0.030566983
152	0xbc616cd6	-0.013758859
153	0x3c2bead1	0.010492996
154	0xbba46497	-0.005016874
155	0x3cc6bc0d	0.024259591
156	0xbcc50c5b	-0.024053743
157	0x3ccf62a1	0.025315585
158	0xbb517522	-0.0031960686
159	0xbc81fc65	-0.015867421
160	0x3ba679aa	0.0050804215
161	0xbcae6014	-0.021286048
162	0x3cc60964	0.0241744
163	0x3cfc7332	0.030816648
164	0x3b444aac	0.0029951734
165	0xbcd40a2b	-0.025883755
166	0x3cc98acc	0.024602316
167	0xbcc6293b	-0.024189582
168	0xbce82d02	-0.028341774
169	0x3c27e8ba	0.010248357
170	0x3c342381	0.010994793
171	0xbb845642	-0.004038603
172	0xbb8d28f8	-0.0043078624
173	0x3ca60347	0.020265235
174	0xbcbfff38	-0.023437127
175	0xbbe14c79	-0.0068755713
176	0xbca5ae98	-0.020224854
177	0x3cb06b5f	0.021535574
178	0xbc4e8426	-0.012604749
179	0x3bba2b5a	0.0056814374
180	0xbc5809b4	-0.013185907
181	0x3cd8d485	0.026468525
182	0x3bc7ae81	0.0060938005
183	0xbc38966a	-0.01126633
184	0xbbf03747	-0.0073308083
185	0x3cf6428a	0.030061025
186	0xbcf6fb03	-0.030148989
187	0x3ca90f01	0.020637037
188	0x3c3c29b3	0.011484551
189	0x3c3a6f7e	0.011379121
190	0x3c5834f3	0.013196218
191	0xbcdc9862	-0.02692813
192	0x3ba85fc5	0.0051383697
193	0x3c7c4734	0.0153978355
194	0xbc893aec	-0.016751729
195	0xbbce761c	-0.006300701
196	0xbb8068f6	-0.0039187623
197	0xb9d36875	-0.00040322883
198	0x3c3f9b25	0.011694704
199	0x3cecdf1a	0.028914977
200	0x3ccb0d78	0.024786696
201	0xbce2eee0	-0.027701795
202	0x3b276b84	0.0025546262
203	0xbc3e86e5	-0.011628841
204	0x3ce087c5	0.02740849
205	0x3c8d5d77	0.017256482
206	0x3b931b40	0.0044893324
207	0x3c8ed66f	0.017436234
208	0xbb8f29fb	-0.004369018
209	0x3ccf1195	0.025276938
210	0x3ab8c1ea	0.0014095877
211	0x3cbebd30	0.023283571
212	0xbc4a96be	-0.012365041
213	0xbc8ad06c	-0.016945086
214	0xbc2e1ccd	-0.010626984
215	0xbca2c2ff	-0.019868372
216	0x3c461764	0.012090538
217	0x3c08e130	0.00835447
218	0xbbec8125	-0.0072175437
219	0xbc92a4b4	-0.017900802
220	0x3bafc39c	0.0053638946
221	0x3b866d03	0.0041023507
222	0xb9a8c5d4	-0.0003219085
223	0xbc2ea9f3	-0.010660636
224	0x3b8942dd	0.004188879
225	0x3ca21fa4	0.019790478
226	0xbc136c05	-0.008997922
227	0x3ce895bc	0.028391711
228	0x3b180c05	0.0023200524
229	0xbcb78e31	-0.02240667
230	0xbccd06a9	-0.02502759
231	0xbc98e52e	-0.018663969
232	0x392ca7eb	0.00016465753
233	0xbce459f3	-0.027874922
234	0x3bfbe3ef	0.007687084
235	0xbc02b3a0	-0.007977396
236	0xbc96d1f4	-0.01841066
237	0x3cd1c330	0.025605768
238	0x3cf76da9	0.030203657
239	0x3ce9a865	0.02852268
240	0xbc8565ab	-0.01628383
241	0xbcb6b488	-0.02230288
242	0x3c585a0b	0.013205062
243	0x3cc1400e	0.023590114
244	0x3b88941d	0.004168047
245	0xbc7d47c5	-0.015459006
246	0x3ba7250a	0.005100851
247	0xbbb41712	-0.0054959143
248	0x3beeb7cf	0.0072850953
249	0x3ce53b16	0.027982276
250	0x3cefc6d6	0.029269617
251	0x3c4a1b56	0.012335619
252	0xbc8ffa6b	-0.017575463
253	0xbce52f2f	-0.0279766
254	0xbb2548ca	-0.0025220388
255	0xbc9c3116	-0.019066375

model.1.bias f4 [32]
0	0xbbf2ad8a	-0.0074059414
1	0xbc74c988	-0.014940627
2	0x3bf7221f	0.0075419093
3	0xbc87ef86	-0.016593706
4	0x3c8ab636	0.016932588
5	0xbb6d098c	-0.003616902
6	0x3c98ec96	0.0186675
7	0x3b0aeb4d	0.002119738
8	0x3c1736b3	0.00922935
9	0x3c784071	0.015152083
10	0x3d09e83e	0.03366875
11	0xbc5154a6	-0.012776529
12	0x3b985789	0.004649107
13	0xbb3c15a6	-0.0028699427
14	0xbc0b7df6	-0.008513918
15	0xbccddc90	-0.025129586
16	0x3c83b869	0.016079145
17	0xbcc20635	-0.0236846
18	0x3c34d334	0.011036683
19	0xbc6ab159	-0.01432451
20	0xbc4633cc	-0.01209731
21	0x3c9f1ab0	0.019421905
22	0x3c5adfba	0.013359005
23	0x3cc6f3c5	0.02428616
24	0x3d03098c	0.031991526
25	0xbcd3e335	-0.025865177
26	0x3a9fc0b8	0.0012188172
27	0x3cf4b6a1	0.02987224
28	0x3b506674	0.0031799348
29	0xbc8772f5	-0.016534308
30	0x3cd0e576	0.02550004
31	0x3c406332	0.0117424

model.4.weight f4 [64, 32]
0	0x3d08cbec	0.0333976
1	0xbbde8474	-0.006790692
2	0x3e082b09	0.13297667
3	0xbe09ca70	-0.1345613
4	0xbd63a6f4	-0.05557914
5	0xbc374923	-0.011186871
6	0xbdcf55ae	-0.10123764
7	0x3d2d6e39	0.042341445
8	0xbdd4848d	-0.103768446
9	0x3dcc8680	0.09986591
10	0x3d195477	0.037434068
11	0x3d88b279	0.06674666
12	0xbdce5052	-0.10073914
13	0x3d47d017	0.048782434
14	0xbcae96ca	-0.021312136
15	0xbdb121d3	-0.086490296
16	0x3cb84fc1	0.022498967
17	0xbcfdfbf3	-0.031003928
18	0xbe20a9aa	-0.15689722
19	0xbd26d8ce	-0.040734105
20	0x3c2c9dd3	0.010535675
21	0xbd97ea74	-0.07417765
22	0x3cf18754	0.029483475
23	0xbdd7a9dc	-0.10530445
24	0x3d50d7f6	0.050987206
25	0x3e2f9f8a	0.17150703
26	0x3dcd69f1	0.10029972
27	0xbd200f4b	-0.039077085
28	0x3d059bc2	0.032619245
29	0xbe2b04b5	-0.16701014
30	0x3d355e0b	0.04427914
31	0xbd2bcd47	-0.041943815
32	0xbdfd757f	-0.12375926
33	0x3daa65cd	0.08320198
34	0x3e125151	0.14288832
35	0xbcaa41a7	-0.020783259
36	0xbdd1765d	-0.10227654
37	0x3df1259e	0.11774753
38	0xbdecaf10	-0.11556828
39	0xbe23e04e	-0.16003534
40	0x3d010751	0.031501118
41	0x3e26b3ae	0.1627948
42	0x3e241a12	0.1602557
43	0x3df51775	0.11967365
44	0xbd709698	-0.058737367
45	0xbdca8936	-0.09889452
46	0xbcce2817	-0.0251656
47	0x3d6f85bc	0.05847715
48	0x3d5c4d8f	0.053784903
49	0x3dfd1934	0.12358323
50	0xbdd7556d	-0.105143405
51	0x3d30a4d7	0.043125954
52	0x3e15ae08	0.14617169
53	0xbddb3cc4	-0.107049495
54	0x3cf4d3a5	0.029886076
55	0xbb9ccfb2	-0.0047855014
56	0x3cf1859d	0.029482657
57	0xbddd5db9	-0.10808892
58	0x3e0ca3a5	0.137343
59	0x3da685a5	0.081309594
60	0xbe23e99b	-0.16007082
61	0xbde7eb73	-0.11324205
62	0xbdcea47e	-0.10089968
63	0xbe26aeaa	-0.16277567
64	0x3dff8f04	0.1247845
65	0x3be72ba2	0.007054762
66	0xbcddc2cb	-0.027070424
67	0xbe1b4e95	-0.15166695
68	0x3e10b2b4	0.1413067
69	0x3dffdf36	0.12493746
70	0x3d8bcdab	0.068263374
71	0xbde0a720	-0.109693766
72	0xbdaf47af	-0.085585944
73	0x3e1fbf8d	0.15600415
74	0xbdf43f5a	-0.11926146
75	0x3e191ab2	0.1495159
76	0xbc470bb7	-0.012148789
77	0xbdf551af	-0.119784705
78	0xbd2aec16	-0.041729055
79	0x3e16d273	0.14728718
80	0xbd5b7ae5	-0.053584
81	0xbda636e3	-0.081159376
82	0xbd93fdd7	-0.072261505
83	0x3dc4eec1	0.09615851
84	0xbdf5c223	-0.11999919
85	0x3dd386eb	0.10328468
86	0x3d510acd	0.05103569
87	0x3c9b6c9f	0.018972693
88	0x3e2617a5	0.16219957
89	0xbd1173b2	-0.035510726
90	0xbd3fbd75	-0.04681154
91	0x3df30018	0.11865252
92	0xbda0f3ab	-0.07858976
93	0xbd222ae0	-0.03959167
94	0x3d9ef589	0.07761676
95	0x3e19c9c1	0.1501837
96	0x3c903aae	0.017606106
97	0x3d34aaf5	0.04410835
98	0xbe2604e0	-0.16212797
99	0xbe0ecd9c	-0.13945621
100	0xbdddb08e	-0.10824691
101	0xbd9895dd	-0.07450459
102	0x3b905673	0.004404837
103	0x3ddacd48	0.106836855
104	0x3e1216ad	0.14266463
105	0xbe0a4b56	-0.13505301
106	0x3d9846a4	0.07435349
107	0x3d478cf1	0.048718397
108	0x3dbd0995	0.09230343
109	0x3ca518de	0.02015346
110	0xbca47ecb	-0.02007999
111	0x3e379d32	0.17931059
112	0x3d43d7b2	0.047813125
113	0x3e09a5d0	0.13442159
114	0x3e0437be	0.12911889
115	0xbdd9559d	-0.106120326
116	0xbc90162a	-0.017588694
117	0x3e16df3a	0.14733592
118	0x3dc3bb08	0.09557158
119	0xbe0a0328	-0.13477767
120	0x3e355618	0.17708623
121	0x3d4fa4c2	0.050694235
122	0xbd5ebc66	-0.05437889
123	0xbe0a2e99	-0.13494338
124	0x3d07ff8a	0.033202685
125	0xbd76a8c9	-0.06021956
126	0x3ca7caa5	0.02048237
127	0xbdf3c709	-0.11903197
128	0xbd39d060	-0.045364738
129	0x3dd50c38	0.10402721
130	0x3cfb23d8	0.03065674
131	0xbe02a01f	-0.12756394
132	0x3c94b04a	0.018150467
133	0x3e1c7171	0.1527765
134	0x3d4aa7f0	0.049476564
135	0xbd02d8d4	-0.031945065
136	0xbc28311e	-0.010265617
137	0x3c49d573	0.012318957
138	0x3d854556	0.065073654
139	0xbcef03c8	-0.029176608
140	0xbe270754	-0.16311389
141	0x3cb9a6f9	0.022662627
142	0xbe350934	-0.17679292
143	0xbd0319cc	-0.032007024
144	0xbd957530	-0.07297742
145	0x3e221ba7	0.15830861
146	0x3dab44c0	0.083627224
147	0xbc550a0c	-0.013002884
148	0x3d2c6cc0	0.0420959
149	0x3d5f4dc4	0.054517522
150	0xbd265274	-0.040605977
151	0xbc86e623	-0.01646716
152	0xbdf3ba25	-0.119007386
153	0x3d82dfc4	0.06390336
154	0x3d3c5732	0.045981593
155	0xbca49f9c	-0.020095639
156	0x3e143ccd	0.14476319
157	0xbdd89ac6	-0.10576396
158	0xbdbf77fd	-0.09349058
159	0x3cbf37a4	0.023341961
160	0x3d584180	0.05279684
161	0x3d12751d	0.03575622
162	0x3d5ce235	0.053926665
163	0x3e13643d	0.14393707
164	0xbe163c18	-0.14671361
165	0x3d0b12f4	0.033953622
166	0x3d8bccbc	0.06826159
167	0xbd9cd55d	-0.07657883
168	0xbd0c9e79	-0.03433082
169	0xbd1ae169	-0.037812624
170	0xbcada389	-0.021196144
171	0xbdb9feaf	-0.0908178
172	0xbddfa13a	-0.109194234
173	0x3d95fdcc	0.073237985
174	0x3cb97004	0.022636421
175	0x3da9913a	0.08279653
176	0xbe24fe0f	-0.1611254
177	0x3d5786b7	0.05261871
178	0xbe0e8200	-0.13916779
179	0x3dbef4c8	0.09324032
180	0x3d2f87b4	0.042854026
181	0xbe0cfaf0	-0.137676
182	0xbd7e421d	-0.06207477
183	0x3c080749	0.008302518
184	0x3da6cd4b	0.08144625
185	0x3c89f552	0.01684061
186	0x3e017931	0.12643887
187	0x3dd655a6	0.10465555
188	0xbc1c37c7	-0.009534783
189	0x3def3a12	0.11680998
190	0x3dda0828	0.10646087
191	0x3e094b8c	0.13407725
192	0xbcd4c4d0	-0.025972754
193	0x3a184e22	0.00058099825
194	0x3d772130	0.060334384
195	0x3dc0ac6c	0.09407887
196	0x3e21e5d2	0.15810326
197	0x3d10f5a0	0.035390496
198	0x3e06f7f9	0.13180532
199	0xbd084212	-0.033266135
200	0x3dbea245	0.09308294
201	0x3e096a74	0.13419515
202	0xbe0aac68	-0.1354233
203	0x3dc25783	0.09489348
204	0xbdeee81c	-0.11665365
205	0xbdb7ffeb	-0.08984359
206	0x3d8517e4	0.064986974
207	0xbdf7bcef	-0.12096583
208	0x3c7959e9	0.01521919
209	0x3e01c1b9	0.12671556
210	0xbc853b79	-0.01626371
211	0xbd96b554	-0.07358804
212	0x3940cef4	0.00018387643
213	0xbd7e7418	-0.062122434
214	0xbc45058a	-0.012025246
215	0xbd0a8781	-0.033820633
216	0x3d2ac3a5	0.041690487
217	0x3d4fa72a	0.05069653
218	0x3e2fcea6	0.17168674
219	0xbe2e6876	-0.17032036
220	0xbde03100	-0.10946846
221	0xbc3a8c72	-0.011386024
222	0xbd0f4ccd	-0.034985352
223	0xbd991afb	-0.07475849
224	0xbd7591e6	-0.059953593
225	0x3d50feeb	0.05102436
226	0x3e0c9c53	0.13731508
227	0x3cfa5037	0.030555828
228	0xbd8bdecd	-0.06829605
229	0xbd8248e9	-0.06361563
230	0xbc7db39c	-0.015484717
231	0xbe1481ee	-0.14502689
232	0xbe27237c	-0.1632213
233	0x3b6a0ae4	0.0035712058
234	0x3c73411d	0.014847067
235	0xbe12df0e	-0.14342901
236	0x3e352312	0.1768916
237	0xbcf4210f	-0.02980092
238	0x3e158bfd	0.14604183
239	0xbd6906ca	-0.05689124
240	0xbdce9e6b	-0.100888096
241	0xbdd1fe9f	-0.10253643
242	0xbc88980e	-0.016674068
243	0xbdc57709	-0.09641845
244	0x3d3dbb46	0.046321176
245	0xbd123397	-0.03569373
246	0xbc829431	-0.015939804
247	0x3df9923d	0.12186096
248	0xbdc14d37	-0.09438556
249	0x3d01d184	0.03169395
250	0xbdd0d35c	-0.101965636
251	0xbd52cdd6	-0.05146583
252	0x3d91344a	0.070900515
253	0xbde0f67b	-0.109845124
254	0x3c90a5c4	0.017657168
255	0x3e0265f3	0.12734203

model.4.bias f4 [64]
0	0xbd7440e8	-0.059632212
1	0x3c9ae505	0.018908033
2	0xbe092639	-0.13393487
3	0x3d96a57b	0.07355782
4	0x3e1615fc	0.14656824
5	0x3df3c66b	0.119030796
6	0x3dc5451a	0.09632321
7	0x3d9285e4	0.07154444
8	0x3c3c7fbb	0.011505063
9	0x3d9ab739	0.07554478
10	0x3e261259	0.16217937
11	0xbd7a6f86	-0.061141513
12	0x3d72d9fe	0.059289925
13	0x3dbe274b	0.09284838
14	0xbe10a550	-0.14125562
15	0x3e31467c	0.17312044
16	0xbc9c8321	-0.019105496
17	0x3b885982	0.004161061
18	0x3ca1b2c8	0.01973857
19	0xbd0169ca	-0.03159503
20	0x3e2ce66b	0.16884772
21	0x3dbb24a5	0.09137849
22	0xbd938f3a	-0.07205053
23	0xbde6e8a1	-0.11274839
24	0xbe2fed1f	-0.17180298
25	0xbc6f13bf	-0.01459211
26	0xbddd977b	-0.10819908
27	0xbdf0eaf6	-0.11763565
28	0xbc27d18e	-0.010242833
29	0xbd9f3451	-0.077736504
30	0x3e23b744	0.15987879
31	0x3e2dbf0b	0.16967408
32	0xbdbab73b	-0.0911698
33	0xbd664d8c	-0.0562263
34	0xbe3077fb	-0.17233269
35	0xbe21b60f	-0.15792106
36	0xbd65ca9c	-0.056101426
37	0x3e12f84e	0.14352533
38	0x3e1770e3	0.14789157
39	0xbe10d8b3	-0.14145164
40	0xbb2f7997	-0.0026775354
41	0xbd50b393	-0.050952505
42	0xbbd4f597	-0.006499003
43	0x3e190905	0.14944847
44	0xbe237dd7	-0.15965973
45	0xbde7196d	-0.112841465
46	0xbdefec33	-0.11714973
47	0xbe1bac6c	-0.15202492
48	0xbdf09c72	-0.117485896
49	0xbcb8371c	-0.022487216
50	0xbe2b50bc	-0.16730016
51	0x3d920da8	0.07131511
52	0x3cc185ea	0.023623426
53	0xbe27a1c7	-0.16370307
54	0xbdec9e58	-0.11553639
55	0xbd48be95	-0.04900988
56	0x3c6eb457	0.014569364
57	0x3c864cdb	0.01639407
58	0xbc3abce5	-0.011397575
59	0xbde698d9	-0.11259622
60	0x3cee2fd1	0.029075535
61	0xbc3c68b1	-0.01149957
62	0xbe0fd6fc	-0.14046854
63	0x3e1ecbcd	0.15507431

model.7.weight f4 [1, 64]
0	0x3c5c8a14	0.013460655
1	0x3c010a41	0.00787598
2	0x3d70ba7f	0.058771607
3	0x3dd05833	0.10173073
4	0xbd080e77	-0.03321692
5	0xbd8b2887	-0.06794839
6	0xbc55d5f8	-0.013051502
7	0x3c09029d	0.008362439
8	0x3cc57cf2	0.02410743
9	0xbde709f2	-0.11281194
10	0x3d5f3792	0.054496355
11	0x3d84aefb	0.064786874
12	0xbd8a9509	-0.067667075
13	0x3dafadc9	0.08578069
14	0x3cff4dc4	0.031165011
15	0xbdd27c96	-0.10277669
16	0xbdeae789	-0.11469943
17	0x3d9f4a37	0.07777827
18	0x3d47231e	0.048617475
19	0xbda6519e	-0.08121036
20	0x3c9c4de5	0.019080112
21	0x3de9dd5a	0.114191726
22	0xbdfa7e55	-0.12231127
23	0x3dc39c48	0.09551293
24	0xbdd003f3	-0.10157003
25	0xbcb97b8c	-0.02264192
26	0xbdd64e7b	-0.10464188
27	0x3c74ecd3	0.014949041
28	0xbd3170e6	-0.04332056
29	0x3db7b749	0.08970506
30	0x3d736bae	0.059428863
31	0xbddc029a	-0.10742684
32	0xbdedeb7d	-0.116171815
33	0x3d338a78	0.043833226
34	0xbd902d33	-0.07039871
35	0xbc8cb772	-0.017177317
36	0x3d86bac4	0.065785915
37	0xbdd315cd	-0.103068925
38	0x3d005d26	0.031338833
39	0xbdf545d2	-0.11976208
40	0xbd7b9253	-0.061418843
41	0xbdebe46b	-0.11518177
42	0xbcf2d7cd	-0.029643917
43	0x3d070eb0	0.03297299
44	0x3d988601	0.07447434
45	0xbdbc080f	-0.091812246
46	0x3d4e89a5	0.050424237
47	0xbcfcffc3	-0.030883675
48	0x3d443f23	0.047911774
49	0x3d5a6bf7	0.05332562
50	0xbd59baf2	-0.0531568
51	0x3c2c73b1	0.01052563
52	0xbd5c5598	-0.053792566
53	0x3d813376	0.063086435
54	0xbc48210f	-0.012214913
55	0xbd123a49	-0.035700116
56	0xbc9c7fa8	-0.01910384
57	0x3cd1143d	0.025522346
58	0x3d06fb9a	0.03295479
59	0x3d949f13	0.072569035
60	0x3d6735a1	0.05644763
61	0x3d695e1f	0.056974526
62	0xbd3a4ce7	-0.045483496
63	0x3d8c434f	0.068487756
