lightning_logs/version_17/checkpoints/epoch=199-step=1600.ckpt (torch, 464377 bytes, 23 tensors)

model.0.weight f4 [1024]
0.9987332 0.99963444 1.0056895 1.0063843 1.0006162 1.0000838 1.0039862 1.0038359
1.0024141 0.998668 0.9977871 0.99667543 0.99689955 1.0004687 0.99881667 1.0013758
1.0030813 0.9990066 0.9995615 0.9986507 1.0007197 1.0012339 1.0041091 1.0008737
1.0013462 1.0018911 0.99977624 1.000393 1.0027611 0.99860317 0.997271 1.0005801
1.0030491 1.0020571 0.9970774 1.005319 1.0079669 0.9990586 1.0021889 0.9990503
0.9982344 1.0032197 1.0013463 0.9985227 0.99961346 1.0012364 1.0040641 0.9962118
1.0026106 1.0011548 1.0000463 1.0004965 1.0019096 0.999256 1.000598 0.9990771
1.0025022 0.9996075 0.9999113 1.0021878 1.0055737 1.002107 1.0013251 1.0006851
0.9991231 0.9997309 1.0027099 1.003479 1.000834 1.0018121 0.9983998 1.002442
0.9954797 1.0004063 0.99698925 1.0032666 1.0002931 0.9973365 1.0025136 0.9978452
1.0037165 0.998102 0.99752253 1.0008672 1.0038406 1.0068578 1.000699 1.0040559
1.0016917 1.0083516 1.0042332 1.0038992 1.0007635 0.99935526 1.0075227 1.0001836
0.9968582 1.0000218 1.0039699 1.0021261 0.9994653 1.0033982 0.99777204 0.9999213
1.0020288 1.0019774 1.0024039 1.0000083 1.0051175 0.9964915 1.0013062 1.0013357
0.9989714 1.0006592 0.99761295 1.0013982 0.99974686 1.0005738 1.0011631 0.99847794
1.0027285 0.99921125 1.0004932 1.000515 0.99562603 1.0022273 1.0009208 1.002749
1.0008072 0.9986033 1.0009301 1.0029352 1.0011396 0.9996502 1.0026414 1.0045298
1.0062656 0.9978212 1.0035732 0.9997049 1.0028107 1.0007716 1.0009352 1.0030462
0.99874395 0.99791414 1.0010897 1.0015718 1.0001781 1.0009092 1.0010587 1.0005208
0.9994245 1.0001774 1.0011935 1.0002935 1.0003265 1.0003959 1.0021148 0.99892116
0.9946548 1.0015371 1.0009838 0.9990391 1.0018045 0.99837244 0.9983662 1.0018362
0.99777156 1.0074914 0.99953705 1.0042872 0.9964826 1.0015055 1.0050467 1.0017465
1.0035262 1.0017444 1.0010709 1.0025308 1.0015643 1.0014399 1.0021313 0.99932253
1.0010157 1.0022202 0.9987466 0.99829316 0.9978218 0.9985614 1.0009757 1.0018098
0.99687356 1.0014969 0.9982485 1.0002661 1.0033423 1.002086 1.0031964 0.99817836
0.99716765 1.0016047 1.0049895 1.0027897 1.0009301 0.99422747 1.0091547 1.0026017
0.99984837 0.9990082 0.9990446 0.99966216 1.0020978 0.99724424 0.9975403 1.0045527
1.0013411 0.9965575 1.0034256 0.99848974 1.0016596 1.0045755 0.9958235 1.0028969
0.99925864 1.0001953 1.0002311 0.9987863 1.0069592 1.0016497 1.0038358 1.00326
0.99926984 0.9975964 0.9994579 1.0018077 1.0058557 0.9992746 1.007496 1.0047201
0.9984971 1.0011224 1.0033122 1.0012121 1.0000548 1.0047271 1.0010012 1.0034434
1.0050645 1.0006433 1.0039104 1.0024443 0.99828935 0.9991736 1.0050013 1.0006516
00000000: fbac 7f3f 0be8 7f3f 6fba 803f 33d1 803f
00000010: 3114 803f bf02 803f 9f82 803f b27d 803f
00000020: 1b4f 803f b5a8 7f3f fa6e 7f3f 1f26 7f3f
00000030: cf34 7f3f 5c0f 803f 73b2 7f3f 152d 803f
00000040: f864 803f e6be 7f3f 43e3 7f3f 93a7 7f3f
00000050: 9517 803f 6f28 803f a686 803f a11c 803f
00000060: 1d2c 803f f83d 803f 56f1 7f3f e10c 803f
00000070: 7a5a 803f 75a4 7f3f 274d 7f3f 0213 803f
00000080: ea63 803f 6843 803f 7740 7f3f 4bae 803f
00000090: 0f05 813f 4ec2 7f3f ba47 803f c3c1 7f3f
000000a0: 4a8c 7f3f 8169 803f 1e2c 803f 2f9f 7f3f
000000b0: abe6 7f3f 8428 803f 2c85 803f bd07 7f3f
000000c0: 8b55 803f d725 803f 8401 803f 4510 803f
000000d0: 933e 803f 3ecf 7f3f 9813 803f 84c3 7f3f
000000e0: fe51 803f 47e6 7f3f 30fa 7f3f b147 803f
000000f0: a4b6 803f 0b45 803f 6c2b 803f 7316 803f
00000100: 88c6 7f3f 5dee 7f3f cc58 803f 0072 803f
00000110: 541b 803f 613b 803f 2197 7f3f 0550 803f
00000120: c2d7 7e3f 500d 803f b03a 7f3f 0a6b 803f
00000130: 9b09 803f 7251 7f3f 5e52 803f c872 7f3f
00000140: c879 803f 9d83 7f3f a35d 7f3f 6b1c 803f
00000150: d97d 803f b7e0 803f e816 803f e784 803f
00000160: 6f37 803f aa11 813f b78a 803f c57f 803f
00000170: 0519 803f bfd5 7f3f 81f6 803f 0406 803f
00000180: 1932 7f3f b700 803f 1682 803f ab45 803f
00000190: f5dc 7f3f 5a6f 803f fd6d 7f3f d8fa 7f3f
000001a0: 7b42 803f cc40 803f c54e 803f 4600 803f
000001b0: b1a7 803f 111a 7f3f cd2a 803f c52b 803f
000001c0: 97bc 7f3f 9a15 803f 9063 7f3f d12d 803f
000001d0: 69ef 7f3f cd12 803f 1d26 803f 409c 7f3f
000001e0: 6859 803f 4fcc 7f3f 2910 803f e010 803f
000001f0: 59e1 7e3f fc48 803f 2c1e 803f 145a 803f
00000200: 731a 803f 77a4 7f3f 7a1e 803f 2e60 803f
00000210: 5825 803f 13e9 7f3f 8e56 803f 6f94 803f
00000220: 50cd 803f 3671 7f3f 1675 803f a9ec 7f3f
00000230: 1a5c 803f 4919 803f a51e 803f d163 803f
00000240: afad 7f3f 4d77 7f3f b523 803f 8133 803f
00000250: d605 803f cb1d 803f b122 803f 1111 803f
00000260: 49da 7f3f d005 803f 1c27 803f 9e09 803f
00000270: b30a 803f f90c 803f 4c45 803f 4cb9 7f3f
00000280: b2a1 7e3f 5e32 803f 3d20 803f 07c1 7f3f
00000290: 213b 803f 5695 7f3f ed94 7f3f 2b3c 803f
000002a0: f56d 7f3f 7af5 803f a9e1 7f3f 7c8c 803f
000002b0: 7c19 7f3f 5531 803f 5fa5 803f 3b39 803f
000002c0: 8c73 803f 2939 803f 1723 803f ee52 803f
000002d0: 4233 803f 2f2f 803f d745 803f 9ad3 7f3f
000002e0: 4821 803f c048 803f dbad 7f3f 2490 7f3f
000002f0: 4071 7f3f b8a1 7f3f f91f 803f 4e3b 803f
00000300: 1b33 7f3f 0d31 803f 378d 7f3f b808 803f
00000310: 856d 803f 5b44 803f bd68 803f 9e88 7f3f
00000320: 6146 7f3f 9534 803f 7fa3 803f 6a5b 803f
00000330: 7a1e 803f b185 7e3f fb2b 813f 4155 803f
00000340: 10f6 7f3f 00bf 7f3f 63c1 7f3f dce9 7f3f
00000350: be44 803f 664b 7f3f cd5e 7f3f 2f95 803f
00000360: f22b 803f 641e 7f3f 4070 803f 069d 7f3f
00000370: 6236 803f ee95 803f 4aee 7e3f ed5e 803f
00000380: 6acf 7f3f 6606 803f 9307 803f 75b0 7f3f
00000390: 0ae4 803f 0f36 803f b17d 803f d36a 803f
000003a0: 26d0 7f3f 7a62 7f3f 79dc 7f3f 3c3b 803f
000003b0: e1bf 803f 76d0 7f3f a1f5 803f ab9a 803f
000003c0: 829d 7f3f c724 803f 896c 803f b827 803f
000003d0: cc01 803f e69a 803f cf20 803f d570 803f
000003e0: f4a5 803f 1415 803f 2380 803f 1850 803f
000003f0: e48f 7f3f d7c9 7f3f e2a3 803f 5a15 803f

model.0.bias f4 [1024]
0.00458097 0.002059424 -0.006640252 0.007168148 0.0029456795 0.0013195327 -0.00040117375 -0.0010399466
-0.004289493 -0.00034772762 -0.002568587 0.0024484224 0.0046255416 -0.0026489126 -0.00055028696 -0.0030940275
-0.0075878086 -0.0042238715 -0.00044016607 0.0028649534 -0.000118762866 -0.0030134702 0.00494226 0.0036767798
0.0051026116 -0.0011633416 0.006119278 0.00014218844 -0.0010310106 -7.637879e-05 -0.0063053104 -0.0018138897
-0.007980401 -0.0022050545 0.0033230989 0.0022497217 -0.0071429117 -0.0012178269 -0.0021897657 0.0003328187
-0.0049230275 -0.0018806107 -0.004811736 -0.0011008439 -0.00037545498 0.0044540106 0.0015287531 -0.0029078245
-0.0049580196 -0.0008963787 0.0029241634 0.0030839702 -0.0052280044 -0.0021453544 0.0014859315 -0.006126093
0.0040780636 -0.003969282 -0.004267605 -0.00075645396 0.0051948433 -0.002238585 -0.0010483598 0.002210526
-5.1483617e-06 -0.003948528 0.0042336653 0.0023210186 -0.0005996741 0.003445935 0.0015025785 -0.0026206123
0.0037280205 0.002709547 0.0020739858 0.001993547 -0.0018202527 0.00032665546 -0.003936115 0.0015673456
0.002025517 0.0019945337 -0.0005560165 -0.0005132935 -0.006362675 0.0033406906 0.0051756906 -0.0059321327
0.004439317 0.005119126 0.0018620183 -0.003954457 -0.0056537567 0.0022909162 -0.0017718322 0.0017412754
0.0016636243 -0.0036332742 -0.0064008227 0.0031713438 0.002480044 -0.0011105888 -0.00521836 -0.0019219716
-0.0049818805 0.0025602255 6.226777e-05 -0.000746795 0.0033887133 -0.0028572732 -0.005302882 0.001117963
0.00035610265 0.001550685 -0.002041821 -0.00039238515 -0.001156997 0.006170576 -0.0024839195 0.0036004873
-0.00044261303 0.002200168 0.001715508 0.0050455937 0.0047492697 0.005253848 -0.001528606 -0.00068362337
0.0006680907 -0.0016197792 8.811476e-05 -0.00026468522 0.00036266018 0.0037292219 -0.0015907299 -0.006069876
0.0045420746 -0.0032021962 0.004558206 -0.003740158 0.0011660025 0.0014028536 0.0030944485 0.00075120624
-0.0038327614 -0.00077779236 -0.00076949963 0.0017495842 -0.0024854597 0.0035094868 0.005791377 -0.0009926702
-0.0037447668 0.0043504 -0.004554652 0.006141146 0.0017268228 -0.002779758 -0.0012403647 0.0011574633
-0.0010861302 0.0024719615 0.0034472218 -0.0034701675 0.0024383694 0.0015957829 -0.0010226368 0.00043503448
-0.0055578398 0.003024537 0.005287127 -0.0037243092 -0.001175049 -0.0015104547 0.0062198555 -0.00061419705
-0.0057686595 -0.002916841 0.0018200993 0.0051952535 0.0030320762 0.0003254969 0.005740281 0.00345961
-0.00026514663 -0.0013041813 -0.003338979 0.00026739645 -0.001017643 -0.0011539083 -0.0005341886 -0.0034169015
0.00011687084 -0.0006540769 -0.003094376 0.001803049 0.0025117334 0.0012483565 0.004487578 0.00095041154
0.004411927 -0.004075491 0.004355207 0.0004506455 -0.0006663887 -0.0023592552 0.007729392 0.0016572946
0.0020067394 -0.0022552065 0.0019792938 0.003929698 -0.0024341745 -0.002978126 0.003926253 0.003461692
0.003418259 0.0025732638 0.0014908451 -0.00043790147 0.0032202448 -0.0031209756 -0.0026602063 -0.008332957
0.0019306566 -0.003988706 0.0013163472 -0.0049837097 -0.005580582 0.0017565212 -0.001376555 0.0033707402
-0.002023133 0.0060950276 -0.0072405417 -0.0065174997 -0.0052153273 -0.0022241953 -0.005089748 0.004994757
0.0015536385 -0.004213487 -0.0047000437 0.005151459 -0.0031959645 -0.005745948 0.004799804 -0.0012227279
-0.00557133 0.0054214634 -0.005436986 -0.0020579426 0.00216645 -0.0018361498 0.006257431 0.003051626
00000000: f61b 963b 67f7 063b 7996 d9bb c9e2 ea3b
00000010: 4d0c 413b 2cf4 ac3a a154 d2b9 d14e 88ba
00000020: e08e 8cbb 364f b6b9 bd55 28bb b675 203b
00000030: db91 973b 6199 2dbb 2241 10ba 2bc5 4abb
00000040: 27a3 f8bb 6768 8abb 17c6 e6b9 f1c1 3b3b
00000050: 5410 f9b8 a47d 45bb aff2 a13b 21f6 703b
00000060: cf33 a73b 447b 98ba 3984 c83b 6b18 1539
00000070: fa22 87ba 8d2d a0b8 c79c cebb 0ac0 edba
00000080: 3ac0 02bc ad82 10bb 59c8 593b 1170 133b
00000090: 160f eabb 7d9f 9fba 2c82 0fbb 2b7e ae39
000000a0: 5951 a1bb d37e f6ba c4ab 9dbb 314a 90ba
000000b0: b7d8 c4b9 f3f2 913b 7160 c83a 3391 3ebb
000000c0: e276 a2bb f5fa 6aba 52a3 3f3b 6f1c 4a3b
000000d0: ae4f abbb 1399 0cbb 96c3 c23a 65bd c8bb
000000e0: 47a1 853b c010 82bb 44d7 8bbb c44c 46ba
000000f0: 8139 aa3b 39b5 12bb 1e69 89ba 79de 103b
00000100: 17c0 acb6 a762 81bb 8fba 8a3b 3b1c 183b
00000110: 7333 1dba 32d5 613b 2bf2 c43a 94be 2bbb
00000120: ce51 743b a892 313b b5eb 073b 2ba6 023b
00000130: 8c95 eeba f442 ab39 87fa 80bb 646f cd3a
00000140: 89be 043b b9b6 023b a3c1 11ba 8b8e 06ba
00000150: fd7d d0bb 7def 5a3b d798 a93b 5662 c2bb
00000160: b177 913b 57be a73b f70e f43a 6494 81bb
00000170: 2643 b9bb 3223 163b d33c e8ba 823b e43a
00000180: f80d da3a 3a1c 6ebb febd d1bb 52d6 4f3b
00000190: 3c88 223b 2d91 91ba c7fe aabb aaea fbba
000001a0: 0b3f a3bb 75c9 273b c195 8238 90c4 43ba
000001b0: 2d15 5e3b 1741 3bbb ccc3 adbb 9d88 923a
000001c0: 4ab3 ba39 5b40 cb3a 12d0 05bb 0bb9 cdb9
000001d0: 61a6 97ba 8b32 ca3b 41c9 22bb 27f6 6b3b
000001e0: 840e e8b9 b230 103b e6da e03a 8255 a53b
000001f0: c39f 9b3b 7928 ac3b 825b c8ba 3035 33ba
00000200: cf22 2f3a c54e d4ba 40ca b838 73c5 8ab9
00000210: 6d23 be39 f665 743b 0a80 d0ba cfe5 c6bb
00000220: afd5 943b f0db 51bb 015d 953b 701d 75bb
00000230: 8dd4 983a f5df b73a 3bcc 4a3b 99ec 443a
00000240: 112f 7bbb c3e4 4bba 3fb8 49ba 4e52 e53a
00000250: 18e3 22bb 6bff 653b 97c5 bd3b 7c1c 82ba
00000260: c36a 75bb cd8d 8e3b 313f 95bb ab3b c93b
00000270: 8f56 e23a 9a2c 36bb bc93 a2ba 06b6 973a
00000280: 7b5c 8eba a200 223b c9ea 613b c06b 63bb
00000290: 0dcd 1f3b 9729 d13a ff09 86ba 5715 e439
000002a0: 8a1e b6bb 5037 463b a33f ad3b 8a13 74bb
000002b0: 1a04 9aba 73fa c5ba eecf cb3b 1102 21ba
000002c0: 0607 bdbb 7928 3fbb 6690 ee3a f23c aa3b
000002d0: ccb5 463b 74a7 aa39 f818 bc3b a0ba 623b
000002e0: 6103 8bb9 10f1 aaba c6d2 5abb 5831 8c39
000002f0: 6f62 85ba bd3e 97ba ca08 0cba 18ee 5fbb
00000300: 8e18 f538 5c76 2bba 04cb 4abb 4954 ec3a
00000310: e59b 243b e59f a33a 880c 933b 0a25 793a
00000320: ed91 903b b28b 85bb 20b6 8e3b 9d44 ec39
00000330: 97b0 2eba bc9d 1abb d746 fd3b 9439 d93a
00000340: 8083 033b 16cc 13bb 0ab7 013b b2c4 803b
00000350: ac86 1fbb aa2c 43bb cca7 803b 8edd 623b
00000360: df04 603b 34a4 283b 7668 c33a 2496 e5b9
00000370: be0a 533b 4889 4cbb db56 2ebb f486 08bc
00000380: 160e fd3a b1b3 82bb 4889 ac3a 634e a3bb
00000390: 51dd b6bb 123b e63a 856d b4ba a3e7 5c3b
000003a0: 8a96 04bb ccb8 c73b 1142 edbb c090 d5bb
000003b0: 56e5 aabb cec3 11bb e7c7 a6bb 0fab a33b
000003c0: 75a3 cb3a 4a11 8abb d302 9abb 92cd a83b
000003d0: 6373 51bb 8148 bcbb ad47 9d3b f143 a0ba
000003e0: b48f b6bb 88a6 b13b bf28 b2bb 8cde 06bb
000003f0: 00fb 0d3b f7aa f0ba 230b cd3b cafd 473b

model.0.running_mean f4 [1024]
-0.056944896 -0.016626436 0.007924722 -0.025930274 0.0031018339 -0.014509259 0.03899408 -0.004961169
-0.003969227 0.031962432 -0.011069024 0.0043571154 -0.003920779 -0.012543023 0.004327516 0.010972509
-0.03554398 -0.02491479 -0.0008560584 0.008655325 0.0151395 -0.00029140367 0.019882686 0.07114787
0.019983651 0.029481443 -0.024174646 0.011584926 -0.0051054936 -0.010408847 0.024741897 -0.01614481
-0.0074695298 0.008913776 -0.0030361156 0.016286336 -0.011012833 0.0061671888 -0.028030064 -0.00491579
0.009469976 0.026097586 -0.00095403334 -0.045451842 -0.023483906 0.0032613694 -0.00010346607 -0.02470979
-0.012110824 0.08190891 -0.024084203 -0.018232055 -0.020220153 0.008915123 0.010263155 -0.008568773
0.03221358 0.009011675 -0.005354245 -0.010045989 0.011858755 -0.021987483 -0.010695063 0.023125857
0.00047641053 -0.014108818 0.006127436 0.007377501 0.0009943417 0.005951099 0.037199464 0.010725493
-0.015341346 0.04246291 0.029641354 -0.011600013 0.025706697 -0.018036667 0.015150343 -0.018241616
-0.0085492395 0.026909992 -0.052169085 0.021798354 -0.017194543 -0.03887206 0.023139104 -0.018886553
0.011503754 0.023351302 -0.022908907 -0.004866965 -0.010847139 0.012446776 0.01184137 0.019703282
0.007757156 0.056837928 -0.008244963 0.021781262 0.013955083 0.025634475 -0.0020022208 0.012438709
0.07263105 0.01671191 0.00230041 -0.023148872 -0.029569149 0.049245276 -0.011221099 0.0024420894
0.06428954 -0.004612196 -0.0061443625 0.017239073 -0.00092464365 -0.006249765 -0.00011229984 -0.0065644747
-0.022446359 -0.008431328 -0.015949816 -0.013324209 -0.04942537 -0.022276575 -0.010037559 -0.021269534
0.021110822 -0.020530134 -0.064594954 -0.0150465015 0.016938265 -0.0033432595 -0.001053119 -0.028716205
0.042236183 0.022557374 -0.0030766206 -0.022000879 0.0025609154 -0.040946353 -0.009869646 -0.005334474
-0.0036770809 -0.00972506 0.044841196 -0.022015003 -0.033013694 0.0021262616 -0.008920268 0.0004208363
0.006184487 -0.00034071575 0.015829995 0.026333947 0.027048213 -0.008520216 -0.0043043587 0.007217004
0.001330027 0.028254496 0.016261492 0.0039140168 -0.005013952 -0.0051636007 -0.05592182 -0.0071496456
-0.037263375 0.027837921 0.028453553 0.02959762 0.025815189 -0.008330064 0.022415705 0.0113156
-0.0115786055 -0.012246794 -0.019025082 -0.001075435 -0.031787597 -0.01718999 -0.0054574152 0.011073925
-0.011541925 0.02501447 0.04595511 -0.0153750405 -0.015169353 -0.032533802 0.03760432 0.011864581
0.013665051 0.03091514 0.011931924 0.011874891 -0.011071184 -0.002972357 0.020044068 0.032385826
0.005902026 -0.013149794 0.0019865138 -0.026536822 -0.024799947 0.008698846 -0.012204588 -0.013267172
0.016376399 -0.008708583 -0.032698378 -0.02142992 0.014057655 0.024444178 0.0057301917 -0.014663233
0.012670818 0.026948467 -0.007892039 -0.0072215647 0.009424193 -0.018912546 -0.04845047 -0.02107788
0.022636665 0.013321243 0.0035457516 -0.019692298 0.002424986 -0.021032756 -0.009635527 -0.030365856
-0.005500141 -0.02795652 -0.012033804 -0.016793389 -0.02921455 0.034972545 0.020257043 -0.01720247
0.031965297 -0.0009879908 -0.005713155 0.026627842 -0.023542313 -0.0012427311 0.012058492 0.02164961
0.00019773316 0.026696632 -0.018391378 0.024118083 0.018199945 0.0018417313 0.0143966805 0.02251113
00000000: 0d3f 69bd 2a34 88bc b1d6 013c ba6b d4bc
00000010: 2348 4b3b 3eb8 6dbc 42b8 1f3d 4d91 a2bb
00000020: 4a10 82bb 0aeb 023d da5a 35bc 22c6 8e3b
00000030: e179 80bb 4081 4dbc d6cd 8d3b 0ac6 333c
00000040: 9096 11bd 1a1a ccbc 1b69 60ba 10cf 0d3c
00000050: aa0b 783c 8ac7 98b9 04e1 a23c f9b5 913d
00000060: c1b4 a33c 1183 f13c e809 c6bc b4ce 3d3c
00000070: fc4b a7bb de89 2abc 85af ca3c 1f42 84bc
00000080: f5c2 f4bb 160b 123c 91f9 46bb ec6a 853c
00000090: 2b6f 34bc 2116 ca3b 4e9f e5bc a314 a1bb
000000a0: f527 1b3c 9bca d53c 1818 7aba b62b 3abd
000000b0: 5261 c0bc b3bc 553b ecfb d8b8 2f6c cabc
000000c0: 7a6c 46bc dcbf a73d 3c4c c5bc 645b 95bc
000000d0: bca4 a5bc bc10 123c cb26 283c 0a64 0cbc
000000e0: 63f2 033d b4a5 133c aa72 afbb ef97 24bc
000000f0: 394b 423c 181f b4bc 583a 2fbc 7072 bd3c
00000100: bdc6 f939 ac28 67bc a9c8 c83b f7be f13b
00000110: 9254 823a 7001 c33b 775e 183d fab9 2f3c
00000120: 455a 7bbc 97ed 2d3d 6dd2 f23c fb0d 3ebc
00000130: da96 d23c a2c1 93bc 2539 783c 716f 95bc
00000140: 1c12 0cbc 5872 dc3c 40af 55bd 7692 b23c
00000150: 92db 8cbc 4f38 1fbd 388e bd3c f9b7 9abc
00000160: 3e7a 3c3c 3b4b bf3c 76ab bbbc 107b 9fbb
00000170: 33b8 31bc 90ed 4b3c 4e02 423c c768 a13c
00000180: be2f fe3b e3ce 683d e215 07bc 9e6e b23c
00000190: dca3 643c 64ff d13c b137 03bb bacb 4b3c
000001a0: 97bf 943d 6ae7 883c 7ac2 163b b4a2 bdbc
000001b0: 003b f2bc 6ab5 493d b3d8 37bc 760b 203b
000001c0: 3caa 833d e721 97bb a656 c9bb f538 8d3c
000001d0: c963 72ba d4ca ccbb 8482 ebb8 ce1a d7bb
000001e0: 6de1 b7bc 8e23 0abc 30a9 82bc c84d 5abc
000001f0: 4272 4abd 5d7d b6bc 9374 24bc 723d aebc
00000200: 9af0 ac3c d02e a8bc 5c4a 84bd 9a85 76bc
00000210: 1ec2 8a3c 961a 5bbb cf08 8aba 3f3e ebbc
00000220: d9ff 2c3d 3eca b83c 21a1 49bb 303b b4bc
00000230: 08d5 273b 5db7 27bd 4cb4 21bc d0cc aebb
00000240: 2efb 70bb dc55 1fbc 67ab 373d cf58 b4bc
00000250: 5e39 07bd c058 0b3b 5126 12bc b1a3 dc39
00000260: 3da7 ca3b 18a2 b2b9 e8ad 813c 4aba d73c
00000270: 3794 dd3c 6098 0bbc 940b 8dbb 9e7c ec3b
00000280: 4d54 ae3a f975 e73c d236 853c 2741 803b
00000290: 144c a4bb 6c33 a9bb 470e 65bd 9347 eabb
000002a0: 7ba1 18bd 5a0c e43c 6d17 e93c b576 f23c
000002b0: 607a d33c d27a 08bc 24a1 b73c 1165 393c
000002c0: 31b4 3dbc c7a6 48bc 7dda 9bbc 9cf5 8cba
000002d0: b633 02bd 06d2 8cbc 1ed4 b2bb 686f 353c
000002e0: 581a 3dbc 25eb cc3c 6d3b 3c3d 98e7 7bbc
000002f0: e188 78bc 2a42 05bd fd06 1a3d a963 423c
00000300: 61e3 5f3c bf41 fd3c 1e7e 433c e78e 423c
00000310: e963 35bc e0cb 42bb 7533 a43c 00a7 043d
00000320: c865 c13b 3c72 57bc 2c30 023b c063 d9bc
00000330: 4229 cbbc 9b85 0e3c c1f5 47bc 8d5e 59bc
00000340: cc27 863c 72ae 0ebc bcee 05bd cd8d afbc
00000350: 1452 663c 283f c83c 55c4 bb3b 0f3e 70bc
00000360: 4399 4f3c 08c3 dc3c 9c4d 01bc e0a2 ecbb
00000370: ee67 1a3c 7cee 9abc 0074 46bd 85ab acbc
00000380: 8770 b93c 5841 5a3c d75f 683b be51 a1bc
00000390: 84ec 1e3b e34c acbc 54de 1dbc d1c1 f8bc
000003a0: 873a b4bb 1205 e5bc 6f29 45bc 4a92 89bc
000003b0: 5a53 efbc 5f3f 0f3d 19f2 a53c 32ec 8cbc
000003c0: 0bee 023d 787f 81ba 6b35 bbbb a222 da3c
000003d0: cfdb c0bc 23e3 a2ba fb90 453c 865a b13c
000003e0: 9756 4f39 e5b2 da3c 84a9 96bc 4993 c53c
000003f0: 0d18 953c 3f66 f13a 0ee0 6b3c 4369 b83c

model.0.running_var f4 [1024]
0.00014458575 0.00015650052 0.00013260316 0.000117403564 0.00015888024 0.00017878092 0.00016383166 0.00011235865
0.0001284855 0.00016786237 0.00018254788 0.00019102257 0.00017488479 0.00014507839 0.00015352463 0.00012428738
0.000107015774 0.00014974753 0.00018262725 0.00014603123 0.00015935567 0.00014584862 0.00013165685 0.00020131591
0.0001294698 0.00018091609 0.00019490189 0.00012098205 0.00017837963 0.0003877097 0.00026285977 0.00018606993
0.00018454806 0.00011493011 0.00021086451 0.0002040573 0.00012399205 8.106487e-05 0.00012483445 0.0002724921
0.0002699791 0.00017300896 0.00018836286 0.00014504771 0.00019178624 0.00022921091 0.00023255746 0.0002134193
0.00013129774 0.0004209988 0.00023612069 0.00026045484 0.00019065809 0.00019475886 0.00012610736 0.0001315929
0.00025684605 0.00010394575 0.00012777976 0.00015377114 0.00020067414 0.00019433053 0.0002727925 0.00019214061
0.00013128847 0.000101155376 0.00020602063 0.00012465077 0.00013475586 0.00016227062 0.00023353468 0.00020511888
0.00021681377 0.0001911905 0.0001933531 0.00021161095 0.000106819694 0.00018695074 0.00016341565 0.00020749564
0.00018794679 0.00010639384 0.00020316221 0.00013241087 0.00012865428 0.00036588128 0.00014588716 0.00023877308
0.000119468634 0.00023967447 0.00036662954 0.00018588398 0.00012847647 0.00025351733 0.00013363124 0.00017735586
0.00016768667 0.00017886217 0.00018402976 0.00032938388 0.00016178392 0.00012136137 0.00018769084 0.00011704114
0.000719837 0.00017468761 0.00018003341 0.00022505457 0.00015819762 0.0001611718 0.00017210828 0.00012011273
0.00019961518 0.00020691645 0.00022043404 0.00026556573 0.00012352102 0.00018472769 0.00023323538 0.00028159178
0.00020882659 0.00015348263 0.00017349432 0.00017692815 0.0001531228 0.0001062943 0.0001008425 0.00011956137
0.00020881763 0.0003081801 0.00019933913 0.000110294626 0.00020438629 0.00012295856 0.00013218458 0.00018696651
0.0002607685 0.00013728085 0.00015828076 0.00018250938 0.00012932616 0.00014610482 0.00015552352 0.00017807694
0.0003330221 0.00024847526 0.00020303337 0.00016875671 0.0002742718 0.00017939345 0.0002354476 0.00016807174
0.00012688743 0.00024524308 0.0001238472 0.00019388788 0.00013063196 0.00014820149 0.0003121589 0.0001466366
0.00014607313 0.00013983372 0.00011731391 0.00015116337 0.00011709121 0.00010035053 0.00083132694 0.0001224741
0.00022552571 0.00018232391 0.0001733457 0.0001618642 0.00019288292 0.00011166788 0.00026925644 0.00020615931
0.000120894176 0.0001440439 0.00012442964 0.00025632765 0.00020673194 0.00024025871 0.00023422932 0.0002129157
0.00017263266 0.00014890748 0.00024131245 0.000164491 0.00017593874 0.0001571246 0.00025327853 0.00017948166
0.00026181625 0.00013544907 0.00014536332 0.00023626488 0.0002079883 0.00016525011 0.00016428644 0.0001554904
0.0001621555 0.00018042713 0.0001928474 0.00012405596 0.00014842222 0.00014912659 0.00014343782 0.00015210618
0.0001602029 0.0001745107 0.00019768106 0.00013781543 0.00014573678 0.00017795352 0.0006028951 0.00011401409
0.0001225258 0.00013994692 0.00010850156 0.00018726486 0.00017212408 0.00013979418 0.00015970643 0.00018953082
0.00020925676 0.00017611301 0.00011929811 0.00011168287 0.0001070652 0.0001544557 0.0001554176 0.0004544363
0.0001816555 0.000193922 0.00011646903 0.00010304926 0.00019429372 0.00013434785 0.00014378967 0.00014110073
0.00015400318 0.0001538707 0.00019269252 0.0002025811 0.00021837588 0.00047481357 0.00012413091 0.00012576694
0.0001520577 0.00012620853 0.00015880066 0.0001463001 0.00019438087 0.000100937454 0.00014963855 0.00013578785
00000000: f19b 1739 4a1a 2439 640b 0b39 8f36 f638
00000010: 1799 2639 2377 3b39 3aca 2b39 17a2 eb38
00000020: 10ba 0639 3604 3039 536a 3f39 3b4d 4839
00000030: 4761 3739 2f20 1839 74fb 2039 2453 0239
00000040: a86d e038 8c05 1d39 a17f 3f39 f61f 1939
00000050: b618 2739 f1ee 1839 5e0d 0a39 5418 5339
00000060: 49c2 0739 4bb4 3d39 945e 4c39 beb7 fd38
00000070: 6b0b 3b39 8445 cb39 71d0 8939 c41b 4339
00000080: 3e83 4139 a206 f138 831b 5d39 37f8 5539
00000090: dd03 0239 5f01 aa38 fee5 0239 45dd 8e39
000000a0: fb8b 8d39 bd69 3539 4583 4539 f317 1839
000000b0: 3a1a 4939 5658 7039 abda 7339 4fc9 5f39
000000c0: f8ac 0939 81b9 dc39 2a97 7739 a88d 8839
000000d0: 64eb 4739 2f38 4c39 b03b 0439 33fc 0939
000000e0: 4ba9 8639 73fd d938 9efc 0539 a03d 2139
000000f0: 0e6c 5239 34c5 4b39 9705 8f39 5a79 4939
00000100: 7baa 0939 6123 d438 3e07 5839 b0b4 0239
00000110: 404d 0d39 3027 2a39 fde0 7439 2e15 5739
00000120: 8158 6339 4f7a 4839 d4be 4a39 e2e3 5d39
00000130: 6304 e038 3508 4439 8e5a 2b39 3093 5939
00000140: 9513 4539 c21f df38 f107 5539 c6d7 0a39
00000150: 5fe7 0639 c1d3 bf39 49f9 1839 295f 7a39
00000160: 3c8b fa38 2051 7b39 2f38 c039 dae9 4239
00000170: a4b7 0639 85ea 8439 5d1f 0c39 9af8 3939
00000180: 0cd5 2f39 f38c 3b39 1df8 4039 28b1 ac39
00000190: 8aa4 2939 6483 fe38 e0ce 4439 fc73 f538
000001a0: 71b3 3c3a 592c 3739 5ac7 3c39 a0fc 6b39
000001b0: dae1 2539 3a00 2939 f777 3439 08e5 fb38
000001c0: cb4f 5139 b6f7 5839 5024 6739 a13b 8b39
000001d0: 6c85 0139 76b3 4139 a590 7439 9ca2 9339
000001e0: 76f8 5a39 2ef0 2039 07ec 3539 ca85 3939
000001f0: 978f 2039 51ea de38 687b d338 06bd fa38
00000200: 0ef6 5a39 3c93 a139 b105 5139 fa4d e738
00000210: 8750 5639 70ee 0039 079b 0a39 710c 4439
00000220: c1b7 8839 0cf3 0f39 2bf8 2539 fd5f 3f39
00000230: ba9b 0739 b733 1939 0714 2339 2aba 3a39
00000240: 7899 ae39 c945 8239 5be5 5439 49f4 3039
00000250: 23cc 8f39 901b 3c39 7ce2 7639 6a3c 3039
00000260: 160d 0539 f893 8039 fbdc 0139 624e 4b39
00000270: 40fa 0839 8966 1b39 42a9 a339 76c2 1939
00000280: 352b 1939 54a0 1239 6d06 f638 9c81 1e39
00000290: dd8e f538 4873 d238 68ed 593a 646c 0039
000002a0: 197b 6c39 342e 3f39 22c4 3539 17ba 2939
000002b0: 9d40 4a39 3d2f ea38 fd2a 8d39 782c 5839
000002c0: 9188 fd38 7d0a 1739 5479 0239 b763 8639
000002d0: 2fc6 5839 f5ed 7b39 749b 7539 1f42 5f39
000002e0: ba04 3539 0c24 1c39 d108 7d39 377b 2c39
000002f0: 327c 3839 d0c1 2439 78ca 8439 3e33 3c39
00000300: 6244 8939 5507 0e39 ab6c 1839 dfbd 7739
00000310: 6f17 5a39 fd46 2d39 4e44 2c39 230b 2339
00000320: 4908 2a39 0a31 3d39 1437 4a39 0515 0239
00000330: c9a1 1b39 dd5e 1c39 cc67 1639 b17e 1f39
00000340: 23fc 2739 dcfc 3639 9b48 4f39 8c82 1039
00000350: ebd0 1839 0999 3a39 9b0b 1e3a d91a ef38
00000360: 457a 0039 b7be 1239 558b e338 875c 4439
00000370: 357c 3439 b795 1239 de76 2739 cbbc 4639
00000380: ef6b 5b39 faaa 3839 af2f fa38 4937 ea38
00000390: 3188 e038 63f5 2139 98f7 2239 6841 ee39
000003a0: c77a 3e39 8a57 4b39 d640 f438 261c d838
000003b0: 53bb 4b39 badf 0c39 3fc6 1639 70f4 1339
000003c0: ea7b 2139 5a58 2139 810d 4a39 f36b 5439
000003d0: d4fb 6439 66f0 f839 2329 0239 4ee0 0339
000003e0: ae71 1f39 d856 0439 ba83 2639 2268 1939
000003f0: b8d2 4b39 62ae d338 4be8 1c39 4662 0e39

model.1.weight f4 [32, 1024]
0.0023140078 0.026662707 -0.0046814545 0.0031099825 -0.015954662 -0.029693091 0.03167279 0.008842388
-0.0023021384 -0.007712451 -0.0120098395 0.02644741 0.011796841 -0.026730783 -0.018486926 0.025715802
0.005215584 0.02102129 0.017623285 -0.013301317 -0.019495863 -0.023468988 0.016752297 0.029818997
-0.025877511 0.031720787 -0.028076416 -0.01003243 0.025619157 0.0009197693 0.006669746 -0.026559241
0.022722038 -0.009715125 0.025013775 0.0043695588 0.028105391 -0.02418828 -0.008951809 0.024753952
0.013179918 0.027070297 0.0069942037 0.026257373 -0.030173808 -0.029654361 0.015049447 -0.015792726
-0.013250684 0.013521141 0.006293403 0.0054803123 -0.0046463665 0.013765375 0.020492053 -0.027887084
-0.012073116 -0.012660207 -0.006927298 0.0050841947 0.013592727 -0.019403975 0.0059998073 -0.004722626
-0.009423228 0.027559277 -0.012383884 -0.017797844 -0.031054722 -0.012748644 0.015698675 -0.0113760615
0.008630205 0.02884074 0.0033768055 0.014955413 0.014115173 -0.014200123 -0.013124512 0.010520494
-0.025819356 0.016278086 -0.012611473 0.027918404 -0.0016790831 0.008621041 0.01595176 0.014022498
0.03180749 0.005303188 0.00072520983 -0.004140258 0.027434519 -0.01577545 -0.01937121 -0.0038762775
-0.01751013 -0.005987246 -0.00032424167 0.015041192 -0.011489796 -0.020970833 -0.019374141 -0.028376259
-0.019438371 0.0059411535 0.020937564 0.013471393 0.020568704 -0.021135774 0.016892562 -0.004526973
0.00095747417 0.005950088 -0.0030353228 -0.021893283 -0.010036505 -0.011129946 -1.0469016e-05 -0.018604498
-0.02249336 -0.007313267 0.0051189912 0.008744943 -0.007388199 -0.0113973245 -0.031355172 0.0060493513
-0.013159594 -0.005619627 0.021859897 -0.027444325 0.027945094 -0.0023846286 0.017161312 -0.019575767
0.01958856 0.01575582 0.020696055 0.012197348 0.019290173 -0.008764891 0.026205271 -0.016408142
0.0056212624 0.00078166235 0.017361065 0.003644912 -0.014911564 0.0030579935 -0.007994805 0.026924763
0.005144023 0.019446727 0.023912553 -0.018384054 0.02352542 0.018175175 -0.024117019 -0.024151068
0.027756808 0.012009584 0.023049025 0.018213375 -0.03023549 0.028116642 0.013131383 0.0013535451
-0.0048351446 0.021665346 -0.002532058 -0.00027726637 0.020860797 -0.014835377 -0.017969906 0.01156554
0.012339802 -0.006713744 -0.017650032 -0.00841742 0.018033817 -0.021518474 0.0034556973 -0.027372612
0.00021609949 0.023280893 -0.025556108 -0.02745302 -0.014965786 -0.011511335 0.026420219 -0.028275011
0.020304393 -0.029690824 -0.008249482 0.009702527 0.025201468 -0.0059136553 -0.00808113 -0.0014991112
0.0038338774 -0.013469283 0.024500608 -0.019796224 0.004674002 -0.027496649 0.00216264 0.003956005
-0.027911844 0.014854332 -0.021958718 -0.008383777 0.004513467 0.027419202 0.023160042 -0.023745306
0.023517968 0.01080278 0.0108511355 -0.005214943 -0.011918847 0.022898583 0.010838334 -0.028676597
0.013417807 0.00919442 0.013044443 0.007456076 -0.014334816 -0.0146208275 -0.02378582 -0.029340861
-0.028964976 0.0009486967 -0.019470958 -0.014638306 0.016657328 0.028815314 -0.0019403903 -0.016698105
-0.017482782 -0.01677781 -0.027055288 2.6103102e-05 -0.014333292 -0.0027287283 -0.021812292 0.011947982
-0.006000588 0.014158254 -0.019716265 -0.009514562 -0.0008611903 0.002485204 0.010621248 -0.011679863
00000000: 9ca6 173b c06b da3c e366 99bb d9d0 4b3b
00000010: 5ab3 82bc ed3e f3bc 54bb 013d aadf 103c
00000020: 79df 16bb bab8 fcbb ebc4 44bc 3da8 d83c
00000030: 8a47 413c 84fa dabc e571 97bc f2a9 d23c
00000040: 7de7 aa3b d734 ac3c b55e 903c c4ed 59bc
00000050: cab5 9fbc 0942 c0bc 1d3c 893c f846 f43c
00000060: 13fd d3bc a8ed 013d 8300 e6bc 105f 24bc
00000070: 44df d13c ac1c 713a e28d da3b c492 d9bc
00000080: 9123 ba3c 302c 1fbc b0e9 cc3c 842e 8f3b
00000090: 473d e63c 8026 c6bc 9caa 12bc cdc8 ca3c
000000a0: 95f0 573c 87c2 dd3c a22f e53b b419 d73c
000000b0: 102f f7bc b4ed f2bc f591 763c bf5f 81bc
000000c0: 6619 59bc c787 5d3c e438 ce3b 3194 b33b
000000d0: 8c40 98bb 2b88 613c f3de a73c 7473 e4bc
000000e0: 52ce 45bc c26c 4fbc 63fe e2bb 5199 a63b
000000f0: 07b4 5e3c 16f5 9ebc 089a c43b 42c0 9abb
00000100: e263 1abc fec3 e13c c6e5 4abc c9cc 91bc
00000110: 7966 febc b0df 50bc 829a 803c a962 3abc
00000120: b465 0d3c 6a43 ec3c 654d 5d3b 8c07 753c
00000130: 5443 673c a2a7 68bc 3108 57bc 265e 2c3c
00000140: 1d83 d3bc 9f59 853c 5aa0 4ebc 23b5 e43c
00000150: ae14 dcba 443f 0d3c 44ad 823c 9fbe 653c
00000160: 9248 023d 5ec6 ad3b 021c 3e3a 00ab 87bb
00000170: 5bbe e03c 843b 81bc 5fb0 9ebc 2509 7ebb
00000180: 6771 8fbc a930 c4bb fbfe a9b9 556f 763c
00000190: b33f 3cbc 06cb abbc 85b6 9ebc 5475 e8bc
000001a0: 383d 9fbc 02ae c23b 4185 ab3c 1eb7 5c3c
000001b0: b37f a83c ee24 adbc 4562 8a3c 0057 94bb
000001c0: 01ff 7a3a f5f8 c23b 44ec 46bb 8b59 b3bc
000001d0: 2770 24bc 615a 36bc 15a4 2fb7 7668 98bc
000001e0: ff43 b8bc 21a4 efbb 36bd a73b f346 0f3c
000001f0: b518 f2bb d8bb 3abc 486e 00bd a339 c63b
00000200: 569b 57bc d924 b8bb 8713 b33c ecd2 e0bc
00000210: 1ced e43c 6e47 1cbb e195 8c3c 5c5d a0bc
00000220: 3078 a03c 5912 813c c68a a93c 63d7 473c
00000230: 6d06 9e3c 9e9a 0fbc 70ac d63c 5e6a 86bc
00000240: 9132 b83b 79e8 4c3a cb38 8e3c 7adf 6e3b
00000250: a24f 74bc 9e68 483b a5fc 02bc 5291 dc3c
00000260: 318f a83b be4e 9f3c 42e4 c33c 289a 96bc
00000270: 62b8 c03c 1be4 943c 0e91 c5bc 76d8 c5bc
00000280: 3f62 e33c d9c3 443c 4fd1 bc3c 3734 953c
00000290: 6bb0 f7bc df54 e63c 0325 573c 7069 b13a
000002a0: 2270 9ebb 867b b13c e2f0 25bb 105e 91b9
000002b0: 43e4 aa3c 1510 73bc a035 93bc 647d 3d3c
000002c0: e22c 4a3c f7fe dbbb cd96 90bc 38e9 09bc
000002d0: a8bb 933c 8347 b0bc fb78 623b 873c e0bc
000002e0: c498 6239 92b7 be3c 0b5b d1bc 28e5 e0bc
000002f0: 0e33 75bc 0a9a 3cbc 376f d83c ffa0 e7bc
00000300: 6655 a63c 2c3a f3bc d628 07bc 59f7 1e3c
00000310: 4f73 ce3c 56c7 c1bb b766 04bc d37d c4ba
00000320: ca41 7b3b 44ae 5cbc 80b5 c83c b12b a2bc
00000330: 5f28 993b a740 e1bc 14bb 0d3b 60a1 813b
00000340: 61a7 e4bc 965f 733c c5e2 b3bc 1c5c 09bc
00000350: b5e5 933b 3c9e e03c 21ba bd3c 8485 c2bc
00000360: c1a8 c03c 25fe 303c f6c8 313c 1de2 aabb
00000370: 4547 43bc cf95 bb3c 4593 313c 2feb eabc
00000380: 5dd6 5b3c 31a4 163c 5cb8 553c 1952 f43b
00000390: 93dc 6abc 328c 6fbc 7bda c2bc 3f5c f0bc
000003a0: f547 edbc f5b1 783a 8f81 9fbc 81d5 6fbc
000003b0: f374 883c 180e ec3c b254 feba 77ca 88bc
000003c0: 0d38 8fbc 9e71 89bc 0da3 ddbc fcf7 da37
000003d0: 2fd6 6abc 77d4 32bb b1af b2bc 78c1 433c
000003e0: 95a0 c4bb 05f8 673c 0184 a1bc f7e2 1bbc
000003f0: 81c1 61ba cede 223b be04 2e3c e55c 3fbc

model.1.bias f4 [32]
0.0044840397 -0.022763176 0.021467594 -0.020741956 -0.0012919737 0.023167405 0.017408194 -0.022768555
-0.006412409 -0.026079308 -0.027580258 -0.031467114 -0.0168921 -0.02061354 -0.017130712 -0.024974553
0.0032946055 0.017151114 0.009548413 -0.02229684 0.026766762 0.014231163 0.027423432 -0.00227066
-0.005730641 -0.0061133695 -0.004962306 0.01579145 -0.0025609205 -0.006018067 0.009664167 0.032181554
00000000: daee 923b d779 babc cfdc af3c 09eb a9bc
00000010: 7257 a9ba 92c9 bd3c a19b 8e3c 1f85 babc
00000020: 2f1f d2bb 46a4 d5bc feef e1bc a9e3 00bd
00000030: 4d61 8abc badd a8bc b555 8cbc 6f97 ccbc
00000040: 4fea 573b 7e80 8c3c f270 1c3c dda7 b6bc
00000050: f845 db3c d329 693c 1ba7 e03c 5acf 14bb
00000060: 1ac8 bbbb a952 c8bb d79a a2bb 125d 813c
00000070: 1ed5 27bb 3433 c5bb 7456 1e3c ced0 033d

model.4.weight f4 [64, 32]
-0.12127924 0.03106991 0.056599677 0.14160508 -0.04904196 -0.029903674 -0.092234015 0.12231896
-0.14823106 0.06475519 0.016642919 0.05370389 0.022172369 0.033871777 -0.0844952 0.09154677
-0.02220679 0.15561208 0.08124425 0.045830354 0.14096451 0.09974174 0.12657301 -0.06732703
-0.116732955 0.09278736 -0.14477898 -0.101841226 -0.10293864 -0.06804162 0.05667141 -0.08188587
0.07479195 -0.1557718 0.05115164 0.04589811 -0.17103688 -0.004512738 -0.06525788 0.03523023
-0.080396146 -0.13354817 -0.06487273 0.07564747 0.08034675 -0.11731437 -0.0017940132 -0.03603317
0.08566972 -0.0953748 0.05828419 -0.12130731 0.1369669 -0.14961737 -0.12372491 -0.031991735
-0.00547887 -0.025872776 0.010687255 -0.05465875 -0.06519048 -0.07429221 -0.05870762 -0.06471702
-0.15865512 -0.05906927 -0.16378693 -0.14589684 0.05480481 0.0974424 -0.1643526 -0.028838277
-0.0174115 -0.058785666 -0.06658045 0.12017875 -0.06186553 -0.13975175 0.1086088 -0.06495876
-0.12806414 -0.027961742 0.051661123 0.13994345 -0.10456902 -0.10650681 0.07928057 0.022543624
-0.17694815 -0.1287837 -0.12230775 0.10277561 0.056271605 -0.039978765 -0.00051388016 -0.02501446
0.029598169 0.088299535 0.024592584 0.08223681 0.010366577 0.112020545 -0.0042204857 -0.061289303
0.1098698 -0.16347274 0.024321435 -0.17412603 -0.04497814 0.1314968 -0.045947213 0.12930405
-0.021127017 0.06014941 -0.022089172 0.16837282 0.15864159 0.026761156 0.1467676 -0.017292008
0.14184329 -0.16739652 0.16969287 0.048666753 0.150092 0.17428686 0.044175707 -0.06440467
0.063278936 -0.1164681 0.041425705 0.013235761 0.019829758 -0.11135873 0.16422486 -0.026701394
-0.11084868 0.1686926 0.09322461 -0.09244339 0.09891833 0.1175289 0.03188104 0.023680199
0.061647136 -0.06453012 0.010743897 -0.07072306 -0.020162895 -0.11130541 -0.09009052 -0.09404548
0.00035773535 -0.009934359 -0.035311904 -0.17350604 -0.17365414 0.085717544 0.1050099 0.109116755
0.04647596 0.02759265 0.093987375 0.17995779 0.02208673 -0.14392556 0.01889795 -0.16448708
0.0072252634 -0.055243943 -0.15260386 0.08072994 -0.15792891 0.052892275 -0.07493354 -0.09492429
0.17919669 0.005322894 -0.0045725093 0.10441587 -0.088299505 -0.024906857 -0.123934954 0.15743536
-0.07664757 -0.17065558 0.013548371 0.16445129 0.0962149 0.11473698 -0.14093144 0.12586394
-0.14096573 0.06732452 -0.07962276 -0.07534588 0.11178904 0.12916178 -0.034835283 -0.15614748
-0.17040128 -0.00851201 -0.1535985 -0.14237252 -0.16440418 -0.12900352 -0.16215329 0.12537645
0.0043257554 0.13399144 0.11748817 -0.067744434 -0.14075774 0.11222317 -0.11285976 -0.12250227
-0.06329458 -0.16308275 0.13268504 0.12830353 -0.14377217 0.12969305 0.16427498 0.113923885
-0.06221508 -0.13162075 -0.006980455 0.04926503 0.115515515 -0.16319047 0.10294417 0.028402291
-0.003605141 -0.03433697 0.053521793 -0.15642397 -0.030615605 -0.06281528 0.108312175 -0.019707728
0.14855571 0.038257122 0.12626898 0.07750619 0.121491514 0.14843889 -0.10580658 -0.16560991
0.05196557 0.09161083 -0.031830728 0.004736785 -0.13859776 -0.13461429 -0.15897101 0.08146614
00000000: 4061 f8bd 5386 fe3c 10d5 673d ec00 113e
00000010: 39e0 48bd 8df8 f4bc 30e5 bcbd 5d82 fa3d
00000020: e2c9 17be 5e9e 843d bb56 883c 9cf8 5b3d
00000030: d4a2 b53c 22bd 0a3d d20b adbd df7c bb3d
00000040: 04eb b5bc c658 1f3e 6363 a63d 9cb8 3b3d
00000050: 0059 103e 6645 cc3d 5b9c 013e c1e2 89bd
00000060: b011 efbd 4d07 be3d f140 14be 2292 d0bd
00000070: 7ed1 d2bd 6859 8bbd 4820 683d c7b3 a7bd
00000080: 862c 993d a582 1fbe 6284 513d a8ff 3b3d
00000090: 4b24 2fbe 97df 93bb eca5 85bd 934d 103d
000000a0: bca6 a4bd dac0 08be fedb 84bd 10ed 9a3d
000000b0: d68c a43d 8442 f0bd 1825 ebba 8497 13bd
000000c0: 9b73 af3d dd53 c3bd 67bb 6e3d f86f f8bd
000000d0: 0d41 0c3e 4c35 19be 7c63 fdbd c409 03bd
000000e0: 1888 b3bb 25f3 d3bc 9919 2f3c dae1 5fbd
000000f0: 9682 85bd 8426 98bd 6777 70bd 5b8a 84bd
00000100: 7d76 22be 9ef2 71bd c3b7 27be fb65 15be
00000110: 027b 603d e28f c73d 0c4c 28be 403e ecbc
00000120: 90a2 8ebc 3dc9 70bd 555b 88bd 4720 f63d
00000130: b666 7dbd 151b 0fbe 4a6e de3d 1909 85bd
00000140: 3f23 03be 0610 e5bc 9d9a 533d 564d 0f3e
00000150: 4828 d6bd 3e20 dabd da5d a23d 68ad b83c
00000160: e531 35be e0df 03be 7c7c fabd 057c d23d
00000170: 0e7d 663d c6c0 23bd eab5 06ba 20eb ccbc
00000180: dc77 f23c 63d6 b43d 6376 c93c c66b a83d
00000190: 93d8 293c 076b e53d 004c 8abb 7e0a 7bbd
000001a0: 6b03 e13d 6665 27be bf3d c73c 184e 32be
000001b0: 003b 38bd 19a7 063e 2533 3cbd 4868 043e
000001c0: 9112 adbc 3a5f 763d 5af4 b4bc ed69 2c3e
000001d0: f172 223e 363a db3c 3f4a 163e f8a7 8dbc
000001e0: 5e3f 113e fe69 2bbe f8c3 2d3e ca56 473d
000001f0: b8b1 193e 4178 323e 96f1 343d 98e6 83bd
00000200: 6398 813d d486 eebd 00ae 293d ceda 583c
00000210: 0472 a23c 0c10 e4bd 902a 283e e2bc dabc
00000220: a204 e3bd c1bd 2c3e 8bec be3d f652 bdbd
00000230: b295 ca3d feb2 f03d b295 023d fafc c13c
00000240: b581 7c3d 5e28 84bd 2c07 303c 40d7 90bd
00000250: a82c a5bc 17f4 e3bd 6181 b8bd eb9a c0bd
00000260: 6d8e bb39 b9c3 22bc 37a3 10bd 91ab 31be
00000270: 64d2 31be ae8c af3d 6e0f d73d 9b78 df3d
00000280: 945d 3e3d fb09 e23c 747c c03d db46 383e
00000290: 3bef b43c 3961 13be e0cf 9a3c 4d6f 28be
000002a0: e7c1 ec3b 7947 62bd 3044 1cbe bd55 a53d
000002b0: 1eb8 21be 92a5 583d c176 99bd ab67 c2bd
000002c0: 567f 373e ac6b ae3b fdd4 95bb fdd7 d53d
000002d0: 5fd6 b4bd 7709 ccbc 9cd1 fdbd bc36 213e
000002e0: 67f9 9cbd 56c0 2ebe fdf9 5d3c eb65 283e
000002f0: 510c c53d 39fb ea3d 5550 10be 7ae2 003e
00000300: 5259 10be 70e1 893d 4211 a3bd f14e 9abd
00000310: a7f1 e43d fc42 043e 71af 0ebd 20e5 1fbe
00000320: ac7d 2ebe f575 0bbc ed48 1dbe 1aca 11be
00000330: 9259 28be 8019 04be 830b 26be af62 003e
00000340: 11bf 8d3b 0d35 093e a39d f03d 98bd 8abd
00000350: cc22 10be 43d5 e53d 0523 e7bd 78e2 fabd
00000360: 97a0 81bd 2aff 26be 96de 073e 0062 033e
00000370: 0339 13be 41ce 043e b337 283e ed50 e93d
00000380: 3dd5 7ebd 97c7 06be 4dbc e4bb 21ca 493d
00000390: 6693 ec3d 671b 27be 65d4 d23d ecab e83c
000003a0: 3b44 6cbb eca4 0cbd ab39 5b3d 9b2d 20be
000003b0: 94cd fabc 4ca5 80bd c6d2 dd3d 1a72 a1bc
000003c0: fd1e 183e 80b3 1c3d a84c 013e 91bb 9e3d
000003d0: 8bd0 f83d 5d00 183e 1fb1 d8bd a595 29be
000003e0: d9d9 543d 759e bb3d f060 02bd 0837 9b3b
000003f0: 92ec 0dbe 54d8 09be 4cc9 22be b8d7 a63d

model.4.bias f4 [64]
0.045968633 0.08455246 0.0629847 0.034808904 0.031250235 -0.08906443 -0.15270318 -0.13084747
0.03699197 -0.041161984 -0.123489335 -0.089681976 -0.06808734 -0.0204893 -0.12386436 0.071394004
-0.12955418 0.059251446 -0.051252495 -0.051124815 0.06971577 0.037557635 0.1475873 0.0020689918
-0.14496781 0.10346135 0.06160621 0.01558583 -0.068880364 -0.12839365 0.0001776262 0.09053399
-0.05821791 -0.11026855 0.029117193 0.07511513 -0.13223551 -0.067660525 -0.05850858 -0.16897678
0.15057978 0.02641832 0.14253026 0.00241162 -0.07593265 -0.05687021 0.16030608 -0.11851049
-0.16878186 0.10259956 0.030170398 0.05902333 -0.15657309 0.05066157 -0.07928389 -0.06267855
-0.12732774 -0.05363616 0.13467214 -0.13022394 0.120031305 0.03857811 0.1542326 0.16817944
00000000: 9b49 3c3d d729 ad3d 1ffe 803d c893 0e3d
00000010: 3f00 003d 6967 b6bd 395e 1cbe e1fc 05be
00000020: e484 173d 7899 28bd fae7 fcbd 2fab b7bd
00000030: 6071 8bbd 2dd9 a7bc 99ac fdbd 0537 923d
00000040: daa9 04be a5b1 723d 23ee 51bd 4168 51bd
00000050: 24c7 8e3d 09d6 193d 2021 173e ec97 073b
00000060: 7172 14be 8be3 d33d cb56 7c3d b65b 7f3c
00000070: 2611 8dbd a079 03be 2c41 3a39 e269 b93d
00000080: e775 6ebd 7ad4 e1bd 2e87 ee3c f6d5 993d
00000090: bf68 07be 9a91 8abd b1a6 6fbd 4008 2dbe
000000a0: 9631 1a3e 3c6b d83c 74f3 113e 450c 1e3b
000000b0: 9482 9bbd bdf0 68bd 4727 243e a1b5 f2bd
000000c0: 27d5 2cbe b81f d23d e927 f73c 73c2 713d
000000d0: b254 20be 8282 4f3d 985f a2bd 9d5d 80bd
000000e0: 3462 02be 97b1 5bbd 7ee7 093e 6d59 05be
000000f0: f9d2 f53d 1504 1e3d 27ef 1d3e 3b37 2c3e

model.7.weight f4 [1, 64]
0.086268395 0.038201556 -0.05874617 0.11027128 -0.0023554254 0.1129218 0.0438004 -0.04051208
-0.087337516 -0.020420883 0.038320776 0.110663906 0.060270604 0.112679094 0.11147175 0.03930016
0.06656324 0.047191963 -0.023421975 0.023020191 0.057095617 0.093896136 0.095626354 0.12159532
0.07982448 0.10779936 -0.07281528 -0.01469765 0.07858298 -0.11915283 -0.06189047 0.0047808723
0.08372219 0.018211024 0.12360372 -0.12940972 0.02122665 0.048935495 -0.023575787 0.056099858
-0.086054556 0.07040237 -0.09471831 0.12576482 0.08175649 0.09113128 -0.010454988 0.02827249
-0.09117096 0.04920928 -0.09799745 0.078169465 0.055213276 0.082049474 -0.072912194 -0.010265236
-0.07609758 0.08119239 0.069339074 0.10042117 -0.046374835 0.10075469 -0.012816933 0.10038014
00000000: 7cad b03d 3c79 1c3d d39f 70bd e9d5 e13d
00000010: 7b5d 1abb 8b43 e73d 0c68 333d ffef 25bd
00000020: 03de b2bd b249 a7bc 3ff6 1c3d c2a3 e23d
00000030: 4fde 763d 4cc4 e63d 4d4b e43d 34f9 203d
00000040: 4f52 883d 5c4c 413d 71df bfbc d794 bc3c
00000050: 18dd 693d 9e4c c03d c0d7 c33d f806 f93d
00000060: 047b a33d e9c5 dc3d 2d20 95bd 6ace 70bc
00000070: 1df0 a03d 6606 f4bd dd80 7dbd dda8 9c3b
00000080: 8a76 ab3d 492f 953c f223 fd3d fb83 04be
00000090: 83e3 ad3c 9670 483d 0222 c1bc f7c8 653d
000000a0: 5f3d b0bd 1e2f 903d acfb c1bd 7ec8 003e
000000b0: f26f a73d 09a3 ba3d 664b 2bbc b59b e73c
000000c0: d7b7 babd ac8f 493d e3b2 c8bd 5017 a03d
000000d0: 5127 623d 8e09 a83d fd52 95bd 852f 28bc
000000e0: 0cd9 9bbd 3248 a63d a501 8e3d 9da9 cd3d
000000f0: 8af3 3dbd 7a58 ce3d 1dfe 51bc 1a94 cd3d

exp_avg f4 [1024]
-0.0006763229 -0.0007294999 -0.0010078619 -0.0017849815 -0.00044449192 0.0002025124 -0.0004922419 0.0010162471
-0.0008449601 -5.6198027e-05 -0.00052172947 0.00032745223 -0.00082983705 0.00016026144 -0.00037935146 7.201098e-05
-0.0003303659 9.4645555e-05 -0.0014105771 -0.00012389907 -0.00040549575 -0.0006009052 -0.0012475266 0.0006161009
0.00032926517 0.00044391505 -0.00059236446 0.00022221552 -0.0016955852 -7.1368486e-05 0.000112592534 -0.0005819791
-0.0018307489 -0.00046949 0.0005617358 -0.0012074636 -0.0023107575 0.0015547841 -0.00036428156 -0.00048822473
0.00022836242 -0.001394809 -0.0010778585 1.0327203e-06 -0.00054972566 -0.0005810281 0.00075357826 0.0003498884
-0.00069320353 0.0002077561 7.8102166e-05 -0.00036730195 -5.84484e-05 0.0002530118 0.00019137391 -0.00020544225
-0.0008599132 -0.00035114808 -0.00078394025 -6.5706394e-05 -0.0029378105 0.0015211193 -0.00024252414 0.0003122346
0.000795067 -0.0012200556 -0.00045985985 -0.0010202422 -0.001139412 0.00095763314 -0.00028579915 -0.0010799352
0.00091621996 0.00032437648 -7.59097e-06 -0.0011111541 -0.00039980345 0.00031299182 0.00069392356 0.00070056785
4.997917e-05 0.00042440338 0.0009837579 -8.1137376e-05 -0.0014742811 -0.00062988355 0.0006402397 -0.00082871196
-0.002593462 -0.0001874956 -0.0013717492 -0.001338895 0.0009896908 0.00018882888 -0.0013079084 0.00030864304
0.00097383035 -0.00035171874 -0.0012047833 -0.0012002975 -0.0008905671 -0.00056125445 -0.00071916723 -0.00017679478
-0.0001607932 0.0015075281 0.0003300996 0.00010611314 9.942494e-05 0.0017763362 -0.0007948823 -0.00024119971
0.0004076315 -9.9490615e-05 0.0011295318 0.00025666965 -0.0004321244 0.00056976604 0.00046377204 -0.00019545793
-0.00056814135 0.00021777133 6.169068e-05 7.683467e-05 0.0003093514 -0.002150047 -0.0010232625 -0.00025146874
-0.0007519248 -0.00063204125 -0.0008279282 -0.0006957817 -0.0016045134 0.0003752262 -0.00035629905 -0.00061159243
-7.8287354e-05 0.0002606412 -0.0013717294 0.00091942993 -0.0006795897 0.00015591309 -0.00084993173 -0.00036595395
0.0014748991 -0.00026386575 -0.00018196719 0.00012725238 0.00033114883 -0.0016671414 -0.00065609394 1.4743317e-05
-6.082862e-05 0.0014015671 -0.0005432574 0.0010116709 -0.0008376378 -0.00046762245 -0.00031942065 0.00089685933
0.00095844985 -0.00035464895 -0.00068989076 0.00043374172 -0.0019314194 0.00062176137 0.00044134783 0.00025641953
0.001195412 -0.0022641302 -0.00046588964 1.9167543e-05 8.151325e-05 9.2253926e-05 -0.0012537591 -3.5147725e-05
-0.000119693796 -0.0006003928 -0.0006091169 -0.0001192948 0.0010306286 -0.00016411007 -0.0006444407 0.00021955319
-0.0010687859 -5.701356e-05 -3.4407567e-06 0.00039597042 -0.0002430706 -0.0006039115 -0.00011186625 -0.00027499188
-0.0005308652 -0.0004814025 0.00073561125 0.00012993623 -0.00042725855 -0.00091721356 0.00044759567 -0.00042268398
-0.0003731126 -0.0011171537 -0.0019677568 0.0012858557 0.00010082871 2.5974266e-05 -0.0016614674 0.00048036268
0.00032807002 0.0007187648 0.0011400434 0.00045693797 -0.00019901563 0.00021905889 -0.00010387669 -0.0017221789
-5.5667086e-05 0.00022901231 -0.001450388 0.0001611413 0.00043720152 -0.00015999992 0.0014448065 0.000815186
0.00024185797 -0.0009028438 0.00076568173 0.0007098381 -0.0023746004 -0.00077235326 -0.0011244674 0.00011455333
0.0004473175 -0.00015258495 -0.0002590086 -0.0014464442 -0.00082890067 0.0012188179 -0.0015061507 -0.001896064
3.7876234e-06 -0.0004678446 -0.000579287 -0.0012058524 -0.00013454953 -0.00025775144 -0.0014727085 -0.0013081417
-0.0012174096 0.0002431941 0.00019382541 -0.00085792865 0.0005925719 0.00031330038 -0.0009625142 -0.000454997
00000000: 434b 31ba e93b 3fba 3c1a 84ba 0af6 e9ba
00000010: b20a e9b9 8259 5439 cb09 01ba 9833 853a
00000020: 5080 5dba 2cb6 6bb8 acc4 08ba e5ad ab39
00000030: 6c89 59ba da0b 2839 b1e3 c6b9 9a04 9738
00000040: f634 adb9 727c c638 1de3 b8ba e7ea 01b9
00000050: b898 d4b9 1186 1dba 0c84 a3ba d581 213a
00000060: 39a1 ac39 45bd e839 e848 1bba 8602 6939
00000070: 663e deba aaab 95b8 a81f ec38 f58f 18ba
00000080: bdf5 efba e225 f6b9 7441 133a c143 9eba
00000090: 1470 17bb e6c9 cb3a 0bfd beb9 6af8 ffb9
000000a0: 9274 6f39 06d2 b6ba ee46 8dba 009c 8a35
000000b0: 771b 10ba 2350 18ba c88b 453a 3a71 b739
000000c0: 1ab8 35ba 1ad9 5939 c8ca a338 6f92 c0b9
000000d0: 7e26 75b8 aba6 8439 8bab 4839 fc6b 57b9
000000e0: cc6b 61ba 4c1a b8b9 5781 4dba dacb 89b8
000000f0: 4888 40bb 4b60 c73a 144e 7eb9 6bb3 a339
00000100: 0b6c 503a 46ea 9fba 5819 f1b9 a6b9 85ba
00000110: 5358 95ba ac09 7b3a 50d7 95b9 9d8c 8dba
00000120: 7b2e 703a 1311 aa39 f0b5 feb6 25a4 91ba
00000130: b69c d1b9 0d19 a439 6ce8 353a 50a6 373a
00000140: baa0 5138 7582 de39 70f1 803a 4c28 aab8
00000150: aa3c c1ba c51e 25ba c2d5 273a eb3d 59ba
00000160: 12f7 29bb 789a 44b9 44cc b3ba dc7d afba
00000170: 83b8 813a 5e00 4639 206e abba 5ed1 a139
00000180: a648 7f3a e466 b8b9 d2e9 9dba 4d53 9dba
00000190: f274 69ba 2621 13ba 7f86 3cba fd61 39b9
000001a0: 999a 28b9 4098 c53a 3811 ad39 0f89 de38
000001b0: 5c82 d038 f4d3 e83a a65f 50ba 8eea 7cb9
000001c0: 60b7 d539 9ea5 d0b8 cc0c 943a 9e91 8639
000001d0: c18e e2b9 5a5c 153a 6e26 f339 d7f3 4cb9
000001e0: 52ef 14ba 8c59 6439 ee5f 8138 4d22 a138
000001f0: 7130 a239 cee7 0cbb fe1e 86ba 90d7 83b9
00000200: d21c 45ba 92af 25ba 5209 59ba 1f65 36ba
00000210: 894e d2ba 02ba c439 a6cd bab9 4653 20ba
00000220: 342e a4b8 aba6 8839 9acb b3ba e605 713a
00000230: 7e26 32ba 9a7c 2339 f4cd 5eba 82dd bfb9
00000240: 6751 c13a 7657 8ab9 72ce 3eb9 0d6f 0539
00000250: 0b9e ad39 fc83 daba b8fd 2bba 105a 7737
00000260: 3c22 7fb8 cab4 b73a 6369 0eba 0b9a 843a
00000270: ec94 5bba 392b f5b9 ea77 a7b9 361b 6b3a
00000280: 7b40 7b3a 2df0 b9b9 c9d9 34ba d467 e339
00000290: ae27 fdba b3fd 223a b464 e739 0c70 8639
000002a0: 5faf 9c3a cd61 14bb a642 f4b9 fcc9 a037
000002b0: 18f2 aa38 7378 c138 2d55 a4ba 956b 13b8
000002c0: 1e04 fbb8 ae63 1dba 25ad 1fba e82d fab8
000002d0: 2816 873a f614 2cb9 afef 28ba dc37 6639
000002e0: 8116 8cba d821 6fb8 c0e7 66b6 409a cf39
000002f0: c4e0 7eb9 d14f 1eba bc99 eab8 c92c 90b9
00000300: c329 0bba c064 fcb9 09d6 403a 7e3f 0839
00000310: ac01 e0b9 2971 70ba 46ab ea39 af9b ddb9
00000320: 539e c3b9 756d 92ba 7bf5 00bb 288a a83a
00000330: 0074 d338 50e3 d937 98c5 d9ba 30d9 fb39
00000340: d000 ac39 7d6b 3c3a 826d 953a 2d91 ef39
00000350: daae 50b9 2cb3 6539 60d8 d9b8 bcba e1ba
00000360: 147c 69b8 0623 7039 f21a beba 0af8 2839
00000370: 3238 e539 a7c5 27b9 a95f bd3a 35b2 553a
00000380: 419b 7d39 d2ac 6cba 08b8 483a 6e14 3a3a
00000390: 2f9f 1bbb c077 4aba dd62 93ba 5a3c f038
000003a0: f085 ea39 36ff 1fb9 8ccb 87b9 9d96 bdba
000003b0: 954a 59ba bec0 9f3a 086a c5ba 5a85 f8ba
000003c0: e02e 7e36 0a49 f5b9 4bdb 17ba b10d 9eba
000003d0: dd15 0db9 d022 87b9 e607 c1ba f475 abba
000003e0: 7d91 9fba eb01 7f39 9d3d 4b39 9ee6 60ba
000003f0: d456 1b3a 7742 a439 3c51 7cba aa8c eeb9
