lightning_logs/version_8/checkpoints/epoch=199-step=1600.ckpt (torch, 464377 bytes, 23 tensors)

model.0.weight f4 [1024]
1.0000161 1.0051858 0.9984201 0.9973761 1.0009053 0.99943763 0.9960864 0.9993303
1.0006226 1.0020415 0.9998326 1.003889 1.0033762 1.0012124 1.0014399 1.0022091
0.9994656 1.001445 0.9984539 0.99894756 1.0005047 1.0048081 1.0005002 0.9975766
1.0008657 1.0018151 0.99741334 1.0033885 1.0018452 0.9988683 1.001737 0.9972907
1.0032748 1.0044909 1.0027782 0.9999337 1.0041115 1.0034405 1.0021107 0.9994796
0.99887013 1.0051175 1.0034399 1.0031278 1.0012372 1.0002236 1.001602 1.0013133
0.99796355 1.0006684 0.9965944 0.9992933 1.0017722 1.0001361 0.99702436 0.9990955
0.99876183 0.99837273 0.9985707 1.0005594 0.99791205 1.0006224 1.0001107 1.0018456
0.9994287 1.0019256 0.9989819 1.001989 1.0031221 0.99852556 0.99915814 1.0012764
1.0000437 1.0038115 0.9985266 1.0014641 0.99976206 0.99969554 0.9991698 1.0010742
1.0059941 1.0006838 0.99706435 0.9998401 1.0020556 1.003582 1.0000284 0.99977875
1.0012921 0.9965921 1.0000213 1.0008386 1.0006615 0.9998363 0.9985973 1.0012164
1.0019737 1.0021737 0.9969066 0.99744976 1.0010053 0.999617 0.9990484 0.99971145
1.0041124 1.0019536 1.0011286 0.99785435 1.000546 0.9963592 0.99849236 1.0001494
1.0006925 0.99995273 1.0006598 0.9994067 1.0026515 1.0013465 0.99980485 1.0017872
0.999477 1.0026009 1.0032694 1.0014274 1.0077571 1.0032554 1.0014602 0.9994594
0.997517 1.0000098 1.0009948 1.0044636 1.0022861 0.99897546 0.9980583 1.0007831
1.0016655 1.000154 1.0013978 1.0001546 1.0009909 1.0000615 1.0005802 0.9998375
0.9982244 1.004826 1.0001402 0.99969393 0.9996984 1.0004041 1.0005956 0.99951154
1.0013461 1.0009845 0.99723685 1.002818 0.99652135 1.0011445 0.99779844 1.0037813
1.0027416 1.0020236 1.0026207 1.0009416 1.0016805 0.99650246 0.9984217 1.0010874
1.0001457 1.0041625 1.0016912 1.0000621 1.0006204 0.9995169 0.9996712 0.9964577
1.0009285 0.9985861 0.9990618 1.0006716 1.0018778 0.9976981 1.0002952 1.0008119
1.0049499 1.001425 1.001415 0.9971832 0.9998929 1.0085479 1.0019733 0.9990779
0.99582535 1.0032018 0.99891406 1.0015764 1.0005739 0.9979888 1.0017813 1.0007372
0.99840003 0.99972004 1.0046905 1.000137 1.0000423 1.0011638 1.0018911 0.9991168
1.002354 1.0011188 1.0030832 0.99941236 1.0006208 1.0045877 1.0006304 1.0023658
1.0014433 1.0000606 0.99856675 0.9999337 0.9996785 0.998453 0.9977663 0.9974286
1.0043494 1.0011721 1.0018017 1.0005032 1.0051401 0.9992334 1.0024141 0.9999516
1.0000573 0.99812067 1.0017283 1.0001706 0.9993753 1.0044916 1.0101413 1.0020084
1.0030491 1.0028393 1.0015378 0.99927855 1.0023363 0.99830604 0.99849665 0.99994504
0.9978868 1.0028056 0.99837667 1.0037795 0.9989971 1.0025505 1.0038533 1.0028895
00000000: 8700 803f eea9 803f 7698 7f3f 0a54 7f3f
00000010: aa1d 803f 25db 7f3f 85ff 7e3f 1cd4 7f3f
00000020: 6714 803f e542 803f 07f5 7f3f 6f7f 803f
00000030: a26e 803f ba27 803f 2f2f 803f 6348 803f
00000040: fadc 7f3f 5a2f 803f ad9a 7f3f 07bb 7f3f
00000050: 8a10 803f 8d9d 803f 6410 803f 2e61 7f3f
00000060: 5e1c 803f 7a3b 803f 7b56 7f3f 096f 803f
00000070: 773c 803f d5b5 7f3f eb38 803f 714e 7f3f
00000080: 4f6b 803f 2893 803f 095b 803f a8fb 7f3f
00000090: ba86 803f bd70 803f 2a45 803f e5dd 7f3f
000000a0: f4b5 7f3f b1a7 803f b870 803f 7e66 803f
000000b0: 8a28 803f 5407 803f 7f34 803f 092b 803f
000000c0: 8a7a 7f3f e715 803f d020 7f3f b0d1 7f3f
000000d0: 123a 803f 7604 803f fd3c 7f3f b9c4 7f3f
000000e0: dbae 7f3f 5b95 7f3f 54a2 7f3f 5512 803f
000000f0: 2a77 7f3f 6514 803f a103 803f 7a3c 803f
00000100: 8fda 7f3f 193f 803f 47bd 7f3f 2d41 803f
00000110: 4e66 803f 5f9f 7f3f d4c8 7f3f d329 803f
00000120: 6f01 803f e57c 803f 709f 7f3f fa2f 803f
00000130: 68f0 7f3f 0cec 7f3f 98c9 7f3f 3323 803f
00000140: 6ac4 803f 6816 803f 9c3f 7f3f 85f5 7f3f
00000150: 5c43 803f 6075 803f ee00 803f 80f1 7f3f
00000160: 572a 803f a920 7f3f b300 803f 7b1b 803f
00000170: ad15 803f 46f5 7f3f 13a4 7f3f dc27 803f
00000180: ad40 803f 3a47 803f 4535 7f3f de58 7f3f
00000190: f120 803f e6e6 7f3f a3c1 7f3f 17ed 7f3f
000001a0: c186 803f 0440 803f fb24 803f 6273 7f3f
000001b0: e411 803f 6611 7f3f 329d 7f3f e504 803f
000001c0: b116 803f e7fc 7f3f 9f15 803f 1ed9 7f3f
000001d0: e256 803f 1f2c 803f 36f3 7f3f 903a 803f
000001e0: badd 7f3f 3a55 803f 226b 803f c62e 803f
000001f0: 2ffe 803f ac6a 803f d92f 803f 92dc 7f3f
00000200: 465d 7f3f 5200 803f 9920 803f 4392 803f
00000210: e94a 803f dbbc 7f3f c080 7f3f a919 803f
00000220: 9336 803f 0c05 803f ce2d 803f 1105 803f
00000230: 7820 803f 0402 803f 0313 803f 5af5 7f3f
00000240: a28b 7f3f 239e 803f 9804 803f f1eb 7f3f
00000250: 3cec 7f3f 3e0d 803f 8413 803f fddf 7f3f
00000260: 1c2c 803f 4320 803f ea4a 7f3f 575c 803f
00000270: 061c 7f3f 8125 803f b86f 7f3f e87b 803f
00000280: d659 803f 4f42 803f e055 803f db1e 803f
00000290: 1137 803f c91a 7f3f 9198 7f3f a223 803f
000002a0: c604 803f 6688 803f 6b37 803f 0902 803f
000002b0: 5414 803f 57e0 7f3f 74ea 7f3f da17 7f3f
000002c0: 6d1e 803f 57a3 7f3f 84c2 7f3f 0216 803f
000002d0: 883d 803f 2569 7f3f ac09 803f 9b1a 803f
000002e0: 33a2 803f b22e 803f 5e2e 803f 6647 7f3f
000002f0: fbf8 7f3f 1918 813f a940 803f 92c3 7f3f
00000300: 69ee 7e3f eb68 803f d5b8 7f3f a833 803f
00000310: ce12 803f 327c 7f3f 5f3a 803f 2818 803f
00000320: 2597 7f3f a7ed 7f3f b399 803f 7d04 803f
00000330: 6301 803f 2326 803f f83d 803f 1ec6 7f3f
00000340: 234d 803f a924 803f 0865 803f 7dd9 7f3f
00000350: 5814 803f 5496 803f a814 803f 864d 803f
00000360: 4b2f 803f fc01 803f 12a2 7f3f a8fb 7f3f
00000370: eeea 7f3f 9e9a 7f3f 9d6d 7f3f 7b57 7f3f
00000380: 858e 803f 6826 803f 0a3b 803f 7d10 803f
00000390: 6ea8 803f c3cd 7f3f 1b4f 803f d4fc 7f3f
000003a0: e101 803f d684 7f3f a238 803f 9705 803f
000003b0: 0fd7 7f3f 2e93 803f 4f4c 813f d041 803f
000003c0: ea63 803f 0a5d 803f 6432 803f b8d0 7f3f
000003d0: 8e4c 803f fc90 7f3f 7a9d 7f3f 66fc 7f3f
000003e0: 8275 7f3f ef5b 803f 9d95 7f3f d97b 803f
000003f0: 46be 7f3f 9353 803f 447e 803f af5e 803f

model.0.bias f4 [1024]
0.0011167189 0.0018235198 0.0022863164 -0.0013954329 -0.0048883134 -0.0008877527 -0.0040123686 0.0036385884
0.0021195784 0.0002250004 0.003925192 -0.0026384292 -0.00092759146 -0.003924534 -0.0027322532 0.00030669785
-0.002211948 -0.004307587 0.000147028 0.0007764048 0.0027449671 -0.00025244526 0.0016469333 0.00026573098
0.0017060103 -0.002780455 0.0010008011 0.0018058565 -0.000100720456 -0.0036262516 0.0022507962 0.000115868555
0.0029456934 -0.0027287253 0.00028767894 0.0038355049 -0.0037377146 0.0028399609 -0.00076302286 -0.0030207653
-0.0030969596 -0.0023633456 -0.0023094863 -0.0010440472 0.0028905228 0.0009710305 -0.0039247475 -0.0033656424
0.0005297358 -0.0014016628 -0.00075947924 0.0029831184 -0.0015998385 -0.0008533065 0.0013459661 -0.0012125822
0.00090702024 0.00025210672 -0.00041842714 0.0018516151 0.0020264876 0.0026124963 -0.001203028 0.001690271
-0.001093294 0.00075092295 0.00047814383 -0.00058901444 -0.0034607206 0.0013097173 0.0043801335 -0.003232615
-0.00085899996 -0.0019330098 0.0040343353 -0.00030004478 0.0010811341 -0.002907995 0.0012733962 -0.0006366363
0.0048532835 0.0040687355 0.003704483 -0.0009386694 -0.0023259837 0.002419785 0.0005380899 0.0020728412
-0.0011133495 -0.0039200666 0.0049566864 -0.002584702 0.0012964451 -0.0018084717 0.0031292334 0.0031553914
0.0035747862 0.0017551816 -0.0022875075 -0.00014144603 0.0013405283 -0.0030229415 0.0016436299 0.00017553888
-0.0010014531 0.0006943648 -0.0006808423 0.00010194558 -0.0011300315 -0.0008208342 0.0025368615 -0.0002213253
-0.00086154277 0.0036097236 0.0023662501 -0.0016774978 -0.0020604136 0.0054647014 -0.0049132346 0.000771709
-0.0017430476 -0.00095334556 -0.0015699985 -0.00021553085 -0.0035191583 -0.0007555285 0.0008447431 -0.0037501263
-0.0034104607 0.0016017201 -0.0013027276 0.001253899 -0.0017192067 0.00187792 0.0035761727 0.001671925
0.0009402254 -0.00073888607 -0.0048768925 0.0020883745 -0.0018588696 -0.0009933922 -0.002078008 0.0045347475
0.0043888823 0.0042460146 0.0045186146 -0.004187452 0.0012166899 -0.0024567973 -0.0046004374 -0.002699564
-0.0011881901 -0.0030838987 0.00089774205 -0.0005927341 -0.0016013853 0.0025603995 -0.0039120913 0.0018105076
-0.0009736446 0.0058783414 0.002154962 0.0043479856 0.0044050794 -0.0037975332 0.0022991751 4.8107853e-05
-0.0027375566 0.000669454 -0.0033585415 0.0023703435 -0.0005436181 0.0008157031 -9.87631e-06 -0.005433132
-0.0023676367 0.001199765 0.0010101211 -0.0012520034 -0.002392934 0.0020297274 -0.00018030687 0.003021314
-0.0012271156 0.0015382143 -0.00031160162 0.004716734 0.0027209718 0.0045397133 0.00082198315 0.0037461382
0.0037185904 -9.805621e-05 0.00073420943 0.0014138044 -0.0016522116 0.0014466938 -0.0026681249 0.0029433928
0.0014355362 0.0034433503 -0.00080338254 0.00092249404 0.0019083866 0.0033026163 0.0015395872 0.0018701438
-0.0021613198 0.00029039368 -0.0001441197 -0.0017029847 -0.0017583977 0.004053061 0.001897493 -0.0038608066
0.00011464106 -0.0009146483 0.0034624715 0.0013931138 0.0016660666 0.00011820634 -0.0022860232 0.001322282
-0.0044818367 0.0025447812 0.0016973338 -0.0014554294 -0.0030334448 -0.0018087429 -0.0009580276 0.0007178089
0.004149618 -0.00267583 0.0016196328 0.0018318453 0.0014544146 -0.00087440806 0.00016673231 -0.0011030964
0.001229281 -0.001863945 -0.0020981196 0.00044996824 -0.0002208444 0.00065838353 0.00010359664 -0.00064830336
0.0042133504 0.0023253197 -0.0022641495 -0.00086406065 -0.0053208927 0.0037657733 0.0029569746 -0.0031255411
00000000: de5e 923a 2c03 ef3a 06d6 153b f5e6 b6ba
00000010: 252e a0bb 13b8 68ba 307a 83bb 6275 6e3b
00000020: a0e8 0a3b 16ee 6b39 e69e 803b 7fe9 2cbb
00000030: 9c29 73ba 6199 80bb 9a0f 33bb 4acc a039
00000040: 54f6 10bb a926 8dbb 872b 1a39 a587 4b3a
00000050: e8e4 333b a15a 84b9 e9dd d73a cf51 8b39
00000060: 359c df3a 4b38 36bb 502d 833a 7db2 ec3a
00000070: e239 d3b8 68a6 6dbb 1882 133b 75fe f238
00000080: 890c 413b 6ad4 32bb 9dd3 9639 185d 7b3b
00000090: 72f4 74bb a31e 3a3b 9905 48ba 08f8 45bb
000000a0: 5cf6 4abb 5ce2 1abb c05a 17bb 69d8 88ba
000000b0: ed6e 3d3b c18c 7e3a 2b9b 80bb 1c92 5cbb
000000c0: f8dd 0a3a 00b8 b7ba ca17 47ba 6c80 433b
000000d0: acb1 d1ba 6eb0 5fba 216b b03a 82ef 9eba
000000e0: 19c5 6d3a 312d 8439 5760 dbb9 e5b1 f23a
000000f0: d2ce 043b 6a36 2b3b ecae 9dba 158c dd3a
00000100: dc4c 8fba 96d9 443a 61af fa39 1768 1aba
00000110: 42cd 62bb d2aa ab3a 3987 8f3b 48da 53bb
00000120: 832e 61ba 0c5d fdba 7532 843b 544f 9db9
00000130: d7b4 8d3a 0f94 3ebb 16e8 a63a f0e3 26ba
00000140: 4b08 9f3b 0753 853b e9c6 723b 0911 76ba
00000150: 886f 18bb 4195 1e3b 9a0e 0d3a 81d8 073b
00000160: cfed 91ba e773 80bb b36b a23b 1b64 29bb
00000170: 7bed a93a 3e0a edba d313 4d3b afca 4e3b
00000180: f646 6a3b 1f0e e63a 02ea 15bb 2151 14b9
00000190: aab4 af3a 8b1c 46bb 116f d73a dc10 3839
000001a0: 3143 83ba 0806 363a 8e7a 32ba 9ecb d538
000001b0: 911d 94ba 402d 57ba 7941 263b 8f13 68b9
000001c0: 28d9 61ba 1d91 6c3b 1713 1b3b 7cdf dbba
000001d0: 0108 07bb 3d11 b33b 33ff a0bb 844c 4a3a
000001e0: f976 e4ba f0e9 79ba 68c8 cdba 1f00 62b9
000001f0: aea1 66bb a90e 46ba c071 5d3a aec4 75bb
00000200: 0982 5fbb cff0 d13a 49c0 aaba de59 a43a
00000210: 0157 e1ba 8a24 f63a 395e 6a3b 7e24 db3a
00000220: 7579 763a ceb1 41ba 57ce 9fbb 1cdd 083b
00000230: 50a5 f3ba b634 82ba 302f 08bb 3898 943b
00000240: 9dd0 8f3b 2722 8b3b e310 943b e536 89bb
00000250: 5779 9f3a 3802 21bb 44bf 96bb 2beb 30bb
00000260: 0bbd 9bba 3c1b 4abb 7356 6b3a b661 1bba
00000270: 93e5 d1ba 60cc 273b 0031 80bb 8e4e ed3a
00000280: 2f3c 7fba 1a9f c03b 433a 0d3b 8c79 8e3b
00000290: 7c58 903b 09e0 78bb c2ad 163b 6ac7 4938
000002a0: 9468 33bb 4c7e 2f3a fa1a 5cbb c457 1b3b
000002b0: 9881 0eba e9d4 553a 6eb2 25b7 6a08 b2bb
000002c0: 5a2a 1bbb 6f41 9d3a 0a66 843a 431a a4ba
000002d0: c5d2 1cbb 2d05 053b c210 3db9 3d01 463b
000002e0: 2bd7 a0ba e89d c93a 765e a3b9 d58e 9a3b
000002f0: 5552 323b e0c1 943b 5b7a 573a c581 753b
00000300: 98b3 733b 87a3 cdb8 f677 403a 674f b93a
00000310: 068f d8ba fd9e bd3a b5db 2ebb f0e5 403b
00000320: 9a28 bc3a d5a9 613b 179a 52ba 87d3 713a
00000330: d422 fa3a b570 583b f9cb c93a 9d1f f53a
00000340: eea4 0dbb fb3f 9839 d61e 17b9 af36 dfba
00000350: 097a e6ba 8acf 843b 4db5 f83a 9605 7dbb
00000360: 736b f038 02c5 6fba a2ea 623b 2499 b63a
00000370: eb5f da3a 8ce5 f738 1bd1 15bb 6c50 ad3a
00000380: 5fdc 92bb 58c6 263b 1279 de3a 1bc4 beba
00000390: c2cc 46bb 5713 edba 2524 7bba 572b 3c3a
000003a0: 85f9 873b fa5c 2fbb dc49 d43a 871a f03a
000003b0: 0ea2 be3a 8838 65ba ddd4 2e39 c695 90ba
000003c0: d31f a13a 9e4f f4ba 9b80 09bb b7e9 eb39
000003d0: 7892 67b9 5f97 2c3a 0642 d938 e7f2 29ba
000003e0: 2510 8a3b 6464 183b 2062 14bb 2182 62ba
000003f0: e25a aebb 31cb 763b cdc9 413b e1d5 4cbb

model.0.running_mean f4 [1024]
-0.05743602 -0.017045654 0.0068471082 -0.026533935 0.00345866 -0.013694109 0.038594984 -0.005222127
-0.0053725573 0.032764766 -0.0120589025 0.0053618983 -0.0038418835 -0.013477902 0.0049821283 0.010589865
-0.03585483 -0.024168901 6.206848e-05 0.007960818 0.015790235 -0.0016151905 0.01958308 0.071804106
0.019206759 0.029066777 -0.02513583 0.011433385 -0.005759815 -0.01179238 0.025414571 -0.015472022
-0.007764126 0.009264596 -0.0027504072 0.015128904 -0.009834859 0.006705578 -0.028438618 -0.0060980744
0.011082568 0.025634432 -0.00051736366 -0.04556194 -0.024612287 0.0040742313 -0.00019350211 -0.024823258
-0.01158407 0.082930796 -0.025829636 -0.016958987 -0.020490376 0.008811357 0.009975403 -0.008964465
0.032539185 0.009268101 -0.0058864984 -0.011582986 0.010023251 -0.02118831 -0.011665851 0.022569489
0.0010900565 -0.014685793 0.0055469666 0.0069241947 0.0020434584 0.005574072 0.03851192 0.011977205
-0.0162795 0.042467233 0.02991491 -0.012026487 0.025380678 -0.01675694 0.016984748 -0.017966771
-0.0078718215 0.027357284 -0.052335918 0.021486858 -0.018174484 -0.040751643 0.02368311 -0.018942494
0.011797973 0.021852955 -0.022427512 -0.0055306447 -0.011272273 0.012776126 0.01239324 0.019323526
0.008216383 0.057941873 -0.008721667 0.02258795 0.013431847 0.025826612 -0.0024161201 0.012460445
0.074685894 0.016877318 0.0024084188 -0.022939043 -0.030594695 0.05018072 -0.011368781 0.0023097862
0.0655919 -0.0040677167 -0.005447688 0.018074583 -0.0016022674 -0.0066703423 0.0006368007 -0.0051287524
-0.021453954 -0.0087198755 -0.016028794 -0.012085618 -0.048739616 -0.023066241 -0.010342644 -0.020528702
0.019941932 -0.019034516 -0.06355409 -0.014185455 0.016913436 -0.0028818604 -0.0013214082 -0.027977666
0.043806348 0.02275021 -0.0028580325 -0.022464952 0.0022600456 -0.041493453 -0.010845873 -0.005321901
-0.0026178528 -0.010290199 0.045384362 -0.022801712 -0.03384061 0.0011035351 -0.0070810737 6.0600498e-05
0.0064971503 -0.00023100313 0.018091012 0.026567562 0.027445508 -0.008029097 -0.004592024 0.007161049
0.0013799642 0.028068949 0.016455539 0.0035263037 -0.0047512716 -0.0044208574 -0.055050045 -0.0063129636
-0.037800394 0.026728183 0.02900172 0.029903516 0.02561039 -0.007162404 0.022467833 0.01089463
-0.011283566 -0.012546879 -0.017993111 -0.0017408252 -0.03157863 -0.016959492 -0.00646046 0.011768263
-0.010676832 0.024911698 0.04586947 -0.015062879 -0.015564177 -0.03281425 0.037995595 0.01295637
0.014562566 0.031787045 0.011218842 0.011654994 -0.009924927 -0.003978946 0.019786226 0.032882202
0.0060806717 -0.012087277 0.0014184457 -0.025861809 -0.023977187 0.008845946 -0.011919028 -0.013914045
0.017251164 -0.009120958 -0.0333473 -0.0218888 0.01432784 0.024776917 0.006164673 -0.015050477
0.011534699 0.027028112 -0.007902708 -0.0064175357 0.010301922 -0.019482315 -0.0479835 -0.020829277
0.021365102 0.01296715 0.0034846447 -0.020187434 0.002927095 -0.021274138 -0.009519855 -0.03181572
-0.004391875 -0.029609326 -0.011688893 -0.01641179 -0.029770732 0.035111986 0.020690937 -0.017099116
0.032551724 -0.00038074987 -0.006656916 0.025180344 -0.022749905 -0.00020896905 0.01062552 0.022370772
0.000103325874 0.026786223 -0.016873304 0.023926983 0.018738542 0.0022168616 0.014979919 0.022807809
00000000: 0842 6bbd 54a3 8bbc b55d e03b b25d d9bc
00000010: b0aa 623b 425d 60bc c615 1e3d 601e abbb
00000020: 470c b0bb 5934 063d b492 45bc ddb2 af3b
00000030: 1cc8 7bbb 6bd2 5cbc 1f41 a33b 1d81 2d3c
00000040: 84dc 12bd dcfd c5bc c32a 8238 176e 023c
00000050: 865a 813c cdb4 d3ba b26c a03c 080e 933d
00000060: 7e57 9d3c 731d ee3c a8e9 cdbc 1853 3b3c
00000070: d5bc bcbb d434 41bc 3832 d03c 5d7e 7dbc
00000080: 366a febb 88ca 173c 2d40 34bb 39df 773c
00000090: 6322 21bc 77ba db3b 1bf8 e8bc 5bd2 c7bb
000000a0: a993 353c 4dff d13c b09f 07ba 289f 3abd
000000b0: b59f c9bc 2181 853b d4e6 4ab9 255a cbbc
000000c0: 1ccb 3dbc 9fd7 a93d ac98 d3bc 93ed 8abc
000000d0: 6fdb a7bc 835d 103c df6f 233c b1df 12bc
000000e0: cf47 053d 3cd9 173c 87e3 c0bb 91c6 3dbc
000000f0: 9038 243c 1b93 adbc 2022 3fbc a6e3 b83c
00000100: 3ae0 8e3a ae9c 70bc 54c3 b53b 5be4 e23b
00000110: 8beb 053b b4a6 b63b adbe 1d3d 0a3c 443c
00000120: 965c 85bc 1ff2 2d3d 1d10 f53c be0a 45bc
00000130: 24eb cf3c da45 89bc 9923 8b3c 0d2f 93bc
00000140: d0f8 00bc 621c e03c 305e 56bd 3505 b03c
00000150: a8e2 94bc 32eb 26bd 1503 c23c 4a2d 9bbc
00000160: 494c 413c f804 b33c e7b9 b7bc 693a b5bb
00000170: 57af 38bc f552 513c 040d 4b3c 5f4c 9e3c
00000180: 029e 063c 7554 6d3d 53e5 0ebc 5d0a b93c
00000190: 4011 5c3c 5592 d33c c557 1ebb e526 4c3c
000001a0: ebf4 983d 4d42 8a3c 90d6 1d3b a9ea bbbc
000001b0: baa1 fabc 4c8a 4d3d 2044 3abc c85f 173b
000001c0: 0c55 863d 7b4a 85bb 8582 b2bb 2611 943c
000001d0: 2c03 d2ba e392 dabb f9ee 263a 180f a8bb
000001e0: 34c0 afbc cfdd 0ebc d14e 83bc c202 46bc
000001f0: 31a3 47bd 6af5 bcbc 3174 29bc cf2b a8bc
00000200: 435d a33c 46ee 9bbc a628 82bd 1c6a 68bc
00000210: 0c8e 8a3c 98dd 3cbb 1a33 adba 6b31 e5bc
00000220: 496e 333d a65e ba3c d44d 3bbb 6b08 b8bc
00000230: 461d 143b 0af5 29bd e3b2 31bc 5763 aebb
00000240: 4890 2bbb 3998 28bc f4e4 393d a8ca babc
00000250: 749c 0abd 7ea4 903a 5a08 e8bb 4a2d 7e38
00000260: 0ce6 d43b 6e39 72b9 9a33 943c 37a4 d93c
00000270: 67d5 e03c 798c 03bc b078 96bb 3ca7 ea3b
00000280: eadf b43a daf0 e53c c4cd 863c 8f19 673b
00000290: 8eb0 9bbb d7dc 90bb 287c 61bd fadc cebb
000002a0: 96d4 1abd 10f5 da3c 0495 ed3c 38f8 f43c
000002b0: e1cc d13c 99b2 eabb 760e b83c 647f 323c
000002c0: b5de 38bc 6d91 4dbc 4a66 93bc 672c e4ba
000002d0: 9858 01bd a2ee 8abc 44b2 d3bb accf 403c
000002e0: e1ed 2ebc 9e13 cc3c a0e1 3b3d 4bca 76bc
000002f0: e400 7fbc 3c68 06bd 45a1 1b3d f446 543c
00000300: d497 6e3c 2233 023d 3ccf 373c 97f4 3e3c
00000310: 299c 22bc d161 82bb b916 a23c 7daf 063d
00000320: 5f40 c73b b709 46bc 24eb b93a 25dc d3bc
00000330: ce6b c4bc 96ee 103c 0748 43bc bcf7 63bc
00000340: 5052 8d3c 1270 15bc 2e97 08bd 2450 b3bc
00000350: 51bf 6a3c f6f8 ca3c 0601 ca3b 4796 76bc
00000360: 09fc 3c3c 0f6a dd3c 5c7a 01bc 314a d2bb
00000370: 65c9 283c 6099 9fbc 598a 44bd 29a2 aabc
00000380: de05 af3c 2b74 543c a35e 643b 1e60 a5bc
00000390: 81d4 3f3b 1a47 aebc 2af9 1bbc 3351 02bd
000003a0: b8e9 8fbb 428f f2bc c582 3fbc 0572 86bc
000003b0: c0e1 f3bc 96d1 0f3d 0a80 a93c 7213 8cbc
000003c0: f554 053d 629f c7b9 4222 dabb 0247 ce3c
000003d0: 025e babc b41e 5bb9 a916 2e3c e942 b73c
000003e0: a8b0 d838 c86e db3c e239 8abc 8502 c43c
000003f0: 9281 993c c448 113b 566e 753c 71d7 ba3c

model.0.running_var f4 [1024]
0.00014009535 0.0001436217 0.00015416014 0.00012638861 0.00014684332 0.00017666373 0.00014410133 0.00011542914
0.00011376817 0.00018282415 0.00017311875 0.00019577653 0.0001824497 0.00013960869 0.00012993507 0.00012497096
0.000107132015 0.0001570716 0.00021226508 0.00013188663 0.00016829048 0.00012914522 0.000112028065 0.00020576012
0.00013676565 0.00016417951 0.00018140014 0.00011217459 0.0001552445 0.00037513042 0.00025001218 0.00017474908
0.00018044865 0.00011175814 0.00021185049 0.00019609992 0.00012021981 8.461374e-05 0.00013760717 0.0002281951
0.00026092317 0.00015940836 0.00018991133 0.00013068068 0.00018909798 0.00023782536 0.00021946381 0.00020297538
0.00013301619 0.00031947697 0.00021512911 0.00025575055 0.00016237839 0.00019619109 0.00012777049 0.00013402977
0.00025462548 0.000110922025 0.00013167608 0.00014088818 0.00019326447 0.00019409442 0.00025209502 0.00017530167
0.00013309893 0.00010403464 0.00015544218 0.00012900645 0.00013136509 0.00018347024 0.00023032089 0.00020298491
0.00023059426 0.00017026244 0.00018262166 0.00020375519 9.6209646e-05 0.00018778988 0.00016411026 0.00019353622
0.00020172744 0.000106592044 0.00019997469 0.00013667719 0.00012429724 0.00036160293 0.00014672741 0.00022532318
0.00011532462 0.0002634547 0.00033770033 0.00019395155 0.00013945019 0.00025031305 0.00013967817 0.00017834369
0.00016133819 0.00017093077 0.00018464286 0.00033414646 0.00013210002 0.00012423737 0.00019315342 0.00010870526
0.00061932235 0.00017305404 0.00016654626 0.0002201744 0.00016081698 0.00016065403 0.00018827608 0.00011853113
0.00018825545 0.00022422992 0.00022326992 0.0002831366 0.00010644711 0.00015774513 0.00023554981 0.0002562344
0.00021076277 0.00015376258 0.00016753357 0.00017997249 0.00013595626 0.000109649656 0.0001065819 0.00012284395
0.00020325008 0.00028483567 0.00018312667 0.00011190388 0.00019697148 0.00012095441 0.00012225733 0.00018621293
0.00025066597 0.00013556535 0.00016183426 0.00015583572 0.00012440195 0.00014577684 0.0001610299 0.00016852398
0.00030806573 0.00023157889 0.00016969444 0.00015219073 0.00026493624 0.00018386931 0.00023775012 0.00016165513
0.00013731647 0.00023635695 0.00011468003 0.00016599105 0.00012784627 0.0001389553 0.00030884784 0.00015919632
0.00014069586 0.00013669133 0.00012344912 0.00015187629 0.00011364808 0.00010446501 0.0007911888 0.00014079521
0.00017903709 0.00017985722 0.00015164028 0.00016068808 0.00019804633 0.000111358204 0.00026340145 0.00019270394
0.00012562273 0.00015213797 0.00012768406 0.00027149078 0.00018225519 0.00021682464 0.0002655269 0.0001773076
0.00013360818 0.00015482846 0.00023638555 0.00014008305 0.00016318203 0.00016535145 0.00025030723 0.00016995917
0.00024049403 0.00013779916 0.00013098906 0.00022616802 0.00022404006 0.00015421506 0.00018390603 0.00016712103
0.00014474745 0.00017982771 0.00018023477 0.00012758929 0.00015296097 0.00014277162 0.0001329326 0.00016115716
0.0001534569 0.00015796769 0.00019637098 0.00013634992 0.0001526187 0.00016788024 0.0005547802 0.000106593136
0.00011652088 0.00014633626 0.000110777 0.00018039758 0.00017608535 0.00013385665 0.000145712 0.0001880227
0.0002088321 0.00017039276 0.00011295246 0.00012711876 0.000108171706 0.00013780898 0.00014357838 0.00039577807
0.00017394093 0.0002069227 0.00011321004 0.000105582156 0.00016468391 0.00013303633 0.00013136772 0.00012387823
0.00013755714 0.00013034561 0.00018584328 0.00019526063 0.00021343873 0.00050944084 0.00011509347 0.000117530915
0.00014464275 0.00013484442 0.00015989468 0.0001355593 0.00016676441 0.00011279448 0.00012957604 0.00013933479
00000000: 8fe6 1239 2899 1639 0ca6 2139 2f87 0439
00000010: f4f9 1939 cf3e 3939 e819 1739 8c12 f238
00000020: d296 ee38 7cb4 3f39 3687 3539 5d49 4d39
00000030: f84f 3f39 ec63 1239 2e3f 0839 a30a 0339
00000040: 10ac e038 96b3 2439 7993 5e39 0c4b 0a39
00000050: 2277 3039 286b 0739 9cf0 ea38 50c1 5739
00000060: c068 0f39 9a27 2c39 3b36 3e39 463f eb38
00000070: 21c9 2239 27ad c439 1114 8339 d93c 3739
00000080: d136 3d39 b25f ea38 2f24 5e39 2ca0 4d39
00000090: 851e fc38 a872 b138 a54a 1039 a847 6f39
000000a0: 84cc 8839 db26 2739 ef22 4739 5407 0939
000000b0: 9a48 4639 c260 7939 de1f 6639 cad5 5439
000000c0: 437a 0b39 797f a739 4894 6139 4216 8639
000000d0: 1e44 2a39 a5b8 4d39 21fa 0539 588a 0c39
000000e0: 417f 8539 cf9e e838 8712 0a39 62bb 1339
000000f0: 09a7 4a39 d385 4b39 9f2b 8439 2fd1 3739
00000100: 7990 0b39 2c2d da38 31fe 2239 e845 0739
00000110: 0cbf 0939 eb61 4039 4b82 7139 59d8 5439
00000120: adcb 7139 7a88 3239 217e 3f39 1ea7 5539
00000130: 29c4 c938 76e9 4439 0315 2c39 fcef 4a39
00000140: cc86 5339 2b8a df38 4cb0 5139 0151 0f39
00000150: c955 0239 8695 bd39 d7da 1939 bb44 6c39
00000160: 6fda f138 4b20 8a39 5f0d b139 795f 4b39
00000170: 6039 1239 733c 8339 9376 1239 c501 3b39
00000180: e42c 2939 e13b 3339 b19c 4139 6130 af39
00000190: 5484 0a39 b745 0239 3a89 4a39 b1f8 e338
000001a0: 055a 223a d775 3539 eca2 2e39 9ede 6639
000001b0: fba0 2839 3d75 2839 fa6b 4539 ea93 f838
000001c0: 7066 4539 431f 6b39 901d 6a39 f371 9439
000001d0: 5b3c df38 6368 2539 ecfd 7639 3357 8639
000001e0: 3300 5d39 543b 2139 f3ab 2f39 ffb6 3c39
000001f0: 7b8f 0e39 b6f3 e538 b984 df38 accf 0039
00000200: 871f 5539 ff55 9539 b105 4039 f0ad ea38
00000210: 218a 4e39 e8a8 fd38 3432 0039 2742 4339
00000220: d16b 8339 8c26 0e39 0eb2 2939 d567 2339
00000230: e571 0239 acdb 1839 22da 2839 d0b5 3039
00000240: e283 a139 fcd3 7239 01f0 3139 6395 1f39
00000250: 24e7 8a39 0bcd 4039 904c 7939 f881 2939
00000260: 9cfc 0f39 96d6 7739 5f80 f038 e20d 2e39
00000270: 790e 0639 88b4 1139 dbec a139 f0ed 2639
00000280: c287 1339 cd54 0f39 1f72 0139 fb40 1f39
00000290: 5956 ee38 3a14 db38 c867 4f3a 6da2 1339
000002a0: e7bb 3b39 0e98 3c39 a101 1f39 617e 2839
000002b0: a8aa 4f39 fb88 e938 2519 8a39 9210 4a39
000002c0: 98b9 0339 3a87 1f39 eee2 0539 e056 8e39
000002d0: c11b 3f39 6c5b 6339 6b36 8b39 a5eb 3939
000002e0: 2c19 0c39 7359 2239 43de 7739 42e3 1239
000002f0: d81b 2b39 3162 2d39 ab3b 8339 1137 3239
00000300: 202d 7c39 2e7e 1039 1c5a 0939 8427 6d39
00000310: 4cec 6a39 cab4 2139 e6d6 4039 363d 2f39
00000320: 59c7 1739 2290 3c39 67fd 3c39 7dc9 0539
00000330: 2664 2039 f7b4 1539 d363 0b39 4cfc 2839
00000340: 46e9 2039 21a4 2539 efe8 4d39 27f9 0e39
00000350: 4508 2039 0209 3039 ab6e 113a c18a df38
00000360: ac5c f438 d771 1939 f350 e838 1b29 3d39
00000370: 8da3 3839 df5b 0c39 44ca 1839 f627 4539
00000380: f1f9 5a39 75ab 3239 e4e0 ec38 2f4b 0539
00000390: 3eda e238 d180 1039 878d 1639 6f80 cf39
000003a0: ea63 3639 64f9 5839 2d6b ed38 fd6b dd38
000003b0: 00af 2c39 ab7f 0b39 c1bf 0939 4fe5 0139
000003c0: 373d 1039 62ad 0839 edde 4239 e0be 4c39
000003d0: 86ce 5f39 ff8b 053a 565e f138 ee7a f638
000003e0: 3eab 1739 0665 0d39 67a9 2739 ec24 0e39
000003f0: 7bdd 2e39 138c ec38 cede 0739 661a 1239

model.1.weight f4 [32, 1024]
0.018770974 0.006470046 0.017514419 -0.0089518735 -0.020314077 -0.027018726 0.0076571074 -0.0025236038
0.025361761 0.0058488166 0.0037505974 -0.022639753 -0.012390096 0.0106464075 -0.0021788077 -0.0022235678
-0.00010803392 -0.026444556 -0.018127035 0.020506702 0.028371355 -0.02228485 0.027934242 0.016931865
0.024681056 -0.014402552 0.016016483 0.0050098537 -0.025810717 -0.017561499 0.034060404 -0.014523087
-0.008216065 -0.025593838 0.0031796664 0.029725749 -0.0098567745 0.02015585 0.009667516 -0.0045586727
-0.018123768 -0.025015013 -0.026330553 -0.030366296 0.015311126 0.0149089135 -0.016275037 0.01653001
0.020529553 0.0016454463 -0.00062383036 0.025452746 -0.013426604 0.029312123 0.01918413 -0.0015505189
-0.0023317921 0.010369315 -0.0046332893 0.02670612 -0.009519475 0.010883037 0.012049427 -0.004564721
-0.024073722 0.0008652511 0.030630112 0.009492193 -0.026383871 0.026651643 0.02873633 -0.018537669
-0.0010769139 0.008236884 -0.017158592 0.02857021 -0.0039477707 -0.03139516 0.014819486 0.0063257376
0.028957166 0.011657995 -0.02046151 -0.020855485 -0.020570936 -0.0002441332 -0.009230399 0.018422222
-0.0025769204 -0.011499365 0.027644658 -0.006737275 -0.021802934 -0.020684885 0.025743548 0.003147194
-0.013388523 0.009908867 -0.018277714 -0.018735353 0.0060985526 -0.024624221 0.00797009 -0.019873645
-0.012692042 0.020750253 0.009254857 -0.012584449 -0.0151905045 -0.007419568 0.01473079 0.009836529
-0.023936521 0.03203767 0.029982867 -0.02522191 -0.002584594 0.025881765 -0.030028366 0.018845215
0.013298858 -0.024373585 -0.015923277 0.022209303 -0.022950575 0.0075905803 -0.007906276 -0.014349282
0.007447713 -0.0065656872 -0.0033333572 0.020355184 -0.011864437 0.0153789725 -0.013730884 -0.0070344554
0.026350778 -0.02166407 -0.0045174896 -0.0024545882 -0.022164186 0.024836047 -0.01963962 0.03412881
0.026413176 0.022320816 0.012441128 -0.02860969 0.022089906 0.012395859 -0.015274821 -0.024604708
0.013753153 -0.012747162 0.0015265091 0.02314919 0.023387834 0.00080507505 -0.023118231 0.003700306
0.000887307 0.007786166 -0.021275727 0.02261695 0.028297395 -0.026400413 0.025167316 0.011809533
-0.020782525 0.010282743 -0.008113936 0.012624283 -0.029327191 0.004112708 -0.027307604 -0.0016265197
-0.016813999 0.008927158 0.0021547049 0.017554382 -0.024057921 0.019002292 -0.003252616 -0.0028876748
-0.035217322 0.0047962335 -0.020666627 0.024403699 0.014819785 0.037007313 0.01582397 -0.0075962245
0.024133451 -0.005220193 -0.0068633067 -0.007854547 -0.021510324 0.006399015 0.0034785045 -0.023200838
-0.013994831 0.028648183 -0.009925188 -0.018021684 -0.003179203 0.028446192 -0.009090868 -0.00931158
-0.018626278 0.010604335 0.01056323 -0.0074420865 -0.021409987 0.0212735 -0.0104357125 -0.018742515
0.0086150775 -0.02825529 0.026418481 -2.324721e-05 0.025054071 -0.02062066 -0.011032186 0.021191802
-0.029342622 0.0009831495 -0.007074897 -0.031476118 -0.027208243 -0.013377568 -0.004282003 -0.01013587
0.008168993 -0.008411834 0.0016772351 0.00878781 -0.011593263 -0.0061155134 -0.0007220011 -0.009931997
-0.005690618 0.005980958 -0.027739866 -0.00981296 0.022080084 -0.0014384073 -0.024695387 0.0040662275
0.026964603 -0.008742464 -0.012088345 -0.025767645 -0.023653723 0.016465945 0.023232259 -0.034219056
00000000: 96c5 993c ae02 d43b 667a 8f3c e1aa 12bc
00000010: b569 a6bc 6056 ddbc 79e8 fa3b 0c63 25bb
00000020: 78c3 cf3c 6ea7 bf3b 95cc 753b 0177 b9bc
00000030: d4ff 4abc 456e 2e3c 54ca 0ebb 47b9 11bb
00000040: 4590 e2b8 41a2 d8bc 267f 94bc acfd a73c
00000050: 0b6b e83c b88e b6bc 5ad6 e43c b2b4 8a3c
00000060: ed2f ca3c aef8 6bbc 0035 833c b329 a43b
00000070: ff70 d3bc 22dd 8fbc ec82 0b3d 3ef2 6dbc
00000080: ad9c 06bc 2baa d1bc f361 503b 6a83 f33c
00000090: 4f7e 21bc e21d a53c 8064 1e3c eb60 95bb
000000a0: 4c78 94bc 49ec ccbc 2cb3 d7bc bdc2 f8bc
000000b0: 84db 7a3c 8444 743c 3a53 85bc f269 873c
000000c0: 982d a83c 04ac d73a 8c88 23ba 4782 d03c
000000d0: 42fb 5bbc fa1f f03c 0928 9d3c c83a cbba
000000e0: fbd0 18bb 0fe4 293c d9d2 97bb cbc6 da3c
000000f0: 92f7 1bbc c44e 323c f66a 453c a893 95bb
00000100: 4136 c5bc 05d2 623a 00ec fa3c 2585 1b3c
00000110: fd22 d8bc 8c54 da3c 7468 eb3c 4fdc 97bc
00000120: 3c27 8dba fff3 063c 2d90 8cbc 130c ea3c
00000130: 4d5c 81bb 3698 00bd 6ecd 723c 2248 cf3b
00000140: 9437 ed3c 2d01 3f3c e69e a7bc 1fd9 aabc
00000150: 6184 a8bc 02fe 7fb9 193b 17bc 33ea 963c
00000160: 8de1 28bb d567 3cbc 0d77 e23c 5cc4 dcbb
00000170: 119c b2bc 5973 a9bc 22e4 d23c 2741 4e3b
00000180: 895b 5bbc cd58 223c 25bb 95bc e27a 99bc
00000190: 5ed6 c73b bcb8 c9bc fb94 023c 0ece a2bc
000001a0: 48f2 4fbc 6ffc a93c afa1 173c 012f 4ebc
000001b0: 98e1 78bc d91f f3bb 6959 713c 6529 213c
000001c0: 8616 c4bc ef39 033d a19e f53c 2e9e cebc
000001d0: 4b62 29bb ff05 d43c 0cfe f5bc 4861 9a3c
000001e0: 74e3 593c 1dab c7bc 8871 82bc 49f0 b53c
000001f0: d802 bcbc 67ba f83b 5389 01bc 4019 6bbc
00000200: f20b f43b fa24 d7bb 7474 5abb eabf a63c
00000210: 0e63 42bc 16f8 7b3c 80f7 60bc 4a81 e6bb
00000220: 96dd d73c d978 b1bc 7307 94bb 28dd 20bb
00000230: ab91 b5bc f774 cb3c 45e3 a0bc a7ca 0b3d
00000240: 7260 d83c 25da b63c dfd5 4b3c de5e eabc
00000250: e4f5 b43c 0018 4b3c 3e43 7abc d08f c9bc
00000260: e854 613c 79d9 50bc 2515 c83a 5fa3 bd3c
00000270: d897 bf3c ac0b 533a 7262 bdbc d580 723b
00000280: 2a9a 683a 1823 ff3b 6f4a aebc 2f47 b93c
00000290: f0cf e73c ae45 d8bc b02b ce3c c67c 413c
000002a0: 1d40 aabc f378 283c 50f0 04bc 15d6 4e3c
000002b0: 943f f0bc e5c3 863b 32b4 dfbc f230 d5ba
000002c0: 83bd 89bc 3743 123c f335 0d3b 35ce 8f3c
000002d0: 1e15 c5bc b2aa 9b3c d729 55bb 253f 3dbb
000002e0: 0a40 10bd b929 9d3b 0f4d a9bc 44ea c73c
000002f0: afce 723c fb94 173d 45a1 813c c0e9 f8bb
00000300: 84b3 c53c 270e abbb 97e5 e0bb 5cb0 00bc
00000310: 6b36 b0bc d4ae d13b 9ff7 633b af0f bebc
00000320: 934a 65bc 98af ea3c 419d 22bc 36a2 93bc
00000330: 2d5a 50bb fd07 e93c ddf1 14bc 998f 18bc
00000340: 2396 98bc cebd 2d3c 6611 2d3c bfdc f3bb
00000350: ff63 afbc c345 ae3c 8dfa 2abc e789 99bc
00000360: 4126 0d3c a377 e7bc 926b d83c 0103 c3b7
00000370: 323e cd3c a9ec a8bc 58c0 34bc 6e9a ad3c
00000380: f05f f0bc 06dd 803a 8ad4 e7bb 1aed 00bd
00000390: d2e3 debc 962d 5bbc 0b50 8cbb ec10 26bc
000003a0: 3dd7 053c cad1 09bc acd6 db3a bffa 0f3c
000003b0: abf1 3dbc a564 c8bb ac44 3dba d1b9 22bc
000003c0: 5d78 babb eafb c33b b73e e3bc 8ac6 20bc
000003d0: 4be1 b43c f188 bcba fb4d cabc fd3d 853b
000003e0: dfe4 dc3c 8d3c 0fbc 320e 46bc ab16 d3bc
000003f0: 74c5 c1bc 97e3 863c 9451 be3c 4829 0cbd

model.1.bias f4 [32]
0.029696058 -0.005767296 -0.027996393 0.003127138 0.0064031184 0.0275731 -0.025082203 0.0145161385
-0.010386764 0.009464395 0.011864405 -0.021224348 0.024066035 0.0002463398 0.030208454 -0.022973118
-0.026390139 0.01611348 0.008784083 -0.014353042 0.0005743985 -0.026785482 0.016935116 -0.012928208
-0.0076278686 0.005889277 0.032398205 -0.024704782 -0.006077522 -0.015023183 -0.008011117 -0.01499738
00000000: 2645 f33c 96fb bcbb b158 e5bc abf0 4c3b
00000010: 40d1 d13b fbe0 e13c 3179 cdbc 19d5 6d3c
00000020: 3f2d 2abc 8d10 1b3c ec62 423c afde adbc
00000030: 2226 c53c 2b27 8139 b877 f73c 1f32 bcbc
00000040: 2230 d8bc 6b00 843c 1deb 0f3c 0529 6bbc
00000050: 3b93 163a 3a6d dbbc 83bb 8a3c d6d0 53bc
00000060: 33f3 f9bb d6fa c03b fbb3 043d af61 cabc
00000070: f325 c7bb cc23 76bc 0f41 03bc 92b7 75bc

model.4.weight f4 [64, 32]
-0.13176242 0.06294673 -0.010505596 0.17896278 -0.11874636 -0.017987235 0.018515995 0.10839544
0.14389639 0.11731227 -0.049427524 -0.14998712 0.14691667 -0.07123086 -0.17590268 0.087190375
0.17567442 0.1346812 -0.09074628 0.070817724 -0.12086063 -0.09770163 0.039055612 -0.11116095
0.068219654 0.07933087 -0.039018843 0.14184164 0.022625789 0.064217895 0.120488815 -0.11456661
-0.114880756 -0.093843274 -0.00873983 0.07057536 0.15041745 0.15549272 -0.08638904 -0.08242009
0.115521826 0.11953828 0.12288687 0.14457132 0.0076763676 -0.07037741 -0.1404023 0.018460622
-0.15627861 -0.059323683 -0.0168295 -0.024624163 -0.0866402 0.046757076 -0.10750145 0.16537334
-0.08122928 0.1401357 -0.03543556 0.16874292 0.012969999 -0.014169751 0.078757 -0.11946287
-0.08206594 -0.14834033 0.1024815 -0.033904556 -0.10994778 0.1637538 -0.16126868 0.066428475
-0.07735332 -0.08737733 0.15990132 0.14850871 0.121730745 -0.05875726 0.1396514 0.12433773
0.12874448 0.12620759 -0.0070524137 -0.10427424 -0.11572348 0.15283144 -0.14544229 0.055939466
-0.03862415 -0.080700584 -0.098448135 -0.04617833 0.16431215 -0.08444115 0.117401384 0.1564024
-0.17368191 -0.050690968 0.1055761 -0.019616459 -0.14564385 -0.024485486 0.14564858 0.11017264
0.036568563 -0.16912945 -0.14002523 0.14294417 0.05611176 0.04825837 0.033845842 -0.088228844
0.098810084 0.019191401 0.13732539 -0.15281972 0.11344443 0.14392093 -0.024207385 -0.116010115
0.06249245 -0.07575461 -0.093112975 0.098994784 0.047116544 -0.06845586 0.14532343 -0.069433495
-0.17089796 -0.17304403 -0.0070928517 -0.027146807 0.14857641 -0.10798095 0.019826416 -0.15013559
-0.11378308 0.16318657 0.1620068 0.078848645 0.03388765 0.12590691 0.08812857 0.03204404
0.11793159 -0.15784492 -0.029681683 -0.13144886 0.083152466 -0.042710282 -0.171938 0.0014848177
-0.07018799 0.13286327 0.10862846 0.13689966 0.10627282 -0.08491249 -0.0916987 0.10795637
-0.17405759 0.07067342 0.060253337 0.00087600923 -0.1738265 0.15091106 -0.15566719 0.110975176
0.11945537 0.0022941595 -0.06469026 -0.028722307 -0.08670535 0.0902703 0.12523268 -0.054952335
-0.14324714 -0.07538044 0.045135595 -0.08818645 -0.08596547 -0.015123959 0.15136407 0.06263539
0.03772172 -0.053810056 0.03370047 -0.08486893 0.15360928 0.16102724 -0.10281456 -0.17633586
-0.16621795 0.1770052 0.09235605 -0.15505311 -0.013600716 -0.055443756 0.09370839 0.052411098
0.12571181 -0.16862416 -0.016245736 -0.024653537 0.0642333 0.16970703 -0.11972257 -0.10936111
0.1440119 -0.14060129 0.0015246747 -0.024772355 0.071794726 0.17307395 -0.1194373 0.14371884
0.026410209 0.012589477 0.07155284 0.08239981 -0.01595119 -0.12994625 0.0019912699 0.027016666
-0.16249819 0.16241638 0.15793125 -0.11094988 -0.09336999 -0.03591553 0.09669341 0.12650205
-0.09719067 0.037965715 0.07205344 -0.11728034 -0.15238903 0.044021398 0.12322093 0.098544165
0.067594476 0.1145919 0.039115306 -0.16791673 -0.12748149 0.0030643695 -0.0734109 -0.14824024
-0.032018583 -0.13682483 -0.14372838 -0.035998903 0.121285975 -0.16242452 0.13917322 -0.020215422
00000000: baec 06be 37ea 803d aa1f 2cbc 0542 373e
00000010: 4b31 f3bd f759 93bc dbae 973c 6efe dd3d
00000020: 9359 133e 6a41 f03d 8474 4abd 3996 19be
00000030: 5371 163e 7ce1 91bd d51f 34be de90 b23d
00000040: ffe3 333e dee9 093e 30d9 b9bd e208 913d
00000050: c785 f7bd cb17 c8bd c7f8 1f3d 5aa8 e3bd
00000060: bfb6 8b3d 3978 a23d 39d2 1fbd ef3e 113e
00000070: b859 b93c ac84 833d d7c2 f63d e6a1 eabd
00000080: 9a46 ebbd e730 c0bd 8131 0fbc d089 903d
00000090: 0807 1a3e 7c39 1f3e bdec b0bd ddcb a8bd
000000a0: b596 ec3d 7cd0 f43d 1cac fb3d 810a 143e
000000b0: 0a8a fb3b 0822 90bd 9fc5 0fbe bb3a 973c
000000c0: 8007 20be 64fd 72bd 05de 89bc 9db8 c9bc
000000d0: 6b70 b1bd 5984 3f3d b829 dcbd a157 293e
000000e0: 895b a6bd bc7f 0f3e e124 11bd f2ca 2c3e
000000f0: 1e80 543c 3e28 68bc 5a4b a13d f3a8 f4bd
00000100: 3012 a8bd 87e6 17be d2e1 d13d 81df 0abd
00000110: 4d2c e1bd 13af 273e 9e23 25be a70b 883d
00000120: 6b6b 9ebd e3f2 b2bd 2cbd 233e ab12 183e
00000130: f84d f93d 74ab 70bd c700 0f3e c8a4 fe3d
00000140: 98d5 033e 903c 013e ef17 e7bb bc8d d5bd
00000150: 6f00 edbd d87f 1c3e d3ee 14be c820 653d
00000160: 5b34 1ebd 5946 a5bd 2d9f c9bd 7d25 3dbd
00000170: 7241 283e 7bef acbd 2370 f03d f327 203e
00000180: acd9 31be 55a1 4fbd 4838 d83d b2b2 a0bc
00000190: a923 15be c995 c8bc e724 153e 31a2 e13d
000001a0: ebc8 153d 4530 2dbe c662 0fbe f55f 123e
000001b0: 72d5 653d 92aa 453d f0a1 0a3d 53b1 b4bd
000001c0: f15c ca3d 4937 9d3c 079f 0c3e c67c 1cbe
000001d0: 8e55 e83d 0260 133e 914e c6bc b696 edbd
000001e0: 15f8 7f3d 3c25 9bbd 04b2 bebd c7bd ca3d
000001f0: 47fd 403d 9632 8cbd aacf 143e 2633 8ebd
00000200: e0ff 2ebe 7432 31be 276b e8bb fb62 debc
00000210: 6a24 183e 1e25 ddbd 026b a23c 25bd 19be
00000220: 1a07 e9bd 611a 273e 1ce5 253e 667b a13d
00000230: c7cd 0a3d beed 003e c07c b43d 9c40 033d
00000240: 1e86 f13d 19a2 21be 0027 f3bc 889a 06be
00000250: d74b aa3d faf0 2ebd 8410 30be 379e c23a
00000260: b9be 8fbd 4f0d 083e 9978 de3d 6d2f 0c3e
00000270: 90a5 d93d 99e6 adbd 87cc bbbd 3b18 dd3d
00000280: 273c 32be 3abd 903d 34cc 763d fca3 653a
00000290: 93ff 31be 6e88 1a3e 3867 1fbe f446 e33d
000002a0: 04a5 f43d 9c59 163b 547c 84bd 0b4b ebbc
000002b0: 9392 b1bd a3df b83d ff3c 003e b315 61bd
000002c0: 61af 12be 0f61 9abd 1ae0 383d 199b b4bd
000002d0: aa0e b0bd 7bca 77bc 2fff 1a3e fc46 803d
000002e0: 1782 1a3d ef67 5cbd 8109 0a3d c3cf adbd
000002f0: c04b 1d3e 53e4 243e 7190 d2bd 6391 34be
00000300: 0a35 2abe da40 353e 2b25 bd3d 3ec6 1ebe
00000310: 8ad5 5ebc fe18 63bd 2fea bf3d 05ad 563d
00000320: 99ba 003e d0ab 2cbe c715 85bc 37f6 c9bc
00000330: c08c 833d aec7 2d3e 1b31 f5bd b8f8 dfbd
00000340: db77 133e c9f9 0fbe 98d7 c73a 65ef cabc
00000350: 1d09 933d 4c3a 313e 8b9b f4bd 082b 133e
00000360: 395a d83c 1844 4e3c 4c8a 923d 3bc1 a83d
00000370: 12ac 82bc a110 05be f77f 023b 0e52 dd3c
00000380: ed65 26be 7b50 263e bbb8 213e b139 e3bd
00000390: c438 bfbd 2a1c 13bd 3207 c63d c189 013e
000003a0: e70b c7bd f081 1b3d c190 933d ad30 f0bd
000003b0: df0b 1cbe c84f 343d 415b fc3d 86d1 c93d
000003c0: f96e 8a3d 28af ea3d 5f37 203d 5df2 2bbe
000003d0: 828a 02be 97d3 483b 7458 96bd 4acc 17be
000003e0: eb25 03bd cf1b 0cbe 882d 13be 9673 13bd
000003f0: c864 f83d 9d52 26be 6d83 0e3e d09a a5bc

model.4.bias f4 [64]
0.09405679 -0.03801883 0.133155 0.08779791 0.1578606 0.048712447 -0.08132752 -0.02243553
-0.15928616 0.1019124 -0.0006420021 0.059624933 0.046511166 0.059441432 -0.031677928 0.108702056
-0.031875532 -0.06965344 -0.028934 -0.116135 -0.16332057 0.13116764 -0.061332863 0.02325976
-0.08873823 0.045675524 -0.11963677 0.1368639 0.11838537 0.08928465 -0.0058066025 -0.17502354
-0.15516123 0.10840232 -0.022176655 0.11486824 0.17360912 -0.12484824 0.13207619 0.0035729515
0.1730155 0.058223773 -0.06723126 0.15934758 0.13564092 -0.09259128 -0.01618125 0.1771356
-0.07976706 -0.09760815 -0.13387275 0.049667235 0.06265675 0.07218748 0.092641085 0.046958257
0.1312917 0.029125063 0.121364325 0.121200204 -0.17070588 -0.13364813 0.060322925 0.13562743
00000000: d9a0 c03d a2b9 1bbd c959 083e 64cf b33d
00000010: 36a6 213e b486 473d 0b8f a6bd b7ca b7bc
00000020: e91b 23be 73b7 d03d 084c 28ba 4639 743d
00000030: 7e82 3e3d dc78 733d b7c0 01bd 2f9f de3d
00000040: eb8f 02bd 76a6 8ebd ff06 edbc 30d8 edbd
00000050: 823d 27be cf50 063e 2b38 7bbd 418b be3c
00000060: 64bc b5bd 4216 3b3d 1f04 f5bd 0d26 0c3e
00000070: 0774 f23d dfda b63d 5045 bebb 5f39 33be
00000080: 96e2 1ebe 0902 de3d d1ab b5bc 0a40 eb3d
00000090: 97c6 313e 6fb0 ffbd fb3e 073e 2e28 6a3b
000000a0: fa2a 313e 0d7c 6e3d 8bb0 89bd 032c 233e
000000b0: 74e5 0a3e 7fa0 bdbd 8a8e 84bc 0963 353e
000000c0: ea5c a3bd c8e6 c7bd f015 09be df6f 4b3d
000000d0: 2f52 803d 08d7 933d 9cba bd3d 4d57 403d
000000e0: 5571 063e af97 ee3c dc8d f83d d037 f83d
000000f0: 86cd 2ebe 0edb 08be 2c15 773d ebe1 0a3e

model.7.weight f4 [1, 64]
-0.04272402 -0.12765497 -0.05600799 0.08422143 0.11313274 -0.103536345 -0.08113984 -0.053015493
-0.08890845 -0.014575585 -0.12942968 -0.12987947 -0.08609978 0.048490323 0.117829 0.011266275
0.12237851 0.09784806 0.07411652 0.047580384 0.046309315 -0.036547292 -0.050079998 0.13231069
0.020359814 0.10143876 -0.05966302 0.07738673 -0.065042876 -0.0042824154 -0.007990164 0.106187016
0.090296246 0.08849696 -0.099158935 0.08543957 0.07366712 -0.00564153 -0.12109826 0.031099187
0.08770669 0.035725545 -0.039139077 0.11606966 -0.06503532 0.08294828 -0.074053764 0.0142473
-0.001659858 -0.10762426 0.048956003 0.048917748 0.026441487 -0.09016441 0.06740034 -0.022543
0.03510587 -0.025232257 -0.09171702 -0.06404137 0.06001015 0.030481687 0.08168858 -0.11097686
00000000: 62ff 2ebd fcb7 02be a268 65bd 497c ac3d
00000010: 23b2 e73d dd0a d4bd a52c a6bd c626 59bd
00000020: a215 b6bd 6fce 6ebc 3789 04be 20ff 04be
00000030: 1555 b0bd ca9d 463d 5550 f13d 2f96 383c
00000040: 96a1 fa3d 9064 c83d 67ca 973d a6e3 423d
00000050: d6ae 3d3d 9db2 15bd af20 4dbd 747c 073e
00000060: a0c9 a63c 20bf cf3d 3661 74bd ef7c 9e3d
00000070: 3335 85bd 8153 8cbb 2de9 02bc 9478 d93d
00000080: 3ded b83d e53d b53d d713 cbbd f1fa ae3d
00000090: c9de 963d 95dc b8bb 5d02 f8bd b9c3 fe3c
000000a0: 919f b33d f354 123d 4c50 20bd eeb5 ed3d
000000b0: 3d31 85bd cae0 a93d 80a9 97bd 826d 693c
000000c0: 988f d9ba 1c6a dcbd 1786 483d fa5d 483d
000000d0: d19b d83c 1ea8 b8bd 3109 8a3d 19ac b8bc
000000e0: 2ccb 0f3d e1b3 cebc 22d6 bbbd 1f28 83bd
000000f0: 34cd 753d bbb4 f93c 584c a73d d647 e3bd

exp_avg f4 [1024]
-0.00038712763 -0.0009524809 -3.6481804e-05 -0.0004383874 -0.0006896153 0.0011237125 0.00070719555 -0.00037925763
-0.00023158081 -0.00082209107 -0.0008337512 -0.00030897895 -0.00068095734 0.00029379607 -0.00045361213 -0.00022043998
-0.00026147647 0.0010393374 0.00060259126 -0.00039711135 6.801479e-05 -0.0010110692 -0.000109767345 0.00076688954
-4.9832888e-05 0.00051756966 0.0009893987 -0.00068384566 -0.00091831107 0.00096237694 0.0004681947 0.00022754005
-0.00039779764 -0.0014769838 0.0006467799 0.0009823788 -0.00061411987 -0.00053484435 -7.552455e-05 -1.7831848e-05
0.00031171754 -0.00048723948 -0.00024234527 -0.001103634 -0.00045677013 -0.00054700294 -0.000114033755 -0.0005762844
0.0005178361 0.0005083794 -0.00034243742 0.00051875366 -0.0011408436 -0.00036237907 0.0005965382 4.455447e-06
-0.00073086395 -0.00010618474 0.00036985875 -2.9686293e-05 0.0009539464 0.0004190568 -0.0008729107 -0.00011593546
0.00037320808 -1.9226281e-05 0.00012349816 -0.0010366132 -0.0010996872 -0.0006607866 0.00032081656 0.0003199459
-0.0002566159 -0.0027880622 -6.3658634e-05 0.0011894209 0.0010145112 -4.56743e-05 0.0006921921 0.00033071818
-0.00071423093 0.0002516033 0.0010876199 -0.00052804535 -0.000725737 -0.0011537044 0.0006426303 -0.00015463022
2.20449e-05 0.0007608286 -0.0003623948 0.00018923084 0.00020183601 0.0006131547 0.00034424267 -0.00056173233
-0.0010107495 4.183327e-05 0.001132096 0.0006431077 -0.0004930098 -9.709291e-05 0.00092459127 0.00066721934
-0.00044943395 -0.000567892 -0.0013141176 9.697015e-05 -6.0340055e-05 0.0004691562 -0.0005327819 0.0012976864
0.0002148081 0.00039479393 -0.00050291664 -0.0007228601 -0.0008425147 -2.0284671e-05 0.00032682612 -0.00071417063
0.00014048796 0.0002874849 -0.00094238133 -0.0008480039 -0.0016793213 -0.0010891306 -0.00065318716 -0.0003581606
-5.5113545e-05 0.00081384694 0.00058375363 -0.001955494 -9.57594e-05 -0.0006912368 0.00092646363 0.0010892926
0.00035252536 -0.00012852918 -0.00025028098 -0.00040043367 -3.6674202e-05 -0.0010031994 -0.0005342589 0.0013817888
0.00020954818 -0.00065707014 -0.00018533158 -0.0012162365 0.00037423536 0.0008338445 0.0010704205 0.00021866903
0.00056444056 -0.00039562906 0.00032337435 -0.00048431064 -0.00031192793 -0.00011668307 0.00069231173 -0.0009713626
-0.00028940404 -0.00024915067 -2.799357e-05 0.00026045827 0.00019721023 -3.6748126e-05 -0.0009085339 0.0003058592
0.00042160618 -0.0017004025 -0.0003786664 -0.0013385264 -0.00035220198 -0.0006046084 0.0010207301 0.0005061164
-0.000207168 -0.0005621364 0.00022359018 0.00038216368 -0.0011703362 0.00015929763 -0.00075113494 -1.0466087e-05
-0.0015207635 -0.00023056193 3.281486e-06 -0.00015289674 0.0005349984 -0.0020509246 8.95368e-05 -3.2407817e-05
0.0012726752 0.00028429832 -0.00035860136 -0.00025678394 4.231317e-05 0.0013546676 -0.0005304144 -3.5375222e-05
0.00075751217 0.0006612303 -0.0011567052 -0.00054893084 0.00014615772 0.00047444558 -0.0010943755 -0.0009646919
-0.0007193246 0.00016163506 0.00010844946 -0.00040456344 -0.0008882818 -0.0020220026 0.0005471688 -0.0007484927
-7.169714e-05 -0.00092733896 0.0002868182 -0.0002979184 0.0004197926 0.0007172838 0.0011867265 0.00092279643
-0.00025663938 3.7106744e-05 -0.00038876807 -0.00046890147 -0.0011405415 3.8757582e-05 -0.00061743305 0.00021969048
-0.00034212534 0.00025145645 -0.00083787 -0.00077224185 0.00072867156 -0.00038585847 -0.0035944267 -0.00025123416
-0.0008564624 -0.00069631316 -0.0003798863 0.00034924335 5.3222513e-05 -0.000163935 -0.0010109176 -0.00015479024
0.0010143751 -0.00051798543 0.00039745285 2.6411377e-05 -9.334642e-05 -0.0005072604 -0.0010239433 -0.0004289504
00000000: 64f7 cab9 e9af 79ba 0a04 19b8 5cd7 e5b9
00000010: 4dc7 34ba 8949 933a 1763 393a 19d7 c6b9
00000020: 80d4 72b9 9981 57ba 1990 5aba 74fe a1b9
00000030: 4682 32ba a408 9a39 cad2 edb9 e825 67b9
00000040: c716 89b9 603a 883a 37f7 1d3a 6233 d0b9
00000050: 2aa3 8e38 da85 84ba e532 e6b8 1609 493a
00000060: a803 51b8 83ad 073a b6ae 813a 1b44 33ba
00000070: d0ba 70ba 0648 7c3a 0778 f539 d197 6e39
00000080: 7f8f d0b9 5a97 c1ba aa8c 293a 2ac3 803a
00000090: e3fc 20ba cc34 0cba ef62 9eb8 9a95 95b7
000000a0: 056e a339 2d74 ffb9 101e 7eb9 d0a7 90ba
000000b0: a67a efb9 bf64 0fba 6825 efb8 cb11 17ba
000000c0: 64bf 073a c444 053a 2c89 b3b9 f8fc 073a
000000d0: 5c88 95ba b2fd bdb9 0061 1c3a 0080 9536
000000e0: 7397 3fba 80af deb8 9ae9 c139 d406 f9b7
000000f0: 4212 7a3a dab4 db39 0cd4 64ba 6022 f3b8
00000100: 24ab c339 2048 a1b7 497f 0139 f8de 87ba
00000110: 6123 90ba a338 2dba 4533 a839 69be a739
00000120: 678a 86b9 ecb7 36bb 7880 85b8 58e6 9b3a
00000130: 59f9 843a 6892 3fb8 3a74 353a 3e64 ad39
00000140: 3a3b 3bba a0e9 8339 788e 8e3a 866c 0aba
00000150: 633f 3eba e537 97ba 3076 283a 3c24 22b9
00000160: 10ed b837 5872 473a cfff bdb9 446c 4639
00000170: f1a3 5339 1ebc 203a 787b b439 3841 13ba
00000180: 207b 84ba 2276 2f38 d762 943a 3a96 283a
00000190: 543d 01ba 5c9e cbb8 4560 723a 55e8 2e3a
000001a0: 01a2 ebb9 96de 14ba 783e acba 745c cb38
000001b0: a415 7db8 14f9 f539 63aa 0bba 2117 aa3a
000001c0: 1c3e 6139 58fc ce39 2ad6 03ba 527e 3dba
000001d0: 34dc 5cba 0029 aab7 dc59 ab39 2e37 3bba
000001e0: f34f 1339 92b9 9639 240a 77ba 944c 5eba
000001f0: ac1c dcba 29c1 8eba a63a 2bba 81c7 bbb9
00000200: b829 67b8 5858 553a 0b07 193a bf27 00bb
00000210: 70d2 c8b8 1e34 35ba ecdd 723a 98c6 8e3a
00000220: 27d3 b839 cac5 06b9 2538 83b9 4cf1 d1b9
00000230: a0d2 19b8 c97d 83ba 820d 0cba 231d b53a
00000240: 29ba 5b39 3b3f 2cba 9155 42b9 206a 9fba
00000250: 0535 c439 5b96 5a3a 5a4d 8c3a 854a 6539
00000260: f7f6 133a 6f6c cfb9 928a a939 13eb fdb9
00000270: 428a a3b9 bfb3 f4b8 417c 353a 0aa3 7eba
00000280: 27bb 97b9 70a0 82b9 bcd3 eab7 1e8e 8839
00000290: 38ca 4e39 0022 1ab8 ae2a 6eba ba5b a039
000002a0: 060b dd39 0ae0 deba be87 c6b9 7e71 afba
000002b0: c0a7 b8b9 957e 1eba 05ca 853a e6ac 043a
000002c0: 3d3b 59b9 565c 13ba 8873 6a39 245d c839
000002d0: f765 99ba 2209 2739 d0e7 44ba 8097 2fb7
000002e0: 5b54 c7ba ffc2 71b9 8037 5c36 e852 20b9
000002f0: 233f 0c3a ce68 06bb b4c5 bb38 a1ed 07b8
00000300: e5cf a63a e00d 9539 a902 bcb9 f5a0 86b9
00000310: 6c79 3138 1a8f b13a 820b 0bba db5f 14b8
00000320: c893 463a 6a56 2d3a 969c 97ba 20e6 0fba
00000330: ea41 1939 02bf f839 2671 8fba 61e3 7cba
00000340: 0f91 3cba 957c 2939 5c6f e338 961b d4b9
00000350: 95db 68ba 9383 04bb e06f 0f3a 7f36 44ba
00000360: 1c5c 96b8 aa18 73ba 1660 9639 ee31 9cb9
00000370: 9c17 dc39 1a08 3c3a ef8b 9b3a d2e7 713a
00000380: 8e8d 86b9 10a3 1b38 91d3 cbb9 e4d6 f5b9
00000390: 397e 95ba a38f 2238 3bdb 21ba b75c 6639
000003a0: 495f b3b9 ead5 8339 81a4 5bba 4670 4aba
000003b0: 5204 3f3a 0c4d cab9 7990 6bbb 14b8 83b9
000003c0: 3884 60ba c988 36ba 7a2b c7b9 a61a b739
000003d0: 3d3b 5f38 f7e5 2bb9 c480 84ba 304f 22b9
000003e0: c8f4 843a 6ac9 07ba 3861 d039 008e dd37
000003f0: fac2 c3b8 abf9 04ba d635 86ba c0e4 e0b9
