lightning_logs/version_24/checkpoints/epoch=399-step=3200.ckpt (torch, 464377 bytes, 23 tensors)

model.0.weight f4 [1024]
0	0x3f81c0a0	1.013691
1	0x3f8396a5	1.0280348
2	0x3f814750	1.0099888
3	0x3f850558	1.0392256
4	0x3f81f758	1.0153608
5	0x3f80eae5	1.0071684
6	0x3f7ff838	0.99988127
7	0x3f81872d	1.0119377
8	0x3f84335d	1.0328175
9	0x3f82b2db	1.0210832
10	0x3f848de3	1.03558
11	0x3f84b1a5	1.0366713
12	0x3f87901b	1.0590852
13	0x3f817be4	1.0115933
14	0x3f85cb54	1.0452676
15	0x3f81b1ec	1.0132422
16	0x3f81e245	1.0147177
17	0x3f84d7fd	1.0378414
18	0x3f8094d2	1.0045416
19	0x3f8461d2	1.0342352
20	0x3f843c85	1.0330969
21	0x3f82b854	1.0212502
22	0x3f817e96	1.0116756
23	0x3f84c1ac	1.0371604
24	0x3f836f0f	1.0268267
25	0x3f845170	1.0337353
26	0x3f80cec6	1.0063102
27	0x3f81efe5	1.0151335
28	0x3f8497b1	1.0358793
29	0x3f809af8	1.0047293
30	0x3f801802	1.0007327
31	0x3f8413be	1.0318525
32	0x3f856c85	1.0423743
33	0x3f83f8e7	1.0310334
34	0x3f7eabdc	0.99480987
35	0x3f825558	1.0182295
36	0x3f8521b8	1.0400915
37	0x3f862c50	1.0482273
38	0x3f7fe4ca	0.9995848
39	0x3f81cdc5	1.0140921
40	0x3f813646	1.0094688
41	0x3f81f828	1.0153856
42	0x3f7feb8f	0.9996881
43	0x3f81fcc1	1.0155259
44	0x3f8105b1	1.0079862
45	0x3f7d3bb8	0.9891925
46	0x3f7c894a	0.98646986
47	0x3f81d99c	1.0144534
48	0x3f801a77	1.0008076
49	0x3f8468fb	1.0344537
50	0x3f81145e	1.008434
51	0x3f81a9f0	1.0129986
52	0x3f83ab5f	1.0286673
53	0x3f81968b	1.0124067
54	0x3f82f929	1.0232288
55	0x3f7ed380	0.99541473
56	0x3f80f0f8	1.0073538
57	0x3f81922d	1.0122734
58	0x3f813ace	1.0096071
59	0x3f841f74	1.0322099
60	0x3f81be5a	1.0136216
61	0x3f820925	1.0159041
62	0x3f81100f	1.0083026
63	0x3f835168	1.0259218
64	0x3f81c585	1.0138403
65	0x3f83b9af	1.0291041
66	0x3f835bb4	1.026236
67	0x3f7f8998	0.99819326
68	0x3f84e942	1.0383685
69	0x3f827911	1.0193197
70	0x3f80175a	1.0007126
71	0x3f83d364	1.0298886
72	0x3f823274	1.0171647
73	0x3f8027d9	1.001216
74	0x3f83f1d1	1.0308172
75	0x3f834ff8	1.025878
76	0x3f7e8fa6	0.9943794
77	0x3f845539	1.0338508
78	0x3f8178c9	1.0114986
79	0x3f820c0d	1.0159928
80	0x3f82375f	1.0173148
81	0x3f7d9d86	0.99068487
82	0x3f817061	1.011242
83	0x3f825706	1.0182807
84	0x3f837ac0	1.0271835
85	0x3f834603	1.0255741
86	0x3f830775	1.0236651
87	0x3f80bc37	1.0057439
88	0x3f81cc80	1.0140533
89	0x3f810a80	1.0081329
90	0x3f7d62a3	0.9897863
91	0x3f80c4eb	1.0060095
92	0x3f82cdcc	1.0219054
93	0x3f7efc07	0.99603313
94	0x3f82f76f	1.0231761
95	0x3f835d8d	1.0262924
96	0x3f82de8e	1.0224168
97	0x3f839c36	1.0282047
98	0x3f820975	1.0159136
99	0x3f7f53eb	0.99737424
100	0x3f810a5c	1.0081286
101	0x3f806393	1.0030388
102	0x3f849eed	1.0361
103	0x3f8297d8	1.0202589
104	0x3f7e9ad2	0.9945499
105	0x3f83222c	1.0244803
106	0x3f82a742	1.0207293
107	0x3f835569	1.026044
108	0x3f81b4bf	1.0133284
109	0x3f84258d	1.032396
110	0x3f814f03	1.0102237
111	0x3f81bea2	1.0136302
112	0x3f80d2e8	1.0064363
113	0x3f880475	1.062636
114	0x3f7e62b8	0.9936938
115	0x3f7ff6b0	0.9998579
116	0x3f8c9aef	1.0984782
117	0x3f826949	1.018838
118	0x3f7e5993	0.9935543
119	0x3f8479f4	1.0349717
120	0x3f828108	1.0195627
121	0x3f7f4ffd	0.9973143
122	0x3f820991	1.015917
123	0x3f834471	1.0255262
124	0x3f87f3eb	1.0621313
125	0x3f81d10d	1.0141922
126	0x3f846b57	1.0345258
127	0x3f843737	1.032935
128	0x3f822bc4	1.0169606
129	0x3f80be43	1.0058063
130	0x3f82942f	1.0201472
131	0x3f86f115	1.0542322
132	0x3f806988	1.0032206
133	0x3f821bcb	1.0164732
134	0x3f819444	1.0123372
135	0x3f8296a8	1.0202227
136	0x3f7d9390	0.9905329
137	0x3f8662e9	1.0498935
138	0x3f813817	1.0095242
139	0x3f819ff0	1.0126934
140	0x3f80bd15	1.0057703
141	0x3f81dd69	1.0145694
142	0x3f80386e	1.0017221
143	0x3f7f4c63	0.9972593
144	0x3f7cbb09	0.98722893
145	0x3f816d6c	1.0111518
146	0x3f81898c	1.0120101
147	0x3f7d14e6	0.98860013
148	0x3f7f7896	0.99793375
149	0x3f830cbd	1.0238262
150	0x3f837a30	1.0271664
151	0x3f8227e2	1.0168421
152	0x3f80a9b9	1.0051795
153	0x3f81d93d	1.0144421
154	0x3f8178da	1.0115006
155	0x3f822f02	1.0170596
156	0x3f839a19	1.0281402
157	0x3f817c43	1.0116047
158	0x3f821c95	1.0164973
159	0x3f867bfd	1.0506588
160	0x3f82744b	1.019174
161	0x3f82e46d	1.022596
162	0x3f808134	1.003943
163	0x3f836c02	1.0267336
164	0x3f826828	1.0188036
165	0x3f7f59ac	0.99746203
166	0x3f812a4e	1.0091035
167	0x3f8745ae	1.056814
168	0x3f812796	1.0090206
169	0x3f831106	1.023957
170	0x3f82696a	1.018842
171	0x3f7fc243	0.99905795
172	0x3f8000d5	1.0000254
173	0x3f81f9d9	1.0154372
174	0x3f7f3e3a	0.99704325
175	0x3f85074e	1.0392854
176	0x3f821007	1.0161141
177	0x3f829c99	1.020404
178	0x3f830b8f	1.0237902
179	0x3f828dad	1.0199486
180	0x3f8381d2	1.0273993
181	0x3f82577a	1.0182946
182	0x3f839652	1.0280249
183	0x3f84bb86	1.0369728
184	0x3f818395	1.0118281
185	0x3f81855b	1.0118822
186	0x3f817499	1.0113708
187	0x3f851b77	1.0399007
188	0x3f829811	1.0202657
189	0x3f81c604	1.0138555
190	0x3f819b76	1.0125568
191	0x3f840477	1.0313863
192	0x3f821e85	1.0165564
193	0x3f81c2a3	1.0137523
194	0x3f837b8d	1.027208
195	0x3f83a97e	1.02861
196	0x3f8383d0	1.0274601
197	0x3f82088b	1.0158857
198	0x3f810a0e	1.0081193
199	0x3f812a71	1.0091077
200	0x3f82c61d	1.0216709
201	0x3f852e4b	1.0404752
202	0x3f870c10	1.0550556
203	0x3f83b70b	1.0290235
204	0x3f80e9d8	1.0071363
205	0x3f85e3d8	1.0460157
206	0x3f826b4f	1.0188998
207	0x3f8005e4	1.0001798
208	0x3f8241c1	1.0176316
209	0x3f811e8d	1.0087448
210	0x3f81410f	1.0097979
211	0x3f84319f	1.0327643
212	0x3f801f09	1.0009471
213	0x3f871e49	1.0556117
214	0x3f8233da	1.0172074
215	0x3f88437b	1.0645593
216	0x3f81fd4d	1.0155426
217	0x3f848a0e	1.0354631
218	0x3f81ff04	1.015595
219	0x3f838532	1.0275023
220	0x3f80a605	1.0050665
221	0x3f838302	1.0274355
222	0x3f7fb8e4	0.99891496
223	0x3f830a2b	1.0237478
224	0x3f81b687	1.0133828
225	0x3f80e2c2	1.0069201
226	0x3f84b092	1.0366385
227	0x3f85b691	1.044634
228	0x3f847003	1.0346683
229	0x3f834d98	1.0258055
230	0x3f829709	1.0202342
231	0x3f80801c	1.0039096
232	0x3f806fe4	1.0034146
233	0x3f8537d4	1.0407662
234	0x3f806fc9	1.0034114
235	0x3f823aaf	1.0174159
236	0x3f810230	1.0078793
237	0x3f823ae0	1.0174217
238	0x3f85d3f7	1.0455312
239	0x3f843877	1.0329732
240	0x3f82bd4b	1.0214018
241	0x3f808f6a	1.0043766
242	0x3f8161d0	1.0107975
243	0x3f7ef3ee	0.9959096
244	0x3f81c032	1.0136778
245	0x3f81a37e	1.0128019
246	0x3f8147ca	1.0100033
247	0x3f81a891	1.0129567
248	0x3f80cc89	1.0062419
249	0x3f81757e	1.0113981
250	0x3f83caed	1.0296303
251	0x3f80f605	1.0075079
252	0x3f84c437	1.037238
253	0x3f7f8dca	0.9982573
254	0x3f823da2	1.0175059
255	0x3f82cc97	1.0218686

model.0.bias f4 [1024]
0	0xbc927f31	-0.017882915
1	0x3c6a387a	0.014295692
2	0x3c95005a	0.018188644
3	0xbd218f9f	-0.03944361
4	0x3d1ebd7e	0.038754933
5	0xbd093566	-0.03349819
6	0x3d372461	0.044712428
7	0xbbb7d39c	-0.0056099426
8	0x3ba7118f	0.0050985287
9	0x3ceeea61	0.029164495
10	0x3d239f9f	0.03994715
11	0x3a46ef22	0.0007588734
12	0x3d30764d	0.04308157
13	0x3a5da38a	0.000845485
14	0x3ca3e4bc	0.02000653
15	0xbc846c86	-0.01616503
16	0x3bec82fa	0.007217762
17	0xbd48d4d0	-0.04903108
18	0xbd224277	-0.039614167
19	0xbcaa3bb6	-0.020780426
20	0x3c7b5317	0.015339634
21	0x3cadc0ed	0.021210158
22	0xbcad4cc9	-0.021154778
23	0x3c8e243a	0.017351259
24	0x3bad3387	0.0052856836
25	0x3ceaf351	0.028680475
26	0xbd0e8bf9	-0.034801457
27	0xbc7283ac	-0.014801901
28	0x3d303a4d	0.04302435
29	0x3cea9d1d	0.02863937
30	0xbcc92484	-0.024553545
31	0x3a25b4d2	0.0006321195
32	0x3d99bb7c	0.07506463
33	0x3cb78ea4	0.022406884
34	0xbc6885ad	-0.014192027
35	0x3cd2e65e	0.025744613
36	0x3da4646f	0.08026969
37	0xbd1ff974	-0.039056256
38	0x3cb6b019	0.022300767
39	0x3d5ceaa0	0.053934693
40	0x3d5b6e17	0.053571787
41	0xbd4ff525	-0.050770897
42	0xbc8d6415	-0.017259637
43	0x3d43615c	0.04770027
44	0x3bb7dbbf	0.0056109126
45	0xbcd4f22d	-0.025994385
46	0xbce51cd1	-0.027967842
47	0x3c320707	0.010865933
48	0x3c109abb	0.008825953
49	0x3ce67879	0.028133618
50	0xbbb8fa22	-0.0056450525
51	0xbcbabc67	-0.022794915
52	0x3cee853b	0.029116264
53	0x3cbafba7	0.022825075
54	0x3d162949	0.036660466
55	0xbcb25156	-0.0217673
56	0xbca2d784	-0.019878156
57	0xbc810726	-0.015750479
58	0xbbab34a4	-0.005224781
59	0xbd1da56a	-0.03848783
60	0x3cdbf83e	0.02685177
61	0xbb6e5adb	-0.0036370072
62	0x3c9f7555	0.019465128
63	0xbcbb1bcd	-0.022840405
64	0x3bd2eda6	0.0064370213
65	0xbd33b21d	-0.043871034
66	0x3d75a65e	0.059973113
67	0x3a590ff1	0.00082802685
68	0xbd0ff701	-0.03514767
69	0x3b1fb0d8	0.0024366882
70	0xbb29e399	-0.0025923012
71	0x3d5bd3e5	0.053668875
72	0xbcd638b5	-0.026150087
73	0xbc31e9b0	-0.010858938
74	0x3d10a8be	0.035317175
75	0x3d450eca	0.048109807
76	0x3d2c17af	0.042014774
77	0xbc9d314d	-0.019188548
78	0x3d02a08c	0.03189139
79	0xbd2a432f	-0.041567978
80	0xbd0992e0	-0.033587337
81	0x3c099499	0.008397245
82	0x3d32f0c5	0.043686647
83	0xbc7a26fd	-0.015268085
84	0x3d477e61	0.04870451
85	0xbcec1fa1	-0.028823676
86	0xbbf65586	-0.0075175194
87	0x3c1767f1	0.00924109
88	0xbc75669e	-0.014978079
89	0x3ce6f6fd	0.028193945
90	0xbc7b885f	-0.015352338
91	0x3d275d6c	0.04086058
92	0xbc8d5fa1	-0.017257513
93	0xbc71d2f2	-0.014759766
94	0x3d6aac39	0.05729315
95	0xbd0f4852	-0.03498108
96	0x3d3b5850	0.04573852
97	0xbcb2bc27	-0.021818234
98	0x3cfbb807	0.0307274
99	0x3d2f4d5b	0.04279838
100	0xbb78a3d0	-0.0037939437
101	0x3cb90fd3	0.022590553
102	0xbd39c5f0	-0.045354784
103	0x3ce61459	0.028085874
104	0x3c98d6c6	0.0186571
105	0xbc978359	-0.018495249
106	0xbca5698b	-0.020191928
107	0xbca983d1	-0.020692738
108	0xba6340cc	-0.0008669018
109	0x3a587471	0.0008257097
110	0x3b829a6b	0.003985693
111	0xbd046217	-0.03232011
112	0x3bd18863	0.0063944324
113	0xbcf0af14	-0.029380359
114	0x3c8afc72	0.016966078
115	0xbc29b0e0	-0.010357112
116	0x3d48b382	0.048999317
117	0xbc616f4c	-0.013759445
118	0xbc0ec36d	-0.008713585
119	0xbcac60df	-0.021042285
120	0xbcbfc1f6	-0.023407917
121	0xbc82a853	-0.015949404
122	0xbd6d49f3	-0.05793185
123	0xbd79965c	-0.06093441
124	0x3d6cb713	0.05779178
125	0x3ad3ba9e	0.0016153639
126	0x3d225dea	0.039640345
127	0x3d0e3f56	0.03472837
128	0x3d1d6f98	0.038436502
129	0xbcff8f70	-0.031196326
130	0xbd1d6f1d	-0.038436044
131	0xbd98b745	-0.07456831
132	0xbcb26775	-0.021777848
133	0xba788d19	-0.00094814744
134	0x3bac9a44	0.0052674133
135	0xbb1dfbc4	-0.0024106363
136	0x3cbdf79c	0.023189358
137	0xbd617d00	-0.05505085
138	0xbd456bf3	-0.04819865
139	0xbc961f9b	-0.018325618
140	0x3c28ade9	0.01029537
141	0x3c4522f6	0.012032261
142	0x3d441a41	0.0478766
143	0xbb113995	-0.0022159566
144	0x3c9d8d24	0.01923234
145	0xbab77248	-0.001399585
146	0xbd7b31b6	-0.061326705
147	0xbbe3134f	-0.006929792
148	0xbbeb3c4c	-0.007178819
149	0xbd50fc05	-0.051021595
150	0xbc2b9311	-0.010472075
151	0xbcd08706	-0.02545501
152	0x3cc7301c	0.024314933
153	0xbb9fdb46	-0.0048784344
154	0xbc85f6a9	-0.016352968
155	0xbccee50e	-0.025255706
156	0x3d09f972	0.033685155
157	0x3d153075	0.036423165
158	0x3c779c97	0.0151130175
159	0x3ccc9b00	0.024976254
160	0x3d220bd7	0.039562073
161	0xbd42c0ca	-0.04754714
162	0xbcee3f3f	-0.029082892
163	0xbb59bf20	-0.0033225492
164	0xbcb7dbfc	-0.022443764
165	0xbbc461ff	-0.0059931274
166	0xbcd15cc3	-0.025556928
167	0xbd1515e3	-0.036397826
168	0xbc080d24	-0.008303914
169	0xbcebccfb	-0.028784266
170	0x3c15edb1	0.009150908
171	0xbcada299	-0.021195697
172	0xbd06887a	-0.032844998
173	0x3cef429d	0.029206568
174	0xbb8f5f50	-0.004375376
175	0xbd556506	-0.052098297
176	0xbb36e50d	-0.002790752
177	0xbc1c33f5	-0.009533872
178	0xbcd53586	-0.026026499
179	0xbd86c4d3	-0.0658051
180	0x3d509021	0.050918702
181	0x3c6263e4	0.013817761
182	0xbcc06aff	-0.02348852
183	0xbc064c12	-0.0081968475
184	0x3ce82465	0.028337667
185	0xbc8370a5	-0.016044924
186	0x3bc305ff	0.0059516425
187	0xbd08d28c	-0.03340392
188	0x3cd3a366	0.02583475
189	0x3c1a729a	0.009426737
190	0xbd27064c	-0.04077749
191	0xbc3934c9	-0.011304089
192	0xbadece90	-0.0016998816
193	0xbc9546f0	-0.018222302
194	0x3d0d642d	0.034519363
195	0x3c2603de	0.010132758
196	0x3b1b4435	0.0023691778
197	0xbcfb1f07	-0.030654443
198	0x3d47fb22	0.048823483
199	0x3d30b41d	0.04314052
200	0x3c942850	0.018085629
201	0x3cb2a40f	0.021806745
202	0xbd40daa4	-0.047083512
203	0xbb0dc12f	-0.002163004
204	0x3d67535a	0.056475975
205	0xbd2fc563	-0.042912852
206	0xbcdfb8e0	-0.027309835
207	0x3c81cdea	0.015845258
208	0xbc39c513	-0.01133849
209	0xbce00564	-0.02734632
210	0xbd09bb18	-0.033625692
211	0x3d06a963	0.032876384
212	0xbb96446b	-0.004585793
213	0xbda0c657	-0.0785033
214	0x3c2ac1c5	0.010422175
215	0xbd8b3aa3	-0.067982934
216	0xbd09b6ca	-0.033621587
217	0x3cf630c5	0.030052552
218	0xbd287fa1	-0.04113734
219	0xbd4a593a	-0.0494015
220	0xbb6c93eb	-0.0036098908
221	0x3d50e335	0.05099793
222	0xbc3601aa	-0.011108795
223	0x3c5f45e1	0.0136275
224	0x3d309e8c	0.043119952
225	0x3c8450f3	0.01615188
226	0x3d46e7f8	0.048561066
227	0x3d5b79f6	0.053583108
228	0x3d23bd56	0.039975487
229	0x3ca2dfb1	0.019882055
230	0x3d19954a	0.03749589
231	0xbbd07f1b	-0.0063628084
232	0x3ccf27be	0.025287505
233	0xbd514061	-0.051086787
234	0xbc34230b	-0.010994683
235	0x3c8952f5	0.01676319
236	0xbc250889	-0.010072836
237	0xbc3aa462	-0.011391731
238	0x3d37f603	0.04491235
239	0x3b81359f	0.0039431597
240	0xbb7be74f	-0.0038437431
241	0x3be41288	0.006960217
242	0xbc9f6961	-0.019459428
243	0x3cd38bdd	0.025823528
244	0xbd4c6010	-0.0498963
245	0x3d1fce22	0.039014943
246	0xbd2cb776	-0.04216715
247	0xbc1b97ec	-0.00949667
248	0x3cdce873	0.02696631
249	0xbca4f8d4	-0.020138182
250	0xbc31fb47	-0.010863132
251	0x3bea3e46	0.007148537
252	0xbd1320fe	-0.035920136
253	0x3c703e01	0.01466322
254	0xbd44eab2	-0.048075385
255	0x3d304225	0.04303183

model.0.running_mean f4 [1024]
0	0xbd6b2142	-0.057404764
1	0xbc8a3cd8	-0.016874716
2	0x3bed2595	0.007237146
3	0xbcd9f3ce	-0.026605513
4	0x3b19b3bb	0.0023453075
5	0xbc64a6b3	-0.01395576
6	0x3d2478ec	0.040154383
7	0xbb9a8084	-0.0047150273
8	0xbb872d5d	-0.004125281
9	0x3d076f88	0.03306535
10	0xbc3d7899	-0.011564397
11	0x3ba73552	0.005102792
12	0xbb89ea58	-0.004208844
13	0xbc44e29d	-0.012016919
14	0x3b93eedc	0.0045145582
15	0x3c362dfe	0.011119364
16	0xbd13d041	-0.03608728
17	0xbccda300	-0.025102139
18	0xb92cb14f	-0.00016469251
19	0x3c014569	0.007890084
20	0x3c80cb95	0.015722075
21	0xba396cbc	-0.00070733926
22	0x3c9dbbb8	0.01925455
23	0x3d927aea	0.0715235
24	0x3c9ced38	0.019156083
25	0x3cf10df6	0.029425602
26	0xbcce7d66	-0.025206279
27	0x3c38cb6c	0.011278968
28	0xbbc21a57	-0.00592355
29	0xbc36f5ee	-0.011167033
30	0x3cd16f46	0.025565755
31	0xbc827d16	-0.015928786
32	0xbbfde73a	-0.0077485116
33	0x3c23185a	0.009954536
34	0xbb567286	-0.003272207
35	0x3c775fa0	0.015098482
36	0xbc29d2ab	-0.010365169
37	0x3bd9339c	0.006628467
38	0xbce7debc	-0.02830445
39	0xbb9df4fe	-0.004820465
40	0x3c2c03f8	0.010498993
41	0x3cce62e4	0.02519364
42	0xb9cfafe7	-0.00039613174
43	0xbd3cc65f	-0.04608762
44	0xbcc671d5	-0.024224201
45	0x3b341826	0.0027480214
46	0xb8c03860	-9.165774e-05
47	0xbcc6ce7c	-0.024268381
48	0xbc482062	-0.012214752
49	0x3da9e188	0.0829497
50	0xbcd18efb	-0.025580874
51	0xbc8e1a02	-0.017346386
52	0xbc9a7abe	-0.018857356
53	0x3c189255	0.009312232
54	0x3c18dc0e	0.009329809
55	0xbc1b5955	-0.009481748
56	0x3d0503fc	0.032474503
57	0x3c19a155	0.009376843
58	0xbbcf7369	-0.0063308966
59	0xbc349bb5	-0.011023452
60	0x3c26bfc6	0.010177558
61	0xbcb5fe7e	-0.022216078
62	0xbc4523a9	-0.012032428
63	0x3cbd485a	0.023105789
64	0x3a2d5276	0.0006611714
65	0xbc6e946c	-0.014561754
66	0x3b9c5257	0.004770558
67	0x3bdf0dc9	0.0068070632
68	0x39ffe529	0.00048808128
69	0x3bcc8a91	0.0062421043
70	0x3d1856a6	0.03719201
71	0x3c3d08c5	0.011537735
72	0xbc865f1d	-0.016402775
73	0x3d30e606	0.043188117
74	0x3cf38cda	0.02973025
75	0xbc270c87	-0.010195858
76	0x3cd5c4c7	0.026094807
77	0xbc93e11b	-0.018051675
78	0x3c8d5bd5	0.017255703
79	0xbc8f7e13	-0.017516172
80	0xbc121b71	-0.008917675
81	0x3ce3ab26	0.02779157
82	0xbd517c94	-0.051144198
83	0x3caf1bac	0.0213755
84	0xbc84ec9a	-0.016226102
85	0xbd2409ac	-0.040048286
86	0x3cc0abaa	0.023519356
87	0xbc8db25b	-0.01729696
88	0x3c487ace	0.01223631
89	0x3cb63535	0.022242168
90	0xbcb7a35d	-0.022416765
91	0xbbc0d62c	-0.0058849063
92	0xbc425fc0	-0.011863649
93	0x3c5b5440	0.013386786
94	0x3c48b2da	0.012249673
95	0x3ca1ce80	0.019751787
96	0x3c1e0567	0.009644843
97	0x3d6d4c94	0.05793436
98	0xbc08009d	-0.0083009275
99	0x3cbeeeae	0.02330717
100	0x3c65de2c	0.014030021
101	0x3cd3e221	0.025864663
102	0xbb071c62	-0.0020616283
103	0x3c3f650e	0.011681808
104	0x3d9ab87c	0.07554719
105	0x3c86463c	0.016390912
106	0x3b3e7e84	0.0029067108
107	0xbcb9957c	-0.022654288
108	0xbcfb345d	-0.030664617
109	0x3d4d3ba6	0.050105713
110	0xbc374110	-0.011184946
111	0x3b15478c	0.002277824
112	0x3d86aad1	0.065755494
113	0xbb7a6a06	-0.0038210168
114	0xbba76573	-0.0051085292
115	0x3c906537	0.017626388
116	0xbae2b9dd	-0.0017297823
117	0xbbd0ef0c	-0.006376153
118	0x3a1ca520	0.0005975533
119	0xbbe03320	-0.006842032
120	0xbcae47ec	-0.02127453
121	0xbc0df172	-0.008663522
122	0xbc82a0f3	-0.015945887
123	0xbc4c8f36	-0.012485316
124	0xbd4a1a2d	-0.04934137
125	0xbcb1d095	-0.021705905
126	0xbc2c591f	-0.010519295
127	0xbca85f5b	-0.020553282
128	0x3cad1ad5	0.021130959
129	0xbca2c866	-0.019870948
130	0xbd839337	-0.064245634
131	0xbc698b71	-0.014254437
132	0x3c856acd	0.016286278
133	0xbb84940f	-0.0040459703
134	0xb9fa6a2d	-0.00047762823
135	0xbce42df3	-0.027853942
136	0x3d2ea020	0.042633176
137	0x3cb6e161	0.022324266
138	0xbb397fac	-0.0028304858
139	0xbcb49b90	-0.022046834
140	0x3b688394	0.0035478817
141	0xbd2bbf81	-0.04193068
142	0xbc2e46a8	-0.010636963
143	0xbbd5e571	-0.0065275957
144	0xbb45a22a	-0.0030156472
145	0xbc17dfe0	-0.009269685
146	0x3d36b888	0.044609576
147	0xbcbcd975	-0.02305291
148	0xbd075077	-0.03303572
149	0x3aba7305	0.0014224952
150	0xbc11735b	-0.008877601
151	0x39822234	0.00024821016
152	0x3be26788	0.0069093145
153	0xba017cb9	-0.00049395446
154	0x3c823cb2	0.015898082
155	0x3cdbf57f	0.02685046
156	0x3ce48000	0.027893066
157	0xbc07cbc2	-0.008288326
158	0xbb9cbdd1	-0.00478337
159	0x3bf39926	0.007434028
160	0x3ad0a690	0.001591878
161	0x3ce32a01	0.02772999
162	0x3c810d05	0.015753279
163	0x3b8f65d8	0.0043761544
164	0xbba34b0a	-0.0049833106
165	0xbbb35b13	-0.0054735034
166	0xbd633d3a	-0.055478312
167	0xbbde75cd	-0.0067889453
168	0xbd1b27bd	-0.037879694
169	0x3cd6e479	0.026231991
170	0x3ceb6024	0.028732367
171	0x3cfc61d7	0.030808372
172	0x3cd1df99	0.025619315
173	0xbbfd9e18	-0.0077397935
174	0x3cb8083f	0.02246487
175	0x3c31e809	0.010858544
176	0xbc3e356e	-0.011609418
177	0xbc577ae1	-0.013151855
178	0xbc94e824	-0.0181771
179	0xbb188a78	-0.0023275893
180	0xbd01c27e	-0.031679623
181	0xbc80698d	-0.01567533
182	0xbbcb1046	-0.0061970083
183	0x3c32493a	0.010881716
184	0xbc336874	-0.010950197
185	0x3cc9f447	0.024652613
186	0x3d42cead	0.047560383
187	0xbc81ff09	-0.01586868
188	0xbc80130e	-0.015634086
189	0xbd078140	-0.033082247
190	0x3d18a564	0.037267104
191	0x3c42bfdf	0.011886566
192	0x3c640f28	0.013919629
193	0x3d03894c	0.03211336
194	0x3c3bc682	0.011460902
195	0x3c421071	0.01184474
196	0xbc1b641f	-0.00948432
197	0xbb7e6b7e	-0.0038821395
198	0x3ca7da1c	0.020489745
199	0x3d016a30	0.03159541
200	0x3bd2aa7f	0.006429016
201	0xbc4ed706	-0.012624508
202	0x3affabe9	0.0019506189
203	0xbcd05c60	-0.025434673
204	0xbcc82170	-0.024430007
205	0x3c13d04e	0.009021832
206	0xbc4b992b	-0.012426655
207	0xbc5bef0f	-0.013423695
208	0x3c9027f4	0.017597176
209	0xbc133b64	-0.008986328
210	0xbd06437f	-0.032779213
211	0xbcb54be9	-0.022130923
212	0x3c663759	0.014051282
213	0x3cd11a12	0.025525127
214	0x3be28b2a	0.0069135623
215	0xbc7623f4	-0.01502322
216	0x3c4c00e1	0.012451381
217	0x3ce0f4de	0.027460512
218	0xbbfac8e4	-0.0076533426
219	0xbbe67c46	-0.0070338575
220	0x3c18613b	0.009300525
221	0xbc9963a0	-0.018724263
222	0xbd4a9451	-0.04945785
223	0xbcb56e4d	-0.022147322
224	0x3cb1187b	0.021618119
225	0x3c5ea668	0.013589479
226	0x3b638fd1	0.0034723172
227	0xbca1cf03	-0.019752031
228	0x3b10f902	0.0022121076
229	0xbca24451	-0.019807966
230	0xbc11e18c	-0.008903872
231	0xbd03cfd7	-0.032180633
232	0xbb957ba3	-0.004561858
233	0xbcf11592	-0.02942923
234	0xbc3eb96a	-0.011640886
235	0xbc93c97f	-0.018040417
236	0xbcf8374d	-0.030299807
237	0x3d0e5746	0.0347512
238	0x3caf17b3	0.021373605
239	0xbc8c383d	-0.01711666
240	0x3d05c232	0.032655902
241	0xbac5b505	-0.0015083855
242	0xbbc6d8f0	-0.0060683414
243	0x3cca26b6	0.024676662
244	0xbcbc327c	-0.022973292
245	0x39377c96	0.00017498652
246	0x3c4350a8	0.011921085
247	0x3cb48efd	0.022040838
248	0x3a128d33	0.00055904983
249	0x3cdd8bdb	0.027044227
250	0xbc8d0efb	-0.017219057
251	0x3cc9d5c4	0.024638064
252	0x3ca00876	0.019535284
253	0x3ab9a9d3	0.0014164991
254	0x3c817372	0.015802119
255	0x3cb69b90	0.022290975

model.0.running_var f4 [1024]
0	0x3917b614	0.00014468312
1	0x3929ef20	0.00016206177
2	0x3912bc09	0.00013993694
3	0x3909af1a	0.00013130569
4	0x39279be2	0.00015984432
5	0x3934b400	0.00017233193
6	0x392811e5	0.00016028395
7	0x38f59f2f	0.000117121606
8	0x38f797dc	0.00011806164
9	0x3930f7eb	0.00016877025
10	0x393bda43	0.00017915019
11	0x3942af38	0.00018566556
12	0x39367afb	0.00017402686
13	0x390c08f9	0.00013354783
14	0x3928a1e3	0.00016082036
15	0x390016f1	0.00012215578
16	0x38de2ced	0.00010594153
17	0x39215ae4	0.00015388016
18	0x395ab799	0.00020858496
19	0x3920834f	0.00015307705
20	0x392c2203	0.00016415869
21	0x391bd7a1	0.0001486228
22	0x39075fc5	0.0001291028
23	0x394cb35d	0.00019521774
24	0x3902e207	0.00012481968
25	0x3922d4d2	0.00015528806
26	0x393d247e	0.00018038039
27	0x38f701f2	0.0001177824
28	0x392610f9	0.00015837316
29	0x39bd5292	0.0003611041
30	0x39810719	0.00024610086
31	0x393e580a	0.00018152609
32	0x39493537	0.00019188678
33	0x38f8b523	0.00011859301
34	0x39447d7d	0.00018738765
35	0x395d1a47	0.00021085991
36	0x390441cf	0.00012613017
37	0x38ae465d	8.310073e-05
38	0x390ac4f8	0.00013234082
39	0x3987e772	0.00025921647
40	0x39854667	0.0002542019
41	0x393be699	0.00017919614
42	0x3937fa69	0.00017545525
43	0x3909244e	0.00013078863
44	0x394082f2	0.00018359328
45	0x3970a274	0.00022948702
46	0x3981b462	0.00024739193
47	0x395b8277	0.0002093407
48	0x390917b4	0.00013074168
49	0x39b35036	0.00034201302
50	0x39760ee2	0.00023465932
51	0x39842c99	0.0002521023
52	0x393583d0	0.00017310609
53	0x395a0ea1	0.0002079555
54	0x390c09fc	0.0001335516
55	0x3906abd5	0.00012843248
56	0x39825590	0.0002485928
57	0x38d1cc6c	0.00010003973
58	0x390925d4	0.0001307943
59	0x3918214b	0.00014508252
60	0x39588d00	0.00020651892
61	0x39608467	0.00021411628
62	0x39878c9b	0.00025853966
63	0x39416560	0.0001844368
64	0x3906b902	0.00012848157
65	0x38da11be	0.00010398355
66	0x39567220	0.00020451145
67	0x39173a0a	0.00014422103
68	0x390d5f78	0.00013482373
69	0x392f0722	0.00016691958
70	0x39656949	0.00021878364
71	0x395de72b	0.00021162319
72	0x39529a79	0.00020084706
73	0x3943dd7f	0.00018679163
74	0x3941cbd7	0.0001848185
75	0x3951989a	0.00019988642
76	0x38dced81	0.00010534656
77	0x394327e7	0.00018611514
78	0x39237e53	0.00015591951
79	0x3958149d	0.00020607044
80	0x3953409c	0.00020146597
81	0x38eb61e9	0.000112239104
82	0x395ba828	0.0002094811
83	0x39173510	0.0001442025
84	0x39045b4e	0.00012622515
85	0x39a68ccc	0.0003176689
86	0x39301672	0.0001679303
87	0x397ff149	0.00024408581
88	0x39026020	0.00012433575
89	0x39871b02	0.0002576933
90	0x39cd272f	0.0003912984
91	0x394a93a2	0.00019319219
92	0x39053d06	0.00012706601
93	0x39610c0b	0.00021462158
94	0x392d3597	0.0001651853
95	0x393d378f	0.00018045142
96	0x39292928	0.00016132428
97	0x392b0453	0.00016309442
98	0x3938d10c	0.00017625483
99	0x39a654fc	0.00031725306
100	0x391b4b7c	0.00014810072
101	0x390c899b	0.00013402702
102	0x394f3a04	0.00019762671
103	0x39001116	0.00012213396
104	0x3a2f76ef	0.00066934427
105	0x39306c71	0.00016825066
106	0x3943bdb2	0.00018667316
107	0x397dc5bf	0.00024201626
108	0x39270f9a	0.00015932173
109	0x3925739a	0.00015778691
110	0x39360f67	0.0001736261
111	0x38fbf7d1	0.00012014772
112	0x3937c31a	0.00017524921
113	0x394ccd19	0.00019531361
114	0x39688bb7	0.00022177292
115	0x39869fd8	0.00025677565
116	0x38f7333d	0.00011787422
117	0x393ae5ec	0.00017823995
118	0x395ae6d6	0.00020876093
119	0x399f7672	0.00030415092
120	0x3963416a	0.00021672776
121	0x391d0121	0.00014973107
122	0x393a49ff	0.00017765908
123	0x3946a047	0.0001894246
124	0x391bb453	0.00014849128
125	0x38dc4106	0.00010502529
126	0x38cb4358	9.692338e-05
127	0x38eeb204	0.00011381882
128	0x39463eb0	0.00018906104
129	0x399ba110	0.00029683905
130	0x3924933a	0.00015695105
131	0x38c3baef	9.333144e-05
132	0x39527867	0.00020072014
133	0x39004a30	0.00012234668
134	0x39027ae2	0.00012443544
135	0x393aa9c9	0.00017801592
136	0x397e38b8	0.00024244457
137	0x39106f94	0.00013774476
138	0x3930c9a0	0.00016859779
139	0x39388b93	0.00017599603
140	0x390b84b7	0.00013305513
141	0x39210fd3	0.00015360051
142	0x3927826d	0.00015974948
143	0x392772d1	0.00015969134
144	0x39b17267	0.00033845307
145	0x397240a8	0.00023103005
146	0x394ee294	0.00019730098
147	0x3909b9f2	0.00013134608
148	0x399098ca	0.00027579657
149	0x39590166	0.00020695254
150	0x39774dc5	0.00023584727
151	0x392acbda	0.00016288404
152	0x3915c714	0.0001428391
153	0x3970e302	0.0002297275
154	0x38f6f230	0.00011775305
155	0x391d19c7	0.0001498229
156	0x391ae9a8	0.00014773628
157	0x390e0304	0.00013543299
158	0x399ead32	0.0003026515
159	0x3938792d	0.00017592749
160	0x391ff9c4	0.00015256467
161	0x39185c55	0.00014530246
162	0x38fa9c4c	0.000119500415
163	0x391be20c	0.00014866161
164	0x39082f9c	0.00012987707
165	0x38e693c6	0.000109947796
166	0x3a10dd3f	0.00055261323
167	0x3916f078	0.00014394696
168	0x39538ad0	0.0002017424
169	0x39475a20	0.00019011693
170	0x39166169	0.00014341403
171	0x39264b65	0.0001585908
172	0x393939be	0.00017664485
173	0x38efa37a	0.00011426858
174	0x39824cd7	0.00024852782
175	0x3954c6c3	0.0002029194
176	0x38f8ecba	0.00011869655
177	0x3918374f	0.00014516454
178	0x38f2ca58	0.00011577149
179	0x398a4384	0.00026371714
180	0x39304dc3	0.00016813636
181	0x397171db	0.00023025965
182	0x39887496	0.00026026805
183	0x394abca3	0.00019334494
184	0x39256932	0.00015774815
185	0x390f52ce	0.0001366839
186	0x3960f5f7	0.00021453934
187	0x392b538e	0.00016338957
188	0x3932062d	0.00016977703
189	0x3922ab19	0.00015513263
190	0x398d30f9	0.00026930103
191	0x39403f5a	0.00018334147
192	0x3976f989	0.00023553347
193	0x391b2a62	0.00014797741
194	0x39194f98	0.00014620868
195	0x396fcf1f	0.00022869975
196	0x3943f556	0.00018688044
197	0x392de0a6	0.00016582254
198	0x3935e16a	0.00017345478
199	0x3936271e	0.00017371445
200	0x391b960f	0.00014837853
201	0x392e58e9	0.00016627055
202	0x39493f8a	0.00019192524
203	0x39083302	0.00012988973
204	0x3915ae68	0.00014274719
205	0x3929699f	0.00016156443
206	0x39138ca8	0.00014071411
207	0x390ce7b2	0.00013437754
208	0x391578c2	0.00014254733
209	0x391b48dd	0.00014809096
210	0x39326b1e	0.00017015307
211	0x3908170c	0.00012978556
212	0x39080531	0.00012971905
213	0x393c83f6	0.00017978236
214	0x3a13788f	0.00056255696
215	0x38d8f7f6	0.00010345869
216	0x38f9b816	0.00011907534
217	0x39125793	0.00013956269
218	0x38d912ff	0.000103509046
219	0x395772c7	0.00020546756
220	0x3915ca8a	0.00014285199
221	0x3918efec	0.00014585227
222	0x3912f26c	0.00014013954
223	0x39573750	0.00020524603
224	0x39499274	0.00019223412
225	0x391b8a63	0.00014833505
226	0x38ed75a4	0.00011322953
227	0x38d7bf78	0.00010287663
228	0x38ebb8b1	0.00011240075
229	0x3919e6c8	0.0001467719
230	0x39122b60	0.00013939803
231	0x39ca84f3	0.00038627497
232	0x392cd78b	0.00016483494
233	0x39517fa7	0.00019979347
234	0x38d59e56	0.00010186124
235	0x38ed3932	0.00011311694
236	0x3937ca11	0.00017527516
237	0x391c9da6	0.00014936048
238	0x391b58e2	0.00014815063
239	0x390338c1	0.00012514276
240	0x390a13e7	0.0001316812
241	0x3914babe	0.00014183947
242	0x39518763	0.00019982229
243	0x39576a8e	0.00020543693
244	0x396a9bb1	0.00022373979
245	0x39fb808f	0.00047970234
246	0x390dd9d7	0.0001352796
247	0x38f8814a	0.000118496435
248	0x392e0689	0.00016596368
249	0x38f98b41	0.00011899183
250	0x39301e84	0.00016796036
251	0x390f33cb	0.00013656837
252	0x39397637	0.00017687013
253	0x38dd7957	0.000105607025
254	0x391d93b8	0.00015027716
255	0x39080baa	0.00012974316

model.1.weight f4 [32, 1024]
0	0xbbb709dc	-0.005585892
1	0x3c755b72	0.014975416
2	0xbc671a8b	-0.014105449
3	0x3a22a27d	0.0006204022
4	0x3d4a4779	0.049384568
5	0xbbe4b74c	-0.0069798585
6	0xbbf38683	-0.0074318065
7	0xbc8d8373	-0.017274594
8	0x3d0aef9a	0.033919908
9	0x3bd7db1a	0.0065873982
10	0x3d26e0cf	0.040741738
11	0x3cd725a5	0.026263067
12	0x3d83421c	0.06409094
13	0x3b20b17a	0.0024519847
14	0x3ca746b0	0.020419449
15	0x3c46a654	0.012124617
16	0x3c50e15a	0.0127490405
17	0xbcdd6f05	-0.027030477
18	0xbcc5aea7	-0.024131132
19	0x3c24b780	0.010053515
20	0xbc8d43bc	-0.017244212
21	0x3c6ab9f6	0.014326563
22	0xbccde36d	-0.02513286
23	0xbb44a909	-0.003000798
24	0xbb9e549c	-0.0048318636
25	0xbcd6f38a	-0.026239175
26	0x3b99ce0b	0.0046937517
27	0xbd5b791a	-0.05358229
28	0x3d29e529	0.04147831
29	0x3c836b5b	0.016042402
30	0xbc4caa54	-0.012491781
31	0x3d1049a1	0.035226468
32	0x3c9e3f67	0.019317342
33	0x3d381a94	0.044947222
34	0xbb2a460f	-0.00259817
35	0xbc96f62b	-0.018427929
36	0x3d401b87	0.046901252
37	0xbd8e177c	-0.06938073
38	0x3ccf9c78	0.025343165
39	0x3d0bae11	0.03410155
40	0x3cc52279	0.02406429
41	0xbd00ea40	-0.0314734
42	0x3c6bff57	0.0144041395
43	0x3cc6a63b	0.024249187
44	0x39b1a218	0.0003388084
45	0xbc9452e0	-0.018105924
46	0xbd0ebe21	-0.03484929
47	0xbb5df025	-0.003386506
48	0xbcc335aa	-0.0238293
49	0x3d182261	0.03714216
50	0x3c92b15d	0.017906839
51	0x3c159fa5	0.0091323005
52	0x3cfa86a7	0.030581785
53	0x3c9a7465	0.01885433
54	0x3cc63adf	0.024197994
55	0xbc007dba	-0.007842476
56	0x3c911196	0.017708581
57	0xbbf9645a	-0.00761084
58	0x3cd1947d	0.0255835
59	0xbc7de010	-0.015495315
60	0x3ce4f5ef	0.027949302
61	0xbbccfeaa	-0.0062559443
62	0x3cd8a5b1	0.026446195
63	0xbd3193d7	-0.04335388
64	0x3c435fd8	0.011924706
65	0xbd2aa2a6	-0.04165902
66	0x3c5074a3	0.012723121
67	0x3bc3174d	0.0059537054
68	0x3c621aa3	0.013800296
69	0x3bfc0b75	0.0076917955
70	0xbd012d4d	-0.031537343
71	0xbd161d83	-0.03664924
72	0xbcd787c6	-0.026309859
73	0x39c0df8c	0.0003678765
74	0x3d385d01	0.04501057
75	0x3d1f4c4d	0.038891125
76	0xbc60209c	-0.01367965
77	0xbc3d830c	-0.011566889
78	0x3c353181	0.011059166
79	0xbcef4dbb	-0.02921187
80	0x3ad290a4	0.0016064835
81	0xbb23a451	-0.0024969766
82	0x3ccfacac	0.025350891
83	0xbc932cd4	-0.017965712
84	0x3bdf80ff	0.0068207975
85	0xbb8c14a5	-0.004274922
86	0x3c9cab92	0.01912478
87	0x3966d2df	0.00022013065
88	0xbb43446d	-0.0029795424
89	0x3d1e1433	0.038593482
90	0xbcf1018c	-0.029419683
91	0xbcb400a6	-0.021972965
92	0x3d5454b7	0.051838603
93	0xbc68d5fc	-0.014211174
94	0x3ae41efd	0.0017404255
95	0xbd0e4b25	-0.034739632
96	0x3a57bd62	0.00082298194
97	0x3c153fb4	0.009109426
98	0x3c944d57	0.018103285
99	0xbca9b9df	-0.020718513
100	0xbca42e57	-0.020041628
101	0x39abb457	0.00032750025
102	0xbd63f3c7	-0.055652406
103	0xbc839a78	-0.016064867
104	0xbc913cb6	-0.017729145
105	0xbcb9f0a1	-0.022697749
106	0x3cf49601	0.029856684
107	0xbc6c08cf	-0.014406397
108	0xbbe57f13	-0.007003674
109	0xbd42312a	-0.047410168
110	0xbd03e2b4	-0.032198623
111	0xbc07fa45	-0.008299415
112	0x3b7eaf26	0.003886172
113	0xbd4dead9	-0.050272796
114	0xbb9047b5	-0.0044030794
115	0xbc976749	-0.018481867
116	0x3d4712ea	0.048602022
117	0xbd19b49e	-0.037525766
118	0xbbf724d0	-0.00754223
119	0xbd26a6de	-0.04068648
120	0xbd12860e	-0.035772376
121	0xbbf2317e	-0.007391154
122	0xbca4dd5f	-0.02012509
123	0xbd0b30c7	-0.033982065
124	0x3d5eeea0	0.05442679
125	0xbbcef574	-0.0063158814
126	0x3d65b016	0.05607613
127	0x3d17e5da	0.037084438
128	0xbd27cbca	-0.040965833
129	0x3caa47e4	0.020786233
130	0xbcc7ddbf	-0.024397729
131	0xbd466904	-0.048439994
132	0xbce0d698	-0.027446076
133	0xbd27db68	-0.040980726
134	0x3cb64447	0.022249354
135	0x3c3ac702	0.011399986
136	0x3c0a4c13	0.008440989
137	0xbd7d9c64	-0.061916724
138	0x3c75f44d	0.015011859
139	0xbcf0fefe	-0.029418465
140	0xbb8969f1	-0.0041935374
141	0x3c95802c	0.018249594
142	0x3a6c4d0e	0.00090141676
143	0x3cae5e30	0.021285146
144	0x3c8a9878	0.016918406
145	0xbcb95df6	-0.022627812
146	0x3ca3da52	0.020001564
147	0xbc82a4c2	-0.015947703
148	0xbb965249	-0.004587446
149	0xbd2258fe	-0.03963565
150	0x3c9d50d6	0.019203585
151	0xbcfb86b8	-0.030703887
152	0xba647f34	-0.00087164645
153	0xbb7c6785	-0.003851385
154	0xbb98be34	-0.004661346
155	0xbd255c52	-0.040371247
156	0x3ca8bf74	0.020599104
157	0xba4f3f30	-0.0007905839
158	0x3c54b86f	0.0129834255
159	0xbca2044e	-0.019777443
160	0x3cb38476	0.021913748
161	0xbc8067cf	-0.0156745
162	0xbd02439c	-0.03180276
163	0x3cc4aeb1	0.02400908
164	0x3c96ec37	0.018423183
165	0xbce4644f	-0.027879862
166	0xbc89b802	-0.016811375
167	0xbc162a0f	-0.009165301
168	0x3cdc787e	0.026912924
169	0xbc02794a	-0.007963488
170	0xbc0944af	-0.008378192
171	0xbc05cf1a	-0.008167053
172	0xbcaa5873	-0.020794129
173	0xbc58b58a	-0.013226876
174	0x3cd57c1e	0.02606016
175	0xbd3b32a0	-0.045702577
176	0x3c2e3f79	0.01063525
177	0x3cd87051	0.026420744
178	0x3c436c93	0.011927742
179	0xbc02c912	-0.007982509
180	0x3d2a51ec	0.041582033
181	0x3d3e7142	0.04649473
182	0xbaf4b9aa	-0.0018671055
183	0x3bd00ccf	0.006349183
184	0x3ca83e15	0.020537416
185	0xbbee8f05	-0.007280233
186	0x3c0ae836	0.008478215
187	0xbd0bff1a	-0.03417883
188	0x3c1b0f20	0.009464055
189	0x3cc9bcfa	0.024626244
190	0xbc71127e	-0.014713882
191	0xbd5f3ab1	-0.05449933
192	0xbbdbc000	-0.006706238
193	0xbc16781b	-0.009183909
194	0x3988e7ab	0.00026112547
195	0x3d0488e0	0.032357097
196	0xbce7fdad	-0.028319204
197	0xbc672a52	-0.014109211
198	0x3c0e96c2	0.008702936
199	0x3b67b3fb	0.003535508
200	0xbcaacae0	-0.020848691
201	0x3cbd1cdd	0.023085052
202	0xbd563289	-0.052294288
203	0xbd2b7384	-0.04185821
204	0xbc5bc211	-0.013412968
205	0x3c5082d4	0.012726504
206	0x3b6e3e2d	0.0036352978
207	0x3c8a8588	0.016909376
208	0xbc9824e0	-0.01857227
209	0xbc8568b0	-0.01628527
210	0xbc49e7b2	-0.012323307
211	0x3d656896	0.056007944
212	0x3bdcc584	0.006737413
213	0xbc9bb57a	-0.019007433
214	0x3ceb8633	0.028750515
215	0xbcdda5fe	-0.02705669
216	0xbc227fda	-0.0099181775
217	0x3d425d87	0.047452476
218	0xbccb2007	-0.024795545
219	0x39fa4a8f	0.00047739266
220	0xbc841ccc	-0.016127013
221	0x3cb06bd2	0.021535788
222	0x3ca6b772	0.020351145
223	0x3d232a71	0.039835397
224	0xbc96a9d8	-0.018391535
225	0xbca19748	-0.019725457
226	0xbcd5acd4	-0.026083387
227	0x3cf420c4	0.02980078
228	0xb9e9d373	-0.00044598765
229	0x3cd0ec2a	0.025503237
230	0x3d487bc6	0.048946165
231	0x3c893cd1	0.016752632
232	0xbcbd0af0	-0.023076504
233	0xbd73edca	-0.059552945
234	0xbb3cdbe8	-0.0028817598
235	0xbd304020	-0.043029904
236	0x3b4488e7	0.0029988827
237	0xbb24cef3	-0.0025147765
238	0xbab8da97	-0.0014103231
239	0xbd630daa	-0.055432953
240	0xbc1ab016	-0.009441396
241	0xbd114beb	-0.03547279
242	0xbcbccd19	-0.023047017
243	0x3cdf865d	0.02728575
244	0xbcf679b3	-0.030087328
245	0x3c8d8e97	0.017279906
246	0xbccc1520	-0.024912417
247	0xbc709a91	-0.014685289
248	0x3b22fae9	0.0024868792
249	0xbce51c16	-0.027967494
250	0xbc198922	-0.009371074
251	0xbc02c4a5	-0.007981454
252	0x3c84797c	0.01617121
253	0xbd3c841f	-0.046024438
254	0x3ca310fa	0.019905556
255	0x3c5266ef	0.012841924

model.1.bias f4 [32]
0	0x3d071ffb	0.032989483
1	0x3c53b7ba	0.012922222
2	0xbc86f528	-0.016474321
3	0xbd1b8b53	-0.037974667
4	0xbd13b340	-0.036059618
5	0xbcc128ca	-0.02357902
6	0xbd1e383d	-0.03862785
7	0x3d7ba123	0.06143297
8	0x3c1ad66b	0.009450535
9	0xbc2d5d01	-0.010581256
10	0x3b7fec6e	0.0039050835
11	0x3acf42e5	0.0015812783
12	0xbbb698d1	-0.0055724164
13	0xbb1b6500	-0.0023711324
14	0xbcddfe0b	-0.027098676
15	0xbb8ed196	-0.0043584807
16	0xbcdb4e3b	-0.026770702
17	0xbd018628	-0.031622082
18	0xbb67d35a	-0.0035373778
19	0xbcd52158	-0.026016876
20	0x3d1eaa32	0.03873653
21	0xbd09d0cd	-0.033646394
22	0xbd082f3d	-0.033248175
23	0x3c96f1e5	0.018425891
24	0xbcbe4e22	-0.023230616
25	0xbc310bf7	-0.010806075
26	0x3a7f880a	0.00097477494
27	0x3d0ba0fc	0.034089074
28	0x3d0654c3	0.03279568
29	0xbd33dfab	-0.04391448
30	0xbc1daf19	-0.009624266
31	0x3cb998aa	0.022655804

model.4.weight f4 [64, 32]
0	0xbe06bb8e	-0.13157484
1	0xbc59d813	-0.013296145
2	0xbdf7f5ad	-0.12107406
3	0x3c8a2f38	0.016868219
4	0xbdeba9d9	-0.11507005
5	0xbdd1df31	-0.102476485
6	0xbce3162f	-0.027720539
7	0xbd0f9643	-0.03505541
8	0xbe182627	-0.14858304
9	0xbd99e961	-0.075152166
10	0xbe3b940f	-0.18318199
11	0xbe13ccf1	-0.14433648
12	0xbe1115a9	-0.14168419
13	0xbdcd991a	-0.100389674
14	0xbc93f87a	-0.018062819
15	0x3d6c81e9	0.05774108
16	0x3d25c7a2	0.040473588
17	0xbe3f5f34	-0.18688661
18	0x3e073849	0.13205065
19	0xbe0b248f	-0.13588165
20	0xbda7584c	-0.08171138
21	0x3abab27e	0.0014243869
22	0xbd3e98a1	-0.046532277
23	0xbc5c2344	-0.013436142
24	0xbcb6e611	-0.022326501
25	0xbd22c332	-0.039736934
26	0xbe263c88	-0.16234028
27	0xbce1c8ac	-0.027561508
28	0xbc8665f2	-0.016406033
29	0x3e1dd157	0.15411888
30	0x3cfb97f1	0.0307121
31	0x3d51037f	0.051028725
32	0x3dcec06e	0.10095297
33	0x3e3305e7	0.1748272
34	0xbc7922ab	-0.015206019
35	0xbc967805	-0.018367777
36	0xbd41126c	-0.04713671
37	0xbdb8d1d3	-0.09024396
38	0x3db97e6f	0.090573184
39	0x3e5602af	0.20899461
40	0x3e30070e	0.17190191
41	0xbd90f694	-0.07078281
42	0x3e900eae	0.281362
43	0x3e851081	0.25989154
44	0xbd723c10	-0.05913931
45	0xbd72d7ed	-0.059287954
46	0x3e3e2b5e	0.18571231
47	0xbdaa037f	-0.08301448
48	0x3db2e163	0.08734395
49	0xbd98300d	-0.0743104
50	0xbdc73e45	-0.09728674
51	0x3dbcf46b	0.092263065
52	0x3dec65f7	0.11542886
53	0x3dafb396	0.08579175
54	0x3d3ded2b	0.04636876
55	0xbdc895a3	-0.09794166
56	0xbd6df00b	-0.05809025
57	0x3da0386f	0.07823264
58	0xbdfd9394	-0.12381664
59	0xbd752a6d	-0.059854914
60	0x3ccf7dbc	0.02532851
61	0xbd996867	-0.07490616
62	0xbcf44bc4	-0.029821284
63	0x3c00eced	0.0078689875
64	0x3e8d2ad8	0.2757175
65	0x3e22450c	0.15846652
66	0x3c42afee	0.011882765
67	0xbd3295ef	-0.04360002
68	0xbe22a0c0	-0.15881634
69	0x3e4130ae	0.18866226
70	0xbdd5e548	-0.104441226
71	0x3e74bc1e	0.23899886
72	0x3e4df5df	0.20113324
73	0x3d797aac	0.060908005
74	0x3e1fc281	0.15601541
75	0x3dac360c	0.08408746
76	0xbe1b8f4b	-0.1519138
77	0xbdf100a0	-0.11767697
78	0xbcf08a43	-0.029362803
79	0x3e8e51e8	0.27796865
80	0xbdfbbdcc	-0.1229206
81	0x3ca80d97	0.020514293
82	0xbc26a7a6	-0.010171806
83	0x3e295283	0.16535382
84	0x3e54347b	0.20723145
85	0x3e5cc896	0.21560892
86	0xbdf94d7f	-0.12172984
87	0x3df6dbb8	0.12053627
88	0xb9c088c5	-0.00036722995
89	0x3e084262	0.13306573
90	0x3c7dba2b	0.01548628
91	0x3e90febf	0.28319356
92	0xbc144ac4	-0.009051029
93	0x3a9f00ce	0.0012130977
94	0x3c09d726	0.008413112
95	0x3e82334b	0.25429758
96	0x3e6aefa4	0.22942978
97	0x3d48a830	0.04898852
98	0x3d8779a9	0.06615002
99	0xbde3d138	-0.1112389
100	0xbd3100b7	-0.043213572
101	0x3e1abd87	0.15111361
102	0x3d70c5fb	0.05878256
103	0x3e90b6a8	0.28264356
104	0x39330401	0.00017072262
105	0x3ea16d56	0.3152873
106	0xbc35e53b	-0.011102016
107	0x3e327e62	0.17431024
108	0x3c1e9dd3	0.009681183
109	0x3ce83a94	0.028348245
110	0x3e3cbb17	0.18430744
111	0x3d9dac6f	0.07698905
112	0x3d7594ae	0.059956245
113	0xbcbf3c37	-0.023344142
114	0x3b954c3b	0.0045562065
115	0x3d2ef155	0.04271062
116	0xbd5c38e5	-0.053765196
117	0x3d2aa1e8	0.041658312
118	0xbd216f1d	-0.039412607
119	0x3e2232e6	0.15839729
120	0xbd965e1a	-0.07342167
121	0x3e08d118	0.13361013
122	0xbbc646d4	-0.006050924
123	0x3cf2e512	0.029650245
124	0x3e064f16	0.13116106
125	0xbde3a869	-0.11116106
126	0xbcc8c468	-0.024507716
127	0x3e94ec67	0.2908661
128	0xbda1670b	-0.07880982
129	0x3e037ad9	0.12839831
130	0xbd8e83a6	-0.06958704
131	0xbdad16e3	-0.08451631
132	0x3d603a37	0.054743018
133	0xbe356146	-0.17712888
134	0x3dae32fd	0.08505819
135	0x3e0a2626	0.13491115
136	0x3d98a844	0.07453969
137	0x3b9b93d3	0.0047478466
138	0xbd8e315e	-0.0694301
139	0xbdd66eb6	-0.10470335
140	0x3e04b632	0.12960127
141	0x3d6acdd5	0.057325203
142	0x3db75298	0.089513004
143	0xbde7ef1d	-0.11324904
144	0x3da90651	0.08253158
145	0xbe03a265	-0.12854917
146	0x3deeb7db	0.116561614
147	0x3e1e4deb	0.15459411
148	0xbe23fe2f	-0.16014932
149	0xbe2ce501	-0.16884233
150	0xbe2ff1dc	-0.17182106
151	0xbd92013e	-0.07129143
152	0x3ce6a559	0.028155016
153	0xbe18a1b2	-0.14905432
154	0x3df9074a	0.121595934
155	0xbdd67652	-0.104717866
156	0xbd34a578	-0.044103116
157	0x3ce53354	0.027978577
158	0xbdf398f6	-0.11894409
159	0xba92ac96	-0.0011190351
160	0xbe1fe65f	-0.15615223
161	0xbe14a792	-0.14517048
162	0x3ccb3a7d	0.024808163
163	0xbc89105f	-0.01673144
164	0x3e56e819	0.20986976
165	0xbdd00675	-0.101574816
166	0x3e39e2ab	0.18152873
167	0x3d1fd9d9	0.039026115
168	0xbd7daa87	-0.061930206
169	0xbd6caee7	-0.057783987
170	0xbc92a304	-0.017899998
171	0xbddc2364	-0.10748938
172	0x3e069096	0.13141093
173	0x3c629b65	0.013830994
174	0xbcaf68ea	-0.021412332
175	0xbe0237d0	-0.12716603
176	0x3e734d0f	0.23759864
177	0xbde3c20c	-0.11120996
178	0x3cd2ac98	0.025717065
179	0x3c112563	0.008859011
180	0xbe0e0582	-0.13869289
181	0xbc082d00	-0.00831151
182	0x3e71fe33	0.23632126
183	0x3adfd928	0.0017078267
184	0x3e588aa7	0.21146642
185	0xbe0e4c3f	-0.13896273
186	0x3e2b57d3	0.16732721
187	0xbd1cca8c	-0.0382791
188	0xbc89d85a	-0.016826797
189	0x3c3d6d26	0.011561668
190	0x3d2714cf	0.04079133
191	0x3d16fc4b	0.0368617
192	0x3d0aee14	0.033918455
193	0xbe210e38	-0.1572808
194	0x3e040ae6	0.12894782
195	0x3e4d8a0d	0.20072193
196	0xbc2f027f	-0.010681747
197	0xbcf4d77b	-0.029887905
198	0x3e103384	0.14082152
199	0xbe4d7fd3	-0.20068292
200	0x3b0e7299	0.0021735786
201	0x3d8f1b98	0.06987685
202	0xbdf16721	-0.117872484
203	0xbe317936	-0.17331395
204	0xbd5678b5	-0.05236121
205	0x3e26e525	0.16298349
206	0xbc8bbe6e	-0.017058577
207	0xbd865e5f	-0.065609686
208	0x3db51b8c	0.08843145
209	0x3dc6c837	0.09706157
210	0x3de3c232	0.11121024
211	0xbd4cd6cb	-0.05000953
212	0xbe4f4b2b	-0.20243518
213	0x3d5f9e46	0.0545943
214	0x3e2bddc4	0.16783816
215	0xbd1d9c9b	-0.03847943
216	0xbd003add	-0.031306136
217	0xbdb15e1a	-0.086605266
218	0x3e0196eb	0.12655227
219	0x3d300ab1	0.042978946
220	0xbe313610	-0.1730578
221	0x3da2ba3d	0.079456784
222	0x3d93a7a1	0.07209707
223	0xbcbf7c07	-0.02337457
224	0x3d1d94bb	0.03847192
225	0x3d2c587e	0.04207658
226	0xbe09373a	-0.13399974
227	0xbd12daca	-0.035853185
228	0xbe327dc5	-0.1743079
229	0x3e714032	0.23559645
230	0x3c925627	0.017863346
231	0x3e104584	0.14089018
232	0xbce5c21d	-0.028046662
233	0xbb4f54be	-0.0031636204
234	0x3dddf933	0.108385466
235	0x3d1225d4	0.035680607
236	0xbd69d525	-0.057088036
237	0xbcff4318	-0.031159922
238	0x3d22ec17	0.039775934
239	0xbe12a355	-0.14320119
240	0x3db3e923	0.08784702
241	0xbdcc02c3	-0.09961464
242	0x3d393bf7	0.045223203
243	0xbd8ddba4	-0.06926659
244	0x3e5740b6	0.21020779
245	0xbd60ead8	-0.054911464
246	0x3cf7150d	0.030161405
247	0x3e190c90	0.14946198
248	0xbd8d9d24	-0.06914738
249	0x3ddcccec	0.10781273
250	0xbe186d59	-0.14885463
251	0xbdc8efb6	-0.09811346
252	0x3e3ce1dc	0.18445534
253	0x3d4a8995	0.049447615
254	0xbe1a4b61	-0.15067817
255	0x3c167293	0.00918259

model.4.bias f4 [64]
0	0x3d9a06a4	0.07520798
1	0x3de2a094	0.11065784
2	0x3e464f74	0.19366246
3	0xbdf55f16	-0.11981027
4	0xbd5d60d6	-0.054047428
5	0xbd7d3e82	-0.06182719
6	0xbb2853f6	-0.002568481
7	0x3de9dc58	0.1141898
8	0x3d760dc9	0.06007174
9	0x3e59661f	0.21230362
10	0x3e6a2ad5	0.22867902
11	0x3d83174d	0.06400929
12	0x3cfeea6c	0.03111764
13	0x3e2a8068	0.16650546
14	0x3d837605	0.06418995
15	0x3a43ae17	0.0007464601
16	0x3deb703e	0.11496018
17	0xbcdca65e	-0.026934799
18	0xbcf82b3a	-0.03029405
19	0x3d52260b	0.05130581
20	0x3e5a3698	0.21309888
21	0xbdbfed70	-0.093714595
22	0xbde329e2	-0.11091973
23	0x3c211e8c	0.009833943
24	0xbcc8d58c	-0.02451589
25	0xbdd33a7e	-0.10313891
26	0xbe1155a0	-0.1419282
27	0x3dc2dcc4	0.09514764
28	0x3e0bdccd	0.13658448
29	0x3d9aa7fd	0.075515725
30	0x3e038bf9	0.12846364
31	0x3e4d215a	0.20032254
32	0x3d59e3bb	0.053195696
33	0x3e09e1aa	0.1346499
34	0x3da233a5	0.07920007
35	0xbcf3989e	-0.02973586
36	0x3e09b7ea	0.13449064
37	0x3d2b40cd	0.041809846
38	0x3d5e136b	0.054217737
39	0x3e5520d8	0.2081331
40	0x3e0a58d6	0.1351045
41	0x3d3c3f73	0.045958947
42	0xbda344ff	-0.07972144
43	0x3cf1c72c	0.029513918
44	0xb896ba44	-7.187252e-05
45	0xbc67408f	-0.014114513
46	0xbc916a82	-0.017750982
47	0x3d9200b0	0.071290374
48	0x3dfc42c3	0.12317421
49	0x3e132331	0.14368893
50	0xbdabd61a	-0.08390446
51	0xbc3aecd8	-0.011409007
52	0x3d539726	0.05165782
53	0x3df1bdac	0.11803755
54	0xbd944dce	-0.072414026
55	0x3dc321f1	0.09527958
56	0x3d77abef	0.060466703
57	0x3e1fc6a5	0.1560312
58	0xbe06b3db	-0.13154547
59	0x3e28c05c	0.1647963
60	0xbc1113c9	-0.008854815
61	0xbd4221f1	-0.04739565
62	0xbd4ca819	-0.049964998
63	0x3d394c54	0.045238808

model.7.weight f4 [1, 64]
0	0x3c621784	0.013799552
1	0xbe102351	-0.14075972
2	0xbe4b6dea	-0.19866148
3	0xbe0dbfa1	-0.13842632
4	0x3c2bfadb	0.01049682
5	0x3db8d5ae	0.09025131
6	0x3e19cea7	0.15020238
7	0xbe318a87	-0.17338
8	0xbe59a97e	-0.21256062
9	0x3dc75494	0.09732929
10	0xbe50f86a	-0.20407262
11	0x3db0c2b5	0.086308874
12	0x3e250416	0.1611484
13	0xbe54cf95	-0.20782311
14	0xbe7b540a	-0.24543777
15	0x3db84b91	0.08998788
16	0x3e07929b	0.1323952
17	0xbe890680	-0.26762772
18	0x3e1d597b	0.15366165
19	0xbe32f1a9	-0.17474999
20	0xbe32b6d9	-0.17452563
21	0x3e08c2c7	0.13355552
22	0x3e091042	0.13385108
23	0x3df7ea68	0.12105256
24	0xbe187099	-0.14886703
25	0xbe343f25	-0.17602213
26	0xbd8032fd	-0.06259725
27	0xbe8a0467	-0.26956484
28	0x3d0911f6	0.033464395
29	0x3ddd4b8a	0.108054236
30	0xbe1e24a6	-0.15443668
31	0x3daf1c58	0.08550328
32	0x3dec1d7f	0.115290634
33	0x3dfc8763	0.123305105
34	0x3db4b458	0.0882346
35	0x3e10eff3	0.14154033
36	0xbe43bda0	-0.19115305
37	0x3d944d4b	0.07241305
38	0x3df68fe8	0.12039167
39	0xbe6e149a	-0.23250046
40	0x3e08c9d6	0.13358244
41	0xbe115ede	-0.14196345
42	0xbe399238	-0.18122184
43	0xbe22268d	-0.15835018
44	0xbe3bd860	-0.1834426
45	0x3e01fbe7	0.1269375
46	0xbe193663	-0.14962153
47	0x3de8c425	0.113655366
48	0xbe63b4c9	-0.22236933
49	0xbe67977a	-0.22616377
50	0xbe805e1a	-0.25071794
51	0x3df30b1c	0.11867353
52	0xbe631e5c	-0.2217955
53	0xbded5d35	-0.115900435
54	0xbe0233c9	-0.12715067
55	0xbe1bd16f	-0.15216611
56	0xbe58831a	-0.21143761
57	0x3dba0855	0.090836205
58	0x3d8cc34e	0.06873189
59	0xbe6c8aaf	-0.23099779
60	0x3def3532	0.11680068
61	0x3df195d6	0.11796157
62	0x3d9dca1b	0.07704564
63	0x3e2f94b8	0.17146575
