survival_analysis/tzrp0e7i/checkpoints/epoch=299-step=600.ckpt (torch, 465194 bytes, 23 tensors)

model.0.weight f4 [1024]
00000000: 0c2b 803f 4079 7f3f 3e20 7f3f f637 803f
00000010: 3f05 803f 1f06 803f 8551 803f a0d5 7f3f
00000020: b872 803f acf1 7f3f 8959 7f3f 1d39 803f
00000030: 742e 803f e41a 803f 988d 7f3f d13a 803f
00000040: fa5f 7f3f d226 803f d716 803f 1c01 803f
00000050: e015 803f 5fee 7e3f 90f4 7f3f b34c 803f
00000060: eb6d 7f3f 7445 803f 1f1b 803f 6b52 803f
00000070: ae0a 803f e733 803f ff67 803f 4065 803f
00000080: e90e 803f 4c55 803f f605 803f 6445 803f
00000090: 344e 803f 0a34 803f 5019 803f 3508 803f
000000a0: 9f26 803f c837 803f ac85 7f3f 0202 803f
000000b0: 62a4 7f3f acd1 7f3f c0ad 803f d976 7f3f
000000c0: 08d7 7f3f 71c0 7f3f ae37 803f 8050 803f
000000d0: 1e72 7f3f 2a8a 7f3f 443c 803f 578c 7f3f
000000e0: 61f1 7f3f 5822 803f 614c 803f 5a67 7f3f
000000f0: 70d5 7f3f 274a 803f abaa 803f 1af1 7f3f
00000100: eea5 7f3f b8bd 7f3f 236d 803f 843f 803f
00000110: 22b5 7f3f f21f 803f a4c5 7f3f 4816 803f
00000120: 1736 803f 2125 803f 210d 803f 674a 803f
00000130: c541 803f 682b 803f 18ec 7f3f 1eef 7f3f
00000140: 544d 803f 37a0 7f3f bb71 803f 1b41 803f
00000150: ac3e 803f ac23 803f 3875 803f 1715 803f
00000160: 585e 803f c050 803f 8706 803f 7329 803f
00000170: cf7a 803f b280 7f3f 8878 803f ff2a 803f
00000180: 8189 803f 91f0 7f3f a4e3 7f3f bfe8 7f3f
00000190: b33b 803f 8c6c 803f 4a10 803f 375f 803f
000001a0: 6b28 803f 4f79 803f 64e1 7f3f ba35 803f
000001b0: 96a7 7f3f dc34 803f ed19 803f 2d5d 803f
000001c0: 5cbf 7f3f f809 803f 48df 7f3f ac05 803f
000001d0: 1357 803f 86e4 7f3f c10b 803f d858 803f
000001e0: 9256 7f3f 7fe4 7f3f 2f9d 803f 21f6 7f3f
000001f0: f9a0 803f 7501 803f f043 803f 4f75 803f
00000200: 3900 803f e8d0 7f3f 9497 803f 225c 803f
00000210: d059 803f 5957 803f 5036 803f 19f5 7f3f
00000220: 7635 803f 63c6 7f3f c549 803f dd60 803f
00000230: 0ffb 7f3f fa10 803f dc61 803f 8068 7f3f
00000240: 8c0d 7f3f e712 803f d81a 803f 1fe6 7f3f
00000250: 8237 803f 3816 803f b8c1 7f3f aaf6 7f3f
00000260: 71d7 7f3f ba09 803f cf5b 803f 5dfe 7f3f
00000270: 4468 803f 7f53 803f c27a 803f fea4 803f
00000280: bfbc 7f3f 52f8 7f3f 2860 803f 976d 803f
00000290: ef0c 803f 8a78 7f3f 0d72 803f 7ff0 7f3f
000002a0: 59a2 7f3f 5708 803f 8b1a 803f f96a 7f3f
000002b0: e226 803f 7ea0 7f3f 3f24 803f 8c22 803f
000002c0: 005d 803f 2293 7f3f 7282 803f 8c3d 803f
000002d0: e630 803f abd1 7f3f 3a92 7f3f de39 803f
000002e0: 3f2f 803f 2c55 803f 544a 803f 1cbb 7f3f
000002f0: fa4c 803f c138 7f3f 0206 803f 7d72 803f
00000300: 5b09 803f d310 803f 2ebe 7f3f e93a 803f
00000310: b56c 803f 8d90 803f 05b5 7f3f ce47 7f3f
00000320: 52d7 7f3f 1d69 803f 2877 803f 9e4f 803f
00000330: 3e72 803f c23a 803f ba1e 7f3f 321d 803f
00000340: 2739 803f 6734 803f 6c74 803f 873a 803f
00000350: 381a 803f 146d 803f 5878 803f d94c 803f
00000360: 5388 7f3f 8264 803f cc43 7f3f d517 803f
00000370: 358b 803f ad87 803f 5363 803f d94d 7f3f
00000380: 1140 7f3f d5e2 7f3f 5527 803f e580 803f
00000390: 39db 7f3f 8764 803f fe21 803f 872a 803f
000003a0: 8b9c 7f3f 804d 803f 4764 803f eee3 7f3f
000003b0: c511 803f b64a 803f 6c6a 803f 75e2 7f3f
000003c0: 7f33 7f3f fcee 7f3f ecb9 7f3f 4338 803f
000003d0: 9572 803f f47e 803f ebb7 7f3f eb1c 803f
000003e0: bceb 7f3f 2cf9 7f3f 3e68 803f f044 803f
000003f0: e148 803f 95ce 7f3f 805a 803f 2a9a 7f3f
1.0013137 0.9979439 0.9965857 1.0017078 1.0001601 1.0001868 1.0024878 0.9993534
1.0035009 0.99978137 0.99745995 1.001743 1.0014176 1.0008206 0.9982543 1.0017949
0.99755824 1.0011847 1.000697 1.0000339 1.0006676 0.99582475 0.9998255 1.0023407
0.99777097 1.0021195 1.0008277 1.0025152 1.0003259 1.0015839 1.0031737 1.0030899
1.000455 1.002603 1.0001819 1.0021176 1.0023866 1.0015881 1.0007725 1.0002505
1.0011786 1.0017023 0.9981334 1.0000613 0.99860203 0.9992931 1.0053024 0.9979072
0.99937487 0.9990302 1.0016992 1.0024567 0.99783504 0.99820197 1.0018392 0.99823517
0.9997769 1.0010481 1.0023309 0.99767077 0.99935055 1.002263 1.0052084 0.99977267
0.99862564 0.9989886 1.0033306 1.0019383 0.9988576 1.0009749 0.9991095 1.00068
1.0016507 1.0011331 1.0004007 1.0022706 1.0020071 1.0013247 0.99969625 0.9997424
1.0023599 0.99853843 1.0034708 1.0019869 1.0019126 1.0010886 1.0035772 1.0006436
1.0028791 1.0024643 1.0001992 1.0012649 1.0037478 0.9980575 1.0036783 1.0013121
1.0041963 0.9997645 0.9995673 0.9996452 1.0018219 1.0033126 1.0004971 1.0029057
1.0012335 1.003702 0.99953294 1.0016396 0.9986509 1.0016131 1.0007912 1.0028435
0.99901366 1.0003042 0.99950075 1.0001731 1.0026573 0.99958074 1.0003587 1.0027113
0.9974147 0.9995803 1.0047969 0.9998494 1.0049125 1.0000445 1.0020733 1.00358
1.0000068 0.9992814 1.0046258 1.0028117 1.0027409 1.0026656 1.0016575 0.99983364
1.0016315 0.9991209 1.0022513 1.002956 0.9999246 1.0005181 1.0029864 0.9976883
0.99630046 1.0005769 1.0008192 0.9996051 1.001694 1.0006781 0.99904966 0.99985754
0.9993811 1.0002968 1.0028018 0.999975 1.0031819 1.0025481 1.0037463 1.0050352
0.9989738 0.9998828 1.0029345 1.0033444 1.0003947 0.99793303 1.0034806 0.9997634
0.998571 1.0002545 1.00081 0.997726 1.0011866 0.99854267 1.0011061 1.0010543
1.0028381 0.9983388 1.0039809 1.0018783 1.0014923 0.999293 0.998325 1.001766
1.0014418 1.0025992 1.0022683 0.9989488 1.0023491 0.99695975 1.0001833 1.0034939
1.0002855 1.0005134 0.99899566 1.0017978 1.0033175 1.0044113 0.9988559 0.9971894
0.9993793 1.0032078 1.0036364 1.0024297 1.0034864 1.0017931 0.9965626 1.000891
1.0017442 1.0015992 1.0035529 1.0017861 1.0008001 1.0033288 1.0036726 1.0023452
0.9981739 1.0030673 0.99712825 1.0007273 1.0042483 1.0041405 1.0030311 0.9972816
0.9970713 0.99955493 1.0012003 1.0039335 0.9994388 1.0030679 1.0010374 1.0012978
0.9984824 1.0023651 1.0030602 0.9995717 1.0005423 1.00228 1.0032477 0.9995492
0.9968795 0.99974036 0.9989307 1.001717 1.0034968 1.0038743 0.9989001 1.0008825
0.9996908 0.9998958 1.0031812 1.0021038 1.0022241 0.99924594 1.0027618 0.9984461

model.0.bias f4 [1024]
00000000: 1834 87bb 228b afbb 1f09 8ebb 82a2 6fbb
00000010: f2e3 a93b 50a6 a1bb 61a4 af3b f94f ac3b
00000020: 8ee4 9f3b d933 76bb 2d96 b33b d461 90bb
00000030: 177e 923b d178 0c3b 239f f1ba e476 773b
00000040: 9f61 6dbb c267 a6bb 3e6e 8ebb a3a2 5abb
00000050: 8c5d 95bb a6d4 6dbb 421f 0abb af4c c3bb
00000060: 8a2a f1ba e832 49ba d492 873b 6bb4 4ebb
00000070: 92d0 863b 5ff4 b53b 8fae aabb c86b 98ba
00000080: 8595 013b 76c8 8c3b 4866 693b 0c01 93ba
00000090: daca b43b 8aa7 a8b9 f719 9bbb cf74 653b
000000a0: 2d8f a03b b4fc afba 1b72 1637 937b 483b
000000b0: 59a3 1ab9 c039 9c3b 1698 c6bb b7b4 b7bb
000000c0: 725b 433b 056d 3d3b 6643 cfb9 3812 62bb
000000d0: 705f 76bb 036d 2f3a 29d5 5b3a a8ff b3bb
000000e0: 3a00 8fbb 4020 e73a a593 253b 909e 343b
000000f0: d915 f3ba 62b2 8a3b b62a bf3b 75a0 2ebb
00000100: 961a 8fbb 85fe 9fbb 1528 bb3b 2ecb 83bb
00000110: 8865 9ebb d1ef b1bb dee2 7bba 7c25 b63b
00000120: 7a53 71bb 50f0 2e3b 19d5 9d37 ef02 c33b
00000130: c15c 973b 0df6 a23b a69d 6e3b 3768 0e3b
00000140: 7a6f 643b d9ef b2bb 20e9 3f3b ace4 a1bb
00000150: 2288 caba 4acd 333b a354 c2bb 4735 603b
00000160: 6455 54ba 680b c23b c64b a1bb 185c 0e3b
00000170: 3dad 2cbb 4d9e 26bb 7561 9b3b df4c bcbb
00000180: 97cd 9f3b 2805 573b 13e0 7bbb 8c70 963b
00000190: de4a 653b 534a 893b 37af 8dbb 30d0 b53b
000001a0: d79f a0bb aa0e 8ebb ad19 9cbb c603 92bb
000001b0: e0c2 9d3b 32a7 e13a 4338 06bb 53b0 07bb
000001c0: 4fb1 653b a909 b4bb 8821 ba39 61b5 e738
000001d0: 666f a33b 1b3d 45bb 164d 42bb c5ac 13ba
000001e0: c081 663a 1948 9fbb 3ca5 c7bb 063f 81bb
000001f0: 49e3 b33b b521 aa3b b369 a83b 0a21 ec3a
00000200: 37b0 263b 5b54 803b c658 7dbb 1384 90ba
00000210: d5d7 27bb 1be2 b339 1689 6fbb 1a3f 863b
00000220: 6bce 04ba 3d06 7ebb 53de a5bb c05a 94bb
00000230: 6a39 93bb 3026 a5ba d754 993b 7caa d63a
00000240: c16b 863b 8ab4 44ba c893 89bb ce94 87bb
00000250: 3c5f aabb 90d0 bdbb dd7c 8b3b f7e4 abbb
00000260: afd3 633b fccc 37bb aa13 bd3b 3025 bbbb
00000270: 8bf9 8c3b ce7a 8cbb 7e0b 12ba cfb0 b93b
00000280: fad5 0139 d007 6fbb 3e5a ddbb 945c 743b
00000290: 3c64 b9bb 4330 8dbb bd14 18bb db5f 7fbb
000002a0: bd9b 40bb d9c3 05bb d696 66bb edb6 8abb
000002b0: cade 99bb 7802 ba3b abd5 85bb aad0 44bb
000002c0: 3822 493b 3040 82bb e357 aabb f212 bbbb
000002d0: 5146 ba3b 19cb 82bb 4422 123b 3633 323b
000002e0: 79cb 973b 7814 363b 4ac5 a53a 8c23 ce3a
000002f0: 4d3b 003a 9ab0 8c3b 217e 12ba 2c31 b73b
00000300: 13bf 5eba 904e 6c3b 6d80 b03b e29b 783b
00000310: 35d8 0cba 11f6 a6bb 8a58 893b bf4e 923b
00000320: 486c 2aba 8cac 23bb 4cc3 c8bb edda 23bb
00000330: 783b b73b 70d8 603b cad0 9c3b b6eb 953b
00000340: 45d3 9bbb 5348 abbb 918f 573a 4323 78b9
00000350: dbe5 89bb d168 98bb a612 3c3b 2a6e cebb
00000360: 9e7f 99bb 7796 b73b 2b07 aabb f081 7fba
00000370: 4368 b8bb debe 973b ef93 b73b 2555 f03a
00000380: f7e4 dbba 4391 b9bb cf1e b53a 7af6 a73b
00000390: ea06 90bb 7845 383b da77 653b 1b98 17bb
000003a0: 3e5e 863b 1cf8 acbb 2d52 bcbb 3697 6ebb
000003b0: 3a76 833b 95c5 a1bb 4396 a43b 428f 4f3b
000003c0: 762d bbbb e608 9dbb 5d04 a9bb 7d8a 833b
000003d0: 00ed abbb 3e1e 923b fd94 27bb a75c 903b
000003e0: fc66 80bb e715 73bb b9d5 b939 45b5 4bbb
000003f0: f8b6 853a 29e8 793a ee26 98bb 9dbd 31ba
-0.004126083 -0.005357162 -0.0043345834 -0.0036565368 0.005184644 -0.004933156 0.0053601717 0.005258557
0.0048795408 -0.0037567525 0.005480549 -0.0044061933 0.0044705975 0.0021434317 -0.0018434267 0.0037760073
-0.0036221517 -0.005078287 -0.004346638 -0.00333611 -0.004558271 -0.0036290078 -0.002107576 -0.005960069
-0.0018399518 -0.0007675127 0.0041373763 -0.0031540643 0.004114219 0.005552813 -0.0052087973 -0.0011628801
0.0019772958 0.0042963577 0.0035613943 -0.0011215522 0.005517346 -0.00032168283 -0.00473332 0.003501225
0.0048998804 -0.0013426752 8.967264e-06 0.0030591234 -0.00014747436 0.0047676265 -0.0060606105 -0.0056062597
0.0029809144 0.0028904092 -0.00039532332 -0.0034495723 -0.0037593506 0.0006691964 0.00083859504 -0.005493123
-0.0043640407 0.0017633513 0.0025265005 0.002756033 -0.001854594 0.0042326907 0.005833949 -0.0026645933
-0.004367183 -0.004882636 0.0057115653 -0.0040220236 -0.004833881 -0.0054301997 -0.0009608696 0.0055586677
-0.0036823438 0.002669353 1.881509e-05 0.0059512774 0.0046192114 0.004973179 0.0036409884 0.0021729597
0.0034856484 -0.005460721 0.002928324 -0.00494059 -0.0015451948 0.0027435594 -0.0059304996 0.0034211443
-0.00080998824 0.00592177 -0.004922363 0.0021722373 -0.0026348375 -0.0025423944 0.0047418424 -0.0057464684
0.004876803 0.003280947 -0.003843312 0.0045910534 0.0034987251 0.0041897683 -0.0043238658 0.0055484995
-0.004901867 -0.004335244 -0.004763803 -0.0044560162 0.0048144907 0.0017215966 -0.0020480312 -0.0020704463
0.003504831 -0.0054943156 0.00035501667 0.00011048723 0.004987645 -0.0030096236 -0.0029647998 -0.00056333496
0.0008793138 -0.0048608896 -0.0060926955 -0.0039442806 0.005489741 0.0051920065 0.0051395535 0.0018015218
0.0025434622 0.003916306 -0.003865765 -0.0011025689 -0.0025610824 0.00034310002 -0.0036550215 0.0040968778
-0.0005066159 -0.0038761043 -0.0050619035 -0.00452742 -0.0044929283 -0.0012599882 0.004679303 0.0016377713
0.0041022007 -0.0007503709 -0.004198525 -0.004137612 -0.005199341 -0.005792685 0.004256828 -0.0052458006
0.0034763624 -0.0028045764 0.0057701664 -0.00571122 0.004302209 -0.0042871004 -0.00055711705 0.005666829
0.00012382111 -0.0036473162 -0.0067551425 0.0037286626 -0.005657701 -0.0043087318 -0.002320572 -0.0038967046
-0.0029389702 -0.0020410924 -0.003518512 -0.0042332322 -0.004695748 0.005676564 -0.004084309 -0.00300316
0.0030690562 -0.003974937 -0.005198465 -0.0057090456 0.005684652 -0.0039914963 0.0022298256 0.0027191169
0.00463241 0.0027783196 0.0012647298 0.0015727147 0.0004891649 0.0042935135 -0.00055882527 0.0055905785
-0.00084971 0.003605757 0.0053864033 0.003793471 -0.00053727935 -0.0050952514 0.004191463 0.0044649537
-0.00065011205 -0.0024974672 -0.006126797 -0.0025002316 0.005591806 0.0034308694 0.004785632 0.004575218
-0.00475541 -0.0052271276 0.0008222992 -0.00023664259 -0.004208309 -0.004651167 0.0028697639 -0.0062997537
-0.0046844026 0.0056026536 -0.005188843 -0.000974684 -0.0056276633 0.0046309074 0.005602352 0.0018335922
-0.0016776611 -0.0056630685 0.0013818386 0.005125818 -0.0043953555 0.0028117578 0.0035014064 -0.0023131433
0.00410059 -0.0052786004 -0.005747101 -0.0036406047 0.0040118964 -0.0049368837 0.0050227954 0.0031671082
-0.0057122065 -0.0047923205 -0.005157991 0.004014312 -0.0052467585 0.0044591716 -0.0025570982 0.0044055763
-0.0039185267 -0.0037091912 0.00035445185 -0.0031083387 0.0010201624 0.0009533191 -0.0046433127 -0.0006780269

model.0.running_mean f4 [1024]
00000000: 7160 70bd 63c0 8ebc 0867 063c a87f dbbc
00000010: 9755 c83a 3fc0 61bc 7111 253d 6b1a a6bb
00000020: e5da 87bb a609 063d 8f6e 31bc b038 ad3b
00000030: e8c8 81bb 5a29 4dbc 29dd 9d3b 6c30 293c
00000040: 6b01 14bd 260c cbbc 8b29 aeba 5dc6 0c3c
00000050: f936 6d3c 6a9c ebba 8327 9d3c 0dc3 943d
00000060: e600 9c3c 7708 f33c d2f7 d1bc 2ebd 3f3c
00000070: 3f45 bdbb 847f 31bc 71c4 ca3c c0e5 7ebc
00000080: 29c8 f6bb ab85 233c 6b6a 4cbb 3138 853c
00000090: 4ce9 39bc 7000 d43b 1df5 edbc 4836 8abb
000000a0: 6493 243c 7e60 c63c 5aae 4dba 6237 39bd
000000b0: da1d c3bc 870c 613b 744f 4639 8d29 c6bc
000000c0: 7a4f 52bc eca1 aa3d bdb8 c8bc 5c11 93bc
000000d0: eed2 9dbc 67f9 123c 76d2 173c 9ac0 17bc
000000e0: 6165 033d c41f 183c 49d2 c0bb aa4a 30bc
000000f0: 2480 2f3c 7ddb b8bc 51ae 3bbc 73a0 c43c
00000100: 33b6 82b9 c5dd 6abc c51c 9f3b 1039 f13b
00000110: ed13 d63a 64e4 c63b f550 1a3d ea24 2f3c
00000120: aa49 86bc f389 323d ee09 f53c 2efc 2cbc
00000130: 271a d53c 852f 9bbc 59e5 883c 5339 8fbc
00000140: d601 0bbc 4b90 df3c 13d5 54bd 5ea8 af3c
00000150: fc91 82bc 9183 23bd 07e9 bf3c 3b57 9bbc
00000160: aa6c 3f3c 204b bf3c d5f7 babc 58db b5bb
00000170: c9f3 46bc e374 533c 6043 403c bd12 973c
00000180: bc97 283c 181d 6b3d 90a9 16bc 3b67 b53c
00000190: 90de 603c 2719 e03c c991 d4ba 943a 563c
000001a0: 8071 973d 3da4 833c 188f 4d3b 708a b9bc
000001b0: 3325 f8bc be36 4e3d 9371 39bc 6eb7 5c3b
000001c0: bfb7 863d 549a 66bb 87a7 a2bb 8f6c 943c
000001d0: fe05 feba cbe2 c7bb 147a 7f3a d60d c4bb
000001e0: f6ec b2bc 293b 0cbc c1db 85bc bb68 50bc
000001f0: dced 46bd 2d4c b1bc 1b27 34bc 0a68 a9bc
00000200: 15e8 a43c d9b7 a5bc 6728 82bd 7d3a 6cbc
00000210: 77fa 8c3c 0229 9cbb 8656 52ba 52e4 e2bc
00000220: a215 2f3d b669 b53c 7ce7 29bb 9720 b8bc
00000230: a564 613b f99f 27bd 189d 24bc b830 dcbb
00000240: 0d51 29bb 8cdf 1ebc 45fb 393d 43b1 c0bc
00000250: 2672 07bd 044c bd3a 9581 0bbc 4c81 36ba
00000260: e42a e93b aafb 51ba d81e 873c dddd db3c
00000270: 8f4b e23c 6e84 0dbc c1ec 93bb 35be f03b
00000280: 761a c43a b4c5 e23c 7099 843c 0902 823b
00000290: 4378 b4bb fdaa 9fbb bb5d 63bd f458 e6bb
000002a0: 92ff 1bbd a21f db3c 9a33 df3c 2e28 fa3c
000002b0: 0513 cd3c f9a3 13bc 5985 ba3c bbe2 3d3c
000002c0: b116 3bbc 8481 5cbc 1838 91bc 7ae5 faba
000002d0: 017d 02bd f41e 89bc cbce c1bb 2b4c 353c
000002e0: baa4 2bbc db49 cc3c c3c0 3f3d b619 80bc
000002f0: 2f23 6dbc c405 05bd c98e 1b3d 3a0a 473c
00000300: 15c2 5a3c 2ce8 023d 21df 483c 3ecc 383c
00000310: b905 22bc 50c7 54bb 6f66 ad3c 992c 053d
00000320: e520 c43b f447 58bc 6b87 073b 9e8d d3bc
00000330: 60e5 cbbc 5861 223c 02bf 57bc d57b 5dbc
00000340: b1d9 8c3c 3759 0abc 7a4c 08bd 917d b8bc
00000350: b7f1 783c e254 d23c 0736 df3b fde9 81bc
00000360: 055c 483c 4b8f e53c 8afa 09bc 2730 cabb
00000370: 58c0 1c3c 01a1 9abc f40e 47bd 7d86 afbc
00000380: bc11 b03c b7f0 643c fd32 9b3b 1064 a0bc
00000390: e515 fb3a d5cf a3bc 162a 29bc e475 03bd
000003a0: f62c a1bb 2036 eabc 38ec 47bc 0363 91bc
000003b0: fe9b f3bc e99d 0d3d 4a9a ae3c 345e 8fbc
000003c0: 170c 053d 857a b1ba 3885 00bc ef16 c53c
000003d0: c43c c1bc 177c 96b9 4c46 463c c40a af3c
000003e0: f250 edb9 5db7 de3c c651 94bc a10f cd3c
000003f0: f3b8 9e3c d7b8 9d3a 09a0 773c d8d9 b83c
-0.058685724 -0.017425722 0.0082032755 -0.02679427 0.0015284297 -0.013778745 0.040299837 -0.0050690672
-0.0041459673 0.032724045 -0.010829582 0.0052862987 -0.0039607175 -0.012522066 0.004817624 0.010326486
-0.036134165 -0.024786066 -0.0013287527 0.008592215 0.0144784385 -0.0017975692 0.01918388 0.072637655
0.019043397 0.029667122 -0.025630865 0.011702819 -0.005776077 -0.010833625 0.024751874 -0.015557706
-0.007531185 0.009980599 -0.003119136 0.016262146 -0.011347126 0.0064697787 -0.029047543 -0.0042178966
0.010044906 0.024215933 -0.000784611 -0.045218833 -0.023817945 0.0034339742 0.0001891235 -0.024189735
-0.0128363315 0.083316654 -0.024502153 -0.017952614 -0.019265618 0.008970595 0.009266486 -0.009262228
0.032079104 0.009284917 -0.005884443 -0.010759989 0.010711703 -0.022565598 -0.0114551345 0.02400229
-0.0002493128 -0.014335101 0.0048557245 0.0073615387 0.0016332843 0.0060697068 0.037674863 0.010689953
-0.016392548 0.04358859 0.029911961 -0.010558171 0.026013447 -0.018943558 0.016710924 -0.017483389
-0.008484324 0.027290484 -0.051961016 0.021442588 -0.015938751 -0.039920393 0.023426546 -0.018962493
0.011683622 0.023351252 -0.022823254 -0.0055498295 -0.012143084 0.012906286 0.011734813 0.018441552
0.010290083 0.057400793 -0.0091957 0.02214395 0.013724938 0.027355744 -0.0016217764 0.01307549
0.07394695 0.016069526 0.0031365808 -0.02264902 -0.030291175 0.050345175 -0.011318582 0.0033678669
0.065780155 -0.0035187202 -0.0049638185 0.018118171 -0.0019380448 -0.006100034 0.0009745669 -0.0059830947
-0.021841507 -0.008559027 -0.016340138 -0.012720282 -0.048566684 -0.021642769 -0.010995652 -0.020679493
0.020130197 -0.020229267 -0.063553624 -0.014418242 0.017209275 -0.0047656307 -0.0008023757 -0.027696762
0.04274524 0.022145133 -0.002592533 -0.022476478 0.0034392264 -0.040924046 -0.01004722 -0.006719675
-0.0025835664 -0.009696852 0.045405645 -0.023522025 -0.033067845 0.001444221 -0.0085147815 -0.0006962016
0.0071157087 -0.0008010218 0.0164942 0.026839191 0.02762392 -0.008637531 -0.0045143072 0.007346893
0.0014961499 0.027682163 0.016186446 0.0039675278 -0.0055075004 -0.0048726783 -0.05550931 -0.007029647
-0.038085528 0.026748482 0.027246285 0.030536737 0.025033483 -0.009011262 0.022768663 0.011589701
-0.011418984 -0.013458613 -0.017726943 -0.0019141876 -0.031857494 -0.016738392 -0.005914544 0.011065523
-0.010476286 0.02493756 0.04681469 -0.01563726 -0.01447372 -0.0324762 0.037977967 0.012148434
0.013351937 0.031959698 0.012260229 0.011279164 -0.00988906 -0.0032467432 0.021167008 0.032513235
0.0059853666 -0.013200749 0.002068008 -0.025824364 -0.024889648 0.009910904 -0.013168098 -0.013518293
0.017193647 -0.008444122 -0.03327606 -0.022520812 0.015194348 0.02567524 0.0068118605 -0.015858645
0.01222897 0.028022429 -0.00842155 -0.006170291 0.009567343 -0.0188756 -0.048598245 -0.021426434
0.021492831 0.0139734065 0.004736303 -0.019578964 0.0019156305 -0.019996563 -0.0103249755 -0.03209485
-0.00491869 -0.028590262 -0.012202315 -0.017747408 -0.029737469 0.034574423 0.021313805 -0.017500974
0.032482233 -0.0013540542 -0.007844262 0.024058787 -0.023588546 -0.00028702684 0.012101721 0.021367438
-0.00045264472 0.027187044 -0.018105399 0.025031867 0.0193753 0.0012033236 0.015113839 0.022564813

model.0.running_var f4 [1024]
00000000: 0f0e 0e39 0cb4 1839 cb3a 1239 10dd cf38
00000010: 813d 3039 13d5 2739 b3db 3639 da36 0e39
00000020: a4e2 0739 c38d 1839 5e45 4c39 7cae 2f39
00000030: 8a95 2f39 7332 f938 4bd9 1939 6fff 0339
00000040: 5e80 e038 c557 1f39 6a4b 5339 8e70 1439
00000050: 09b9 1339 8ee0 fe38 53c6 d138 0132 4639
00000060: afd3 f138 0ac0 2f39 5569 2f39 f1c4 e038
00000070: 2d01 2839 c112 b639 022c 9639 126d 3939
00000080: b928 5139 08ac da38 a62b 4a39 3390 5339
00000090: 8744 da38 a4dd b238 ca1c fc38 60d1 8039
000000a0: 4386 9639 ecbc 2839 569e 1c39 d664 2a39
000000b0: 1d84 3939 1011 5c39 18df 7239 ac0b 7739
000000c0: e4ef 1039 7f78 a939 517e 8639 675e 6739
000000d0: c052 3039 e961 3a39 cb06 ee38 b757 f738
000000e0: c54e 6b39 eaca c238 4372 0339 a4e1 1839
000000f0: 9926 5e39 6f1c 5139 bc64 9239 4a6d 4e39
00000100: c226 1839 acbd cb38 dcd5 3e39 bcc2 2239
00000110: eea2 1639 7086 2c39 183b 5339 598c 5039
00000120: 8699 6939 9c44 4339 e176 2339 c92e 4639
00000130: 246d d638 4be2 4c39 7018 2039 9e55 4739
00000140: 8d2c 5339 be69 cf38 8d8d 5b39 db4d 0d39
00000150: 2243 0739 c3ec ad39 6121 3539 4830 6c39
00000160: 8a6c 0739 6e9f 8739 028e c639 95d3 3339
00000170: b913 0339 fe28 7239 237a 2e39 0246 3a39
00000180: 1a43 4c39 af69 2339 cc90 2139 9645 b739
00000190: fac5 0d39 cc0e 0439 7ef9 5439 450e ed38
000001a0: 101e 283a 5f93 2b39 3c31 1d39 6e42 8039
000001b0: 5dd5 1239 5fad 0e39 7f3c 3e39 862d 0239
000001c0: b31e 3639 2df9 4239 9b4f 6f39 a5d3 9c39
000001d0: 4e09 0839 1724 2239 e85f 3a39 7abf 7e39
000001e0: 65b6 5939 729b 1b39 3a53 1c39 daa3 5039
000001f0: 1a0e 2439 ea78 ab38 de47 ea38 61e0 0339
00000200: c1ef 4a39 9e0d a439 4be1 3439 d334 c838
00000210: f011 5539 5403 e538 b273 f338 fbe8 2c39
00000220: b39a 8a39 d832 2d39 95fc 3439 eb0c 3e39
00000230: 86a9 0939 9ad7 1e39 b6f5 3639 e9d1 1939
00000240: 35ea b839 8371 8d39 039f 3039 425c 0739
00000250: d9c3 8b39 6384 2e39 ccce 7f39 a95d 2639
00000260: 5008 0039 928f 7f39 878f 0139 c6e1 2639
00000270: 5eab 1739 70ce 0439 6f1b a839 eb51 2c39
00000280: 3ff9 0f39 ede2 2239 80c5 0139 c2df 2039
00000290: 3d90 0d39 6928 d138 ebbd 343a a5f1 1939
000002a0: 9cb5 5a39 a1dc 4239 0b68 0739 f59d 1b39
000002b0: 7da5 2539 b5dd 0a39 aa82 9239 6256 4339
000002c0: af69 0239 3257 0c39 08f6 c838 88d8 7539
000002d0: 68cd 4539 2e26 5939 b024 8639 92e7 5c39
000002e0: b532 1c39 0bb8 1c39 ee99 6d39 74bf 0839
000002f0: 7c98 1b39 f911 2439 4d93 8639 d449 3739
00000300: 833b 7a39 9179 0739 d86d 0c39 cf0e 7a39
00000310: 08c3 3e39 9fe3 1039 5649 3b39 400c 3d39
00000320: 32a6 1d39 33f6 3839 06d0 3c39 358d 2039
00000330: a6b6 0939 0931 0039 95bf 0e39 68e2 0739
00000340: 75ac 2439 cb7f 1739 889e 4b39 cda8 ff38
00000350: d4db 1439 1643 3339 671a 0b3a 8659 b438
00000360: c927 f538 a3d8 0939 a333 b538 f4d1 5c39
00000370: b89b 1c39 0baf ee38 aeed 1639 1b4f 6139
00000380: 237f 3b39 1cbb 1439 bae5 0539 93c1 f438
00000390: 9def f738 ff5c 0039 3aae 1039 cad8 ba39
000003a0: 8bdd 3939 e66b 3b39 b853 0539 42ee ef38
000003b0: 065b 3a39 26ca f938 96ed 1c39 4012 ea38
000003c0: 7ce0 1b39 13fc 2539 d8e0 4b39 52e1 5539
000003d0: 3dda 4139 1615 e739 02a9 d238 52e2 0339
000003e0: 94f4 2939 dd04 e638 cf5f 2239 de17 0439
000003f0: 7476 2f39 f263 e338 5469 2139 9430 1839
0.00013547413 0.00014562922 0.00013945547 9.911705e-05 0.0001680758 0.00016005737 0.00017438717 0.00013562609
0.00012959033 0.0001454866 0.00019480797 0.00016754301 0.00016745008 0.00011882642 0.00014672165 0.0001258829
0.000107050626 0.00015196118 0.00020150622 0.0001415631 0.00014087943 0.000121534904 0.000100028374 0.0001890138
0.00011531205 0.0001676084 0.0001672854 0.000107178355 0.00016022167 0.00034727718 0.00028643018 0.00017683607
0.00019946964 0.000104270934 0.00019280482 0.00020176246 0.00010407814 8.528985e-05 0.00012021659 0.0002457006
0.00028710262 0.00016092107 0.00014936304 0.00016250028 0.00017692191 0.00020987191 0.00023162027 0.00023560104
0.00013822276 0.00032323968 0.00025652585 0.00022065044 0.00016815495 0.00017774817 0.0001134999 0.00011794216
0.0002244069 9.2884366e-05 0.000125357 0.00014579907 0.00021185949 0.00019942386 0.00027922343 0.00019686404
0.00014510288 9.7151235e-05 0.00018199481 0.00015522068 0.00014365811 0.0001645328 0.00020144542 0.0001988871
0.00022277804 0.00018622208 0.00015589177 0.0001890018 0.00010224644 0.00019539257 0.00015267893 0.00019010014
0.00020139125 9.890225e-05 0.000209382 0.00013475811 0.00012899612 0.00033173533 0.0001727394 0.000225247
0.00012915037 0.0002586799 0.00037871307 0.0001714959 0.00012500481 0.00023094189 0.00016639433 0.00017764422
0.00019479953 0.00015584262 0.00015408098 0.00034956326 0.0001352056 0.00012594013 0.00020310839 0.000113036986
0.0006413171 0.00016362731 0.00014991028 0.00024463556 0.00014003129 0.00013606761 0.00018142349 0.00012414725
0.00017368309 0.00018594107 0.00022822472 0.00029912326 0.00012973437 0.00015462968 0.0001777407 0.00024294658
0.0002076268 0.0001483986 0.00014908324 0.00019897465 0.00015645512 8.1764374e-05 0.00011171376 0.00012576721
0.00019353536 0.00031290663 0.00017250066 9.5465824e-05 0.00020319945 0.00010920191 0.00011608693 0.0001648999
0.0002643667 0.00016517506 0.00017260232 0.00018124624 0.0001312849 0.00015148372 0.00017448407 0.00014669415
0.00035269713 0.00026978189 0.00016843904 0.00012908972 0.00026658064 0.00016643251 0.00024395733 0.00015865885
0.00012210128 0.00024372179 0.00012355867 0.00015915101 0.00014464321 0.00012665405 0.00032063897 0.00016433715
0.00013730394 0.0001553406 0.00012375973 0.00015342145 0.00013500541 9.9734236e-05 0.0006894755 0.00014681237
0.00020857755 0.00018583472 0.00012913362 0.00014840795 0.00015797275 0.00013243298 0.00027944642 0.0001862883
0.00012437136 0.00013383923 9.58257e-05 0.00023445685 0.00018863904 0.00020708956 0.00025585806 0.00021067102
0.00014896209 0.0001494588 0.00022659425 0.00013041293 0.00014838757 0.00015646954 0.0002566822 0.00017479743
0.00023864028 0.0001291989 0.0001339236 0.00023847375 0.00018192467 0.00013817706 0.0001786103 0.00018029008
0.000150346 0.00017639324 0.00018006572 0.00015311393 0.0001313338 0.00012225298 0.00013613545 0.00012958946
0.00015704504 0.00014448089 0.00019418646 0.00012190789 0.00014196272 0.00017095762 0.00053063635 8.599744e-05
0.00011689921 0.00013146042 8.640371e-05 0.00021059049 0.00014935329 0.00011381329 0.00014393657 0.00021487141
0.00017881072 0.00014184084 0.00012769448 0.00011670883 0.00011822509 0.00012241675 0.00013797815 0.00035638205
0.00017725506 0.00017873905 0.00012715056 0.00011440787 0.00017772251 0.00011910898 0.00014965827 0.00011161389
0.00014865579 0.00015829531 0.0001944335 0.00020397201 0.00018487214 0.00044075464 0.000100450605 0.00012577444
0.00016208208 0.000109681605 0.00015485215 0.00012597392 0.00016733428 0.0001084282 0.00015393394 0.00014513946

model.1.weight f4 [32, 1024]
00000000: e8cb 00bc 0108 1f3c 2e92 2fbc 1cb7 8c3c
00000010: da16 da3c 6e1b c2bc 7128 f03c b1b5 043c
00000020: 2e61 dc3c 66fb 843b a9f6 663c e31e 9bbb
00000030: e45c cf3c 1aa6 f93b 4e23 52bc 2ad4 3d3c
00000040: 18b0 1bbc 4c75 5ebb cd34 52bc 31b6 963c
00000050: 03e9 c4bc 5395 2bbc dbbb 3abc c0da afbc
00000060: e396 993b 28ad 0bbd 9c8a dd3c 3181 ebbc
00000070: 0a36 cb3c c4ca d93b 0c3e 1cbc 9320 b33c
00000080: 5e8b e53b d6f5 db3c 6103 d439 0a42 63bc
00000090: de19 343c d1fa 01bc 8d55 643c b888 f63c
000000a0: b99b a73c bcfd 38bc 8185 b13c 8200 f63b
000000b0: 5a5d 4c3c cf76 aebc 6167 13bd 051b 34bc
000000c0: 342d a3bc 69cb bc3c 6434 133c 4317 6e3c
000000d0: 7b70 543c 6b76 823b 1438 d83c 840a b5bc
000000e0: 6e72 a5ba d2e1 8ebc 7bf3 5a3c fe0e 1dbc
000000f0: 0b0e ef3b 1c04 79bb 1baa fa3c 9390 7ebc
00000100: e94a abbc 3072 98bc aec4 f33c 670d 373c
00000110: bf21 f03c 5083 cdbc b2b6 03bd 7fe2 dcbc
00000120: a716 aabc 38f1 443c 8923 553c af49 e33c
00000130: c9ae 6dbc c65a afbc f169 6b3c 1bf9 50bc
00000140: 2a67 993c eb06 1cbc 8b87 9a3c 20a7 c9bc
00000150: b1d9 49bc 3124 333c 163a 143b 77d2 51bb
00000160: 51b3 863c 1a78 b33c b241 9fbc d0b9 50bc
00000170: e5ee 043d 1cbc 21bc cdb7 0ebc 0c5d febc
00000180: c9e4 58bc 05be 183c 25f2 e9b9 c54d a1bc
00000190: acaf ef3a 3d3c b9bc 76ab c4bc d1f4 83bc
000001a0: 290d ebbc dd7f b9bc 002c 0c3d e15c 1a3c
000001b0: d800 313c 9e26 fbbc 3751 96bc b5d5 0ebc
000001c0: bb24 8c3b 1f45 e1bc a958 84bc 80f5 b4bc
000001d0: 767a f93a 90da 06bc 7859 e639 ca49 93bc
000001e0: a284 b5bc cbd6 96bc 5eb9 66bc c9d4 c2bc
000001f0: c120 fa3c 6b9b 20bc a063 f83c 490c 6e3c
00000200: b5d5 c5bc 7113 a53c a605 53bc d4ef 45bc
00000210: 5699 bebc b7d0 07bd 642d 173c 8f05 05bc
00000220: 541b f83b 7d09 b8bc cc85 b43c ddce cebc
00000230: 26ee 05bc 93c2 bc3b 5126 a23c bb2d c93c
00000240: 8321 cc3c 8f45 c5bc c414 863b 376e 2dbc
00000250: 6682 63bb 0db0 bbbc 235a e73c e146 a2bc
00000260: 2dae 813c e6e3 1c3c 27f4 383c 7719 99bc
00000270: 6aaa d93c 3f10 273c 544f d83b 98b2 e2bc
00000280: a503 2d3c 3e12 1fbb 1cd1 96bc ff0c f33c
00000290: 17c3 e43b 82c0 6bbc 27b0 a4bc 7122 823a
000002a0: 8832 9c3c 2cb4 1dbc 4f4a 9ebc 2977 1fbc
000002b0: 2919 e1bc 188b 233c b3b7 a13c 54f9 f2bc
000002c0: 9594 8f3b fdd2 713c 8a1b 0e3b 5d4e 5dbc
000002d0: 55eb 983c f01d 713c 7f3a 233c 2a22 08bc
000002e0: 067f 6ebb eade 473a b56c d1bb cc58 c2bb
000002f0: c67e a73c 5c81 c13c e864 9cbb 9720 04bc
00000300: 61c8 e73a 2522 163a 6637 163c b766 433c
00000310: 68ee ecbc ae46 88bc ff58 c43c 7fa7 023c
00000320: a8b1 8dbb 364b acbc 13b1 9fbc a832 01bd
00000330: 5636 f6bb 1ec6 0e3c b3b4 803c 5a50 823c
00000340: 2df2 fbbc 52c1 9dbc 8e3c f7bb 62b3 e33c
00000350: 63e6 083b d389 fbbb 075e 2c3c 3585 5cbc
00000360: 7b78 a3bc 27a9 de3c b26d 43bc a251 b3bb
00000370: aa30 0fbd 050a b63c a693 e33c 6168 093c
00000380: 8377 aebc ce40 01bd 3832 cebc 510b e33c
00000390: ad0d a43c 31ab d43c 65cc a43c 7075 b83b
000003a0: 04fe 97bb 3250 debc 86e1 e8bc 069a f8bc
000003b0: e792 1f3c 1262 8cbc bac6 94bb 3d48 a3bc
000003c0: fe39 1abb ef4c a4bc 86f6 92bc ad7e 1a3c
000003d0: 90ef 19bc 3d25 8c3c 2c44 49bc 44ed aebc
000003e0: 57df abbb 6008 7fbc a1f3 34bc cdfe f7bc
000003f0: 6e3b 863c 1244 c6bc 0db0 513c 02ad 773c
-0.007861115 0.009706498 -0.010716004 0.017177157 0.026622225 -0.02369472 0.029316159 0.008099959
0.026901808 0.0040582893 0.014096894 -0.0047339066 0.025312848 0.007618678 -0.0128258 0.011586228
-0.009502433 -0.0033944426 -0.0128299715 0.018397423 -0.02403689 -0.010472613 -0.011397327 -0.021466613
0.0046871766 -0.03410068 0.027043633 -0.028748127 0.024806041 0.006646486 -0.0095362775 0.021866119
0.0070051393 0.026850622 0.00040438308 -0.013870725 0.010992495 -0.007933334 0.0139364125 0.03009449
0.020459997 -0.011290964 0.021670105 0.0075073848 0.012473429 -0.021296887 -0.03598726 -0.01099277
-0.019919015 0.023046212 0.008984659 0.014531913 0.012966271 0.0039814017 0.026393928 -0.02209974
-0.0012622604 -0.017441664 0.013363714 -0.009586094 0.007295375 -0.0037996834 0.03059869 -0.015537399
-0.020909743 -0.018609136 0.02975687 0.011172629 0.029312966 -0.025087029 -0.032156654 -0.02696347
-0.020762755 0.012020402 0.0130089605 0.027745096 -0.014507004 -0.021405589 0.01436852 -0.012754704
0.01872595 -0.009523134 0.01886346 -0.024615824 -0.012319968 0.010933922 0.002261763 -0.0032016316
0.016442927 0.021907855 -0.019440506 -0.012739614 0.03245439 -0.009871509 -0.008710814 -0.031050228
-0.01323814 0.009322648 -0.00044621635 -0.019690404 0.0018286607 -0.022611732 -0.02400754 -0.016107948
-0.028692799 -0.022643978 0.03422165 0.009421558 0.010803424 -0.030658063 -0.018349273 -0.008717944
0.0042768396 -0.02749878 -0.016155558 -0.02208972 0.0019033689 -0.00823082 0.00043935678 -0.017979521
-0.02215797 -0.018412968 -0.014082281 -0.023783104 0.030533196 -0.0098026795 0.030320942 0.014529296
-0.024149755 0.020150872 -0.012879765 -0.012081105 -0.023266476 -0.03315803 0.009227131 -0.008119001
0.007571617 -0.022465462 0.022036456 -0.025245124 -0.008174455 0.0057604997 0.019793661 0.024557939
0.024918323 -0.02408102 0.004091831 -0.010585359 -0.0034715175 -0.022911096 0.028241223 -0.019809188
0.015830124 0.00957582 0.011288679 -0.0186889 0.026570518 0.010196744 0.0066012535 -0.02767305
0.010559951 -0.0024272348 -0.018410258 0.029669283 0.0069812643 -0.014389159 -0.020103527 0.0009928477
0.019067064 -0.009625476 -0.019322542 -0.009733 -0.027477818 0.009981893 0.019740915 -0.029659905
0.004381726 0.014759776 0.0021683895 -0.013507453 0.018666903 0.01471661 0.009962677 -0.008308927
-0.003639163 0.00076244643 -0.0063911327 -0.0059309956 0.020446192 0.023621254 -0.004772771 -0.008064411
0.0017683619 0.0005727134 0.009168481 0.011926345 -0.028922275 -0.016635265 0.023968218 0.0079745045
-0.004324157 -0.021031957 -0.019493615 -0.03154245 -0.0075138016 0.008714227 0.015711164 0.015907455
-0.030755127 -0.019257221 -0.0075450605 0.027795497 0.0020889274 -0.007676342 0.010520465 -0.013459493
-0.01995491 0.027180267 -0.011928009 -0.005472378 -0.03495852 0.022221575 0.027780365 0.008386702
-0.021297222 -0.031555943 -0.02517043 0.027715357 0.020026052 0.025960537 0.020116994 0.005629234
-0.0046384353 -0.02713785 -0.02842785 -0.030346882 0.009739614 -0.017136607 -0.0045402916 -0.019931907
-0.0023533101 -0.020056216 -0.017939817 0.009429616 -0.009395495 0.0171076 -0.01228432 -0.021353371
-0.00524513 -0.015565962 -0.011044414 -0.030272866 0.01638576 -0.02420238 0.012798321 0.015116932

model.1.bias f4 [32]
00000000: 04ac cf3a dc3f b93c b6c5 aebc 60f7 ae3a
00000010: 23cd 47bc 4079 c2ba 9ddd 63bb c48c 113d
00000020: 6c0f 19bc e6f1 d3bc fdc2 69bc fdd5 e5bb
00000030: 4508 b03c bb75 a63b 5ecc 81bc 9669 133c
00000040: 0992 583c 3eb3 d7bb 6468 4f3b e5b7 97bc
00000050: 3cac 153c c720 d8bc 6a24 47bc af8a 473c
00000060: 1867 ac3b 87f7 a3bc c022 51ba 8de4 b73c
00000070: 87ee 0f3d c084 00bc 7f57 313c 5558 d63b
0.0015844111 0.022613458 -0.02133451 0.001334887 -0.0121949045 -0.0014837161 -0.0034769543 0.035534635
-0.009342056 -0.025872182 -0.01426768 -0.007014035 0.021488318 0.0050799525 -0.01584452 0.008997342
0.013218411 -0.0065826466 0.0031647915 -0.018520305 0.009135302 -0.026382817 -0.012154678 0.012179061
0.005261313 -0.020015491 -0.00079778954 0.022447849 0.035139587 -0.00784415 0.010824083 0.0065412917

model.4.weight f4 [64, 32]
00000000: 169e ecbd fd70 5f3c 4308 edbd 073b 35bc
00000010: 2283 10be 2084 c5bd 19ec 57bd 30b3 9fbc
00000020: fe03 13be 2990 83bd dd48 36be ce40 0ebe
00000030: 232c 2bbe ca92 f1bd cdfb 60bc d34f e33d
00000040: 1f58 963b dbf3 2cbe 552b 123e a727 f8bd
00000050: 6c37 a1bd 685f 273d 4640 70bd ac3a 6a3c
00000060: e016 4abd 3364 2fbc d1d2 2dbe 9fff 513a
00000070: 8ef3 703c 4622 d73d 743b 04bb f21b cf3d
00000080: 3eb6 243c 2ce6 bd3d 7c94 76bd 6f59 c93c
00000090: e336 ae3b 3214 04be 7e82 373e e5f2 013e
000000a0: 2ec2 ba3d 0d96 10be 3ac2 2f3e 2a1d 313e
000000b0: b71b 90bb e1dc 8abc 166e 1d3e 60cb 10be
000000c0: f141 313e 4dbe 2fbd 13de 9abd 1fd4 593c
000000d0: 5152 6e3d 2f3a b73c 119a f03d 893e 0bbe
000000e0: 0cb4 20bc 3751 f0bb 21c9 f2bd 4894 05be
000000f0: 3963 6ebd 17c8 69bd 4c3e 823c bcaa 91bd
00000100: 7f30 2c3e 01a0 8f3d 43d6 a5bd 649f 9abc
00000110: a96a 17be a9ab b03d ce77 adbd 0c11 133e
00000120: 1eef ce3d 7417 69bd 0a18 dc3c 2d3f b2bc
00000130: 399b 12be d823 f7bd 9a70 b5bd 4bd0 323e
00000140: 9587 f4bd 9b14 a63d 7fbd 87bd eee9 873d
00000150: 0359 073e 3f2d 003e aa38 15be 2dfd 693c
00000160: 6c38 493d d3ff de3c 6240 4d3c 8147 373e
00000170: 34d2 07be 3313 263d 09d0 243d 264d 1c3e
00000180: 034e c53d f947 72bd 0f21 f5bb 0f90 02be
00000190: e575 903c b72f c33c ff3d 203e 94a6 273e
000001a0: 4b4b f4bd bd30 333e 9075 19be b998 583d
000001b0: 53ce bb3d f90a c83d a7bc 103e 3a83 2fbd
000001c0: 0e96 1e3e 64d7 a23c eb27 fb3b cfd6 61bd
000001d0: e576 17be d4b0 36bd c2ec 11bb 527a d73c
000001e0: eeb6 c6bc 668e 8abb 1bcc 3c3c 9c7f bdbd
000001f0: 3390 aabb caf0 15be 1b28 363c f42f 253e
00000200: 190f a4bd 94f3 e63d baeb 5abd 3886 96bd
00000210: 55b7 b13d 9b02 2ebe 8bac eb3d bec9 f93d
00000220: b0d2 843d d351 98ba 1578 a2bd 4d51 dfbd
00000230: 8417 273e da99 ac3d 5971 c93d 4a0e dcbd
00000240: 537c e03d 834e dbbd b838 0d3e 7713 103e
00000250: 47ca 20be 728f 26be bfb5 1cbe f1e0 9fbd
00000260: a95f 513d 345e 1ebe 5fd8 1a3e a67f e0bd
00000270: faa4 51bd c67f 353d d464 cbbd f5f2 56bb
00000280: 3ed9 18be 8539 1fbe f59d 843c 013e 8bbd
00000290: 4d37 043e cc7a c6bd 5a48 d13d bc9a 0b3e
000002a0: ed85 30bd e99d f1bc ab70 783d 4c93 bbbd
000002b0: 17cb 5a3d 58aa 4cbd 33b8 21bd 48d8 0bbe
000002c0: 3be3 153e e942 1bbe b114 ecbc dd96 9d3d
000002d0: 270f f1bd af5c 8e3c 77b7 313e 2433 6a3d
000002e0: 2f6a fc3d 2cfe 04be d67d c23d 72b6 5d3c
000002f0: f263 d53c cc94 78bd ba79 1cbd 9421 e93d
00000300: ed20 d43d 89cd 11be 39d2 153e b8d1 273e
00000310: 6bcd 83bd d834 a23c 4a31 bf3d f041 34be
00000320: a7db 793d e473 193e 521e 5ebd dbfd 18be
00000330: b35b e6bd 3f85 e53d 27df 7abc ecd9 68bc
00000340: 1f74 ce3c 6ead 733d c24a cc3d dda2 843b
00000350: 764e 34be 26a9 e43d 15a6 de3d d098 f53b
00000360: a6ae cdbd efd4 32bd 06d2 983d 572b 013e
00000370: 07b6 25be 4791 d73c d0fe 603c 9c60 153d
00000380: 3f1e 1bbd 401c 1cbc 5482 2abe f98e 1fbc
00000390: 9c47 15be b1e3 1f3e a6e9 963d 8fa9 913d
000003a0: 84fe b1bd fa57 8fbd 5c7e d13c 5339 d6bc
000003b0: 5d70 823a f1d5 943c b90c e63b cd6d 17be
000003c0: edc1 313e 3841 93bd 866f ef3c 4b16 e3bd
000003d0: c5cc 253e 2515 a0bd 6dfa ce3d b307 973d
000003e0: b5c1 e8bc 9ca1 353d 2810 03be 5678 1ebe
000003f0: ad5c d13d 1b24 ea3d 04a3 12be 56dd 5fbd
-0.1155359 0.013637778 -0.115738414 -0.0110614365 -0.14112523 -0.096443415 -0.052715395 -0.019494623
-0.14356992 -0.06423981 -0.17801233 -0.13891909 -0.16716056 -0.11795576 -0.013731909 0.1109921
0.0045881416 -0.16889898 0.14274342 -0.12116938 -0.07871899 0.04086247 -0.058655046 0.014296215
-0.04933822 -0.010705042 -0.16974951 0.0008010808 0.014706505 0.10504584 -0.0020177038 0.10112752
0.010053216 0.092724174 -0.0602002 0.024578778 0.0053166016 -0.12898329 0.17920873 0.12690313
0.09119068 -0.1411974 0.17163935 0.17296281 -0.004397835 -0.016951026 0.15374026 -0.14140081
0.17310311 -0.042906094 -0.075618885 0.0132952025 0.05818397 0.022366611 0.11748136 -0.13598074
-0.0098085515 -0.0073339003 -0.118547685 -0.13044846 -0.058200095 -0.057075586 0.015898846 -0.07112643
0.16815375 0.0701294 -0.08097508 -0.018874831 -0.14786781 0.086264916 -0.084701166 0.14361972
0.10104202 -0.056907132 0.026866931 -0.02175864 -0.14317025 -0.120673835 -0.08859368 0.1746227
-0.11939923 0.08109399 -0.066279404 0.066364154 0.13217549 0.1251726 -0.14572397 0.014281553
0.049126074 0.027221596 0.012527557 0.1789837 -0.1326378 0.040545654 0.04023746 0.15263805
0.0963402 -0.05915067 -0.0074807475 -0.12750266 0.017634341 0.023826463 0.1564865 0.16372138
-0.119284235 0.17499061 -0.14986253 0.052880023 0.091702126 0.09767718 0.14134465 -0.042849757
0.15486929 0.019878097 0.0076646707 -0.055136498 -0.14791448 -0.04460223 -0.0022266363 0.026303444
-0.02425715 -0.004228401 0.011523272 -0.09252855 -0.005205178 -0.14642635 0.01111796 0.16131574
-0.08010692 0.112769276 -0.053447463 -0.07349819 0.08677546 -0.16993181 0.11507519 0.121966824
0.06485498 -0.0011621065 -0.0793306 -0.10904179 0.16317564 0.08427782 0.098360725 -0.10744913
0.10961213 -0.10708334 0.13791168 0.14069925 -0.15702163 -0.16265658 -0.15303706 -0.07806576
0.05111662 -0.15465623 0.15121602 -0.10961847 -0.051182725 0.044311307 -0.09931341 -0.0032798622
-0.14926621 -0.15549286 0.016188601 -0.06798936 0.1291172 -0.096913904 0.10218878 0.13633245
-0.04309647 -0.029494243 0.060654324 -0.09158954 0.053416338 -0.04996714 -0.039482307 -0.13656723
0.14637463 -0.15162243 -0.02881846 0.076947905 -0.11770468 0.01737818 0.17355143 0.057177678
0.123249404 -0.12987584 0.094966576 0.013532268 0.026048634 -0.06068878 -0.038202025 0.11383358
0.103578426 -0.14238562 0.14630975 0.16388595 -0.06435665 0.019800588 0.09335573 -0.17603278
0.061000492 0.14985615 -0.054228134 -0.14940588 -0.11247959 0.11207055 -0.015311993 -0.014212113
0.025201855 0.059491567 0.099751964 0.004047735 -0.17608055 0.11165075 0.108715214 0.0074950233
-0.10043077 -0.0436601 0.07461934 0.12614189 -0.16182719 0.02631439 0.013732627 0.036469087
-0.03787064 -0.00952822 -0.16651279 -0.009738677 -0.14578098 0.15614201 0.07368784 0.07112419
-0.08691123 -0.06999202 0.025572948 -0.026150381 0.00099517 0.018168421 0.0070205596 -0.1478798
0.17359133 -0.07190174 0.029227983 -0.110882364 0.16191395 -0.07816533 0.10106359 0.073745154
-0.02841268 0.044343576 -0.12799132 -0.15475592 0.102227546 0.11432668 -0.14319998 -0.05465444

model.4.bias f4 [64]
00000000: e0e3 cc3d c430 c03d 0de0 bb3d b0ea 22be
00000010: 2648 bfbc b79c 2dbe f09f 30bd 11a1 e43d
00000020: 8f99 a2bc 0c91 2c3e 5474 273e fb1e 31bd
00000030: 8ecf 823c 6a63 f23d 97aa a53b e361 e8bc
00000040: 4fb6 063e fd03 06be f1ee a3bd 0b2f f6bc
00000050: 0680 333e e972 29be 0ffd f0bd 9303 a7bd
00000060: d071 49bd 0345 1cbe 860b 03be 263a 023d
00000070: 2a27 093e f242 d73c 48e0 203d 04b4 103e
00000080: 7089 9ebb 7db2 b43d 8487 f63c 49e8 c0bd
00000090: 00fc ec3d 9b94 af3c 8eb0 60bc 3078 133e
000000a0: 82d4 aa3d b1a3 833d 61d1 bdbd 2014 293b
000000b0: c449 bdbd 1290 6bbd deb9 5abd 336e c73c
000000c0: eeab 463c 03e1 823d 08ed 04be 1b4a 2bbd
000000d0: 1032 50bc 5b04 0e3e 49de 7cbd c87a d83d
000000e0: 8e13 933c 97d6 123e c5e0 29be 41f9 e13d
000000f0: 8a6a 80bd 4c94 dabd e662 ecbd 239d 27bc
0.10004401 0.09384301 0.09173594 -0.15909839 -0.023349833 -0.16954313 -0.04312128 0.111635335
-0.019848613 0.16852206 0.1635297 -0.043242436 0.01596811 0.11835368 0.0050557363 -0.028366989
0.13155483 -0.13087459 -0.08004559 -0.030051729 0.17529306 -0.16547741 -0.11767017 -0.081549786
-0.049180806 -0.15260701 -0.12797365 0.031793736 0.13393846 0.02627704 0.03927639 0.1413117
-0.004838161 0.088231064 0.030093916 -0.09419305 0.11571503 0.021433165 -0.013713969 0.14401317
0.08341314 0.06427706 -0.092684515 0.002579935 -0.09242585 -0.057510443 -0.053399913 0.02434454
0.012125952 0.06390574 -0.12981045 -0.04181872 -0.012707248 0.13868849 -0.061735425 0.10570294
0.01795366 0.14339672 -0.16589649 0.110338695 -0.06270321 -0.10672817 -0.11542301 -0.010230335

model.7.weight f4 [1, 64]
00000000: fb7c c43c d603 83bd 1bb0 20bd 97f5 81bc
00000010: 1876 56bd 3a5c 37bc f3cd b73d 6b7e f2bd
00000020: 0118 97bd d088 123d befb 86bd 4b6d 8439
00000030: 2481 e53d 8a31 c2bd 38f1 00be 7ac8 1d3d
00000040: 571a f23d 13e6 dcbd d18b c13d b8a9 20bd
00000050: 7dd6 6cbd 5bdc 893d c7f6 eb3d 3d73 953c
00000060: 2b75 55bd 7a7b 50bd 9a35 1fbd 3f23 02be
00000070: b0e0 a63c 4887 443d 2618 a3bc a92b 993c
00000080: 9d69 2d3d 2f77 593d c82e 913c 1372 a43d
00000090: 7985 b7bd 12a6 233d 7c44 443d fa57 e2bd
000000a0: ce69 683d 62ba debd 9b10 98bd 5246 8ebd
000000b0: 0f99 41bd d72a 823d f65e e9bc ee60 353d
000000c0: 3d1c a2bd 9cd2 8ebd 3595 ecbd cb52 843d
000000d0: 3fa6 b8bd 0093 f2bd 24ec a6bd ebaa f5bd
000000e0: 21f0 8fbd f8a2 4e3d 4b11 2b3d 3ecc c5bd
000000f0: f422 533d 53ab 2d3d 7211 02bc a0b0 de3d
0.023985377 -0.06397216 -0.039230447 -0.015864177 -0.052358717 -0.011191422 0.089748286 -0.118405186
-0.07377625 0.035775006 -0.06590985 0.00025258432 0.11206272 -0.09482105 -0.12592018 0.038521267
0.1182143 -0.10786071 0.09450496 -0.039224356 -0.05782174 0.067314826 0.115216784 0.018243426
-0.052113693 -0.050899006 -0.038869478 -0.12708758 0.020370811 0.047980577 -0.019908976 0.018697577
0.04233705 0.053092178 0.017722502 0.080295704 -0.08961005 0.0399533 0.047916874 -0.110519364
0.05674153 -0.108753935 -0.07425042 -0.06947006 -0.04726511 0.06355827 -0.028487664 0.044281892
-0.07915542 -0.06973764 -0.115518965 0.06461104 -0.09016084 -0.11844444 -0.08150509 -0.11995491
-0.07028223 0.050448388 0.04176454 -0.09658097 0.051547006 0.042399716 -0.00793873 0.10873532

exp_avg f4 [1024]
00000000: 9216 c8b8 d55a 7737 0b1b 1439 3233 3f38
00000010: b46f 1bb9 450f 03b9 8c95 01b9 1a85 69b5
00000020: 1610 72b9 8370 9ab8 3269 d737 d390 ccb8
00000030: 6d4c a7b8 745a a3b7 ffa1 bf38 2f6b 0cb9
00000040: f078 8b36 9600 23b9 8ac6 32b8 79db b237
00000050: 6c18 a5b8 a4d0 1b39 ef24 8db7 2ad5 89b8
00000060: de2a 2238 509d a2b8 949b 88b8 da98 29b9
00000070: 99c0 4438 d7b0 98b8 ffc5 3eb9 22f5 1ab9
00000080: 47df 93b8 5831 4fb9 7e51 c6b7 c0df 24b9
00000090: 42b5 f9b8 f80e 47b5 89a8 69b7 3489 f6b6
000000a0: 292c be36 9db4 18b8 6395 ddb7 d091 7db7
000000b0: 4ae1 a4b7 0ef3 3d37 56a0 04ba 9dd1 2a38
000000c0: 9217 f037 53fd e037 e161 25b9 4e67 6fb8
000000d0: 3955 e235 1ba2 8538 a55f 57b8 001a 8038
000000e0: 97bb 24b8 cb9c 99b8 227c bdb8 f3b7 8838
000000f0: 4614 4f38 b423 5ab9 bb54 d3b9 89a2 a037
00000100: a97b 3fb7 0256 14b7 0912 80b8 c528 21b9
00000110: 5321 1cb7 79cb d7b8 bb27 1b38 a923 6eb8
00000120: 2231 02b9 df24 88b7 caf6 e4b8 edd9 e1b7
00000130: 84dd aab8 1a1d 52b8 53b9 17b8 6c76 f3b6
00000140: 69aa abb9 1860 0238 66cc 78b9 d95b bab8
00000150: 6276 38b9 1798 c7b8 06ca 5eb9 35f6 ccb8
00000160: 648c 84b9 5c3a 3bb9 a2c6 a2b7 7780 dcb8
00000170: 9f5a 43b9 4494 1e39 447f 5eb9 c8d1 cfb8
00000180: 976d 81b9 2dc4 94b8 09a4 c7b8 fa41 6338
00000190: 50a8 2fb8 e0e4 fdb8 cc89 bab8 1d74 2ab9
000001a0: f21f b5b8 86a7 3ab9 f994 8fb8 dbe7 c0b8
000001b0: af89 ab35 631f 37b9 2092 1436 6a3e 3fb9
000001c0: b0a9 bbb7 e993 7db8 b6af 14b7 aff8 ca37
000001d0: 7b5d 3cb9 0bb2 13b8 7b41 42b8 cdfb 2eb9
000001e0: 35c2 1739 a2ad a9b7 4142 bdb9 e998 9438
000001f0: 25ab c8b9 960e 2538 9d0a dcb8 1b06 86b9
00000200: 1cca e337 9677 1ab8 0aff d8b9 3809 7bb8
00000210: 2942 02b9 14dc aeb8 7039 25b9 30e2 b9b7
00000220: 7af9 3ab9 026f c0b7 38e8 0bb9 002f 75b9
00000230: b337 cbb7 fa6a 82b8 e165 46b9 984c 1b39
00000240: eae3 5f38 1f81 33b9 5808 f537 483e f0b8
00000250: 1c93 2db8 06ff 43b7 7483 26b8 f6e7 acb8
00000260: d7b2 9e38 07e2 89b8 4bda 11b9 fa59 c236
00000270: 987b 3db9 8be9 0db9 666c 58b9 2f0f ccb9
00000280: 51de f3b8 c5d3 aeb8 76e9 5cb9 84ab 5bb9
00000290: f2ba 09b9 7fe9 4839 5b9c 25b9 f455 d0b8
000002a0: db0c 0838 3d8d f938 b52b 1eb8 2aaa 8d38
000002b0: 7244 8e36 4e58 3c38 f51c d4b8 e06c a2b8
000002c0: 91f4 7ab9 cc3b 5f39 19b2 19b9 8a2a a2b8
000002d0: 25ba 67b8 955b 6438 f38a 9337 853f 87b8
000002e0: b82f 33b9 5b41 f0b8 1b1c 36b9 a796 0038
000002f0: 8834 50b9 7352 b638 f942 3eb8 bdb9 2cb9
00000300: b136 fdb7 3ad8 c1b7 443b eeb7 d464 f7b8
00000310: 7695 87b9 5851 bfb9 bdae b437 7e31 2d38
00000320: 649c 5038 acad 6fb9 c17d 63b9 d33a acb8
00000330: 55e8 4bb9 6995 98b8 18b1 2839 f00b 31b8
00000340: 5089 1ab9 72f5 65b9 7f24 49b9 1c28 feb8
00000350: c068 9f37 8ab0 efb8 ff2a d6b9 5122 70b9
00000360: 07b7 ecb7 c745 37b9 8c4d 2039 6705 e1b8
00000370: 4061 87b9 d921 95b9 85aa 39b9 5997 7238
00000380: 3810 ae38 8d33 6eb8 f5e0 e2b8 2edf 31b9
00000390: 9ea8 0fb8 8a1a 3db9 d9a7 22b8 d7fe 45b9
000003a0: ed22 6f38 18cf 10b9 4bf8 26b9 21a2 80b8
000003b0: 2048 20b7 0f70 e9b8 2db1 17b9 fe68 9cb8
000003c0: a88c 9538 364a ecb7 7f76 db38 9d57 fab8
000003d0: dbef 2ab9 62fe 9bb9 93c2 e2b6 caff 86b7
000003e0: 6b69 cd37 7fbe b6b6 d3fe 30b9 81e1 00b9
000003f0: 8bb4 d5b8 7b35 65b8 4a88 cfb8 7706 1b39
-9.540947e-05 1.4743496e-05 0.00014124454 4.5585628e-05 -0.00014823565 -0.00012498822 -0.00012358109 -8.699295e-07
-0.00023084911 -7.364249e-05 2.5678983e-05 -9.754454e-05 -7.977416e-05 -1.9473235e-05 9.137764e-05 -0.0001339137
4.156602e-06 -0.0001554511 -4.262341e-05 2.1321453e-05 -7.872362e-05 0.00014859677 -1.6825708e-05 -6.572374e-05
3.8663733e-05 -7.754064e-05 -6.513964e-05 -0.00016174038 4.6909412e-05 -7.280864e-05 -0.00018193571 -0.00014777904
-7.051095e-05 -0.0001975944 -2.3641387e-05 -0.00015723612 -0.00011907007 -7.415506e-07 -1.3927122e-05 -7.347344e-06
5.667582e-06 -3.6407833e-05 -2.6414817e-05 -1.5113925e-05 -1.9655232e-05 1.1321868e-05 -0.00050592923 4.0726376e-05
2.8621205e-05 2.6820844e-05 -0.00015772089 -5.707825e-05 1.6863115e-06 6.372129e-05 -5.134907e-05 6.1083585e-05
-3.9275354e-05 -7.3248135e-05 -9.035344e-05 6.5192486e-05 4.9371527e-05 -0.000208034 -0.00040308185 1.9149173e-05
-1.1413279e-05 -8.841513e-06 -6.106875e-05 -0.00015369344 -9.3060835e-06 -0.00010289899 3.699188e-05 -5.6776833e-05
-0.0001241607 -1.6229633e-05 -0.00010917855 -2.692357e-05 -8.147492e-05 -5.0095005e-05 -3.6173802e-05 -7.2557505e-06
-0.00032742627 3.108391e-05 -0.00023727267 -8.886279e-05 -0.00017591708 -9.5173884e-05 -0.0002124683 -9.773338e-05
-0.000252816 -0.0001785545 -1.94044e-05 -0.00010514346 -0.00018630408 0.00015123287 -0.0002121898 -9.909604e-05
-0.00024686448 -7.0937305e-05 -9.5196134e-05 5.4182463e-05 -4.1880005e-05 -0.000121066114 -8.894838e-05 -0.00016255719
-8.636703e-05 -0.0001780075 -6.84652e-05 -9.19846e-05 1.2780564e-06 -0.00017463932 2.2138775e-06 -0.0001823843
-2.2371154e-05 -6.0457653e-05 -8.862398e-06 2.4196079e-05 -0.00017963901 -3.5213347e-05 -4.6314188e-05 -0.00016687736
0.0001447283 -2.0227224e-05 -0.00036098252 7.085672e-05 -0.00038274485 3.935265e-05 -0.00010492394 -0.0002556302
2.7154623e-05 -3.6827834e-05 -0.0004138875 -5.985165e-05 -0.00012422413 -8.337959e-05 -0.00015757023 -2.2159045e-05
-0.0001783128 -2.2939876e-05 -0.00013342581 -0.0002338253 -2.4225423e-05 -6.218809e-05 -0.00018920704 0.00014810485
5.3379605e-05 -0.00017118872 2.9210161e-05 -0.000114556926 -4.138342e-05 -1.1682283e-05 -3.969991e-05 -8.244805e-05
7.5673386e-05 -6.57477e-05 -0.00013909598 5.792125e-06 -0.00018070487 -0.0001353381 -0.00020639747 -0.00038921225
-0.000116285526 -8.336412e-05 -0.00021067806 -0.00020949362 -0.0001313498 0.0001916047 -0.00015793873 -9.934223e-05
3.24369e-05 0.00011899553 -3.771084e-05 6.7550995e-05 4.239898e-06 4.4904933e-05 -0.000101143414 -7.7450415e-05
-0.00023932966 0.00021289213 -0.00014657564 -7.7326855e-05 -5.5248052e-05 5.444473e-05 1.7588469e-05 -6.449133e-05
-0.00017088547 -0.00011456265 -0.00017367343 3.0657884e-05 -0.00019855995 8.693794e-05 -4.5361903e-05 -0.00016472391
-3.0185418e-05 -2.3108081e-05 -2.8399409e-05 -0.000117966585 -0.00025860564 -0.00036490965 2.1539041e-05 4.1292507e-05
4.9736715e-05 -0.00022857514 -0.00021695254 -8.212556e-05 -0.00019446139 -7.2757546e-05 0.00016087701 -4.2211206e-05
-0.00014737737 -0.00021930577 -0.0001918245 -0.00012119135 1.9003055e-05 -0.00011429291 -0.00040849295 -0.00022900967
-2.8218621e-05 -0.00017478234 0.00015287678 -0.00010729842 -0.00025821663 -0.00028444713 -0.00017706498 5.783825e-05
8.2999875e-05 -5.6791632e-05 -0.00010818421 -0.00016963176 -3.4250894e-05 -0.00018034331 -3.878013e-05 -0.0001888232
5.7014568e-05 -0.00013810059 -0.0001592349 -6.1337145e-05 -9.553536e-06 -0.00011131178 -0.00014466485 -7.458216e-05
7.131073e-05 -2.816795e-05 0.000104648054 -0.00011937248 -0.00016301817 -0.00029753434 -6.7579763e-06 -1.6093156e-05
2.4486993e-05 -5.4461993e-06 -0.00016879597 -0.00012291038 -0.0001019026 -5.4647662e-05 -9.895915e-05 0.0001478436
