lightning_logs/version_4/checkpoints/epoch=199-step=1600.ckpt (torch, 464377 bytes, 23 tensors)

model.0.weight f4 [1024]
1.0193251 1.0175545 1.0074351 1.0266597 1.0188957 1.0063834 1.0270321 1.0407821
1.0051404 1.003396 1.0311656 1.0058596 1.0372143 1.0142813 1.0486745 0.98969764
0.99287313 1.0417056 1.008222 1.0016885 1.0284177 1.0317338 1.066661 1.0204028
1.0094523 1.0250229 1.0134733 1.0176712 1.0136983 1.0276799 0.9993087 1.0002512
1.0254811 1.0203569 1.0067492 1.0012722 1.0138183 1.0060256 1.0030711 0.99455565
1.017545 1.013313 1.008897 1.0214485 1.0033038 1.0094775 1.0000572 1.0036747
1.0182418 1.0021524 1.0055925 0.99819356 1.0079052 0.99771637 1.0382572 0.9982845
1.0102084 1.0366281 1.0029998 1.0061074 1.0023689 1.0091387 1.0012475 1.021497
1.0170484 0.9992806 1.0276806 1.0544401 1.008755 1.0099638 1.0009189 1.0252497
1.0165735 1.0242398 1.02439 1.011366 1.0148393 1.0100058 1.0086945 1.01376
1.0317273 1.017829 1.0112913 1.0187199 1.0035665 1.0195678 1.0122406 1.007504
1.0029274 0.9989159 1.0030414 1.0242049 1.0102406 1.0101752 1.026805 1.016876
1.0090866 1.0000991 1.0148132 0.993234 1.017422 1.0050933 1.0143129 1.0209656
1.0030069 1.0083449 1.0258121 1.0089096 1.0015924 1.0262351 1.0136875 1.0128988
1.0000669 1.0198145 1.0058881 0.98577255 1.0521418 1.0008647 1.0077788 1.0096215
1.0080597 1.00809 1.0117711 1.017553 1.0374522 1.0070199 1.0421711 1.0159975
1.0068853 1.0338788 1.0064905 1.0559158 0.99731916 1.0294367 1.0275874 1.0269595
0.9935758 0.9862142 1.0164582 1.0266802 1.0168093 1.0100325 1.007897 1.0149932
1.0101056 0.99949116 1.0183579 1.0077407 1.001445 1.001043 1.0074645 1.0162778
1.0062865 0.9916897 1.0094281 1.0026525 1.0075151 1.0114001 1.0171041 1.0149655
1.0175191 1.0308849 1.0230385 1.0212989 1.0239228 1.0117669 1.0166246 1.0214494
1.0225766 0.99528843 1.0073991 0.9970591 0.9974615 1.0055388 1.0212483 1.0036279
0.99275374 1.0148146 1.016044 1.0101079 1.0257732 1.0028477 0.9997541 0.9963628
1.0290804 1.0307102 1.0265765 1.0121468 1.0235095 1.0005877 1.0093939 1.0183845
1.010254 1.0160629 1.019767 1.0066304 1.0131371 1.0219702 1.0004904 1.0251226
1.0226685 1.0247294 1.0486557 1.0249076 1.0045594 1.0190482 1.0465591 1.0137639
1.0242125 1.0086572 1.0097157 1.0156394 1.0043796 1.0587237 0.99257374 1.0350869
1.0026025 0.9978434 1.0093993 1.0146364 0.99754256 1.0346141 1.024587 1.024295
1.0051595 1.005438 1.0018694 1.0183245 1.0079132 1.0181376 0.98752576 1.0206833
1.0103558 1.0122284 1.0148824 1.034521 1.0176219 1.0110536 1.0354221 1.0270147
1.0072672 1.0118139 1.0233696 1.0075717 1.0158689 1.0027822 1.0000219 1.0112338
1.0096648 1.0010927 1.0127156 1.0245061 1.0126821 1.0155016 0.9991983 1.0233263
00000000: 3f79 823f 3a3f 823f a2f3 803f 9669 833f
00000010: 2d6b 823f 2cd1 803f ca75 833f 5938 853f
00000020: 71a8 803f 486f 803f 3cfd 833f 02c0 803f
00000030: 70c3 843f f8d3 813f f73a 863f d35c 7d3f
00000040: ef2c 7e3f 9c56 853f 6b0d 813f 5437 803f
00000050: 31a3 833f da0f 843f 5988 883f 8f9c 823f
00000060: bc35 813f f333 833f 7eb9 813f 0d43 823f
00000070: dec0 813f 048b 833f b2d2 7f3f 3b08 803f
00000080: f742 833f 0e9b 823f 28dd 803f b029 803f
00000090: ccc4 813f 72c5 803f a264 803f 339b 7e3f
000000a0: ea3e 823f 3eb4 813f 8923 813f d3be 823f
000000b0: 426c 803f 8f36 813f e001 803f 6a78 803f
000000c0: bf55 823f 8846 803f 41b7 803f 9d89 7f3f
000000d0: 0a03 813f 576a 7f3f 9de5 843f 938f 7f3f
000000e0: 824e 813f 3bb0 843f 4c62 803f 21c8 803f
000000f0: a04d 803f 752b 813f e128 803f 6ac0 823f
00000100: a42e 823f dad0 7f3f 0a8b 833f e5f7 863f
00000110: e21e 813f 7e46 813f 1c1e 803f 623b 833f
00000120: 151f 823f 4a1a 833f 361f 833f 7174 813f
00000130: 41e6 813f df47 813f e71c 813f e3c2 813f
00000140: a40f 843f 3848 823f fe71 813f 6a65 823f
00000150: de74 803f 3381 823f 1a91 813f e4f5 803f
00000160: ed5f 803f f4b8 7f3f a963 803f 2519 833f
00000170: 904f 813f 6c4d 813f 596e 833f fe28 823f
00000180: c029 813f 3f03 803f 66e5 813f 9544 7e3f
00000190: e23a 823f e6a6 803f 01d5 813f 00af 823f
000001a0: 8862 803f 7211 813f d04d 833f f323 813f
000001b0: 2e34 803f ac5b 833f 83c0 813f aba6 813f
000001c0: 3102 803f 4889 823f f1c0 803f 975b 7c3f
000001d0: 95ac 863f 561c 803f e5fe 803f 473b 813f
000001e0: 1a08 813f 1809 813f b781 813f 2d3f 823f
000001f0: 3ccb 843f 07e6 803f dd65 853f 350c 823f
00000200: 9ee1 803f 2456 843f aed4 803f 4028 873f
00000210: 4f50 7f3f 95c4 833f fc87 833f 6973 833f
00000220: fc5a 7e3f 8978 7c3f 4d1b 823f 426a 833f
00000230: cf26 823f bf48 813f c502 813f 4ceb 813f
00000240: 244b 813f a7de 7f3f 8d59 823f a6fd 803f
00000250: 5a2f 803f 2d22 803f 99f4 803f 6415 823f
00000260: ffcd 803f 60df 7d3f f134 813f eb56 803f
00000270: 41f6 803f 8f75 813f 7830 823f 64ea 813f
00000280: 113e 823f 09f4 833f edf2 823f ecb9 823f
00000290: e70f 833f 9481 813f c120 823f dbbe 823f
000002a0: cae3 823f 39cb 7e3f 74f2 803f 443f 7f3f
000002b0: a359 7f3f 7fb5 803f 44b8 823f e176 803f
000002c0: 1c25 7e3f 72e5 813f bb0d 823f 374b 813f
000002d0: 894c 833f 505d 803f e2ef 7f3f a211 7f3f
000002e0: e8b8 833f 50ee 833f dc66 833f 078e 813f
000002f0: 5c02 833f 4213 803f d233 813f 6c5a 823f
00000300: 0150 813f 590e 823f ba87 823f 44d9 803f
00000310: 7aae 813f ebcf 823f 1210 803f 3837 833f
00000320: cde6 823f 552a 833f 5a3a 863f 2c30 833f
00000330: 6795 803f 2c70 823f a6f5 853f 04c3 813f
00000340: 6519 833f ae1b 813f 5d3e 813f 7900 823f
00000350: 838f 803f 4284 873f 5019 7e3f ba7d 843f
00000360: 4755 803f aa72 7f3f ff33 813f 9bdf 813f
00000370: f35e 7f3f 3c6e 843f ab25 833f 191c 833f
00000380: 11a9 803f 31b2 803f 423d 803f 7558 823f
00000390: 4d03 813f 5552 823f 7dce 7c3f c0a5 823f
000003a0: 5753 813f b390 813f abe7 813f 2f6b 843f
000003b0: 6f41 823f 346a 813f b688 843f 3875 833f
000003c0: 22ee 803f 1e83 813f c6fd 823f 1cf8 803f
000003d0: fe07 823f 2b5b 803f b800 803f 1c70 813f
000003e0: b23c 813f ce23 803f aaa0 813f 0423 833f
000003f0: 919f 813f f5fb 813f 76cb 7f3f 5bfc 823f

model.0.bias f4 [1024]
0.027534034 0.011360127 -0.044450246 -0.042861853 -0.0031145916 -0.013456763 -0.061552104 0.022931198
0.0021959979 -0.037759442 0.046115015 0.026179641 0.057896007 0.044970926 0.04722424 0.06038033
0.017717585 -0.027229285 -0.058106925 -0.037587326 0.059347138 0.060292702 -0.087106235 -0.005443058
-0.034901712 0.057644986 -0.014459867 -0.0017028304 0.013466995 0.07645358 0.044039164 0.02867846
-0.028557403 0.021347268 0.005651889 -0.03537359 0.008670715 -0.030824674 0.007851605 -0.027353738
0.060100008 0.032214403 0.04783095 -0.013068064 -0.022401158 -0.017948685 0.023207953 0.012369342
0.05838147 0.05444337 0.0062547554 0.004149801 0.044860765 0.038655676 0.039623994 0.044104494
-0.024644056 -0.035698585 -0.038588677 -0.03270123 -0.008502915 0.0059785824 0.0016704095 -0.044574022
0.05350119 0.019791637 -0.040216703 0.05265899 0.013490493 -0.036134213 -0.011859381 0.031868313
0.041130193 0.03293931 0.024670366 0.050174788 0.06211368 0.023489034 0.016229544 -0.008453451
-0.029587582 0.02010047 0.0075061596 -0.044008575 0.048474893 -0.055446424 -0.023712268 0.023093307
-0.026394462 -0.035396792 0.032761052 -0.032889374 0.0038960448 0.038749296 0.063090056 -0.052624967
0.05437632 -0.01436617 0.04733994 0.06027361 0.0054075927 0.024963899 0.02295047 -0.0016377496
-0.0057095825 0.031371895 -0.047278777 0.017996421 -0.0072551174 -0.048828047 0.028561046 0.038214855
-0.0017810502 -0.007874044 0.0011920192 -0.007479375 0.0691339 -0.00029747965 -0.022497647 0.04389514
-0.03160989 0.004911018 -0.056848735 -0.006745491 0.07867155 0.016512224 0.06357775 0.023148695
-0.0057783234 -0.035968497 0.017272681 -0.041057512 0.017477755 -0.038946155 0.055413786 0.053885575
-0.03396381 -0.014190157 -0.052927487 -0.03686136 0.021190649 0.0103293015 0.021901466 -0.05736874
-0.0029097192 0.0046184026 0.01871145 -0.00091859524 -0.009729505 0.0075702914 -0.009498226 0.03381337
-0.044784464 -0.0401982 -0.011605006 0.0018574242 0.05068535 -0.007729616 0.0066684596 0.06754294
0.016381016 -0.06659437 -0.019953916 0.0069222655 -0.024538103 -0.013491923 -0.025863137 0.020851938
-0.05363828 0.001087666 0.026228638 -0.026705103 0.011468811 -0.03677484 -0.027276142 0.0017087676
0.0011561745 -0.024577646 -0.041998625 -0.05245559 0.02101812 0.014947154 0.0074141067 -0.048909727
0.04323252 0.007990611 0.026086325 -0.024781791 0.042415015 -0.0017632239 -0.030352533 -0.031933006
-0.0027625733 -0.027022414 -0.011568272 0.023461126 -0.04565959 -0.042472903 0.027850652 -0.004540722
0.04539483 0.015584997 -0.072013244 -0.04204281 -0.022066168 -0.04221973 -0.06376061 -0.04782383
-0.025285803 0.0020881917 -0.018609341 0.008466562 0.0068085557 -0.049388543 -0.008962424 -0.060081545
-0.034426533 -0.029748391 0.021463474 0.014774885 0.0048128525 0.04112554 0.015261273 0.065923445
-0.0037052499 0.012999518 -0.029670343 0.014580434 0.014765244 -0.013487969 0.004459899 0.0286171
-0.04454916 -0.021753347 -0.044488758 -0.021862904 0.019247582 -0.027037013 0.054220356 -0.0035907694
-0.0137809375 -0.02019314 -0.032021105 -0.006724043 -0.03381266 0.04646025 0.023950709 -0.016442161
0.025785511 0.009134226 -0.014297718 0.04348147 0.007864342 -0.0016648992 -0.0034185038 0.017001107
00000000: 0e8f e13c d31f 3a3c 7611 36bd e98f 2fbd
00000010: 2d1e 4cbb c179 5cbc 0f1e 7cbd 35da bb3c
00000020: bbea 0f3b a5a9 1abd 19e3 3c3d b076 d63c
00000030: 5d24 6d3d 6f33 383d 346e 413d 5d51 773d
00000040: 7824 913c f30f dfbc 8701 6ebd 2bf5 19bd
00000050: fc15 733d 7bf5 763d c164 b2bd ae5b b2bb
00000060: 19f5 0ebd 261d 6c3d 14e9 6cbc 8231 dfba
00000070: aca4 5c3c b293 9c3d 6962 343d 17ef ea3c
00000080: 37f1 e9bc 77e0 ae3c 7b33 b93b e6e3 10bd
00000090: 9d0f 0e3c 0784 fcbc 05a4 003c f214 e0bc
000000a0: 6d2b 763d 40f3 033d 63ea 433d 6f1b 56bc
000000b0: a282 b7bc 1f09 93bc 9b1e be3c c8a8 4a3c
000000c0: 6921 6f3d 0300 5f3d b1f4 cc3b 0efb 873b
000000d0: ecbf 373d 6a55 1e3d c54c 223d eaa6 343d
000000e0: 55e2 c9bc ae38 12bd 290f 1ebd baf1 05bd
000000f0: cf4f 0bbc fce7 c33b a4f1 da3a 4093 36bd
00000100: 1024 5b3d 1222 a23c 45ba 24bd f4b0 573d
00000110: 3b07 5d3c 7801 14bd d94d 42bc 5988 023d
00000120: 2278 283d 5feb 063d 8219 ca3c 1484 4d3d
00000130: ea6a 7e3d 136c c03c d2f3 843c 5880 0abc
00000140: a861 f2bc bea9 a43c 3bf6 f53b 5642 34bd
00000150: 9c8d 463d ca1b 63bd 3b40 c2bc 2d2e bd3c
00000160: 3339 d8bc 3afc 10bd 7430 063d 02b7 06bd
00000170: c954 7f3b 95b7 1e3d 5c35 813d 478d 57bd
00000180: b4b9 5e3d 1660 6bbc 86e7 413d 76e1 763d
00000190: 2d32 b13b 1781 cc3c a002 bc3c c2a9 d6ba
000001a0: 7317 bbbb d17f 003d 64a7 41bd 3b6d 933c
000001b0: 56bc edbb ebff 47bd dbf8 e93c 2e87 1c3d
000001c0: 2172 e9ba 2202 01bc 873d 9c3a 8c15 f5bb
000001d0: 1396 8d3d 0bf7 9bb9 fc4c b8bc 64cb 333d
000001e0: 5f79 01bd 9bec a03b 38da 68bd 4809 ddbb
000001f0: 8d1e a13d a544 873c 0d35 823d 55a2 bd3c
00000200: 1758 bdbb b453 13bd 707f 8d3c ec2b 28bd
00000210: 822d 8f3c 0186 1fbd 91f9 623d 1fb7 5c3d
00000220: a31d 0bbd d57d 68bc 7eca 58bd f0fb 16bd
00000230: 0398 ad3c 3b3c 293c b46a b33c 7cfb 6abd
00000240: fdb0 3ebb f855 973b c148 993c e2cd 70ba
00000250: 8068 1fbc 3510 f83b 739e 1bbc e37f 0a3d
00000260: ea6f 37bd dea6 24bd ec22 3ebc d074 f33a
00000270: 719b 4f3d b848 fdbb 1883 da3b f453 8a3d
00000280: 7b31 863c a162 88bd 6576 a3bc 2cd4 e23b
00000290: 2204 c9bc 3a0d 5dbc eede d3bc afd1 aa3c
000002a0: d0b3 5bbd 0490 8e3a 71dd d63c a9c4 dabc
000002b0: aee7 3b3c 37a1 16bd 3772 dfbc baf8 df3a
000002c0: c78a 973a 0f57 c9bc c006 2cbd acdb 56bd
000002d0: 312e ac3c e8e4 743c 09f2 f23b 9155 48bd
000002e0: 9514 313d 0deb 023c fdb2 d53c 2f03 cbbc
000002f0: 5ebb 2d3d fa1b e7ba e0a5 f8bc 2fcc 02bd
00000300: 4a0c 35bb 1c5e ddbc d988 3dbc 8c31 c03c
00000310: 8d05 3bbd 11f8 2dbd 0d27 e43c 56ca 94bb
00000320: eeef 393d 3758 7f3c ae7b 93bd 1535 2cbd
00000330: 1cc4 b4bc 98ee 2cbd ec94 82bd ece2 43bd
00000340: 2c24 cfbc 0bda 083b 9e72 98bc 56b7 0a3c
00000350: 4e1a df3b a44b 4abd 21d7 12bc 1118 76bd
00000360: d602 0dbd e6b2 f3bc 2bd4 af3c 5c12 723c
00000370: 22b5 9d3b 4173 283d 6b0a 7a3c df02 873d
00000380: c7d3 72bb eefb 543c 380f f3bc c6e2 6e3c
00000390: ece9 713c a4fc 5cbc 5824 923b 696e ea3c
000003a0: 2e79 36bd 1334 b2bc d839 36bd d519 b3bc
000003b0: 1bad 9d3c ba7c ddbc 2a16 5e3d 1d53 6bbb
000003c0: 71c9 61bc 156c a5bc 9028 03bd 5c55 dcbb
000003d0: 257f 0abd 1a4d 3e3d 4734 c43c b6b1 86bc
000003e0: 233c d33c b8a7 153c fa40 6abc a019 323d
000003f0: 71d9 003c bf38 daba fa08 60bb e845 8b3c

model.0.running_mean f4 [1024]
-0.056347445 -0.01776824 0.0076530124 -0.026405709 0.0033524032 -0.013931932 0.039507937 -0.004740646
-0.003658733 0.032183863 -0.010807076 0.0049401606 -0.0030310054 -0.0130224265 0.0042412486 0.011043019
-0.034691535 -0.025440242 -0.00044219889 0.0088022845 0.015692107 0.000548378 0.019845754 0.070907906
0.01948901 0.02958088 -0.025735646 0.011176822 -0.004457111 -0.010588921 0.025244746 -0.015061972
-0.008630004 0.008582725 -0.0027566224 0.015909465 -0.01155028 0.0064383796 -0.027288087 -0.0050436174
0.010671202 0.026175708 -0.0008040832 -0.04544809 -0.023670575 0.0033354643 -0.0012795602 -0.024121296
-0.01137373 0.08264701 -0.02515474 -0.017522499 -0.020102186 0.009661805 0.010191288 -0.008199507
0.0324539 0.009425884 -0.0058023343 -0.010856114 0.0104035335 -0.022099078 -0.011564874 0.02194367
0.00055366824 -0.014329927 0.0060662664 0.0070548565 0.0010212027 0.0066379844 0.036883004 0.010663401
-0.016068617 0.04229246 0.028783021 -0.012544621 0.025106722 -0.017162647 0.016875323 -0.018146034
-0.008541901 0.028044155 -0.051796854 0.021744499 -0.017408172 -0.03957053 0.022757126 -0.01842727
0.011618638 0.022864321 -0.023147052 -0.0048197983 -0.011062013 0.012032772 0.0125166625 0.019977659
0.008636132 0.05706464 -0.008685396 0.022072988 0.013854397 0.025813242 -0.0017433851 0.011659392
0.07338517 0.01622691 0.0030170728 -0.023526099 -0.03018441 0.04939457 -0.011644136 0.0017995692
0.064639755 -0.004807861 -0.006076982 0.016977321 -0.0012281737 -0.00702954 -0.00036511006 -0.00603521
-0.022977 -0.007962237 -0.016076934 -0.01255244 -0.04896877 -0.022263484 -0.010159421 -0.020119067
0.021496974 -0.01910468 -0.064587876 -0.01493445 0.016921684 -0.0036870549 -0.0009171192 -0.027108572
0.04304094 0.023758328 -0.0024124088 -0.021660017 0.0019178957 -0.041171934 -0.010068516 -0.0049645966
-0.0037771447 -0.010018485 0.043948464 -0.022383127 -0.034012537 0.0015724313 -0.008378228 0.001093994
0.0073228595 0.00022261663 0.016031662 0.027314242 0.026811792 -0.0072768945 -0.0029403076 0.0071543157
0.0010965862 0.028058492 0.016156554 0.0034908121 -0.0051486352 -0.004499749 -0.057042018 -0.0060962755
-0.038018335 0.027669042 0.028631587 0.02925593 0.025418622 -0.0076787802 0.023248352 0.010492336
-0.011712385 -0.013557979 -0.018484285 -0.0014045568 -0.03146224 -0.016994732 -0.005324423 0.010449656
-0.011551443 0.02561583 0.04627112 -0.014908632 -0.0150511 -0.032848578 0.036439855 0.012519616
0.013147129 0.031762183 0.011998048 0.012108226 -0.010426511 -0.0030154965 0.020115886 0.031320434
0.0061576325 -0.012935577 0.0021205847 -0.025217095 -0.024256494 0.0077154385 -0.011878823 -0.014211508
0.017162902 -0.009100521 -0.03334238 -0.020853376 0.01328457 0.024533229 0.006495476 -0.014216992
0.012372672 0.025969272 -0.0073018796 -0.006551887 0.010374106 -0.018389003 -0.0483335 -0.020426279
0.022129498 0.013487702 0.0031466144 -0.019703228 0.0021919855 -0.020769507 -0.009839431 -0.03196602
-0.0050307363 -0.028397303 -0.012197808 -0.017798476 -0.028976474 0.03554888 0.02040141 -0.016789583
0.03107021 -0.0012651249 -0.0049531753 0.025088895 -0.022781834 -0.001462559 0.011218306 0.021583194
-8.8574336e-05 0.026612364 -0.017297378 0.023657192 0.01759057 0.0019361484 0.014912672 0.022732418
00000000: 94cc 66bd b38e 91bc 1fc6 fa3b c950 d8bc
00000010: feb3 5b3b c242 64bc 13d3 213d 6c57 9bbb
00000020: 5bc7 6fbb 3ad3 033d 2910 31bc 12e1 a13b
00000030: d5a3 46bb 045c 55bc 2cfa 8a3b c7ed 343c
00000040: b618 0ebd 0e68 d0bc eed6 e7b9 7537 103c
00000050: bc8c 803c 06c1 0f3a 9093 a23c 2a38 913d
00000060: 6ba7 9f3c 9a53 f23c 90d3 d2bc fd1e 373c
00000070: f50c 92bb 277d 2dbc 12ce ce3c 7dc6 76bc
00000080: dc64 0dbc 8f9e 0c3c 73a8 34bb 9154 823c
00000090: 633d 3dbc 0bf9 d23b 448b dfbc ee44 a5bb
000000a0: 44d6 2e3c 706e d63c 1cc9 52ba c727 3abd
000000b0: cbe8 c1bc ce97 5a3b eab6 a7ba 069a c5bc
000000c0: e258 3abc d642 a93d 5011 cebc 588b 8fbc
000000d0: 57ad a4bc 8c4c 1e3c 5cf9 263c 3a57 06bc
000000e0: 61ee 043d 066f 1a3c 8221 bebb d8dd 31bc
000000f0: 9573 2a3c 2009 b5bc 997a 3dbc 36c3 b33c
00000100: 0c24 113a 12c8 6abc 88c7 c63b 6d2c e73b
00000110: e0d9 853a 7383 d93b a212 173d 8cb5 2e3c
00000120: 55a2 83bc dc3a 2d3d 5fca eb3c f487 4dbc
00000130: 9dac cd3c ae98 8cbc 1e3e 8a3c fea6 94bc
00000140: 54f3 0bbc dbbc e53c f028 54bd 8521 b23c
00000150: 959b 8ebc b514 22bd 276d ba3c c9f4 96bc
00000160: 1a5c 3e3c f54d bb3c e39e bdbc 66ef 9dbb
00000170: 723d 35bc 1b25 453c b012 4d3c 30a8 a33c
00000180: 907e 0d3c 9dbc 693d 314d 0ebc 69d2 b43c
00000190: 8efd 623c 4b76 d33c 4c82 e4ba 0907 3f3c
000001a0: f74a 963d 4cee 843c 15ba 453b ceb9 c0bc
000001b0: 4c45 f7bc f651 4a3d 0cc7 3ebc 86df eb3a
000001c0: d961 843d 438b 9dbb 6b21 c7bb 0614 8b3c
000001d0: acfa a0ba 0e58 e6bb 3e6c bfb9 03c3 c5bb
000001e0: 433a bcbc 0b74 02bc c6b3 83bc c0a8 4dbc
000001f0: 7a93 48bd e961 b6bc b373 26bc bed0 a4bc
00000200: 6c1a b03c 6b81 9cbc a646 84bd a0af 74bc
00000210: 589f 8a3c 84a2 71bb d46a 70ba cc12 debc
00000220: b24b 303d d3a0 c23c 8119 1ebb 5970 b1bc
00000230: e761 fb3a e7a3 28bd 6bf6 24bc 0eae a2bb
00000240: f989 77bb 9224 24bc 4e03 343d d25c b7bc
00000250: bb50 0bbd 0a1a ce3a d644 09bc 5964 8f3a
00000260: 99f4 ef3b 326e 6939 d554 833c 1ec2 df3c
00000270: 67a4 db3c 0473 eebb 2db2 40bb c06e ea3b
00000280: 54bb 8f3a ecda e53c c05a 843c 1cc6 643b
00000290: e2b5 a8bb a172 93bb e4a4 69bd 44c3 c7bb
000002a0: 1db9 1bbd 30aa e23c ca8c ea3c 22aa ef3c
000002b0: b73a d03c 479e fbbb 5473 be3c 0ce8 2b3c
000002c0: 4ee5 3fbc 4922 5ebc 5b6c 97bc 1b19 b8ba
000002d0: 8dde 00bd 8938 8bbc 7f78 aebb 0935 2b3c
000002e0: 4342 3dbc 4ad8 d13c c986 3d3d 5643 74bc
000002f0: e498 76bc 3b8c 06bd f541 153d 131f 4d3c
00000300: 0e67 573c 1019 023d 7693 443c 9561 463c
00000310: f5d3 2abc a39f 45bb 12ca a43c db49 003d
00000320: f7c5 c93b beef 53bc 82f9 0a3b 1594 cebc
00000330: 8eb5 c6bc cad1 fc3b 659f 42bc 63d7 68bc
00000340: 3799 8c3c 5a1a 15bc 0592 08bd b3d4 aabc
00000350: 86a7 593c e9f9 c83c 00d8 d43b 63ee 68bc
00000360: bfb6 4a3c 83bd d43c 9b44 efbb 36b1 d6bb
00000370: 27f8 293c 89a4 96bc 59f9 45bd 0355 a7bc
00000380: ec48 b53c 86fb 5c3c 6e37 4e3b aa68 a1bc
00000390: 6aa7 0f3b d024 aabc 9135 21bc cdee 02bd
000003a0: e0d8 a4bb 76a1 e8bc 51d9 47bc 1cce 91bc
000003b0: 1260 edbc b49b 113d dc20 a73c 4f8a 89bc
000003c0: f486 fe3c 8cd2 a5ba 3f4e a2bb 3a87 cd3c
000003d0: f8a0 babc 56b3 bfba fccc 373c 3dcf b03c
000003e0: fcc0 b9b8 2c02 da3c 3bb3 8dbc bacc c13c
000003f0: 191a 903c 5cc6 fd3a 4854 743c 5639 ba3c

model.0.running_var f4 [1024]
0.00015256902 0.00014483245 0.000144667 0.00014741042 0.00015184474 0.00017745809 0.00017127517 0.000116604555
0.00012362699 0.00018350994 0.00018192976 0.00019381531 0.00018717584 0.00012863649 0.00015210753 0.00012189384
0.00012151631 0.0001752282 0.00020803066 0.000133962 0.00017814743 0.00015078354 0.00012298096 0.00020459302
0.00013760517 0.00016409658 0.00019230963 0.00011770824 0.000192354 0.00036281586 0.0002548637 0.00017607423
0.00017881085 0.000119693505 0.0001997048 0.00021312585 0.00011915533 8.200477e-05 0.00013815229 0.0002740692
0.00028877953 0.00015615877 0.0001897313 0.00015828926 0.000197598 0.00023464182 0.00022374709 0.00020819079
0.00012839823 0.00032962795 0.00023764692 0.0002818811 0.00015873669 0.00020536633 0.00012450146 0.00012172157
0.00025542974 9.810817e-05 0.00011924595 0.00014787109 0.0001855271 0.00021505677 0.00030733456 0.00018214734
0.00014161832 0.00010852139 0.00017182945 0.00012556193 0.00014073879 0.00018723572 0.00022979858 0.00022003466
0.00023430254 0.00018651971 0.00023086507 0.00020028402 0.000115455376 0.00020139053 0.00016270798 0.00020864898
0.00018573896 0.00011214558 0.00022056203 0.00015146012 0.00012707773 0.00032376128 0.0001605112 0.0002549489
0.00012810016 0.00026329546 0.00040301098 0.0001992772 0.00012623222 0.00023624256 0.00016275846 0.00020638912
0.0001710799 0.0001784423 0.00018273688 0.00033755947 0.00015801779 0.0001297651 0.00020491752 0.00011106376
0.0007045073 0.00018648194 0.0001989976 0.00021951446 0.00016705804 0.00016733295 0.00017085488 0.00012503343
0.00020040749 0.00020115075 0.0002192652 0.00027635405 0.00012107226 0.0001615813 0.00023458843 0.00026820553
0.00023287232 0.00015985154 0.00018763969 0.00016714346 0.00016007326 0.000114049966 9.735711e-05 0.00013040514
0.00021212784 0.00032189983 0.0001956337 0.00010397263 0.00021065702 0.00014411933 0.00013231242 0.00018966758
0.00026489186 0.00015330248 0.00016731214 0.00016298659 0.00013043697 0.0001423993 0.00017481267 0.00016987136
0.0003545568 0.00022294266 0.0001933283 0.00015994979 0.00026435225 0.0001999539 0.0002601302 0.00017265462
0.00012878863 0.00025318356 0.00012947296 0.0001833177 0.00013196384 0.00014707973 0.00031482775 0.0001738972
0.00015550909 0.00015691544 0.00012724329 0.00014209391 0.00012312295 0.00010682565 0.0008234452 0.00013796575
0.00017182865 0.00018027726 0.00016310396 0.00015899938 0.00016763002 0.0001293246 0.0002517482 0.00021792055
0.00012507728 0.00015094836 0.00012257887 0.00026910112 0.00020338547 0.00022458308 0.0002619598 0.00020764835
0.00015312344 0.00013167753 0.00021978583 0.00016949966 0.00016734628 0.00014986057 0.00025246874 0.00019096622
0.0002463671 0.00012845181 0.00015391366 0.00025328257 0.00018504584 0.00014299752 0.00017761273 0.00018538676
0.00015710319 0.00018772842 0.00018716372 0.00013851102 0.00014940972 0.00015493584 0.00014107453 0.0001788086
0.00015984898 0.00015732125 0.0001994966 0.00014460814 0.00014286258 0.00017935062 0.0005942954 0.00011688267
0.00010761899 0.00014038521 0.00012545618 0.00018351256 0.0001763936 0.00014240836 0.00015057034 0.000194385
0.00019490738 0.00016991477 0.000112804664 0.00011448016 0.00010597387 0.00015253287 0.00014336892 0.00038565998
0.00017314876 0.00020095563 0.000113098635 0.00011784932 0.00017486511 0.00015393923 0.00015371734 0.00014211393
0.00016012914 0.00015502382 0.0002030089 0.00018911815 0.00021046994 0.00049894716 0.00011940607 0.00013976773
0.00014759453 0.00013341056 0.0001627008 0.00014485556 0.00018832448 0.00010228566 0.00014568071 0.00014331612
00000000: effa 1f39 2ade 1739 c1b1 1739 2f92 1a39
00000010: 8338 1f39 0b14 3a39 5498 3339 9889 f438
00000020: dea1 0139 936c 4039 66c4 3e39 e73a 4b39
00000030: a244 4439 98e2 0639 0e7f 1f39 42a1 ff38
00000040: 92d6 fe38 76bd 3739 ce22 5a39 2778 0c39
00000050: 16cd 3a39 a61b 1e39 73f4 0039 0588 5639
00000060: 1b4a 1039 5711 2c39 b9a6 4939 21da f638
00000070: a2b2 4939 5238 be39 3a9f 8539 91a0 3839
00000080: 2c7f 3b39 f603 fb38 d967 5139 897a 5f39
00000090: 08e3 f938 faf9 ab38 f9dc 1039 f2b0 8f39
000000a0: 5567 9739 8dbe 2339 9cf2 4639 73fa 2539
000000b0: 4f32 4f39 2f0a 7639 a79d 6a39 ca4d 5a39
000000c0: a3a2 0639 ead1 ac39 dc30 7939 71c9 9339
000000d0: 8e72 2639 9b57 5739 9b8c 0239 c544 ff38
000000e0: 33eb 8539 6cbf cd38 af13 fa38 d80d 1b39
000000f0: 0d8a 4239 dd80 6139 bf21 a139 cefe 3e39
00000100: 617f 1439 fa95 e338 1e2d 3439 46a9 0339
00000110: 4893 1339 b554 4439 16f6 7039 1bb9 6639
00000120: 1caf 7539 8194 4339 5f14 7239 5503 5239
00000130: a220 f238 5c2c 5339 979c 2a39 c9c8 5a39
00000140: ecc2 4239 b32f eb38 ab46 6739 44d1 1e39
00000150: 2b40 0539 81be a939 e64e 2839 aaaa 8539
00000160: a052 0639 eb0a 8a39 384b d339 11f5 5039
00000170: 345d 0439 e1b7 7739 24aa 2a39 286a 5839
00000180: e963 3339 3d1c 3b39 0f9d 3f39 77fa b039
00000190: 94b1 2539 8e11 0839 21df 5639 e7ea e838
000001a0: afae 383a 5d8a 4339 03aa 5039 772d 6639
000001b0: 4d2c 2f39 1976 2f39 8227 3339 681b 0339
000001c0: 7a24 5239 feeb 5239 8eea 6539 9de3 9039
000001d0: 2de8 fd38 266e 2939 dafb 7539 f09d 8c39
000001e0: 302f 7439 d29d 2739 25c1 4439 3b43 2f39
000001f0: 57d9 2739 1c2e ef38 332c cc38 5dbd 0839
00000200: a26e 5e39 aac4 a839 0523 4d39 e10b da38
00000210: d0e3 5c39 bd1e 1739 58bd 0a39 81e1 4639
00000220: 2fe1 8a39 d2bf 2039 8370 2f39 61e7 2a39
00000230: e8c5 0839 0551 1539 eb4d 3739 7f1f 3239
00000240: cfe3 b939 b7c5 6939 2cb8 4a39 32b8 2739
00000250: c298 8a39 b7aa 5139 1662 8839 9f0a 3539
00000260: 6f0b 0739 b9bd 8439 22c3 0739 f838 4039
00000270: c65f 0a39 6a39 1a39 770f a539 2d58 3639
00000280: 2710 2339 ab89 2439 9c6c 0539 0bff 1439
00000290: 911a 0139 9607 e038 79dc 573a e6aa 1039
000002a0: e72c 3439 cf08 3d39 e306 2b39 12b9 2639
000002b0: d7c5 2f39 4f9b 0739 12fd 8339 9a81 6439
000002c0: 2d27 0339 e447 1e39 8488 0039 2416 8d39
000002d0: df43 5539 107e 6b39 a657 8939 2ebc 5939
000002e0: c38f 2039 eb12 0a39 4f76 6639 b8bb 3139
000002f0: ad79 2f39 e423 1d39 c85d 8439 1b3e 4839
00000300: d52a 8139 05b1 0639 e263 2139 03cb 8439
00000310: dd08 4239 9bf1 1539 8e3d 3a39 6164 4239
00000320: 11bc 2439 f7d8 4439 6141 4439 453d 1139
00000330: deaa 1c39 4676 2239 68ed 1339 917e 3b39
00000340: 229d 2739 9af6 2439 f62f 5139 f4a1 1739
00000350: 62cd 1539 1110 3c39 7dca 1b3a e81e f538
00000360: 81b1 e138 5e34 1339 e38c 0339 476d 4039
00000370: 4cf6 3839 7453 1539 6be2 1d39 d3d3 4b39
00000380: 0d60 4c39 262b 3239 8b91 ec38 1115 f038
00000390: 4a3e de38 3bf1 1f39 4d55 1639 6832 ca39
000003a0: 448f 3539 9eb7 5239 5e2f ed38 df25 f738
000003b0: ff5b 3739 bf6a 2139 2f2f 2139 6b04 1539
000003c0: 57e8 2739 e48d 2239 c9de 5439 044e 4639
000003d0: 98b1 5c39 c7cb 023a a569 fa38 9d8e 1239
000003e0: 9bc3 1a39 20e4 0b39 aa9a 2a39 5ee4 1739
000003f0: f878 4539 3282 d638 dec1 1839 2147 1639

model.1.weight f4 [32, 1024]
0.0006850766 -0.019358976 0.0007447052 -0.05792128 -0.009306879 0.024003556 -0.035853986 0.04451397
0.0102204 0.0034112274 -0.00940378 0.0034357216 -0.0032883752 0.0015902529 0.017346406 0.0146315945
-0.01853413 -0.0064156214 0.010131233 -0.013938496 0.028762087 0.035749618 -0.05323773 0.020268453
-0.02735523 0.0183489 -0.0083873505 0.0065803654 -0.007637615 0.04897976 0.0011852543 -0.007833759
-0.0055496795 -0.039334007 0.02020296 -0.036851246 -0.015062608 -0.015389858 0.03153194 -0.007675916
0.042683143 0.018737847 0.004664612 0.009676427 0.030501058 -0.004577943 0.011874874 0.032582093
0.0056417403 0.020778295 0.0043989993 -0.012943925 0.045789823 0.0016016822 0.02987838 0.015263617
-0.045424514 -0.0395633 -0.022312349 0.019467542 -0.020020999 -0.039920207 0.014121205 -0.038735684
0.025653495 0.010362818 0.02764644 0.04899795 -0.022226062 0.014370576 0.010840127 -0.042085208
0.0017971721 -0.01586978 0.003220384 0.006220432 0.036761224 0.018858938 0.051443327 -0.046343863
0.0032107981 -0.011088246 -0.031163482 0.02357561 0.043609355 -0.030702412 -0.004386496 0.00075309654
-0.0244723 -0.01667774 0.040782534 -0.025632352 -0.011494487 0.022996025 -0.00030017627 -0.021085532
0.03115007 0.007857043 0.026654806 -0.034292217 -0.009473658 0.023635035 0.032365706 0.0041790972
-0.011807177 0.007277901 -0.028600857 -0.019016258 -0.02201873 -0.046212245 -0.009041226 -0.022233937
-0.0025407018 -0.014042524 0.025473591 0.0035415625 0.023644483 0.010902762 0.025466947 0.03457882
0.014260802 0.006131054 -0.0027612213 0.008216438 0.035046 0.043373108 0.06638934 0.0072299796
0.009317156 -0.016554473 0.017016873 0.0015266255 0.020259166 -0.033459894 0.020480728 0.024680065
-0.013978514 -0.01102223 -0.031393655 0.011883445 0.010742737 -0.04794337 0.022784235 -0.05164754
0.01115716 -0.004735903 -0.022775926 -0.017697077 -0.006957542 -0.008215194 0.009560126 0.036448095
-0.019170213 0.003091644 -0.0047466992 -0.026443124 0.028435055 -0.013198853 -0.007418232 0.053352803
0.038290463 -0.034502354 -0.0049984613 0.030357156 -0.013739088 0.016440418 0.000440245 -0.039869323
0.028263774 0.012562065 -0.006996636 0.022718588 -0.0055980305 -0.029359885 -0.020467022 0.027214384
0.033738405 -0.03382755 -0.010479487 0.0037077256 -0.0034853744 0.032274358 0.009432392 -0.02027839
0.015002399 0.0094798645 -0.0071186083 0.03242633 -0.0079485215 -0.00056152185 -0.02301469 -0.028217658
-0.034495078 -0.040875804 -0.017957112 0.020683171 -0.02341583 -0.042956736 -0.03143639 -0.020551816
-0.009316718 -0.008580619 -0.01792855 0.029976696 0.008992428 -0.019538334 -0.034333926 -0.027511789
0.003689582 0.041316353 0.014711511 -0.00096157595 0.014534726 -0.015086479 -0.012041312 -0.019256033
-0.043831486 -0.013213209 -0.0276283 -0.014444779 0.020786706 -0.020830221 -0.006351676 0.028955255
-0.003960834 0.027540548 -0.051113058 0.022122586 0.022431793 0.017693024 -0.014773334 -0.009788616
-0.006277905 0.0026371446 -0.022240728 -0.02311075 0.024266945 0.01853225 0.005377932 0.013370927
-0.020480871 -0.017908644 -0.03696525 -0.020982703 -0.0011665248 0.014450753 0.03384607 0.03181543
0.030807495 -0.014714661 -0.008582162 0.005748572 0.01921374 -0.0032311624 0.010366749 0.040784042
00000000: b696 333a b796 9ebc 5238 433a dd3e 6dbd
00000010: e17b 18bc 1ba3 c43c a1db 12bd 4854 363d
00000020: 7773 273c e68e 5f3b 5012 1abc d829 613b
00000030: c881 57bb 0870 d03a 0d1a 8e3c 5bb9 6f3c
00000040: e3d4 97bc 223a d2bb 79fd 253c 4a5e 64bc
00000050: 789e eb3c 316e 123d ce0f 5abd 070a a63c
00000060: 1318 e0bc 6f50 963c 196b 09bc 1ba0 d73b
00000070: f544 fabb 009f 483d 895a 9b3a 2b59 00bc
00000080: 16da b5bb b21c 21bd ae80 a53c 55f1 16bd
00000090: 28c9 76bc be25 7cbc a327 013d 4086 fbbb
000000a0: 85d4 2e3d 1d80 993c 9ad9 983b e089 1e3c
000000b0: 5bdd f93c 9202 96bb d58e 423c cd74 053d
000000c0: 59de b83b 3e37 aa3c 7b25 903b c212 54bc
000000d0: 1c8e 3b3d 89ef d13a 81c3 f43c 4014 7a3c
000000e0: 0e0f 3abd 200d 22bd 63c8 b6bc 657a 9f3c
000000f0: 1403 a4bc 5f83 23bd a05c 673c 4fa9 1ebd
00000100: 4727 d23c cfc8 293c c97a e23c 13b2 483d
00000110: 6e13 b6bc 9072 6b3c ca9a 313c 8a61 2cbd
00000120: 178f eb3a 5701 82bc 140d 533b c4d4 cb3b
00000130: f092 163d 0f7e 9a3c 3db6 523d 10d3 3dbd
00000140: 416c 523b 79ab 35bc 8f4a ffbc a321 c13c
00000150: b99f 323d a083 fbbc 98bc 8fbb 746b 453a
00000160: 227a c8bc c19f 88bc 960b 273d f0fa d1bc
00000170: 5f53 3cbc 2962 bc3c fa60 9db9 91bb acbc
00000180: 6e2e ff3c d4ba 003c 2e5b da3c ff75 0cbd
00000190: 6737 1bbc 439e c13c e791 043d cff0 883b
000001a0: e472 41bc 757b ee3b 584c eabc fcc7 9bbc
000001b0: a060 b4bc 0d49 3dbd a621 14bc f223 b6bc
000001c0: e781 26bb 9d12 66bc fead d03c 8f19 683b
000001d0: 13b2 c13c 80a1 323c 0fa0 d03c 85a2 0d3d
000001e0: 24a6 693c 02e7 c83b 9bf5 34bb 3d9e 063c
000001f0: 658c 0f3d 00a8 313d 22f7 873d 77e9 ec3b
00000200: fca6 183c 3f9d 87bc f866 8b3c 0d19 c83a
00000210: 8df6 a53c 3e0d 09bd 33c7 a73c d92d ca3c
00000220: 2306 65bc 9596 34bc a296 00bd c8b2 423c
00000230: 4e02 303c 4460 44bd 01a6 ba3c 5f8c 53bd
00000240: 85cc 363c a22f 9bbb 9494 babc 76f9 90bc
00000250: 18fc e3bb 0599 06bc 13a2 1c3c 994a 153d
00000260: da0a 9dbc 2e9d 4a3b 338a 9bbb 409f d8bc
00000270: a2f0 e83c 0040 58bc a414 f3bb 7888 5a3d
00000280: 76d6 1c3d 5752 0dbd 22ca a3bb 92af f83c
00000290: e919 61bc 0eae 863c afd0 e639 044e 23bd
000002a0: 6e89 e73c 1fd1 4d3c 0944 e5bb 551c ba3c
000002b0: af6f b7bb 2484 f0bc 75aa a7bc b3f0 de3c
000002c0: 4831 0a3d c28e 0abd 27b2 2bbc 50fd 723b
000002d0: e16a 64bb 1e32 043d 528a 1a3c de1e a6bc
000002e0: 9fcc 753c 6f51 1b3c 3743 e9bb 79d1 043d
000002f0: 843a 02bc 1833 13ba 4e89 bcbc b828 e7bc
00000300: b64a 0dbd 636d 27bd cb1a 93bc c16f a93c
00000310: 8ed2 bfbc 67f3 2fbd 72c3 00bd 485c a8bc
00000320: 26a5 18bc b995 0cbc e5de 92bc b091 f53c
00000330: fa54 133c db0e a0bc bba1 0cbd 6760 e1bc
00000340: eacc 713b 563b 293d 8d08 713c 4512 7cba
00000350: 0f23 6e3c 472d 77bc ec48 45bc d4be 9dbc
00000360: a588 33bd 377c 58bc bf54 e2bc cba9 6cbc
00000370: e248 aa3c 24a4 aabc b821 d0bb 9233 ed3c
00000380: e2c9 81bb b79c e13c ed5b 51bd 6d3a b53c
00000390: e1c2 b73c f6f0 903c db0b 72bc 6e60 20bc
000003a0: e2b6 cdbb f2d3 2c3b 3032 b6bc c152 bdbc
000003b0: 79cb c63c f2d0 973c 5d39 b03b bc11 5b3c
000003c0: 80c7 a7bc 26b5 92bc e068 17bd ebe3 abbc
000003d0: 14e6 98ba dac2 6c3c 2da2 0a3d e550 023d
000003e0: 0060 fc3c c315 71bc 329c 0cbc 845e bc3b
000003f0: 2266 9d3c e9c1 53bb 4cd9 293c 2b0d 273d

model.1.bias f4 [32]
0.06632313 -0.002973876 -0.037326723 -0.020838046 0.01121047 -0.023560164 0.06047944 0.0106307985
-0.039008155 -0.033947818 -0.044603173 -0.008593031 0.024478754 0.0038373354 0.037750386 0.028294945
-0.02498902 0.008300037 -0.04015079 -0.0008903324 -0.0013002228 -0.02185076 -0.041505083 0.002475281
0.046422474 -0.001720446 -0.038685024 0.0094704665 0.071748964 0.0068361918 0.020990856 0.013681347
00000000: 6cd4 873d 5ce5 42bb e8e3 18bd 8db4 aabc
00000010: 1fac 373c 3f01 c1bc 4ab9 773d cd2c 2e3c
00000020: 04c7 1fbd de0c 0bbd d1b1 36bd c9c9 0cbc
00000030: ab87 c83c ce7b 7b3b 26a0 1a3d cdca e73c
00000040: c6b5 ccbc e1fc 073c 2875 24bd 3265 69ba
00000050: 3d6c aaba 5d00 b3bc 3c01 2abd 5338 223b
00000060: 7e25 3e3d 9780 e1ba 3074 1ebd 042a 1b3c
00000070: 1ff1 923d 2202 e03b 04f5 ab3c ba27 603c

model.4.weight f4 [64, 32]
0.04326967 0.16594431 -0.080774695 -0.13087924 0.12152468 -0.07982289 -0.04029131 0.14549825
-0.049787156 -0.08893347 -0.08178498 0.12178226 0.085925825 0.083313115 0.09598992 0.033290338
0.022590721 -0.08177282 -0.08332814 0.048760716 -0.05926985 0.20303357 0.0968874 -0.057097368
0.022600735 0.2513061 -0.025132531 0.29058012 -0.0063313455 0.27687925 0.17627688 0.0031725739
-0.019166801 -0.041284446 0.11818721 -0.15275618 -0.11152885 0.03609057 -0.13259172 -0.07053791
-0.052782085 -0.1611465 -0.094052374 0.044719692 0.00760658 -0.12508354 -0.13847822 0.17661473
0.07624662 -0.0071773524 -0.1117446 0.04617515 -0.07548395 -0.108538575 -0.15345433 0.12904373
-0.17516558 0.03770369 -0.14779398 -0.118459836 -0.0058560986 -0.0016736742 0.13061559 -0.021292416
0.22896634 0.14301111 0.13031507 -0.08318215 0.17572771 -0.092335075 0.017190466 0.04203278
-0.16623755 0.07266399 0.12682566 -0.050322335 -0.09091549 0.08032658 0.17410171 0.11398722
0.070941806 -0.12344689 0.023397343 -0.070417844 -0.07831217 0.108720146 0.036813017 0.0730296
0.10167652 -0.041856058 0.03368661 0.18153739 0.17493816 -0.048951376 0.009584384 -0.19961922
0.020317977 0.009375216 0.087646954 0.17843087 0.06475359 0.045106813 -0.031411853 -0.10953302
0.050284114 -0.13175999 0.15983842 -0.11460171 0.090739764 -0.15306266 0.0049718795 0.13774882
0.1633099 -0.062399752 -0.112799026 -0.14526938 -0.1749205 -0.03896605 -0.015336841 0.05195818
-0.07209254 -0.07801072 0.044523206 -0.13499293 -0.09206654 -0.15719354 0.109968245 0.1698275
-0.09860866 -0.08700834 -0.046968833 -0.07423307 -0.028170897 0.055602144 -0.11114821 0.07984365
-0.005067117 0.034547385 0.018271081 -0.141416 -0.046379 0.13887094 -0.009878259 -0.120167494
-5.1580173e-06 0.17570513 0.092015445 0.053591095 -0.0549414 0.0667715 0.0948542 -0.03331531
-0.18022761 0.09352697 -0.05426342 -0.12077126 -0.12046592 -0.11138185 0.018387578 0.22301552
-0.08647833 0.110141024 -0.084107496 -0.02304828 0.0008057529 0.14828601 0.09245871 0.0035711844
-0.08892463 -0.13351151 0.12317037 -0.11385669 -0.06178655 -0.043071833 0.008053235 -0.074403405
0.12076842 -0.09091517 0.17695865 -0.15644091 -0.032298945 -0.032828636 -0.05304935 -0.06917569
-0.10529949 -0.17770684 -0.042056374 -0.14482215 0.037111435 -0.013987251 -0.071452275 -0.0080703925
-0.060792737 0.13924254 0.05539804 -0.00027398992 -0.011558769 -0.07676954 0.057878528 0.24175593
-0.04111803 -0.111496605 -0.13361254 0.08049551 0.09236552 0.070304066 0.1726843 -0.008907543
0.06791013 0.12744215 -0.09876885 0.13109961 0.0580521 -0.043758396 -0.026455577 0.032812156
0.15942091 0.16688368 -0.1254426 0.14109859 0.077997856 0.23846874 0.22638483 -0.08743758
-0.016901359 -0.00895954 0.1154488 -0.11350834 -0.052373517 0.069163434 -0.18708971 0.03319543
0.12477302 0.017647412 -0.0865624 -0.20680434 0.037340194 0.14825672 -0.1636072 -0.019520028
0.16620503 0.025577893 0.21585889 -0.12713668 -0.07944563 -0.11703927 0.14078927 -0.09886301
-0.14045161 0.054244265 0.15164936 0.03154464 0.007913964 0.020237986 0.05130044 0.06720565
00000000: 8a3b 313d 4eed 293e 346d a5bd 3505 06be
00000010: eee1 f83d 2f7a a3bd 8008 25bd 7efd 143e
00000020: 9eed 4bbd c022 b6bd e27e a7bd fa68 f93d
00000030: e1f9 af3d 11a0 aa3d 5d96 c43d 735b 083d
00000040: 2d10 b93c 8278 a7bd f2a7 aabd 51b9 473d
00000050: f1c4 72bd 08e8 4f3e e76c c63d eede 69bd
00000060: 2d25 b93c 31ab 803e bde2 cdbc ebc6 943e
00000070: 2d77 cfbb 1ec3 8d3e ed81 343e f5ea 4f3b
00000080: b203 9dbc e119 29bd 230c f23d 1e6c 1cbe
00000090: 3d69 e4bd b5d3 133d 20c6 07be 2e76 90bd
000000a0: 0732 58bd 9703 25be 889e c0bd ff2b 373d
000000b0: 9e40 f93b e615 00be 3ccd 0dbe 7eda 343e
000000c0: 3027 9c3d ff2f ebbb 5ada e4bd 2722 3d3d
000000d0: 5497 9abd 7949 debd 2223 1dbe 0a24 043e
000000e0: 9b5e 33be 2f6f 1a3d 4e57 17be 129b f2bd
000000f0: 84e4 bfbb 305f dbba 18c0 053e 6f6d aebc
00000100: 2776 6a3e 8171 123e 5071 053e 675b aabd
00000110: f7f1 333e 2c1a bdbd 05d3 8c3c 902a 2c3d
00000120: 2d3a 2abe dcd0 943d 96de 013e cb1e 4ebd
00000130: e731 babd 4382 a43d b847 323e 2272 e93d
00000140: f049 913d b9d1 fcbd c9ab bf3c 3b37 90bd
00000150: 2262 a0bd aba8 de3d 3fc9 163d 8b90 953d
00000160: c83b d03d 4271 2bbd f9fa 093d f0e4 393e
00000170: fd22 333e 3d81 48bd d207 1d3c fb68 4cbe
00000180: e371 a63c 829a 193c 3f80 b33d 95b6 363e
00000190: 889d 843d ecc1 383d b7a9 00bd d952 e0bd
000001a0: b7f6 4d3d 17ec 06be afac 233e 4db4 eabd
000001b0: c5d5 b93d 75bc 1cbe 26eb a23b 070e 0d3e
000001c0: b63a 273e e296 7fbd 2d03 e7bd 7fc1 14be
000001d0: 5c1e 33be dd9a 1fbd 6047 7bbc 1ad2 543d
000001e0: 41a5 93bd 16c4 9fbd f75d 363d 963b 0abe
000001f0: 628d bcbd 58f7 20be 0837 e13d 43e7 2d3e
00000200: 56f3 c9bd 6e31 b2bd 6462 40bd 8207 98bd
00000210: a7c6 e6bc 13bf 633d aca1 e3bd 1185 a33d
00000220: 0f0a a6bb 8f81 0d3d 3cad 953c 5bcf 10be
00000230: e8f7 3dbd 2f34 0e3e 6cd8 21bc 601a f6bd
00000240: 0813 adb6 0cec 333e 9872 bc3d 5682 5b3d
00000250: 3c0a 61bd 7fbf 883d eb42 c23d a275 08bd
00000260: 968d 38be 118b bf3d 5243 5ebd ec56 f7bd
00000270: d6b6 f6bd 2b1c e4bd 8ca1 963c 2e5e 643e
00000280: 8d1b b1bd 9e91 e13d 8d40 acbd bfcf bcbc
00000290: 2939 533a 4ad8 173e fe5a bd3d 880a 6a3b
000002a0: 1e1e b6bd 3eb7 08be bf40 fc3d b22d e9bd
000002b0: e513 7dbd 176c 30bd b7f1 033c d060 98bd
000002c0: 6f55 f73d bc31 babd a634 353e 0c32 20be
000002d0: e64b 04bd 5277 06bd 464a 59bd fcab 8dbd
000002e0: 42a7 d7bd c8f8 35be 4e43 2cbd 424c 14be
000002f0: 2902 183d c82a 65bc 9255 92bd ae39 04bc
00000300: ce01 79bd 9995 0e3e 0ee9 623d 4ea6 8fb9
00000310: fe60 3dbc 5939 9dbd 0912 6d3d de8e 773e
00000320: 616b 28bd 5558 e4bd bad1 08be d4da a43d
00000330: 222a bd3d 94fb 8f3d 27d4 303e f1f0 11bc
00000340: 7714 8b3d 3280 023e 5347 cabd fa3e 063e
00000350: 0ac8 6d3d 013c 33bd 5eb9 d8bc 0a66 063d
00000360: 3c3f 233e 8ee3 2a3e 0674 00be 267c 103e
00000370: 57bd 9f3d 2631 743e 6dd1 673e 7912 b3bd
00000380: b874 8abc 09cb 12bc 6c70 ec3d 1077 e8bd
00000390: 9d85 56bd 8fa5 8d3d 7294 3fbe eef7 073d
000003a0: ff88 ff3d 4e91 903c a147 b1bd 84c4 53be
000003b0: 08f2 183d 9cd0 173e a588 27be 77e8 9fbc
000003c0: a731 2a3e bb88 d13c 1d0a 5d3e 1e30 02be
000003d0: 64b4 a2bd 49b2 efbd 102b 103e b178 cabd
000003e0: 8cd2 0fbe 3c2f 5e3d f849 1b3e f434 013d
000003f0: 92a9 013c 22ca a53c 6920 523d 1ea3 893d

model.4.bias f4 [64]
-0.04860272 -0.1596962 0.14795215 0.1560982 0.18662055 0.008293845 0.15408345 0.11015103
0.1803343 -0.13999061 -0.026013149 0.12696175 -0.055733237 -0.07531009 0.027279751 0.023369951
-0.122232854 0.123765424 -0.016195677 -0.049971182 -0.01779053 0.1260234 0.1297903 -0.04119517
0.17668444 -0.041998282 -0.033543553 0.10466933 -0.07389515 -0.082294784 -0.05168494 -0.01386527
-0.06425524 0.123922065 0.1370327 -0.10457467 -0.14951213 -0.10613965 -0.05480354 0.11956001
0.21345742 0.113353714 0.14735122 0.1488864 -0.14877164 -0.034762707 0.11094587 -0.008613645
-0.0941997 0.23513909 -0.041348983 0.03513624 -0.042791467 0.07933471 -0.061324824 -0.082303695
0.10989799 0.08181085 -0.03780975 0.057484403 -0.18278393 0.19178508 0.021422254 -0.13872325
00000000: a513 47bd 6787 23be c580 173e 35d8 1f3e
00000010: 7519 3f3e e8e2 073c 0dc8 1d3e dd96 e13d
00000020: 8ea9 383e b359 0fbe 8719 d5bc 4302 023e
00000030: 8948 64bd 2d3c 9abd c979 df3c 5772 bf3c
00000040: 3855 fabd ba78 fd3d ccac 84bc 95ae 4cbd
00000050: 72bd 91bc 470c 013e c0e7 043e 44bc 28bd
00000060: c4ec 343e 6406 2cbd f764 09bd e05c d63d
00000070: 5756 97bd 2b8a a8bd 96b3 53bd 282b 63bc
00000080: 4098 83bd daca fd3d 4d52 0c3e 3f2b d6bd
00000090: b519 19be bf5f d9bd ad79 60bd e1db f43d
000000a0: 9594 5a3e fe25 e83d 3de3 163e ad75 183e
000000b0: 9857 18be 5763 0ebd 9737 e33d 3f20 0dbc
000000c0: c6eb c0bd 4dc8 703e 8d5d 29bd 05eb 0f3d
000000d0: 1b46 2fbd 3d7a a23d bd2f 7bbd d78e a8bd
000000e0: 3312 e13d 728c a73d 65de 1abd c474 6b3d
000000f0: b62b 3bbe 4f63 443e b97d af3c 780d 0ebe

model.7.weight f4 [1, 64]
-0.14903958 0.019018497 -0.06705802 0.06809894 0.108441256 0.06006456 -0.109446526 0.09249445
-0.11301617 -0.0380937 -0.17160346 0.065961346 -0.20284726 0.03158433 -0.17871144 -0.105328344
-0.16656917 -0.09810468 0.16170484 -0.19370294 -0.21819998 0.123999566 0.06383727 0.09131367
-0.037909787 -0.07279642 -0.0950351 0.15152971 -0.14253286 -0.08779473 -0.078443356 0.16496666
0.09445514 -0.08806616 -0.14032923 0.08731274 -0.014462905 -0.16098934 0.066360004 0.10433151
0.13555136 0.05982201 0.13846417 0.036009554 0.06612159 -0.21202216 -0.18672164 0.05353772
0.10659268 -0.122198224 0.12998384 -0.17550878 0.1494784 -0.096491426 0.17259537 0.10967542
-0.12731607 -0.10981585 0.026092304 0.07882688 -0.045970894 0.10537264 0.06756886 0.041018534
00000000: d59d 18be aecc 9b3c b755 89bd 7577 8b3d
00000010: 7316 de3d 4206 763d 8025 e0bd bb6d bd3d
00000020: 0675 e7bd 2408 1cbd d1b8 2fbe be16 873d
00000030: 31b7 4fbe 925e 013d 2200 37be 63b6 d7bd
00000040: 1c91 2abe 1beb c8bd f495 253e 105a 46be
00000050: d16f 5fbe 7cf3 fd3d 1dbd 823d a902 bb3d
00000060: 4b47 1bbd 4a16 95bd c3a1 c2bd 9b2a 1b3e
00000070: 22f4 11be b9cd b3bd e9a6 a0bd 05ed 283e
00000080: b271 c13d 085c b4bd 77b2 0fbe 06d1 b23d
00000090: d2f5 6cbc 64da 24be c1e7 873d c2ab d53d
000000a0: facd 0a3e ed07 753d 8dc9 0d3e c17e 133d
000000b0: c26a 873d 561c 59be f533 3fbe 5e4a 5b3d
000000c0: 434d da3d 1043 fabd 7c1a 053e 93b8 33be
000000d0: de10 193e 4c9d c5bd d7bc 303e 829d e03d
000000e0: 255f 02be 22e7 e0bd 87bf d53c fd6f a13d
000000f0: fa4b 3cbd 9ccd d73d 8b61 8a3d 0d03 283d

exp_avg f4 [1024]
-0.0026972122 -0.0005613607 -0.002338123 0.003945769 0.001747391 0.0005087537 -0.0021575186 -0.0028087406
0.00083801075 0.00173443 -0.0035626777 -0.00035464537 0.0026065023 0.0008125347 -0.0027079708 0.00123677
6.2029576e-06 0.00069515995 0.00038731287 -0.0009543398 -0.0016100155 -0.0025597531 -0.009864794 -0.0002828184
0.0002078056 0.0007976905 -0.0016320664 -0.0020764547 0.0014564723 0.003660079 0.0014971963 0.0006733814
0.00040242088 0.003049205 0.000851864 0.00069578434 0.0016147061 -0.0023872133 -0.0006985502 -0.0008028786
3.5590492e-06 -0.00021125321 0.0018273089 0.0014090624 0.0009883125 0.0007311795 0.00042757997 -0.00040802965
0.0020532336 -0.00077159156 -0.00065062323 -0.0015923308 -0.00048607474 -0.0015629545 0.00017476041 -3.1034513e-05
-0.0020389783 -0.006887863 -0.0007772195 0.0013448391 -0.000995146 -0.00091506273 -0.002005428 0.0006553441
-0.00020097327 0.0016119403 -0.0021796303 -0.00125257 -0.0013528329 -0.0039462904 0.0009555423 -0.002150723
-0.0009445353 -0.0009537011 0.0035340302 -0.0011069177 0.0027338238 0.00024767124 -0.004056783 -0.003328063
0.0011142266 -0.0037745791 0.00044286216 0.0019199706 -0.0005834603 -0.0016584767 0.0029594467 -0.0012983328
0.001583643 0.00086735503 0.000803009 -0.002626372 -0.0022644508 -0.00021145324 0.00074315374 -0.004536123
0.0032077073 -0.0015570637 0.000838579 -0.0014535991 6.611948e-05 0.00094079494 -0.0005455202 0.0010654525
0.0011505124 0.0010478654 -0.00014073953 -0.0021287974 0.00023104166 -0.0046665035 0.0009434133 5.1572883e-05
-0.00068173325 0.002403282 -0.0018640001 -0.0013044637 0.0007280335 0.00078545476 -0.0030682667 0.0025080994
0.00058332813 -0.0009912456 0.001017034 0.002070914 0.0017996033 -0.0035448528 0.00663763 0.0016458766
-0.0010815125 0.0025130461 -0.00029922358 -0.00024829688 0.0003126962 -0.001007364 -0.006073981 -0.00029322202
-0.00087948405 -0.0013292748 0.006100697 -0.0011269152 -0.0018112357 0.0011147801 0.0010194968 -0.0011402618
-0.00271782 -0.00041267488 0.00038764795 -0.00066602783 0.00012378192 -0.002413156 0.0026147468 0.0026113205
0.00067597034 0.0010167015 -0.0021902784 -0.0015960201 3.8544676e-05 -0.0026536472 -0.003284982 0.0041256123
-0.0043753167 -0.007497543 -0.0018759721 0.0015151158 -0.0015786047 -0.0026205536 -0.0010501384 0.0020643494
-0.0018313354 0.00040783815 0.00083537924 0.0002766845 -8.840714e-05 0.00085813913 0.0016916618 -0.0017241697
-0.00038099475 -0.0030049197 5.2827818e-05 -0.0017012773 0.00010651472 -0.00062919175 0.00086240366 0.0008970216
0.0008580511 -0.0013987566 -0.0012202637 -0.00043653027 0.002674845 0.0016030131 -0.00069284096 -0.00083229167
0.0022325965 0.00018803932 -0.0027955656 0.0012909551 0.00036760815 1.4653291e-05 -0.0019381337 0.0006765066
0.0005596388 9.452706e-05 0.0030776362 0.002030635 0.0006389685 -0.0028629464 0.0064231446 -0.00032977923
0.00038679596 0.0012067095 0.00055522437 0.0010587104 -6.601741e-05 0.0029892032 -0.0004128646 -0.00012652948
-0.00012236755 -0.0001399187 -0.003649964 0.0021545629 -0.0007600868 -0.00022560067 0.00021439741 -0.007831725
-0.0006000083 0.0005412744 0.0020457534 -0.0010129779 0.0022485624 0.0009378463 -0.00088151 0.0019493686
0.00072119804 -0.0013014702 -0.0010385874 -0.0023926098 -0.0012994821 -0.0012363099 0.00056212355 0.0016772469
0.0003754777 -0.0016776972 -0.00047095504 -0.0005437925 0.00038271915 -0.0011664942 -0.00024628147 -0.00016037212
0.00022436248 -0.0009171421 -0.00043249276 -0.0016820653 0.002676785 -5.9982995e-07 -0.00083108543 -0.0020648693
00000000: b6c3 30bb 4728 13ba 323b 19bb 824b 813b
00000010: b608 e53a e25d 053a 2865 0dbb d912 38bb
00000020: f3ad 5b3a d055 e33a d07b 69bb b2ef b9b9
00000030: dad1 2a3b 4800 553a 3678 31bb 1d1b a23a
00000040: 0023 d036 653b 363a 4110 cb39 a92c 7aba
00000050: 2807 d3ba 88c1 27bb f29f 21bc 3e47 94b9
00000060: 64e6 5939 1a1c 513a 10eb d5ba 2115 08bb
00000070: 1ae7 be3a f0dd 6f3b 923d c43a dc85 303a
00000080: 04fc d239 2cd5 473b a04f 5f3a 4c65 363a
00000090: 8ca4 d33a cb72 1cbb e91e 37ba 4578 52ba
000000a0: 00d8 6e36 da83 5db9 5082 ef3a 4ab0 b83a
000000b0: 448a 813a a0ac 3f3a d02c e039 d0ec d5b9
000000c0: 8b8f 063b a244 4aba 968e 2aba c1b5 d0ba
000000d0: d9d7 feb9 0ddc ccba e43f 3739 0e2b 02b8
000000e0: 61a0 05bb 95b3 e1bb 51be 4bba 5045 b03a
000000f0: 8f6f 82ba d2e0 6fba 806d 03bb 66cb 2b3a
00000100: 5abc 52b9 be47 d33a 21d8 0ebb 462d a4ba
00000110: 8a51 b1ba e24f 81bb 5c7d 7a3a 25f3 0cbb
00000120: b19a 77ba cc01 7aba 309b 673b ff15 91ba
00000130: f429 333b dfd9 8139 c3ee 84bb a21b 5abb
00000140: 3e0b 923a ee5e 77bb f42f e839 86a7 fb3a
00000150: 5cf3 18ba 3e61 d9ba 47f3 413b d22c aaba
00000160: 3e92 cf3a 365f 633a 0681 523a 361f 2cbb
00000170: 2e67 14bb 8cb9 5db9 34d0 423a c2a3 94bb
00000180: 6638 523b 6316 ccba 16d4 5b3a b186 beba
00000190: a0a9 8a38 ae9f 763a 3e01 0fba a7a6 8b3a
000001a0: cacc 963a 8758 893a 7b93 13b9 4b83 0bbb
000001b0: c643 7239 78e9 98bb 654f 773a f64f 5838
000001c0: 58b6 32ba 6280 1d3b 7751 f4ba 8afa aaba
000001d0: 80d9 3e3a fae6 4d3a f914 49bb ed5e 243b
000001e0: 7dea 183a afec 81ba 004e 853a 2cb8 073b
000001f0: abe0 eb3a c350 68bb 7a80 d93b 74ba d73a
00000200: 8ac1 8dba ebb1 243b 1ce1 9cb9 d82d 82b9
00000210: 60f1 a339 8709 84ba 3f08 c7bb 98bb 99b9
00000220: 2d8d 66ba 103b aeba 5be8 c73b 00b5 93ba
00000230: fc66 edba d01d 923a a3a0 853a d674 95ba
00000240: 741d 32bb 495c d8b9 3a3d cb39 5f98 2eba
00000250: 75cb 0139 0a26 1ebb 2c5c 2b3b b022 2b3b
00000260: 9a33 313a d742 853a c68a 0fbb 8c31 d1ba
00000270: 08ab 2138 d0e8 2dbb da48 57bb 2530 873b
00000280: d15e 8fbb f3ad f5bb 2ee3 f5ba da96 c63a
00000290: 2fe9 ceba 98bd 2bbb cca4 89ba 094a 073b
000002a0: 6b09 f0ba 1cd3 d539 5afd 5a3a f70f 9139
000002b0: 3967 b9b8 bef4 603a c0ba dd3a 89fd e1ba
000002c0: 40c0 c7b9 30ee 44bb 7093 5d38 65fd deba
000002d0: a860 df38 58f0 24ba ee12 623a 1a26 6b3a
000002e0: d6ee 603a 7c56 b7ba 41f1 9fba 1ade e4b9
000002f0: 744c 2f3b 321c d23a c59f 35ba 262e 5aba
00000300: c150 123b 6c2c 4539 cf35 37bb 4435 a93a
00000310: 88bb c039 68d7 7537 fa08 feba 9757 313a
00000320: b9b4 123a d43c c638 2bb2 493b 6714 053b
00000330: 7380 273a 45a0 3bbb 3e79 d23b 38e6 acb9
00000340: e0ca ca39 742a 9e3a 7a8c 113a 6dc4 8a3a
00000350: d472 8ab8 82e6 433b c075 d8b9 00ad 04b9
00000360: ca4f 00b9 24b7 12b9 3c34 6fbb 9133 0d3b
00000370: 9040 47ba 388f 6cb9 decf 6039 a350 00bc
00000380: e049 1dba 4fe4 0d3a 0c12 063b e6c5 84ba
00000390: 9e5c 133b cdd9 753a 2215 67ba f581 ff3a
000003a0: c80e 3d3a 1896 aaba 3621 88ba 55cd 1cbb
000003b0: 6253 aaba ad0b a2ba 795b 133a 11d7 db3a
000003c0: c4db c439 2de6 dbba 84ea f6b9 4c8d 0eba
000003d0: b2a7 c839 0de5 98ba 571f 81b9 9029 28b9
000003e0: d842 6b39 5d6c 70ba 32c0 e2b9 bf78 dcba
000003f0: 006d 2f3b 0004 21b5 33dd 59ba c252 07bb
