survival_analysis/zzzu3sww/checkpoints/epoch=299-step=600.ckpt (torch, 465258 bytes, 23 tensors)

survival_head.0.weight f4 [1024]
0.9996278 1.0032315 0.99958295 0.9985665 1.0003343 1.0004442 1.0012714 1.000223
0.99891835 1.0002761 0.9983146 0.99944323 1.0022602 1.000678 1.0007367 1.0014645
0.9991185 0.99863726 1.0009737 0.999931 1.0003109 1.0024137 0.9980478 0.999098
0.9989985 1.0009345 0.99972546 0.99893904 0.99890506 1.0008585 1.0002097 0.9994784
1.000327 1.0017532 1.0009583 1.0009995 1.0008134 0.9988013 0.9979225 0.9990445
1.0006719 1.0003393 1.000241 1.001015 0.9989468 0.99813324 0.9976695 0.99948406
0.9977775 0.99993193 0.9998091 0.9994368 1.0032411 0.99913204 0.99941933 0.99992865
1.0002453 0.9997531 1.0015115 1.0015497 0.99887323 0.9996354 0.9990338 1.0004462
0.99966437 1.0010461 0.9998465 1.000226 1.0014639 1.0001857 0.99956375 0.99950147
0.999819 1.0010103 0.9980542 0.9988715 1.00116 1.0008576 1.000275 0.9995064
1.0012059 0.9991836 0.9990614 1.0002528 0.99850816 1.000096 0.9981917 0.9986479
1.0005908 1.0012563 0.9968387 0.99873394 0.99826795 1.0024465 0.99778265 0.9999373
0.9961602 0.99919444 1.0001748 1.0003002 0.9998755 1.0016651 1.0005194 1.0004542
1.0022438 1.0006651 0.9992934 0.9993799 0.9997782 1.000668 1.0009077 0.99990505
1.0005077 1.000811 0.9976772 1.0008804 0.9987606 1.0018214 1.0001919 1.0023539
1.0012075 1.0011916 1.0003899 1.0017612 1.0020504 1.0011567 0.99752176 0.9997519
0.9985751 1.0006843 0.9981288 1.0022526 0.99893004 1.0005168 0.9989599 0.9991851
1.0038474 1.000769 1.0005485 1.0001209 1.0007472 1.0004187 1.0002468 0.9972376
1.0023146 1.0010908 1.0011226 0.99919486 0.9996993 0.9991866 1.0010026 1.001044
1.0007114 1.0009514 0.99986875 0.99913347 0.9990979 1.0012366 0.99880767 0.999147
1.001012 0.99962884 0.99969435 0.9985398 0.99921966 0.99968493 0.9989536 1.0004605
0.9994363 0.9985723 0.9995884 0.9990474 1.0005381 0.9999659 1.0013831 1.0004169
0.9988918 1.0003853 0.99811244 0.9998942 0.99997026 0.9985189 0.99884844 1.0000062
1.0030425 0.9993722 0.99794376 1.0001062 1.0013969 1.0015306 0.9994759 0.99896526
1.0018753 0.99975973 1.0001998 0.99808306 1.000117 0.99713624 1.001491 1.0003217
0.9981597 1.0008183 1.0004555 1.0007812 0.99906987 1.0005682 0.99908996 0.9985156
1.0023526 1.0007541 0.9990376 1.0005546 0.999092 1.0005246 1.0011734 1.001613
0.99922 0.99802846 1.0004342 0.9987339 0.9995927 1.0019763 1.000083 1.0010831
0.99738824 1.0008154 0.99973273 0.9989001 0.99963313 1.0001554 0.9967218 1.0004085
1.000716 0.99993396 1.0022112 0.9990653 1.0006701 1.0011815 1.0002633 0.99961424
0.9984943 1.0003856 1.0006043 1.0003629 1.0000985 1.0003511 1.0006967 0.9988181
1.0015084 0.9993755 1.0016643 0.99866176 1.0001147 1.0004727 0.9996332 0.99920857
00000000: 9ce7 7f3f e469 803f abe4 7f3f 0ea2 7f3f
00000010: f40a 803f 8e0e 803f a929 803f 4f07 803f
00000020: 1db9 7f3f 0c09 803f 8c91 7f3f 83db 7f3f
00000030: 104a 803f 3716 803f 2418 803f fd2f 803f
00000040: 3bc6 7f3f b1a6 7f3f e81f 803f 7afb 7f3f
00000050: 300a 803f 184f 803f 1080 7f3f e3c4 7f3f
00000060: 5ebe 7f3f 9f1e 803f 02ee 7f3f 78ba 7f3f
00000070: 3eb8 7f3f 221c 803f df06 803f d1dd 7f3f
00000080: b70a 803f 7339 803f 671f 803f c020 803f
00000090: a71a 803f 71b1 7f3f d977 7f3f 61c1 7f3f
000000a0: 0416 803f 1e0b 803f e607 803f 4221 803f
000000b0: faba 7f3f a985 7f3f 4567 7f3f 30de 7f3f
000000c0: 596e 7f3f 8afb 7f3f 7df3 7f3f 17db 7f3f
000000d0: 346a 803f 1ec7 7f3f f2d9 7f3f 53fb 7f3f
000000e0: 0a08 803f d2ef 7f3f 8731 803f c832 803f
000000f0: 28b6 7f3f 1be8 7f3f aec0 7f3f 9f0e 803f
00000100: 01ea 7f3f 4722 803f f1f5 7f3f 6807 803f
00000110: f82f 803f 1606 803f 69e3 7f3f 54df 7f3f
00000120: 23f4 7f3f 1b21 803f 7b80 7f3f 0bb6 7f3f
00000130: 0326 803f 1a1c 803f 0309 803f a7df 7f3f
00000140: 8427 803f 7fca 7f3f 7dc2 7f3f 4908 803f
00000150: 3b9e 7f3f 2503 803f 7e89 7f3f 64a7 7f3f
00000160: 5c13 803f 2b29 803f d230 7f3f 07ad 7f3f
00000170: 7d8e 7f3f 2b50 803f af6e 7f3f e4fb 7f3f
00000180: 5b04 7f3f 35cb 7f3f ba05 803f d609 803f
00000190: d7f7 7f3f 9036 803f 0511 803f e20e 803f
000001a0: 8649 803f cb15 803f b1d1 7f3f 5cd7 7f3f
000001b0: 77f1 7f3f e415 803f be1d 803f c7f9 7f3f
000001c0: a310 803f 931a 803f c667 7f3f d91c 803f
000001d0: c6ae 7f3f af3b 803f 4a06 803f 224d 803f
000001e0: 9127 803f 0c27 803f c70c 803f b639 803f
000001f0: 3043 803f e725 803f 965d 7f3f beef 7f3f
00000200: 9ea2 7f3f 6c16 803f 5e85 7f3f d049 803f
00000210: e1b9 7f3f ef10 803f d6bb 7f3f 98ca 7f3f
00000220: 127e 803f 3319 803f f911 803f f603 803f
00000230: 7c18 803f b80d 803f 1608 803f f74a 7f3f
00000240: d84b 803f be23 803f c924 803f 3ccb 7f3f
00000250: 4bec 7f3f b1ca 7f3f da20 803f 3622 803f
00000260: 5017 803f 2d1f 803f 66f7 7f3f 36c7 7f3f
00000270: e1c4 7f3f 8528 803f dcb1 7f3f 19c8 7f3f
00000280: 2921 803f ade7 7f3f f8eb 7f3f 4ea0 7f3f
00000290: dccc 7f3f 5aeb 7f3f 6cbb 7f3f 170f 803f
000002a0: 0fdb 7f3f 6fa2 7f3f 06e5 7f3f 92c1 7f3f
000002b0: a211 803f c4fd 7f3f 522d 803f a90d 803f
000002c0: 5fb7 7f3f a00c 803f 4c84 7f3f 11f9 7f3f
000002d0: 0dfe 7f3f ef9e 7f3f 88b4 7f3f 3400 803f
000002e0: b263 803f dbd6 7f3f 3e79 7f3f 7b03 803f
000002f0: c62d 803f 2832 803f a7dd 7f3f 30bc 7f3f
00000300: 733d 803f 41f0 7f3f 8c06 803f 5f82 7f3f
00000310: d503 803f 5244 7f3f db30 803f 8b0a 803f
00000320: 6587 7f3f d01a 803f ed0e 803f 9919 803f
00000330: 0bc3 7f3f 9e12 803f 5cc4 7f3f b89e 7f3f
00000340: 174d 803f b618 803f eec0 7f3f 2c12 803f
00000350: 7ec4 7f3f 3111 803f 7326 803f db34 803f
00000360: e2cc 7f3f cb7e 7f3f 3a0e 803f 06ad 7f3f
00000370: 4fe5 7f3f c240 803f b802 803f 7e23 803f
00000380: d654 7f3f b81a 803f 7cee 7f3f ebb7 7f3f
00000390: f5e7 7f3f 1805 803f 2929 7f3f 630d 803f
000003a0: 7617 803f acfb 7f3f 7548 803f bec2 7f3f
000003b0: f515 803f b726 803f a108 803f b8e6 7f3f
000003c0: 539d 7f3f a30c 803f cd13 803f e40b 803f
000003d0: 3a03 803f 810b 803f d416 803f 8bb2 7f3f
000003e0: 6d31 803f 13d7 7f3f 8936 803f 4ca8 7f3f
000003f0: c203 803f 7d0f 803f f6e7 7f3f 22cc 7f3f

survival_head.0.bias f4 [1024]
-0.0018012745 -0.00037874625 -0.00048380133 0.0019094695 0.001472562 0.0010897153 -0.00082829193 0.0010720453
-0.00057472184 -0.0008569066 -0.001499121 -0.00075716333 0.0011490068 0.00021650466 -0.0010317807 -1.3739688e-05
-0.00018557846 -0.002136999 0.0012516043 -0.0010910735 -0.00023375187 0.0010076902 0.00068215496 0.00029400364
-0.0022278253 0.00049745635 -0.0013896748 0.0006956065 0.00028639054 -0.00123858 -0.0004381136 0.0013272021
0.0009117501 0.000990534 0.0010206848 -0.0015788868 0.00029454168 0.0022164264 -0.0006682702 0.00081217015
0.0012292449 -0.0011604412 0.00037608735 -0.00061473437 -0.00016923298 0.001293659 0.00013550636 -0.00059426535
-0.0008532941 0.0011721846 0.00030564336 -0.0021715523 0.001882273 -0.0026971644 0.0004908471 -9.7698365e-05
0.0021230942 0.0005051618 -6.7849665e-05 0.00019259735 0.0008297733 -3.6999903e-05 0.0010182735 -0.00024412875
-0.0008317499 -0.0017667003 0.0012415969 -0.0011447167 0.0010207079 0.001004774 -0.0016423077 0.0012816589
-0.000273333 0.000892882 0.00047561718 -5.9031016e-05 0.0012021969 -0.0009813936 -0.0009863984 0.0006266382
-0.0004772358 0.000226144 3.7178812e-05 2.5176125e-05 0.00043655018 0.0015377867 -5.507926e-05 -0.00025710097
0.0006837954 0.00014946803 0.0003587591 0.00012704097 -0.00038082318 0.0013200945 -0.0004224651 0.001536871
-0.0014827888 -0.00017395735 -0.0002809425 -0.0001492053 -0.00039099925 9.261793e-05 0.0018786798 0.0008346314
0.0011229459 0.0003649188 -0.0012291771 -0.00017046525 0.0004023561 -8.1550825e-05 -0.0005787176 0.0016114764
0.00030539982 -0.0014077503 -0.00017825185 0.0008091379 -0.00066019024 -0.0012638764 0.0010152105 0.0013976027
0.00092759356 -0.0019408931 -0.00019571408 0.001565232 -0.0005609413 -0.0004219995 0.00018111002 -0.0012927591
-0.00013299858 0.0009012407 0.0016138414 0.0006444603 0.0007032847 0.0016763065 -0.00057915214 0.0002755541
0.00097189844 -0.00019656176 -9.64206e-05 -0.0020559474 0.0005867762 -0.00024017876 -0.0005654649 -0.00010992106
0.0007181956 -0.0016013526 -0.00088271295 -0.0016989739 5.3964977e-05 4.2290638e-05 0.00081614323 -0.000572323
0.0010324718 4.5813067e-05 -0.0008835669 -0.00017695673 0.0006633956 0.00089144864 -0.00053653296 -0.00010165575
9.075942e-05 -0.0017144012 -0.0014096021 -0.001030044 -0.00036267456 -0.0010971058 -0.0008644459 0.00033332486
-0.00068296987 -0.000359493 0.0017723955 -0.00071015034 0.00077428436 -0.0003665051 -0.0011140909 0.00049073267
0.0010319554 0.0007089988 -1.813925e-05 0.000367127 -0.00097626046 0.00067536836 -0.0010300939 0.00026418283
0.0004987906 -0.00039162015 -0.0016084164 0.0018392161 0.00038492866 -0.0017156391 -0.0019923232 -0.0014321086
-3.2263008e-06 0.0018322686 -0.0012438776 -0.00010471676 -0.0006256872 -0.00095809007 0.00021093315 -0.00033184627
0.0003774997 0.0010365623 -0.000298075 -0.00043908122 0.0012252799 -0.0007139726 0.0004398741 -0.00033868043
1.4090527e-05 0.00015044372 -0.0010466202 0.0003726709 0.000771508 -0.0015805055 0.0009228456 -0.0020409464
0.0016362427 0.0011781678 0.0005070783 0.0006736574 -0.00019258376 0.000212558 -0.00044737212 -0.00028626344
-0.0004497032 -0.0013940856 0.00020699039 -0.00032490309 0.00068609155 -0.0006539962 -0.0005654336 0.00030730397
-0.0014056702 0.0011426659 0.0013894637 0.0013667456 -0.00091416354 0.00045615959 0.001166741 -0.00096902775
-0.00040814548 -4.8695918e-05 0.00075433566 0.0003051611 5.751305e-05 0.0010928639 0.0016300222 0.0013516459
0.0019188889 0.0014449354 0.0011682045 -0.00050297874 0.0014355839 0.00027288336 5.1432162e-05 -8.743427e-05
00000000: be18 ecba 7692 c6b9 b7a6 fdb9 2a47 fa3a
00000010: fb02 c13a c7d4 8e3a bb21 59ba df83 8c3a
00000020: eea8 16ba 07a2 60ba 277e c4ba 5f7c 46ba
00000030: 459a 963a 8705 6339 d13c 87ba 8383 66b7
00000040: d797 42b9 e50c 0cbb df0c a43a 5a02 8fba
00000050: 4a1b 75b9 7914 843a a5d2 323a 8024 9a39
00000060: b500 12bb bb67 023a c025 b6ba 5d59 363a
00000070: b026 9639 d957 a2ba 9db2 e5b9 83f5 ad3a
00000080: 8302 6f3a ced4 813a 80c8 853a a6f2 ceba
00000090: b76c 9a39 7741 113b db2e 2fba d1e7 543a
000000a0: 9d1e a13a f219 98ba 972d c539 2026 21ba
000000b0: 2274 31b9 fe8f a93a b616 0e39 79c8 1bba
000000c0: 99af 5fba fda3 993a c23e a039 9a50 0ebb
000000d0: 9ab6 f63a e9c2 30bb 31ac 003a 69e3 ccb8
000000e0: 9c23 0b3b d66c 043a 834a 8eb8 f5f3 4939
000000f0: 2585 593a 5830 1bb8 9777 853a d0fc 7fb9
00000100: ca09 5aba a090 e7ba 14bd a23a 520a 96ba
00000110: 46c9 853a 9fb2 833a b442 d7ba 56fd a73a
00000120: 224e 8fb9 4c10 6a3a 425c f939 1298 77b8
00000130: 0993 9d3a 1ba2 80ba 0a4a 81ba fa44 243a
00000140: 8135 fab9 1121 6d39 72f0 1b38 5131 d337
00000150: c6e0 e439 8f8f c93a e804 67b8 82cb 86b9
00000160: bc40 333a 85ba 1c39 d517 bc39 4d36 0539
00000170: 39a9 c7b9 0507 ad3a 4e7e ddb9 d570 c93a
00000180: 235a c2ba 5268 36b9 774b 93b9 fe73 1cb9
00000190: 08ff ccb9 df3b c238 093e f63a 2acb 5a3a
000001a0: d02f 933a 9252 bf39 571c a1ba ebbe 32b9
000001b0: 52f3 d239 4406 abb8 15b5 17ba 2d38 d33a
000001c0: 121e a039 4384 b8ba 1ee9 3ab9 531c 543a
000001d0: 9e10 2dba a8a8 a5ba d010 853a c42f b73a
000001e0: c029 733a 9165 feba 9938 4db9 7928 cd3a
000001f0: 220c 13ba d03f ddb9 5ae8 3d39 cc71 a9ba
00000200: 8975 0bb9 3d41 6c3a 8887 d33a 00f1 283a
00000210: a35c 383a 83b7 db3a 3ed2 17ba 3f78 9039
00000220: 00c7 7e3a 251c 4eb9 6a35 cab8 13bd 06bb
00000230: e2d1 193a 7fd8 7bb9 b53b 14ba 6b85 e6b8
00000240: 4a45 3c3a 7ae4 d1ba dd65 67ba 1bb0 deba
00000250: 7458 6238 3a61 3138 72f2 553a f207 16ba
00000260: 0154 873a 6827 4038 2c9f 67ba 768d 39b9
00000270: bae7 2d3a 1bb0 693a 1ea6 0cba 0430 d5b8
00000280: 1856 be38 c2b5 e0ba 66c2 b8ba 8b02 87ba
00000290: 5b25 beb9 c3cc 8fba fb9b 62ba 1bc2 ae39
000002a0: 5509 33ba 557a bcb9 b94f e83a 6229 3aba
000002b0: 58f9 4a3a 7b27 c0b9 b006 92ba 83a4 003a
000002c0: ad42 873a 1bdc 393a be29 98b7 f47a c039
000002d0: bbeb 7fba 340b 313a 3704 87ba 0582 8a39
000002e0: 45c1 023a 5e52 cdb9 80d1 d2ba da11 f13a
000002f0: 40d0 c939 4cdf e0ba a391 02bb 97b5 bbba
00000300: 6d83 58b6 bb28 f03a 9b09 a3ba 629b dbb8
00000310: 2805 24ba 5628 7bba f02d 5d39 a7fb adb9
00000320: 27eb c539 42dd 873a f346 9cb9 7c34 e6b9
00000330: 9299 a03a e429 3bba e79e e639 eb90 b1b9
00000340: 5a66 6c37 6ec0 1d39 bf2e 89ba 0b63 c339
00000350: 073f 4a3a f728 cfba 1feb 713a 66c1 05bb
00000360: 3277 d63a c06c 9a3a 73ed 043a 6298 303a
00000370: 4ff0 49b9 1be2 5e39 458d eab9 a115 96b9
00000380: 24c6 ebb9 c0b9 b6ba 8f0b 5939 c157 aab9
00000390: d3da 333a f170 2bba 9b39 14ba a41d a139
000003a0: 773e b8ba 81c5 953a aa1e b63a 5f24 b33a
000003b0: 7aa4 6fba b428 ef39 55ed 983a 5a06 7eba
000003c0: 5cfc d5b9 d83e 4cb8 9cbe 453a 08fe 9f39
000003d0: 2b3a 7138 6d3e 8f3a 78a6 d53a b629 b13a
000003e0: 3a83 fb3a fd63 bd3a 701e 993a 55da 03ba
000003f0: 342a bc3a c911 8f39 ddb8 5738 eb5c b7b8

survival_head.0.running_mean f4 [1024]
-0.05792156 -0.017083034 0.0076527023 -0.026543656 0.0029089523 -0.014348815 0.03902042 -0.004594875
-0.004211481 0.033115253 -0.011360679 0.0044201743 -0.0038021933 -0.01293415 0.0050278874 0.011192813
-0.035539746 -0.024534518 -0.00031362928 0.0084138755 0.014770752 -0.0011295216 0.019814983 0.07276121
0.019704046 0.030527981 -0.024752608 0.01082557 -0.0060732993 -0.011644459 0.025111176 -0.015443003
-0.007564602 0.010391859 -0.002955848 0.015013491 -0.010692198 0.005762931 -0.028056523 -0.004956598
0.011510977 0.025191922 -0.00020384643 -0.04612749 -0.0245065 0.0030466325 -0.00036120068 -0.024809841
-0.012050412 0.08348595 -0.025440179 -0.01727301 -0.019504018 0.0096684145 0.009576829 -0.0086641945
0.033020657 0.008779394 -0.005577582 -0.010979597 0.010297991 -0.022891585 -0.010269063 0.022820702
-0.00020898496 -0.015233263 0.004467945 0.0060631256 0.001594632 0.005808939 0.037331816 0.01144455
-0.01594712 0.044293772 0.029416028 -0.010826965 0.025352081 -0.018657781 0.01689753 -0.01740829
-0.007993361 0.027621752 -0.051856045 0.02122853 -0.01675938 -0.040509365 0.023972461 -0.01781632
0.01120825 0.022482883 -0.022474172 -0.0056050466 -0.011822064 0.013698887 0.011973028 0.018880647
0.008827926 0.0579112 -0.008908171 0.022035128 0.013306167 0.027069207 -0.0018808829 0.011559544
0.07544503 0.015887337 0.003477865 -0.02256717 -0.030524086 0.050108284 -0.012125981 0.0022224544
0.06593459 -0.0036838125 -0.004706974 0.017720085 -0.0015047103 -0.006754187 0.0006573596 -0.006234642
-0.020869724 -0.00928447 -0.016113447 -0.012168972 -0.049181074 -0.022131518 -0.0109459935 -0.021054575
0.019426737 -0.01965683 -0.06387002 -0.014343188 0.016054263 -0.0033594992 -0.0010421637 -0.02901247
0.043281663 0.022338452 -0.0027584692 -0.021458624 0.0031881023 -0.040859956 -0.0101049775 -0.0065869
-0.0021314404 -0.010449031 0.0460411 -0.023022208 -0.033744115 0.0016547536 -0.007835098 0.00027483044
0.0066277403 -0.0011646888 0.016584555 0.026758812 0.02758533 -0.008212967 -0.0044276095 0.0070208875
0.0012330742 0.027662711 0.016432798 0.0037500174 -0.004716289 -0.005100409 -0.054913465 -0.0062508546
-0.038180906 0.026634045 0.0288169 0.029874234 0.02536731 -0.008677435 0.023383975 0.011305038
-0.011608829 -0.013186577 -0.018488828 -0.0024701331 -0.032139514 -0.017117286 -0.006812527 0.012145325
-0.011870901 0.025047846 0.047313124 -0.015241127 -0.015019422 -0.033523027 0.038883008 0.011793591
0.015118196 0.031760782 0.011345205 0.011478467 -0.00962962 -0.0032937047 0.020877786 0.03252911
0.006736553 -0.011799285 0.0028925852 -0.02581817 -0.024019586 0.008980206 -0.012521714 -0.01398984
0.017633086 -0.009042995 -0.033085972 -0.022659851 0.014312718 0.025370538 0.0044027143 -0.015339629
0.011906868 0.027295213 -0.008415704 -0.005958998 0.0097227115 -0.018783078 -0.04904359 -0.021145487
0.02158076 0.012812143 0.0039024677 -0.02109605 0.0024675527 -0.020012958 -0.010307302 -0.031938728
-0.0050985366 -0.02984106 -0.011787882 -0.017197844 -0.02933689 0.034036048 0.021341972 -0.017148841
0.03277024 -0.0015564795 -0.00608568 0.024979385 -0.023197304 -0.0014613178 0.011607594 0.021757768
4.787126e-05 0.027720045 -0.01709636 0.025278408 0.018963125 0.0006362157 0.01549616 0.022471907
00000000: 283f 6dbd b8f1 8bbc 85c3 fa3b 1572 d9bc
00000010: 1fa4 3e3b 4b17 6bbc e0d3 1f3d 9b90 96bb
00000020: 7700 8abb dca3 073d 2422 3abc 1cd7 903b
00000030: 382e 79bb c2e9 53bc fac0 a43b 0f62 373c
00000040: 2092 11bd 9dfc c8bc 9c6e a4b9 5ada 093c
00000050: 0601 723c 750c 94ba 0853 a23c d403 953d
00000060: 616a a13c d115 fa3c fbc5 cabc bb5d 313c
00000070: 8702 c7bb 67c8 3ebc f4b5 cd3c a604 7dbc
00000080: 7be0 f7bb 9e42 2a3c e6b6 41bb 25fb 753c
00000090: 542e 2fbc f8d6 bc3b cbd6 e5bc f56a a2bb
000000a0: 8998 3c3c 4a5f ce3c 9cbf 55b9 2ef0 3cbd
000000b0: dbc1 c8bc 03aa 473b 895f bdb9 023e cbbc
000000c0: 176f 45bc affa aa3d ec67 d0bc 2180 8dbc
000000d0: e4c6 9fbc 4568 1e3c 22e8 1c3c 44f4 0dbc
000000e0: ab40 073d 73d7 0f3c 26c4 b6bb c5e3 33bc
000000f0: e8b8 283c 2287 bbbc 923f 28bc 7bf2 ba3c
00000100: f922 5bb9 f094 79bc d767 923b 2fad c63b
00000110: f902 d13a ea58 be3b 3fe9 183d ec81 3b3c
00000120: 89a3 82bc 636d 353d e2f9 f03c 9563 31bc
00000130: 2baf cf3c 34d8 98bc b06c 8a3c d59b 8ebc
00000140: 96f6 02bc 0347 e23c 0167 54bd 74e7 ad3c
00000150: f84a 89bc 26ed 25bd e561 c43c 88f3 91bc
00000160: cfa2 373c 062e b83c c11b b8bc 8aaa b7bb
00000170: 55b1 41bc 4c71 603c 852a 443c 96ab 9a3c
00000180: 01a3 103c 4b34 6d3d 94f3 11bc 0383 b43c
00000190: 1c02 5a3c 3ec0 dd3c f587 f6ba 3e64 3d3c
000001a0: ed82 9a3d 2926 823c e4ec 633b c9de b8bc
000001b0: a60d fabc 583e 4d3d 0dac 46bc 99a6 113b
000001c0: b708 873d 1e6c 71bb f63c 9abb b629 913c
000001d0: b339 c5ba 3a52 ddbb a852 2c3a f84b ccbb
000001e0: fcf6 aabc e41d 18bc 5900 84bc 5e60 47bc
000001f0: 1872 49bd 284d b5bc d356 33bc a57a acbc
00000200: d224 9f3c 5c07 a1bc 49ce 82bd b1ff 6abc
00000210: 3b84 833c 0b2b 5cbb 3699 88ba 8fab edbc
00000220: 1d48 313d 21ff b63c 6fc7 34bb ffc9 afbc
00000230: 7bef 503b c55c 27bd 598f 25bc ecd6 d7bb
00000240: a3af 0bbb 6a32 2bbc 9895 3c3d 1299 bcbc
00000250: 4537 0abd 51e4 d83a c85e 00bc 1e17 9039
00000260: 842d d93b 79a8 98ba 55dc 873c 4c35 db3c
00000270: a1fa e13c ae8f 06bc 7b15 91bb 790f e63b
00000280: 1b9f a13a e99c e23c 139e 863c dac2 753b
00000290: 1a8b 9abb 5521 a7bb f1ec 60bd f8d3 ccbb
000002a0: 9563 1cbd a42f da3c 6b11 ec3c cfba f43c
000002b0: 1bcf cf3c cd2b 0ebc c08f bf3c c438 393c
000002c0: f532 3ebc 830c 58bc e275 97bc f5e1 21bb
000002d0: b9a4 03bd 8d39 8cbc 9e3b dfbb 2ffd 463c
000002e0: 2b7e 42bc 2431 cd3c 68cb 413d ecb5 79bc
000002f0: 0614 76bc 714f 09bd ca43 1f3d e839 413c
00000300: 4fb2 773c 9817 023d 3de1 393c 2e10 3c3c
00000310: 8ec5 1dbc 32db 57bb e407 ab3c 3e3d 053d
00000320: 4dbe dc3b ca51 41bc 8791 3d3b a080 d3bc
00000330: b9c4 c4bc b721 133c e027 4dbc a435 65bc
00000340: 4373 903c 1229 14bc 2885 07bd 27a1 b9bc
00000350: e47f 6a3c e0d5 cf3c a544 903b 1153 7bbc
00000360: 0615 433c 369a df3c 05e2 09bc b343 c3bb
00000370: 024c 1f3c f8de 99bc eee1 48bd 4d39 adbc
00000380: 22ca b03c 06ea 513c 8bc0 7f3b a0d1 acbc
00000390: aab6 213b 37f2 a3bc f5df 28bc 2fd2 02bd
000003a0: a011 a7bb 3d75 f4bc f621 41bc 7ee2 8cbc
000003b0: eb53 f0bc 6269 0b3d 5cd5 ae3c ba7b 8cbc
000003c0: 163a 063d c902 ccba 626a c7bb 91a1 cc3c
000003d0: 4608 bebc b089 bfba c72d 3e3c 593d b23c
000003e0: 60c9 4838 2615 e33c aa0d 8cbc aa14 cf3c
000003f0: 8e58 9b3c b6c7 263a 9be3 7d3c 0117 b83c

survival_head.0.running_var f4 [1024]
0.00013866335 0.00014981393 0.00014563576 0.0001219761 0.00016775905 0.00017269944 0.00015206813 0.00012088443
0.000112589274 0.00017344937 0.0001803395 0.00017121735 0.00015983333 0.00013949603 0.00014118677 0.00012847527
0.000108910834 0.0001607134 0.0002025892 0.00013252992 0.00014249451 0.00013504399 0.000114006856 0.00020848234
0.00012457327 0.00016705674 0.00017519627 0.00010634007 0.00017039302 0.00035199578 0.00025416075 0.00017352913
0.00018355616 0.000103977196 0.00019821299 0.00018402447 0.00011812104 8.333862e-05 0.00012244671 0.00023707683
0.00026541358 0.00014899377 0.00017739626 0.00013639205 0.00018511197 0.0002120305 0.00022910433 0.00021881415
0.0001368533 0.00030128946 0.00023648066 0.00024055618 0.00018818137 0.00019616587 0.00012734743 0.00013709287
0.00020697791 9.9809404e-05 0.00012264504 0.00014595666 0.00019356632 0.00021320397 0.00028058272 0.00018152592
0.00015074686 0.00010357052 0.00017188439 0.00014917956 0.0001225734 0.0001594556 0.00020020017 0.00021705197
0.00021177507 0.00018748395 0.00017602088 0.00018554798 0.000115362025 0.00019101764 0.00015642631 0.00020910882
0.00019289265 9.296752e-05 0.00020031777 0.0001416941 0.0001249813 0.00029536145 0.00016742968 0.00022570405
0.00012255559 0.00022567512 0.00033693254 0.0001815739 0.00012871338 0.00022250574 0.00016106013 0.00017503132
0.00017694545 0.00016849242 0.00016797666 0.0003280097 0.00014994669 0.00013119305 0.00018712552 0.00010186022
0.000617142 0.00015225972 0.00016202153 0.00023528177 0.00014740264 0.00012632764 0.00017121126 0.00012141017
0.00017596214 0.00020384978 0.00022492633 0.0002717711 0.00012317067 0.0001486481 0.00019016027 0.00023106234
0.00021545413 0.00015122794 0.00016957664 0.00019286973 0.00014900333 0.000100044774 0.00010590177 0.0001212113
0.00020787626 0.0002886705 0.00017049407 9.4078794e-05 0.000194537 0.00012241991 0.00012353677 0.00017995812
0.00024270902 0.00014420997 0.00016405803 0.0001526011 0.00013079145 0.0001613201 0.0001552988 0.00016274345
0.00030453881 0.00026343964 0.00019243768 0.00013817096 0.00025187896 0.00017863118 0.00022688163 0.00015453059
0.00011908056 0.00022931505 0.000120298384 0.00016551837 0.00014419461 0.00014057953 0.00031753018 0.00015644474
0.00014182233 0.00015322804 0.0001306734 0.00012654645 0.00013705828 9.9818244e-05 0.00062259805 0.00014390028
0.00019212172 0.00019399246 0.00013935751 0.00016251706 0.00017847672 0.00013220578 0.00024100205 0.00016645047
0.00012046359 0.00014353503 0.00011181832 0.0002528836 0.00019028461 0.00020732767 0.00024069787 0.00021164215
0.00015785317 0.0001395252 0.00021716658 0.00013767443 0.00014386483 0.00013142668 0.0002386508 0.00015169439
0.00023579947 0.00013628045 0.00014730527 0.00022350399 0.00020338484 0.00015675637 0.00015951939 0.00017356715
0.00014075567 0.00016866365 0.00016224681 0.00015546069 0.00013741189 0.00012223012 0.00012725443 0.0001352879
0.0001482601 0.00013299639 0.00019039185 0.00014386824 0.00014209683 0.00016262985 0.0005333675 9.781743e-05
0.00010525284 0.00013135478 9.069877e-05 0.00018678348 0.00015363445 0.00012804802 0.00014006523 0.00022340433
0.00017281101 0.00016151053 0.00013150852 0.000119979595 0.00011768827 0.00013468573 0.00013334103 0.0003790897
0.00017454816 0.00017930516 0.00011285408 0.00011805865 0.00018387302 0.00012878732 0.00014456599 0.00013696933
0.0001480109 0.0001356159 0.0001963211 0.00019694232 0.00019759535 0.00042955496 0.00011485621 0.000113237424
0.00015846046 0.000114024195 0.00014176567 0.00013245942 0.00017323744 0.00010816121 0.00013701123 0.00013905273
00000000: 2966 1139 5f17 1d39 cdb5 1839 6ccd ff38
00000010: 7ae8 2f39 a716 3539 7a74 1f39 5683 fd38
00000020: e81d ec38 f6df 3539 8419 3d39 cf88 3339
00000030: ef98 2739 ae45 1239 890b 1439 51b7 0639
00000040: 0f67 e438 2d85 2839 206e 5439 bbf7 0a39
00000050: 946a 1539 989a 0d39 f716 ef38 0d9c 5a39
00000060: e29f 0239 f42b 2f39 e4b4 3739 e402 df38
00000070: 87ab 3239 138c b839 e140 8539 5ff5 3539
00000080: fb78 4039 550e da38 65d7 4f39 b1f6 4039
00000090: c0b7 f738 15c6 ae38 0a65 0039 d497 7839
000000a0: 3527 8b39 363b 1c39 7203 3a39 7604 0f39
000000b0: 9e1a 4239 8154 5e39 ba3b 7039 7a71 6539
000000c0: 4780 0f39 63f6 9d39 cbf7 7739 cf3d 7c39
000000d0: 8d52 4539 e0b1 4d39 9188 0539 96c0 0f39
000000e0: 3608 5939 c450 d138 479a 0039 f10b 1939
000000f0: 10f8 4a39 818f 5f39 2d1b 9339 fe57 3e39
00000100: cd11 1e39 0034 d938 dd3b 3439 156d 1c39
00000110: 0c87 0039 8933 2739 d3ec 5139 7298 6339
00000120: f00f 5e39 5797 4439 3f92 3839 a88f 4239
00000130: 84ee f138 e84b 4839 5e06 2439 3944 5b39
00000140: 3a43 4a39 8ff7 c238 640c 5239 b893 1439
00000150: 6a0d 0339 beda 9a39 1090 2f39 f8aa 6c39
00000160: 4482 0039 34a3 6c39 52a6 b039 df64 3e39
00000170: 3cf7 0639 6e50 6939 40e2 2839 9d88 3739
00000180: 6f8a 3939 57ad 3039 e422 3039 b7f8 ab39
00000190: 023b 1d39 de90 0939 2037 4439 ca9d d538
000001a0: b3c7 213a e8a7 1f39 53e4 2939 f8b5 7639
000001b0: 1890 1a39 d176 0439 2c87 3339 979d fe38
000001c0: 7a82 3839 82c0 5539 34da 6b39 807c 8e39
000001d0: 6027 0139 6cde 1b39 c265 4739 5349 7239
000001e0: 87eb 6139 f192 1e39 62d0 3139 133d 4a39
000001f0: c73d 1c39 21cf d138 9417 de38 d232 fe38
00000200: 5cf9 5939 b358 9739 a7c6 3239 2b4c c538
00000210: a1fc 4b39 d85d 0039 a689 0139 24b3 3c39
00000220: b57f 7e39 1237 1739 fe06 2c39 8c03 2039
00000230: 1025 0939 0928 2939 b4d7 2239 1da6 2a39
00000240: 82aa 9f39 451e 8a39 19c9 4939 fce1 1039
00000250: 9f0e 8439 f14e 3b39 13e7 6d39 7d09 2239
00000260: e4ba f938 4a74 7039 b448 fc38 008f 2d39
00000270: f232 1739 8868 1339 2e7a a639 510b 2439
00000280: 24b6 1439 d7ab 2039 6005 0939 8eb1 0439
00000290: 4db7 0f39 8355 d138 d935 233a f0e3 1639
000002a0: 4874 4939 746a 4b39 7f20 1239 5769 2a39
000002b0: 7b25 3b39 b8a0 0a39 7fb5 7c39 3589 2e39
000002c0: 66a1 fc38 e481 1639 0180 ea38 7695 8439
000002d0: 2387 4739 1966 5939 d863 7c39 42ec 5d39
000002e0: 6385 2539 834d 1239 36b7 6339 b35c 1039
000002f0: 6cda 1639 95cf 0939 563e 7a39 2710 1f39
00000300: f040 7739 81e6 0e39 f575 1a39 655c 6a39
00000310: b443 5539 f85e 2439 a944 2739 94ff 3539
00000320: d097 1339 4edb 3039 cc20 2a39 2903 2339
00000330: 3916 1039 e62a 0039 9a6f 0539 12dc 0d39
00000340: 4476 1b39 f274 0b39 eca3 4739 56db 1639
00000350: d4ff 1439 9e87 2a39 b0d1 0b3a 5523 cd38
00000360: 30bb dc38 48bc 0939 8835 be38 4fdb 4339
00000370: ef18 2139 a144 0639 79de 1239 a541 6a39
00000380: 9a34 3539 275b 2939 8de5 0939 8e9d fb38
00000390: 69cf f638 6d3a 0d39 76d1 0b39 8fc0 c639
000003a0: ea06 3739 dd03 3c39 13ac ec38 4196 f738
000003b0: 0ace 4039 150b 0739 a396 1739 6d9f 0f39
000003c0: 6033 1b39 1e34 0e39 8bdb 4d39 4d82 4e39
000003d0: 9931 4f39 e435 e139 f5de f038 e179 ed38
000003e0: 6828 2639 4620 ef38 efa6 1439 cee4 0a39
000003f0: 12a7 3539 9cd4 e238 acaa 0f39 afce 1139

survival_head.1.weight f4 [32, 1024]
0.009879661 0.031202145 -0.016004687 -0.019183131 -0.02900206 0.021500787 -0.009564073 -0.022122923
0.016961185 -0.021584803 0.021826789 0.021476572 0.019143324 0.00031777812 -0.019212043 0.019953283
0.0042458004 0.0030170735 -0.02960148 0.026463754 0.01067828 0.00026171515 -0.00053783535 -0.019798473
-0.00027352123 0.02125515 0.004890564 0.02097934 -0.011583544 -0.010909157 -0.028527033 0.004169305
-0.020184124 -0.006449414 0.01767364 0.026217539 0.0060645062 0.016748061 0.015905185 0.015490241
0.014706656 -0.010489568 0.022588199 -0.01693732 0.025900835 -0.013209936 -0.025723197 0.027457152
-0.023686612 -0.00510078 -0.018102197 0.013956851 -0.016483601 0.0044283755 0.026048973 0.023189357
0.009029038 0.010113317 -0.023467531 0.019213669 0.013163311 0.0037477962 -0.006205701 -0.0040596505
0.020700429 0.0017107972 -0.025668701 -0.020265842 0.005999106 -0.012387863 0.00685885 0.007452404
0.005193995 0.017827583 -0.022621667 -0.021218484 -0.023500277 -0.009872624 -0.016829476 0.019627113
0.0072943238 0.016669754 -0.02385486 0.006736453 -0.02866152 -0.013094016 0.01061538 0.013847425
0.007778302 0.007748788 0.01958311 0.01722592 -0.026905216 0.030503698 -0.0041214004 0.028712513
0.010380482 0.026331602 0.012043435 -0.00081896706 -0.014074634 0.016584827 -0.011983579 0.024650924
-0.018435908 -0.012411293 -0.007146017 0.019395335 -0.021697352 0.024201898 0.025703216 0.02037876
-0.008568555 -0.024117362 0.024896853 0.013457172 -0.02044215 -0.020445867 -0.022938412 0.006043614
0.028514402 -0.024542427 0.011445625 0.006878925 -0.0057976777 0.010758343 0.018547157 0.012322793
0.019490996 -0.02356669 0.004762918 -0.026728088 0.02019153 -0.018894343 -0.004361266 -0.0022925376
0.009908642 -0.030295579 -0.01813237 -0.013185837 -0.028927324 0.015718715 -0.018895889 0.02641571
-0.021782527 0.012881671 0.005631303 0.028950002 -0.017751861 -0.02361046 -0.009186709 0.002381047
-0.0181441 0.026355162 0.014209569 0.021918451 0.020554978 0.0045499695 0.00801222 0.029747633
-0.023920828 0.030717297 -0.018198263 -0.012224057 0.0006504021 0.009385827 -0.02824631 -0.012328417
-0.02369731 0.020345539 -0.016778452 -0.015312778 -0.023946052 0.031146418 0.028609369 -0.012429415
-0.013325491 -0.0011993536 0.0058129863 -0.012141069 0.0033496066 0.018606097 0.029627087 0.005805106
0.017398747 0.002539386 0.0075382898 -0.020321406 0.0010224619 0.0172413 0.011431989 0.031268317
-0.00013129575 -0.011697816 0.018289939 -0.024575911 0.015214611 0.016354717 -0.02925958 -0.029840242
-0.026040012 -0.014398939 0.02226121 -0.026714718 0.024453899 0.0018386901 0.024088344 -0.0005168631
0.004308485 -0.007243362 -0.006377991 -0.010933537 0.001996147 -0.028007397 -0.0044316747 -0.027480364
-0.017768249 0.018071614 -0.02764003 0.022506714 0.013885433 0.021408416 -0.008790358 0.024738833
-0.0009813674 -0.010933852 -0.030432226 -0.025494548 -0.022626374 -0.012203861 -0.0140208695 -0.023306163
-0.008001461 0.024611868 -0.015176716 0.019807335 0.024333974 -0.0030402513 -0.0059423633 0.022449093
-0.023018526 -0.009463918 0.0016585194 0.0048339153 0.017635994 -0.017642714 0.022127373 0.012025174
0.019256776 -0.025678847 -0.007301205 0.008230515 0.023551507 -0.010263551 0.011423792 -0.005008063
00000000: 4dde 213c a49b ff3c 431c 83bc f125 9dbc
00000010: ba95 edbc 6b22 b03c a1b2 1cbc 223b b5bc
00000020: 2ff2 8a3c 9dd2 b0bc 18ce b23c a3ef af3c
00000030: 76d2 9c3c 759b a639 9362 9dbc 1175 a33c
00000040: 5b20 8b3b 18ba 453b ce7e f2bc 84ca d83c
00000050: f4f3 2e3c d036 8939 85fd 0cba 6830 a2bc
00000060: 6667 8fb9 481f ae3c 0641 a03b dddc ab3c
00000070: e8c8 3dbc 52bc 32bc 86b1 e9bc aa9e 883b
00000080: 2d59 a5bc 9b55 d3bb 4fc8 903c 2ac6 d63c
00000090: c4b8 c63b 3b33 893c 974b 823c c8ca 7d3c
000000a0: 30f4 703c 70dc 2bbc e30a b93c 22c0 8abc
000000b0: fd2d d43c 7d6e 58bc 74b9 d2bc d2ed e03c
000000c0: 6d0a c2bc 7224 a7bb 0f4b 94bc 47ab 643c
000000d0: 9e08 87bc e81b 913b a864 d53c 9bf7 bd3c
000000e0: 88ee 133c 53b2 253c fb3e c0bc fc65 9d3c
000000f0: eeaa 573c 969d 753b 3159 cbbb d106 85bb
00000100: f293 a93c d43c e03a 2b47 d2bc 8d04 a6bc
00000110: 2694 c43b 77f6 4abc 34c0 e03b 4c33 f43b
00000120: 6332 aa3b 270b 923c 1351 b9bc 63d2 adbc
00000130: a783 c0bc c9c0 21bc f8dd 89bc 0ac9 a03c
00000140: 3905 ef3b 028f 883c 446b c3bc 77bd dc3b
00000150: 90cb eabc 4988 56bc 21ec 2d3c 4fe0 623c
00000160: 20e1 fe3b 8ce9 fd3b c26c a03c 5f1d 8d3c
00000170: 5468 dcbc e4e2 f93c d00c 87bb 8136 eb3c
00000180: e612 2a3c 5fb5 d73c d451 453c f3af 56ba
00000190: 4b99 66bc e7dc 873c c656 44bc bcf0 c93c
000001a0: e706 97bc bc58 4bbc 2329 eabb f7e2 9e3c
000001b0: a5be b1bc 0f43 c63c 8d8f d23c 5bf1 a63c
000001c0: 2063 0cbc c691 c5bc 7cf4 cb3c 787b 5c3c
000001d0: 4c76 a7bc 177e a7bc 56e9 bbbc 8209 c63b
000001e0: 0997 e93c 330d c9bc 6e86 3b3c 9b68 e13b
000001f0: 72fa bdbb c343 303c 35f0 973c 8ae5 493c
00000200: 95ab 9f3c ee0e c1bc 4112 9c3b ddf4 dabc
00000210: b568 a53c 4fc8 9abc f3e8 8ebb 663e 16bb
00000220: db57 223c 6f2e f8bc 568a 94bc 6909 58bc
00000230: fff8 ecbc 89c4 803c 8dcb 9abc c265 d83c
00000240: 4571 b2bc a50d 533c cb86 b83b 8e28 ed3c
00000250: 5a6c 91bc b96a c1bc da83 16bc 570b 1c3b
00000260: f0a2 94bc c8e6 d73c 41cf 683c 538e b33c
00000270: ea62 a83c e917 953b b045 033c 4fb1 f33c
00000280: 9df5 c3bc d7a2 fb3c 8614 95bc 6947 48bc
00000290: bf7f 2a3a 03c7 193c ce64 e7bc 21fd 49bc
000002a0: dc20 c2bc b0ab a63c f772 89bc 72e2 7abc
000002b0: 832a c4bc c626 ff3c 325e ea3c bfa4 4bbc
000002c0: 2953 5abc a133 9dba dd7a be3b 56eb 46bc
000002d0: 1385 5b3b d06b 983c 81b4 f23c c238 be3b
000002e0: d187 8e3c d46b 263b c203 f73b 1479 a6bc
000002f0: 2104 863a a03d 8d3c 3d4d 3b3c 3513 003d
00000300: 6fac 09b9 32a8 3fbc c8d4 953c 6c53 c9bc
00000310: b446 793c 54fa 853c c9b1 efbc 8673 f4bc
00000320: dd51 d5bc 87e9 6bbc 245d b63c d3d8 dabc
00000330: 8b53 c83c 3400 f13a eb54 c53c 187e 07ba
00000340: 312e 8d3b b959 edbb 77fe d0bb 9422 33bc
00000350: cad1 023b c56f e5bc 9537 91bb 801e e1bc
00000360: b88e 91bc ec0a 943c 586d e2bc 0060 b83c
00000370: ba7f 633c b460 af3c 6f05 10bc 18a9 ca3c
00000380: 3aa1 80ba e623 33bc 014d f9bc f1d9 d0bc
00000390: f25a b9bc b4f2 47bc cab7 65bc 91ec bebc
000003a0: 8f18 03bc d49e c93c c3a7 78bc fe42 a23c
000003b0: 0b58 c73c f43e 47bb 28b8 c2bb 29e7 b73c
000003c0: 5991 bcbc 8d0e 1bbc ad62 d93a d265 9e3b
000003d0: 5c79 903c 7487 90bc 7744 b53c 3c05 453c
000003e0: 63c0 9d3c 725c d2bc f23e efbb 48d9 063c
000003f0: 17ef c03c 7428 28bc db2a 3b3c ad1a a4bb

survival_head.1.bias f4 [32]
0.014264259 -0.0048700506 0.002310271 0.009188519 0.0009867348 0.0038360874 -0.019678392 -0.025131337
-0.0036259154 0.0022917045 -0.007936691 -0.027076604 0.00080987555 0.015928246 -0.010100087 -0.005474376
0.008379786 -0.024347259 0.012806596 -0.0046677883 0.020839447 0.0111027025 -0.008233951 0.016125748
-0.01266493 -0.013494257 0.0032696177 0.013831094 0.029215239 0.021626879 0.0142463995 -0.023858346
00000000: a3b4 693c f294 9fbb ea67 173b 718b 163c
00000010: 5355 813a de66 7b3b 9434 a1bc 3ce0 cdbc
00000020: c4a0 6dbb 6c30 163b e508 02bc c1cf ddbc
00000030: d44d 543a f47b 823c d67a 25bc 6562 b3bb
00000040: 5f4b 093c e773 c7bc c2d2 513c 3ff4 98bb
00000050: 7db7 aa3c 1ce8 353c b2e7 06bc 251a 843c
00000060: 9180 4fbc 0417 5dbc 1547 563b d09b 623c
00000070: cc54 ef3c da2a b13c bb69 693c 9472 c3bc

survival_head.4.weight f4 [64, 32]
0.022900006 -0.17513654 0.09604589 0.110703066 -0.0766368 -0.14082728 0.15383656 -0.14653163
-0.14299206 -0.10760997 0.10598025 0.09529257 0.15364851 0.14265053 -0.059546225 -0.0006850965
-0.022240657 -0.03423825 0.077498846 -0.038640782 -0.0042315046 -0.15962605 -0.0021913392 0.06857449
-0.16915482 0.16706991 0.0128582055 0.036136232 -0.15092531 -0.031146362 0.057761926 -0.11175366
-0.108456306 -0.048724066 0.036864143 -0.13800831 -0.09230171 -0.07970398 -0.028554166 0.17045093
-0.055878256 -0.0011877281 -0.09411285 0.09730307 0.13053404 -0.016230967 0.108298466 -0.02614873
-0.14134124 0.13912058 0.003996387 -0.08969004 0.0038126335 -0.08103427 -0.015692096 -0.17536028
-0.11314658 0.17584182 -0.03488539 0.064761326 0.012126348 -0.044770744 0.121099785 0.08060535
-0.12069577 -0.17522259 0.059121054 -0.10144302 -0.027824122 0.16218954 0.052059606 0.034180593
0.004049354 0.0432263 -0.040525742 -0.086359754 0.13152428 0.08200693 0.06703492 0.07687265
0.028875943 0.03201587 -0.16048896 -0.09244612 -0.16302747 0.110108845 -0.17697828 -0.08094905
-0.17229931 -0.044554356 0.08850288 0.030630758 -0.08043571 0.07134534 -0.07576878 0.07348307
-0.0845467 0.09962788 -0.0074397456 0.056018192 -0.049557924 0.12186903 -0.09456861 -0.09031588
-0.09276913 -0.050604474 -0.006748677 -0.088487394 -0.14607184 -0.048559386 0.11230154 0.14690456
0.0093164295 -0.09424136 0.023289545 -0.053885125 -0.1565055 -0.04470064 0.1647959 0.1380894
0.00013426703 -0.04508158 -0.047123853 -0.08891648 0.0064825932 -0.079904996 0.16662477 0.1743267
0.15352893 -0.11630073 -0.14085416 -0.14183727 -0.1074649 0.1226431 -0.08169506 0.104240745
-0.07309302 -0.11272036 0.041408423 0.022239124 0.0774764 0.14959766 -0.13754174 0.17100795
-0.025458762 0.15421832 0.115259975 0.07559427 -0.046904 0.12391555 0.1452107 -0.12811357
-0.06905977 0.16765514 0.10565239 0.11104351 -0.13666809 -0.029543431 -0.09939153 0.062869236
0.059074555 -0.051107656 0.15076594 -0.0007205284 0.09625882 -0.08134858 -0.08104445 -0.016186297
-0.15511899 0.16663489 0.10826155 -0.04291685 -0.0148357535 0.10017385 0.13283342 0.00075165124
0.03607297 -0.0958654 0.016495613 0.16839683 0.028078767 -0.12819153 -0.15821357 -0.06808875
0.048765812 0.14822598 -0.06353794 0.08687715 -0.090061106 0.1397726 -0.1505335 -0.11546199
0.009529046 0.0076926486 0.027174804 0.069508635 -0.15932356 -0.07260496 -0.16055006 -0.025270646
0.14771008 0.12474025 0.13797714 -0.1292718 -0.053854596 -0.026567752 0.1419206 -0.021238625
0.14460288 -0.043065794 -0.15251896 -0.12235811 -0.09901262 -0.14101897 0.06428383 -0.089401856
0.058342274 -0.08889774 -0.03247988 -0.13042718 0.057614036 0.0228486 -0.019646099 -0.13985856
0.08093785 0.059187762 0.024848534 -0.06540587 0.031691827 -0.16773729 0.16384242 0.02729694
0.043969054 -0.032542992 0.01219083 0.08140535 0.108776726 -0.07011491 -0.0073069534 0.13691203
0.16628164 -0.057034563 -0.15921627 -0.040986985 0.10078623 -0.09512543 -0.11437258 -0.061453465
-0.15371738 0.07548727 -0.16661371 -0.018443793 -0.11039432 -0.115580745 0.13289228 -0.15209416
00000000: cb98 bb3c fe56 33be b5b3 c43d 4ab8 e23d
00000010: c1f3 9cbd 0735 10be 5587 1d3e 630c 16be
00000020: 836c 12be 9e62 dcbd 2c0c d93d c028 c33d
00000030: 0956 1d3e fb12 123e bee6 73bd 0c98 33ba
00000040: 0a32 b6bc 683d 0cbd b7b7 9e3d cc45 1ebd
00000050: 6fa8 8abb 0375 23be 929c 0fbb c870 8c3d
00000060: ec36 2dbe 6014 2b3e 39ab 523c 9603 143d
00000070: 2a8c 1abe a826 ffbc c597 6c3d 1adf e4bd
00000080: 571e debd e392 47bd dbfe 163d 0d52 0dbe
00000090: ae08 bdbd d73b a3bd 6dea e9bc b08a 2e3e
000000a0: 99e0 64bd 8bad 9bba 3dbe c0bd d546 c73d
000000b0: b7aa 053e cef6 84bc 96cb dd3d dd35 d6bc
000000c0: c2bb 10be a075 0e3e 20f4 823b 69af b7bd
000000d0: 60dd 793b 4cf5 a5bd b68c 80bc a591 33be
000000e0: 65b9 e7bd e10f 343e fce3 0ebd 96a1 843d
000000f0: 97ad 463c 8761 37bd 2a03 f83d 6b14 a53d
00000100: 582f f7bd 8d6d 33be eb28 723d 5cc1 cfbd
00000110: 6aef e3bc 0415 263e 743c 553d f300 0c3d
00000120: 71b0 843b 100e 313d 52fe 25bd 62dd b0bd
00000130: 4dae 063e 40f3 a73d 9b49 893d 686f 9d3d
00000140: 3e8d ec3c 1323 033d 3857 24be 6454 bdbd
00000150: acf0 26be bf80 e13d cb39 35be 9ec8 a5bd
00000160: 3b6f 30be a17e 36bd ff40 b53d 5bed fa3c
00000170: 7abb a4bd 811d 923d aa2c 9bbd 4b7e 963d
00000180: d226 adbd b409 cc3d 1cc9 f3bb 5573 653d
00000190: 40fd 4abd 7896 f93d 30ad c1bd 88f7 b8bd
000001a0: befd bdbd a346 4fbd 0224 ddbb e138 b5bd
000001b0: db93 15be 35e6 46bd 5afe e53d 266e 163e
000001c0: f0a3 183c 9d01 c1bd b7c9 be3c a6b6 5cbd
000001d0: fa42 20be 0518 37bd 42c0 283e 4f67 0d3e
000001e0: 08ca 0c39 76a7 38bd f104 41bd d819 b6bd
000001f0: ef6b d43b 3ba5 a3bd af9f 2a3e b382 323e
00000200: b036 1d3e 142f eebd 133c 10be ca3d 11be
00000210: 8f16 dcbd 4e2c fb3d bd4f a7bd 2c7c d53d
00000220: cbb1 95bd efd9 e6bd e19b 293d d32e b63c
00000230: f2ab 9e3d 2130 193e bed7 0cbe b51c 2f3e
00000240: e58e d0bc 68eb 1d3e 6c0d ec3d 2bd1 9a3d
00000250: 691e 40bd 70c7 fd3d 1db2 143e 3430 03be
00000260: 356f 8dbd caad 2b3e 4860 d83d c86a e33d
00000270: b8f2 0bbe 1105 f2bc c98d cbbd 96c1 803d
00000280: 29f8 713d 4356 51bd 6362 1a3e d8e1 3cba
00000290: 5823 c53d 169a a6bd a2fa a5bd 2099 84bc
000002a0: 83d7 1ebe 56a2 2a3e 3bb8 dd3d 94c9 2fbd
000002b0: a911 73bc f327 cd3d 7c05 083e 760a 453a
000002c0: 40c1 133d 1455 c4bd cf21 873c 3870 2c3e
000002d0: 7105 e63c a444 03be bd02 22be 1d72 8bbd
000002e0: a9be 473d 8dc8 173e 2e20 82bd a6ec b13d
000002f0: f571 b8bd 8c20 0f3e 7425 1abe 5677 ecbd
00000300: b71f 1c3c 9d12 fc3b b29d de3c 8b5a 8e3d
00000310: b725 23be e9b1 94bd 3c67 24be 6304 cfbc
00000320: 5041 173e d177 ff3d e149 0d3e d45f 04be
00000330: a396 5cbd 9da4 d9bc a253 113e a0fc adbc
00000340: c712 143e c265 30bd ee2d 1cbe e496 fabd
00000350: 21c7 cabd 4767 10be 3ea7 833d 5218 b7bd
00000360: 4ff8 6e3d 0510 b6bd 9f09 05bd b48e 05be
00000370: b2fc 6b3d fd2c bb3c dbf0 a0bc 1537 0fbe
00000380: bec2 a53d de6e 723d 278f cb3c 83f3 85bd
00000390: 4acf 013d 53c3 2bbe 4fc6 273e d59d df3c
000003a0: e518 343d cd4b 05bd 0cbc 473c d9b7 a63d
000003b0: 55c6 de3d 6898 8fbd 2b6f efbb ab32 0c3e
000003c0: bc45 2a3e 139d 69bd 9709 23be f8e1 27bd
000003d0: 0369 ce3d 1fd1 c2bd 2c3c eabd a1b6 7bbd
000003e0: 1768 1dbe 1299 9a3d c99c 2abe 7017 97bc
000003f0: 6b16 e2bd 99b5 ecbd ea14 083e 92be 1bbe

survival_head.4.bias f4 [64]
-0.025398107 0.16783692 -0.09749731 0.00289372 -0.109615855 -0.14544398 -0.052933168 0.16099192
0.17377849 -0.16368982 0.019619739 0.10055986 -0.005597073 0.07235714 0.023047417 0.09013833
0.021325368 -0.076336525 0.11382331 -0.114486516 0.12992573 -0.11129548 -0.038509287 0.032773342
-0.13282485 0.15261735 -0.10673958 0.073936425 0.07125671 -0.048682768 -0.025490254 0.14412281
0.059638124 -0.13779919 -0.059196774 -0.17241928 -0.04233177 -0.13800739 -0.041801717 0.050428174
0.12291113 -0.13268241 -0.1456633 0.15768562 0.159879 -0.03027634 0.046257038 0.04596581
-0.013490812 0.17166647 0.019979157 -0.12702772 0.11886215 0.16570418 -0.1235116 -0.16827796
0.026224775 0.17362747 -0.14201866 0.047108196 0.015205286 -0.16383968 0.15382552 -0.051405665
00000000: b10f d0bc 71dd 2b3e abac c7bd 91a4 3d3b
00000010: 477e e0bd 44ef 14be 73d0 58bd 11db 243e
00000020: fdf2 313e 4e9e 27be 93b9 a03c 54f2 cd3d
00000030: a767 b7bb fb2f 943d f0cd bc3c 729a b83d
00000040: 8ab2 ae3c 5356 9cbd 321c e93d e877 eabd
00000050: 400b 053e e2ee e3bd eabb 1dbd 573d 063d
00000060: 3d03 08be b947 1c3e 489a dabd fb6b 973d
00000070: 0aef 913d 9567 47bd f0d0 d0bc ee94 133e
00000080: 1b47 743d 3b1b 0dbe 5178 72bd ae8e 30be
00000090: 1464 2dbd cf51 0dbe 4738 2bbd c68d 4e3d
000000a0: d5b8 fb3d e6dd 07be c328 15be 5778 213e
000000b0: 52b7 233e 1606 f8bc 0578 3d3d a546 3c3d
000000c0: 9108 5dbc 56c9 2f3e 54ab a33c 8e13 02be
000000d0: 006e f33d 5bae 293e a6f3 fcbd 0f51 2cbe
000000e0: 57d5 d63c 66cb 313e 576d 11be 86f4 403d
000000f0: 981f 793c 97c5 27be 7084 1d3e bf8e 52bd

survival_head.7.weight f4 [1, 64]
0.05238363 0.069027945 0.0039823935 -0.033517182 0.04174585 -0.08400142 0.09605884 -0.11040034
-0.023924813 -0.007856552 -0.039809447 0.109038815 -0.018505434 -0.015162858 0.0026457869 -0.12288704
0.060027 0.023351364 -0.10336089 -0.016846513 -0.07100142 -0.00368265 0.09301544 0.07018976
-0.048834637 0.051170517 -0.09256894 -0.023831908 0.00092764915 -0.11477403 0.031054772 -0.041062932
0.028924687 -0.05245519 -0.01855166 -0.12115409 0.021528918 0.054436155 -0.07088742 -0.04867638
-0.10262677 -0.0062393774 0.11836592 -0.08274203 0.07081883 0.011145886 0.11418864 -0.03109953
-0.0065427264 -0.08023344 -0.006498806 0.012602781 -0.069995984 -0.0788828 0.12312552 -0.04159432
-0.0033765803 -0.0019755147 0.020937927 -0.0881146 -0.11578026 -0.12593734 -0.0016405667 -0.12237447
00000000: 3890 563d 865e 8d3d bd7e 823b 5049 09bd
00000010: b2fd 2a3d f008 acbd 7fba c43d 9319 e2bd
00000020: f8fd c3bc c4b8 00bc 3b0f 23bd be4f df3d
00000030: b598 97bc a36d 78bc f064 2d3b 33ac fbbd
00000040: dfde 753d 5c4b bf3c e0ae d3bd b301 8abc
00000050: 3169 91bd 9d58 71bb e17e be3d a6bf 8f3d
00000060: d406 48bd 2d98 513d c994 bdbd 223b c3bc
00000070: 7b2d 733a a60e ebbd 9466 fe3c 9b31 28bd
00000080: 77f3 ec3c 41db 56bd a7f9 97bc a31f f8bd
00000090: 6a5d b03c 72f8 5e3d 6c2d 91bd e260 47bd
000000a0: fc2d d2bd b173 ccbb d569 f23d a774 a9bd
000000b0: 7609 913d 3c9d 363c bcdb e93d 71c4 febc
000000c0: 5e64 d6bb 6e51 a4bd f0f3 d4bb e57b 4e3c
000000d0: 0e5a 8fbd 4e8d a1bd 3c29 fc3d ce5e 2abd
000000e0: 9e49 5dbb a377 01bb 0486 ab3c 6d75 b4bd
000000f0: 331e edbd b8f5 00be 4908 d7ba 779f fabd

exp_avg f4 [1024]
-0.00028432376 -0.0007530799 0.00013235494 0.00019949948 -0.00024788774 -4.007324e-05 -0.0006896531 -0.00051787635
5.120844e-05 -0.0002445902 4.376604e-05 0.00018601863 -0.0002562676 -0.0003756513 -6.727745e-05 -7.2988537e-06
-0.00034390012 -6.156696e-05 -0.00023238706 -0.00021195904 0.0003910957 -0.00083042943 -8.436876e-05 0.00024715098
0.000585089 -0.0002849491 -0.00027302606 0.00024571392 9.814319e-05 -0.0003784277 9.178724e-05 -5.70193e-05
1.8871258e-05 -0.0003012003 8.9849775e-05 -0.0003065064 -0.00016832924 -0.00027776934 0.0002401871 0.00010849032
-8.6283864e-05 3.3963603e-05 -0.00017187008 -0.00014348883 -2.805609e-05 0.00041454117 0.00036363397 -5.1627125e-05
0.00013372692 -0.00018445097 -0.00015827174 -3.8558064e-05 -0.00023048457 0.00010743667 0.000298469 -9.464647e-05
7.078754e-05 -0.00015669885 -5.703169e-05 -0.000282644 -6.6189305e-06 -0.00012803602 0.00031004837 0.00019201566
-0.00034258026 6.917137e-05 -9.977221e-05 -0.00014175997 -0.00014195296 -0.00019649469 -2.4622512e-05 -0.00029083242
-0.00045917125 -9.748444e-05 0.00013086495 3.118226e-05 -0.00010032702 0.000100429614 -2.1790953e-05 5.5252163e-05
-0.00028514658 0.00046139848 -0.000112450194 2.014e-05 0.0004043755 -0.0001910976 0.00027633336 -1.6473812e-05
0.00031118141 -0.00012888783 0.00039343938 0.0003814183 0.00012468373 -0.0005751406 0.00022140965 -5.4014185e-05
0.00081028545 -7.909125e-05 0.0001347867 4.9925227e-05 -0.00031121605 -0.00028382195 -0.00026707127 0.00017389457
-0.00092814676 -0.0002770295 0.00027663526 -0.00010832142 9.544431e-06 1.1842223e-05 -0.000391775 -0.00010922376
5.835663e-05 -0.0005428157 0.00023982402 9.387122e-05 -0.0001219687 -0.00047781487 8.4258456e-05 -0.0005614424
-0.00028545756 -0.0005340502 -0.00019664783 0.0002799608 -0.00065596885 -5.8151447e-05 0.0003249623 0.0002072725
0.0005394488 -3.7448015e-05 0.00012230041 -0.00045417566 0.0002279741 -0.00056373473 -2.8008697e-05 0.00031398298
-0.0010168843 -0.00028218862 -0.00032414205 -0.00020775279 0.00018551866 0.00020354545 -0.000102161 0.0004719597
-2.5934612e-05 -0.0003727534 -0.00025549904 4.7577494e-05 1.1881319e-05 0.0002938594 8.3057e-05 -0.000289583
0.000106102525 -1.3673653e-06 -0.0002992064 0.00020670268 8.570707e-05 9.224595e-05 0.0005241081 -9.344431e-06
-0.00033986414 0.00036002853 -9.0736416e-05 0.00014617051 0.00023223697 8.448999e-05 0.00019732257 -0.0002609267
1.3795061e-05 -0.00011124759 -4.2782598e-05 0.0002632078 -5.495308e-05 6.5603126e-05 -7.2982795e-05 -0.00038273755
4.409297e-05 4.4668053e-05 8.18079e-05 4.71608e-05 -6.1362945e-05 0.00031634673 0.00026219618 0.00023517752
-0.00070945185 0.00010940338 0.00018499684 7.702776e-05 -0.00044620366 -2.8862369e-05 -0.0002648904 0.00017793283
-0.00034467902 0.000236942 -0.00012583125 0.00037929558 7.610188e-06 0.0010779371 -0.00013852747 -0.00022881893
0.00015755702 -0.00015673363 0.0001671445 -0.0002961252 0.00023441797 0.0002227751 -0.00024257138 0.00026916302
-0.00023813735 0.00030184526 0.00011386446 -9.156586e-05 -7.8025645e-05 -0.00037969017 -0.00028270762 -0.00010939685
0.00025691596 0.0003211208 -1.7731722e-05 0.0005698663 0.00015072837 -0.00020701296 -4.761092e-05 -0.00029234274
0.0006262589 -0.00030430267 0.0002665549 0.00039019014 -0.00015648248 -0.0004778956 0.0009945502 -2.1564321e-05
0.00017890938 -5.408739e-05 -0.0005319001 -7.928824e-05 0.0003329037 -7.290363e-05 -7.768956e-05 0.00010851176
0.00022182561 -3.4851008e-05 -0.00022077345 -0.00015887468 -0.00044981067 -2.7239477e-05 -0.00026538444 -4.1073425e-05
-0.00020372837 -1.822979e-05 -9.445454e-05 -0.00027763526 -1.4916048e-05 -8.3827916e-07 9.5464165e-05 0.0002951302
00000000: 4a11 95b9 566a 45ba c2c8 0a39 bc30 5139
00000010: eef6 81b9 5014 28b8 d6c9 34ba 18c2 07ba
00000020: a5c8 5638 573c 80b9 6d91 3738 ff0d 4339
00000030: a85b 86b9 10f3 c4b9 4e17 8db8 ade8 f4b6
00000040: 7e4d b4b9 831d 81b8 edac 73b9 5241 5eb9
00000050: fa0b cd39 2db1 59ba 22ef b0b8 0b94 8139
00000060: a860 193a 3965 95b9 f024 8fb9 2ad3 8039
00000070: 39d2 cd38 b567 c6b9 e67d c038 0228 6fb8
00000080: b84d 9e37 6cea 9db9 bb6d bc38 98b2 a0b9
00000090: 8981 30b9 92a1 91b9 bcda 7b39 4c85 e338
000000a0: 4cf3 b4b8 2474 0e38 0638 34b9 7d75 16b9
000000b0: ff59 ebb7 c656 d939 20a6 be39 348a 58b8
000000c0: 0c39 0c39 2e69 41b9 bff5 25b9 68b9 21b8
000000d0: 3bae 71b9 9f4f e138 d57b 9c39 f07c c6b8
000000e0: c573 9438 874f 24b9 5035 6fb8 d62f 94b9
000000f0: 2e18 deb6 6841 06b9 fd8d a239 d057 4939
00000100: 589c b3b9 1910 9138 cc3c d1b8 67a5 14b9
00000110: 35d9 14b9 240a 4eb9 718c ceb7 de7a 98b9
00000120: ecbc f0b9 8f70 ccb8 cb38 0939 b2c9 0238
00000130: a966 d2b8 bd9d d238 b7cb b6b7 8fbe 6738
00000140: ba7f 95b9 dbe7 f139 3dd3 ebb8 52f2 a837
00000150: 5c02 d439 5f61 48b9 d6e0 9039 3e31 8ab7
00000160: 1026 a339 1026 07b9 8a46 ce39 19f9 c739
00000170: 89bd 0239 08c5 16ba 332a 6839 4a8d 62b8
00000180: 5669 543a cbdd a5b8 8755 0d39 ce66 5138
00000190: b62a a3b9 f0cd 94b9 b305 8cb9 7857 3639
000001a0: e04e 73ba 453e 91b9 5b09 9139 9f2a e3b8
000001b0: 0521 2037 f6ad 4637 2667 cdb9 0f0f e5b8
000001c0: f4c3 7438 bf4b 0eba 4579 7b39 badc c438
000001d0: 72c9 ffb8 3a83 fab9 eab3 b038 c32d 13ba
000001e0: 77a9 95b9 81ff 0bba 4033 4eb9 b4c7 9239
000001f0: 53f5 2bba a4e7 73b8 b45f aa39 4a57 5939
00000200: cc69 0d3a 8011 1db8 c43d 0039 6d1e eeb9
00000210: 550c 6f39 99c7 13ba 38f4 eab7 159e a439
00000220: fa48 85ba b7f2 93b9 9cf1 a9b9 37d8 59b9
00000230: c987 4239 d16e 5539 453f d6b8 5c71 f739
00000240: 288e d9b7 1d6e c3b9 80f4 85b9 f28d 4738
00000250: e055 4737 2411 9a39 e32e ae38 2cd3 97b9
00000260: 5c83 de38 5086 b7b5 cede 9cb9 54be 5839
00000270: a2bd b338 2b74 c138 4d64 093a 07c6 1cb7
00000280: cb2f b2b9 36c2 bc39 be49 beb8 5945 1939
00000290: a384 7339 3830 b138 60e8 4e39 fdcc 88b9
000002a0: 5671 6737 984d e9b8 7771 33b8 27ff 8939
000002b0: 6c7d 66b8 6994 8938 570e 99b8 2aaa c8b9
000002c0: 77f0 3838 f559 3b38 4890 ab38 86ce 4538
000002d0: fbaf 80b8 57db a539 6077 8939 fc99 7639
000002e0: 82fa 39ba 7e6f e538 b6fb 4139 f789 a138
000002f0: 71f0 e9b9 771d f2b7 fde0 8ab9 7b93 3a39
00000300: 09b6 b4b9 a273 7839 92f1 03b9 31dc c639
00000310: 045b ff36 9149 8d3a af41 11b9 1def 6fb9
00000320: e435 2539 dd58 24b9 8343 2f39 4041 9bb9
00000330: 18ce 7539 bc98 6939 c25a 7eb9 731e 8d39
00000340: 82b4 79b9 fc40 9e39 84ca ee38 0c07 c0b8
00000350: b3a1 a3b8 2711 c7b9 6038 94b9 fd6b e5b8
00000360: adb2 8639 1b5c a839 95be 94b7 1463 153a
00000370: d70c 1e39 9e11 59b9 d6b1 47b8 9445 99b9
00000380: 862b 243a d08a 9fb9 65c0 8b39 6f92 cc39
00000390: 7215 24b9 108e fab9 915b 823a 07e5 b4b7
000003a0: 9f99 3b39 e5db 62b8 366f 0bba 8d47 a6b8
000003b0: 9489 ae39 d7e3 98b8 44ed a2b8 cf90 e338
000003c0: dc99 6839 fc2c 12b8 6c7f 67b9 9997 26b9
000003d0: 91d4 ebb9 5580 e4b7 4c23 8bb9 4146 2cb8
000003e0: eb9f 55b9 2dec 98b7 e515 c6b8 938f 91b9
000003f0: f03f 7ab7 1b06 61b5 ef33 c838 b4bb 9a39
