lightning_logs/version_3/checkpoints/epoch=199-step=1600.ckpt (torch, 464377 bytes, 23 tensors)

model.0.weight f4 [1024]
0	0x3f806a66	1.003247
1	0x3f820b93	1.0159782
2	0x3f7cec79	0.9879833
3	0x3f8138a4	1.009541
4	0x3f8055b8	1.0026159
5	0x3f7e252d	0.99275476
6	0x3f84dbbc	1.0379558
7	0x3f80d551	1.0065099
8	0x3f7c0741	0.9844857
9	0x3f82fef3	1.0234054
10	0x3f838093	1.0273613
11	0x3f80491c	1.0022311
12	0x3f846b67	1.0345277
13	0x3f7f8cea	0.9982439
14	0x3f832df5	1.02484
15	0x3f8088a8	1.0041704
16	0x3f84910a	1.0356762
17	0x3f80b050	1.0053806
18	0x3f815eaa	1.0107014
19	0x3f802c01	1.0013429
20	0x3f80c4cf	1.0060061
21	0x3f81ff94	1.0156121
22	0x3f813dca	1.0096982
23	0x3f80da31	1.0066587
24	0x3f805a11	1.0027486
25	0x3f80324f	1.0015353
26	0x3f83f674	1.0309587
27	0x3f81497c	1.0100551
28	0x3f8320bc	1.0244365
29	0x3f8184fc	1.0118709
30	0x3f800070	1.0000134
31	0x3f825e1c	1.018497
32	0x3f81fb9a	1.0154908
33	0x3f80d713	1.0065635
34	0x3f7f7aa5	0.99796516
35	0x3f81b83f	1.0134352
36	0x3f8248ca	1.0178463
37	0x3f8428a0	1.0324898
38	0x3f816969	1.0110294
39	0x3f8127ff	1.0090331
40	0x3f7ee8c0	0.995739
41	0x3f82229a	1.016681
42	0x3f816d54	1.0111489
43	0x3f7f385e	0.99695385
44	0x3f82f14d	1.0229889
45	0x3f82ace7	1.0209016
46	0x3f811729	1.0085193
47	0x3f7dd3fb	0.9915158
48	0x3f80742c	1.0035453
49	0x3f831552	1.0240881
50	0x3f832f57	1.0248822
51	0x3f8164cc	1.0108886
52	0x3f80571f	1.0026587
53	0x3f806432	1.0030577
54	0x3f8321b3	1.0244659
55	0x3f828993	1.0198234
56	0x3f80f0f6	1.0073535
57	0x3f818d1d	1.0121189
58	0x3f7febc9	0.99969155
59	0x3f845a0b	1.0339979
60	0x3f804de3	1.0023769
61	0x3f80d03c	1.0063548
62	0x3f82fd15	1.0233485
63	0x3f80e94f	1.00712
64	0x3f7fdb49	0.9994398
65	0x3f80df3d	1.0068127
66	0x3f7fa899	0.99866635
67	0x3f80e583	1.0070041
68	0x3f82457d	1.0177456
69	0x3f81a13a	1.0127327
70	0x3f80395a	1.0017502
71	0x3f7d2ccc	0.9889648
72	0x3f7f907a	0.9982983
73	0x3f830072	1.0234511
74	0x3f841c6a	1.0321171
75	0x3f81cb99	1.0140258
76	0x3f8367e6	1.0266082
77	0x3f853f61	1.0409967
78	0x3f83012c	1.0234733
79	0x3f81884a	1.0119717
80	0x3f84760c	1.0348525
81	0x3f83de8a	1.0302289
82	0x3f82869b	1.0197328
83	0x3f81ac0f	1.0130633
84	0x3f82b075	1.02101
85	0x3f83941b	1.0279573
86	0x3f8084b8	1.0040503
87	0x3f84147f	1.0318755
88	0x3f82c795	1.0217158
89	0x3f80e67d	1.007034
90	0x3f808c20	1.0042763
91	0x3f80855e	1.00407
92	0x3f834471	1.0255262
93	0x3f7cae5a	0.9870354
94	0x3f7fbd60	0.9989834
95	0x3f8195c3	1.0123829
96	0x3f82e02f	1.0224665
97	0x3f83982c	1.0280814
98	0x3f809989	1.0046855
99	0x3f81956e	1.0123727
100	0x3f8276b0	1.019247
101	0x3f816f1b	1.0112032
102	0x3f802150	1.0010166
103	0x3f8144ec	1.0099158
104	0x3f7f6aa6	0.9977211
105	0x3f8335b7	1.0250767
106	0x3f805bd6	1.0028026
107	0x3f7fdb09	0.99943596
108	0x3f812f36	1.0092533
109	0x3f823012	1.017092
110	0x3f807b85	1.0037695
111	0x3f842eeb	1.0326818
112	0x3f832d4e	1.0248201
113	0x3f837967	1.0271424
114	0x3f7f26da	0.9966866
115	0x3f80e336	1.0069339
116	0x3f8232c5	1.0171744
117	0x3f8234d7	1.0172375
118	0x3f81443f	1.0098952
119	0x3f803e77	1.0019063
120	0x3f80c5ef	1.0060405
121	0x3f81e4df	1.0147971
122	0x3f81402d	1.009771
123	0x3f808c8e	1.0042894
124	0x3f8128ed	1.0090615
125	0x3f81e448	1.0147791
126	0x3f822e02	1.017029
127	0x3f7fac60	0.998724
128	0x3f7e791c	0.9940355
129	0x3f8452b2	1.0337737
130	0x3f803465	1.001599
131	0x3f847ede	1.0351217
132	0x3f859ef1	1.043913
133	0x3f80dcd7	1.0067395
134	0x3f8199f4	1.0125108
135	0x3f7ebe31	0.9950896
136	0x3f7ec80f	0.99524015
137	0x3f81ab90	1.0130482
138	0x3f83eed5	1.0307261
139	0x3f818bec	1.0120826
140	0x3f80a371	1.0049878
141	0x3f840568	1.031415
142	0x3f7f9b77	0.99846596
143	0x3f81b10f	1.0132159
144	0x3f8007c2	1.0002367
145	0x3f819d24	1.012608
146	0x3f811a00	1.008606
147	0x3f817c30	1.0116024
148	0x3f80dfed	1.0068337
149	0x3f80f562	1.0074885
150	0x3f81e2ab	1.0147299
151	0x3f8279e4	1.0193448
152	0x3f7f21cd	0.9966095
153	0x3f80ae64	1.005322
154	0x3f802cb1	1.0013639
155	0x3f806cc3	1.0033191
156	0x3f82218e	1.016649
157	0x3f805f79	1.0029136
158	0x3f80e151	1.0068761
159	0x3f842ecc	1.0326781
160	0x3f856275	1.0420672
161	0x3f8051c1	1.0024949
162	0x3f80c9a0	1.0061531
163	0x3f82568d	1.0182663
164	0x3f803029	1.0014697
165	0x3f805694	1.0026422
166	0x3f802750	1.0011997
167	0x3f8055ca	1.0026181
168	0x3f825656	1.0182598
169	0x3f8234e8	1.0172396
170	0x3f7fba9c	0.9989412
171	0x3f818ad6	1.0120494
172	0x3f81cf5d	1.0141407
173	0x3f809bd4	1.0047555
174	0x3f7ed15e	0.9953822
175	0x3f82090e	1.0159013
176	0x3f83238c	1.0245223
177	0x3f837eb9	1.0273048
178	0x3f820544	1.0157857
179	0x3f818374	1.0118241
180	0x3f810a48	1.0081263
181	0x3f7f3e83	0.9970476
182	0x3f810967	1.0080994
183	0x3f82b0db	1.0210222
184	0x3f7ee1b7	0.99563164
185	0x3f82fa92	1.0232718
186	0x3f80f4a6	1.0074661
187	0x3f83b5e5	1.0289885
188	0x3f83b188	1.0288553
189	0x3f81f182	1.0151827
190	0x3f7d7d7f	0.99019617
191	0x3f811cca	1.0086911
192	0x3f8084c7	1.004052
193	0x3f800e82	1.0004427
194	0x3f8347e6	1.0256317
195	0x3f80065f	1.0001944
196	0x3f803aab	1.0017904
197	0x3f80b039	1.0053779
198	0x3f838979	1.0276328
199	0x3f818920	1.0119972
200	0x3f7e2b06	0.992844
201	0x3f802a49	1.0012904
202	0x3f87162c	1.0553641
203	0x3f8266e8	1.0187654
204	0x3f822c39	1.0169746
205	0x3f83e5e5	1.0304533
206	0x3f83ce71	1.0297376
207	0x3f80b173	1.0054153
208	0x3f83eb74	1.030623
209	0x3f81f909	1.0154124
210	0x3f811f4b	1.0087675
211	0x3f80e3e0	1.0069542
212	0x3f7ff5da	0.99984515
213	0x3f8119b3	1.0085968
214	0x3f8172ef	1.01132
215	0x3f8385d8	1.0275221
216	0x3f81a4c4	1.0128407
217	0x3f84e0e4	1.0381131
218	0x3f811917	1.0085782
219	0x3f80ff9d	1.0078007
220	0x3f8004ad	1.0001427
221	0x3f809bad	1.0047508
222	0x3f8377d3	1.0270942
223	0x3f824eab	1.0180258
224	0x3f835582	1.026047
225	0x3f833d37	1.0253056
226	0x3f81456c	1.0099311
227	0x3f81d94a	1.0144436
228	0x3f810ee7	1.0082673
229	0x3f80280c	1.0012221
230	0x3f83a026	1.0283248
231	0x3f8259ea	1.018369
232	0x3f7dd12b	0.9914729
233	0x3f81ea04	1.0149541
234	0x3f82c20d	1.021547
235	0x3f80d7dd	1.0065876
236	0x3f835e41	1.0263139
237	0x3f80ab71	1.005232
238	0x3f85b582	1.0446017
239	0x3f81ee41	1.0150834
240	0x3f82e1f8	1.022521
241	0x3f8299ed	1.0203224
242	0x3f8136d4	1.0094857
243	0x3f811033	1.0083069
244	0x3f818293	1.0117973
245	0x3f81b138	1.0132208
246	0x3f8284df	1.0196799
247	0x3f805a22	1.0027506
248	0x3f82b1f5	1.0210558
249	0x3f813b01	1.0096132
250	0x3f814b7e	1.0101163
251	0x3f827518	1.0191984
252	0x3f80c123	1.0058941
253	0x3f81d6b5	1.0143648
254	0x3f816e2c	1.0111747
255	0x3f82b8af	1.0212611

model.0.bias f4 [1024]
0	0xbd25f1f7	-0.04051396
1	0x3bd01217	0.0063498127
2	0x3c86c4dd	0.016451294
3	0xbc7fe12a	-0.015617648
4	0x3c0b6789	0.008508571
5	0xbcff6216	-0.0311747
6	0xbd2c5cef	-0.042080816
7	0x3b47ec8b	0.003050598
8	0x3d0996bc	0.033591017
9	0x3c5f6a56	0.013636192
10	0x3d24add1	0.040204827
11	0x3d27fdb4	0.041013435
12	0x3cf33691	0.029689105
13	0xbc565b3d	-0.013083276
14	0x3c623ec9	0.013808914
15	0x3af0e592	0.0018378964
16	0x3d409c0d	0.04702382
17	0xbc986202	-0.018601421
18	0xbc736a18	-0.014856838
19	0x3c9de2ba	0.01927315
20	0x3ca4679d	0.020068938
21	0x3bdeaf45	0.006795796
22	0xbcb7684e	-0.022388604
23	0xbb3a8894	-0.0028462755
24	0x3c411f63	0.011787268
25	0x3cb59eb4	0.022170402
26	0xbd24a46d	-0.04019587
27	0xbc5ad0cd	-0.013355446
28	0x3d00a54c	0.03140764
29	0x3cf20c7b	0.029546967
30	0x3c37659f	0.011193662
31	0xbc1f55b9	-0.009725028
32	0x3b85a70e	0.0040787524
33	0x3cf2f024	0.029655524
34	0x3c8b9c9c	0.01704245
35	0x3c0c4aab	0.008562724
36	0x3c6ca57c	0.014443751
37	0xbd514840	-0.051094294
38	0x3cdbcff5	0.02683256
39	0xbcff4ded	-0.031165088
40	0x3c222bea	0.009898165
41	0x3c6a1055	0.01428612
42	0xbb35aaaa	-0.0027720132
43	0x3d1157e9	0.03548423
44	0xbbe5065b	-0.006989283
45	0xbb4fde5e	-0.0031718235
46	0xbcf6ea1a	-0.030140925
47	0x3ca8995c	0.02058094
48	0x3cab537d	0.020913834
49	0xbca7203d	-0.020401115
50	0xbd2324ac	-0.039829895
51	0xbc12fd12	-0.0089714695
52	0xbc83da1f	-0.01609522
53	0x3c07c155	0.00828584
54	0x3cb616c6	0.022227656
55	0x3cc36531	0.023851963
56	0x3b45302d	0.003008853
57	0xbc19b2b5	-0.009380986
58	0xbc2774ab	-0.010220687
59	0xbd311b06	-0.043238662
60	0x3ba024f0	0.004887216
61	0xbca2718a	-0.01982953
62	0x3cdff86a	0.027340133
63	0xbc48d2cb	-0.012257288
64	0xbcdd6c6c	-0.027029239
65	0xbca7ac82	-0.020468
66	0xbd5da3f1	-0.054111425
67	0x3d25d352	0.040484734
68	0xbd12cf31	-0.035842124
69	0x3cb2d47d	0.021829838
70	0x3c2c2be3	0.01050851
71	0x3cbe4d24	0.023230143
72	0xb9cd2d1d	-0.0003913426
73	0xbcc5216f	-0.024063794
74	0x3ce92bed	0.028463328
75	0x3cdf6af5	0.02727268
76	0x3c8a6eb1	0.016898485
77	0x3c99c75e	0.018771823
78	0xbb4fd1a3	-0.0031710647
79	0x3d50e055	0.05099519
80	0xbd177f81	-0.03698683
81	0x3c712feb	0.014720897
82	0x3cdedf4f	0.027206091
83	0xbb712b0b	-0.0036799337
84	0x3b9f8712	0.0048683966
85	0xbd68f36b	-0.056872766
86	0xbbf06cb2	-0.0073371762
87	0xbd38ec0f	-0.045146998
88	0xbd0ec79c	-0.03485833
89	0xbba30ba1	-0.0049757515
90	0xbbb3f69e	-0.0054920455
91	0x3d4b5300	0.0496397
92	0xbd234bb7	-0.03986713
93	0x3cec62af	0.02885565
94	0x3ce7e442	0.028307084
95	0xbcf36231	-0.029709907
96	0x3d25db7e	0.040492527
97	0x3c8c3e80	0.017119646
98	0x3d1b1d26	0.037869595
99	0xbc11ef5a	-0.0089071635
100	0xbd275a31	-0.040857498
101	0x3cfe37d8	0.031032488
102	0x3a45d203	0.0007546248
103	0xbc784271	-0.01515256
104	0x3c9e8285	0.019349346
105	0x3cc18318	0.02362208
106	0xba417241	-0.0007379391
107	0x3d12cffb	0.035842877
108	0xbc47be35	-0.012191345
109	0xbd5b34a3	-0.053516995
110	0x3caea0e2	0.02131695
111	0x3d2fb8c6	0.042900823
112	0xbcb8574a	-0.02250256
113	0xbbcfa178	-0.0063363872
114	0x3c888549	0.016665118
115	0xbb4a8dac	-0.0030907197
116	0x3cf2c12e	0.02963313
117	0xbd4dcaa2	-0.050242074
118	0x3cc4f7c6	0.024043929
119	0xbc8a38ff	-0.016872881
120	0xbc7a2fe5	-0.015270208
121	0x3b98aef0	0.004659526
122	0x3c23f820	0.010007888
123	0xbcb2ccfb	-0.021826258
124	0x3cd5b696	0.02608804
125	0xbc3d5da2	-0.011557968
126	0x3d64b8a6	0.055840157
127	0xbc4ab56d	-0.012372357
128	0xbc510c07	-0.012759215
129	0xbd20c956	-0.03925451
130	0x3c8bbcce	0.017057803
131	0xbd48ddeb	-0.049039762
132	0x3d3caa01	0.046060566
133	0xbce11f13	-0.027480638
134	0x3d0b3648	0.033987314
135	0x3c4dc81e	0.012559919
136	0x3b0007b1	0.0019535834
137	0xbc767fb1	-0.015045092
138	0xbcdb27ad	-0.026752317
139	0xbcb52fd2	-0.022117529
140	0x3c03ada1	0.008037002
141	0x3d237100	0.039902687
142	0x3c7b50ed	0.015339118
143	0xbd0c800e	-0.03430181
144	0xbbdb2b4c	-0.006688511
145	0xbc7143a0	-0.014725596
146	0x3ba335f6	0.004980798
147	0xbbc38c54	-0.005967656
148	0xbc270dd7	-0.010196171
149	0x3b387ea6	0.002815166
150	0x3bfced4b	0.007718717
151	0x3c0c7365	0.008572434
152	0x3cad81e7	0.021180106
153	0x3d2623c2	0.040561445
154	0x3a09fc53	0.00052637345
155	0x3bd8fad7	0.0066216993
156	0x3c515b60	0.012778133
157	0x3cde1d29	0.027113514
158	0x3d2d05af	0.04224175
159	0x3d44e971	0.04807419
160	0x3caada7d	0.020856136
161	0x3cd9ea8e	0.026601102
162	0x3bbe002d	0.005798361
163	0x3c91c353	0.017793333
164	0x3c0b8cda	0.008517468
165	0xbcdd466b	-0.027011117
166	0x3bb3e77e	0.0054902425
167	0x3b6135cd	0.0034364343
168	0xbc741fa2	-0.01490012
169	0xbcd04f42	-0.025428418
170	0x3be680d9	0.007034403
171	0x3ce5c3bd	0.028047437
172	0xba897383	-0.0010486696
173	0xbc94af78	-0.018150076
174	0x3d087310	0.033312857
175	0xbc00969c	-0.007848408
176	0x3d3412bb	0.043963175
177	0xbbda2342	-0.006657035
178	0xbb0e7f30	-0.002174329
179	0xbcd01155	-0.02539889
180	0x3d248286	0.04016354
181	0x3c55d2dd	0.013050762
182	0xbcc84ae6	-0.024449777
183	0xbd5e1d02	-0.054226883
184	0x3c556d3c	0.013026532
185	0xbc63e098	-0.013908528
186	0x3c577d66	0.013152456
187	0x3b841db3	0.0040318607
188	0x3cf4174b	0.029796263
189	0xbcbb23cd	-0.02284422
190	0xbc543136	-0.012951186
191	0xbd190e72	-0.03736729
192	0xbc3ceae2	-0.01153061
193	0xbbb2f677	-0.00546151
194	0xbcf283d0	-0.029603869
195	0x3baf2150	0.0053445473
196	0xbc89de22	-0.016829554
197	0xbcd8628c	-0.026414178
198	0x3c29ff9c	0.010375883
199	0xbc66928b	-0.0140730245
200	0xbc88408e	-0.016632345
201	0x3c42be16	0.01188614
202	0xbd2abe9a	-0.041685678
203	0xbc11b46b	-0.008893113
204	0xbc53df84	-0.012931708
205	0xbd1cb8dd	-0.038262237
206	0xbc6dcfdb	-0.014514889
207	0xbcc2131b	-0.02369075
208	0x3ca3f553	0.02001444
209	0xbbe20657	-0.0068977284
210	0xbccd70d9	-0.025078224
211	0x3c9d960d	0.019236589
212	0xbc99ad0e	-0.018759277
213	0xbcdfc30c	-0.027314685
214	0x3c33f39f	0.010983377
215	0x3c2f80b8	0.010711841
216	0xbd4c9482	-0.049946316
217	0x3d071ff0	0.032989442
218	0x3ca72c56	0.020406883
219	0xbc5ed17d	-0.013599751
220	0xbc8924d1	-0.016741188
221	0x3c8a8c66	0.01691265
222	0x3c5d8378	0.013520114
223	0xbc534f44	-0.012897316
224	0x3d4aa111	0.04947001
225	0x3d1b1c3a	0.037868716
226	0x3c5eca54	0.0135980435
227	0x3c08adb1	0.0083421925
228	0x3cea4b06	0.028600227
229	0x3ca2f85d	0.01989382
230	0x3d173be3	0.036922347
231	0xbc4d3a96	-0.012526175
232	0xbcac8429	-0.021059113
233	0xbd0f8120	-0.035035253
234	0x3be277fa	0.006911275
235	0xbc8cd3a5	-0.017190764
236	0xbce9d03c	-0.028541677
237	0x3c28ebea	0.010310153
238	0x3d53d6f6	0.051718675
239	0xbd0dd5a6	-0.03462758
240	0x39c57f24	0.00037669495
241	0xbc813a18	-0.015774772
242	0xbd00d19e	-0.031449907
243	0xbc923e40	-0.017851949
244	0xbc9f14b5	-0.019419054
245	0x3cbcd6f7	0.023051722
246	0xbd45a7a4	-0.048255578
247	0x3cc24dd6	0.023718756
248	0x3d036862	0.03208197
249	0xbbe9132d	-0.0071128816
250	0x3ccd0cfe	0.02503061
251	0x3bdd3292	0.006750413
252	0x3abe1667	0.0014502526
253	0x3d307407	0.043079402
254	0xbc3a6873	-0.011377442
255	0x3c842599	0.01613121

model.0.running_mean f4 [1024]
0	0xbd69dd28	-0.057095677
1	0xbc871f25	-0.016494343
2	0x3bd1058a	0.006378834
3	0xbcd24234	-0.025666334
4	0x3b4e0eab	0.0031441848
5	0xbc6b17b0	-0.014348909
6	0x3d232c18	0.039836973
7	0xbb78547d	-0.0037892156
8	0xbb9c3384	-0.0047668833
9	0x3d09955e	0.033589713
10	0xbc276f81	-0.010219456
11	0x3ba29701	0.0049618487
12	0xbb7aed53	-0.003828843
13	0xbc4d954e	-0.012547804
14	0x3ba6ce7e	0.0050905338
15	0x3c2bc015	0.010482808
16	0xbd111261	-0.035417918
17	0xbcc934d0	-0.024561316
18	0x3a1cf0a7	0.0005986788
19	0x3c1671a2	0.009182366
20	0x3c74e349	0.014946767
21	0xb90aeb36	-0.00013248328
22	0x3c9e4090	0.019317895
23	0x3d938514	0.07203117
24	0x3ca0776b	0.019588193
25	0x3cfab0b2	0.030601833
26	0xbcdccb91	-0.026952537
27	0x3c365503	0.011128667
28	0xbbad4f77	-0.005289014
29	0xbc3b7a6e	-0.011442764
30	0x3ccf1480	0.02527833
31	0xbc75fbaf	-0.015013619
32	0xbc0a113d	-0.0084269615
33	0x3c1921e3	0.009346458
34	0xbb6de925	-0.0036302295
35	0x3c82fca2	0.015989605
36	0xbc334a96	-0.010943076
37	0x3bdbf700	0.0067127943
38	0xbce1146e	-0.027475562
39	0xbbcb169b	-0.006197763
40	0x3c492348	0.012276478
41	0x3cce6b6a	0.025197703
42	0xba8d050c	-0.001075895
43	0xbd3b93b9	-0.045795176
44	0xbcc757ea	-0.024333913
45	0x3b7f225c	0.0038930392
46	0xb9f14e5a	-0.00046025479
47	0xbcca5ec7	-0.024703396
48	0xbc33512b	-0.010944645
49	0x3daa5bd8	0.08318299
50	0xbccc0a42	-0.024907235
51	0xbc8783e9	-0.016542392
52	0xbca5ecbc	-0.020254485
53	0x3c196fb2	0.009365009
54	0x3c1e98fc	0.009680029
55	0xbc115755	-0.008870919
56	0x3d0acf6b	0.033889215
57	0x3c13a29f	0.00901094
58	0xbbd03f93	-0.006355235
59	0xbc3771f2	-0.0111966
60	0x3c2a7f38	0.010406308
61	0xbcb071b5	-0.021538595
62	0xbc42aaa8	-0.011881508
63	0x3cba61d4	0.022751726
64	0x3a2800ca	0.0006408809
65	0xbc7205c8	-0.014771886
66	0x3bbe30c1	0.0058041518
67	0x3be0c4bf	0.0068593915
68	0x3b1224ca	0.002229976
69	0x3bc57822	0.006026284
70	0x3d1bdf7c	0.03805493
71	0x3c4f54ff	0.012654542
72	0xbc85bb79	-0.016324745
73	0x3d31f0d6	0.04344257
74	0x3cf3f4a7	0.029779745
75	0xbc556096	-0.013023516
76	0x3cd25ecc	0.025679968
77	0xbc8a0578	-0.01684831
78	0x3c8ecb9a	0.01743107
79	0xbc9113cd	-0.017709637
80	0xbc0c8c88	-0.008578427
81	0x3ce63bce	0.028104689
82	0xbd554f56	-0.052077614
83	0x3cb47ac7	0.022031201
84	0xbc8ab511	-0.016932042
85	0xbd286aa9	-0.041117344
86	0x3cc20d7b	0.023688069
87	0xbc935a0c	-0.017987274
88	0x3c301a35	0.010748436
89	0x3cb0173e	0.021495458
90	0xbcc13c20	-0.02358824
91	0xbba770fc	-0.0051099043
92	0xbc4c4bde	-0.01246926
93	0x3c52cb23	0.012865814
94	0x3c525a94	0.012838978
95	0x3c90f5f8	0.017695412
96	0x3c05d247	0.00816781
97	0x3d6b6bbb	0.057475787
98	0xbc0882c0	-0.0083319545
99	0x3cc649cd	0.024205113
100	0x3c682857	0.014169774
101	0x3cd73c97	0.026274009
102	0xba82b477	-0.0009971996
103	0x3c3f1cf5	0.011664619
104	0x3d984e7b	0.07436844
105	0x3c81af20	0.015830576
106	0x3b407c51	0.0029370973
107	0xbcbb7e9b	-0.022887519
108	0xbcf9c523	-0.03048951
109	0x3d4f76f0	0.050650537
110	0xbc44fd58	-0.0120232925
111	0x3ae4b85f	0.0017449966
112	0x3d8535e9	0.06504423
113	0xbb5f1b92	-0.0034043533
114	0xbb9f43d4	-0.0048603807
115	0x3c961670	0.018321246
116	0xba8ecaf2	-0.0010894223
117	0xbbe44a57	-0.00696687
118	0x3ae1e529	0.0017234433
119	0xbbae2ce0	-0.005315408
120	0xbca80c96	-0.020513814
121	0xbc092831	-0.008371399
122	0xbc8b2c8d	-0.016989017
123	0xbc404597	-0.0117353415
124	0xbd4aceea	-0.049513735
125	0xbcb3804e	-0.021911766
126	0xbc223819	-0.00990107
127	0xbcaf9400	-0.021432877
128	0x3ca9d36d	0.020730698
129	0xbc97bf16	-0.018523734
130	0xbd829721	-0.06376482
131	0xbc733f4c	-0.014846634
132	0x3c89eeb4	0.016837455
133	0xbb56e066	-0.003278756
134	0xba963050	-0.001145849
135	0xbced222f	-0.028946964
136	0x3d30377e	0.04302167
137	0x3cc20252	0.023682747
138	0xbb35fe54	-0.002777
139	0xbcbb3787	-0.022853626
140	0x3b166930	0.002295088
141	0xbd2bf32d	-0.041979957
142	0xbc3edd5d	-0.011649457
143	0xbba61068	-0.0050678737
144	0xbab241be	-0.0013599915
145	0xbc1bb309	-0.0095031345
146	0x3d399a1c	0.045312986
147	0xbcc0a0c7	-0.023514165
148	0xbd04dcab	-0.032437008
149	0x3b237f28	0.0024947617
150	0xbbe715b1	-0.0070521464
151	0x3a1367a7	0.00056230504
152	0x3beb39dc	0.0071785282
153	0xba43fe62	-0.00074765657
154	0x3c8bc7bc	0.017063014
155	0x3cd597ac	0.0260733
156	0x3ce06aa9	0.02739461
157	0xbc0562c6	-0.008141225
158	0xbb99211f	-0.004673138
159	0x3bd2febf	0.0064390595
160	0x3a23c5e1	0.0006247443
161	0x3ce5df1c	0.028060488
162	0x3c84a209	0.016190546
163	0x3b4ce376	0.0031263507
164	0xbb9ce17a	-0.004787621
165	0xbb883daf	-0.004157744
166	0xbd5de5b0	-0.054174125
167	0xbbb5e04c	-0.00555042
168	0xbd1bece9	-0.038067732
169	0x3cdaf807	0.026729597
170	0x3ce64f52	0.028113995
171	0x3cf75fba	0.030197013
172	0x3ccfcab0	0.025365204
173	0xbbf92679	-0.0076034633
174	0x3cbac1e3	0.02279753
175	0x3c2e5ae0	0.0106417835
176	0xbc3fbe38	-0.0117030665
177	0xbc5e85c4	-0.013581697
178	0xbc9a3a55	-0.018826643
179	0xbb405c63	-0.0029351942
180	0xbd073b12	-0.03301532
181	0xbc963aaa	-0.01833852
182	0xbbabdfff	-0.0052452083
183	0x3c3c8e58	0.011508547
184	0xbc32d321	-0.010914595
185	0x3cc70bfa	0.024297703
186	0x3d3f72a4	0.04674019
187	0xbc63c803	-0.013902667
188	0xbc7c9de7	-0.015418506
189	0xbd091767	-0.033469584
190	0x3d1df668	0.03856507
191	0x3c60dd58	0.013724647
192	0x3c7a4fc9	0.015277811
193	0x3cfe7ff0	0.031066865
194	0x3c3e0980	0.011598945
195	0x3c3f6326	0.011681354
196	0xbc372e6a	-0.0111805
197	0xbb65f198	-0.0035086628
198	0x3caca322	0.021073882
199	0x3d06724d	0.03282385
200	0x3bb797ca	0.0056028115
201	0xbc410e5a	-0.011783207
202	0x3b30f820	0.0027003363
203	0xbcd5eadc	-0.026112966
204	0xbcc8692e	-0.024464216
205	0x3bf2f46b	0.007414391
206	0xbc44ec03	-0.01201916
207	0xbc5fdec6	-0.013663953
208	0x3c8ac6ae	0.016940441
209	0xbc278381	-0.010224224
210	0xbd089595	-0.033345778
211	0xbcbb2a84	-0.022847421
212	0x3c554d1a	0.013018871
213	0x3cd197e5	0.025585124
214	0x3bcca37b	0.0062450743
215	0xbc77576a	-0.015096525
216	0x3c50dcd6	0.012747964
217	0x3cd75fc0	0.026290774
218	0xbc044e61	-0.008075328
219	0xbbe453fc	-0.0069680195
220	0x3c227e52	0.009917812
221	0xbc933158	-0.017967865
222	0xbd42ab8b	-0.047526877
223	0xbcadf955	-0.021237055
224	0x3caf4cf9	0.021399008
225	0x3c4c9d6a	0.012488702
226	0x3b59a072	0.0033207205
227	0xbcac28f1	-0.021015616
228	0x3b66bf56	0.003520926
229	0xbca3209c	-0.01991301
230	0xbc1cd318	-0.009571813
231	0xbd039fa1	-0.032134656
232	0xbba75182	-0.005106152
233	0xbcf164f8	-0.029467091
234	0xbc49abe6	-0.01230905
235	0xbc8c9d9a	-0.017164994
236	0xbceeeaa2	-0.029164616
237	0x3d0d841c	0.034549817
238	0x3ca64af1	0.020299407
239	0xbc93dfa7	-0.018050982
240	0x3d07d105	0.03315832
241	0xbadba87f	-0.001675859
242	0xbbdafb2e	-0.006682775
243	0x3cd317c0	0.02576816
244	0xbcbf73ff	-0.023370741
245	0xba7e7f83	-0.0009708332
246	0x3c42d52f	0.011891647
247	0x3cb5fafb	0.022214403
248	0xb9bccb7a	-0.00036009756
249	0x3ce77786	0.028255235
250	0xbc8aaeb2	-0.016929004
251	0x3cc5f06e	0.024162497
252	0x3c970dcd	0.018439198
253	0x3aca3e8f	0.0015430021
254	0x3c809356	0.015695255
255	0x3cb6d65e	0.022319015

model.0.running_var f4 [1024]
0	0x39160414	0.00014306634
1	0x39201a26	0.0001526853
2	0x391e5219	0.00015098638
3	0x38faa9e7	0.00011952576
4	0x3912d15d	0.00014001639
5	0x394d7345	0.00019593265
6	0x391f4c9d	0.00015191962
7	0x38e45893	0.000108883854
8	0x390a6ff7	0.00013202416
9	0x39330660	0.00017073145
10	0x3932e32a	0.00017060028
11	0x39464534	0.00018908532
12	0x393f40e8	0.00018239359
13	0x3916fcda	0.0001439931
14	0x39297208	0.00016159576
15	0x3905fbf7	0.00012777733
16	0x38e7d6e8	0.00011054968
17	0x393ffa9f	0.00018308543
18	0x396dc43e	0.00022675187
19	0x3916d9af	0.00014386208
20	0x3928f0ea	0.00016111476
21	0x391dbd97	0.00015043314
22	0x38fe4b4d	0.0001212569
23	0x3945742f	0.00018830666
24	0x39121127	0.00013930035
25	0x3924ff30	0.00015735324
26	0x394791c1	0.00019032416
27	0x3901391c	0.00012323674
28	0x3930e37e	0.00016869415
29	0x39c1784e	0.00036901463
30	0x3974e21f	0.0002335389
31	0x394901dc	0.00019169546
32	0x392edf58	0.00016677135
33	0x38f4ecea	0.00011678955
34	0x39659208	0.00021893543
35	0x395722f3	0.00020517017
36	0x38e991af	0.000111374415
37	0x38b0928d	8.419631e-05
38	0x39016f23	0.000123438
39	0x3991a36a	0.00027778308
40	0x3991a360	0.0002777828
41	0x3925a1e7	0.0001579594
42	0x394498c3	0.00018748925
43	0x3910cb66	0.00013808682
44	0x39446cbe	0.00018732526
45	0x39768219	0.00023508853
46	0x398057ee	0.00024479575
47	0x395d1606	0.00021084407
48	0x3910de97	0.00013815831
49	0x39cee19b	0.0003945947
50	0x398bf9d4	0.00026698282
51	0x39a66bef	0.00031742404
52	0x394523b3	0.00018800683
53	0x396d503f	0.00022631975
54	0x39099f1e	0.00013124614
55	0x391887c8	0.00014546432
56	0x398a66bc	0.00026397954
57	0x38cd04ce	9.776057e-05
58	0x38f4e2d5	0.000116770774
59	0x39266570	0.00015868782
60	0x396c6a2d	0.00022546267
61	0x3949df99	0.0001925215
62	0x398f747d	0.00027361876
63	0x394dec8d	0.00019638446
64	0x3902bc92	0.00012468014
65	0x38e1e881	0.00010772143
66	0x395123be	0.00019945108
67	0x391940a0	0.00014615292
68	0x390b276a	0.00013270756
69	0x392f94a3	0.00016744672
70	0x394c0fd4	0.00019460852
71	0x39581d99	0.00020610391
72	0x395b8cc0	0.00020937901
73	0x3924f6ff	0.00015732272
74	0x393648ad	0.00017383946
75	0x3959cd20	0.00020771148
76	0x38e5d45d	0.00010959127
77	0x39447502	0.00018735605
78	0x3922deac	0.00015532476
79	0x395595cf	0.00020369071
80	0x39430c15	0.0001860115
81	0x38e9a833	0.00011141635
82	0x395d1a2e	0.00021085955
83	0x3914586c	0.0001414732
84	0x3901eb1d	0.00012389985
85	0x39ac112f	0.000328192
86	0x392b8145	0.00016355987
87	0x3988a32e	0.0002606152
88	0x3901623f	0.00012338998
89	0x398b2b1a	0.0002654426
90	0x39b6717f	0.00034798306
91	0x394b7306	0.00019402438
92	0x39098087	0.00013113218
93	0x396c738e	0.00022549761
94	0x392f962c	0.00016745244
95	0x392a6840	0.000162513
96	0x39309f79	0.00016844076
97	0x393cc251	0.00018001466
98	0x39361fb3	0.00017368681
99	0x39c3421e	0.0003724256
100	0x3918c1b0	0.00014568004
101	0x3902c17a	0.00012469842
102	0x394b7c66	0.0001940593
103	0x38e556da	0.00010935748
104	0x3a38fff9	0.0007057186
105	0x392d0b64	0.00016502809
106	0x393791a9	0.00017506503
107	0x3973cd59	0.00023250784
108	0x391e4dd0	0.00015097042
109	0x391cc773	0.0001495162
110	0x39457aa6	0.00018833074
111	0x38f58583	0.00011707379
112	0x393fcb35	0.0001829088
113	0x39582f40	0.00020616967
114	0x396a23b9	0.00022329287
115	0x3997cf2c	0.0002895532
116	0x38f21195	0.00011542734
117	0x3934d149	0.00017244102
118	0x396176ee	0.00021501977
119	0x39941548	0.00028244616
120	0x39650d7d	0.00021844167
121	0x392d64d5	0.00016536129
122	0x39172ad5	0.00014416438
123	0x39486fbf	0.00019115115
124	0x39166e9d	0.00014346321
125	0x38bc4c27	8.978723e-05
126	0x38d6ecd8	0.00010248431
127	0x38ea9936	0.00011186527
128	0x39603c62	0.00021384799
129	0x39a2f592	0.00031082012
130	0x392045c5	0.0001528478
131	0x38d81295	0.00010303144
132	0x393ee44f	0.00018204864
133	0x3915ffc8	0.00014305033
134	0x39063ef4	0.00012802688
135	0x395052ec	0.00019867317
136	0x397f67bf	0.00024357344
137	0x391a0ea8	0.00014692044
138	0x39230064	0.00015545037
139	0x393651fd	0.00017387416
140	0x390d8c90	0.00013499171
141	0x3914c090	0.00014186115
142	0x39264966	0.00015858337
143	0x392fb1e2	0.00016755567
144	0x39b83cee	0.0003514061
145	0x39511266	0.00019938647
146	0x3940a813	0.0001837316
147	0x390f1d2d	0.00013648412
148	0x398d2bdb	0.0002692629
149	0x3930692a	0.00016823845
150	0x39840980	0.0002518408
151	0x391e8dc7	0.0001512087
152	0x390a9a40	0.00013218168
153	0x3986a6e7	0.00025682824
154	0x3917eabd	0.00014487929
155	0x3943c12f	0.00018668616
156	0x3914a00d	0.00014174003
157	0x391e7366	0.00015111043
158	0x399f31b7	0.00030363884
159	0x392fccb1	0.00016765554
160	0x390c8f09	0.00013404725
161	0x38ff95dd	0.00012187262
162	0x390750e5	0.00012904739
163	0x3905c432	0.00012756957
164	0x38f19ac2	0.000115206014
165	0x38e91a96	0.00011115258
166	0x3a11a084	0.000555523
167	0x39195d6a	0.00014626016
168	0x395c7b60	0.00021026796
169	0x392390cc	0.00015598832
170	0x392d2bc9	0.00016514877
171	0x3926aba4	0.00015894935
172	0x393d1b80	0.00018034689
173	0x390b7d25	0.00013302693
174	0x398ed595	0.00027243482
175	0x3964934d	0.00021798648
176	0x39013fd2	0.00012326174
177	0x39228718	0.0001549985
178	0x38da5963	0.000104116996
179	0x39904c23	0.00027522547
180	0x393e9367	0.00018174724
181	0x3970312f	0.00022906506
182	0x3983c193	0.0002513049
183	0x395e0193	0.00021172156
184	0x39331360	0.00017077988
185	0x391da310	0.00015033432
186	0x39550399	0.00020314603
187	0x3917ed81	0.0001448896
188	0x39329a85	0.00017032966
189	0x393284ed	0.00017024922
190	0x396de92a	0.00022688942
191	0x391c9396	0.000149323
192	0x397d18fe	0.0002413727
193	0x390f1bf6	0.00013647959
194	0x3921878c	0.00015404652
195	0x3980a1c6	0.00024534593
196	0x394dd4c7	0.00019629589
197	0x392d83b5	0.0001654763
198	0x3938cbe6	0.00017623566
199	0x3951d144	0.00020009751
200	0x39273e2f	0.00015949526
201	0x393d586e	0.00018057387
202	0x3933c9b2	0.00017145908
203	0x39144d55	0.00014143188
204	0x390820b2	0.0001298215
205	0x3913bebc	0.00014090067
206	0x390073be	0.00012250149
207	0x392d2388	0.00016511802
208	0x39174d66	0.00014429315
209	0x3929190a	0.00016126424
210	0x3947d513	0.00019057495
211	0x3903e99f	0.00012580164
212	0x3919a04b	0.00014650931
213	0x393be46a	0.000179188
214	0x3a1c201c	0.00059557124
215	0x38ca1e10	9.63771e-05
216	0x38f0b1b8	0.000114771945
217	0x39168a12	0.0001435655
218	0x38dd1e5e	0.000105437575
219	0x39609547	0.00021417915
220	0x3933fedf	0.00017165717
221	0x391bb4ea	0.00014849348
222	0x3928611b	0.00016057903
223	0x395bad82	0.00020950104
224	0x3945cf86	0.00018864693
225	0x392777f2	0.00015971044
226	0x38f5c513	0.00011719218
227	0x38d2a425	0.000100441546
228	0x38eeebaa	0.0001139262
229	0x391cfe9c	0.00014972169
230	0x390aa0bd	0.00013220585
231	0x39de64e1	0.000424183
232	0x393c6cd4	0.00017969619
233	0x3960f6dc	0.00021454267
234	0x38d527ae	0.000101640224
235	0x38d62e32	0.0001021292
236	0x3941ff0c	0.00018500927
237	0x39141734	0.00014123024
238	0x39150efe	0.00014215332
239	0x390bc772	0.00013330372
240	0x39081218	0.00012976711
241	0x39158022	0.0001425748
242	0x3942516e	0.00018531617
243	0x3931e213	0.00016964255
244	0x39503f05	0.00019859902
245	0x3a02a918	0.00049843034
246	0x390a3b6a	0.00013182839
247	0x38ff4c58	0.00012173568
248	0x39097bc1	0.0001311144
249	0x39026247	0.00012434377
250	0x393517f0	0.00017270423
251	0x3907879a	0.00012925119
252	0x3956370a	0.00020429134
253	0x38fae899	0.00011964254
254	0x39149772	0.00014170798
255	0x3911d803	0.00013908748

model.1.weight f4 [32, 1024]
0	0xbc26a043	-0.010170045
1	0x3aae89a0	0.0013316162
2	0xbc433e81	-0.011916758
3	0xbc5b491b	-0.013384129
4	0x3bfd8756	0.0077370806
5	0x3c496242	0.012291493
6	0x3b09455a	0.0020945878
7	0x3c8c350a	0.017115135
8	0xbc8370a4	-0.016044922
9	0x3cc2c4fe	0.023775574
10	0x3d131aad	0.035914112
11	0x3ccb4792	0.0248144
12	0x3b0e01ac	0.0021668477
13	0xbc91571c	-0.017741732
14	0xbcd1582c	-0.025554739
15	0x3cdbc8b0	0.026829094
16	0xbbc6aadf	-0.00606285
17	0xbb455c7b	-0.0030114937
18	0xbc5904ac	-0.013245743
19	0x3c57ea15	0.013178368
20	0x3d07af03	0.03312589
21	0x3d11810a	0.035523452
22	0xbcadf29f	-0.021233855
23	0x3d1cf452	0.03831894
24	0x3cadcbba	0.021215308
25	0xbc82d707	-0.015971674
26	0x3c59f7c8	0.013303705
27	0xbc45d525	-0.012074743
28	0x3d343a49	0.044000898
29	0x3c57d399	0.013173007
30	0x3b38a441	0.0028174075
31	0x3bd3af6b	0.0064601204
32	0x3c0bea45	0.008539741
33	0x3ce1bd16	0.027555984
34	0x3ca83054	0.020530857
35	0x3aea2c91	0.0017866065
36	0x3d2d1321	0.04225457
37	0xbc7d5912	-0.015463131
38	0xbcab981b	-0.020946553
39	0x3ce3b200	0.027794838
40	0x3bd2d9e8	0.006434668
41	0x3c83013e	0.015991803
42	0x3c688dff	0.014194011
43	0xbca4396b	-0.02004691
44	0xbcf1788b	-0.029476425
45	0xbd000f4e	-0.031264596
46	0xbca5defb	-0.020247927
47	0x3b108514	0.0022051977
48	0xbbf55ea0	-0.007488087
49	0x3b96f983	0.004607381
50	0xbd2898bf	-0.041161295
51	0x3caccd4a	0.021093983
52	0x3d1230fe	0.035691254
53	0x3b25b984	0.0025287578
54	0xbc999eb7	-0.018752439
55	0x3ca42a72	0.02003977
56	0xbd137ffd	-0.03601073
57	0x3d3125ef	0.043249067
58	0x3bfbad5b	0.0076805777
59	0xbd40af89	-0.047042403
60	0x3b9aba73	0.0047219335
61	0xbc7b4fbf	-0.015338837
62	0xbc2464d8	-0.010033809
63	0x3ccb95c6	0.024851691
64	0x3a3fc127	0.0007314854
65	0xbd0716df	-0.032980796
66	0x3cb3c18a	0.021942873
67	0x3d0fa9e9	0.03507415
68	0xbd037a03	-0.03209878
69	0x3cd01852	0.025402222
70	0xbc0251a7	-0.007954038
71	0x3b384ecf	0.0028123145
72	0x3c38c812	0.011278169
73	0xbcf315fa	-0.029673565
74	0x3cbe7ab6	0.023251873
75	0xbc4c5450	-0.012471274
76	0x3ce2faca	0.027707476
77	0xbbc67787	-0.0060567292
78	0x3b758679	0.0037464185
79	0xba0428bf	-0.0005041472
80	0x3c01f1c4	0.007931177
81	0xb8d69fcb	-0.00010234079
82	0x3c07e108	0.008293398
83	0xbceea6cb	-0.029132267
84	0x3b8b0533	0.004242563
85	0x3c4bf4bd	0.012448487
86	0xbca4089d	-0.020023638
87	0xbd0e1da8	-0.03469625
88	0x3b65cfa0	0.003506638
89	0x3c3544ff	0.011063813
90	0xbc47caab	-0.012194316
91	0xbc80466c	-0.01565858
92	0xbc0f9488	-0.00876344
93	0xb8a23552	-7.734694e-05
94	0xbc9b6597	-0.01896934
95	0xbcadfebf	-0.021239636
96	0xbc662c42	-0.014048638
97	0xba6aab7a	-0.00089519436
98	0x3b5c553a	0.0033620135
99	0xbc0287dd	-0.007966963
100	0xbb545ce0	-0.003240399
101	0x3d079b93	0.03310735
102	0x3b27be6c	0.0025595678
103	0x3d05e6ed	0.03269093
104	0x3d0983d3	0.033572983
105	0x3ce66892	0.028126035
106	0xbcfeba55	-0.03109471
107	0xbc073776	-0.008252969
108	0xbb975cab	-0.004619201
109	0x3bc1303a	0.0058956416
110	0x3c17bf81	0.009261967
111	0xbca3f008	-0.020011917
112	0x3c5c6146	0.013450926
113	0x3cffee87	0.031241668
114	0x3cceaccd	0.025228882
115	0x3ca6802b	0.020324787
116	0xbce97702	-0.02849913
117	0x3c55fb4f	0.013060405
118	0xbca7daa6	-0.020490002
119	0xbcaba8f2	-0.020954583
120	0xbcd50c29	-0.026006775
121	0x3c6361e6	0.013878321
122	0xbb72d165	-0.0037051078
123	0xbd1e0c97	-0.038586225
124	0x3bb41b4d	0.0054964186
125	0x3c86c985	0.016453514
126	0x3b436e54	0.00298204
127	0xbc0ae37e	-0.00847709
128	0xbbb42b95	-0.0054983594
129	0x3a9e24f6	0.0012065459
130	0xbbed6439	-0.0072446135
131	0xbd03a79e	-0.032142274
132	0xbc422a24	-0.011850867
133	0xbc6e67d0	-0.014551118
134	0xbc9c9b87	-0.01911713
135	0xbcc95b00	-0.024579525
136	0x39bbe6a8	0.00035839272
137	0xbc358d68	-0.011081077
138	0xbc2aa706	-0.010415798
139	0x3b75fd27	0.0037534924
140	0xbcc260d4	-0.023727812
141	0xbb9ce830	-0.004788421
142	0xbba064b3	-0.004894817
143	0xbc1ade02	-0.009452345
144	0x3d10d9fb	0.035364132
145	0x3d2b4f21	0.04182351
146	0x3bd4e8c1	0.006497473
147	0x3d022908	0.03177741
148	0xbb83bf9a	-0.0040206434
149	0xbcd518bd	-0.026012773
150	0xbc729573	-0.014806139
151	0x3d13d49c	0.036091432
152	0x3bb7788d	0.0055990876
153	0x3bc6eca7	0.0060706916
154	0xbcbd4e70	-0.023108691
155	0x3d02c66f	0.031927522
156	0xbbb54071	-0.0055313637
157	0xbc0b30cf	-0.008495524
158	0x3d0ed0bb	0.03486703
159	0xbb11b691	-0.0022234062
160	0x3c9b55b5	0.018961767
161	0xbc9b5664	-0.018962093
162	0xba2b353b	-0.0006531064
163	0x3d15c67c	0.036566243
164	0xbc907b5f	-0.017636953
165	0x3c622468	0.013802625
166	0x3d0e9f42	0.03481985
167	0xbc11830c	-0.008881342
168	0xbc1f7f29	-0.009734907
169	0xbd597103	-0.053086292
170	0xbb890ed6	-0.004182677
171	0xbb9fc7f8	-0.004876133
172	0xbc4d9906	-0.012548691
173	0x3ca5d7c7	0.020244492
174	0xbb2c8d52	-0.002632935
175	0xbc7046cd	-0.014665318
176	0x3c805cd5	0.015669266
177	0x3beaa230	0.0071604475
178	0xbb0c122e	-0.002137314
179	0xbb7a4458	-0.0038187709
180	0x3c6fe129	0.014641085
181	0x3c9a99dc	0.018872194
182	0x3b077963	0.0020671717
183	0x3bfeb59d	0.007773115
184	0x3c8d3a2e	0.017239656
185	0xbb16ce46	-0.0023011132
186	0x3c612527	0.013741768
187	0xbc8a6353	-0.016893065
188	0x3d4ba7a1	0.04972041
189	0x3cf49cef	0.029859988
190	0xbbf66cee	-0.0075203096
191	0x3b33f921	0.0027461725
192	0xbc30ecf5	-0.010798682
193	0x3a28f78f	0.00064455805
194	0xba89bb19	-0.001050803
195	0x3c904423	0.017610615
196	0xbc9503f3	-0.01819036
197	0xbc095543	-0.008382144
198	0x3d33b16a	0.043870367
199	0x3c763965	0.015028332
200	0x3cf768c4	0.030201323
201	0x3c3ccb90	0.011523142
202	0xbc869611	-0.01642898
203	0xbd1561b6	-0.036470138
204	0xbcb7f2c0	-0.02245462
205	0x3aa61909	0.0012672256
206	0xbcb5479c	-0.022128873
207	0x3aa2ab25	0.0012410624
208	0xbaff15b5	-0.0019461425
209	0xbd3525a7	-0.04422536
210	0xbc3ae144	-0.011406247
211	0x3cac3fb3	0.021026468
212	0x3ca45d63	0.020064062
213	0xbc7a92fb	-0.015293832
214	0x3d158391	0.036502425
215	0xbd647c4a	-0.055782594
216	0xbc75a552	-0.014993029
217	0x3d1237a5	0.035697598
218	0x3c935ea7	0.01798947
219	0xbd109388	-0.035296947
220	0x3bd5403c	0.0065079015
221	0x3baaddab	0.005214413
222	0x3cba56c6	0.022746455
223	0xbd3733b0	-0.044727027
224	0xbca17006	-0.019706737
225	0x3b8d3025	0.004308718
226	0x3d48b6c7	0.049002435
227	0xbc879170	-0.016548842
228	0x3c8039bf	0.015652535
229	0x3cd2a435	0.025713066
230	0x3cbb3388	0.02285172
231	0x3c516acb	0.012781809
232	0xbce0d6a8	-0.027446106
233	0x3bd244f5	0.0064169117
234	0xbc071c5c	-0.0082465075
235	0x3ac561c4	0.0015059044
236	0x3b3131d0	0.0027037747
237	0xba5fe10b	-0.0008540309
238	0x3c2a5e4c	0.010398459
239	0x3c86f52c	0.016474329
240	0xbbb7e6ab	-0.0056122146
241	0xbcd7e669	-0.026354985
242	0xbbe8b0e8	-0.007101167
243	0xbcfadb9a	-0.030622292
244	0xbca25f55	-0.019820848
245	0x3a12b6fd	0.00055967254
246	0xbcb60be7	-0.022222472
247	0x39386ceb	0.00017588183
248	0x3c7c5215	0.015400429
249	0x3c47d37c	0.012196418
250	0xbbfb88c6	-0.007676217
251	0x3b872207	0.0041239294
252	0xbc005053	-0.007831651
253	0x3cc2ae33	0.023764705
254	0xbd06d846	-0.0329211
255	0x3b8c9ced	0.004291168

model.1.bias f4 [32]
0	0x3c5b373a	0.013379866
1	0xbc97728a	-0.018487234
2	0xbc057aa7	-0.008146918
3	0xbd3fdfd0	-0.046844304
4	0x3c637232	0.013882207
5	0x3cb2e819	0.021839188
6	0x3b402cb2	0.0029323515
7	0xbc8eb9c2	-0.01742256
8	0xbc8d42ce	-0.017243769
9	0x3c11cce3	0.008898946
10	0x3b848b3e	0.0040449193
11	0x3c533bfe	0.012892721
12	0x3bb3d9e7	0.0054886225
13	0xbd324b0e	-0.04352861
14	0xbc92830e	-0.017884757
15	0x3bbf0ffe	0.005830764
16	0x3ca192c3	0.019723302
17	0xbc3cf5a5	-0.011533176
18	0x3cc13a56	0.023587387
19	0x3d01dcbe	0.031704657
20	0x3c4b181a	0.012395883
21	0x3d1bacdc	0.03800665
22	0x3cf42a5b	0.029805353
23	0x3d48413e	0.048890345
24	0x3c92504d	0.017860556
25	0xbb6df3a5	-0.0036308554
26	0xbc7faa93	-0.015604633
27	0xbc971951	-0.018444689
28	0xbbaeac6c	-0.005330613
29	0x3c1d43ca	0.009598682
30	0xbc810bc4	-0.01575268
31	0xbc11eb68	-0.008906223

model.4.weight f4 [64, 32]
0	0x3e729f20	0.23693514
1	0xbe1545b1	-0.14577366
2	0x3cf24b9a	0.029577065
3	0x3dd32062	0.10308911
4	0xbda6e08c	-0.08148298
5	0x3dbdc986	0.09266953
6	0x3e338225	0.17530115
7	0x3d91af10	0.07113469
8	0x3e780fe3	0.2422481
9	0x3e651cb9	0.22374238
10	0x3e69c888	0.22830403
11	0xbdbff323	-0.093725465
12	0xbccfbabc	-0.025357597
13	0xbd0b99de	-0.034082286
14	0xbe13350e	-0.14375708
15	0x3d426469	0.04745904
16	0x3b80f765	0.0039357417
17	0x3cf022b3	0.02931342
18	0x3e0a399c	0.13498539
19	0x3e59a922	0.21255925
20	0x3db1f526	0.086893365
21	0xbd0d1a0b	-0.034448665
22	0xbc7fc7d2	-0.015611606
23	0x3db1bf56	0.086790726
24	0x3dfd622b	0.1237224
25	0x3d726df8	0.059186906
26	0xbd6105a6	-0.054937027
27	0x3cc47fcb	0.023986718
28	0xbe1c3f96	-0.15258631
29	0x3d1ece4a	0.03877095
30	0x3d265e14	0.040617064
31	0xbe0af201	-0.1356888
32	0xbd9bdf4a	-0.076109484
33	0x3e5c7fbd	0.21533103
34	0x3e32fb81	0.17478754
35	0x3e61a292	0.22034672
36	0xbc8d434d	-0.017244006
37	0xbc7c6a52	-0.015406208
38	0xbe387fe8	-0.18017542
39	0x3ce898f4	0.028393246
40	0xbd5c8e03	-0.05384637
41	0xbe0e6eeb	-0.139095
42	0x3bc44249	0.005989347
43	0xbcd7c77f	-0.026340244
44	0xbd759aa3	-0.059961926
45	0x3d9749f9	0.07387156
46	0xbddf43dc	-0.10901615
47	0x3cb5bab0	0.022183746
48	0xbe12a792	-0.14321736
49	0x3dda6185	0.106631316
50	0xbcd7dbee	-0.026349988
51	0x3d7b56ef	0.061362203
52	0x3d6c81e5	0.057741065
53	0xbd20d019	-0.039260957
54	0x3d7a37f4	0.061088517
55	0xbd433c89	-0.047665153
56	0x3b9e877e	0.0048379293
57	0x3d920bf4	0.07131186
58	0xbd68f842	-0.056877382
59	0xb99b1545	-0.0002957975
60	0x3e4caf25	0.19988687
61	0x3bb18c67	0.0054183486
62	0x3da38360	0.07984042
63	0x3ddd2d8e	0.107997045
64	0x3e3e9153	0.18610124
65	0xbdffe7ad	-0.124953605
66	0xbcdab59e	-0.02669793
67	0xbd17d195	-0.037065107
68	0x3da547ff	0.08070373
69	0x3dc6c247	0.09705024
70	0x3daea03c	0.08526656
71	0xbd57f5b3	-0.05272455
72	0xbd149d72	-0.036282964
73	0x3e5e71f4	0.21723157
74	0x3e7b43c3	0.24537568
75	0xbd6918f7	-0.056908574
76	0xbd4f844c	-0.050663278
77	0xbcae7e4d	-0.02130046
78	0x3de32099	0.11090202
79	0x3e8e4918	0.2779014
80	0x3e608497	0.21925579
81	0x3e67e2ff	0.22645186
82	0x3dcde7fa	0.10054012
83	0xbbf17392	-0.0073685134
84	0xbd105146	-0.03523376
85	0x3e514e0e	0.20439932
86	0xbd6638fd	-0.056206692
87	0xba508e34	-0.000795576
88	0x3e86da9b	0.26338658
89	0xbdecf0ad	-0.11569343
90	0x3e290104	0.16504294
91	0x3d947473	0.072487734
92	0x3d6d5aba	0.05794785
93	0x3e2ca394	0.16859275
94	0x3de236ea	0.1104563
95	0xbd835f56	-0.06414668
96	0x3e31dc43	0.1736918
97	0x3cb69e3d	0.02229225
98	0xbd657284	-0.056017414
99	0x3dae2b95	0.08504406
100	0x3e74238c	0.23841685
101	0xbae1c3c8	-0.0017224485
102	0x3e413c21	0.18870594
103	0x3da2ab8c	0.07942876
104	0xbdf532cb	-0.119725786
105	0xbde2f06b	-0.11081012
106	0x3e1b871c	0.15188259
107	0xbdd5dd7f	-0.10442638
108	0x3e2d50cb	0.16925351
109	0xbdf6d766	-0.12052803
110	0x3cabe7d3	0.020984566
111	0xbc93adf5	-0.018027285
112	0xbd44f625	-0.048086304
113	0x3e2c9f71	0.16857697
114	0x3e7ff8b4	0.24997216
115	0x3e066629	0.13124909
116	0xbd911c25	-0.07085446
117	0x3e760ed8	0.240291
118	0x3ddcb295	0.10776249
119	0x3e6ff7f9	0.23434438
120	0x3e269bec	0.16270417
121	0xbd0851c6	-0.03328111
122	0x3db483aa	0.088141754
123	0x3ddbda96	0.10735051
124	0xbc1ea9d1	-0.009684042
125	0xbdf08007	-0.11743169
126	0x3e129432	0.14314345
127	0x3da3c90f	0.07997333
128	0xbbb2d8b1	-0.0054579605
129	0xbe0acf02	-0.1355553
130	0xbe168269	-0.14698185
131	0x3dc1586c	0.09440693
132	0xbb772590	-0.0037711598
133	0x3e1a1b61	0.15049507
134	0x3dff1725	0.12455586
135	0x3de4a689	0.111645766
136	0x3b9d1c16	0.004794608
137	0x3e23f188	0.16010106
138	0x3e364db7	0.17803083
139	0xbb341e3b	-0.002748384
140	0xbe01c9fe	-0.1267471
141	0x3dd34931	0.103166945
142	0x3d43c93a	0.047799326
143	0x3d83f0d2	0.06442417
144	0x3e49ec1d	0.19718976
145	0x3dacc918	0.08436793
146	0x3e1cbaf9	0.153057
147	0x3d97bfd7	0.074096374
148	0x3cc917dd	0.024547512
149	0x3e54f1b7	0.20795332
150	0xbe0abf0d	-0.13549443
151	0x3e4d469d	0.20046468
152	0x3e291729	0.16512741
153	0xbda39f07	-0.079893164
154	0x3e2de6ff	0.1698265
155	0x3dba737b	0.091040574
156	0xbe1efa3d	-0.15525146
157	0x3e6e0970	0.23245788
158	0x3dbf6186	0.09344773
159	0xbe3fac79	-0.18718137
160	0xbe126ccd	-0.14299317
161	0x3e1f0354	0.15528613
162	0x3dfcc44d	0.12342129
163	0x3d9df978	0.07713598
164	0xbdaa1039	-0.083038755
165	0x3bb8dad9	0.005641323
166	0xbe1daeee	-0.15398762
167	0xbd9d96f1	-0.076948054
168	0xbda7e0a7	-0.08197146
169	0xbd94a463	-0.07257917
170	0xbdef5835	-0.11686746
171	0x3df61d1c	0.12017271
172	0xbe1d5cb9	-0.15367402
173	0x3e019880	0.1265583
174	0x3e0a3882	0.13498119
175	0xbd792c78	-0.060833424
176	0xbd913f35	-0.07092134
177	0xbdec8dc8	-0.1155048
178	0xbe11c4ea	-0.14235273
179	0xbd7426fa	-0.059607483
180	0x3d2e32dc	0.042528972
181	0xbd06e386	-0.032931827
182	0x3d6ce1f4	0.057832673
183	0x3c2073ee	0.009793265
184	0xbd934c4f	-0.07192289
185	0xbe0c6c8d	-0.13713284
186	0xbd44caee	-0.04804509
187	0xbdc8d015	-0.098053135
188	0x3dac25ea	0.08405669
189	0x3c9f750e	0.019464996
190	0xbdbca0bc	-0.09210345
191	0xbda84c59	-0.08217687
192	0xbdb0117d	-0.085970856
193	0xbdfe6cb6	-0.12423079
194	0xbe020026	-0.12695369
195	0xbd297ed4	-0.04138072
196	0x3de99ed6	0.11407249
197	0x3d3f7de0	0.046750903
198	0xbd48ddfa	-0.04903982
199	0xbd7ab6c0	-0.06120944
200	0xbc0b5068	-0.008503057
201	0x3e0bc03a	0.13647547
202	0x3e7e1520	0.24812746
203	0xbd5e8ab4	-0.054331496
204	0x3e1cde9f	0.15319298
205	0x3d8ac915	0.067766346
206	0xbd937916	-0.0720083
207	0xbd3f6ec5	-0.046736497
208	0x3dfe3cdc	0.12413952
209	0x3d9ff34c	0.07810077
210	0x3d9ac0ae	0.07556282
211	0x3dd9894f	0.10621893
212	0x3db76e85	0.08956627
213	0x3e1152e7	0.14191781
214	0x3dfd513b	0.12369009
215	0x3e505b0a	0.20347229
216	0x3e32f3c0	0.17475796
217	0xbd013232	-0.03154201
218	0x3e553005	0.20819099
219	0xbdd19f47	-0.10235458
220	0xbe118740	-0.1421175
221	0x3e30bf40	0.17260456
222	0xbd3b8b6b	-0.045787256
223	0x3d152d92	0.036420412
224	0xbddb7d81	-0.10717297
225	0x3df06999	0.11738891
226	0xbd907b74	-0.07054797
227	0xbc8c3929	-0.0171171
228	0x3d547330	0.051867664
229	0x3e0d1e1c	0.13781017
230	0x3e3db814	0.18527251
231	0x3e26c98a	0.16287819
232	0x3e40ba6f	0.18821119
233	0x3cdab31b	0.026696732
234	0x3e2ee279	0.1707858
235	0x3d9806e2	0.07423188
236	0xbd8d6ea3	-0.06905868
237	0xbdef08ca	-0.11671598
238	0x3d97ff1b	0.074217044
239	0xbe0db188	-0.13837254
240	0x3d7ea291	0.062166754
241	0xbe0866f8	-0.1332053
242	0x3e0d021a	0.13770333
243	0xbd0598eb	-0.032616537
244	0x3cd8d718	0.026469752
245	0x3e1fd58c	0.15608805
246	0xbbe9e0d1	-0.007137396
247	0xbcf76e5d	-0.030203993
248	0xbe1b053f	-0.1513872
249	0xbdbfa2e8	-0.09357244
250	0xbe28ee35	-0.16497119
251	0xbdc7cc4c	-0.097557634
252	0x3d0dc40f	0.034610804
253	0xbdf0d0ee	-0.117586
254	0xbd464277	-0.04840323
255	0xbd9d27ee	-0.076736316

model.4.bias f4 [64]
0	0x3d8a9d6e	0.067683086
1	0xbdbd3519	-0.09238643
2	0xbd48ffa4	-0.049071923
3	0xbde6eed5	-0.11276022
4	0x3d78bab7	0.06072494
5	0x3e683e33	0.22679977
6	0x3cd4c987	0.025975002
7	0xbd28a041	-0.041168455
8	0xbc99961a	-0.018748332
9	0xbd67163f	-0.0564177
10	0xbd90dd74	-0.07073489
11	0xbb58a52b	-0.0033057432
12	0xbd8ee7e4	-0.069778234
13	0x3dd7e475	0.105416216
14	0xbcd06114	-0.025436915
15	0x3e0a3cb3	0.13499717
16	0xbd6bbaa7	-0.057551052
17	0x3e1aa99c	0.15103763
18	0x3e73a5b9	0.23793687
19	0x3e21012f	0.15723108
20	0x3da62ef8	0.08114427
21	0x3e0d0713	0.1377223
22	0xbdf286f3	-0.11842146
23	0xbc1e4079	-0.009658926
24	0x3d636c7f	0.05552339
25	0x3dc12ac7	0.09431987
26	0x3e16425d	0.14673753
27	0xbcfda5f7	-0.030962927
28	0x3d383541	0.044972662
29	0x3e2b15d0	0.1670754
30	0x3b9663dc	0.004589541
31	0x3e171a48	0.14756119
32	0x3dad8b5b	0.084738456
33	0x3de41206	0.1113625
34	0x3d357fa5	0.044311184
35	0xbdf3c42a	-0.1190265
36	0xbbaa1cfb	-0.005191443
37	0x3dce7882	0.10081579
38	0x3d9e8bec	0.07741532
39	0xbd12180e	-0.03566747
40	0xbceba492	-0.028764997
41	0xbcc78c8d	-0.024359012
42	0xbaf30609	-0.0018541227
43	0xbde14ae0	-0.110006094
44	0x3df3835f	0.118902914
45	0x3e3e401d	0.18579145
46	0x3e39ecd6	0.18156752
47	0xbb9f89a4	-0.004868703
48	0x3e350eed	0.17681475
49	0x3e4e2899	0.20132674
50	0x3ce64ec6	0.028113734
51	0xbe17a0ed	-0.14807482
52	0x3d4c9624	0.049947873
53	0xbd06175d	-0.032737125
54	0x3e3af939	0.18259133
55	0x3e2a3e9e	0.16625449
56	0x3e51d7a7	0.20492421
57	0xbdddd181	-0.10830975
58	0x3d9a5a5b	0.07536765
59	0x3da9ff4e	0.08300649
60	0x3e45884c	0.19290274
61	0xbdd2ccc4	-0.10292962
62	0x3dded297	0.108800106
63	0x3e202dee	0.15642521

model.7.weight f4 [1, 64]
0	0xbe128fae	-0.14312622
1	0x3dd2489f	0.102677576
2	0xbde42ae3	-0.111409925
3	0xbe1b5547	-0.1516925
4	0xbe3f6ce5	-0.18693884
5	0x3d958c4d	0.07302151
6	0xbe3d7d43	-0.18504815
7	0xbd7f00c3	-0.062256586
8	0x3dd378c4	0.103257686
9	0x3d617621	0.055044297
10	0x3dcd1708	0.100141585
11	0xbe48e071	-0.19616868
12	0xbd965aa1	-0.07341505
13	0xbe2156f3	-0.15755825
14	0xbde4ceca	-0.111722544
15	0x3d852040	0.06500292
16	0xbe3bc74e	-0.18337747
17	0xbe2f6551	-0.17128493
18	0x3e361bd8	0.17784059
19	0xbdbebd78	-0.09313482
20	0x3da5514f	0.08072149
21	0x3e365ed5	0.17809613
22	0xbe4aa378	-0.19788921
23	0x3ddd82bc	0.10815951
24	0xbe1c05b5	-0.15236552
25	0x3cc4c1ef	0.024018256
26	0xbde8fa14	-0.113758236
27	0x3d88f77b	0.06687828
28	0x3df379e3	0.118884824
29	0xbdc94412	-0.098274365
30	0x3d87c62c	0.06629595
31	0xbdcc9cc8	-0.09990841
32	0xbdeea032	-0.116516486
33	0x3cbb435a	0.022859264
34	0xbe28450e	-0.16432592
35	0xbde54857	-0.11195438
36	0x3df01441	0.11722613
37	0xbe33dcde	-0.17564723
38	0x3dc5a125	0.096498765
39	0x3d64ae0d	0.05583005
40	0xbe162803	-0.14663701
41	0x3e107d94	0.14110404
42	0x3e3267c7	0.174224
43	0x3d31b30c	0.043383643
44	0x3d737f0a	0.059447326
45	0xbe2b79a0	-0.16745615
46	0xbdb35492	-0.08756365
47	0xbe10bf5f	-0.14135502
48	0x3d843852	0.06456055
49	0x3d717a0e	0.05895429
50	0xbe40b10d	-0.1881754
51	0xbd10948f	-0.035297927
52	0x3e06cadc	0.13163322
53	0xbe40bb6d	-0.18821497
54	0x3e2b14aa	0.16707101
55	0xbdea0547	-0.11426788
56	0x3e346fd1	0.1762078
57	0xbe37452f	-0.17897485
58	0xbdcda938	-0.100420415
59	0xbe2dca13	-0.16971616
60	0x3e1b87bc	0.15188497
61	0x3dd32e69	0.103115864
62	0x3d6a6353	0.05722363
63	0xbe01747f	-0.12642096
