lightning_logs/version_11/checkpoints/epoch=199-step=1600.ckpt (torch, 464377 bytes, 23 tensors)

model.0.weight f4 [1024]
0.99625427 1.002947 0.99937385 1.0058442 0.99948496 1.0006876 0.9979081 1.0043504
1.0003852 1.0042653 0.99885154 1.0017301 1.0001457 0.99663025 1.0018808 1.0008109
0.9997693 0.99970514 1.0018637 1.0011029 0.9997399 1.0037371 1.0014724 0.999726
1.0028163 0.99986833 1.0001583 0.99949664 0.9997264 0.9998243 0.99947584 1.0010533
1.001455 1.0004631 0.997335 1.0008765 1.0018003 0.99984413 1.0015552 1.0008371
0.9985408 0.9991425 1.0014071 1.000171 0.99734885 0.9972887 0.99948454 1.001317
0.9999986 1.001596 1.0009556 1.000319 1.0016192 0.9985636 1.0000461 1.0017077
0.99888146 1.0000817 1.0031857 0.99961495 1.001691 0.9998712 1.0039603 1.0012252
0.9991326 1.0003251 0.9995986 0.999135 1.0017555 0.99956685 0.99889547 1.0001936
0.9987229 1.0003929 1.0004107 1.0011312 1.00315 0.9996181 1.0025904 0.9992012
1.0007265 1.000613 0.9993923 1.0000402 1.0039281 1.001984 0.9997396 1.0015996
1.0039732 0.9987968 1.0018827 1.0003576 1.0000207 0.99997 0.99785095 1.003214
1.0050783 1.0029175 0.99672365 0.9986503 0.9993452 1.0012221 0.99974906 1.0037781
1.002375 0.99819726 0.99942577 1.0016464 1.005442 1.0033174 1.0032778 1.0029976
0.9973371 1.0030476 1.0003641 1.0014948 1.0081034 0.9973039 0.99823153 1.0016054
0.99929094 0.99964345 1.0003363 1.0028253 1.0015557 1.0007321 1.0008795 0.9999124
0.99925 1.0046045 1.0021607 0.9986792 1.0028375 0.9987951 1.0013461 0.99591446
1.0025843 1.000238 1.0021126 0.99774903 0.999188 1.0004462 0.99744415 1.0006851
0.99823225 0.9986889 1.0009305 0.99726886 0.99922067 0.99960756 0.9997221 1.0027597
0.9985688 1.0005796 0.9997792 1.0029382 1.0031267 1.0001949 1.0010455 1.001644
0.9992653 1.0038269 1.0006844 0.99964654 1.0027082 0.9988313 0.9985816 1.0015335
0.9993482 0.9991554 0.997021 1.0029662 0.9993589 1.0018281 0.9994952 0.9984318
1.006339 0.99985397 1.0002444 0.9980579 1.0000893 0.99968755 1.0003337 0.9991991
1.0040574 1.0001209 0.99900484 1.0011225 1.0000459 1.0028619 0.9975201 0.9985314
1.0022397 0.99822915 1.0000519 1.0010052 1.0003692 1.0048736 0.9993347 1.0006192
1.002747 0.99967027 1.0016125 0.99948317 1.0020062 1.0013717 1.0050125 1.0034741
1.0014505 1.0006282 0.99930835 1.0000219 0.9981608 0.99596673 0.9990515 0.99918544
0.9974438 0.99962157 0.99558514 0.99923676 0.99905837 1.001308 1.0003164 1.0017939
1.0050312 0.99838835 0.9998137 1.0012902 1.0008314 1.0000514 0.9970675 1.0013268
1.0008473 1.0013963 0.99989086 0.99804604 1.0019332 1.001457 1.005657 1.0034872
0.9983508 1.0016795 1.0013369 0.9994888 1.0024974 0.9977612 1.0003692 1.0019016
0.9998108 0.9989031 1.0002456 0.9997673 1.0011572 1.0010449 1.0005066 1.0018035
00000000: 850a 7f3f 9160 803f f7d6 7f3f 81bf 803f
00000010: 3fde 7f3f 8816 803f e876 7f3f 8e8e 803f
00000020: 9f0c 803f c48b 803f bcb4 7f3f b138 803f
00000030: c604 803f 2923 7f3f a13d 803f 921a 803f
00000040: e1f0 7f3f adec 7f3f 123d 803f 2424 803f
00000050: f4ee 7f3f 757a 803f 3f30 803f 0bee 7f3f
00000060: 495c 803f 5ff7 7f3f 3005 803f 03df 7f3f
00000070: 12ee 7f3f 7cf4 7f3f a6dd 7f3f 8422 803f
00000080: ad2f 803f 2d0f 803f 5951 7f3f b91c 803f
00000090: fe3a 803f c9f5 7f3f f632 803f 6e1b 803f
000000a0: 5fa0 7f3f cec7 7f3f 1c2e 803f 9a05 803f
000000b0: 4152 7f3f 504e 7f3f 38de 7f3f 282b 803f
000000c0: e9ff 7f3f 4c34 803f 501f 803f 740a 803f
000000d0: 0f35 803f dda1 7f3f 8301 803f f537 803f
000000e0: b2b6 7f3f ad02 803f 6468 803f c4e6 7f3f
000000f0: 6937 803f 8ff7 7f3f c581 803f 2628 803f
00000100: 27c7 7f3f a70a 803f b2e5 7f3f 50c7 7f3f
00000110: 8639 803f 9de3 7f3f 9db7 7f3f 5806 803f
00000120: 4eac 7f3f e00c 803f 750d 803f 1125 803f
00000130: 3867 803f f9e6 7f3f e254 803f a6cb 7f3f
00000140: ce17 803f 1614 803f 2cd8 7f3f 5101 803f
00000150: b780 803f 0341 803f efee 7f3f 6a34 803f
00000160: 3282 803f 26b1 7f3f b13d 803f b80b 803f
00000170: ae00 803f 09fe 7f3f 2973 7f3f 5169 803f
00000180: 68a6 803f 9a5f 803f 4829 7f3f 8ca7 7f3f
00000190: 16d5 7f3f 0c28 803f 8eef 7f3f cd7b 803f
000001a0: d34d 803f db89 7f3f 5eda 7f3f f335 803f
000001b0: 53b2 803f b46c 803f 686b 803f 3a62 803f
000001c0: 7c51 7f3f dd63 803f ee0b 803f fb30 803f
000001d0: 8809 813f 4f4f 7f3f 1a8c 7f3f 9b34 803f
000001e0: 88d1 7f3f a2e8 7f3f 050b 803f 945c 803f
000001f0: fa32 803f fd17 803f d21c 803f 42fa 7f3f
00000200: d9ce 7f3f e196 803f cd46 803f 71a9 7f3f
00000210: fb5c 803f 09b1 7f3f 1c2c 803f 40f4 7e3f
00000220: af54 803f cc07 803f 3a45 803f 7b6c 7f3f
00000230: c9ca 7f3f 9f0e 803f 8058 7f3f 7316 803f
00000240: 268c 7f3f 13aa 7f3f 7e1e 803f 034d 7f3f
00000250: edcc 7f3f 48e6 7f3f caed 7f3f 6e5a 803f
00000260: 34a2 7f3f fe12 803f 88f1 7f3f 4760 803f
00000270: 7566 803f 6306 803f 4222 803f df35 803f
00000280: dacf 7f3f 667d 803f 6d16 803f d6e8 7f3f
00000290: be58 803f 68b3 7f3f 0ba3 7f3f 4032 803f
000002a0: 49d5 7f3f a6c8 7f3f c53c 7f3f 3261 803f
000002b0: fcd5 7f3f e73b 803f ebde 7f3f 3a99 7f3f
000002c0: b7cf 803f 6ef6 7f3f 0208 803f b980 7f3f
000002d0: ed02 803f 86eb 7f3f ef0a 803f 83cb 7f3f
000002e0: f484 803f f603 803f c8be 7f3f c824 803f
000002f0: 8101 803f c75d 803f 7a5d 7f3f c19f 7f3f
00000300: 6449 803f f28b 7f3f b301 803f f020 803f
00000310: 190c 803f b39f 803f 66d4 7f3f 4a14 803f
00000320: 045a 803f 64ea 7f3f d734 803f 21de 7f3f
00000330: bd41 803f f32c 803f 40a4 803f d771 803f
00000340: 882f 803f 9614 803f acd2 7f3f b800 803f
00000350: 7787 7f3f adf7 7e3f d7c1 7f3f 9eca 7f3f
00000360: 7a58 7f3f 33e7 7f3f abde 7e3f fbcd 7f3f
00000370: 4ac2 7f3f dc2a 803f 5e0a 803f c83a 803f
00000380: dda4 803f 6196 7f3f caf3 7f3f 472a 803f
00000390: 3e1b 803f af01 803f d13f 7f3f 7a2b 803f
000003a0: c41b 803f c12d 803f d9f8 7f3f f27f 7f3f
000003b0: 593f 803f be2f 803f 5eb9 803f 4572 803f
000003c0: eb93 7f3f 0937 803f cf2b 803f 7fde 7f3f
000003d0: d651 803f 476d 7f3f 190c 803f 503e 803f
000003e0: 9af3 7f3f 1db8 7f3f 0c08 803f c0f0 7f3f
000003f0: eb25 803f 3d22 803f 9a10 803f 193b 803f

model.0.bias f4 [1024]
0.0009789946 -0.0014783951 -6.222196e-05 -0.0006473457 0.0035310218 0.0019401151 -0.0038081289 0.0025813784
-0.004641944 -0.00096945796 -0.00042511587 0.0012882857 -0.0063264435 -0.0020872697 -0.0006120143 0.0013013886
2.5161982e-05 -0.0006378355 -0.0021792885 -0.0011210082 -0.0011660071 -0.0011602807 0.0021175682 -0.0040101605
0.0017688602 -0.004674058 0.0015338754 -0.0033305222 0.003811422 0.0013111554 0.005414837 0.0006073997
0.0012613795 -0.0006339611 0.0017629005 -0.0019832056 -0.00025089804 0.00046238978 0.0020974916 0.0002926617
-0.0020731732 0.001189823 -0.0020872697 -0.0026758101 -0.00031024584 -0.0037477384 0.0021100855 0.0011535254
-0.00038527002 -0.0028417415 0.0019559953 -0.0013168483 -0.002065698 -0.0032182375 -0.0053723324 -0.0011497046
-0.0018642984 0.0026012703 -0.0041157454 -0.002407664 0.00013448954 0.0006992771 0.0016474773 0.00063068717
-0.0009652808 0.0023074124 0.0033422646 0.00062399096 -0.00057834055 0.00439342 -0.0003195831 -0.003690957
0.0014389247 0.003247303 -0.0005658192 -0.002796357 0.0039619347 -0.0016930267 0.00067117764 0.00027397735
-0.0009068465 0.00023606447 -0.0048568673 -0.0014817165 0.00026575444 0.0027162787 0.0043229447 -0.0007999661
-0.0007723095 -0.0024727776 0.0005472228 -0.0007892498 0.0021886127 0.0014212717 0.0018798317 0.0001860613
-0.0010422848 0.0023950099 -0.0017778954 -9.928881e-05 0.00368404 8.8312285e-05 0.00044087842 0.004235918
0.00020542798 0.0021571321 -0.003427428 0.0019003474 0.0038434584 0.0016404382 0.0013239264 0.0019076273
0.0016722237 -0.003145662 -0.0010573998 -0.004820207 0.0017071812 -0.004247865 -0.0026308924 0.001773789
-0.0050560045 0.0034366853 -0.0005489619 0.004525821 0.0021558881 0.0028618297 -0.0025572141 0.00061534054
-0.00044185307 0.0011861309 0.0013598963 -0.00064865 0.002577378 0.0020370206 -0.0035826918 -0.0034965146
-0.0036690563 0.0019301166 0.0006031715 6.4957903e-06 0.0024332877 0.0014072388 0.0014557748 -0.0029966785
0.0002789323 0.0044611176 -0.0041971663 0.0008333885 0.0021103946 -0.0011616182 0.002717411 0.0020644972
0.00056555186 -0.0025061015 0.0028413672 -0.00035691672 0.0028944353 -0.0045189927 -0.0012044425 0.0047468054
-0.00273208 0.0014491455 0.005850319 0.0012880216 0.0022181922 0.0021592714 0.0007920591 -0.0011266522
0.0018883899 0.0011822184 0.0056349607 -0.0021428112 0.004526554 0.00030580375 0.00103589 0.0015656862
0.0020563647 0.0047572674 -0.0029309653 0.002937079 -0.00046788852 0.0034893544 -0.0029193424 3.2084357e-05
-0.0025786178 -0.0045327214 0.0034782933 -0.0042811697 -0.00056106405 -0.0024982844 -0.0031889786 -0.0013253316
-0.0010893394 0.0032786385 0.0024541037 -0.0012486534 -0.0012750439 0.0002102767 -0.0022143815 0.0027414972
0.00068573136 -5.162682e-05 0.004133934 -0.0039826804 -0.0007337179 0.0023644029 -0.0018811583 -0.0020472344
0.0032572837 8.379388e-05 -0.002763456 -0.0014729566 -0.002736653 0.0044761347 0.0023882594 -0.0019601022
-0.002281092 0.0011907623 0.003480029 -0.00096302934 0.00016253427 0.00029629434 -0.0021974384 -0.0027681522
-0.0016382176 0.005232888 0.004169317 0.0004824578 0.0020213756 -4.258072e-05 0.0011345054 0.0012283392
-0.0013989477 0.0006383993 -0.00050517666 0.002466016 -0.0059240977 0.00094976684 0.002568998 0.0024287803
0.0027856857 0.0027562391 -0.0016612769 0.0032540995 -0.0023676455 -0.0024399033 0.00127998 -0.001322694
0.0013612745 0.00042401964 -0.00083446276 -0.0005253658 0.0008672406 0.0001755877 0.0010113125 -0.0011927725
00000000: 9c51 803a b5c6 c1ba 297d 82b8 a2b2 29ba
00000010: b768 673b 764b fe3a cd91 79bb 582c 293b
00000020: 731b 98bb 3923 7eba 16e2 deb9 b2db a83a
00000030: 0e4e cfbb 93ca 08bb 966f 20ba 5b93 aa3a
00000040: f212 d337 6a34 27ba 65d2 0ebb cbee 92ba
00000050: b5d4 98ba 8f14 98ba e6c6 0a3b aa67 83bb
00000060: 19d9 e73a d728 99bb 510c c93a e444 5abb
00000070: 0dc9 793b 13db ab3a f26e b13b e739 1f3a
00000080: df54 a53a 6930 26ba 2011 e73a abf8 01bb
00000090: f78a 83b9 e86c f239 1276 093b 6370 9939
000000a0: 13de 07bb d6f3 9b3a 93ca 08bb a55c 2fbb
000000b0: 7ea8 a2b9 9e9c 75bb 5c49 0a3b e431 973a
000000c0: 11fe c9b9 833c 3abb 2830 003b 199a acba
000000d0: a960 07bb 11e9 52bb 640a b0bb afb1 96ba
000000e0: 795b f4ba 137a 2a3b 60dd 86bb e6c9 1dbb
000000f0: c305 0d39 b14f 373a 2af0 d73a b354 253a
00000100: e60a 7dba f537 173b e509 5b3b 5393 233a
00000110: c79b 17ba aef6 8f3b b88d a7b9 fce3 71bb
00000120: 4d9a bc3a b4d0 543b 7c53 14ba 1643 37bb
00000130: 1ed3 813b 8de8 ddba f8f1 2f3a 9ea4 8f39
00000140: 70b9 6dba 1388 7739 5b26 9fbb 2836 c2ba
00000150: f554 8b39 9803 323b 7da7 8d3b d1b4 51ba
00000160: d074 4aba 530e 22bb 8073 0f3a a8e5 4eba
00000170: d46e 0f3b f749 ba3a af64 f63a 7319 4339
00000180: 469d 88ba 99f5 1c3b 4508 e9ba 4639 d0b8
00000190: ef6f 713b 4c34 b938 b325 e739 75cd 8a3b
000001a0: 2768 5739 ac5e 0d3b b39e 60bb 1415 f93a
000001b0: 88e2 7b3b f903 d73a 9987 ad3a 5a09 fa3a
000001c0: 842e db3a 7327 4ebb 7398 8aba d4f2 9dbb
000001d0: 7fc3 df3a ad31 8bbb 0d6b 2cbb 7b7e e83a
000001e0: d7ac a5bb 033a 613b 36e8 0fba 574d 943b
000001f0: cd49 0d3b 898d 3b3b ef96 27bb ce4e 213a
00000200: 84a8 e7b9 f377 9b3a 8c3e b23a 2a0a 2aba
00000210: 3ae9 283b 897f 053b 98cb 6abb c825 65bb
00000220: 8d74 70bb f7fb fc3a 271e 1e3a 6af6 d936
00000230: cb77 1f3b 1973 b83a b2cf be3a ec63 44bb
00000240: a93d 9239 912e 923b 6288 89bb c177 5a3a
00000250: 8c4e 0a3b 7041 98ba 9716 323b 844c 073b
00000260: 8b41 143a 683d 24bb 3b36 3a3b 8d20 bbb9
00000270: 91b0 3d3b 0f14 94bb 62de 9dba 178b 9b3b
00000280: b20c 33bb 41f1 bd3a 08b4 bf3b d5d2 a83a
00000290: 175f 113b 9082 0d3b 30a2 4f3a 2dac 93ba
000002a0: da83 f73a abf4 9a3a 7aa5 b83b 686e 0cbb
000002b0: 7d53 943b 4954 a039 b3c6 873a b637 cd3a
000002c0: 13c4 063b dae2 9b3b 7015 40bb 027c 403b
000002d0: ef4e f5b9 a7ad 643b 7052 3fbb 5192 0638
000002e0: 07fe 28bb 3987 94bb 14f4 633b 0e49 8cbb
000002f0: 5f14 13ba 42ba 23bb 2ffe 50bb c0b6 adba
00000300: 2ac8 8eba 6dde 563b 07d5 203b dba9 a3ba
00000310: 601f a7ba b97d 5c39 281f 11bb b1aa 333b
00000320: a7c2 333a e089 58b8 f475 873b 2581 82bb
00000330: fa56 40ba 19f4 1a3b 3391 f6ba e52a 06bb
00000340: 2778 553b 7fba af38 191b 35bb 3910 c1ba
00000350: 6b59 33bb 8aac 923b 5884 1c3b 0f75 00bb
00000360: 607e 15bb 5a13 9c3a 3311 643b ce73 7cba
00000370: f66d 2a39 f457 9b39 e602 10bb e369 35bb
00000380: 76b9 d6ba a578 ab3b c49e 883b 64f2 fc39
00000390: 0e79 043b b398 32b8 afb3 943a 3900 a13a
000003a0: e55c b7ba 405a 273a d56d 04ba e29c 213b
000003b0: ef1e c2bb c6f9 783a a25c 283b 2c2c 1f3b
000003c0: 0d90 363b 05a2 343b 34bf d9ba bb42 553b
000003d0: 802a 1bbb c9e6 1fbb 00c5 a73a 3f5e adba
000003e0: cb6c b23a f44e de39 d9bf 5aba b4b8 09ba
000003f0: 8857 633a f71d 3839 048e 843a ce56 9cba

model.0.running_mean f4 [1024]
-0.05741802 -0.01704304 0.0072187004 -0.026310252 0.0035924492 -0.014333911 0.039054316 -0.0042531686
-0.004490721 0.033921104 -0.0114673395 0.00549695 -0.002452168 -0.012213628 0.0041009113 0.01091642
-0.03508826 -0.024190748 0.000340071 0.008407683 0.015805285 -0.0005950754 0.01976742 0.07198159
0.019214408 0.029493373 -0.025681317 0.01113857 -0.005479256 -0.012125567 0.02481182 -0.015309149
-0.008087993 0.0091349585 -0.0029233196 0.015560862 -0.010783249 0.005814015 -0.027471557 -0.0059565976
0.010767279 0.025773456 -0.0009004973 -0.04461255 -0.024517652 0.0029143968 -2.1255008e-05 -0.023702592
-0.011303024 0.08286469 -0.026016328 -0.016933598 -0.019403275 0.00932591 0.009698834 -0.0092681125
0.032810576 0.009425947 -0.006527304 -0.011097852 0.009378732 -0.021059817 -0.012557127 0.02210084
0.0021150005 -0.0145767 0.0058069206 0.00761714 0.00045271165 0.0058693523 0.037586845 0.011530161
-0.015919236 0.042316586 0.029453078 -0.012716828 0.026219424 -0.016163414 0.017356366 -0.018158684
-0.008930856 0.027947793 -0.051441263 0.022357937 -0.017858973 -0.040145133 0.023953917 -0.018681634
0.012314533 0.021022245 -0.02354338 -0.005204515 -0.011944398 0.01264392 0.012138587 0.020119732
0.009030989 0.056872133 -0.008429972 0.023448601 0.014084035 0.025693476 -0.002575385 0.012133792
0.07476348 0.0173835 0.002784838 -0.023064354 -0.030585924 0.049844746 -0.011955417 0.0017909107
0.06555924 -0.003975024 -0.005607404 0.018791836 -0.0026054801 -0.007380858 -0.00025045048 -0.0062930956
-0.021524884 -0.00841123 -0.01605339 -0.012741145 -0.049595192 -0.021999449 -0.011379414 -0.02024924
0.020285532 -0.018775221 -0.064261764 -0.014446332 0.016708793 -0.0036302332 -0.00062642427 -0.028217072
0.04386275 0.023261808 -0.0023392246 -0.022980196 0.0026111363 -0.042372484 -0.011299774 -0.005831329
-0.0022131647 -0.01040679 0.043973375 -0.02349311 -0.032200083 0.0014126302 -0.007163398 -0.0004897632
0.0072571714 -0.00066379376 0.016689114 0.02793151 0.026790395 -0.008382663 -0.0047203046 0.0068557784
0.0020332062 0.028210381 0.017191635 0.0036947534 -0.005906178 -0.0052053067 -0.055549365 -0.006340225
-0.037783027 0.026809145 0.029307844 0.030279016 0.02525147 -0.0072038397 0.023108032 0.010397625
-0.012790694 -0.0130124055 -0.018605266 -0.0024541027 -0.031942897 -0.01660927 -0.0061871866 0.011538613
-0.011539315 0.024264956 0.04739779 -0.015418469 -0.015826236 -0.032820344 0.036159102 0.011088183
0.013846573 0.03195439 0.012062203 0.010430799 -0.009927097 -0.0032087928 0.019656792 0.032205578
0.006314414 -0.011707989 0.0014737272 -0.02514679 -0.024583124 0.008253447 -0.0122048035 -0.01364365
0.018128876 -0.009074852 -0.03270001 -0.021908501 0.013841049 0.025478918 0.0060145753 -0.014419436
0.012488565 0.026713427 -0.0075259744 -0.006391277 0.010485084 -0.019662332 -0.047849704 -0.021616917
0.021696884 0.012773847 0.0035761013 -0.020019118 0.0025415572 -0.021021118 -0.0092402985 -0.031945426
-0.004756472 -0.029654047 -0.012040428 -0.017194878 -0.029878609 0.035363056 0.020961514 -0.017086826
0.032081604 -0.0015396461 -0.0056948713 0.025323026 -0.02214042 -0.0013477901 0.011838496 0.023196375
-3.880111e-05 0.026644407 -0.017788833 0.022649685 0.017957032 0.0010158858 0.01535822 0.023187716
00000000: 282f 6bbd d89d 8bbc d98a ec3b 9988 d7bc
00000010: 4c6f 6b3b c8d8 6abc 6bf7 1f3d 2a5e 8bbb
00000020: e626 93bb dbf0 0a3d 82e1 3bbc c21f b43b
00000030: 8db4 20bb ab1b 48bc f060 863b c9da 323c
00000040: b5b8 0fbd ad2b c6bc 8f4b b239 61c0 093c
00000050: 167a 813c d6fe 1bba 49ef a13c 156b 933d
00000060: 8967 9d3c 169c f13c a061 d2bc 8c7e 363c
00000070: 558b b3bb 50aa 46bc 2842 cb3c 3ad3 7abc
00000080: 8083 04bc cbaa 153c 2a95 3fbb fcf2 7e3c
00000090: 39ac 30bc 7e83 be3b 080c e1bc 902f c3bb
000000a0: 3e69 303c db22 d33c 5a0f 6cba a6bb 36bd
000000b0: 3ed9 c8bc 77ff 3e3b c84c b2b7 f02b c2bc
000000c0: 5230 39bc f6b4 a93d 3220 d5bc 54b8 8abc
000000d0: 9ef3 9ebc b4cb 183c dce7 1e3c 48d9 17bc
000000e0: 6264 063d 4a6f 1a3c ffe2 d5bb c4d3 35bc
000000f0: 41a9 193c a385 acbc 68bc 4dbc d20c b53c
00000100: d29b 0a3b 1cd3 6ebc fb47 be3b 3499 f93b
00000110: ee59 ed39 b253 c03b aaf4 193d 00e9 3c3c
00000120: 0f69 82bc 2854 2d3d 9547 f13c 3e5a 50bc
00000130: 1eca d63c 2369 84bc f02e 8e3c 85c1 94bc
00000140: ba52 12bc c5f2 e43c 13b4 52bd fe27 b73c
00000150: fb4c 92bc 396f 24bd 013b c43c 3a0a 99bc
00000160: e5c2 493c d836 ac3c 0cde c0bc a38a aabb
00000170: 70b2 43bc 7228 4f3c ede0 463c 23d2 a43c
00000180: b7f6 133c c1f2 683d de1d 0abc 4817 c03c
00000190: b9c0 663c 207b d23c cac7 28bb d0cc 463c
000001a0: 981d 993d d767 8e3c d481 363b 75f1 bcbc
000001b0: 558f fabc 012a 4c3d a7e0 43bc febc ea3a
000001c0: ec43 863d eb40 82bb 50be b7bb 56f1 993c
000001d0: b4c0 2abb 20db f1bb e54e 83b9 5036 cebb
000001e0: f454 b0bc 41cf 09bc 6682 83bc 3cc0 50bc
000001f0: 5424 4bbd 3038 b4bc b970 3abc bce1 a5bc
00000200: d82d a63c 7ece 99bc ac9b 83bd 4fb0 6cbc
00000210: e1e0 883c 35e9 6dbb 9f36 24ba 7d27 e7bc
00000220: 6da9 333d 8c8f be3c ad4d 19bb f740 bcbc
00000230: 991f 2b3b c58e 2dbd b022 39bc bc14 bfbb
00000240: be0a 11bb 3e81 2abc 6d1d 343d 9f74 c0bc
00000250: 3ce4 03bd 0128 b93a f0ba eabb 7463 00ba
00000260: 91cd ed3b 7202 2eba 9cb7 883c 9fd0 e43c
00000270: 8877 db3c 7057 09bc c9ac 9abb 70a6 e03b
00000280: 8a3f 053b 7519 e73c 79d5 8c3c ad23 723b
00000290: 9d88 c1bb 4791 aabb bb87 63bd aac1 cfbb
000002a0: 60c2 1abd da9e db3c 0117 f03c b30b f83c
000002b0: 2cdc ce3c 300e ecbb 0e4d bd3c cd5a 2a3c
000002c0: 0f90 51bc fc31 55bc 126a 98bc 03d5 20bb
000002d0: 8ed6 02bd 2a10 88bc e2bd cabb 730c 3d3c
000002e0: 650f 3dbc 4dc7 c63c 2f24 423d bf9d 7cbc
000002f0: 06a6 81bc a06e 06bd 911b 143d 36ab 353c
00000300: bddc 623c 9be2 023d 8ca0 453c f1e5 2a3c
00000310: 43a5 22bc 9c4a 52bb 4807 a13c ffe9 033d
00000320: 25e9 ce3b ddd2 3fbc 142a c13a a400 cebc
00000330: 8c62 c9bc 7739 073c a8f6 47bc 9e89 5fbc
00000340: 0283 943c b0ae 14bc 72f0 05bd 7579 b3bc
00000350: 91c5 623c 2ab9 d03c ea15 c53b 803f 6cbc
00000360: d79c 4c3c 1ed6 da3c 739c f6bb eb6d d1bb
00000370: a1c9 2b3c e612 a1bc 0dfe 43bd f615 b1bc
00000380: aabd b13c 6649 513c 065d 6a3b 22ff a3bc
00000390: 4190 263b 7b34 acbc 9f64 17bc 35d9 02bd
000003a0: 2edc 9bbb 0bed f2bc 3745 45bc 46dc 8cbc
000003b0: fcc3 f4bc dad8 103d 7bb7 ab3c acf9 8bbc
000003c0: 0068 033d f3cd c9ba 0b9c babb 3c72 cf3c
000003d0: d35f b5bc 55a8 b0ba 40f6 413c 5306 be3c
000003e0: 60be 22b8 5f45 da3c e3b9 91bc d58b b93c
000003f0: a01a 933c 7927 853a 0ba1 7b3c 2af4 bd3c

model.0.running_var f4 [1024]
0.00013821707 0.0001457461 0.00015407545 0.00012658862 0.00014529175 0.00018812435 0.00014042895 0.00011433332
0.00012353732 0.00017261934 0.00018260696 0.00017914457 0.00017838865 0.00013350903 0.00015525633 0.000120121906
0.00010342746 0.00015538899 0.0002302344 0.00015101451 0.00015801248 0.0001423397 0.00012088353 0.00018553037
0.00013331226 0.00015533164 0.00017284795 0.00011728729 0.00015506105 0.00038846018 0.00022147327 0.00021305514
0.00019854109 0.00011249396 0.00020791721 0.00020064233 0.00012645872 8.582659e-05 0.00013629552 0.00024175383
0.00027760724 0.00017376298 0.00020251126 0.00013060577 0.00020424732 0.00022158494 0.000245555 0.00023552736
0.000117495816 0.00034578913 0.00025818462 0.0002490016 0.00016989672 0.00021881728 0.00014051137 0.00012482774
0.0002590367 9.2657894e-05 0.0001332868 0.00016274286 0.0002029659 0.00020045698 0.00025916478 0.00018384014
0.00013589696 9.588199e-05 0.0001804047 0.00014007471 0.00014784558 0.00018785575 0.00021962372 0.00021701999
0.00021094579 0.00016595471 0.00016593242 0.00021446947 0.00011145538 0.00019639157 0.00017391762 0.00020905182
0.00018831415 0.00011083722 0.0001974762 0.00013120363 0.000120863384 0.0003298755 0.00016682521 0.00026877958
0.000113917326 0.000272376 0.0003390586 0.00019461405 0.00012874404 0.00022761311 0.0001566198 0.00018848976
0.0001678592 0.00017727268 0.00019924114 0.00035459583 0.00016834874 0.000112412745 0.0002058754 0.00010932531
0.0006823316 0.00017848112 0.00019427507 0.00022222263 0.0001657288 0.00014598596 0.00015848181 0.00012667137
0.00017547714 0.00022411351 0.00023363519 0.00025727198 0.00011300093 0.0001573328 0.00023120693 0.0002687824
0.00023317643 0.00013994459 0.0001579913 0.00016589546 0.00014579152 0.00011518924 9.976949e-05 0.00012300684
0.00021751295 0.00027796192 0.00015627043 9.7369266e-05 0.00018327966 0.00013590306 0.0001279943 0.00020020317
0.00022149384 0.00015778054 0.00015903664 0.00017058958 0.00012985156 0.00014014846 0.00017457636 0.00015337346
0.00036580468 0.00021610288 0.00019758605 0.00013417736 0.00028665786 0.00019210123 0.00027464298 0.00015105096
0.00013152213 0.0002259504 0.0001238087 0.00017243424 0.0001475481 0.00014914673 0.0002982677 0.00015250446
0.00015149091 0.0001392734 0.00012888249 0.00013784756 0.00012088774 0.00010505134 0.00055636605 0.00015002913
0.00019777165 0.00018414068 0.00015027836 0.0001732696 0.00018889227 0.00012736527 0.00025720804 0.00021085651
0.000118125565 0.00015421056 0.0001113014 0.00028711002 0.00020074102 0.00023675537 0.00026554248 0.00020641841
0.00015730155 0.00014961437 0.00021420616 0.00015368625 0.00017501126 0.00016059756 0.00024262298 0.0001748921
0.00025269485 0.00013802128 0.00015830337 0.0002499524 0.00018824337 0.00017070794 0.00017094771 0.00016450365
0.00015559288 0.00017426131 0.00018153597 0.000121514706 0.00014617025 0.00015666148 0.00014753813 0.00015994992
0.0001679776 0.00017416035 0.00019480924 0.00013729275 0.00014551602 0.0001634703 0.0005794723 0.00011474154
0.00012663851 0.00014396687 0.0001103131 0.00018913705 0.00016099717 0.00012713598 0.00014978873 0.00018559673
0.00022361033 0.00017903374 0.00012810454 0.00011085099 0.00011366677 0.00015218466 0.00014136652 0.0004072931
0.0001857841 0.0001915767 0.000118236516 0.00011222321 0.00018211475 0.00014415753 0.00013309921 0.00013314158
0.00014934447 0.00016351143 0.00019806031 0.00021499541 0.00020858581 0.00045366999 0.00013221396 0.000119777025
0.00015889863 0.00011567364 0.00014904121 0.0001417423 0.00019397319 0.0001087588 0.00015701116 0.00013621317
00000000: 5dee 1039 6cd3 1839 508f 2139 e0bc 0439
00000010: 7559 1839 3f43 4539 1c40 1339 3cc6 ef38
00000020: cc89 0139 2701 3539 2f7a 3f39 c1d8 3b39
00000030: d70d 3b39 8ffe 0b39 4ecc 2239 f5e9 fb38
00000040: 32e7 d838 eaef 2239 136b 7139 a659 1e39
00000050: 27b0 2539 0641 1539 da82 fd38 ee8a 4239
00000060: bdc9 0b39 85e0 2239 853e 3539 22f8 f538
00000070: e297 2239 3eaa cb39 473b 6839 8e67 5f39
00000080: 782f 5039 bcea eb38 5a04 5a39 8463 5239
00000090: 019a 0439 cdfd b338 8dea 0e39 4d7f 7d39
000000a0: d08b 9139 2534 3639 3459 5439 38f3 0839
000000b0: 392b 5639 4159 6839 d6bd 8039 e5f7 7639
000000c0: 1668 f638 084b b539 f45c 8739 6e8c 8239
000000d0: 4e26 3239 5172 6539 3c56 1339 31e4 0239
000000e0: 51cf 8739 5451 c238 e7c2 0b39 f4a5 2a39
000000f0: 3ed3 5439 c331 5239 82e0 8739 36c5 4039
00000100: 907f 0e39 4014 c938 052b 3d39 05e1 1239
00000110: ff06 1b39 25fb 4439 cb4a 6639 dc8f 6339
00000120: 5431 5d39 2104 2e39 25fe 2d39 36e3 6039
00000130: 27bd e938 76ee 4d39 a85d 3639 ec34 5b39
00000140: 3276 4539 4871 e838 9d11 4f39 b593 0939
00000150: 0978 fd38 24f3 ac39 cded 2e39 fcea 8c39
00000160: e6e6 ee38 b0cd 8e39 adc3 b139 5011 4c39
00000170: 77ff 0639 6eab 6e39 4f3a 2439 56a5 4539
00000180: 5c03 3039 46e2 3939 63eb 5039 0ce9 b939
00000190: c586 3039 22bf eb38 42e0 5739 9445 e538
000001a0: 80de 323a a926 3b39 51b6 4b39 6f04 6939
000001b0: 7cc7 2d39 cf13 1939 232e 2639 16d3 0439
000001c0: 4900 3839 0300 6b39 f8fb 7439 76e2 8639
000001d0: eafa ec38 b4f9 2439 2370 7239 5deb 8c39
000001e0: d280 7439 17be 1239 77aa 2539 39f4 2d39
000001f0: 9ddf 1839 c191 f138 563b d138 66fb 0039
00000200: 3014 6439 6bbb 9139 86dc 2339 ba32 cc38
00000210: c22e 4039 3381 0e39 3536 0639 a1ed 5139
00000220: cd40 6839 e471 2539 13c3 2639 4be0 3239
00000230: c328 0839 d1f4 1239 7c0e 3739 e0d2 2039
00000240: 79c9 bf39 ad99 6239 1a2f 4f39 f6b1 0c39
00000250: 914a 9639 c86e 4939 f5fd 8f39 6f63 1e39
00000260: 34e9 0939 19ed 6c39 a5d2 0139 77cf 3439
00000270: 24b7 1a39 4564 1c39 d060 9c39 9be9 1f39
00000280: 88d9 1e39 eb09 1239 a124 0739 2c8b 1039
00000290: 1c85 fd38 024f dc38 18d9 113a 2351 1d39
000002a0: ec60 4f39 e315 4139 0a94 1d39 b4af 3539
000002b0: 6211 4639 5b8d 0539 e1d9 8639 5d19 5d39
000002c0: 2eba f738 95b3 2139 7c6a e938 4187 9639
000002d0: 027e 5239 8941 7839 8238 8b39 0572 5839
000002e0: 50f1 2439 cde1 1c39 879c 6039 d726 2139
000002f0: 3a83 3739 1466 2839 9c68 7e39 3e63 3739
00000300: 217c 8439 ceb9 1039 3dfe 2539 0b0c 8339
00000310: 3263 4539 1000 3339 6d40 3339 9d7e 2c39
00000320: a526 2339 eab9 3639 b15a 3e39 b6d5 fe38
00000330: 4745 1939 7f45 2439 77b4 1a39 3bb8 2739
00000340: 2523 3039 d09e 3639 b545 4c39 3ef6 0f39
00000350: a995 1839 3969 2b39 bae7 173a 65a1 f038
00000360: 44ca 0439 d0f5 1639 e557 e738 1753 4639
00000370: 59d1 2839 ce4f 0539 9b10 1d39 be9c 4239
00000380: f178 6a39 01bb 3b39 cd53 0639 ac78 e838
00000390: 6260 ee38 c293 1f39 c93b 1439 f489 d539
000003a0: 0acf 4239 fbe1 4839 bff5 f738 6159 eb38
000003b0: 0ef6 3e39 fe28 1739 8c90 0b39 ec9b 0b39
000003c0: 5a99 1c39 4474 2b39 69ae 4f39 6470 6139
000003d0: d4b7 5a39 8eda ed39 eaa2 0a39 cd30 fb38
000003e0: 079e 2639 d095 f238 f247 1c39 a9a0 1439
000003f0: 4865 4b39 7015 e438 5da3 2439 72d4 0e39

model.1.weight f4 [32, 1024]
0.008484932 -0.010107853 0.01110038 0.014616009 0.0005940582 0.002832144 0.029557228 0.0070481836
0.0020314187 0.021683559 0.00900547 0.0064984327 0.012832702 -0.013296284 0.004569576 -0.0036444345
-0.014533247 -0.021695286 0.013720222 0.02362455 -0.01851868 0.031518973 -0.01727854 0.029115738
-0.02926766 -0.029189393 0.024196014 0.012604637 -0.018785205 0.011277869 -0.007768902 -0.018273024
0.011186129 0.016554937 -0.01283533 -0.0012294388 -0.006372436 -0.006802735 0.009231743 -0.021374868
-0.030212522 0.012037156 0.00817015 -0.030690113 -0.00426863 0.009540744 -0.030753981 -0.021221828
0.02753309 -0.021878902 -0.028390078 -0.0060894303 0.009772215 0.008328376 0.027102498 -0.018387739
-0.020462466 0.0063938093 -0.014769537 -0.014728339 -0.028244736 -0.00447496 0.019540444 0.019425219
-0.0016596054 -0.001414701 -0.027894607 -0.011941053 0.0062190425 0.016790668 -0.0076367944 0.013191352
0.027447674 -0.012105229 -0.026506655 0.028352428 0.010272773 0.00881198 -0.00035721037 -0.022348134
0.021614954 0.018946398 -0.01695817 0.02832379 0.02646737 -0.015552668 -0.022704352 -0.0019476381
0.001379094 -0.0024722572 -0.0019289135 0.0127154235 -0.00030759184 0.017046379 -0.03197035 0.0061361887
0.024981892 0.022559378 0.00039756118 0.0017687218 0.026569402 0.026336506 -0.03041012 0.013119803
0.019534582 -0.0018656581 0.028061453 -0.03111269 -0.017940119 0.00024160587 -0.0026523808 0.030091153
-0.014576246 0.004435097 0.025109928 -0.006850773 -0.019193659 -0.028578555 -0.004255822 0.0132496245
-0.02089651 -0.02947726 0.016681626 -0.004961878 -0.005419827 -0.0043493593 -0.0105695985 0.0036454322
-0.016253 0.014784758 -0.017093318 -0.030611357 0.01918711 -0.0017939877 0.021086246 0.010881142
-0.01205902 -0.020618277 0.009676793 -0.016808935 0.014885272 0.011825437 0.016901242 -0.01947347
-0.013896016 -0.007561531 0.016784698 0.021125896 -0.023773547 0.00668381 -0.01516402 -0.0031880925
-0.006615354 0.023154836 0.008557954 -0.02639 0.0005355052 -0.004539865 -0.031383257 -0.023307411
-0.004110862 -0.02900157 0.015544882 -0.009050654 0.0031502557 0.01714431 0.016594129 -0.018128432
0.00048666698 0.0075036543 0.015999932 0.016319081 0.000825889 0.012908628 -0.025850007 0.024977842
-0.01858121 -0.021462966 0.014684835 0.02316321 0.022919053 0.008499227 -0.02673491 -0.003958928
0.020017399 -0.011283147 -0.020604994 -0.032181043 -0.016849393 -0.0071650133 0.008010014 -0.007073097
0.017016958 -0.018434538 -0.0020403056 0.011317592 0.019731564 0.018926842 0.0091355555 -8.614365e-05
-0.027381938 0.02271698 0.013235129 0.012502466 -0.017135307 0.017681632 0.019610183 -0.009434442
-0.020358408 -0.004982559 -0.00043825764 0.011345306 -0.0102558695 -0.016556513 -0.014949762 -0.011657682
0.011565088 -0.0049501383 -0.011277062 -0.015052551 0.026474217 0.024956372 0.015266521 0.017473841
-0.0318397 -0.022792459 0.0030246503 0.029298935 -0.026797447 -0.0127087785 0.027725127 0.01020326
0.00797899 0.0023795024 0.009161619 -0.0018004646 -0.0006753178 0.020853622 0.018897874 -0.014801519
0.01691828 0.009770127 0.0017403627 0.014526203 -0.021270748 0.01147972 -0.0018991521 0.03224874
0.027581347 0.009885199 0.013040589 -0.027403062 0.00649291 -0.014179116 -0.027420018 0.023814898
00000000: 6204 0b3c 699b 25bc 5ede 353c fc77 6f3c
00000010: 92ba 1b3a 7e9b 393b 0022 f23c 73f4 e63b
00000020: 8d21 053b b8a1 b13c ae8b 133c cef0 d43b
00000030: 4140 523c a8d8 59bc 62bc 953b 77d7 6ebb
00000040: db1c 6ebc 50ba b1bc c8ca 603c 4688 c13c
00000050: 7db4 97bc 0a1a 013d ba8b 8dbc 2184 ee3c
00000060: bbc2 efbc 981e efbc b836 c63c ae83 4e3c
00000070: 6ee3 99bc d0c6 383c 4692 febb 4fb1 95bc
00000080: 0746 373c 389e 873c 474b 52bc 1f25 a1ba
00000090: decf d0bb 7ae9 debb bd40 173c 591a afbc
000000a0: 4080 f7bc 7e37 453c 18dc 053c d569 fbbc
000000b0: dddf 8bbb c850 1c3c c6ef fbbc 66d9 adbc
000000c0: 138d e13c 623b b3bc 4f92 e8bc d889 c7bb
000000d0: a41b 203c be73 083c 0f06 de3c e2a1 96bc
000000e0: e7a0 a7bc 2983 d13b eefb 71bc 224f 71bc
000000f0: 8161 e7bc afa2 92bb 4813 a03c a321 9f3c
00000100: 1e87 d9ba 7d6d b9ba 3b83 e4bc 68a4 43bc
00000110: 1cc9 cb3b 958c 893c 133e fabb 8a20 583c
00000120: f2d9 e03c 0355 46bc 7c24 d9bc 5a43 e83c
00000130: 224f 283c 1f60 103c f747 bbb9 6f13 b7bc
00000140: d811 b13c 7a35 9b3c dceb 8abc 4b07 e83c
00000150: 19d2 d83c 9ed0 7ebc 7afe b9bc e447 ffba
00000160: b7c2 b43a 9805 22bb 99d3 fcba 5a54 503c
00000170: 4744 a1b9 d9a4 8b3c 57f3 02bd 1512 c93b
00000180: d3a6 cc3c 72ce b83c c26f d039 75d4 e73a
00000190: 13a8 d93c a8bf d73c a51e f9bc 71f4 563c
000001a0: fd06 a03c 1989 f4ba 22e1 e53c 0ae0 febc
000001b0: 28f7 92bc 9557 7d39 91d3 2dbb b981 f63c
000001c0: 35d1 6ebc 4a54 913b 56b3 cd3c 737c e0bb
000001d0: 053c 9dbc 931d eabc 6c74 8bbb f414 593c
000001e0: 282f abbc 4b7a f1bc e8a7 883c 4097 a2bb
000001f0: ce98 b1bb 1285 8ebb 1c2c 2dbc 34e8 6e3b
00000200: 0325 85bc c53b 723c 4907 8cbc abc4 fabc
00000210: 492e 9d3c 3d24 ebba 10bd ac3c d146 323c
00000220: 3293 45bc a9e7 a8bc 698b 1e3c e4b2 89bc
00000230: 5be1 733c 7abf 413c 7974 8a3c d486 9fbc
00000240: 1eac 63bc b8c6 f7bb 1080 893c 3710 ad3c
00000250: bec0 c2bc dd03 db3b 8272 78bc 51ef 50bb
00000260: 9dc5 d8bb 36af bd3c a936 0c3c d72f d8bc
00000270: 2561 0c3a 26c3 94bb bb8b 00bd 2fef bebc
00000280: 69b4 86bb b394 edbc f6af 7e3c 3249 14bc
00000290: 8574 4e3b 3972 8c3c 69f0 873c 1482 94bc
000002a0: 5627 ff39 37e1 f53b 4a12 833c 98af 853c
000002b0: 7980 583a b67e 533c 65c3 d3bc 559e cc3c
000002c0: 9f37 98bc 1ad3 afbc aa98 703c c6c0 bd3c
000002d0: bdc0 bb3c 5840 0b3c 2c03 dbbc e5b9 81bb
000002e0: 87fb a33c f3dc 38bc cecb a8bc 45d0 03bd
000002f0: bd07 8abc 7dc8 eabb 6f3c 033c 70c5 e7bb
00000300: 2667 8b3c 0704 97bc a6b6 05bb 6c6d 393c
00000310: 17a4 a13c 770c 9b3c 4cad 153c 05a8 b4b8
00000320: 1650 e0bc f618 ba3c 28d8 583c 25d7 4c3c
00000330: 585f 8cbc 12d9 903c 89a5 a03c eb92 1abc
00000340: adc6 a6bc bc44 a3bb f2c5 e5b9 aae1 393c
00000350: 3c08 28bc 86a1 87bc d9ef 74bc ddff 3ebc
00000360: 7f7b 3d3c c534 a2bb 6dc3 38bc fa9e 76bc
00000370: 75e0 d83c 4e71 cc3c 6e20 7a3c 4d25 8f3c
00000380: 586a 02bd 40b7 babc 3639 463b 5204 f03c
00000390: 5286 dbbc 7b38 50bc ce1f e33c 932b 273c
000003a0: 4fba 023c 6df1 1b3b 9d1a 163c 91fd ebba
000003b0: cf07 31ba 37d5 aa3c b7cf 9a3c 1282 72bc
000003c0: 3498 8a3c e212 203c e21c e43a 50ff 6d3c
000003d0: fe3f aebc 6f15 3c3c f8ec f8ba 4117 043d
000003e0: 47f2 e13c 88f5 213c 32a8 553c 637c e0bc
000003f0: 7ac2 d43b 864f 68bc f29f e0bc 7617 c33c

model.1.bias f4 [32]
0.024163907 0.0025195172 -0.005981617 -0.02583813 -0.021883873 -0.0094372695 0.012900906 0.010542897
0.0012159504 0.008399607 0.032164596 0.03288781 -0.02880694 -0.024137106 0.029697843 -0.01270843
-0.0028501702 0.030771468 0.004432447 -0.018058544 -0.015376708 -0.016334578 -0.015794363 0.020653222
0.022288831 0.017456507 0.02698861 0.023905514 0.0099363355 0.015792519 0.010855909 0.030008852
00000000: 63f3 c53c 7c1e 253b 7101 c4bb 7caa d3bc
00000010: cf45 b3bc c79e 1abc 525e 533c 1dbc 2c3c
00000020: 8660 9f3a 819e 093c 06bf 033d 5eb5 063d
00000030: 88fc ebbc 2ebb c5bc e448 f33c 0537 50bc
00000040: ecc9 3abb 7214 fc3c 0f3e 913b 83ef 93bc
00000050: 96ee 7bbc 18d0 85bc 2e63 81bc f230 a93c
00000060: 1197 b63c f300 8f3c 3817 dd3c 7fd5 c33c
00000070: 03cc 223c 505f 813c fcdc 313c 20d5 f53c

model.4.weight f4 [64, 32]
0.0046893815 0.016561171 0.16754802 0.097987674 0.09979907 0.08278707 -0.041682225 0.122121766
0.054505855 0.009623331 0.052208334 -0.08462171 -0.057197057 0.0074603744 0.109743446 -0.14253603
-0.10723885 -0.17135993 0.08139692 0.11839779 -0.16244055 0.11738713 0.028729163 -0.04427637
0.007934187 -0.16936128 -0.16294964 -0.11151054 0.025183279 -0.10711002 0.048294455 0.005909687
0.035363287 -0.07844286 -0.10628074 0.010306869 -0.014386806 -0.04335102 -0.055285823 -0.053624436
0.15262869 -0.034743614 0.03635963 0.058833115 0.11424421 0.16122647 0.12668774 0.16422679
0.023637816 -0.09731382 0.16224526 0.11290757 -0.107878424 0.0955473 0.11545475 -0.026400896
-0.06851167 0.113010645 0.079259 -0.15279916 -0.14393383 0.09718441 0.07721393 -0.0097559905
0.098945685 -0.1114359 0.14738004 -0.15660977 0.0703971 0.026436316 -0.1269274 -0.076985545
0.110585414 -0.020615665 -0.039495066 0.03201178 0.13693973 -0.019206643 0.039378032 0.060011853
0.057012707 -0.06392417 -0.015032052 0.1490463 0.12196911 -0.009506719 0.15028124 -0.12335504
-0.02776463 -0.16224167 -0.09648846 -0.1109187 0.032632995 -0.1563427 0.042291258 -0.09597146
-0.10933493 0.08230492 0.08776859 0.15755531 -0.033559855 0.14532919 0.056547735 -0.16330753
-0.12108229 -0.16418628 -0.15093295 -0.13901876 -0.12980928 0.15691778 0.17867593 -0.108103745
-0.047447007 -0.096273415 -0.12110919 -0.13631113 0.14367712 0.084353514 0.071281984 -0.081037045
-0.14804715 0.08006223 0.0914006 -0.08319786 -0.16193597 -0.06900381 0.11595393 -0.1034824
0.16082227 0.06847193 0.016864311 0.052719887 -0.08032562 0.15030183 0.111877404 -0.03949082
-0.038000356 -0.1039693 -0.13685901 -0.05997488 -0.10439381 0.038064014 -0.11465384 0.06138356
0.043624155 0.027355552 0.12093177 0.13610016 -0.14764814 -0.1418522 -0.042569667 -0.10729766
0.13692378 -0.053719994 0.02235693 -0.052198052 -0.074863434 -0.060390748 0.0072575156 -0.04650322
-0.15962705 0.059251923 -0.098510645 -0.16105902 -0.060155857 -0.15065402 -0.030631986 0.14519607
-0.06082006 0.09038942 0.12147918 0.14702508 -0.14905843 -0.06758121 -0.020839917 0.096289
0.011833347 -0.045259565 0.058137447 0.08661235 0.1316797 -0.08690091 0.15677774 -0.11590964
0.14045992 -0.17414682 -0.02365396 -0.16462992 0.11362528 0.046089172 -0.05018535 -0.108823
-0.095240004 0.0048811245 -0.16143957 0.08256488 0.118101984 -0.14249714 0.09607194 -0.091409996
-0.14421442 -0.09292192 0.11138187 -0.07241791 -0.03142687 -0.0875992 -0.1553799 -0.008744908
0.16750917 0.1113822 0.00040847232 -0.14296395 -0.13312644 -0.040221024 0.07847507 0.17078212
-0.13633808 0.14618944 0.10304687 -0.037211932 0.004251696 0.15161858 0.08560701 0.08762749
0.104223296 -0.12359764 -0.050748743 -0.1345646 0.15454124 0.15489142 -0.071701676 -0.07811616
-0.09221542 -0.050816968 -0.06266465 0.10377278 -0.013610635 0.12985617 -0.021496942 -0.059928052
0.1077298 -0.17343462 0.15997161 -0.016942268 -0.008797794 -0.045234185 -0.025524084 0.119441606
-0.019476663 -0.128203 -0.11588633 -0.14285761 0.09374727 -0.038593348 0.046652228 -0.038263846
00000000: 62a9 993b 4bab 873c b591 2b3e c3ad c83d
00000010: 7463 cc3d 448c a93d fbba 2abd fa1a fa3d
00000020: 8841 5f3d 2dab 1d3c 68d8 553d 264e adbd
00000030: 7647 6abd 2876 f43b 2cc1 e03d f7f4 11be
00000040: 0ba0 dbbd fa78 2fbe 6eb3 a63d 8a7a f23d
00000050: d156 26be aa68 f03d 6c59 eb3c 245b 35bd
00000060: 64fe 013c 0b6d 2dbe 45dc 26be a35f e4bd
00000070: 2a4d ce3c 805c dbbd 68d0 453d 0ca6 c13b
00000080: 18d9 103d a6a6 a0bd b7a9 d9bd 24de 283c
00000090: a3b6 6bbc d790 31bd 6373 62bd 4ca5 5bbd
000000a0: b24a 1c3e 524f 0ebd d6ed 143d fefa 703d
000000b0: def8 e93d 8d18 253e 6eba 013e 112b 283e
000000c0: 18a4 c13c 784c c7bd 9f23 263e 163c e73d
000000d0: 5def dcbd 4eae c33d 8a73 ec3d b146 d8bc
000000e0: d94f 8cbd 2072 e73d 8b52 a23d 6277 1cbe
000000f0: 6463 13be 9f08 c73d 5622 9e3d 97d7 1fbc
00000100: 09a4 ca3d 8138 e4bd cbea 163e 505e 20be
00000110: 5b2c 903d f990 d83c 42f9 01be 99aa 9dbd
00000120: 9b7a e23d 2fe2 a8bc 94c5 21bd c91e 033d
00000130: ee39 0c3e 4057 9dbc dc4a 213d fdce 753d
00000140: 2886 693d adea 82bd ff48 76bc 989f 183e
00000150: f1ca f93d 12c2 1bbc 53e3 193e 91a1 fcbd
00000160: a672 e3bc ae22 26be be9b c5bd 5829 e3bd
00000170: 2daa 053d 4d18 20be 9939 2d3d af8c c4bd
00000180: feea dfbd 7b8f a83d 05c0 b33d 2e56 213e
00000190: 0f76 09bd 2dd1 143e 999e 673d 173a 27be
000001a0: fef9 f7bd 7320 28be 2b8e 1abe ef5a 0ebe
000001b0: b9ec 04be 0eaf 203e d3f6 363e 7f65 ddbd
000001c0: cb57 42bd ff2a c5bd 1808 f8bd 2595 0bbe
000001d0: 1820 133e 89c1 ac3d 4afc 913d c0f6 a5bd
000001e0: ac99 17be abf7 a33d 3d30 bb3d a463 aabd
000001f0: 8bd2 25be df51 8dbd 4179 ed3d 95ee d3bd
00000200: 98ae 243e 033b 8c3d 0627 8a3c cff0 573d
00000210: c281 a4bd b9e8 193e fb1f e53d 20c1 21bd
00000220: 43a6 1bbd dbed d4bd c524 0cbe 38a8 75bd
00000230: 6ccc d5bd 03e9 1b3d a2cf eabd 546d 7b3d
00000240: 3eaf 323d c018 e03c 13ab f73d d75d 0b3e
00000250: 1331 17be b441 11be 885d 2ebd e0be dbbd
00000260: bf35 0c3e 7f09 5cbd e125 b73c a0cd 55bd
00000270: 0052 99bd 4a5c 77bd 74d0 ed3b 297a 3ebd
00000280: 4675 23be 25b2 723d f3bf c9bd a8ec 24be
00000290: fd65 76bd 0c45 1abe eeef fabc 47ae 143e
000002a0: 751e 79bd 171e b93d 14ca f83d be8d 163e
000002b0: c6a2 18be 0468 8abd 79b8 aabc 2b33 c53d
000002c0: a8e0 413c 1862 39bd 8821 6e3d d161 b13d
000002d0: 0bd7 063e 1bf9 b1bd 588a 203e 0962 edbd
000002e0: bad4 0f3e 8b53 32be f3c5 c1bc bf94 28be
000002f0: 5fb4 e83d 00c8 3c3d 278f 4dbd 98de debd
00000300: 310d c3bd d7f1 9f3b 6a50 25be c717 a93d
00000310: 74df f13d c5ea 11be 5ec1 c43d 2a35 bbbd
00000320: f2ac 13be d94d bebd 2e1c e43d d74f 94bd
00000330: 76b9 00bd 3667 b3bd e91b 1fbe cd46 0fbc
00000340: 8687 2b3e 5a1c e43d 3a28 d639 2465 12be
00000350: 4c52 08be cdbe 24bd 8ab7 a03d 82e1 2e3e
00000360: 369c 0bbe afb2 153e 3d0a d33d 8a6b 18bd
00000370: d051 8b3b e741 1b3e ba52 af3d 0b76 b33d
00000380: 0673 d53d c220 fdbd eadd 4fbd 4dcb 09be
00000390: 0f40 1e3e db9b 1e3e 54d8 92bd 5efb 9fbd
000003a0: 70db bcbd 7425 50bd 5356 80bd d386 d43d
000003b0: 24ff 5ebc 04f9 043e 5b1a b0bc 1e77 75bd
000003c0: 71a1 dc3d d898 31be 99cf 233e 83ca 8abc
000003d0: 9f24 10bc 7b47 39bd e217 d1bc cd9d f43d
000003e0: 868d 9fbc a647 03be d055 edbd 4449 12be
000003f0: 92fe bf3d 0f14 1ebd 6816 3f3d 8dba 1cbd

model.4.bias f4 [64]
0.09448409 -0.013213322 -0.016684925 0.09516443 0.15354455 -0.03945337 0.09141318 -0.16906217
0.14360185 0.09649945 0.0811708 0.17196928 -0.09219486 -0.062499978 0.11653468 -0.11347045
-0.11485586 0.120223485 0.1658046 -0.0053793243 -0.07694265 0.055907108 -0.00048815712 -0.13935934
0.09876529 -0.15739425 0.008731924 0.0048878454 0.16159485 -0.048301842 -0.06287521 0.17538534
-0.015415128 -0.08891727 -0.036608994 -0.102882855 0.11850557 -0.08452596 0.13777609 0.16921444
-0.025814803 0.11284836 0.117666 -0.17093608 -0.110032834 0.13309622 0.04942664 0.07907625
-0.08073303 -0.17025547 0.08338418 0.022156708 -0.04998563 -0.12631057 0.018602712 -0.053194884
-0.15673834 0.11087302 -0.060436573 0.0984753 -0.1487211 0.08344877 -0.047905825 -0.11919144
00000000: e080 c13d b07c 58bc d3ae 88bc 92e5 c23d
00000010: c83a 1d3e db99 21bd d536 bb3d a21e 2dbe
00000020: 5d0c 133e 81a1 c53d e03c a63d b718 303e
00000030: a9d0 bcbd faff 7fbd bca9 ee3d 3263 e8bd
00000040: 8d39 ebbd bb37 f63d aec8 293e 0b45 b0bb
00000050: 1c94 9dbd dafe 643d 57ef ffb9 37b4 0ebe
00000060: 7545 ca3d f52b 21be 5810 0f3c 382a a03b
00000070: 1f79 253e 27d8 45bd b8c4 80bd 3798 333e
00000080: bc8f 7cbc 421a b6bd 50f3 15bd 3fb4 d2bd
00000090: 0cb3 f23d f21b adbd 2d15 0d3e 8d46 2d3e
000000a0: 9179 d3bc 0a1d e73d dffa f03d de09 2fbe
000000b0: e558 e1bd 604a 083e 9773 4a3d bbf2 a13d
000000c0: 5c57 a5bd 7357 2ebe 53c5 aa3d fc81 b53c
000000d0: bbbd 4cbd 8f57 01be b764 983c e1e2 59bd
000000e0: 0480 20be 6511 e33d 578c 77bd 6bad c93d
000000f0: 584a 18be 30e7 aa3d e638 44bd a41a f4bd

model.7.weight f4 [1, 64]
0.024552949 0.0025421975 -0.013942339 0.040969357 0.08836392 0.10096888 -0.09469787 0.09812688
0.0701638 0.106508344 0.023614025 -0.001485006 0.10352266 0.055829104 -0.08343352 0.030255223
-0.048947502 0.06746168 -0.06411604 0.07472777 -0.062550075 0.12851454 0.084311366 -0.010483115
0.03569388 0.00718512 0.055734836 -0.11238579 -0.08061061 -0.108222604 0.036537264 -0.07578091
-0.0153292455 -0.115980946 0.0835435 0.063400455 -0.08913071 -0.09296239 0.023641355 0.05873644
-0.122293815 -0.08725707 -0.09162135 0.12202515 0.11969587 -0.10400728 0.07811557 0.08581466
0.051209945 0.102247894 -0.070048876 0.043702528 0.093729116 -0.10674858 0.12255435 -0.10346119
0.008487141 0.10568129 0.099694796 -0.084978454 -0.008591363 0.07381552 0.08250564 -0.13040113
00000000: 4423 c93c ff9a 263b 696e 64bc 7ccf 273d
00000010: 25f8 b43d c6c8 ce3d f5f0 c1bd bff6 c83d
00000020: 0ab2 8f3d 0c21 da3d 3372 c13c 88a4 c2ba
00000030: b003 d43d 0fad 643d 31df aabd cdd9 f73c
00000040: 2d7d 48bd 5929 8a3d 454f 83bd e00a 993d
00000050: 411a 80bd 5199 033e 70ab ac3d 5fc1 2bbc
00000060: bf33 123d 2871 eb3b 364a 643d 852a e6bd
00000070: 2d17 a5bd d0a3 ddbd 19a8 153d 0633 9bbd
00000080: 8427 7bbc 6b87 edbd db18 ab3d 19d8 813d
00000090: 298a b6bd 1163 bebd 84ab c13c 9f95 703d
000000a0: 2e75 fabd d6b3 b2bd f9a3 bbbd 52e8 f93d
000000b0: 1c23 f53d c501 d5bd 0efb 9f3d 99bf af3d
000000c0: 85c1 513d 5867 d13d c975 8fbd 6c01 333d
000000d0: 0df5 bf3d 009f dabd c6fd fa3d 76e3 d3bd
000000e0: a60d 0b3c 6f6f d83d c92c cc3d 2f09 aebd
000000f0: cac2 0cbc 972c 973d b8f8 a83d e087 05be

exp_avg f4 [1024]
0.00025987308 -0.00082305423 -0.00026151515 -0.0013804613 0.0001410002 -0.00030753846 -7.5382966e-05 4.450214e-06
-4.2710046e-05 -0.0010356589 0.0008802926 -0.00046225917 0.00020895645 0.00036638087 -0.00037656588 -0.000109320994
0.0003738614 -0.0010332798 -0.00019956875 0.00031445964 -4.9281713e-05 -0.0010645114 -0.000388086 0.00073766883
-0.00093779294 -0.0013505595 0.00017295613 0.00021518944 -0.0005423497 -0.0005183929 -9.7616314e-05 -0.0010444317
-0.00043622768 -2.3124594e-06 0.00085425744 -0.00041469155 -0.00016320584 0.00011281741 -0.0003066726 -0.0008500015
0.0007647694 -0.00095318863 -0.00015612174 -0.0001959663 0.0003243754 0.00038105788 0.0004623651 -0.00033225323
0.00047869838 -0.0009621286 -0.0005443529 -0.00041172025 -9.121286e-06 -0.000148083 -0.0006250493 -0.00065077486
0.00091386173 2.2900786e-06 -0.00070681097 0.00017292639 -0.0011089973 0.00030282553 -0.0005031631 -1.8659579e-05
-0.0006667598 -0.0003170595 0.00022763127 0.0004910535 9.0665315e-05 -0.0007636911 8.047433e-05 -0.00034819392
0.0004297645 0.0011716029 -0.0010763397 0.00047495053 -0.0011719719 6.453738e-05 -0.001436981 7.516577e-06
-0.0007653779 0.00015112234 -7.0210954e-06 0.000657054 -0.00070764835 -0.0004300953 0.00053480465 -0.00030995312
-0.0012079545 -0.0007379438 0.00057497865 0.00058353186 -0.00088554865 0.00026112847 -0.00029902958 -0.0010224639
-0.0012623363 -0.00042939844 0.0010391411 0.000113993825 0.001791806 -0.00053209986 -0.0011607832 -0.00021628104
-0.0015601572 -0.0007782677 -0.00049909536 -0.0001812306 -0.0009575088 -0.0015918737 -0.00031502993 -0.0011867619
-0.00013453496 -0.0013589434 -7.073453e-05 0.00040253953 -0.0009315821 3.197162e-05 -4.7605557e-05 -0.0009454465
0.0009105867 -0.0011974843 9.43924e-05 -6.818801e-05 -0.00047949026 -0.0008161941 -0.00042931264 3.4996534e-05
-0.00015498773 -0.0011109357 -0.0013223779 -0.00017578357 -0.00018450365 -0.0001851035 0.0005378664 -0.00017316242
-0.0005495693 0.00022295123 -0.00022313453 -0.00051145675 0.00071154773 -0.00017362146 0.00039379203 0.00026781045
0.00035000584 0.00070639123 -0.0009217704 0.00018515844 0.00017218936 -0.00055592257 -0.0005853289 0.0002067291
-0.00017897348 0.000375466 -0.000576558 -0.0002797024 -0.00024657295 0.0008186452 -9.699294e-05 -0.0011478948
-0.00012557434 -0.00023993643 -0.00096009986 -0.00071468356 -0.0006417095 -0.0007401629 0.00055419956 -0.0017256754
-0.0004788076 -0.00041032996 -3.5306883e-05 -0.00089240086 0.00086567004 -9.4121395e-05 0.0005733734 -0.00073468796
-0.0021014584 -0.0003585211 0.0010788868 0.0006624886 0.0004700487 -0.00077013066 -0.0002542406 -9.657924e-07
-7.8728925e-05 0.00010661536 0.00023759612 -0.00082773576 -4.199901e-05 0.00047234597 4.3554755e-06 0.0001716797
0.0008419031 0.00054271566 0.00010161055 -0.00037589396 4.1320876e-05 -0.000401069 -0.0003810855 -0.0018100549
-0.00024326777 -0.0009605648 -0.0011102982 0.00039568802 -0.0015474418 -0.00044943727 -0.00029197717 -3.9868057e-05
-0.00031043927 9.7266064e-05 -0.0010543634 0.0006058679 -2.8051363e-06 0.00027616584 -1.4541272e-05 -0.00013615393
-0.00016878091 -0.0010135244 0.0006678568 -0.000108509776 0.00064231595 2.0865424e-05 -0.000111151254 -0.0007500216
-0.0018209214 -0.00022178513 0.00045654448 0.00020181817 -0.0014086496 -0.0005347378 0.000567758 -0.0004644381
-0.00081903563 -0.00024413019 5.033589e-05 -9.370502e-06 -0.0008926074 -0.0008259246 -0.0016663234 -0.0006381635
0.0006123784 -0.001056142 -7.5901306e-05 0.00037830803 -0.0013827682 3.1350755e-05 0.00082039274 -4.8721406e-05
-0.00016141754 -0.00016782865 -9.4394956e-05 5.247444e-05 -0.00055686565 -1.069624e-06 2.8918126e-05 0.00031906003
00000000: 933f 8839 3cc2 57ba f81b 89b9 98f0 b4ba
00000010: 74d9 1339 1d3d a1b9 ec16 9eb8 0c53 9536
00000020: 9023 33b8 f2be 87ba 70c3 663a 605b f2b9
00000030: 521b 5b39 cf16 c039 d16d c5b9 4343 e5b8
00000040: d402 c439 1e6f 87ba 5443 51b9 0fde a439
00000050: d6b3 4eb8 1387 8bba 0578 cbb9 1e60 413a
00000060: 38d6 75ba 4205 b1ba 8f5b 3539 7aa4 6139
00000070: 792c 0eba c2e4 07ba 5cb7 ccb8 50e5 88ba
00000080: 7db5 e4b9 c02f 1bb6 3ff0 5f3a f56a d9b9
00000090: 3c22 2bb9 6398 ec38 e6c8 a0b9 a3d2 5eba
000000a0: ce7a 483a 68df 79ba 9cb4 23b9 4e7c 4db9
000000b0: ee10 aa39 b9c8 c739 9869 f239 4632 aeb9
000000c0: cff9 fa39 5b37 7cba e8b2 0eba 28dc d7b9
000000d0: a007 19b7 ba46 1bb9 59da 23ba c398 2aba
000000e0: 3990 6f3a 40af 1936 4849 39ba 9353 3539
000000f0: c65b 91ba 8ec4 9e39 b4e6 03ba 2487 9cb7
00000100: 7ec9 2eba 013b a6b9 4eb0 6e39 0bba 003a
00000110: 9223 be38 7132 48ba 54c4 a838 cc8d b6b9
00000120: 0452 e139 7890 993a f813 8dba c802 f939
00000130: da9c 99ba 3e58 8738 1559 bcba e836 fc36
00000140: a4a3 48ba 9876 1e39 c096 ebb6 263e 2c3a
00000150: 7a81 39ba 6a7e e1b9 2232 0c3a 3481 a2b9
00000160: 3a54 9eba 9272 41ba 2aba 163a 29f8 183a
00000170: 2a24 68ba 12e8 8839 12c7 9cb9 3204 86ba
00000180: fa74 a5ba e220 e1b9 ca33 883a f80f ef38
00000190: 08db ea3a 9e7c 0bba 6c25 98ba 80c9 62b9
000001a0: 307e ccba a904 4cba b9d5 02ba b808 3eb9
000001b0: 5401 7bba 6ba6 d0ba 9a2a a5b9 1f8d 9bba
000001c0: f411 0db9 931e b2ba 5057 94b8 f10b d339
000001d0: 6b35 74ba 4419 0638 14ac 47b8 d7d7 77ba
000001e0: 70b4 6e3a e8f4 9cba 89f4 c538 2900 8fb8
000001f0: 1864 fbb9 dcf5 55ba 5e15 e1b9 3ec9 1238
00000200: 3484 22b9 d19c 91ba a453 adba 8b52 38b9
00000210: 5277 41b9 5818 42b9 9aff 0c3a ef92 35b9
00000220: f910 10ba 04c8 6939 38f9 69b9 4813 06ba
00000230: 2987 3a3a 280e 36b9 df75 ce39 e968 8c39
00000240: fd80 b739 1d2d 393a f7a2 71ba 1727 4239
00000250: bb8d 3439 55bb 11ba c270 19ba 6cc5 5839
00000260: d4aa 3bb9 32da c439 2724 17ba 05a5 92b9
00000270: 7646 81b9 599a 563a b068 cbb8 f574 96ba
00000280: 9bac 03b9 7297 7bb9 36af 7bba 9a59 3bba
00000290: 6538 28ba 7e07 42ba b447 113a 0f30 e2ba
000002a0: 7808 fbb9 8e21 d7b9 7a16 14b8 02f0 69ba
000002b0: 22ee 623a 0a63 c5b8 704e 163a 1398 40ba
000002c0: 9fb8 09bb e3f7 bbb9 6f69 8d3a dbaa 2d3a
000002d0: de70 f639 98e2 49ba 984b 85b9 60a0 81b5
000002e0: 451b a5b8 b096 df38 3923 7939 68fc 58ba
000002f0: 1828 30b8 34a5 f739 4025 9236 eb04 3439
00000300: 29b3 5c3a 0845 0e3a c017 d538 a213 c5b9
00000310: f44f 2d38 9246 d2b9 6ecc c7b9 5d3f edba
00000320: b215 7fb9 6ace 7bba 6d87 91ba 5974 cf39
00000330: 88d3 caba 73a2 ebb9 8314 99b9 0038 27b8
00000340: 74c2 a2b9 52fb cb38 9132 8aba 1bd3 1e3a
00000350: e03f 3cb6 5aca 9039 4af6 73b7 8bc4 0eb9
00000360: c8fa 30b9 3cd8 84ba 1c13 2f3a be8f e3b8
00000370: 1861 283a 2808 af37 e019 e9b8 199d 44ba
00000380: fcab eeba fe8e 68b9 5d5c ef39 279f 5339
00000390: 70a2 b8ba a52d 0cba 98d5 143a d47f f3b9
000003a0: 8db4 56ba 33fd 7fb9 c01f 5338 0036 1db7
000003b0: defd 69ba dd82 58ba 8968 daba 6d4a 27ba
000003c0: 0588 203a 3f6e 8aba 342d 9fb8 a557 c639
000003d0: 003e b5ba 9e7e 0338 a00f 573a 365a 4cb8
000003e0: 3142 29b9 29fb 2fb9 e8f5 c5b8 0018 5c38
000003f0: 9ffa 11ba 0090 8fb5 3495 f237 8347 a739
