lightning_logs/version_16/checkpoints/epoch=199-step=1600.ckpt (torch, 464377 bytes, 23 tensors)

model.0.weight f4 [1024]
000000 6f 42 80 3f b8 fc 7f 3f cf 29 80 3f fd 12 80 3f
       1.0020274 0.99994993 1.0012759 1.0005795
000010 37 12 7f 3f fb fc 7f 3f 6c 6f 80 3f d4 3b 80 3f
       0.9963717 0.9999539 1.0034003 1.0018258
000020 2e 18 80 3f 4f 37 80 3f f4 a1 7f 3f c5 e8 7f 3f
       1.0007379 1.0016879 0.99856496 0.99964553
000030 40 e6 7f 3f 01 97 7f 3f 8e 30 80 3f f0 fe 7f 3f
       0.9996071 0.9983979 1.0014818 0.9999838
000040 ac 5c 80 3f a8 98 7f 3f 2d 1f 80 3f 3d 02 80 3f
       1.0028281 0.9984231 1.0009514 1.0000683
000050 32 fa 7f 3f 27 fa 80 3f 82 de 7f 3f 80 7d 7f 3f
       0.9999114 1.007634 0.99948895 0.9980087
000060 0d 1b 80 3f a3 2c 80 3f 82 82 80 3f a7 17 7f 3f
       1.0008255 1.0013622 1.0039828 0.99645466
000070 85 86 7f 3f b2 59 80 3f 13 0b 7f 3f 69 62 7f 3f
       0.99814636 1.0027373 0.9962627 0.99759537
000080 f2 a7 7f 3f 4a be 7f 3f 16 b0 7f 3f 39 55 80 3f
       0.9986564 0.99899733 0.9987806 1.0026008
000090 9a eb 80 3f 1b 0e 80 3f 11 ec 7f 3f 6b f9 7f 3f
       1.00719 1.0004305 0.99969584 0.99989957
0000a0 11 ae 80 3f 1c e3 7f 3f 45 6d 7f 3f f8 e6 7e 3f
       1.0053121 0.99955916 0.9977611 0.9957118
0000b0 55 55 80 3f 42 25 80 3f e0 6a 7f 3f 67 a1 7f 3f
       1.0026041 1.001137 0.99772453 0.99855655
0000c0 bb 9e 7f 3f b1 32 7f 3f 98 36 80 3f 01 82 7f 3f
       0.9985158 0.99686724 1.0016661 0.99807745
0000d0 75 27 80 3f a8 00 80 3f 6c 3d 80 3f 92 f2 7f 3f
       1.0012041 1.00002 1.0018744 0.9997951
0000e0 53 e2 7f 3f 71 33 80 3f 34 a8 80 3f c7 cb 7f 3f
       0.9995472 1.0015699 1.0051332 0.99920315
0000f0 3b 6c 80 3f 1b c3 7f 3f a6 21 80 3f 8c f1 7f 3f
       1.0033029 0.9990708 1.0010269 0.99977946
000100 12 23 80 3f 40 48 80 3f 0d 4a 7f 3f 7e 56 80 3f
       1.0010703 1.0022049 0.9972237 1.0026395
000110 2b 05 80 3f 80 48 80 3f 15 f1 7e 3f f2 f0 7f 3f
       1.0001577 1.0022125 0.9958661 0.9997703
000120 ca 04 80 3f 5c 63 7f 3f 2c fd 7e 3f f0 38 80 3f
       1.0001462 0.99760985 0.9960506 1.0017376
000130 ce 1f 80 3f cd 0e 80 3f f9 f9 7f 3f f0 60 80 3f
       1.0009706 1.0004517 0.99990803 1.0029583
000140 ed 0b 80 3f a6 ca 7f 3f f4 65 80 3f 0c df 7f 3f
       1.000364 0.9991859 1.0031114 0.9994972
000150 e7 35 80 3f bd b6 80 3f 39 1c 80 3f 03 a8 7f 3f
       1.001645 1.0055767 1.0008613 0.9986574
000160 17 da 7f 3f ee 8d 7f 3f 4f bb 7f 3f 38 6f 7f 3f
       0.99942154 0.9982594 0.99895185 0.9977908
000170 be 0f 80 3f be 4b 80 3f 0f 06 80 3f ca 4f 80 3f
       1.0004804 1.0023115 1.0001849 1.002435
000180 0f 9d 7f 3f 19 dc 7f 3f ab 6d 80 3f bb 61 7f 3f
       0.9984903 0.9994522 1.0033468 0.997585
000190 a8 22 80 3f 00 28 80 3f 8c c3 7f 3f c4 90 7f 3f
       1.0010576 1.0012207 0.99907756 0.9983027
0001a0 26 8c 7f 3f 48 12 80 3f b5 b0 7f 3f 67 29 80 3f
       0.99823225 1.0005579 0.9987901 1.0012635
0001b0 10 1e 80 3f 85 7a 7f 3f e6 09 80 3f cd 1c 80 3f
       1.0009174 0.99796325 1.0003021 1.0008789
0001c0 f2 2b 80 3f d1 65 80 3f 27 0e 80 3f d6 2c 80 3f
       1.0013411 1.0031072 1.0004319 1.0013683
0001d0 2c 16 80 3f 13 a9 7f 3f 65 4c 80 3f 54 d0 7f 3f
       1.0006766 0.9986736 1.0023314 0.9992726
0001e0 3e 50 7f 3f fb 6c 80 3f 2d 70 80 3f 94 1f 80 3f
       0.99731815 1.0033258 1.0034233 1.0009637
0001f0 d1 80 7e 3f 89 d1 7f 3f 5b e7 7f 3f 77 42 80 3f
       0.9941531 0.999291 0.99962395 1.0020283
000200 91 ee 7f 3f f6 d3 7f 3f 30 b1 7f 3f a9 a4 7f 3f
       0.999734 0.999328 0.9987974 0.99860626
000210 7d 13 80 3f 6c 7e 7f 3f 78 e4 7f 3f af 0c 80 3f
       1.0005947 0.9980228 0.9995799 1.0003871
000220 fc a4 80 3f 49 2a 80 3f fb f9 80 3f 9f d6 7f 3f
       1.0050349 1.0012904 1.0076288 0.9993686
000230 59 39 80 3f a0 11 80 3f c4 25 80 3f 88 1a 80 3f
       1.0017501 1.0005379 1.0011525 1.0008097
000240 32 a0 7f 3f 4f 36 80 3f 84 cc 7f 3f e3 03 80 3f
       0.99853814 1.0016574 0.9992144 1.0001186
000250 d7 2e 80 3f 16 1c 80 3f 41 13 80 3f d0 ab 7f 3f
       1.0014294 1.0008571 1.0005876 0.9987154
000260 fc 48 80 3f b2 06 80 3f 1f 42 7f 3f 55 1d 80 3f
       1.0022273 1.0002043 0.9971027 1.0008951
000270 fe 65 7f 3f f0 6a 7f 3f 7b a7 80 3f a4 33 80 3f
       0.99765 0.9977255 1.0051111 1.001576
000280 f4 56 80 3f 2c 7a 80 3f 60 7e 7f 3f 02 3b 7f 3f
       1.0026536 1.0037284 0.9980221 0.99699414
000290 3c f1 7f 3f 10 d5 7f 3f fb c1 7f 3f 0e c2 7e 3f
       0.9997747 0.9993448 0.99905366 0.99514854
0002a0 1a 5b 7f 3f c2 43 80 3f 00 fc 7f 3f 48 05 80 3f
       0.99748385 1.0020678 0.99993896 1.0001612
0002b0 c8 85 80 3f 3e 2c 7f 3f 61 1b 80 3f c5 2f 80 3f
       1.0040827 0.99676883 1.0008355 1.0014578
0002c0 5d a7 7f 3f f7 65 80 3f 67 19 80 3f 1a 34 80 3f
       0.9986475 1.0031117 1.0007752 1.00159
0002d0 f0 3f 80 3f c7 53 7f 3f 7f 13 80 3f a0 01 80 3f
       1.0019512 0.9973721 1.000595 1.0000496
0002e0 95 bb 80 3f ee ed 7f 3f 92 69 80 3f cc 4a 80 3f
       1.0057245 0.99972427 1.0032218 1.0022826
0002f0 73 f3 7f 3f 6f 96 7f 3f 45 47 80 3f 44 4e 7f 3f
       0.9998085 0.9983892 1.002175 0.997288
000300 bf 36 80 3f 81 39 80 3f 0e d9 7f 3f be 5a 80 3f
       1.0016707 1.0017549 0.99940574 1.0027692
000310 59 24 80 3f ff bd 7e 3f 58 dc 7f 3f 66 ea 7f 3f
       1.0011092 0.9950866 0.9994559 0.9996704
000320 54 d0 7f 3f cb 70 80 3f fe 27 80 3f d3 15 80 3f
       0.9992726 1.0034422 1.0012205 1.000666
000330 88 2b 80 3f 85 98 7f 3f db 7a 80 3f 02 c3 7f 3f
       1.0013285 0.998421 1.0037493 0.99906933
000340 a0 cb 7f 3f eb 9d 7f 3f 1d 57 80 3f e6 c5 7f 3f
       0.9992008 0.9985034 1.0026585 0.99911344
000350 c9 74 7f 3f a1 86 80 3f 40 f1 7f 3f 04 2e 80 3f
       0.99787575 1.0041085 0.99977493 1.0014043
000360 95 59 7f 3f 38 1d 7f 3f b8 dc 7f 3f 13 30 80 3f
       0.99746066 0.9965396 0.99946165 1.0014671
000370 07 a9 80 3f 85 f0 7f 3f 62 39 80 3f 6d 10 80 3f
       1.0051583 0.9997638 1.0017512 1.0005013
000380 42 53 80 3f 13 68 7f 3f 12 2b 80 3f 1e 27 80 3f
       1.0025408 0.9976818 1.0013144 1.0011938
000390 96 75 7f 3f ff c7 7f 3f 9b 82 80 3f c4 78 7f 3f
       0.99788797 0.99914545 1.0039858 0.9979365
0003a0 0d 24 80 3f 76 42 80 3f c7 ab 7f 3f a3 96 7f 3f
       1.0011002 1.0020282 0.99871486 0.9983923
0003b0 c7 4c 7f 3f f1 e9 7f 3f d4 9d 80 3f fd 20 80 3f
       0.9972653 0.9996634 1.0048165 1.0010067
0003c0 ad 74 80 3f 2d bc 7f 3f b4 10 80 3f 03 74 80 3f
       1.0035607 0.9989651 1.0005097 1.0035404
0003d0 27 79 7f 3f 96 50 80 3f c7 4b 80 3f 56 56 80 3f
       0.9979424 1.0024593 1.0023125 1.0026348
0003e0 54 f5 7f 3f 98 71 80 3f 6d da 7f 3f 1e 37 7f 3f
       0.99983716 1.0034666 0.99942666 0.9969348
0003f0 cc 89 7f 3f 69 2c 80 3f 65 1b 80 3f 13 e8 7e 3f
       0.99819636 1.0013553 1.000836 0.9957287

model.0.bias f4 [1024]
000000 b3 be 02 bb 86 f6 c3 3a c4 01 bd 3b f3 5a 41 3a
       -0.0019950091 0.0014950789 0.0057680327 0.0007375918
000010 77 52 cd 3b d1 72 1a bb 07 2d ad b9 06 9c 40 bb
       0.006265934 -0.002356697 -0.0003303068 -0.0029389872
000020 03 38 94 ba 40 9c 1d bb 32 49 76 3b cb ab 18 3b
       -0.0011308197 -0.002404943 0.003758025 0.0023295756
000030 a5 40 4a 39 c1 4a 2b bb cf 5d e1 3a 4d a2 4d 3b
       0.00019288303 -0.0026137086 0.0017194095 0.0031377256
000040 cf 90 6a 3b b5 1c 3a 3b 2f ae d5 bb 21 c0 42 bb
       0.003579188 0.0028398458 -0.0065210084 -0.0029716569
000050 a1 1f 6d 3b 18 f8 a0 3b ba 6f 03 ba dc eb 3e bb
       0.0036182182 0.0049123876 -0.0005013902 -0.0029132282
000060 ad 69 2c 36 1a 1a 86 39 3c 9e fc 3a 78 7e 80 3b
       2.5691509e-06 0.0002557792 0.0019273232 0.0039213262
000070 72 bd a1 3b a2 94 9e bb fe 73 49 b9 1f 8d ab bb
       0.0049359137 -0.0048394958 -0.00019212064 -0.005235329
000080 9b b7 c2 bb e1 e3 42 bb bb 19 14 bb f4 84 ac bb
       -0.0059422976 -0.0029737877 -0.0022598344 -0.0052648727
000090 1b b8 fa 3a af 29 1a 3a fc 8d 81 b9 9c 66 fb 3a
       0.0019128354 0.0005880845 -0.00024710584 0.001918036
0000a0 9a 54 c1 3b b3 1d 26 ba d5 34 94 3a 5e 99 64 3b
       0.005899978 -0.0006336823 0.0011307249 0.0034881453
0000b0 6b 79 22 bb aa 1d 46 3a ea 00 39 3b f4 7b 35 3a
       -0.002479161 0.0007557521 0.0028229305 0.00069230725
0000c0 2a 7b 3e 3b 0d a2 5c b8 28 3d be bb bd 29 fa 3a
       0.002906511 -5.260301e-05 -0.0058056302 0.0019085925
0000d0 ba d0 ed 39 1d 9a 37 ba ca 6c 40 3b d4 a9 79 3b
       0.00045359676 -0.00070038607 0.0029361718 0.003809561
0000e0 f5 d4 5d bb 5d 56 09 39 b6 9b c0 3b 22 b4 5b 3a
       -0.0033848856 0.00013097511 0.005877937 0.0008381029
0000f0 62 f8 77 ba 4d 51 b8 ba 17 6f 1b bb 7d 26 24 ba
       -0.0009459314 -0.0014062315 -0.0023717338 -0.0006261839
000100 cd 0f 1c 3b 44 37 5a bb fd 33 9d ba 50 2e 94 bb
       0.002381313 -0.00332971 -0.0011993643 -0.0045221224
000110 3c 8e b5 b9 79 a4 f7 3a 69 7d 45 38 b4 ef 0c bb
       -0.00034628983 0.0018893621 4.7085257e-05 -0.002150518
000120 a0 98 a2 3b 3b 17 d6 ba ba 0d ba ba e6 cc 80 bb
       0.004962042 -0.0016333828 -0.0014194765 -0.003930676
000130 36 a8 cd ba 13 c9 e3 39 59 0e e3 39 c5 69 33 bb
       -0.001569039 0.00043446626 0.00043307504 -0.0027376276
000140 74 5a 86 36 57 c4 9a 3b df 15 6c 39 d2 aa 83 3b
       4.0040413e-06 0.0047231126 0.00022514861 0.004018166
000150 29 7a d4 3a 2f 3a c5 bb 7b 37 9f b7 19 9d 55 ba
       0.0016210723 -0.006018899 -1.8980112e-05 -0.00081487146
000160 96 d0 8d 3a 96 41 5c 3a 9f 98 02 ba 69 19 89 ba
       0.001081961 0.0008402107 -0.0004981849 -0.0010459843
000170 ef 4b a1 ba 17 2d 86 ba e4 f6 05 3b bc c6 ca ba
       -0.0012305955 -0.0010236826 0.0020441348 -0.0015470604
000180 25 f2 1f bb 0a e3 97 39 17 fd a9 39 42 29 66 3b
       -0.0024405804 0.00028970122 0.00032422759 0.0035119806
000190 0a 3b 4c b8 28 80 23 bb 20 7e ff 3a 86 fb 2b 3a
       -4.8692375e-05 -0.0024948213 0.0019492544 0.0006560612
0001a0 5e 11 52 b9 53 fb 90 b9 d1 00 02 bc a3 66 6f b9
       -0.0002003363 -0.0002765307 -0.007934765 -0.00022831051
0001b0 2d cc 9e 3b a8 92 11 3b 19 00 f6 39 49 92 62 3b
       0.004846117 0.0022212658 0.0004692085 0.0034572056
0001c0 ed 0a 78 3b 34 5c 3d bb 10 b2 63 ba 84 b9 f1 ba
       0.003784831 -0.0028894069 -0.0008685896 -0.0018442129
0001d0 64 76 a4 b9 37 a7 6c 3a 5a d4 9c b7 6d d2 6c 3b
       -0.00031368725 0.00090276025 -1.8695533e-05 0.0036136166
0001e0 b0 e2 69 bb 7b 5c c8 bb 9d e0 8a ba 9a 18 76 3b
       -0.0035688095 -0.00611454 -0.0010595504 0.0037551285
0001f0 41 d8 54 bb 74 b4 99 3a 0b bd 3c ba d4 e8 52 3a
       -0.003247753 0.0011726753 -0.00071998005 0.00080455584
000200 51 b4 8f ba 8f 69 9c b8 48 50 2a bb 79 67 82 b9
       -0.0010963773 -7.4583215e-05 -0.0025987793 -0.00024872625
000210 73 96 4f bb 4e df 0b 3b 33 9f b1 3b d5 bd 78 ba
       -0.0031675368 0.0021342817 0.0054205894 -0.00094887364
000220 ee 32 e2 bb 40 88 34 3b 39 3e 10 bb 09 fc 94 b9
       -0.006903044 0.0027547032 -0.0022009744 -0.0002841654
000230 8c ab c0 ba 81 b6 77 bb d1 d1 a7 39 be f8 2b bb
       -0.0014699562 -0.003779799 0.00032009048 -0.0026240791
000240 30 54 33 3b 47 80 51 bb 0b d0 15 ba d1 e1 66 bb
       0.0027363412 -0.0031967328 -0.00057149 -0.0035229812
000250 1e 23 31 ba 95 61 21 39 2c 97 a8 3b 60 5d e4 3a
       -0.0006757247 0.00015390509 0.005144974 0.0017422847
000260 ad 1c 95 ba e4 cf 80 3b d5 24 79 bb 28 3d 37 3b
       -0.0011376344 0.0039310325 -0.0038016338 0.0027960036
000270 c0 42 87 bb 6a e1 94 3a 43 6e 54 3b c6 48 e6 3a
       -0.0041278303 0.0011358683 0.0032414354 0.0017569296
000280 01 a3 84 bb 66 49 d5 3a e4 01 9e 3b 6d fd 6c 3b
       -0.004047752 0.0016272485 0.0048220027 0.0036161796
000290 cd 3c e2 39 11 a3 9a b9 86 20 09 3b 16 0d 9f ba
       0.0004315138 -0.00029494663 0.0020923926 -0.0012134637
0002a0 5e f1 ca 3a 9f 56 0b b9 a0 f7 0a 3a 7a 1c d2 ba
       0.001548331 -0.00013288342 0.0005301181 -0.0016030215
0002b0 14 49 4c bb b0 6a 28 3b 8d 92 4c 3a a1 8a 09 3b
       -0.0031171488 0.0025698356 0.000780382 0.002098717
0002c0 dc bf 2b bb e6 e8 ce ba 55 33 6b 39 d1 bd b3 3b
       -0.0026206886 -0.0015785962 0.00022430469 0.0054852744
0002d0 9a 8e ce 3a 51 3f 97 3a dd 37 bb 3a 90 90 16 3b
       0.0015759051 0.0011539256 0.0014283616 0.002297435
0002e0 5e f7 a9 3b 93 41 db 3a 98 e9 fe 3a 9f a9 23 3b
       0.005186959 0.0016727917 0.0019448278 0.0024972928
0002f0 21 af d5 b8 59 4a 16 bb ca 43 a4 3b 26 18 9d bb
       -0.00010189252 -0.0022932498 0.005012964 -0.0047941385
000300 2c cc c4 ba a1 fc 12 3a 96 0c 18 3b 81 36 8c 3b
       -0.0015014461 0.00056071026 0.0023200861 0.0042789583
000310 4d 11 92 39 ee 89 17 3b 43 51 95 3a 51 e2 0e bb
       0.0002786018 0.0023122984 0.0011392016 -0.0021802376
000320 17 0f f7 b9 f9 e3 b6 3b 9a ed a5 3a be 9e a2 b8
       -0.00047122754 0.0055813757 0.0012659312 -7.75433e-05
000330 24 cb b1 3b a5 ee 16 bb e9 b3 8a ba 15 4b bb ba
       0.0054258276 -0.0023030427 -0.0010582182 -0.0014289344
000340 23 64 32 bb be d0 c7 b8 e3 ab bc bb f9 7d 8f 39
       -0.002722033 -9.527941e-05 -0.005757795 0.00027368942
000350 43 8d 29 bb 6d ac a8 ba 5d 1a b2 3a 27 d9 62 bb
       -0.0025871552 -0.001286877 0.0013588179 -0.0034614296
000360 68 f4 5c b9 49 f4 0e 3b e1 c0 cd b9 1a 86 4e 3a
       -0.00021071883 0.0021813086 -0.00039244353 0.0007878259
000370 5b 4f 2f 3a 8c 62 28 ba 61 05 7e 3b 16 ce c0 3b
       0.0006687545 -0.0006423376 0.003876053 0.0058839424
000380 08 1d ca 3a 4f b2 01 3b ae da 2e bb 4c d8 89 3a
       0.0015420029 0.0019790118 -0.0026680636 0.0010516732
000390 cf e3 64 ba 08 26 b9 ba 98 88 63 3b 2a 9e 57 bb
       -0.0008731456 -0.0014125714 0.0034718867 -0.003290067
0003a0 f1 aa 20 bb f1 61 af 3a c2 4e 6f bb d5 cc 93 bb
       -0.0024515952 0.0013380629 -0.003651545 -0.004510502
0003b0 ce 37 a3 bb a4 a9 0c bb 15 70 ac 3b b9 4c 1c ba
       -0.0049810177 -0.0021463418 0.0052623847 -0.00059623603
0003c0 ad 82 8b 3b b5 1a 05 bb c5 dc 53 ba e6 03 b4 39
       0.004257521 -0.0020310108 -0.00080819085 0.0003433518
0003d0 01 62 25 3b ea 03 69 3b 16 6b dd bb db 0d de 39
       0.0025235417 0.0035555311 -0.0067571504 0.00042353463
0003e0 39 53 3f 3a 98 1c 13 3b fc 2e af bb 53 00 18 bb
       0.0007298473 0.0022447463 -0.005346177 -0.0023193553
0003f0 9b a3 4a 39 31 49 29 bb 34 05 40 3b 3d 36 a6 3a
       0.00019325169 -0.002583098 0.0029299976 0.0012680959

model.0.running_mean f4 [1024]
000000 2d 07 6b bd 75 44 90 bc 7b 4e ec 3b 00 c8 da bc
       -0.05737989 -0.017610768 0.007211504 -0.026706696
000010 83 a6 57 3b ee d8 65 bc 00 b8 20 3d 26 19 a2 bb
       0.0032905645 -0.014028771 0.039237976 -0.0049468456
000020 01 bc 83 bb d3 f3 04 3d 3c a7 43 bc 30 72 a5 3b
       -0.0040202145 0.03245909 -0.011941727 0.0050490126
000030 10 9f 53 bb 5a b4 5b bc a2 a9 9b 3b 7c d2 39 3c
       -0.0032290854 -0.013409698 0.0047504464 0.011341687
000040 45 12 13 bd 6c d2 c7 bc 92 f4 48 b9 b4 b9 0a 3c
       -0.035906095 -0.02439233 -0.00019164596 0.008467127
000050 2a 3d 84 3c 6e 89 2b ba 6b 10 a9 3c b0 3b 92 3d
       0.016142447 -0.0006543611 0.020637712 0.07140291
000060 07 0d a2 3c 66 40 f7 3c 52 e2 ca bc d5 8f 2f 3c
       0.019781603 0.030182075 -0.024766121 0.010715445
000070 0b 76 ac bb 30 ff 2a bc 5e 85 d2 3c 69 58 80 bc
       -0.0052630953 -0.010436818 0.02569836 -0.015667157
000080 b3 1e ff bb e7 8d 1f 3c 0d bc 52 bb a4 1c 6c 3c
       -0.007785642 0.009738422 -0.0032155544 0.014411125
000090 71 da 25 bc 28 e8 cb 3b a4 7a e6 bc 26 99 ab bb
       -0.010122881 0.0062227435 -0.028134651 -0.0052367626
0000a0 68 0d 38 3c 6e 5a cd 3c 95 4b 20 ba 54 1f 3a bd
       0.011233665 0.025067534 -0.0006114778 -0.045440033
0000b0 57 38 c4 bc df 47 8e 3b eb d7 11 ba 23 e2 cc bc
       -0.023952646 0.004342064 -0.00055634853 -0.025010174
0000c0 68 ee 3b bc 12 f3 aa 3d c4 69 ce bc 11 fe 94 bc
       -0.011470415 0.08347143 -0.025196917 -0.018187555
0000d0 4a 11 a6 bc 57 67 1b 3c c0 c5 27 3c 71 f5 0f bc
       -0.020271916 0.009485087 0.010240018 -0.008786545
0000e0 71 b1 04 3d a4 e0 0f 3c ce 24 b2 bb 1f 7a 2f bc
       0.032395784 0.008781586 -0.0054365164 -0.010710268
0000f0 d8 bb 23 3c a2 41 b4 bc ef 48 39 bc 00 ae bc 3c
       0.009993516 -0.022003952 -0.011308893 0.023032188
000100 2b 26 cd 3a d8 cd 65 bc 6d 7c b5 3b 5e bb e6 3b
       0.0015651634 -0.014026128 0.0055385143 0.007041379
000110 3c d3 ac 3a 51 81 b9 3b a9 05 18 3d 30 be 44 3c
       0.0013185511 0.0056611677 0.037114773 0.012008235
000120 d4 42 79 bc 61 f9 2f 3d c4 32 ff 3c 5d 1c 45 bc
       -0.015213687 0.042962436 0.031152137 -0.012030688
000130 30 bf cf 3c a3 e2 8c bc e0 08 85 3c af ef 8d bc
       0.02535972 -0.017197913 0.016239583 -0.017326204
000140 96 f1 09 bc 39 0e e2 3c bf fd 59 bd b8 a0 ad 3c
       -0.008419415 0.027594673 -0.053220507 0.0211948
000150 d8 ef 8b bc a4 31 26 bd 10 fd c2 3c 3f 83 8f bc
       -0.01708214 -0.040574685 0.02380231 -0.017518638
000160 fe 72 42 3c 2b e6 b8 3c 3b f1 af bc 39 9a ae bb
       0.011868237 0.02257069 -0.021477332 -0.0053284434
000170 22 07 41 bc 37 0e 48 3c 63 78 4b 3c 53 dd a1 3c
       -0.011781486 0.01221042 0.012418839 0.019758856
000180 e7 99 07 3c 44 43 6d 3d 78 c9 fe bb 5c d3 b4 3c
       0.008276439 0.057925478 -0.007775482 0.02207344
000190 4c b3 52 3c f2 88 d7 3c c2 56 4c bb 6f 1e 48 3c
       0.0128601305 0.026310418 -0.0031179641 0.012214287
0001a0 36 38 9c 3d 2a e1 89 3c 68 a0 2f 3b a9 2c b6 bc
       0.07627909 0.016831 0.002679849 -0.022238092
0001b0 e2 3e f8 bc ae a2 49 3d c6 e3 3d bc 89 95 25 3b
       -0.030303422 0.04922741 -0.01158995 0.0025266132
0001c0 d6 00 86 3d 31 0a 94 bb a2 39 ba bb 38 30 8b 3c
       0.06543128 -0.0045178165 -0.00568314 0.016990766
0001d0 b6 69 d3 ba 8e d9 d1 bb 94 e9 73 39 fa 1b b6 bb
       -0.0016129527 -0.0064041084 0.000232613 -0.0055575343
0001e0 f2 9c b9 bc fe 3d 1e bc 1d 63 88 bc 4c 22 58 bc
       -0.022657845 -0.009658335 -0.016648823 -0.013191771
0001f0 19 29 4a bd 67 67 b6 bc c3 ed 2e bc 95 8a a8 bc
       -0.0493556 -0.022266103 -0.010676804 -0.020573894
000200 ee 78 ae 3c 92 a5 a1 bc 8e ed 80 bd 62 f8 76 bc
       0.021297898 -0.01973227 -0.0629531 -0.0150738675
000210 19 bb 92 3c 99 cd 6e bb a5 d9 2b ba b2 9f e8 bc
       0.01791148 -0.0036438464 -0.0006555564 -0.028396461
000220 40 c1 2e 3d 4e 92 bb 3c c8 38 73 bb a4 90 b5 bc
       0.042664766 0.022896912 -0.0037112702 -0.022163697
000230 22 9e 35 3b 12 32 2d bd 46 84 27 bc 1f d9 a0 bb
       0.0027712663 -0.04228408 -0.010224408 -0.0049086954
000240 94 4b 74 bb 45 92 13 bc ee 89 39 3d f2 21 bd bc
       -0.0037276493 -0.009007041 0.045297556 -0.023087475
000250 3b d2 0e bd d6 27 cd 3a b0 95 07 bc 66 05 0d 3a
       -0.03486846 0.0015652131 -0.008275434 0.00053795276
000260 d9 75 d6 3b d8 3b cd 39 c8 9f 87 3c 25 e3 d9 3c
       0.0065448103 0.00039145234 0.016555682 0.026597569
000270 58 41 df 3c 37 f3 fb bb 13 d9 73 bb 74 f3 fc 3b
       0.027252838 -0.0076889056 -0.0037208244 0.0077194516
000280 6a 50 54 3a 1c 3e f0 3c b4 22 8b 3c 75 d4 79 3b
       0.0008099141 0.029326491 0.016984321 0.003812102
000290 a7 7d 8e bb e8 11 b5 bb f5 38 5b bd d9 fe d6 bb
       -0.004348475 -0.005525816 -0.053521115 -0.006561142
0002a0 41 6f 18 bd f3 9d e0 3c 25 ff ef 3c 9f 30 f5 3c
       -0.037215475 0.027419066 0.029296467 0.02993041
0002b0 a8 1b d4 3c 12 a1 00 bc 49 a9 b8 3c b8 e9 34 3c
       0.025892094 -0.007850902 0.022541659 0.011042051
0002c0 e8 5a 45 bc 1d dc 4c bc 0a 79 94 bc 10 ca a6 ba
       -0.0120455995 -0.012503651 -0.018124122 -0.0012725014
0002d0 f4 23 04 bd 7b 71 86 bc 14 f9 cf bb 48 39 3e 3c
       -0.03226085 -0.016411534 -0.006346831 0.011610337
0002e0 56 60 45 bc ad f9 d1 3c e2 65 3d 3d 85 dd 75 bc
       -0.012046894 0.02563175 0.04623974 -0.015006428
0002f0 6a e2 72 bc e4 11 06 bd f2 70 18 3d 53 cd 4c 3c
       -0.014824489 -0.032731906 0.037217088 0.012500125
000300 50 6d 7b 3c 50 44 00 3d cd d5 39 3c 4f 82 51 3c
       0.015345886 0.031315148 0.011342478 0.012787416
000310 0c 17 2f bc a8 79 6b bb c0 ea a1 3c e3 0a 08 3d
       -0.010686647 -0.0035930667 0.019765258 0.033213507
000320 47 2c d0 3b 50 6c 50 bc 1c e0 d4 3a 9a 46 d8 bc
       0.0063529345 -0.012721136 0.0016241106 -0.026400853
000330 e3 d9 ca bc 38 27 12 3c 06 14 40 bc 7d bf 57 bc
       -0.0247621 0.008920483 -0.011723524 -0.013168213
000340 af bc 89 3c 57 15 1a bc 38 63 09 bd 25 bf b4 bc
       0.016813604 -0.009404502 -0.033541888 -0.022063801
000350 30 4b 66 3c fe 59 ca 3c 37 ac a3 3b 38 bb 6d bc
       0.014056012 0.024701115 0.004994895 -0.014509968
000360 f8 00 4d 3c 6d 31 de 3c 0e d4 f6 bb 9d 21 d4 bb
       0.012512438 0.027123177 -0.007532603 -0.0064737336
000370 c7 e7 17 3c 27 89 98 bc 04 0f 46 bd 4d cf ac bc
       0.009271569 -0.018620087 -0.048354164 -0.021094942
000380 d9 2f b3 3c 7e 9a 56 3c d5 97 42 3b 99 0d a9 bc
       0.021873401 0.013098357 0.002969255 -0.020636367
000390 40 39 2e 3b 79 3d ab bc 4b 7b 19 bc 7e db f8 bc
       0.0026584417 -0.020903336 -0.009367774 -0.0303781
0003a0 65 01 a9 bb 5c cb ef bc 6c 8e 41 bc 06 6e 8a bc
       -0.005157637 -0.029271774 -0.011813741 -0.016898166
0003b0 6b 7e f0 bc 0e 04 10 3d 04 f6 a9 3c 38 c6 8f bc
       -0.029357156 0.035160117 0.020747192 -0.017550573
0003c0 31 9a 07 3d 38 a8 b5 ba b8 22 c2 bb da 35 d6 3c
       0.033106033 -0.0013859337 -0.005924549 0.026148725
0003d0 b3 f3 c3 bc ad 7e 0b b9 07 d8 44 3c 35 43 b5 3c
       -0.023919916 -0.00013303263 0.012014396 0.022126773
0003e0 cd e6 da 39 c5 21 e3 3c 19 ee 85 bc fe 64 c8 3c
       0.0004175216 0.027726064 -0.016348885 0.02446222
0003f0 a8 f7 96 3c 20 07 08 3b d6 fc 6e 3c b3 02 bd 3c
       0.018428639 0.00207562 0.014586648 0.023072576

model.0.running_var f4 [1024]
000000 b6 08 20 39 c4 06 15 39 f1 be 14 39 f0 0d f5 38
       0.00015262034 0.00014212268 0.00014185511 0.000116851064
000010 16 80 18 39 1d 1f 4b 39 07 4c 10 39 4d eb dd 38
       0.00014543565 0.00019371179 0.00013761233 0.000105819294
000020 68 fd fa 38 75 74 3c 39 81 a6 4c 39 8e ab 3a 39
       0.000119681295 0.00017972461 0.00019516984 0.00017802251
000030 78 69 22 39 3c 7e 0a 39 46 96 1d 39 da ae ff 38
       0.00015488814 0.00013207732 0.00015028668 0.00012191916
000040 02 f5 d8 38 2d 8e 20 39 b2 5f 72 39 0d a5 0c 39
       0.00010345319 0.00015311754 0.00023114568 0.00013412927
000050 f5 ba 13 39 80 2a 1f 39 4e a1 fc 38 7e 88 53 39
       0.0001408866 0.00015179254 0.00012046342 0.00020173375
000060 14 bf 0a 39 7e 21 2c 39 17 c9 4c 39 33 0b e7 38
       0.00013231888 0.00016415675 0.00019529868 0.000110170244
000070 f4 73 2e 39 08 2c ae 39 fa e0 64 39 a6 6c 38 39
       0.00016637129 0.00033220672 0.00021827585 0.00017588082
000080 2f 6b 4a 39 21 5b f3 38 a4 9f 5a 39 8b ca 44 39
       0.0001930415 0.00011604117 0.00020849571 0.0001876747
000090 45 08 02 39 b8 30 b3 38 0b 77 fc 38 8d 2b 6f 39
       0.00012400847 8.54446e-05 0.0001203847 0.0002280904
0000a0 4d 30 8e 39 32 af 20 39 4d 00 4a 39 5c 69 08 39
       0.00027120337 0.00015324054 0.00019264333 0.0001300922
0000b0 90 16 3c 39 25 18 7b 39 63 7d 73 39 29 59 54 39
       0.00017937482 0.0002394622 0.00023220996 0.0002025111
0000c0 40 20 03 39 d3 48 b3 39 42 c1 73 39 16 70 7f 39
       0.00012505148 0.000341958 0.0002324628 0.0002436045
0000d0 af 2e 38 39 21 71 4c 39 78 8d 13 39 8e ef 02 39
       0.00017564998 0.000194971 0.00014071714 0.00012487007
0000e0 d9 b4 72 39 f0 7c ca 38 de 82 13 39 4b 8b 16 39
       0.0002314629 9.655382e-05 0.00014067764 0.00014357005
0000f0 1c 82 43 39 6c 80 58 39 6e 85 82 39 25 04 40 39
       0.00018645119 0.00020647206 0.00024894945 0.00018312091
000100 5a 93 00 39 c8 2b dc 38 d8 8c 3a 39 9e 3c 09 39
       0.00012261924 0.000104985724 0.0001779081 0.0001308792
000110 69 03 16 39 b0 6e 3e 39 c5 cc 73 39 09 c6 5e 39
       0.00014306385 0.00018161046 0.00023250568 0.00021245344
000120 1f 88 6e 39 77 7d 37 39 62 fd 2c 39 5e f7 57 39
       0.00022748158 0.0001749898 0.0001649759 0.00020596149
000130 fa 8f ed 38 8c 24 58 39 be 2b 29 39 05 ed 4e 39
       0.000113278584 0.0002061298 0.00016133391 0.00019733988
000140 84 c8 3f 39 fd 19 df 38 3d d6 44 39 89 a4 10 39
       0.00018289877 0.00010638309 0.00018771827 0.00013794204
000150 f2 3e 06 39 dd 0d a3 39 ef 03 26 39 20 2f 82 39
       0.00012802685 0.00031100112 0.00015832459 0.00024830643
000160 e7 6b fb 38 ce a5 8b 39 9c f6 c0 39 8a 26 34 39
       0.00011988711 0.0002663568 0.00036804832 0.00017180495
000170 3d 20 04 39 8d 99 66 39 33 4a 26 39 88 85 36 39
       0.0001260051 0.00021991711 0.00015858635 0.00017406617
000180 ae d7 31 39 85 c5 33 39 ca 86 4b 39 c5 78 a5 39
       0.00016960382 0.00017144352 0.00019409801 0.00031561233
000190 64 94 15 39 d5 af f7 38 f8 fb 61 39 50 1e e2 38
       0.00014265027 0.00011810629 0.00021551538 0.00010782166
0001a0 a8 92 16 3a a8 bb 30 39 5e 86 3c 39 12 c7 65 39
       0.00057438994 0.00016854575 0.00017979133 0.00021913301
0001b0 28 f0 2a 39 68 f4 2c 39 88 15 34 39 6e 14 e4 38
       0.00016301929 0.00016494247 0.00017174159 0.000108756925
0001c0 93 d3 3e 39 20 9d 62 39 b2 4d 64 39 31 7f 90 39
       0.0001819863 0.00021611573 0.00021772718 0.00027560585
0001d0 33 ec df 38 15 90 28 39 c0 35 4b 39 0f 61 8a 39
       0.00010677464 0.00016075403 0.00019379612 0.00026393725
0001e0 04 40 61 39 c7 21 16 39 24 29 1d 39 04 01 2d 39
       0.0002148152 0.00014317698 0.00014988013 0.00016498944
0001f0 0c 67 17 39 0b b2 db 38 39 6f d5 38 86 59 dc 38
       0.0001443887 0.00010475897 0.00010177348 0.000105070925
000200 90 be 55 39 7c 98 94 39 ad 86 1d 39 ee 4e dc 38
       0.00020384253 0.0002834237 0.00015022857 0.00010505119
000210 c8 70 36 39 b4 b0 e7 38 f6 be f2 38 07 16 49 39
       0.00017398887 0.00011047852 0.000115750285 0.0001917706
000220 bf f1 6a 39 cb 4b 21 39 7f 45 2f 39 d1 b2 34 39
       0.00022406036 0.00015382392 0.0001671519 0.00017232752
000230 24 78 fb 38 99 96 1a 39 00 00 20 39 de 26 35 39
       0.000119909906 0.00014742686 0.00015258789 0.00017275984
000240 8e e7 ae 39 d2 29 6f 39 94 e7 3d 39 46 a6 0e 39
       0.00033360388 0.00022808395 0.00018110714 0.00013604117
000250 75 7e 98 39 19 49 35 39 90 44 83 39 52 49 1e 39
       0.00029085917 0.00017288736 0.0002503735 0.00015095368
000260 63 41 07 39 4a b7 71 39 6d 28 e5 38 d8 2d 38 39
       0.00012898962 0.00023051832 0.00010927101 0.00017564686
000270 95 e0 08 39 a4 d6 1e 39 67 b0 a9 39 e3 20 2e 39
       0.00013053634 0.00015148014 0.00032365622 0.00016606184
000280 8c 21 16 39 55 bf 12 39 a5 ae 03 39 93 d7 08 39
       0.00014317612 0.00013994922 0.00012558194 0.00013050278
000290 cb 7e fd 38 df fd d6 38 d0 ea 29 3a a1 82 19 39
       0.00012087597 0.00010251602 0.0006481828 0.0001463988
0002a0 b8 c3 53 39 f5 16 42 39 24 4a 17 39 0d d8 22 39
       0.00020195439 0.00018509834 0.00014428102 0.00015530009
0002b0 29 e5 3f 39 c8 20 f4 38 8a 87 83 39 49 54 41 39
       0.00018300548 0.00011640933 0.00025087252 0.00018437313
0002c0 cf fd 01 39 48 80 1d 39 82 98 f4 38 8e bc 93 39
       0.0001239695 0.00015020475 0.000116632335 0.0002817851
0002d0 9e 4b 2b 39 3d 83 69 39 ad 82 80 39 b6 2e 39 39
       0.00016336 0.00022269502 0.00024511424 0.00017660376
0002e0 41 39 1d 39 2f bb 09 39 57 29 65 39 62 55 20 39
       0.00014994016 0.0001313507 0.00021854542 0.00015290597
0002f0 6c f5 2f 39 9b ee 19 39 c4 ac 6e 39 4e fc 30 39
       0.00016780727 0.00014680105 0.00022761809 0.00016878659
000300 a3 dc 68 39 27 bc 12 39 8d cf 12 39 55 5c 6a 39
       0.00022207438 0.00013993737 0.00014000964 0.00022350375
000310 6e 5b 50 39 47 87 2d 39 cd 90 34 39 ba e0 22 39
       0.00019870486 0.0001654896 0.0001722008 0.00015533241
000320 39 58 1c 39 a5 8a 36 39 96 a9 48 39 57 a2 f7 38
       0.00014910185 0.00017408522 0.00019136662 0.00011808116
000330 24 82 0f 39 50 6f 1b 39 f1 17 18 39 83 c6 25 39
       0.00013686024 0.00014823419 0.00014504768 0.00015809578
000340 f8 1c 14 39 eb e8 31 39 e8 db 3e 39 e1 93 11 39
       0.00014125172 0.00016966804 0.00018201733 0.00013883367
000350 10 b5 15 39 4c fd 33 39 6b 40 17 3a 3d 1c c1 38
       0.00014277198 0.0001716513 0.0005769792 9.208217e-05
000360 e0 cb fb 38 6f b1 1c 39 c8 d4 ce 38 a7 cf 37 39
       0.00012006587 0.00014943419 9.862479e-05 0.00017529597
000370 d6 1b 24 39 fc 0d 1a 39 2e b3 11 39 5b d7 52 39
       0.00015650628 0.00014691794 0.00013895027 0.00020107387
000380 d5 a9 54 39 98 7e 19 39 32 f1 f1 38 77 77 de 38
       0.00020281163 0.00014638377 0.00011536702 0.00010608037
000390 83 0b f9 38 62 ef 11 39 b9 f4 11 39 43 92 cc 39
       0.000118753895 0.00013917455 0.00013919444 0.00039018886
0003a0 59 0a 46 39 d5 ee 42 39 03 0b ef 38 ed 14 eb 38
       0.00018886606 0.00018590254 0.00011398459 0.00011209571
0003b0 f3 23 3a 39 1e 27 0a 39 6b 3a 17 39 57 ec fa 38
       0.00017751734 0.00013175278 0.00014422245 0.00011964951
0003c0 87 ae 11 39 0c 47 19 39 b6 f5 3d 39 82 e8 38 39
       0.00013893294 0.00014617684 0.00018115979 0.00017634223
0003d0 a0 0b 5e 39 b0 22 fe 39 08 7f 0f 39 e3 cc ea 38
       0.000211759 0.000484725 0.00013684866 0.000111961526
0003e0 8e 84 05 39 98 aa fa 38 07 4a 31 39 19 ac 0d 39
       0.00012733249 0.000119527045 0.00016907613 0.00013510919
0003f0 a9 da 42 39 10 e4 f0 38 65 c1 17 39 3e f2 0d 39
       0.00018582739 0.00011486572 0.00014472527 0.0001353705

model.1.weight f4 [32, 1024]
000000 b9 7c f2 3c e4 a8 00 bd b1 14 1e 3c 71 02 5c bc
       0.029600488 -0.031411067 0.009648488 -0.013428316
000010 bd d9 87 3c 90 d5 9f bc 5d 7b 92 3c 4c 68 a3 bc
       0.016583318 -0.019511014 0.01788109 -0.019947194
000020 70 a7 89 3c 15 3a 4d bc 17 ff b1 3c 24 1d 79 3c
       0.016803473 -0.012526055 0.021728082 0.015204702
000030 74 0c dc 3c 3f df db 3c bb 89 ae bb bd a2 01 bd
       0.026861407 0.02683985 -0.0053264773 -0.03164934
000040 b0 c6 b0 bb 26 6a 1b b9 d6 96 02 bb b7 2f b6 bc
       -0.005394779 -0.00014821495 -0.001992633 -0.02223955
000050 c7 c0 f3 ba de aa de bb b3 2d fb bc ed ee 0d bc
       -0.0018596881 -0.0067952713 -0.03066144 -0.008662921
000060 6e 15 46 3c 3b 05 b1 bc 1a 24 d4 3c 75 59 80 bc
       0.01209007 -0.02160894 0.02589612 -0.015667656
000070 f1 e6 51 bb 78 b5 90 bc 2f f4 4c bc c4 44 f9 ba
       -0.003202852 -0.017664656 -0.01250939 -0.0019017686
000080 91 59 ac 3c 87 6e ce bb c1 ad 35 3c 63 72 b4 3c
       0.021038802 -0.006299797 0.011088789 0.0220272
000090 fc fd bd 3c 9a df 94 bc 14 c6 d4 3c 87 fc c2 bc
       0.023192398 -0.018173028 0.025973357 -0.023802055
0000a0 c4 db 8b bb 9c ef 75 bb 69 57 95 3b 63 c4 50 bb
       -0.0042681415 -0.0037526852 0.0045575392 -0.0031855337
0000b0 5b 27 e6 bc 9c 7f ae bc d3 89 c7 3b 23 37 59 3c
       -0.028094938 -0.021301083 0.006089428 0.0132577745
0000c0 49 86 b4 bb 13 65 66 bc e1 a5 1b bc 1e e4 3c bc
       -0.005509172 -0.014062184 -0.009499998 -0.011528997
0000d0 71 da 80 bc d4 2f d1 bb 04 d6 d0 bc 67 61 85 3b
       -0.015729161 -0.0063838754 -0.025492676 0.004070449
0000e0 c3 74 e2 3c 49 8d ff 3c ac ff e8 3c 4e 68 b0 3c
       0.027643567 0.0311953 0.028442226 0.021534111
0000f0 6a 14 2a 3c a5 6a a8 3c b0 ee 63 bc 4a 53 b0 3c
       0.010380844 0.020558665 -0.013911888 0.02152409
000100 c9 3d d4 3c 87 05 66 3b b7 b8 52 bc d0 cc bf bb
       0.025908368 0.003509851 -0.012861422 -0.005853273
000110 b9 15 d9 bb 99 b8 e6 3b 6e 38 47 bc 60 6b ac bc
       -0.006624904 0.0070410487 -0.01215945 -0.021047294
000120 ab 01 69 bc 3d 6c b2 3c f0 6e 27 bc 79 9c 87 3c
       -0.014221589 0.021780128 -0.010219321 0.016554104
000130 57 df 95 3b 33 08 23 bc 51 06 62 bc d1 ab 85 3b
       0.0045737433 -0.009950685 -0.013795451 0.00407932
000140 26 0d 5c bc 89 51 d4 bc 2e 62 a1 bc 79 15 dd 3c
       -0.013430869 -0.025917785 -0.019700136 0.026987778
000150 f1 49 92 bc 34 e0 0a 3d 8c f3 96 bc e1 21 ab bc
       -0.017857524 0.033905223 -0.01842668 -0.020890178
000160 e1 e0 00 3d 61 1b 27 bc 47 30 3f 3c ef a3 8f bc
       0.03146446 -0.010199399 0.011669225 -0.017534224
000170 c0 5d 87 3b 17 12 df 3c 6d b1 9a bb 78 c4 87 bc
       0.004131049 0.027230306 -0.004720858 -0.016573176
000180 24 83 4c bc 53 4c 8e bc f9 0b 1e 3b 6e 57 05 3c
       -0.012482438 -0.017370379 0.0024116023 0.008138521
000190 7d ed 20 3c 02 f0 b8 bc aa 35 bb 3c bd 77 1c 3b
       0.009822247 -0.022575382 0.022852737 0.002387508
0001a0 9f fa 9a bc 70 c5 ad bc 4d 9c 87 bc 38 f9 bb 3c
       -0.018918334 -0.02121231 -0.016554022 0.022945985
0001b0 9b 28 81 3c 77 34 29 3c fe c4 af bc ac f9 d0 bc
       0.015766433 0.01032745 -0.021456238 -0.025509678
0001c0 9a 39 10 3c 5d e6 0c 3c f4 02 bb 3c 0f 3e 65 ba
       0.008802796 0.008599845 0.022828557 -0.0008744904
0001d0 be fe b3 3b 5b b3 07 bc 35 c2 c3 3c 9e 19 f0 bc
       0.005493014 -0.008282508 0.023896316 -0.02930909
0001e0 f3 b3 48 3c 6f 12 14 bc 7c b7 5d 3c 0f 73 8a 3c
       0.0122499345 -0.009037598 0.013532516 0.016900567
0001f0 2c b6 69 3c e1 3a 88 bc 5f 01 ad bc 33 43 7c 3c
       0.014264625 -0.016629638 -0.021118818 0.015396881
000200 09 75 65 bb c9 b3 f5 3c a6 40 5c bc 20 02 db 3c
       -0.0035012385 0.029992955 -0.013443148 0.026734412
000210 6d 12 a8 3c ed f1 a2 bc 1a b1 c5 3c 10 23 7c 3b
       0.020516599 -0.01989075 0.0241323 0.0038473047
000220 1b 04 49 bc 2b 79 b8 bb 41 2f 04 3d a4 fa fc bb
       -0.012269045 -0.0056296787 0.032271627 -0.0077203084
000230 14 13 68 bc 2a fc d7 37 1a dd b1 bc 80 c0 9d 3b
       -0.014164705 2.574742e-05 -0.021711875 0.0048142076
000240 e0 10 4a bb ff c7 cf 3c fa a2 4a bb 3e 13 b9 3c
       -0.0030832812 0.02536392 -0.0030919896 0.022592183
000250 b2 9b 03 3c 77 f9 ef bb 09 4d 5c 3c 86 e6 97 3c
       0.008032726 -0.0073234397 0.013446101 0.01854254
000260 99 1c b2 3c 37 e5 5a 3c cf 5c 70 3c 60 78 c6 3c
       0.021742152 0.013360313 0.014670565 0.024227321
000270 bd f0 1b 3c 84 a4 8e 3c 5a 1d 8a 3c 0d b0 78 3c
       0.009517846 0.017412432 0.016859699 0.0151786925
000280 ab 61 f8 3c c8 2e c3 bc 71 63 ad bb fa 89 93 bc
       0.03032001 -0.023826018 -0.0052913954 -0.018010128
000290 9a ea 5b 3c 2f 5d c3 bc 60 ff 30 bc 1f 73 99 39
       0.013422633 -0.023848144 -0.010803074 0.00029268206
0002a0 3f e4 ee 3c 9a ee 07 bc 93 59 f2 bb 76 dd 0d 3c
       0.02916157 -0.008296633 -0.007395932 0.008658757
0002b0 5f 25 d5 3c 6f 6f b2 bb 70 26 72 bc 96 18 fa 3c
       0.026018796 -0.005445413 -0.014779672 0.030529302
0002c0 c6 99 cf bc 55 60 ac bc a9 65 a1 3c fc 93 98 3c
       -0.02534188 -0.021042028 0.019701796 0.018625252
0002d0 2d 7b e9 bc 61 17 c3 bc b2 5d 9d 3c 17 f9 ba 3c
       -0.028501118 -0.023814859 0.019209716 0.022823853
0002e0 2f 76 dc bc e3 c7 47 3c d9 59 84 bc 7c 1c ae 3c
       -0.026911823 0.012193653 -0.016156124 0.021253817
0002f0 57 ea e2 bc 0c 92 8c bb 3c 83 d9 bc a8 0b 0a bc
       -0.027699633 -0.004289871 -0.026551835 -0.008425631
000300 d0 0e c5 39 0c da 8b bc f6 f2 45 3c a6 39 9a bc
       0.00037585804 -0.017071746 0.012081852 -0.018826317
000310 af 1e c2 bc c7 52 8c 3c 97 e6 61 bc 3c 1f eb bc
       -0.023696272 0.017129315 -0.013787887 -0.028701417
000320 9a 00 c5 bc 2c 51 d0 bc 0f 7f e8 3c f8 eb f2 3b
       -0.024048138 -0.02542933 0.028380899 0.0074133836
000330 c7 f0 95 3c d4 04 1c ba 5c 56 69 3c c0 b2 c4 bc
       0.018303288 -0.0005951647 0.014241781 -0.024011016
000340 0a 0d d9 3a e0 7c 55 bc b1 6e f2 3c bf 57 ad bc
       0.0016559672 -0.013030261 0.029593797 -0.021160005
000350 b7 34 ed 3c c6 8a 02 3d 23 09 fe bc c4 9b df 3c
       0.0289558 0.031870626 -0.031010216 0.027295955
000360 10 be 95 3c 78 b1 88 bc c4 2c e3 bc 24 44 9d 3a
       0.018279105 -0.016686186 -0.027731307 0.0011998457
000370 c8 25 ba 3b d8 99 c6 bc 96 81 d3 3c 6d 65 d3 3c
       0.0056807734 -0.02424328 0.025818627 0.0258052
000380 61 1b f6 bc d2 63 45 3a 65 ce 9f bb f4 6c b0 3c
       -0.030042352 0.0007529828 -0.004876899 0.021536328
000390 f1 23 81 3b 28 8b 2a ba 34 68 fa bc 45 a4 64 3c
       0.003941052 -0.0006505721 -0.030567266 0.0139551805
0003a0 e1 4b 67 3c 0d b2 75 3c 2d 03 b5 bc fd c1 45 bc
       0.014117212 0.014996064 -0.02209624 -0.012070176
0003b0 71 84 80 bc 71 66 e9 3c 0a f6 2d bb 71 0e 81 3c
       -0.015688153 0.02849123 -0.0026544356 0.015753957
0003c0 c9 7d 97 3b f2 3e 94 bc 2a 41 42 3c 9a 08 78 bc
       0.004623149 -0.01809642 0.011856357 -0.0151387695
0003d0 43 db a6 3c 2b 31 fd bb 2e 8a 3c bc f7 6e 4f bb
       0.020368224 -0.0077268085 -0.011507554 -0.0031651834
0003e0 34 d0 f0 3c 18 9c a1 bc b2 02 a2 bc b7 8b f3 bc
       0.029396154 -0.019727752 -0.019776676 -0.029729707
0003f0 50 e4 f7 3c c9 af fb 3c 89 c6 84 3c 4d 21 8e 3c
       0.030260235 0.03072347 0.01620795 0.017349863

model.1.bias f4 [32]
000000 fa 0c 2f bb 20 1d 98 bc db 53 f6 bb 43 6b 15 bc
       -0.0026710615 -0.018568575 -0.0075173206 -0.0091198115
000010 1c c4 c7 3b c6 26 f2 bb 5a 5f 1d 3a 6b e9 f5 bb
       0.006096376 -0.007389876 0.0006003283 -0.007504632
000020 9e 3d 28 3c 8d 16 d9 bc 57 71 d3 3b be 02 f6 3c
       0.010268597 -0.02650001 0.00645272 0.030030604
000030 df ea d3 3a a5 e0 f5 3c a5 2c 67 ba 57 12 83 bc
       0.001616802 0.030014345 -0.0008818603 -0.015999956
000040 ce 59 e8 3c 22 03 a7 3c 7d 0a 94 3c 27 18 2a 3c
       0.028363135 0.020387236 0.018071407 0.010381735
000050 19 e1 f4 3c c4 b8 01 bc 74 a9 cc bb 6d 06 b2 bb
       0.029892491 -0.007917587 -0.0062457863 -0.005432895
000060 af 06 04 bd ce 87 0f 3c 97 fb 9e bc 3e 53 8c 3b
       -0.032232936 0.008760406 -0.019407077 0.004282384
000070 6f e6 d9 3c 6d 51 ba bc a2 f2 42 3b b7 b4 bd bb
       0.026599137 -0.022743905 0.0029746671 -0.005789365

model.4.weight f4 [64, 32]
000000 1c 67 7f bb 12 d0 5e 3d 99 48 6d bd da 3d af 3d
       -0.003897137 0.05439765 -0.057930563 0.08556719
000010 d0 4b 0e 3e 5a c0 13 be 27 b2 9f 3d 21 21 f5 bd
       0.13896108 -0.14428845 0.07797652 -0.119692095
000020 a5 15 d8 3d db 8c 21 bd b0 cd 08 bd 6a d2 29 3e
       0.10551003 -0.03944097 -0.033399284 0.16584173
000030 86 1d ef bd 68 a6 af 3c 83 05 ae bd 0d 3e bf bd
       -0.11675553 0.021441653 -0.08497145 -0.09338007
000040 7d a1 b9 3c 2a 34 23 bc 88 ab 21 be 86 f3 63 3d
       0.022660011 -0.009961167 -0.1578809 0.055652164
000050 67 cb 18 be 6d 91 d9 bd 92 21 99 3c e7 71 e4 bd
       -0.14921342 -0.10623441 0.018692765 -0.11154538
000060 94 20 09 be ba 09 2b be a5 f8 56 3d 22 81 2b 3e
       -0.13391334 -0.16702929 0.05248322 0.16748479
000070 08 c9 d0 3b 26 7e d4 3d 8a 66 03 be e2 52 2a 3d
       0.006371621 0.103756234 -0.12832084 0.04158295
000080 09 4a ef 3d e4 f4 1c 3e a2 49 2c 3e fd 20 90 bc
       0.11684043 0.15327793 0.16824964 -0.017593855
000090 09 b7 a6 bd dc ab c0 bd ad 60 fc bd 99 63 cb 3d
       -0.0814038 -0.094077796 -0.12323127 0.09931106
0000a0 9d 8b 10 be 34 3d 93 ba d7 14 4b 3c 86 0f 9e 3d
       -0.14115758 -0.001123345 0.012395105 0.077178046
0000b0 45 dd 25 be 32 a8 0d be e6 e0 13 3d 5e 70 e2 bd
       -0.16197689 -0.13833693 0.03610315 -0.110565886
0000c0 c2 62 22 3d e3 60 12 3e 3a 4f 0e be be 27 eb 3c
       0.039644964 0.14294772 -0.1389741 0.028705474
0000d0 65 c5 1d 3e a0 4e da bc 96 65 5a bc 25 22 1a bd
       0.15407331 -0.02664882 -0.013329884 -0.03763022
0000e0 aa 58 dc 3d d7 0b 13 bc ca e7 e4 bd dd 9a 23 3e
       0.10759099 -0.008974991 -0.11177023 0.15977044
0000f0 63 d7 89 3c c9 cb 52 bd 75 81 d6 3d e7 bd fb bd
       0.016826337 -0.051463876 0.10473911 -0.122920804
000100 38 b1 03 be 0d 4b f4 bd 92 85 95 bd 00 a0 e4 3d
       -0.12860572 -0.11928377 -0.07300867 0.1116333
000110 86 75 fb 3d 3f a2 85 3c 1a b0 2e 3b 7b 89 b1 ba
       0.12278275 0.016312717 0.0026655258 -0.0013545001
000120 6a eb 9e 3d 36 c4 0a be c5 f1 8b bd 1f 29 24 be
       0.077597454 -0.13551411 -0.06833223 -0.16031311
000130 41 35 fd bd eb 2f 07 3e c0 e5 82 bd c0 5d 87 3d
       -0.12363673 0.13201873 -0.063914776 0.06609678
000140 97 21 d8 3d 38 49 c2 3d 3c 6d e8 bd 9e ba 28 3e
       0.10553282 0.094866216 -0.1134896 0.16477439
000150 9b 2a 8b 3d fa 25 c4 3d a7 ee 51 bc 60 4d 12 3e
       0.06795236 0.09577556 -0.012813247 0.14287329
000160 c1 39 ba bd df 6c c8 3d cd ae f6 3c 32 bb 0e bc
       -0.09093047 0.097863905 0.030112648 -0.008711623
000170 98 14 ff bd c5 65 b7 bd 15 01 27 3e 9b e1 3d 3d
       -0.124551 -0.08954958 0.16309007 0.046357732
000180 7a 8d 1b 3e bd a3 04 3d bc f3 cc 3d 79 43 fd bc
       0.15190688 0.032382715 0.10007426 -0.030915963
000190 6a 0d 8d 3d 88 d6 d8 3d 1f 21 2f bc c0 4a c0 bd
       0.06887324 0.105877936 -0.010689049 -0.093892574
0001a0 7d 53 5b 3d 05 7d 2a 3e a1 41 7d 3d 0f b9 a4 3d
       0.053546418 0.16649254 0.061830167 0.080431096
0001b0 c1 46 b8 3d 3c 3c 9a 3d bd 93 91 bd c0 52 95 3d
       0.0899787 0.0753102 -0.07108257 0.07291174
0001c0 2b ad df 3d 4e 87 e7 3d 1f 57 22 be 38 49 8d 3d
       0.10921701 0.11305104 -0.15853547 0.06898731
0001d0 d2 fb c2 bd 39 e7 e8 3c 2f 8a 07 be e7 db 8c ba
       -0.09520687 0.028430568 -0.13236307 -0.0010746688
0001e0 d9 84 aa 3c c4 26 06 be c9 65 d5 bc a0 82 6d 3d
       0.0208153 -0.13100725 -0.026049512 0.0579859
0001f0 aa c3 a6 bd e3 d9 34 3e f3 52 10 bc 27 5a 12 3e
       -0.08142789 0.17661242 -0.008808839 0.14292203
000200 3f 57 8e 3d 74 d6 07 be 18 4d 83 bd ce 2a b7 bd
       0.069502346 -0.13265401 -0.06411189 -0.08943711
000210 33 6a 13 be de fd 9f bc 5d 4a 6c bd d0 8a 81 3d
       -0.1439598 -0.019530233 -0.057688106 0.063253045
000220 dc fb da 3c fd 94 fa bd 3c 10 07 3d 56 57 52 3d
       0.026731424 -0.122354485 0.032974467 0.05135282
000230 36 5b 0d 3d af 5b f6 bd 0b 60 c5 3d c0 2d a2 bd
       0.034510814 -0.12029206 0.09637459 -0.07918882
000240 b2 65 0c 3e ce 6b 05 3e fa 6b f0 3d a6 5d b3 bd
       0.13710669 0.13029405 0.11739345 -0.087580964
000250 72 9c 28 3e b8 74 dc 3c 24 7b b4 bc e5 79 20 3d
       0.16465929 0.026911125 -0.022031374 0.039178748
000260 86 4d 31 3e 98 7a 08 3e 95 87 29 3e 0e ec 4c 3d
       0.17314729 0.13328016 0.16555627 0.050029807
000270 49 fe c1 bd e7 00 ba bd 41 1a 22 be 82 16 20 3e
       -0.09472329 -0.09082203 -0.15830328 0.15633586
000280 31 eb 8d bd 20 97 2a be e0 a4 3d bd 5b 61 e7 3d
       -0.06929625 -0.16659212 -0.046299815 0.11297866
000290 72 21 8a 3d 5e ee 1d 3e 65 98 36 3e 18 25 41 3d
       0.067446604 0.15422961 0.17831571 0.047154516
0002a0 9f 8c ae bd 01 e0 13 3e 15 fd 3e bb 6d a0 ee 3d
       -0.08522915 0.1444092 -0.0029142548 0.116516925
0002b0 1c 8c dc 3d 27 48 08 be d9 8e fd bd 32 6a 25 be
       0.10768911 -0.13308774 -0.12380762 -0.16153792
0002c0 f9 1a 63 bd 68 57 15 bd 10 ad f1 bc 9e 50 10 3d
       -0.055445645 -0.03646031 -0.029501468 0.035233133
0002d0 f3 45 7e 3b 55 cd 22 bd 64 a0 c2 bc 22 41 74 bd
       0.0038799017 -0.0397466 -0.02375812 -0.059632428
0002e0 13 54 28 be 99 7f 88 3d ff 20 30 3e 12 b9 9e bd
       -0.16438322 0.06664962 0.17200087 -0.07750143
0002f0 6d 9f be bc 37 26 02 be 25 9a 2d be ca d8 6c bd
       -0.02326938 -0.1270989 -0.16953333 -0.057823934
000300 dc a4 08 be 00 74 04 3e ea 1a 5e bc ce c2 07 be
       -0.13344139 0.12934875 -0.0135562215 -0.13257906
000310 62 cd ea bd 86 ff 89 bc 3c fb e6 3c 9d 9f b2 3c
       -0.11464955 -0.016845476 0.02819597 0.021804625
000320 62 5a a6 bc d9 0f 19 3c 10 9b 1d bd b3 06 c8 bd
       -0.02030677 0.009342157 -0.038477957 -0.09766903
000330 4b 3a 11 3e 13 cb 38 3d 1d 43 0f 3e 23 b6 b0 bd
       0.14182393 0.04511554 0.13990445 -0.0862849
000340 a8 dc ce bc 31 2a 87 3c 1e 71 c2 3d 53 61 29 be
       -0.025251701 0.01649961 0.09494232 -0.16541032
000350 fa 1f 16 be 40 bd 00 3d 40 b0 cc 3d 91 47 98 3c
       -0.14660636 0.031430483 0.099945545 0.018588813
000360 6d ed d2 bd b7 3b 22 3e dd 1a 2f 3e be 3d 3e 3e
       -0.102991916 0.15843092 0.17100091 0.1857824
000370 fc cf 0a 3e 25 6e ea bc 33 19 13 3e 40 83 33 be
       0.13555902 -0.028616974 0.14365081 -0.17530537
000380 44 21 04 be e0 c7 76 bd 6c f2 b3 3d b5 5e 0b 3d
       -0.12903315 -0.06024921 0.08786473 0.034025867
000390 48 73 1f be 03 46 34 3e 2a 00 11 be 6b 46 24 be
       -0.1557132 0.17604832 -0.14160219 -0.16042487
0003a0 a8 f7 e0 3d a7 a1 09 be 7a 63 ed bd d1 57 ba 3d
       0.10984737 -0.13440572 -0.11591239 0.09098781
0003b0 ac 02 f4 bd cc 43 58 3d 67 59 9d 3d 42 bf ad bc
       -0.11914572 0.05279903 0.07683068 -0.021209363
0003c0 01 28 60 ba ed 43 85 b9 76 21 fd bc 77 80 58 bd
       -0.0008550883 -0.00025418345 -0.030899744 -0.05285689
0003d0 13 36 d5 3a 18 19 32 bd 43 b0 57 3d 00 6f 1e bb
       0.0016266726 -0.043480963 0.05265833 -0.0024175048
0003e0 47 63 b8 bd c8 13 d3 bd dc c3 03 3e a1 5e 06 3e
       -0.09003311 -0.10306507 0.12867683 0.13122036
0003f0 69 dd 74 bd ea d8 db 3c 4d aa 04 be ae c2 1e be
       -0.059781466 0.026836831 -0.1295559 -0.15503952

model.4.bias f4 [64]
000000 93 f4 25 be 57 34 86 bd 65 62 1d 3d 63 38 42 3d
       -0.16206579 -0.06552952 0.038423914 0.047417056
000010 90 73 fd bb 38 96 f6 bd 6a 77 c5 bd e7 84 fe 3c
       -0.0077347234 -0.12040371 -0.09641917 0.031069232
000020 04 84 a6 3d ec 96 e9 bd ce 4a 8f ba e4 aa 1c 3e
       0.08130649 -0.11405739 -0.0010932328 0.15299565
000030 55 0a 27 3d cd dc 3b bd 0b c6 ee 3d 54 b9 00 3d
       0.040781338 -0.04586487 0.116588674 0.031426743
000040 19 62 a7 3d a6 96 2b 3d 77 eb c4 3d 62 2a 94 3d
       0.081730075 0.041891716 0.09615224 0.072346464
000050 35 ad 17 3c 99 91 84 3d 70 5b c4 3d b4 18 4a 3d
       0.009257604 0.06473083 0.09587753 0.049339965
000060 3b 32 e9 bd 73 ff b3 bd a4 ea 2c be cd 32 a4 3d
       -0.11386534 -0.087889574 -0.16886383 0.08017502
000070 7f 22 00 be c3 ad 0f 3e 3e 35 7e bc 68 90 17 be
       -0.12513159 0.14031129 -0.015515624 -0.1480118
000080 f8 0b c2 3d 47 83 0e 3e b2 08 33 3e 05 d8 1c 3d
       0.09474939 0.13917266 0.17483786 0.03829195
000090 af c9 e0 3d 43 26 22 be 24 7f 95 3d af 2d f3 3d
       0.10975968 -0.15834908 0.07299641 0.11873948
0000a0 e0 f7 0e 3e 32 29 2e 3e 51 28 1f 3e 5e 39 9d bd
       0.13961744 0.17007902 0.15542723 -0.076769575
0000b0 3a 1d 5a 3d 5e af 10 3e 5f 89 31 be 10 05 c7 3c
       0.05325053 0.14129397 -0.17337559 0.024294406
0000c0 66 73 9b 3d 31 90 66 3d 1e ee ba bd 21 da 17 3e
       0.0759037 0.056289855 -0.091274485 0.14829303
0000d0 8c 8f 09 3d a4 f8 d7 bd e1 47 83 bd ce 98 38 bd
       0.033584163 -0.10545471 -0.06410194 -0.0450676
0000e0 a4 91 91 3d 14 5e af bb 18 f2 14 be 36 1b 26 3e
       0.07107857 -0.005351791 -0.14545476 0.16221318
0000f0 0a ae be 3c 42 6b 6e 3d fc 85 aa bd 66 29 87 bd
       0.023276348 0.058207758 -0.08326337 -0.06599693

model.7.weight f4 [1, 64]
000000 af 2b a8 bd 8a fe 05 bd a4 8f 8f bd e0 20 80 3d
       -0.08211457 -0.03271345 -0.07009819 0.062562704
000010 ac 1f b5 3c 79 51 1c 3d 8b f7 04 be 13 6f d9 bd
       0.022109829 0.038163636 -0.12985055 -0.10616889
000020 fa ad d1 bd ff 16 01 bd 58 dc 20 bd a8 2d 8f bd
       -0.102382615 -0.03151607 -0.039272636 -0.0699113
000030 04 d0 cf 39 3f 44 c1 3c f9 09 d3 bd 8a 7a d6 3d
       0.000396371 0.023592113 -0.103046365 0.10472591
000040 fa a3 02 bd 19 8b 74 3d b0 b6 4c 3d b3 b8 db bd
       -0.03189466 0.059702966 0.049978912 -0.10728588
000050 86 c2 c8 bd 08 7d cc 3b f2 07 01 bc e0 95 52 3a
       -0.098027274 0.006240491 -0.0078754295 0.00080331974
000060 42 7d 8b bd d3 55 a4 3c ae a9 82 bd 90 8d e5 bd
       -0.068110004 0.020060455 -0.0638002 -0.112086415
000070 59 38 f0 3d b6 ab fb 3c a8 17 84 bd 18 da 9d 3d
       0.117294975 0.030721527 -0.064498246 0.07707614
000080 db a2 a5 3c 94 81 d4 bd 48 63 9d bd 73 c7 e6 bd
       0.020219257 -0.103762776 -0.07684952 -0.11268511
000090 67 14 8b bd d8 bf ed bd 71 b7 90 3c 84 17 d7 bc
       -0.06791001 -0.11608857 0.017665597 -0.02625633
0000a0 00 93 0f 3d 37 6d 02 bd 77 33 67 3d 90 6e 9e bd
       0.0350523 -0.031842437 0.056445565 -0.07735932
0000b0 f9 7f 4d 3c ec 75 89 bd da da d3 bd 40 b4 01 3e
       0.012542718 -0.06711945 -0.10344477 0.12666416
0000c0 1c 48 3b bd 62 e9 a0 3d 3f 2e d4 3d be c0 11 bd
       -0.045723066 0.07857014 0.10360383 -0.035584204
0000d0 19 34 d8 3d cb 4c f1 bd 71 ab c4 3d f0 e8 ab bb
       0.10556812 -0.11782225 0.09603012 -0.005246274
0000e0 2a 1e ef 3c 45 8c b3 bd 69 fc ae 3d 9e 57 ae bd
       0.029189188 -0.08766989 0.08544237 -0.085128054
0000f0 e0 f6 ed bd e8 14 ae 3d 01 61 c8 bd 55 35 a7 3d
       -0.11619353 0.08500081 -0.09784127 0.08164469
