lightning_logs/version_7/checkpoints/epoch=199-step=1600.ckpt (torch, 464377 bytes, 23 tensors)

model.0.weight f4 [1024]
000000 40 4d 80 3f 98 e9 7f 3f 95 41 80 3f 99 17 80 3f
       1.0023575 0.9996581 1.0020014 1.0007201
000010 e7 32 80 3f 97 e9 7f 3f 1f 46 7f 3f 16 38 80 3f
       1.0015534 0.99965805 0.9971637 1.0017116
000020 e5 c2 7f 3f ff 00 80 3f 89 9b 7f 3f 68 3e 80 3f
       0.9990676 1.0000304 0.998467 1.0019045
000030 39 4d 80 3f 7c 2a 80 3f bd c4 7f 3f 1b 4b 80 3f
       1.0023566 1.0012965 0.99909574 1.002292
000040 29 e7 7e 3f c1 c8 80 3f 54 54 80 3f ee d2 7f 3f
       0.9957147 1.0061265 1.0025735 0.9993123
000050 42 48 80 3f 48 43 80 3f 1e 5e 80 3f 3e b6 7f 3f
       1.0022051 1.0020533 1.0028722 0.99887455
000060 b1 fb 7f 3f 0b d8 7f 3f bc 1b 80 3f 46 6b 80 3f
       0.99993426 0.9993903 1.0008464 1.0032737
000070 bf f4 7f 3f 3c c2 7f 3f 7d b9 7f 3f 2f 69 80 3f
       0.9998283 0.99905753 0.9989241 1.00321
000080 f4 85 7f 3f fa 91 80 3f 8c 73 80 3f 2a 22 80 3f
       0.9981377 1.0044549 1.0035262 1.0010426
000090 47 42 80 3f 9f a9 7f 3f ef e4 7f 3f 38 27 80 3f
       1.0020226 0.99868196 0.999587 1.0011969
0000a0 ea 2b 80 3f 50 a9 7f 3f 40 42 80 3f c9 23 7f 3f
       1.0013402 0.99867725 1.0020218 0.9966398
0000b0 2b 56 80 3f 95 be 7f 3f 44 5a 80 3f 8d b6 7f 3f
       1.0026296 0.9990018 1.0027547 0.99887925
0000c0 a7 6d 80 3f 7d 15 80 3f d2 ed 7f 3f d8 ab 7f 3f
       1.0033463 1.0006558 0.9997226 0.9987159
0000d0 98 01 80 3f 40 03 80 3f 75 9f 7f 3f 31 e0 7f 3f
       1.0000486 1.0000992 0.9985269 0.99951464
0000e0 eb b5 7f 3f f3 00 80 3f 1b da 7f 3f a9 dd 80 3f
       0.9988696 1.000029 0.9994218 1.0067645
0000f0 52 04 80 3f dd 3e 7f 3f b0 62 80 3f f6 1f 80 3f
       1.0001318 0.99705297 1.0030117 1.0009754
000100 ea 0f 80 3f cb ff 7f 3f 8e 0b 7f 3f bf 21 80 3f
       1.0004857 0.99999684 0.99627006 1.0010298
000110 6f e0 7f 3f ee f9 7f 3f 5a 63 7f 3f 64 69 80 3f
       0.99951833 0.9999074 0.99760973 1.0032163
000120 71 b0 7f 3f e9 ef 7f 3f 33 8b 7f 3f 82 64 7f 3f
       0.99878603 0.9997545 0.99821776 0.9976274
000130 bd b7 7f 3f f9 2a 7f 3f 53 8f 7f 3f ed 8d 7f 3f
       0.9988974 0.99674946 0.9982807 0.99825937
000140 fa 9f 80 3f d9 1b 80 3f e0 68 7f 3f 8c 23 80 3f
       1.0048821 1.0008498 0.997694 1.0010848
000150 07 91 7f 3f 95 28 80 3f 6d 75 7f 3f f9 43 80 3f
       0.9983067 1.0012385 0.9978855 1.0020744
000160 e7 fe 7f 3f 2b 68 7f 3f fa 83 80 3f 0e 14 80 3f
       0.99998325 0.9976832 1.0040276 1.000612
000170 aa 00 80 3f 66 00 80 3f 34 4b 80 3f 7d c8 7f 3f
       1.0000203 1.0000122 1.002295 0.99915296
000180 d9 f5 7f 3f 99 f3 7f 3f 9b 98 80 3f 21 0d 80 3f
       0.9998451 0.99981076 1.0046571 1.0004007
000190 ea 08 80 3f 66 46 80 3f 0b 36 80 3f a6 51 80 3f
       1.000272 1.0021484 1.0016493 1.0024917
0001a0 23 72 80 3f fa 2c 80 3f cc c9 7f 3f 49 95 7f 3f
       1.0034832 1.0013726 0.9991729 0.99837166
0001b0 56 b7 7f 3f 17 39 80 3f 32 b9 7f 3f de 14 80 3f
       0.99889123 1.0017422 0.9989196 1.0006368
0001c0 c2 2f 80 3f 14 22 80 3f 50 ea 7f 3f ea 0f 80 3f
       1.0014575 1.00104 0.9996691 1.0004857
0001d0 bf 48 80 3f ff 33 80 3f 45 fb 7f 3f 8b 5a 80 3f
       1.00222 1.0015868 0.9999278 1.0027632
0001e0 1c 3f 80 3f 2b 66 7f 3f 6b 15 80 3f 38 7c 7f 3f
       1.001926 0.9976527 1.0006536 0.9979892
0001f0 cd 33 7f 3f 0a 0c 80 3f e7 5e 7f 3f 1c 29 80 3f
       0.99688417 1.0003674 0.99754184 1.0012546
000200 d3 10 80 3f ae f0 7f 3f 6e 39 80 3f b7 66 7f 3f
       1.0005134 0.99976623 1.0017526 0.99766105
000210 f5 1a 80 3f 08 d2 7f 3f d0 13 80 3f 15 ea 7f 3f
       1.0008227 0.9992986 1.0006046 0.99966556
000220 fd a0 80 3f 91 13 80 3f b0 4e 80 3f 36 b9 7f 3f
       1.004913 1.0005971 1.0024014 0.99891984
000230 e2 db 7f 3f ac ff 7f 3f 72 73 80 3f 83 24 80 3f
       0.9994489 0.999995 1.0035231 1.0011142
000240 5d 2f 80 3f 86 1c 80 3f c7 0c 80 3f 37 28 80 3f
       1.0014454 1.0008705 1.0003899 1.0012273
000250 60 6d 80 3f 17 37 80 3f f2 ca 7f 3f c6 02 80 3f
       1.0033379 1.0016812 0.99919045 1.0000846
000260 00 5d 80 3f 29 cd 7f 3f c9 ba 7f 3f 90 84 7f 3f
       1.0028381 0.99922425 0.99894387 0.9981165
000270 82 12 80 3f da 53 80 3f 20 0d 80 3f 3e 78 80 3f
       1.0005648 1.002559 1.0004005 1.0036695
000280 ca 7b 80 3f a0 ba 7f 3f c4 bb 7f 3f 67 ce 7f 3f
       1.0037777 0.9989414 0.9989588 0.9992432
000290 11 af 7f 3f bf d3 7f 3f c3 31 80 3f dc e7 7f 3f
       0.99876505 0.99932474 1.0015186 0.99963164
0002a0 1d dc 7f 3f 06 31 80 3f b1 d2 7f 3f 73 2d 7f 3f
       0.9994524 1.0014961 0.99930865 0.99678725
0002b0 4b 00 80 3f c5 28 80 3f c0 86 80 3f d1 a7 7e 3f
       1.000009 1.0012442 1.0041122 0.9947482
0002c0 4d 4a 80 3f f0 86 7f 3f a4 50 80 3f 64 c3 7f 3f
       1.0022675 0.99815273 1.002461 0.9990752
0002d0 c9 77 7f 3f b7 84 7f 3f dd 15 80 3f 86 58 80 3f
       0.9979215 0.9981188 1.0006672 1.0027015
0002e0 66 51 7f 3f c5 8e 80 3f ce 20 80 3f 49 30 80 3f
       0.9973358 1.004357 1.0010011 1.0014735
0002f0 d4 03 80 3f fe 52 7f 3f bb c4 7f 3f 14 7c 7f 3f
       1.0001168 0.9973601 0.9990956 0.99798703
000300 b0 01 80 3f 59 28 80 3f e1 1f 80 3f 46 13 80 3f
       1.0000515 1.0012313 1.0009729 1.0005882
000310 6f e1 7f 3f a3 49 80 3f fb 94 80 3f 60 89 80 3f
       0.9995336 1.0022472 1.0045465 1.0041924
000320 2e 49 80 3f 13 09 80 3f de 36 7f 3f cb 4e 80 3f
       1.0022333 1.0002769 0.99693096 1.0024046
000330 5e 72 7f 3f 34 22 80 3f b5 6f 80 3f 23 46 7f 3f
       0.99783885 1.0010438 1.003409 0.99716395
000340 a6 4a 7f 3f 18 cb 7f 3f c3 13 80 3f e4 24 80 3f
       0.9972328 0.9991927 1.0006031 1.0011258
000350 e6 f0 7f 3f 6a a3 7f 3f 78 06 80 3f dc 69 7f 3f
       0.99976957 0.99858725 1.0001974 0.99770904
000360 31 dd 7f 3f e9 42 7f 3f c9 3e 80 3f 61 6a 80 3f
       0.99946886 0.9971147 1.001916 1.0032464
000370 bc 27 80 3f 23 19 80 3f 42 35 80 3f a7 29 80 3f
       1.0012126 1.0007671 1.0016253 1.0012711
000380 10 79 80 3f f1 27 80 3f cf ec 7f 3f 02 4a 80 3f
       1.0036945 1.0012189 0.99970716 1.0022585
000390 7a 9c 7f 3f af 3c 80 3f c9 1e 80 3f ad 7d 7f 3f
       0.9984814 1.0018519 1.0009395 0.9980114
0003a0 c3 a7 7f 3f c6 40 80 3f 6c 72 7f 3f 1b 3f 7f 3f
       0.9986536 1.0019767 0.9978397 0.99705666
0003b0 77 15 80 3f 2e 9d 7f 3f c4 e9 7e 3f 3b 46 80 3f
       1.000655 0.9984921 0.9957545 1.0021433
0003c0 43 04 80 3f 4f 9b 7f 3f 74 db 7f 3f fc 1c 80 3f
       1.00013 0.9984636 0.99944234 1.0008845
0003d0 f4 19 80 3f df 69 80 3f cf c4 7f 3f 44 ee 7f 3f
       1.000792 1.0032309 0.9990968 0.9997294
0003e0 fa 9b 80 3f d1 e9 7f 3f d8 60 7f 3f d9 fb 7f 3f
       1.00476 0.9996615 0.99757147 0.99993664
0003f0 7b ef 7f 3f d9 13 80 3f 7b 4c 80 3f 5a 52 80 3f
       0.99974793 1.0006057 1.002334 1.0025132

model.0.bias f4 [1024]
000000 52 cb 21 bb d0 a3 10 bb b1 d9 d5 ba 14 b2 41 3b
       -0.0024687839 -0.0022070296 -0.0016315487 0.0029555606
000010 71 89 87 3a 7a c2 17 bb 62 1d 60 3a 5a 5f 38 bb
       0.0010340643 -0.0023156689 0.00085493 -0.0028133006
000020 44 62 a0 3a d4 40 bd bb 9b fa 03 3b f5 8c 0e 3a
       0.0012236317 -0.0057755504 0.0020138386 0.00054378744
000030 b3 17 90 3a 4f b0 58 bb 4b 88 ae bb 3c ca 03 3b
       0.0010993391 -0.0033064072 -0.005326306 0.0020109555
000040 19 a8 18 3b 73 d0 94 ba 5f a9 1d 3b 4c 77 41 3b
       0.0023293553 -0.0011353627 0.0024057252 0.002952057
000050 d6 d6 ec 39 bc 77 6f bb 30 91 5b 39 a7 d4 6c 3a
       0.00045173493 -0.0036539873 0.00020939554 0.0009034373
000060 91 eb b0 3a 99 39 4c ba 68 f5 e5 ba bb b9 17 bb
       0.0013497939 -0.0007790565 -0.001754445 -0.0023151475
000070 ab f1 78 3b 90 c7 8b bb a0 cf a1 3a 22 1a 1b 3b
       0.0037985842 -0.004265733 0.0012345202 0.00236667
000080 33 ba 80 39 42 4e 83 bb d4 d2 cf ba 34 df 24 bb
       0.00024552792 -0.004007132 -0.0015855678 -0.0025157453
000090 e1 ee a8 3a 15 f4 c9 ba 16 64 7a bb a7 a3 03 3b
       0.0012888574 -0.0015407825 -0.0038206629 0.0020086558
0000a0 dd 53 15 3b 99 18 03 bb a7 bb 63 3b 82 0b 09 3b
       0.0022785582 -0.0020003675 0.00347493 0.00209114
0000b0 4b 69 89 ba 15 3b 04 bb a1 7d 06 b9 0b a2 c3 ba
       -0.001048365 -0.0020176817 -0.00012826036 -0.0014925612
0000c0 29 52 3d 3b 6d e2 fe 3a 94 f7 40 b8 da 7f 61 3a
       0.0028888083 0.0019446142 -4.6006942e-05 0.000860212
0000d0 b6 82 16 bb 3e 4b 30 ba 7e 09 29 ba b3 43 29 3b
       -0.0022966093 -0.0006725079 -0.0006448253 0.0025827705
0000e0 d3 8f 81 39 53 86 f0 3a 84 ae 92 3a 10 78 af 3a
       0.00024711955 0.0018350579 0.0011190926 0.0013387222
0000f0 4f 23 6b bb 04 ed 2c b8 f3 91 20 3b 0c 5a 98 bb
       -0.00358792 -4.1228734e-05 0.0024501055 -0.0046494063
000100 aa 96 bf ba 86 4b 6b bb 24 b3 13 3b fd 44 cc 3a
       -0.0014617045 -0.003590317 0.0022537196 0.0015584525
000110 d0 93 4e b9 e0 d5 5b 3a 09 b9 e7 3a c0 95 02 bb
       -0.00019700755 0.0008386057 0.0017679046 -0.0019925684
000120 99 83 91 3b 08 ba b8 3b c5 b1 dd b7 f2 87 bc 3a
       0.0044407365 0.005637411 -2.6428033e-05 0.0014383777
000130 f0 de f4 ba fb ea 7c ba c4 30 36 3a 83 c1 35 3b
       -0.0018682163 -0.0009648052 0.00069500157 0.002773375
000140 d0 b3 5c ba f1 dd b9 ba 53 b2 d2 b8 50 ac 3d b9
       -0.0008419128 -0.0014180524 -0.00010046796 -0.00018088636
000150 ee 57 c0 3a 7c f0 5c 3b 65 9d 2e 3a 38 7d d9 ba
       0.0014674643 0.0033712676 0.0006661027 -0.0016593104
000160 61 0a a4 bb 5d fa 9a 3a 24 71 08 3a f8 14 dd 3a
       -0.00500612 0.0011823882 0.00052048475 0.0016867211
000170 45 7e af 3b 40 ed 71 3b 81 eb 57 bb cb 8d 9e bb
       0.0053556287 0.0036915094 -0.0032946768 -0.0048386804
000180 53 8b 1c 3b 13 c0 50 3a a1 aa 2e 3a ee 41 9e ba
       0.0023886755 0.00079631916 0.0006662999 -0.0012074092
000190 ff d3 da 3a a1 92 84 3b 7e 35 a4 ba ac c6 29 3b
       0.001669526 0.0040458 -0.0012528149 0.0025905771
0001a0 63 71 86 b9 d2 45 a4 bb 20 3d 55 bb ed 8c b2 3b
       -0.0002564295 -0.005013206 -0.0032537654 0.0054489286
0001b0 0d 22 d8 bb b5 79 c7 b8 39 49 4f bb 1a 54 94 3b
       -0.006595856 -9.511729e-05 -0.0031629337 0.0045266273
0001c0 cf 0f 93 bb ad 68 85 bb 72 5e 1f bb d7 db c4 ba
       -0.0044879685 -0.004071316 -0.0024317768 -0.0015019131
0001d0 61 0c 0c bb c9 23 54 ba 35 4b c0 3b 2a 6e 5b 3b
       -0.0021369683 -0.00080924906 0.0058683404 0.003348241
0001e0 06 42 a3 ba c2 ba 8f bb fa a0 d1 3b 25 ea 20 3b
       -0.001245559 -0.004386277 0.0063973637 0.0024553624
0001f0 bf 45 92 3a 50 c9 0d 3a 3e 06 c8 ba 92 1d 89 bb
       0.0011159702 0.0005408721 -0.0015260649 -0.0041844333
000200 98 74 ec 39 75 58 81 b8 a8 9f 74 ba 3d 83 95 3a
       0.00045100297 -6.167676e-05 -0.0009331652 0.001140691
000210 e6 5d 8b 3b 9b 4b af ba 50 73 74 ba 58 be 32 3b
       0.004253137 -0.0013373973 -0.0009325044 0.0027274098
000220 32 38 b3 bb f9 bd 95 3b c1 c9 be 3a 6c 93 a0 b9
       -0.0054693455 0.0045697656 0.0014555977 -0.00030627416
000230 2e 97 bd 3b a5 1c 91 ba 30 b0 95 3a 70 23 41 3a
       0.0057858443 -0.0011071159 0.0011420306 0.00073676463
000240 74 01 98 3a 09 6f 38 bb 33 d6 9a 3b f6 4c 58 3a
       0.0011597113 -0.0028142354 0.0047252416 0.0008251214
000250 38 f0 1e 3b f5 5e 79 ba 59 29 1a bb 81 6a 97 3a
       0.0024252068 -0.0009512746 -0.002352318 0.0011552126
000260 a9 b6 4b bb 47 65 9f ba 4f 3c 16 ba 94 14 f7 ba
       -0.0031084216 -0.001216092 -0.00057310326 -0.0018850737
000270 08 80 63 3b 82 8f 2c bb 9f 1d 03 39 1d 87 10 3b
       0.0034713764 -0.0026330655 0.00012504168 0.002205319
000280 cd 99 c3 ba e2 d2 35 3b 77 da fc ba c3 bd ba 3a
       -0.0014923156 0.0027744104 -0.0019291182 0.0014247227
000290 dc 2c 90 3b be e0 9e ba 54 c9 24 b9 fa 0f f6 39
       0.004399879 -0.0012121422 -0.0001571526 0.0004693268
0002a0 ea 68 29 ba 88 05 2b bb b3 c2 dd b9 d4 99 66 3a
       -0.0006462472 -0.0026095826 -0.00042297467 0.0008796726
0002b0 a3 52 0e 3b 16 f5 8f bb 9a 67 0f ba 5e f2 bc bb
       0.0021716736 -0.00439323 -0.0005470455 -0.005766197
0002c0 b5 0e 44 3b b5 1a bd 3a 6e 56 71 3b 3f dd 02 bb
       0.0029915993 0.0014427515 0.0036825198 -0.0019968299
0002d0 88 ec 42 3a 92 60 8f 3a 96 30 1d 3b e9 a1 4b 3b
       0.00074357586 0.0010938814 0.0023985258 0.0031071848
0002e0 40 0d 17 3a 60 1b d5 ba 9c 97 22 3a 68 84 6c 3a
       0.0005762167 -0.0016258769 0.0006202401 0.00090224156
0002f0 ec 5c 52 3b 87 9e 29 3a 59 66 87 3b 77 08 34 3a
       0.0032098843 0.0006470461 0.004132074 0.00068677164
000300 e4 ba cd ba 26 d2 89 bb a2 b8 82 3a ae 0c 7d 3b
       -0.0015695957 -0.00420596 0.0009973238 0.0038612294
000310 71 2a 0e bb 6c 69 44 bb 0e 30 01 ba 39 6e 1d 39
       -0.0021692778 -0.0029970063 -0.000492812 0.00015013748
000320 cd c7 e6 ba c8 ec 85 ba a9 68 5b 3b e3 b7 71 38
       -0.0017607153 -0.0010217661 0.003347913 5.7630135e-05
000330 e7 e2 b1 ba 86 69 b5 ba a0 90 91 ba 32 f1 7b b9
       -0.001357165 -0.0013840653 -0.0011105724 -0.00024027078
000340 02 c1 93 39 53 37 c8 39 ac f7 cb ba 6b fc b4 3a
       0.00028181827 0.00038188192 -0.0015561483 0.0013808137
000350 1d 04 a5 39 b1 a6 81 bb 50 11 47 3a 60 c6 1e ba
       0.00031474317 -0.0039566387 0.00075938273 -0.0006056782
000360 0d c8 3f 39 c4 29 82 ba db 95 4a 3b 5b 61 1c ba
       0.00018289704 -0.000993066 0.0030912075 -0.0005965435
000370 c8 01 12 bb cb 65 f6 ba bf f7 5c 3b 02 bc 92 3b
       -0.0022278894 -0.0018798647 0.0033717004 0.0044779787
000380 e4 60 27 3b 98 a1 bd 3a 51 9b 49 bb a3 67 5e 3b
       0.002553993 0.0014467714 -0.0030762742 0.0033936284
000390 8c e5 1d bb db f6 55 bb 18 40 dd ba 46 6c 97 bb
       -0.002409312 -0.0032648358 -0.0016880063 -0.0046210615
0003a0 29 93 6d bb 6f c8 a3 ba d2 a1 80 bb 90 11 f4 3a
       -0.0036251044 -0.0012495647 -0.0039255405 0.0018620957
0003b0 4a dc 21 b9 41 07 e0 ba e9 b3 13 3a 17 ba a6 39
       -0.0001543622 -0.0017092006 0.00056344137 0.00031800635
0003c0 86 73 1f 39 7b 08 99 3a 0e 17 5a bb 92 30 a8 bb
       0.00015206457 0.0011675501 -0.0033277902 -0.005132743
0003d0 72 78 88 37 77 7c 04 bb 94 92 47 3a f1 8a 20 ba
       1.626855e-05 -0.0020215788 0.00076130894 -0.00061242195
0003e0 9d 12 2b bb 45 75 5c bb 22 23 d3 3a 1f 7f 88 3b
       -0.0026103624 -0.0033639234 0.0016108493 0.0041655446
0003f0 9b 53 f2 ba fa e1 96 3a a7 69 a6 ba 39 df 24 bb
       -0.0018488051 0.0011511438 -0.0012696282 -0.0025157465

model.0.running_mean f4 [1024]
000000 00 6d 68 bd ad c3 85 bc 22 4f dd 3b ee d8 d7 bc
       -0.056744576 -0.016328657 0.006753818 -0.026348557
000010 55 f7 30 3b ef cc 5c bc b6 6d 25 3d 67 05 8c bb
       0.002700289 -0.013476594 0.04038783 -0.004273105
000020 bc 81 89 bb 42 f5 03 3d 23 32 28 bc cf 00 ad 3b
       -0.0041963737 0.032216318 -0.01026586 0.0052796374
000030 87 53 77 bb ad e3 55 bc d5 d4 89 3b 82 7e 32 3c
       -0.0037738995 -0.01305477 0.0042062798 0.01089442
000040 2d 95 12 bd 33 6c cd bc f8 17 50 ba 95 82 10 3c
       -0.035786796 -0.025076007 -0.0007938142 0.008820196
000050 1d a5 78 3c ce 1e ce 38 e5 c2 a1 3c ea ec 92 3d
       0.015176085 9.828583e-05 0.019746253 0.07174094
000060 e3 10 a3 3c fc a1 f8 3c 22 1a d2 bc ec 7c 38 3c
       0.019905513 0.030350678 -0.025647227 0.011260252
000070 2b 95 a7 bb 9e 7b 27 bc 2d 16 c9 3c 09 e8 74 bc
       -0.0051142178 -0.010222344 0.024546707 -0.0149479
000080 14 6f 07 bc 0e c5 20 3c 73 82 23 bb fa 30 82 3c
       -0.008266229 0.0098126065 -0.002494958 0.015892494
000090 ad 1c 2c bc ef a3 db 3b b6 0d e3 bc be 5b 8c bb
       -0.010504884 0.006702892 -0.027716499 -0.0042833975
0000a0 f1 ec 32 3c 98 36 cd 3c f0 50 f4 b8 0d e1 3d bd
       0.010920749 0.025050446 -0.000116499024 -0.046357203
0000b0 50 61 cd bc d0 35 97 3b 88 21 8e ba 72 e7 ca bc
       -0.025070816 0.0046145692 -0.0010843733 -0.024768565
0000c0 a6 4a 45 bc ae 3b a9 3d 26 13 c8 bc 59 54 93 bc
       -0.012041723 0.08263336 -0.024423193 -0.017984556
0000d0 54 b7 a3 bc ba 25 1d 3c 74 f4 23 3c b9 01 0f bc
       -0.019984879 0.009591514 0.010007013 -0.008728438
0000e0 9f e8 08 3d dc 50 06 3c 80 02 d3 bb c2 01 2d bc
       0.03342497 0.008197989 -0.006439507 -0.010559501
0000f0 18 e9 33 3c 87 4b b0 bc 39 fb 30 bc 20 75 bd 3c
       0.010980867 -0.02152039 -0.010802084 0.023127139
000100 10 94 1b 3a 9c ee 6b bc 83 58 a4 3b 7b 2b ee 3b
       0.0005934844 -0.014400151 0.005015434 0.007268367
000110 35 00 f2 3a 71 a0 dd 3b 4a 7f 19 3d 82 39 39 3c
       0.0018463196 0.006763511 0.037474908 0.011305215
000120 7f 79 83 bc 53 f2 31 3d 0f ed f4 3c 73 1c 43 bc
       -0.016049145 0.04344399 0.029898195 -0.011908638
000130 c4 b4 d4 3c fb ad 92 bc a9 ec 83 3c 60 b5 90 bc
       0.025965102 -0.017905226 0.01610406 -0.017664611
000140 1d eb 12 bc cb 42 e1 3c 52 e7 55 bd fa 98 b7 3c
       -0.008967188 0.02749767 -0.052222557 0.022411812
000150 8f 76 82 bc c5 77 29 bd 59 95 bd 3c 99 eb 91 bc
       -0.015925674 -0.041373987 0.023142504 -0.017812537
000160 7a 3b 30 3c 53 87 b8 3c 2d 33 be bc 15 7e aa bb
       0.010756368 0.022525465 -0.023217762 -0.0052030184
000170 44 b2 39 bc b3 10 56 3c dc 53 4c 3c b8 b1 9e 3c
       -0.011334006 0.013065505 0.0124711655 0.019371852
000180 c7 6d f8 3b 41 5f 6b 3d 68 ee 08 bc 64 04 b7 3c
       0.007581446 0.057463888 -0.008357622 0.02234096
000190 ed 7c 67 3c 95 b9 d8 3c 38 24 0d bb 1a c0 43 3c
       0.014128906 0.02645568 -0.002153648 0.011947656
0001a0 93 60 98 3d 88 6e 80 3c e3 a7 41 3b b2 30 be bc
       0.07440295 0.015677705 0.0029549531 -0.02321658
0001b0 e0 3b f5 bc 76 85 4b 3d df e1 3a bc 9d 9d 2d 3b
       -0.029935777 0.049687825 -0.011406391 0.002649165
0001c0 c4 69 86 3d 8b 6c 7e bb 3f af c0 bb 99 31 8e 3c
       0.06563142 -0.003882202 -0.005880266 0.017357634
0001d0 d8 0a f2 ba 70 76 c5 bb 23 d8 74 3a 80 cc c1 bb
       -0.0018466366 -0.0060260817 0.0009340068 -0.005914271
0001e0 d5 67 ad bc d9 78 12 bc 03 28 8a bc 6b 2f 4e bc
       -0.021167675 -0.008939945 -0.016864782 -0.0125845475
0001f0 d5 e5 45 bd 3c 45 b4 bc 5f f4 23 bc 3e 17 b0 bc
       -0.048314888 -0.02200567 -0.010006993 -0.021495458
000200 03 5e ae 3c 9e 75 9e bc db bc 82 bd e8 c5 7c bc
       0.021285063 -0.019343194 -0.063836776 -0.015428044
000210 fd 47 8e 3c 4c 65 86 bb da ac 49 ba 60 7f ed bc
       0.017368311 -0.004101431 -0.00076932984 -0.028991401
000220 43 8e 2e 3d a7 98 bd 3c 62 19 65 bb 41 82 b3 bc
       0.04261614 0.02314408 -0.0034957756 -0.021912696
000230 b7 0a 33 3b 90 78 29 bd cf b5 2a bc ff ab a9 bb
       0.002731962 -0.041374743 -0.010419323 -0.0051779742
000240 c9 99 12 bb 21 c2 19 bc 03 9c 36 3d ee 29 c1 bc
       -0.0022369495 -0.009384663 0.044582378 -0.023579564
000250 a8 71 07 bd 92 16 d3 3a 24 df 0b bc aa ff 2a 3a
       -0.033067375 0.0016104749 -0.008537088 0.0006523082
000260 d3 c1 f4 3b f0 38 22 ba 8c 57 8a 3c cf 0a d7 3c
       0.0074693947 -0.0006188294 0.016887449 0.026250271
000270 8a 43 de 3c db ed 06 bc 89 c9 41 bb 0c 38 e2 3b
       0.027131815 -0.00823542 -0.0029569587 0.006903654
000280 d4 b4 09 3a 37 85 e5 3c ae 2e 84 3c 10 95 76 3b
       0.0005253081 0.028017623 0.01613554 0.003762547
000290 ac 1a 95 bb 80 28 93 bb 7b e5 5f bd 2d e6 e1 bb
       -0.0045502987 -0.004490912 -0.05466221 -0.006893894
0002a0 ae 1d 19 bd a4 83 d9 3c 0c 3b e9 3c 52 82 f6 3c
       -0.03738182 0.026552029 0.028470539 0.030091438
0002b0 49 b0 d2 3c 7f ac 01 bc bb 06 bf 3c ba db 34 3c
       0.025718825 -0.007914661 0.023318639 0.011038715
0002c0 31 26 39 bc c1 20 4c bc 7c f0 96 bc 2b 3b a3 ba
       -0.011300609 -0.012458981 -0.018425219 -0.0012453547
0002d0 49 b1 ff bc b0 24 8b bc d9 01 b4 bb 1f 0e 46 3c
       -0.031212466 -0.016985267 -0.0054933843 0.012088328
0002e0 e8 27 2f bc 94 bf d0 3c d2 1d 3e 3d dd 13 57 bc
       -0.010690667 0.025481977 0.046415158 -0.013127294
0002f0 3a 76 79 bc 2f 75 06 bd 4f 4f 1b 3d 01 b1 52 3c
       -0.015225941 -0.0328266 0.03791743 0.012859584
000300 e3 4f 6a 3c 7c 32 f9 3c de 95 3e 3c dd f8 4d 3c
       0.014301273 0.03041958 0.011632411 0.012571541
000310 89 06 30 bc ac 77 47 bb df cd a9 3c 56 cc 04 3d
       -0.010743746 -0.003043632 0.02072805 0.032421432
000320 68 fa bd 3b 30 97 4d bc 72 d0 27 3b fa c0 da bc
       0.005797673 -0.012548253 0.002560642 -0.026703347
000330 4c 88 c5 bc f3 44 09 3c d6 5e 51 bc be f3 69 bc
       -0.024112843 0.008378255 -0.012778958 -0.014279304
000340 74 64 84 3c 44 9d 1a bc ba 1a 09 bd cc b3 b6 bc
       0.016161181 -0.009436909 -0.033472754 -0.02230253
000350 b2 42 5a 3c 21 47 cf 3c c5 84 c2 3b c1 a1 73 bc
       0.013321565 0.025302472 0.0059362375 -0.014870108
000360 3a ad 4e 3c 7b 35 db 3c 71 0d fb bb 7a bc df bb
       0.012614543 0.0267589 -0.0076615144 -0.006827888
000370 6c 1e 1d 3c 99 0d 96 bc dd d0 43 bd d2 5b b0 bc
       0.009589773 -0.01831703 -0.04780661 -0.021528158
000380 d6 6d b6 3c e3 ff 55 3c 06 c8 57 3b 02 56 a6 bc
       0.02226917 0.013061496 0.003292562 -0.020304684
000390 76 1b 36 3b 8a f9 a7 bc 98 74 12 bc 26 ec ff bc
       0.0027787364 -0.020504732 -0.008938931 -0.031240534
0003a0 1d cb b0 bb 2c 97 eb bc 10 bb 45 bc 8b d8 92 bc
       -0.0053953067 -0.028758608 -0.012068525 -0.017925521
0003b0 34 0d f2 bc 75 7f 0e 3d d5 0c ac 3c ed 95 8b bc
       -0.029547311 0.03478952 0.021002213 -0.017039264
0003c0 b3 ee 06 3d 0b b6 80 ba fe ad cd bb b8 90 d1 3c
       0.032942485 -0.0009819878 -0.006276845 0.025581703
0003d0 bb bb c1 bc 6f 99 08 ba 89 ba 4d 3c 9f 26 af 3c
       -0.023649087 -0.00052108517 0.0125566805 0.02138072
0003e0 38 ff ef b8 0e d8 e3 3c ee a8 8c bc d8 fc c7 3c
       -0.00011443946 0.027812984 -0.017170396 0.024412557
0003f0 7b a0 8f 3c f0 5b fa 3a f5 74 7d 3c 49 80 b5 3c
       0.017532578 0.0019100886 0.015469779 0.022155898

model.0.running_var f4 [1024]
000000 90 65 12 39 6b 4f 1e 39 4c d0 14 39 c1 47 0e 39
       0.0001396148 0.0001509764 0.00014191977 0.00013568906
000010 17 c5 24 39 3b bd 49 39 29 dc 30 39 eb 47 e9 38
       0.0001571368 0.00019239348 0.00016866684 0.000111237016
000020 f3 b7 00 39 e7 3d 41 39 68 05 3a 39 e9 8b 57 39
       0.00012275558 0.00018428975 0.00017740356 0.00020556118
000030 dc 4a 37 39 cf 70 06 39 f1 e8 25 39 b8 1f 08 39
       0.00017480127 0.0001282126 0.00015822404 0.00012981787
000040 c2 61 ef 38 64 5f 17 39 0a 49 68 39 17 7d 17 39
       0.00011414617 0.00014436018 0.00022152453 0.00014447082
000050 3f f9 23 39 f0 f3 16 39 c9 a1 ea 38 f2 dc 3d 39
       0.00015637743 0.00014395989 0.00011188124 0.00018106753
000060 bf 61 07 39 f5 9f 38 39 0b b4 47 39 56 d2 f4 38
       0.00012911017 0.00017607196 0.0001904519 0.00011674005
000070 08 f8 2f 39 ee d4 c5 39 d4 1b 8c 39 b3 c7 3a 39
       0.000167817 0.00037733413 0.00026723614 0.00017812736
000080 61 d4 35 39 4e 06 ec 38 a2 62 59 39 d4 75 5f 39
       0.00017340622 0.00011254531 0.00020731476 0.00021310832
000090 e5 80 ee 38 19 76 a4 38 de 26 05 39 25 03 8d 39
       0.00011372733 7.842127e-05 0.00012698348 0.0002689596
0000a0 cd 7d 80 39 8d 59 31 39 fa 92 55 39 82 ab 0e 39
       0.0002450779 0.00016913396 0.00020368016 0.00013606067
0000b0 02 54 43 39 f3 11 6b 39 58 83 81 39 76 30 65 39
       0.00018627945 0.00022418033 0.00024702656 0.00021857195
0000c0 7b 66 14 39 74 d0 b4 39 14 e5 86 39 68 fa 81 39
       0.00014152557 0.00034487585 0.00025729148 0.00024791365
0000d0 4e 7c 2f 39 62 17 6a 39 6a 48 00 39 5d ea 06 39
       0.00016735608 0.0002232469 0.00012234008 0.00012866543
0000e0 09 70 82 39 02 d2 bd 38 bd f8 04 39 43 fd 1c 39
       0.00024879005 9.051339e-05 0.00012681163 0.00014971667
0000f0 6a 10 4a 39 25 10 5b 39 97 8c 99 39 5b 35 36 39
       0.00019270336 0.00020891482 0.00029287182 0.00017376749
000100 cf 3a 11 39 78 c4 e2 38 76 21 30 39 80 e1 19 39
       0.00013850185 0.00010813115 0.00016797133 0.00014675222
000110 36 a7 08 39 50 fd 34 39 c4 0f 54 39 e7 4c 6e 39
       0.00013032262 0.00017260504 0.00020223769 0.00022726097
000120 d0 e1 71 39 1e 15 2c 39 ac 11 51 39 f0 74 54 39
       0.00023067673 0.00016411065 0.00019938376 0.00020261458
000130 72 4b d9 38 0b 04 3f 39 ae a1 19 39 34 30 62 39
       0.00010361419 0.00018216686 0.00014651447 0.00021570997
000140 8d 47 4c 39 b8 63 f1 38 fe 84 4d 39 67 0d 20 39
       0.00019481611 0.000115103496 0.00019599867 0.00015263782
000150 c3 b7 05 39 95 7a a2 39 0c 12 1d 39 d0 d3 85 39
       0.00012752325 0.0003099038 0.0001497941 0.0002552555
000160 d7 10 eb 38 ea ee 8f 39 eb 58 d2 39 ec 11 47 39
       0.0001120881 0.0002745309 0.0004012057 0.00018984795
000170 f5 8c 07 39 f0 6c 6e 39 33 0d 21 39 81 0a 2f 39
       0.00012927114 0.00022738031 0.00015359074 0.00016693214
000180 94 a1 3a 39 7f 84 3b 39 c0 e8 4a 39 7e cb ab 39
       0.00017798535 0.00017883068 0.00019350927 0.00032767275
000190 18 b1 15 39 c4 a3 15 39 77 36 53 39 70 aa e8 38
       0.0001427572 0.00014270755 0.00020142818 0.000110943685
0001a0 3e de 1b 3a a1 38 22 39 73 56 4b 39 52 84 63 39
       0.00059458974 0.0001547062 0.00019391793 0.000216977
0001b0 76 b4 0b 39 fa d1 24 39 42 0a 3d 39 97 da f3 38
       0.000133233 0.00015718481 0.00018028266 0.000116278585
0001c0 c5 12 41 39 cd 1d 51 39 b8 30 64 39 68 78 91 39
       0.00018412907 0.00019942895 0.00021761924 0.00027746265
0001d0 83 97 f7 38 e9 59 2e 39 f8 a1 56 39 e0 6a 8b 39
       0.00011806099 0.00016627427 0.00020468968 0.00026591774
0001e0 23 01 70 39 e7 9c 1f 39 b4 b4 23 39 51 f1 45 39
       0.00022888607 0.00015221872 0.00015612209 0.00018877281
0001f0 56 0c 1e 39 eb 4c e7 38 5d 27 c7 38 21 98 f8 38
       0.0001507265 0.000110292654 9.4963914e-05 0.00011853898
000200 20 19 5e 39 60 f7 98 39 89 0d 4c 39 ec 30 c4 38
       0.0002118093 0.00029176008 0.00019459998 9.355121e-05
000210 4c d3 40 39 82 e8 04 39 e5 5c f7 38 20 53 49 39
       0.00018389261 0.00012675117 0.00011795181 0.0001919982
000220 38 16 6c 39 5c 86 1b 39 82 a7 30 39 34 c4 30 39
       0.00022514991 0.00014832005 0.0001684707 0.0001685776
000230 72 26 06 39 c1 55 07 39 4c a1 38 39 2e 98 25 39
       0.00012793558 0.00012906549 0.00017607695 0.00015792318
000240 e3 c8 b3 39 ed bc 80 39 50 75 52 39 f9 8b 14 39
       0.00034291213 0.00024554823 0.00020070863 0.00014166524
000250 c7 e7 92 39 35 31 46 39 60 e1 78 39 ef 47 2f 39
       0.00028019978 0.00018901083 0.00023735082 0.00016716098
000260 b4 de 03 39 f8 c5 87 39 63 39 f7 38 98 db 4a 39
       0.00012576097 0.00025896705 0.00011788567 0.00019346026
000270 85 46 22 39 fd d4 20 39 fb 75 95 39 e1 b6 33 39
       0.00015475794 0.00015338133 0.00028507397 0.00017138898
000280 32 4a 19 39 55 65 15 39 1b 1f 0d 39 a3 2e 15 39
       0.00014618857 0.00014247496 0.00013458396 0.00014227121
000290 da 81 ee 38 d2 fa f8 38 71 1d 54 3a 50 36 0f 39
       0.00011372911 0.000118722804 0.00080915453 0.00013657776
0002a0 8c 54 3b 39 91 08 38 39 5c ae 1f 39 4d 10 27 39
       0.00017865206 0.00017550799 0.00015228376 0.00015932434
0002b0 80 8b 40 39 f7 2b 0a 39 24 63 80 39 e1 01 4e 39
       0.00018362515 0.00013177084 0.00024487928 0.00019646391
0002c0 1a 64 03 39 14 d6 15 39 c0 64 ed 38 79 09 8a 39
       0.00012530424 0.00014289498 0.00011319807 0.0002632847
0002d0 a9 35 42 39 c8 01 60 39 d7 be 72 39 9e c4 4c 39
       0.00018521272 0.00021362968 0.00023150012 0.00019528202
0002e0 4a 6a 36 39 93 0b 18 39 ea e5 67 39 5b fe 1f 39
       0.00017396468 0.00014500161 0.00022115526 0.00015258176
0002f0 3a 33 2e 39 44 fa 2e 39 75 b2 6e 39 83 5f 31 39
       0.00016613016 0.00016687164 0.00022763929 0.00016915616
000300 56 67 80 39 e2 1c 0f 39 21 c5 15 39 14 33 71 39
       0.00024491054 0.00013648302 0.00014283184 0.00023002579
000310 66 dc 55 39 b4 a4 1b 39 14 cb 33 39 db c6 1b 39
       0.00020395368 0.00014843309 0.00017146423 0.00014856031
000320 ef 55 25 39 63 75 19 39 70 5e 32 39 65 e6 0a 39
       0.00015767639 0.00014634947 0.00017010584 0.00013246534
000330 cc ab 14 39 ad fc 24 39 3d 96 15 39 2a 19 19 39
       0.00014178379 0.00015734388 0.00014265715 0.00014600591
000340 2a 4b 25 39 6f 1e 38 39 60 39 46 39 7b d4 13 39
       0.00015763627 0.00017558945 0.00018904125 0.00014098168
000350 8d 55 18 39 ba 09 3e 39 ab 7c 17 3a 85 ac e1 38
       0.0001452772 0.00018123435 0.000577877 0.0001076097
000360 5c ad 00 39 8e 63 0e 39 48 2b ef 38 33 21 4b 39
       0.00012271613 0.00013579262 0.0001140447 0.00019371956
000370 f2 c3 35 39 eb 4f 15 39 56 ab 18 39 dd 71 50 39
       0.000173345 0.00014239519 0.00014559677 0.00019878843
000380 2c 07 47 39 6e 16 21 39 85 67 f6 38 a2 66 d0 38
       0.0001898079 0.00015362512 0.00011749476 9.93733e-05
000390 d8 21 d5 38 de ef 17 39 59 e6 15 39 79 ec e9 39
       0.00010162935 0.0001448984 0.00014295559 0.0004461741
0003a0 5b 08 4e 39 7e 68 4a 39 81 11 f2 38 92 b0 dd 38
       0.00019648804 0.00019303148 0.000115427196 0.0001057099
0003b0 44 b8 3b 39 da f8 0e 39 d5 45 14 39 54 86 07 39
       0.00017902354 0.0001363488 0.00014140394 0.00012924644
0003c0 3f f9 04 39 8a d0 12 39 0b 92 3f 39 3b e8 4a 39
       0.00012681352 0.00014001332 0.00018269585 0.00019350734
0003d0 3e 95 63 39 01 27 e0 39 a4 0d 04 39 33 32 e0 38
       0.00021704004 0.0004275367 0.00012593583 0.00010690503
0003e0 1c 57 15 39 9c 1d 02 39 68 f1 34 39 d5 9c 19 39
       0.00014242198 0.00012408796 0.00017256069 0.00014649642
0003f0 1c 82 34 39 6b 6f dc 38 5d 84 0e 39 26 4a 10 39
       0.00017214607 0.00010511171 0.00013591484 0.00013760533

model.1.weight f4 [32, 1024]
000000 26 3b bb bc e9 12 ba 3b 54 4b ac 3c 46 7c b6 bc
       -0.022855353 0.005678524 0.021032013 -0.022276055
000010 7b be c2 bc d5 df cb 3c 8d e2 a2 3c f0 9a 9c bb
       -0.023772469 0.024887005 0.019883418 -0.004779212
000020 64 1d d4 bc 3c 97 d1 3c 5f 69 75 bc 65 b4 98 bc
       -0.02589292 0.02558481 -0.014978736 -0.018640706
000030 e1 a8 80 3c f8 0b e6 3c 4b 81 02 bd ff 5e d3 3c
       0.015705528 0.028081879 -0.031861585 0.025802134
000040 0c c2 51 3a 39 38 85 bb a9 a4 43 bc 2f 73 e5 bb
       0.00080016325 -0.00406554 -0.0119411135 -0.0070022563
000050 4e c6 9a bc b8 f6 a6 bb 5b b7 e0 3b c7 2e e1 3c
       -0.018893387 -0.005095329 0.006857795 0.027488125
000060 1f 7e 51 3c 2a d7 8f bb 03 3d 15 3c 19 69 b7 bc
       0.012786417 -0.004389663 0.009108785 -0.022388982
000070 83 9e ce bb ed d0 b4 3c 2a 0e 10 3c b5 ef 6b bc
       -0.006305517 0.02207228 0.0087924395 -0.014400412
000080 69 61 9d 3c bd 68 98 3c fe 00 e7 bc 3c b7 a1 bc
       0.019211488 0.01860463 -0.028198715 -0.019740693
000090 33 7d 5d bc 15 39 a9 3c c6 af 98 3c 7e 17 44 3c
       -0.013518619 0.020657102 0.018638503 0.011968492
0000a0 b7 d2 d9 bc 6e 6e 18 bc 1d ba bd 3c d1 4e 8e bc
       -0.026589734 -0.009303672 0.023160035 -0.017371567
0000b0 ec b1 7f bc 1a bd 93 3c d4 61 76 bb 6b c6 2c 3c
       -0.015606385 0.018034507 -0.0037594931 0.010545353
0000c0 54 32 7d bc 98 6c e5 3b ea b9 4d bc 1f 87 e9 3b
       -0.015453894 0.007001471 -0.012556532 0.0071267034
0000d0 13 f2 a2 bb 21 c0 c9 3c 8c 78 3a bc 6d 3d d1 bc
       -0.004972705 0.024627747 -0.01138128 -0.025541985
0000e0 46 c1 4a 3c 22 ed d2 bc 4c 70 d7 ba cc 40 9e 3c
       0.012375182 -0.02574784 -0.0016436665 0.019318007
0000f0 da 89 f7 bb 1a 58 63 bc 40 33 ab 3c 6b 5c 4b 3b
       -0.007554275 -0.0138759855 0.020898461 0.0031030427
000100 3b 42 d5 bc 29 1a a8 3c 8a ff 99 bc 22 66 b8 3c
       -0.026032558 0.020520287 -0.018798608 0.022509638
000110 e0 ae 1c 36 80 75 da 3c 53 ec bb bc f7 5e f2 bb
       2.3347602e-06 0.026667356 -0.022939837 -0.0073965746
000120 71 63 74 3c b1 c5 62 3c bf d4 e4 bc b5 e7 d4 3c
       0.014916287 0.013841079 -0.027933476 0.025989393
000130 b6 55 7b 3b 1d 98 cc 3c ad 4d cf 3c 10 5e be 3c
       0.0038350648 0.024974877 0.025305593 0.023238212
000140 24 28 8a 3c 87 12 0d bc de ea ed 3a 39 d8 08 3c
       0.016864844 -0.008610374 0.0018151661 0.008352333
000150 2b 3b a7 bc da 1a e9 bb a0 da 54 3c 75 e0 a9 3c
       -0.020413956 -0.0071137967 0.012991577 0.020736912
000160 a4 6e 02 3c 94 d8 50 bc c0 df b1 bb 81 78 db bc
       0.007960949 -0.012746949 -0.0054282844 -0.02679086
000170 12 40 42 3b 48 37 ed bc 7e 21 6b bb dd a4 2d bc
       0.002964024 -0.028957024 -0.0035878117 -0.0105983885
000180 ae 75 b7 3c fc 9d 80 bc 7d c3 cb bc 21 37 42 3c
       0.022394981 -0.015700333 -0.02487349 0.011853964
000190 97 c6 ee bc b3 e3 bd 3b 4e 80 65 3c c0 49 a4 bb
       -0.02914743 0.005794966 0.014007641 -0.0050136745
0001a0 e8 3f 2f 3c a7 4b f2 ba ba ca ed bc 32 40 ec bb
       0.010696389 -0.0018485681 -0.029027332 -0.007209801
0001b0 fa 98 61 3c 35 ba 90 3c 96 a6 36 bc 63 03 93 bb
       0.013769383 0.017666915 -0.011148116 -0.0044864877
0001c0 ef c3 3b bc 5a aa e6 3c 08 14 82 bc 91 cf ac bc
       -0.011460288 0.028157402 -0.015878692 -0.02109507
0001d0 d6 c4 44 3c 55 83 1a bb 1c ef d1 bc 53 46 f2 bc
       0.01200982 -0.0023576815 -0.025626712 -0.029574549
0001e0 5e a0 e2 bb 98 09 f2 bc ce d3 b1 3b b0 64 4e bc
       -0.00691609 -0.02954559 0.0054268604 -0.012597248
0001f0 0d d5 b7 3c a5 8a 04 3c d1 4f ba bc 92 07 d2 bc
       0.022440458 0.008089696 -0.022743138 -0.025638375
000200 2f d6 78 bc 80 ea ce 3c e4 b7 14 bc 9a fc c7 3c
       -0.015187784 0.025258303 -0.009077046 0.024412442
000210 0b e5 29 3b 03 66 dc bc 45 dc b3 3b 72 0c ea bc
       0.0025923874 -0.026904112 0.0054889047 -0.028570388
000220 67 4f a7 bc 89 bd 08 bc 48 e1 94 bc b5 e8 b8 bc
       -0.020423604 -0.00834597 -0.018173829 -0.0225719
000230 a6 6c 47 3c 9e 09 e2 3c 25 a5 f7 bb 44 d6 28 bc
       0.0121719 0.027592476 -0.0075575286 -0.010304991
000240 e4 67 47 3c fd 33 e7 bc 74 1b 00 bd c8 38 08 bb
       0.012170766 -0.028223032 -0.03127618 -0.0020785797
000250 25 6e d7 bc 58 2b 84 3c 7c b6 8e ba 04 85 bd 3c
       -0.026297638 0.01613395 -0.0010888125 0.023134716
000260 d9 b9 d9 bc cc 69 69 bc 6e d8 d0 3c 45 9a a8 bc
       -0.026577877 -0.014246415 0.025493827 -0.020581374
000270 78 aa d5 3c f8 1f b2 3b 85 72 59 3c 7e 13 09 bd
       0.026082262 0.00543594 0.0132719325 -0.033465855
000280 08 6d f3 bc 45 aa fa 3c d3 3b b1 bc 9f 75 89 bc
       -0.029715076 0.030598769 -0.021634972 -0.016779719
000290 a1 dc 06 3c 63 68 08 3c 68 69 c9 bc 8e 4e bb 3c
       0.008231313 0.008325669 -0.024586394 0.022864606
0002a0 d3 42 2d 3b 18 35 8a 3c da 5a c8 3b ea 49 89 3c
       0.0026437535 0.01687102 0.006114346 0.016758878
0002b0 7b fe f7 bc be 10 90 3c ac 37 c1 bc a9 f6 83 3c
       -0.030272713 0.017586108 -0.023586117 0.016108828
0002c0 cf 24 60 3c 46 1b 97 bc 9b 5a aa 3c 9a 31 97 3a
       0.013680651 -0.018445622 0.020795157 0.0011535168
0002d0 c0 67 c0 3c 68 8b a7 3b 79 f6 5f 3b d1 21 8e 3b
       0.023486972 0.005113054 0.0034174009 0.0043375273
0002e0 f9 61 c8 bc 31 41 25 3b eb 9d 90 bc b9 2d 30 bb
       -0.02446078 0.002521586 -0.017653426 -0.0026882722
0002f0 61 2d 29 bc 8e 9d 7a 3c 31 9c 23 3b d7 9d 16 bc
       -0.010325761 0.015296353 0.0024964924 -0.009192905
000300 1e 11 4d bc 45 b1 c1 3c 9a 8f 12 3c 89 77 d0 3c
       -0.012516288 0.023644099 0.00894537 0.025447624
000310 8a f5 c1 3c 84 0e cb 3c d3 23 d0 3c 12 ec 57 3c
       0.023676652 0.024787195 0.025407707 0.013178842
000320 17 bb d6 3c af 3a bd bc 63 11 51 bc c1 ab 81 bc
       0.026212258 -0.023099272 -0.012760493 -0.015828969
000330 10 a7 6f 3c 81 f4 8f 3c 22 a4 6a bc c5 37 f6 3a
       0.014627233 0.017572643 -0.014321359 0.0018784931
000340 d8 f3 2b 3c 40 7e 70 bb f4 ca af 3c cc e2 f2 bc
       0.010495149 -0.0036696345 0.02145908 -0.02964916
000350 91 c9 93 3c 96 cf 24 bc 0c f8 d5 bc 89 2f 75 bc
       0.01804045 -0.010059258 -0.026119255 -0.014964947
000360 8d df 97 3b 16 5e 92 bc cf 86 9b bb 52 d7 b0 3c
       0.0046348036 -0.01786713 -0.004746295 0.021587048
000370 a8 4c f9 3c 05 b0 b1 bc 8e 23 9b bc 4d bb ad 3c
       0.03043206 -0.021690378 -0.018937852 0.021207476
000380 57 85 ba bc 09 4b 36 3c c6 67 35 bc ff 73 ec 3c
       -0.02276866 0.011126288 -0.011072105 0.028863905
000390 95 49 87 3b b2 d6 57 3c 75 17 06 3c 69 71 7a bb
       0.0041286447 0.013173746 0.0081843035 -0.003821457
0003a0 0f 52 db 3c 85 f6 53 bc 82 9c 95 3b f6 5a c9 bc
       0.026772527 -0.012937193 0.0045657763 -0.024579506
0003b0 9b 3c 50 3b 30 7b 94 3b 64 52 9f ba 4a dd 85 bc
       0.0031774405 0.0045312867 -0.0012155292 -0.01634087
0003c0 f1 5e 79 3c e6 d8 71 3c 77 37 e8 3c df b1 d8 3c
       0.01522039 0.014761185 0.02834676 0.026452003
0003d0 15 3b c7 bc c8 e9 d1 3a 44 09 a3 bc ac e3 96 bc
       -0.024320165 0.0016015107 -0.01990188 -0.01841911
0003e0 6d 6e 80 3c 14 1d 13 3b b0 5b d8 38 d4 49 15 3c
       0.015677655 0.0022447752 0.00010316761 0.00911184
0003f0 69 20 58 bc cb 1b 78 3b 0f b2 8e 3c 17 44 f0 bc
       -0.013191321 0.0037858363 0.01741889 -0.029329343

model.1.bias f4 [32]
000000 f4 f7 a8 bb 3d 9c a6 3c c2 36 85 bb bc 7f 95 3c
       -0.0051565114 0.020338172 -0.0040653655 0.018249385
000010 5b 27 a1 bb b7 b4 e3 3c df fb 89 bc 33 19 99 b9
       -0.0049180216 0.027796132 -0.016843734 -0.0002920121
000020 00 f7 99 3c eb 52 e0 bc 7d bc f3 3c 24 54 07 bc
       0.018794537 -0.027383288 0.029752964 -0.008259807
000030 5e c6 9a 3c 53 11 81 3c 53 80 76 3c 27 d0 22 3c
       0.018893417 0.015755331 0.015045243 0.009937323
000040 82 d2 3d 3c 3c d1 70 bc c1 4e 31 3c 3a a7 d1 bc
       0.0115858335 -0.014698323 0.010821999 -0.025592435
000050 8f 7f f7 3c c2 bc 98 3c 57 c5 b9 bc 4e af b7 bc
       0.030212192 0.018644694 -0.022677107 -0.022422459
000060 e4 97 c3 3b cc 65 99 3c 7b 2b 9d 3b c8 c7 39 bc
       0.0059690345 0.018725298 0.004796443 -0.0113391355
000070 c4 c5 70 3c 66 4d 08 ba cf 92 15 bc 78 48 8c 3b
       0.0146955885 -0.00051995215 -0.00912924 0.0042811

model.4.weight f4 [64, 32]
000000 3e 7b ca bd ec 6b 73 3d 92 b0 18 3e cf 44 36 3b
       -0.09886788 0.059429094 0.14911106 0.002781201
000010 9b 3e e8 3d 44 60 fa bd ad 51 c8 bd 76 87 d7 bd
       0.11340066 -0.122253925 -0.097812034 -0.10523884
000020 87 9b dd bd 52 63 ea bc eb 88 d4 3d 97 0b 7e 3d
       -0.1082068 -0.028611813 0.103776775 0.06202277
000030 59 b6 2b be 0d c4 09 3d ca 3a 9c 3d 49 4e e6 3d
       -0.16768779 0.033634234 0.076284006 0.112454005
000040 09 6d 32 be a7 86 c6 3d fe 7a e0 3c 0d 8d d2 bd
       -0.17424406 0.09693652 0.027402397 -0.102808096
000050 9d 37 26 3e 62 4c 7e bd bc f0 db 3d a8 47 12 bd
       0.16232152 -0.062084563 0.10739276 -0.035712868
000060 5a b2 2a 3d 44 1f fe 3d 31 03 75 bd 39 56 89 bd
       0.041673996 0.12408307 -0.059817497 -0.06705899
000070 ad 7e b6 bd 3a 76 1b be dd 8f 2e be 11 76 32 3e
       -0.0891088 -0.15181819 -0.17047067 0.17427851
000080 ef d8 26 be 81 a7 74 3c 89 78 c4 3c 40 18 7d 3d
       -0.16293691 0.014932514 0.023983257 0.061790705
000090 0e 5d f5 bd a6 9e 4c bc 7b 4f 0d 3e 35 11 ca bc
       -0.119806394 -0.012488997 0.1379985 -0.024666408
0000a0 29 9e fd 3d 1b 97 d8 bd 4b d4 1b bc fc ca 36 3e
       0.12383682 -0.10575696 -0.009511064 0.1785087
0000b0 1c 84 e8 bd 65 5b c3 bc 73 0a aa 3c f9 22 b2 3c
       -0.11353323 -0.023847291 0.020756936 0.021745192
0000c0 0b c6 a3 3d 04 9f cf 3d bf db 3a bd c8 1a cb 3d
       0.07996758 0.10137752 -0.045619722 0.099172175
0000d0 1f 87 e4 bc df 90 af 3d a3 08 12 3e b5 8a 95 bd
       -0.027896462 0.08572554 0.14261107 -0.07301847
0000e0 a9 2b d3 3d ee 1d 67 3d 24 b6 b5 bd da 2b 06 be
       0.10311062 0.056425028 -0.08872631 -0.13102666
0000f0 f4 4a 25 bc 11 20 2e 3e 08 70 22 bd f2 20 1c 3e
       -0.010088671 0.1700442 -0.039657623 0.15246943
000100 2e 1a 23 be 33 eb 00 3e 98 69 c4 bd 88 43 c4 bd
       -0.15927956 0.12589721 -0.09590453 -0.09583193
000110 ad 81 e8 3d 4e 9b 60 bd 5e 83 83 bd bf fe 08 3e
       0.11352859 -0.05483561 -0.06421541 0.13378428
000120 da 1c 8a 3d 30 02 02 bd 77 c0 2a be 43 35 24 bd
       0.06743784 -0.031740367 -0.16674982 -0.040089857
000130 63 5c de 3d 71 17 0f be 44 9f 0f 3e 93 f8 c8 3b
       0.10857465 -0.13973786 0.14025599 0.006133148
000140 e9 72 17 be 7a 18 05 be c3 65 37 bd 5a e6 1f be
       -0.14789928 -0.12997618 -0.044774782 -0.15615216
000150 3f 94 df bd b4 a4 0a 3d da 9c 2e be 5f 0c b2 3d
       -0.109169476 0.03384848 -0.17052022 0.08693766
000160 43 39 37 3b 44 9a 0e 3e f9 46 26 3e 5b ec f7 bd
       0.0027957715 0.13926035 0.16238011 -0.12105628
000170 d5 07 23 3e 31 47 03 3d de ad 6f bd 8e 4a 16 3d
       0.15920956 0.032050315 -0.058515422 0.036692195
000180 01 36 88 3d c6 42 5a 3d 10 2c 8c 3c 49 bb 2e be
       0.066509254 0.053286336 0.017110854 -0.17063631
000190 f3 64 99 3d 54 99 90 3d 58 fa a4 3b bf ac c4 bd
       0.07489958 0.07060495 0.005034726 -0.09603261
0001a0 47 ca b7 ba c3 f7 14 3e 1e 17 c1 bd 89 90 23 3e
       -0.0014022075 0.14547639 -0.094282374 0.15973105
0001b0 59 5b eb 3d 7c 90 0a be 4a cf 94 bd 8a c4 d3 bd
       0.114920326 -0.13531679 -0.072661 -0.10340221
0001c0 af 08 26 3c 04 61 28 3c 90 52 6f bb ec 1e 07 3e
       0.010133906 0.010277037 -0.0036517717 0.1319539
0001d0 98 97 bf bd c5 1b d5 3d e9 a7 a0 3d db 02 a8 3d
       -0.09355086 0.10405687 0.07844526 0.0820367
0001e0 7b dc bd bd be 64 34 3d 5b 1c 96 bd 5a 11 e7 bd
       -0.09270569 0.044041388 -0.07329627 -0.112826064
0001f0 54 85 50 bd bd 62 34 bd bd 6c 8e bd 60 33 30 be
       -0.0509084 -0.044039477 -0.06954334 -0.17207098
000200 8c 6c 1f 3d 4f 27 c9 3d 5c ea 10 3d cc 33 7c 3d
       0.038921878 0.09821951 0.035379753 0.061572835
000210 59 fa 13 3e dd f6 03 3e 84 65 40 bd ba 9a 03 3e
       0.14450969 0.1288714 -0.046971813 0.12851992
000220 8b fe 54 bd fa 41 23 3d d1 8c 65 3c 56 9c 25 3d
       -0.052000564 0.039857842 0.014010624 0.040432297
000230 fc 41 02 bd 82 92 2d be 39 de 86 bd 5b c8 3c bd
       -0.03180121 -0.1695042 -0.06585354 -0.04608951
000240 16 d2 fc 3d 52 22 ad 3d 16 6b 04 bd 64 3e ca bd
       0.12344758 0.08453812 -0.032328688 -0.09875181
000250 17 50 c1 3d 57 bb 0a be 35 9a 83 bd a5 9a 04 3e
       0.09439104 -0.13548027 -0.06425897 0.12949617
000260 1f 41 e6 3c 8a 37 fd 3c 0d 75 b2 bd 92 87 26 3e
       0.028107224 0.030910272 -0.08713732 0.16262653
000270 51 e0 88 bc 82 39 e3 3d e3 e6 ed bd be 59 28 3e
       -0.016708525 0.11094953 -0.11616304 0.16440484
000280 8b a6 b8 3d 78 75 e1 3d 54 44 69 3d 14 f7 0a 3e
       0.090161406 0.110087335 0.05694993 0.13570815
000290 1f 7b 15 be 8e 56 0e be 41 85 30 bc c0 e0 e6 bd
       -0.14597748 -0.13900205 -0.010773958 -0.112733364
0002a0 85 bc 9b bd 72 5b 14 3d c6 8f f4 3d 7f bb fb bd
       -0.076043166 0.03622002 0.11941485 -0.122916214
0002b0 e3 ec dc 3d 65 c2 a2 3c 35 2b 05 be 6b 04 6b 3d
       0.1078737 0.019868085 -0.13004763 0.05737726
0002c0 2b 7f 20 3c 23 e3 e5 bd 44 a0 18 be 2b 5c b4 bd
       0.009795944 -0.112249635 -0.14904886 -0.08806642
0002d0 35 f7 9a bd 98 af b8 bd 6e 9a f6 3d dd 15 a8 3d
       -0.07566682 -0.09017867 0.12041174 0.08207295
0002e0 b4 14 07 3e 62 86 2c be 12 fb d6 3c 97 01 e0 3d
       0.13191491 -0.16848138 0.026242767 0.10937803
0002f0 00 b6 56 3d 10 5d b6 bd 80 c9 24 be 6c c2 12 be
       0.052419662 -0.08904469 -0.16092491 -0.14331979
000300 b8 47 ea bd c7 96 d5 3d 06 02 d0 bd 0c 83 d8 bd
       -0.114394605 0.10429149 -0.10156636 -0.1057187
000310 22 74 33 3d 83 80 38 3e 1d f3 14 3e bb 78 10 be
       0.043811925 0.18017773 0.14545865 -0.14108555
000320 43 0f 2a 3e 0d ef 58 bd 1a 14 ab bd ee cf f7 ba
       0.16607384 -0.05296235 -0.083534434 -0.0018906572
000330 41 56 72 3d 7b c0 09 be 8f 9f 6c 3d 2f 7c 29 bc
       0.05916429 -0.13452332 0.057769354 -0.010344549
000340 16 1d a0 bd af 87 20 3e 2e e3 10 bd e6 fa 0c be
       -0.07818048 0.15676759 -0.035372905 -0.13767585
000350 10 e6 f2 3d 0d c8 5a bd 10 45 18 3e d0 70 65 bd
       0.11860287 -0.05341344 0.14870095 -0.05601579
000360 9f 1a 3d 3d b0 5f 2d be 98 d3 90 3d 4e 96 0e be
       0.046167966 -0.16931033 0.07071608 -0.13924524
000370 2b 32 68 3d 05 2e a7 bd 09 45 e0 bd 15 6a fc 3d
       0.05668847 -0.081630744 -0.109506674 0.12324921
000380 d4 ff e2 b9 dd db 2e 3e 26 f5 ea bd 4a 4c 15 be
       -0.00043296686 0.17076059 -0.114725396 -0.14579883
000390 26 5a ae bd 52 f1 e0 3d ad a6 04 3e 97 fb 28 be
       -0.08513288 0.10983528 0.12954207 -0.16502224
0003a0 1d 7f 2a bd 35 4c 18 3e f9 e2 2a be bc 98 15 3e
       -0.04162513 0.1487282 -0.16688146 0.14609045
0003b0 33 23 f8 bc 0a 83 0b be b4 5d 3d 3d 97 a2 2c 3d
       -0.030290222 -0.13624206 0.04623194 0.042147245
0003c0 ce c1 20 3e 14 01 16 be ce 55 c1 3d f6 b4 06 3e
       0.1569893 -0.14648849 0.09440194 0.13154969
0003d0 c6 ee 18 3d 2f de 16 3d 50 99 db bd 77 ee 02 3e
       0.037337087 0.036832985 -0.107226014 0.1278628
0003e0 73 39 cd 3b 91 74 8c bd 76 06 2f 3e 3d aa 6b 3d
       0.006262952 -0.06858171 0.17092308 0.0575354
0003f0 f7 e3 ce 3d f0 47 88 bd 23 2e 2a be 24 60 45 3d
       0.101020746 -0.06654346 -0.16619162 0.04818739

model.4.bias f4 [64]
000000 65 dc 02 3e 76 e0 88 3d 71 a6 2a be 52 94 58 3d
       0.12779386 0.066834375 -0.16665055 0.052875824
000010 01 c5 74 3d 4e 7f 28 3e 13 13 29 3e 3c a6 23 be
       0.05975819 0.16454813 0.16511182 -0.15981382
000020 74 f2 96 3d 49 31 32 be a2 ee e6 bd 91 8a f1 3d
       0.07370463 -0.17401613 -0.11275984 0.117940076
000030 b8 6b fc bd 94 f8 0d bd 59 99 cf 3d 01 17 14 be
       -0.12325233 -0.03466089 0.101366706 -0.144619
000040 85 2e 1e be e3 aa 64 3c d0 64 a0 3d 25 6f 0b 3e
       -0.15447433 0.013956758 0.078317285 0.13616617
000050 e7 07 8b 3d 2b 1a 18 be 18 e1 af 3d 4c a2 ab 3d
       0.067886166 -0.14853732 0.08587855 0.08380565
000060 b7 ab 1a be 4c 21 9a 3d 90 5b ef 3c c6 bf 60 3d
       -0.15104567 0.07525882 0.029218465 0.05487039
000070 19 89 0e 3d 41 3b e6 3d 5a 11 a8 bd 47 78 df bd
       0.034798715 0.112417705 -0.082064345 -0.10911613
000080 7c 28 2d be ca a2 0a 3e 5c cc eb 3c 93 8f fe bd
       -0.16909975 0.13538662 0.02878397 -0.12429728
000090 73 0c fb 3d 2e 19 21 3d 18 f3 f6 bc 23 24 c3 3b
       0.12258234 0.039330654 -0.030145213 0.0059552356
0000a0 6a 82 db 3d e0 fe a7 3b e7 ad 4b bd 29 8c 27 3d
       0.10718234 0.005126819 -0.049726393 0.04090515
0000b0 87 9c 2e 3e be e3 37 ba 1e 04 d4 3d 29 7b 09 bd
       0.17051898 -0.0007014832 0.10352348 -0.03356472
0000c0 84 3b e5 bd 5e 5f e1 3d 9a ec 34 be 83 2a 63 3c
       -0.11192992 0.11004518 -0.17668381 0.013865116
0000d0 cc 9b 0f bc 36 ba db bd 9b f6 0a 3d 80 78 da 3d
       -0.008765172 -0.10728876 0.033926588 0.10667515
0000e0 a3 07 da bd 47 20 1b 3e 99 17 1f 3e 88 e8 bb bd
       -0.10645988 0.15149032 0.15536346 -0.09175211
0000f0 2a 4b 31 3e 49 b0 ce bd 32 b5 07 be da 5e 29 bd
       0.17313829 -0.100922175 -0.13252714 -0.041350223

model.7.weight f4 [1, 64]
000000 49 43 18 3b 03 f9 b6 bc 16 60 2a 3d 8e 5c 38 bc
       0.0023233464 -0.022335535 0.04159554 -0.0112525355
000010 87 da ec bd c4 c0 2c 3d f7 b7 b4 bd 38 8a e1 bd
       -0.11565118 0.042176023 -0.08824151 -0.11012691
000020 ce 30 86 bd dc 78 dd bd 22 d3 75 3d f5 69 ff 3d
       -0.065522775 -0.10814068 0.060015805 0.124713816
000030 4b bd ee 3d 8a 63 6e 3d e7 f2 f2 3d e1 c0 a8 3d
       0.116571985 0.058200397 0.11862736 0.08239914
000040 1a 92 e6 bd b4 87 f3 bd 94 57 32 bd f5 4b a5 bc
       -0.112583354 -0.11891118 -0.043540552 -0.02017782
000050 71 fc 9a 3d 6e be 0c bd 39 c5 00 3e 0b c9 f9 bd
       0.075676806 -0.034361295 0.12575234 -0.12196549
000060 ec a2 db bd 12 f9 f5 3d 1c 3e ee bd 03 8b e7 3c
       -0.10724434 0.12010397 -0.1163294 0.028264528
000070 36 05 a6 bd 9f 5a 1d bd 72 47 f8 3c 18 7f 20 bc
       -0.08106463 -0.0384165 0.030307505 -0.0097959265
000080 67 d2 18 bb 75 a3 92 3d 6a 24 ef bd ff 30 ba bd
       -0.002331877 0.07160083 -0.11676867 -0.090913765
000090 61 a3 00 3e 14 37 b2 3d 1a b4 29 3d 2c 69 73 3d
       0.12562324 0.087019116 0.041431524 0.05942647
0000a0 8e 28 a9 3d 0e 01 43 3d db df 93 bd 71 06 e3 3c
       0.08259688 0.047608428 -0.072204314 0.027713032
0000b0 65 67 79 bd fd 78 c7 3c 94 cc 0a bd fd f3 c3 3d
       -0.06088962 0.024349684 -0.033886507 0.095680214
0000c0 6f 94 0c 3d d0 64 e3 3c 32 18 d3 bc 90 36 55 bd
       0.034321245 0.027758032 -0.025768373 -0.052053988
0000d0 4b 37 91 bc f0 16 4c bd 46 b6 dd 3d 42 50 02 be
       -0.017726561 -0.049826562 0.108257815 -0.12725928
0000e0 bb 9a ce bd ac ea b5 bd 6c a4 16 bd 8a 95 9f 3d
       -0.10088106 -0.08882651 -0.0367779 0.07792194
0000f0 04 e5 21 3c ad 83 6f bc 5a 53 ca bd f7 74 2f ba
       0.009881262 -0.014618796 -0.09879179 -0.00066931493
