survival_analysis/m5706vm3/checkpoints/epoch=299-step=600.ckpt (torch, 465639 bytes, 23 tensors)

model.0.weight f4 [1024]
1.0021319 0.9985959 0.9974946 1.0009564 0.9985369 0.9981106 1.0016844 1.0011634
0.9983158 0.99940765 0.9976154 0.9990837 1.0026683 1.0034567 0.99931943 0.9993789
0.9964844 1.0009567 1.0017872 0.9991546 1.002446 0.99756914 0.9992188 1.0014939
0.9978562 0.9988704 0.9991726 1.0028807 1.000063 0.9997614 1.0032536 0.9995275
1.0001833 1.0027554 0.99920744 0.9987839 1.0029508 1.001206 1.0004619 1.0009071
1.0027117 1.000181 0.99924767 1.0005139 0.99886256 0.9995999 1.0028242 0.9982405
1.0002198 1.0008129 1.0011135 1.0005466 0.9988428 0.99654347 1.0012232 0.99712116
1.0005507 1.0014662 1.0017406 0.997777 0.9979327 0.99936116 1.0017958 0.99974614
0.99878883 0.997896 0.999032 1.0009335 0.99848646 0.9986037 0.99932855 0.9996656
1.0009896 1.0003281 0.9987093 1.001774 1.0005523 0.99994296 0.9987753 0.9999403
0.99787074 0.99841994 1.0003246 1.002869 1.0014175 1.0004126 1.0036216 1.0034137
0.99910045 1.0003244 0.99947214 1.0018736 1.0004009 0.99759597 1.0008392 1.0026971
1.0028985 1.0009173 0.9983254 1.0012134 1.0018117 1.0030689 0.99927115 1.0010235
1.0006585 1.0012683 0.9982692 1.001731 0.99796826 0.9982248 0.99922276 0.9986025
0.99868023 0.99832964 1.0005261 0.9979137 1.0005535 0.9983431 0.99782383 1.0001191
0.99776125 0.99892455 1.0036967 0.9998957 1.0054582 1.000081 1.0020266 1.0013304
1.0018157 0.9996229 1.002419 0.99954236 1.0018995 1.0014303 1.0022362 1.0000678
0.99972475 0.99917626 1.0037808 1.0015287 0.998103 1.0004004 1.001444 0.9975042
1.0007446 0.99992245 1.0017612 0.9998447 1.0011005 1.0000892 0.99925226 0.998733
0.99840814 1.0005616 1.0007954 1.0008057 1.0021735 1.0003589 0.99821466 1.0035741
1.00022 0.9994659 0.9995964 1.0002074 0.9996729 0.9982349 1.0026662 0.99926865
1.0003077 1.0027194 1.0000051 1.0013125 1.0008606 0.9982038 1.0034816 0.99950224
0.99781954 1.0013493 1.0021856 1.002291 1.0013087 1.001313 0.9998423 1.0007505
1.0005274 1.0004916 1.0024767 1.0012332 0.99944156 0.9970438 1.0003015 1.000493
1.0012157 0.99940145 0.9976649 1.0005864 1.0004845 1.0044515 0.9986379 0.9959385
1.0008644 1.0029756 1.0016315 1.0015229 1.0032976 1.0014073 1.0000327 1.0020283
1.001496 1.0003982 0.99978244 0.9982194 1.0020287 1.0000296 1.0015342 1.0029994
0.9981928 1.001975 0.99830085 1.0003482 1.0008125 1.0035204 1.0024059 0.9969529
0.9987383 1.0002137 0.99898 1.0034271 0.9978383 1.0026131 1.0017151 1.0002264
0.9994588 1.0009198 1.0036333 1.0012088 0.9982055 1.0031908 1.0047003 0.99796754
0.9985367 1.0002618 0.9998139 1.0005221 1.0015332 1.0001477 1.0003688 1.0007571
0.9983028 0.9986601 1.002058 0.9987131 1.0011579 0.9971252 1.0045218 0.9985166
00000000: dc45 803f fba3 7f3f ce5b 7f3f 571f 803f
00000010: 1da0 7f3f 2d84 7f3f 3237 803f 1f26 803f
00000020: a091 7f3f 2ed9 7f3f b963 7f3f f3c3 7f3f
00000030: 6f57 803f 4571 803f 66d3 7f3f 4cd7 7f3f
00000040: 9a19 7f3f 591f 803f 903a 803f 99c8 7f3f
00000050: 2750 803f b160 7f3f cecc 7f3f f430 803f
00000060: 8173 7f3f f8b5 7f3f c7c9 7f3f 655e 803f
00000070: 1002 803f 5df0 7f3f 9d6a 803f 09e1 7f3f
00000080: 0206 803f 4a5a 803f 0fcc 7f3f 4db0 7f3f
00000090: b160 803f 8527 803f 230f 803f b91d 803f
000000a0: db58 803f ee05 803f b2ce 7f3f d710 803f
000000b0: 75b5 7f3f c7e5 7f3f 8b5c 803f b08c 7f3f
000000c0: 3407 803f a31a 803f 7d24 803f e911 803f
000000d0: 29b4 7f3f 791d 7f3f 1528 803f 5543 7f3f
000000e0: 0c12 803f 0b30 803f 0939 803f 506e 7f3f
000000f0: 8478 7f3f 22d6 7f3f d83a 803f 5def 7f3f
00000100: a0b0 7f3f 1d76 7f3f 90c0 7f3f 971e 803f
00000110: cf9c 7f3f 7ea4 7f3f ffd3 7f3f 16ea 7f3f
00000120: 6d20 803f c00a 803f 6aab 7f3f 213a 803f
00000130: 1912 803f 43fc 7f3f bdaf 7f3f 16fc 7f3f
00000140: 7574 7f3f 7398 7f3f a30a 803f 035e 803f
00000150: 732e 803f 850d 803f ac76 803f dc6f 803f
00000160: 0cc5 7f3f a10a 803f 68dd 7f3f 653d 803f
00000170: 230d 803f 7362 7f3f 801b 803f 6158 803f
00000180: fa5e 803f 0f1e 803f 4192 7f3f c327 803f
00000190: 5e3b 803f 9064 803f 3cd0 7f3f 8a21 803f
000001a0: 9415 803f 8f29 803f 928e 7f3f b938 803f
000001b0: d97a 7f3f a98b 7f3f 10cd 7f3f 6aa4 7f3f
000001c0: 82a9 7f3f 8892 7f3f 3d11 803f 4677 7f3f
000001d0: 2312 803f 6a93 7f3f 6271 7f3f e703 803f
000001e0: 486d 7f3f 85b9 7f3f 2279 803f 2af9 7f3f
000001f0: dbb2 803f a702 803f 6842 803f 982b 803f
00000200: 7f3b 803f 49e7 7f3f 444f 803f 02e2 7f3f
00000210: 3e3e 803f de2e 803f 4749 803f 3902 803f
00000220: f6ed 7f3f 04ca 7f3f e47b 803f 1832 803f
00000230: ae83 7f3f 1f0d 803f 512f 803f 6f5c 7f3f
00000240: 6618 803f ebfa 7f3f b639 803f d2f5 7f3f
00000250: 1024 803f ec02 803f ffce 7f3f f7ac 7f3f
00000260: ad97 7f3f 6712 803f 101a 803f 671a 803f
00000270: 3947 803f c30b 803f ff8a 7f3f 1e75 803f
00000280: 3507 803f ffdc 7f3f 8de5 7f3f cc06 803f
00000290: 90ea 7f3f 538c 7f3f 5e57 803f 12d0 7f3f
000002a0: 150a 803f 1c59 803f 2b00 803f 022b 803f
000002b0: 331c 803f 498a 7f3f 1672 803f 61df 7f3f
000002c0: 1a71 7f3f 372c 803f 9e47 803f 124b 803f
000002d0: e22a 803f 062b 803f aaf5 7f3f 9818 803f
000002e0: 4811 803f 1c10 803f 2851 803f 6928 803f
000002f0: 67db 7f3f 433e 7f3f e109 803f 2810 803f
00000300: d627 803f c6d8 7f3f f866 7f3f 3713 803f
00000310: e00f 803f de91 803f bca6 7f3f d3f5 7e3f
00000320: 531c 803f 8161 803f 7635 803f e731 803f
00000330: 0e6c 803f 1d2e 803f 1201 803f 7742 803f
00000340: 0531 803f 0c0d 803f bef1 7f3f 4e8b 7f3f
00000350: 7a42 803f f800 803f 4632 803f 4962 803f
00000360: 9089 7f3f b840 803f a590 7f3f 690b 803f
00000370: a01a 803f 5b73 803f d64e 803f 4e38 7f3f
00000380: 50ad 7f3f 0107 803f 27bd 7f3f 4d70 803f
00000390: 5572 7f3f a055 803f 3338 803f 6b07 803f
000003a0: 88dc 7f3f 241e 803f 0e77 803f 9c27 803f
000003b0: 658a 7f3f 8e68 803f 059a 803f cd7a 7f3f
000003c0: 1aa0 7f3f 9408 803f cef3 7f3f 1c11 803f
000003d0: 3d32 803f d704 803f 160c 803f cf18 803f
000003e0: c690 7f3f 30a8 7f3f 7043 803f a9ab 7f3f
000003f0: f125 803f 9943 7f3f 2c94 803f c99e 7f3f

model.0.bias f4 [1024]
-0.00038061014 -0.00094341475 -0.0001467093 0.0010136486 -0.0007980635 0.0034769282 -0.0038625107 -8.5194675e-05
-0.0007465856 0.000369162 -0.00395174 0.004306146 -0.0029200062 -0.0039738426 -0.0024585866 -0.0026960082
0.003245195 0.00442999 0.00089896633 -0.0013459359 0.0032052808 0.0010033002 -0.0032934824 0.001724789
-0.0034934054 0.002245277 0.003140121 0.0050435155 -0.004865591 0.00072872953 0.0026557574 -0.0017615972
-0.001732343 -0.0032899606 -0.00054291455 -0.0014744172 -0.0028588432 0.0021137272 0.0013460601 0.00017140439
-0.004226194 -0.0029030985 0.0020623743 0.0006913708 -0.0030135252 -0.0034143971 0.0011710493 0.0013371069
-0.004330042 -0.0023146835 -0.0038360248 -0.002291326 0.0008957764 0.0022977632 -0.0050797164 0.00090124505
0.0011034686 -0.004626737 -0.0034658723 -0.0007775133 -0.0035610572 0.002097873 0.0029354694 -0.00012742884
0.0014810474 -0.0022147484 -0.0011732808 -0.0019560207 0.0021583876 -0.0030359968 0.0010705148 -0.001552124
0.0020225102 -0.00056407455 0.0036010481 -0.0022755198 -0.002017443 0.0039848997 -0.0048727724 -0.0014864828
-0.0037245478 0.0043312586 -0.0013883867 0.0011265147 -0.0003794117 -0.002316791 0.002456958 -0.0037928775
-0.0026483922 -0.0007425526 -0.00078477873 -0.0034982017 -0.0021554504 0.0046895216 -0.0015787062 -0.001472385
-0.0039694253 -0.0022375928 0.0024260995 -0.0016514322 -0.0043785176 -0.00465033 0.002203362 0.0011747812
-0.0034545208 0.0021488706 0.003223633 -0.0020171471 -0.0012737828 -0.0010370825 0.0036878707 -0.00037289545
0.0003477222 -3.9547846e-05 -0.0029772494 0.0031427725 -0.0017332624 -0.0009674864 7.697805e-05 0.002569282
-0.0007991401 0.0032031396 0.0029436038 0.0007310099 -0.0045852736 -0.00019487026 -0.0021152124 -0.0020829043
-0.0022325246 0.001408929 0.0005696263 -0.0008503254 0.0012390998 -0.0015819999 0.0030280496 5.148746e-05
-0.0028105 -6.053758e-05 0.0050445255 0.0036426259 -0.0028376386 -0.0032678202 -0.0036537268 -0.0032103043
0.0012942151 -0.0029004745 0.0025150615 0.0037433996 0.003304084 0.0039556357 -0.0018813247 0.0033432697
-0.004381168 0.0003305971 -0.00010420783 -0.0026644503 -0.0015108853 0.0008338884 0.0017332796 -0.002057887
0.003609149 0.0023514333 -0.0029978813 -0.0008854721 0.0015712628 0.0008016817 0.0019724597 -0.002057836
0.0011891886 0.002744347 0.0034694897 -0.0020979291 -0.003654444 0.00092663115 0.004071529 -9.5374795e-05
0.0044745225 0.0007102792 0.0022030214 0.0036854683 -0.0047323355 -0.0020201416 0.0015492607 0.002182729
-0.0003703399 -0.0006236449 0.00053793984 -0.0007170122 0.0031823132 -0.0035444081 -0.0036911743 0.0013916405
-0.003873333 0.0006313336 -0.0014830868 0.001903856 -0.0015175696 0.0036180706 -0.0035475348 -0.003922319
-0.0008628851 -0.004028896 0.0018936632 0.0035474135 -0.0026381107 0.0013438049 0.0023623058 0.00056254235
0.0020665585 0.003630983 -0.0017863183 0.002440188 0.0038728348 -0.0003509573 -0.0028086344 0.0006559823
0.00044024264 -0.0005805615 0.0016863461 -0.0016174603 -0.0020937687 -0.0026829357 -0.003960856 -0.00093301333
-0.0010787772 0.0021260437 -0.0015595811 -0.0021406137 0.002210282 0.0030123573 -0.0038242918 -0.0034021137
-0.002369491 0.0024657962 0.0026516009 -0.0007584353 0.0025128555 -0.0009983692 -0.005093721 -0.0014722763
-0.0024800461 0.0017943799 -0.0016147611 0.0015684593 0.0035700651 -0.0027470784 -0.004580088 -0.0031834908
0.002849501 0.0016950817 -0.0025775144 0.0020870096 0.0036824963 -0.0029012954 0.005366643 -0.0018203522
00000000: a18c c7b9 7e4f 77ba fad5 19b9 67dc 843a
00000010: 2335 51ba 2ddd 633b 2d22 7dbb 8baa b2b8
00000020: 83b6 43ba 168c c139 997d 81bb 921a 8d3b
00000030: 935d 3fbb 0237 82bb 3d20 21bb 83af 30bb
00000040: 56ad 543b 7329 913b 9ca8 6b3a 1d6a b0ba
00000050: b00f 523b 2b81 833a 77d7 57bb 5112 e23a
00000060: 9ef1 64bb 7f25 133b 7dca 4d3b 1344 a53b
00000070: 896f 9fbb 3608 3f3a 370c 2e3b 65e5 e6ba
00000080: c90f e3ba 619c 57bb 6152 0eba 3b41 c1ba
00000090: 6e5b 3bbb 7586 0a3b 486e b03a 04bb 3339
000000a0: e37b 8abb e941 3ebb e628 073b 1c3d 353a
000000b0: 907e 45bb 14c4 5fbb e57d 993a dd41 af3a
000000c0: 06e3 8dbb f2b1 17bb d165 7bbb 122a 16bb
000000d0: 89d2 6a3a 1296 163b c073 a6bb 8841 6c3a
000000e0: 43a2 903a e29b 97bb b023 63bb 09d2 4bba
000000f0: a060 69bb 787c 093b 0161 403b 6b9e 05b9
00000100: b41f c23a 5025 11bb c5c8 99ba 9530 00bb
00000110: bc73 0d3b 93f7 46bb 8450 8c3a a470 cbba
00000120: 178c 043b 67de 13ba 90ff 6b3b e320 15bb
00000130: 1437 04bb c393 823b c7ab 9fbb 16d6 c2ba
00000140: 8b17 74bb 3bed 8d3b 87fa b5ba 90a7 933a
00000150: c7eb c6b9 4ed5 17bb ea04 213b ed91 78bb
00000160: a690 2dbb dda7 42ba 9cb9 4dba 1642 65bb
00000170: 7542 0dbb 8faa 993b 97ec ceba 0bfd c0ba
00000180: f411 82bb 94a4 12bb 32ff 1e3b df74 d8ba
00000190: ab79 8fbb cc61 98bb 4866 103b 1efb 993a
000001a0: 3e65 62bb 11d4 0c3b 9643 533b 1d32 04bb
000001b0: 0ff5 a6ba b7ee 87ba 34b0 713b 2e81 c3b9
000001c0: 7c4e b639 2de0 25b8 f51d 43bb f9f6 4d3b
000001d0: a32e e3ba ea9e 7dba 476f a138 6661 283b
000001e0: 627d 51ba c4eb 513b 7ae9 403b 3ea1 3f3a
000001f0: 1040 96bb 1656 4cb9 609f 0abb 5681 08bb
00000200: 8c4f 12bb d0ab b83a f952 153a 5fe8 5eba
00000210: 4a69 a23a 1c5b cfba 3e72 463b 3df4 5738
00000220: 5e30 38bb bbe9 7db8 8c4c a53b 1fb9 6e3b
00000230: adf7 39bb ed28 56bb 5d73 6fbb f863 52bb
00000240: a7a2 a93a e315 3ebb bbd3 243b d353 753b
00000250: 5589 583b 479e 813b c896 f6ba c21a 5b3b
00000260: e78f 8fbb fe53 ad39 278a dab8 0f9e 2ebb
00000270: e608 c6ba 4e99 5a3a 362f e33a 9ddd 06bb
00000280: 7987 6c3b 811a 1a3b 1a78 44bb 071f 68ba
00000290: d5f2 cd3a f327 523a 6244 013b c2dc 06bb
000002a0: 8cde 9b3a 81da 333b 6160 633b 697d 09bb
000002b0: 657f 6fbb 2ae9 723a 766a 853b f403 c8b8
000002c0: 049f 923b 0832 3a3a 9160 103b e687 713b
000002d0: b511 9bbb 5a64 04bb 9010 cb3a 1e0c 0f3b
000002e0: 2e2a c2b9 1a7c 23ba 8804 0d3a e0f5 3bba
000002f0: 5b8e 503b 4d49 68bb a1e7 71bb b567 b63a
00000300: bfd7 7dbb 1580 253a 2364 c2ba cf8a f93a
00000310: 30e9 c6ba 271d 6d3b c27d 68bb cc86 80bb
00000320: 3d33 62ba d404 84bb cb34 f83a b97b 683b
00000330: 27e4 2cbb 9c22 b03a ead0 1a3b 9477 133a
00000340: 196f 073b c9f5 6d3b e522 eaba 90eb 1f3b
00000350: 63cf 7d3b b100 b8b9 1111 38bb 3af6 2b3a
00000360: 5ed0 e639 d330 18ba 6308 dd3a f600 d4ba
00000370: 9c37 09bb 31d4 2fbb 11ca 81bb 7795 74ba
00000380: c265 8dba 1855 0b3b dc6a ccba 8a49 0cbb
00000390: 61da 103b f86a 453b f8a0 7abb fff5 5ebb
000003a0: 7649 1bbb 3299 213b 7bc6 2d3b bbd1 46ba
000003b0: b8ae 243b b6db 82ba 3be9 a6bb 65f9 c0ba
000003c0: 4588 22bb 6631 eb3a 64a6 d3ba c394 cd3a
000003d0: c1f7 693b 5408 34bb 9014 96bb 1da2 50bb
000003e0: b2be 3a3b 812d de3a 84eb 28bb 36c6 083b
000003f0: 0956 713b a923 3ebb aada af3b e298 eeba

model.0.running_mean f4 [1024]
-0.058685724 -0.017425722 0.0082032755 -0.02679427 0.0015284297 -0.013778745 0.040299837 -0.0050690672
-0.0041459673 0.032724045 -0.010829582 0.0052862987 -0.0039607175 -0.012522066 0.004817624 0.010326486
-0.036134165 -0.024786066 -0.0013287527 0.008592215 0.0144784385 -0.0017975692 0.01918388 0.072637655
0.019043397 0.029667122 -0.025630865 0.011702819 -0.005776077 -0.010833625 0.024751874 -0.015557706
-0.007531185 0.009980599 -0.003119136 0.016262146 -0.011347126 0.0064697787 -0.029047543 -0.0042178966
0.010044906 0.024215933 -0.000784611 -0.045218833 -0.023817945 0.0034339742 0.0001891235 -0.024189735
-0.0128363315 0.083316654 -0.024502153 -0.017952614 -0.019265618 0.008970595 0.009266486 -0.009262228
0.032079104 0.009284917 -0.005884443 -0.010759989 0.010711703 -0.022565598 -0.0114551345 0.02400229
-0.0002493128 -0.014335101 0.0048557245 0.0073615387 0.0016332843 0.0060697068 0.037674863 0.010689953
-0.016392548 0.04358859 0.029911961 -0.010558171 0.026013447 -0.018943558 0.016710924 -0.017483389
-0.008484324 0.027290484 -0.051961016 0.021442588 -0.015938751 -0.039920393 0.023426546 -0.018962493
0.011683622 0.023351252 -0.022823254 -0.0055498295 -0.012143084 0.012906286 0.011734813 0.018441552
0.010290083 0.057400793 -0.0091957 0.02214395 0.013724938 0.027355744 -0.0016217764 0.01307549
0.07394695 0.016069526 0.0031365808 -0.02264902 -0.030291175 0.050345175 -0.011318582 0.0033678669
0.065780155 -0.0035187202 -0.0049638185 0.018118171 -0.0019380448 -0.006100034 0.0009745669 -0.0059830947
-0.021841507 -0.008559027 -0.016340138 -0.012720282 -0.048566684 -0.021642769 -0.010995652 -0.020679493
0.020130197 -0.020229267 -0.063553624 -0.014418242 0.017209275 -0.0047656307 -0.0008023757 -0.027696762
0.04274524 0.022145133 -0.002592533 -0.022476478 0.0034392264 -0.040924046 -0.01004722 -0.006719675
-0.0025835664 -0.009696852 0.045405645 -0.023522025 -0.033067845 0.001444221 -0.0085147815 -0.0006962016
0.0071157087 -0.0008010218 0.0164942 0.026839191 0.02762392 -0.008637531 -0.0045143072 0.007346893
0.0014961499 0.027682163 0.016186446 0.0039675278 -0.0055075004 -0.0048726783 -0.05550931 -0.007029647
-0.038085528 0.026748482 0.027246285 0.030536737 0.025033483 -0.009011262 0.022768663 0.011589701
-0.011418984 -0.013458613 -0.017726943 -0.0019141876 -0.031857494 -0.016738392 -0.005914544 0.011065523
-0.010476286 0.02493756 0.04681469 -0.01563726 -0.01447372 -0.0324762 0.037977967 0.012148434
0.013351937 0.031959698 0.012260229 0.011279164 -0.00988906 -0.0032467432 0.021167008 0.032513235
0.0059853666 -0.013200749 0.002068008 -0.025824364 -0.024889648 0.009910904 -0.013168098 -0.013518293
0.017193647 -0.008444122 -0.03327606 -0.022520812 0.015194348 0.02567524 0.0068118605 -0.015858645
0.01222897 0.028022429 -0.00842155 -0.006170291 0.009567343 -0.0188756 -0.048598245 -0.021426434
0.021492831 0.0139734065 0.004736303 -0.019578964 0.0019156305 -0.019996563 -0.0103249755 -0.03209485
-0.00491869 -0.028590262 -0.012202315 -0.017747408 -0.029737469 0.034574423 0.021313805 -0.017500974
0.032482233 -0.0013540542 -0.007844262 0.024058787 -0.023588546 -0.00028702684 0.012101721 0.021367438
-0.00045264472 0.027187044 -0.018105399 0.025031867 0.0193753 0.0012033236 0.015113839 0.022564813
00000000: 7160 70bd 63c0 8ebc 0867 063c a87f dbbc
00000010: 9755 c83a 3fc0 61bc 7111 253d 6b1a a6bb
00000020: e5da 87bb a609 063d 8f6e 31bc b038 ad3b
00000030: e8c8 81bb 5a29 4dbc 29dd 9d3b 6c30 293c
00000040: 6b01 14bd 260c cbbc 8b29 aeba 5dc6 0c3c
00000050: f936 6d3c 6a9c ebba 8327 9d3c 0dc3 943d
00000060: e600 9c3c 7708 f33c d2f7 d1bc 2ebd 3f3c
00000070: 3f45 bdbb 847f 31bc 71c4 ca3c c0e5 7ebc
00000080: 29c8 f6bb ab85 233c 6b6a 4cbb 3138 853c
00000090: 4ce9 39bc 7000 d43b 1df5 edbc 4836 8abb
000000a0: 6493 243c 7e60 c63c 5aae 4dba 6237 39bd
000000b0: da1d c3bc 870c 613b 744f 4639 8d29 c6bc
000000c0: 7a4f 52bc eca1 aa3d bdb8 c8bc 5c11 93bc
000000d0: eed2 9dbc 67f9 123c 76d2 173c 9ac0 17bc
000000e0: 6165 033d c41f 183c 49d2 c0bb aa4a 30bc
000000f0: 2480 2f3c 7ddb b8bc 51ae 3bbc 73a0 c43c
00000100: 33b6 82b9 c5dd 6abc c51c 9f3b 1039 f13b
00000110: ed13 d63a 64e4 c63b f550 1a3d ea24 2f3c
00000120: aa49 86bc f389 323d ee09 f53c 2efc 2cbc
00000130: 271a d53c 852f 9bbc 59e5 883c 5339 8fbc
00000140: d601 0bbc 4b90 df3c 13d5 54bd 5ea8 af3c
00000150: fc91 82bc 9183 23bd 07e9 bf3c 3b57 9bbc
00000160: aa6c 3f3c 204b bf3c d5f7 babc 58db b5bb
00000170: c9f3 46bc e374 533c 6043 403c bd12 973c
00000180: bc97 283c 181d 6b3d 90a9 16bc 3b67 b53c
00000190: 90de 603c 2719 e03c c991 d4ba 943a 563c
000001a0: 8071 973d 3da4 833c 188f 4d3b 708a b9bc
000001b0: 3325 f8bc be36 4e3d 9371 39bc 6eb7 5c3b
000001c0: bfb7 863d 549a 66bb 87a7 a2bb 8f6c 943c
000001d0: fe05 feba cbe2 c7bb 147a 7f3a d60d c4bb
000001e0: f6ec b2bc 293b 0cbc c1db 85bc bb68 50bc
000001f0: dced 46bd 2d4c b1bc 1b27 34bc 0a68 a9bc
00000200: 15e8 a43c d9b7 a5bc 6728 82bd 7d3a 6cbc
00000210: 77fa 8c3c 0229 9cbb 8656 52ba 52e4 e2bc
00000220: a215 2f3d b669 b53c 7ce7 29bb 9720 b8bc
00000230: a564 613b f99f 27bd 189d 24bc b830 dcbb
00000240: 0d51 29bb 8cdf 1ebc 45fb 393d 43b1 c0bc
00000250: 2672 07bd 044c bd3a 9581 0bbc 4c81 36ba
00000260: e42a e93b aafb 51ba d81e 873c dddd db3c
00000270: 8f4b e23c 6e84 0dbc c1ec 93bb 35be f03b
00000280: 761a c43a b4c5 e23c 7099 843c 0902 823b
00000290: 4378 b4bb fdaa 9fbb bb5d 63bd f458 e6bb
000002a0: 92ff 1bbd a21f db3c 9a33 df3c 2e28 fa3c
000002b0: 0513 cd3c f9a3 13bc 5985 ba3c bbe2 3d3c
000002c0: b116 3bbc 8481 5cbc 1838 91bc 7ae5 faba
000002d0: 017d 02bd f41e 89bc cbce c1bb 2b4c 353c
000002e0: baa4 2bbc db49 cc3c c3c0 3f3d b619 80bc
000002f0: 2f23 6dbc c405 05bd c98e 1b3d 3a0a 473c
00000300: 15c2 5a3c 2ce8 023d 21df 483c 3ecc 383c
00000310: b905 22bc 50c7 54bb 6f66 ad3c 992c 053d
00000320: e520 c43b f447 58bc 6b87 073b 9e8d d3bc
00000330: 60e5 cbbc 5861 223c 02bf 57bc d57b 5dbc
00000340: b1d9 8c3c 3759 0abc 7a4c 08bd 917d b8bc
00000350: b7f1 783c e254 d23c 0736 df3b fde9 81bc
00000360: 055c 483c 4b8f e53c 8afa 09bc 2730 cabb
00000370: 58c0 1c3c 01a1 9abc f40e 47bd 7d86 afbc
00000380: bc11 b03c b7f0 643c fd32 9b3b 1064 a0bc
00000390: e515 fb3a d5cf a3bc 162a 29bc e475 03bd
000003a0: f62c a1bb 2036 eabc 38ec 47bc 0363 91bc
000003b0: fe9b f3bc e99d 0d3d 4a9a ae3c 345e 8fbc
000003c0: 170c 053d 857a b1ba 3885 00bc ef16 c53c
000003d0: c43c c1bc 177c 96b9 4c46 463c c40a af3c
000003e0: f250 edb9 5db7 de3c c651 94bc a10f cd3c
000003f0: f3b8 9e3c d7b8 9d3a 09a0 773c d8d9 b83c

model.0.running_var f4 [1024]
0.00013547413 0.00014562922 0.00013945547 9.911705e-05 0.0001680758 0.00016005737 0.00017438717 0.00013562609
0.00012959033 0.0001454866 0.00019480797 0.00016754301 0.00016745008 0.00011882642 0.00014672165 0.0001258829
0.000107050626 0.00015196118 0.00020150622 0.0001415631 0.00014087943 0.000121534904 0.000100028374 0.0001890138
0.00011531205 0.0001676084 0.0001672854 0.000107178355 0.00016022167 0.00034727718 0.00028643018 0.00017683607
0.00019946964 0.000104270934 0.00019280482 0.00020176246 0.00010407814 8.528985e-05 0.00012021659 0.0002457006
0.00028710262 0.00016092107 0.00014936304 0.00016250028 0.00017692191 0.00020987191 0.00023162027 0.00023560104
0.00013822276 0.00032323968 0.00025652585 0.00022065044 0.00016815495 0.00017774817 0.0001134999 0.00011794216
0.0002244069 9.2884366e-05 0.000125357 0.00014579907 0.00021185949 0.00019942386 0.00027922343 0.00019686404
0.00014510288 9.7151235e-05 0.00018199481 0.00015522068 0.00014365811 0.0001645328 0.00020144542 0.0001988871
0.00022277804 0.00018622208 0.00015589177 0.0001890018 0.00010224644 0.00019539257 0.00015267893 0.00019010014
0.00020139125 9.890225e-05 0.000209382 0.00013475811 0.00012899612 0.00033173533 0.0001727394 0.000225247
0.00012915037 0.0002586799 0.00037871307 0.0001714959 0.00012500481 0.00023094189 0.00016639433 0.00017764422
0.00019479953 0.00015584262 0.00015408098 0.00034956326 0.0001352056 0.00012594013 0.00020310839 0.000113036986
0.0006413171 0.00016362731 0.00014991028 0.00024463556 0.00014003129 0.00013606761 0.00018142349 0.00012414725
0.00017368309 0.00018594107 0.00022822472 0.00029912326 0.00012973437 0.00015462968 0.0001777407 0.00024294658
0.0002076268 0.0001483986 0.00014908324 0.00019897465 0.00015645512 8.1764374e-05 0.00011171376 0.00012576721
0.00019353536 0.00031290663 0.00017250066 9.5465824e-05 0.00020319945 0.00010920191 0.00011608693 0.0001648999
0.0002643667 0.00016517506 0.00017260232 0.00018124624 0.0001312849 0.00015148372 0.00017448407 0.00014669415
0.00035269713 0.00026978189 0.00016843904 0.00012908972 0.00026658064 0.00016643251 0.00024395733 0.00015865885
0.00012210128 0.00024372179 0.00012355867 0.00015915101 0.00014464321 0.00012665405 0.00032063897 0.00016433715
0.00013730394 0.0001553406 0.00012375973 0.00015342145 0.00013500541 9.9734236e-05 0.0006894755 0.00014681237
0.00020857755 0.00018583472 0.00012913362 0.00014840795 0.00015797275 0.00013243298 0.00027944642 0.0001862883
0.00012437136 0.00013383923 9.58257e-05 0.00023445685 0.00018863904 0.00020708956 0.00025585806 0.00021067102
0.00014896209 0.0001494588 0.00022659425 0.00013041293 0.00014838757 0.00015646954 0.0002566822 0.00017479743
0.00023864028 0.0001291989 0.0001339236 0.00023847375 0.00018192467 0.00013817706 0.0001786103 0.00018029008
0.000150346 0.00017639324 0.00018006572 0.00015311393 0.0001313338 0.00012225298 0.00013613545 0.00012958946
0.00015704504 0.00014448089 0.00019418646 0.00012190789 0.00014196272 0.00017095762 0.00053063635 8.599744e-05
0.00011689921 0.00013146042 8.640371e-05 0.00021059049 0.00014935329 0.00011381329 0.00014393657 0.00021487141
0.00017881072 0.00014184084 0.00012769448 0.00011670883 0.00011822509 0.00012241675 0.00013797815 0.00035638205
0.00017725506 0.00017873905 0.00012715056 0.00011440787 0.00017772251 0.00011910898 0.00014965827 0.00011161389
0.00014865579 0.00015829531 0.0001944335 0.00020397201 0.00018487214 0.00044075464 0.000100450605 0.00012577444
0.00016208208 0.000109681605 0.00015485215 0.00012597392 0.00016733428 0.0001084282 0.00015393394 0.00014513946
00000000: 0f0e 0e39 0cb4 1839 cb3a 1239 10dd cf38
00000010: 813d 3039 13d5 2739 b3db 3639 da36 0e39
00000020: a4e2 0739 c38d 1839 5e45 4c39 7cae 2f39
00000030: 8a95 2f39 7332 f938 4bd9 1939 6fff 0339
00000040: 5e80 e038 c557 1f39 6a4b 5339 8e70 1439
00000050: 09b9 1339 8ee0 fe38 53c6 d138 0132 4639
00000060: afd3 f138 0ac0 2f39 5569 2f39 f1c4 e038
00000070: 2d01 2839 c112 b639 022c 9639 126d 3939
00000080: b928 5139 08ac da38 a62b 4a39 3390 5339
00000090: 8744 da38 a4dd b238 ca1c fc38 60d1 8039
000000a0: 4386 9639 ecbc 2839 569e 1c39 d664 2a39
000000b0: 1d84 3939 1011 5c39 18df 7239 ac0b 7739
000000c0: e4ef 1039 7f78 a939 517e 8639 675e 6739
000000d0: c052 3039 e961 3a39 cb06 ee38 b757 f738
000000e0: c54e 6b39 eaca c238 4372 0339 a4e1 1839
000000f0: 9926 5e39 6f1c 5139 bc64 9239 4a6d 4e39
00000100: c226 1839 acbd cb38 dcd5 3e39 bcc2 2239
00000110: eea2 1639 7086 2c39 183b 5339 598c 5039
00000120: 8699 6939 9c44 4339 e176 2339 c92e 4639
00000130: 246d d638 4be2 4c39 7018 2039 9e55 4739
00000140: 8d2c 5339 be69 cf38 8d8d 5b39 db4d 0d39
00000150: 2243 0739 c3ec ad39 6121 3539 4830 6c39
00000160: 8a6c 0739 6e9f 8739 028e c639 95d3 3339
00000170: b913 0339 fe28 7239 237a 2e39 0246 3a39
00000180: 1a43 4c39 af69 2339 cc90 2139 9645 b739
00000190: fac5 0d39 cc0e 0439 7ef9 5439 450e ed38
000001a0: 101e 283a 5f93 2b39 3c31 1d39 6e42 8039
000001b0: 5dd5 1239 5fad 0e39 7f3c 3e39 862d 0239
000001c0: b31e 3639 2df9 4239 9b4f 6f39 a5d3 9c39
000001d0: 4e09 0839 1724 2239 e85f 3a39 7abf 7e39
000001e0: 65b6 5939 729b 1b39 3a53 1c39 daa3 5039
000001f0: 1a0e 2439 ea78 ab38 de47 ea38 61e0 0339
00000200: c1ef 4a39 9e0d a439 4be1 3439 d334 c838
00000210: f011 5539 5403 e538 b273 f338 fbe8 2c39
00000220: b39a 8a39 d832 2d39 95fc 3439 eb0c 3e39
00000230: 86a9 0939 9ad7 1e39 b6f5 3639 e9d1 1939
00000240: 35ea b839 8371 8d39 039f 3039 425c 0739
00000250: d9c3 8b39 6384 2e39 ccce 7f39 a95d 2639
00000260: 5008 0039 928f 7f39 878f 0139 c6e1 2639
00000270: 5eab 1739 70ce 0439 6f1b a839 eb51 2c39
00000280: 3ff9 0f39 ede2 2239 80c5 0139 c2df 2039
00000290: 3d90 0d39 6928 d138 ebbd 343a a5f1 1939
000002a0: 9cb5 5a39 a1dc 4239 0b68 0739 f59d 1b39
000002b0: 7da5 2539 b5dd 0a39 aa82 9239 6256 4339
000002c0: af69 0239 3257 0c39 08f6 c838 88d8 7539
000002d0: 68cd 4539 2e26 5939 b024 8639 92e7 5c39
000002e0: b532 1c39 0bb8 1c39 ee99 6d39 74bf 0839
000002f0: 7c98 1b39 f911 2439 4d93 8639 d449 3739
00000300: 833b 7a39 9179 0739 d86d 0c39 cf0e 7a39
00000310: 08c3 3e39 9fe3 1039 5649 3b39 400c 3d39
00000320: 32a6 1d39 33f6 3839 06d0 3c39 358d 2039
00000330: a6b6 0939 0931 0039 95bf 0e39 68e2 0739
00000340: 75ac 2439 cb7f 1739 889e 4b39 cda8 ff38
00000350: d4db 1439 1643 3339 671a 0b3a 8659 b438
00000360: c927 f538 a3d8 0939 a333 b538 f4d1 5c39
00000370: b89b 1c39 0baf ee38 aeed 1639 1b4f 6139
00000380: 237f 3b39 1cbb 1439 bae5 0539 93c1 f438
00000390: 9def f738 ff5c 0039 3aae 1039 cad8 ba39
000003a0: 8bdd 3939 e66b 3b39 b853 0539 42ee ef38
000003b0: 065b 3a39 26ca f938 96ed 1c39 4012 ea38
000003c0: 7ce0 1b39 13fc 2539 d8e0 4b39 52e1 5539
000003d0: 3dda 4139 1615 e739 02a9 d238 52e2 0339
000003e0: 94f4 2939 dd04 e638 cf5f 2239 de17 0439
000003f0: 7476 2f39 f263 e338 5469 2139 9430 1839

model.1.weight f4 [32, 1024]
-0.009818974 0.008806322 -0.0136954775 0.017410826 0.025254197 -0.021241913 0.02832414 0.007895535
0.025808256 0.0038883765 0.015745126 -0.0044212113 0.024098044 0.0074147307 -0.014522113 0.009953604
-0.010315781 -0.0037297544 -0.014871298 0.018207017 -0.027075823 -0.013555848 -0.011827268 -0.017749375
0.0030752802 -0.029885178 0.027850926 -0.027123846 0.023267807 0.0048615625 -0.011670944 0.020513618
0.0060417135 0.025923345 0.0035943897 -0.01108446 0.010598514 -0.009215166 0.011386685 0.027205741
0.017493388 -0.012445002 0.018739937 0.0045974045 0.015097653 -0.021055931 -0.033072785 -0.01167965
-0.021650834 0.026652813 0.008776318 0.015642833 0.0122181075 -8.609528e-05 0.026041592 -0.021687733
0.0015798874 -0.018219326 0.0107193915 -0.011410546 0.009117053 -0.0049454737 0.028989518 -0.01765048
-0.020442965 -0.018942874 0.02693634 0.010275875 0.030149434 -0.025328208 -0.029927343 -0.02673652
-0.023749158 0.011669118 0.012988287 0.025928581 -0.015526571 -0.023051523 0.016051473 -0.014638141
0.017793981 -0.007462452 0.017888423 -0.023803666 -0.013716661 0.008697053 0.0032556602 -0.0046441527
0.016689042 0.021201743 -0.02140681 -0.015898665 0.029166667 -0.00817437 -0.01066637 -0.03262368
-0.015286175 0.008109868 -0.002198042 -0.021366088 0.0016973213 -0.020987963 -0.025428796 -0.016003974
-0.028036993 -0.02062707 0.031618804 0.007350337 0.009906228 -0.030049706 -0.02030278 -0.008475194
0.00540865 -0.026457008 -0.014182711 -0.016994065 0.0015117505 -0.01086664 0.000749656 -0.020677334
-0.02104142 -0.017461365 -0.012287561 -0.022300446 0.029661406 -0.008786113 0.029365035 0.011663196
-0.027946152 0.022878822 -0.011141278 -0.012303678 -0.025241578 -0.03214425 0.009051182 -0.007261632
0.009447756 -0.023936871 0.02335661 -0.024273658 -0.006105201 0.0071404926 0.017471192 0.023585035
0.028001029 -0.026237616 0.006991864 -0.013178371 -0.0025820727 -0.022564271 0.02902819 -0.022105724
0.015822444 0.00857372 0.0113712605 -0.01755066 0.026681054 0.0079107545 0.003999125 -0.027910288
0.013431355 -0.0058272365 -0.018130334 0.027011778 0.0068404605 -0.016371207 -0.018792026 -3.6662186e-05
0.01738943 -0.010418372 -0.019657508 -0.00929225 -0.02442757 0.012966868 0.023256902 -0.030441139
0.00996179 0.016680203 0.0021965741 -0.011106415 0.015903598 0.0145772565 0.009253286 -0.005449108
-0.0047878935 0.00022037218 -0.003975618 -0.0074876784 0.020896038 0.024462901 -0.0020398535 -0.007054153
0.00060319825 -0.0011821218 0.006691402 0.010209117 -0.026628004 -0.014725036 0.025588844 0.009582102
-0.0041068955 -0.019562453 -0.020893702 -0.028023388 -0.01032432 0.01080683 0.01624259 0.014739727
-0.029502569 -0.020196158 -0.004386588 0.027690688 0.0050015715 -0.0076922555 0.01353708 -0.014757453
-0.018257437 0.026292583 -0.012307929 -0.0047334936 -0.03126648 0.023566384 0.026518302 0.010082081
-0.02242324 -0.032579113 -0.02278282 0.02601177 0.018017305 0.026722206 0.017672794 0.0058803386
1.9848067e-05 -0.02582115 -0.02901809 -0.028907813 0.011795593 -0.016866922 -0.0034055342 -0.019090341
-0.0029919313 -0.020244576 -0.019442761 0.009676503 -0.0093640555 0.016014526 -0.012028562 -0.021406066
-0.005354807 -0.014651305 -0.008843229 -0.027231338 0.01838392 -0.021343969 0.014676071 0.011943494
00000000: c3df 20bc 6448 103c ff62 60bc 26a1 8e3c
00000010: e4e1 ce3c 8503 aebc 0708 e83c 465c 013c
00000020: d66b d33c 22d4 7e3b ecfb 803c cfdf 90bb
00000030: 4369 c53c 45f7 f23b 28ee 6dbc 7114 233c
00000040: 8603 29bc e56e 74bb bfa6 73bc e226 953c
00000050: 1ece ddbc 5919 5ebc 28c7 41bc 2367 91bc
00000060: a48a 493b c3d1 f4bc a027 e43c d432 debc
00000070: 219c be3c be4d 9f3b 7d37 3fbc 2d0c a83c
00000080: 91f9 c53b 325d d43c da8f 6b3b 989b 35bc
00000090: 64a5 2d3c 35fb 16bc 388f 3a3c 93de de3c
000000a0: 4b4e 8f3c 1fe6 4bbc 7f84 993c d3a5 963b
000000b0: 255c 773c 7d7d acbc 5477 07bd 015c 3fbc
000000c0: 175d b1bc 0057 da3c 8cca 0f3c 6625 803c
000000d0: 752e 483c 0d8e b4b8 2d55 d53c 79aa b1bc
000000e0: 3914 cf3a b240 95bc 63a0 2f3c 4cf3 3abc
000000f0: b15f 153c a40d a2bb 6d7b ed3c bd97 90bc
00000100: 0178 a7bc 162e 9bbc 99a9 dc3c 255c 283c
00000110: f2fb f63c 1a7d cfbc 302a f5bc 8c06 dbbc
00000120: 988d c2bc d42f 3f3c d3cc 543c 2d68 d43c
00000130: 2963 7ebc 8cd6 bcbc 617e 833c d0d4 6fbc
00000140: afc4 913c 9687 f4bb be8a 923c e8ff c2bc
00000150: d9bb 60bc 167e 0e3c ea5c 553b fa2d 98bb
00000160: 75b7 883c 47af ad3c 565d afbc eb3d 82bc
00000170: efee ee3c cbed 05bc 00c2 2ebc 68a0 05bd
00000180: dd72 7abc 40df 043c 070d 10bb ef07 afbc
00000190: a778 de3a f3ee abbc 0d50 d0bc c41a 83bc
000001a0: d6ad e5bc 1afa a8bc b882 013d 19db f03b
000001b0: bb4d 223c cd2a f6bc 0452 a6bc 8adb 0abc
000001c0: 0b3b b13b 5ebc d8bc 9a5e 68bc 2337 8bbc
000001d0: ee25 c63a fe09 32bc 9084 443a 8363 a9bc
000001e0: 0e5f acbc 230b 8fbc c451 49bc 6daf b6bc
000001f0: 7afc f23c a1f3 0fbc f18e f03c fd16 3f3c
00000200: 54ef e4bc 5e6c bb3c e889 36bc 5e95 49bc
00000210: 6dc7 cebc b0a9 03bd 694b 143c fcf2 edbb
00000220: c3ca 1a3c 4217 c4bc 5d56 bf3c 8dd9 c6bc
00000230: 230e c8bb cbfa e93b bf1f 8f3c 6735 c13c
00000240: 6a62 e53c 45f0 d6bc 021c e53b 18ea 57bc
00000250: fe37 29bb b5d8 b8bc 87cc ed3c 1017 b5bc
00000260: 129e 813c ca78 0c3c 864e 3a3c 67c6 8fbc
00000270: 3a92 da3c 1c9c 013c 180b 833b 1ea4 e4bc
00000280: 300f 5c3c 67f2 bebb 1186 94bc ce47 dd3c
00000290: f125 e03b e91c 86bc bcf1 99bc b9c5 19b8
000002a0: 4774 8e3c d2b1 2abc c808 a1bc 853e 18bc
000002b0: 541c c8bc fc72 543c 4285 be3c b25f f9bc
000002c0: c736 233c eca4 883c 66f4 0f3b aef7 35bc
000002d0: 4348 823c 72d5 6e3c 189b 173c 6e8e b2bb
000002e0: c3e3 9cbb b513 6739 e745 82bb 335b f5bb
000002f0: 2b2e ab3c 6c66 c83c 10af 05bb 8626 e7bb
00000300: f31f 1e3a 6df1 9aba 8c43 db3b 2444 273c
00000310: f922 dabc 4741 71bc b29f d13c 40fe 1c3c
00000320: 2393 86bb 7041 a0bc 4529 abbc 4e91 e5bc
00000330: 5627 29bc 210f 313c 2e0f 853c e57e 713c
00000340: 5faf f1bc 6a72 a5bc 5ebd 8fbb 95d7 e23c
00000350: 39e4 a33b 510f fcbb a1ca 5d3c 3fc9 71bc
00000360: 9f90 95bc 8b63 d73c 32a7 49bc 6c1b 9bbb
00000370: 4811 00bd 4a0e c13c e93c d93c 502f 253c
00000380: f1b0 b7bc ad71 05bd 09a3 babc a316 d53c
00000390: 0799 933c 87e8 da3c 89c6 903c dbaf c03b
000003a0: 667f a637 e086 d3bc 58b7 edbc 14d0 ecbc
000003b0: 4e42 413c 802c 8abc 622f 5fbb 5963 9cbc
000003c0: 4714 44bb f4d7 a5bc 6d46 9fbc 328a 1e3c
000003d0: b26b 19bc e530 833c 7213 45bc c65b afbc
000003e0: 6077 afbb 070c 70bc 31e3 10bc 4114 dfbc
000003f0: e099 963c 8cd9 aebc e773 703c a5ae 433c

model.1.bias f4 [32]
-0.005153591 0.016618365 -0.023960011 0.0071357517 -0.0060150586 -0.004514443 0.00243819 0.029304706
-0.0094386395 -0.031080041 -0.019411663 -0.012662168 0.027437216 0.014125585 -0.019272838 0.0023836903
0.0158251 0.001385118 0.0036625208 -0.02221342 0.0032963734 -0.025997555 -0.0070717437 0.0066258465
0.011642407 -0.026183834 -0.00095491 0.016434722 0.03008836 -0.00414446 0.016256995 -0.000581318
00000000: 74df a8bb 3d23 883c c947 c4bc 06d3 e93b
00000010: f819 c5bb e5ed 93bb 0aca 1f3b 6c10 f03c
00000020: 86a4 1abc 929b febc 3505 9fbc fb74 4fbc
00000030: 03c4 e03c ff6e 673c 12e2 9dbc b037 1c3b
00000040: a4a3 813c d98c b53a e706 703b ebf8 b5bc
00000050: f807 583b d3f8 d4bc 16ba e7bb a11d d93b
00000060: cbbf 3e3c 7b7f d6bc ed52 7aba 1ca2 863c
00000070: dd7b f63c 40ce 87bb 642d 853c 9763 18ba

model.4.weight f4 [64, 32]
-0.1135137 0.01627221 -0.11285442 -0.007744576 -0.13775103 -0.09362347 -0.048314493 -0.016934238
-0.14077817 -0.060876675 -0.17505531 -0.1379494 -0.16422054 -0.11491042 -0.010208632 0.11584401
0.008649046 -0.16628848 0.14706013 -0.11842266 -0.07681385 0.04473238 -0.05520157 0.0176271
-0.046002407 -0.007955318 -0.16617472 0.0039305943 0.015845219 0.1094157 0.002444877 0.10410686
0.0048422073 0.08918052 -0.06495243 0.018373515 -0.0011181722 -0.13417524 0.17152035 0.12352701
0.08754716 -0.14555593 0.16844533 0.17011468 -0.010513504 -0.023281923 0.1479631 -0.14641662
0.16508143 -0.049365263 -0.0832489 0.0082547255 0.05387363 0.015190697 0.10934829 -0.13969783
-0.016548758 -0.011990625 -0.12537733 -0.13433146 -0.06078093 -0.06165133 0.009165522 -0.07471629
0.16210566 0.06613005 -0.08594319 -0.023102682 -0.15371351 0.07958253 -0.09083922 0.14020191
0.09852392 -0.061056472 0.023623988 -0.024845088 -0.14670232 -0.12514447 -0.09297363 0.16974121
-0.12529065 0.07508085 -0.072474785 0.0601767 0.12777919 0.1185867 -0.15123399 0.010435057
0.04289032 0.022662597 0.0052982145 0.17452578 -0.13645817 0.035126187 0.033644367 0.14843768
0.08958917 -0.06281925 -0.011974875 -0.13247038 0.011940961 0.017639617 0.14919147 0.15883502
-0.12285457 0.16958703 -0.15475236 0.048974514 0.08560998 0.09128395 0.13546886 -0.048568983
0.1475066 0.014622543 0.001468255 -0.059541292 -0.15161897 -0.050860185 -0.009350935 0.020769594
-0.030476231 -0.009336433 0.0046982076 -0.09691167 -0.009616828 -0.15183315 0.004958443 0.15691657
-0.084262826 0.10880935 -0.058649004 -0.07881316 0.08115633 -0.17403536 0.10827813 0.11810528
0.061739717 -0.005314746 -0.0842149 -0.11220806 0.15741014 0.07869808 0.09334516 -0.1122162
0.10265221 -0.112335846 0.13137749 0.13496248 -0.16047925 -0.16817532 -0.15831478 -0.08159733
0.045388564 -0.15891644 0.14465573 -0.11325206 -0.054409802 0.038849127 -0.10369568 -0.0064724404
-0.15354265 -0.158956 0.0117516555 -0.07323561 0.12366541 -0.10135402 0.095941015 0.13127829
-0.04733439 -0.033531442 0.05593171 -0.0953372 0.047939394 -0.0546564 -0.044697486 -0.14073776
0.13989988 -0.15563363 -0.034125343 0.07214322 -0.122330375 0.012069943 0.16660522 0.052011043
0.118362054 -0.13384295 0.08912957 0.0089383125 0.022003973 -0.065556444 -0.041770265 0.109333664
0.10909805 -0.13889 0.1513409 0.17039213 -0.05780346 0.025594791 0.10081996 -0.1712266
0.06476734 0.15461661 -0.050682954 -0.14843576 -0.10674008 0.117914006 -0.010193778 -0.009070224
0.032253474 0.06571317 0.10686879 0.009831246 -0.17238295 0.11873027 0.115863025 0.012217017
-0.09383867 -0.038678046 0.0820672 0.1301663 -0.15801321 0.032072417 0.020578375 0.041102048
-0.043904997 -0.012792584 -0.17120326 -0.014936346 -0.15111402 0.1491244 0.066373914 0.067383565
-0.08960195 -0.074864745 0.02185171 -0.029157909 -0.0042957887 0.012826335 0.0024658414 -0.1527955
0.1660336 -0.07745426 0.022871602 -0.115344025 0.15815681 -0.08430975 0.093115225 0.069046564
-0.034460973 0.04012242 -0.133583 -0.15958884 0.100400686 0.10859367 -0.14923124 -0.058723733
00000000: df79 e8bd 4c4d 853c 3820 e7bd 36c6 fdbb
00000010: 9b0e 0dbe a9bd bfbd 6be5 45bd acb9 8abc
00000020: 2728 10be d259 79bd b341 33be 9c42 0dbe
00000030: 6e29 28be 2756 ebbd 1b42 27bc a03f ed3d
00000040: bab4 0d3c 8747 2abe ee96 163e 9487 f2bd
00000050: 9450 9dbd 4d39 373d 0b1b 62bd b566 903c
00000060: 056d 3cbd 0657 02bc b529 2abe 37cc 803b
00000070: d5cd 813c 5715 e03d 3b3a 203b fa35 d53d
00000080: 61ab 9e3b 47a4 b63d c805 85bd 0e84 963c
00000090: a28f 92ba 3c65 09be 08a3 2f3e bbfb fc3d
000000a0: ed4b b33d 9d0c 15be ef7c 2c3e 8b32 2e3e
000000b0: d540 2cbc bbb9 bebc a483 173e 3dee 15be
000000c0: 1b0b 293e 3b33 4abd 667e aabd d43e 073c
000000d0: 98aa 5c3d 67e2 783c fff1 df3d f30c 0fbe
000000e0: 4391 87bc 5474 44bc ea62 00be 308e 09be
000000f0: 6df5 78bd 1b86 7cbd fc2a 163c db04 99bd
00000100: 07ff 253e 316f 873d fc02 b0bd d641 bdbc
00000110: 1367 1dbe 2afc a23d ea09 babd 1791 0f3e
00000120: e9c6 c93d 5a16 7abd 1887 c13c ed87 cbbc
00000130: 2239 16be df25 00be f568 bebd a4d0 2d3e
00000140: 314c 00be fdc3 993d a96d 94bd d87b 763d
00000150: 8cd8 023e 95dd f23d 15dd 1abe cdf7 2a3c
00000160: c3ad 2f3d e9a6 b93c a59c ad3b e3b6 323e
00000170: b1bb 0bbe 7ae0 0f3d adce 093d 0c00 183e
00000180: 877a b73d 61a7 80bd 4432 44bc 51a6 07be
00000190: 05a4 433c f580 903c a6c5 183e a6a5 223e
000001a0: 2d9b fbbd 39a8 2d3e 6777 1ebe 8099 483d
000001b0: 4954 af3d 14f3 ba3d 59b8 0a3e 45f0 46bd
000001c0: f80b 173e 6493 6f3c 7672 c03a 92e1 73bd
000001d0: 0142 1bbe c552 50bd aa34 19bc ff24 aa3c
000001e0: 4aa9 f9bc d7f7 18bc 6cf3 993b a079 c6bd
000001f0: e68f 1dbc 267a 1bbe 6f7a a23b bdae 203e
00000200: fd91 acbd 70d7 de3d f039 70bd cb68 a1bd
00000210: 4a35 a63d 5336 32be edc0 dd3d 2ee1 f13d
00000220: c9e2 7c3d 5227 aebb dd78 acbd 57cd e5bd
00000230: 2030 213e 752c a13d bf2b bf3d 9bd1 e5bd
00000240: 523b d23d 5610 e6bd d287 063e 9b33 0a3e
00000250: ac54 24be 2736 2cbe 451d 22be 801c a7bd
00000260: 5ce9 393d feba 22be a220 143e b2f0 e7bd
00000270: d0dc 5ebd 4320 1f3d 675e d4bd c416 d4bb
00000280: 493a 1dbe 5dc5 22be 048a 403c 8dfc 95bd
00000290: 4a44 fd3d b292 cfbd b97c c43d d16d 063e
000002a0: b5e1 41bd 4458 09bd a618 653d 2640 c3bd
000002b0: 195c 443d 64df 5fbd b614 37bd 8f1d 10be
000002c0: ea41 0f3e 6c5e 1fbe 04c7 0bbd d3bf 933d
000002d0: 5988 fabd 03c1 453c 8f9a 2a3e 8809 553d
000002e0: ce67 f23d 200e 09be 9089 b63d 0072 123c
000002f0: ad41 b43c 7542 86bd 4c17 2bbd 54ea df3d
00000300: cc6e df3d 2e39 0ebe 1cf9 1a3e 467b 2e3e
00000310: 52c3 6cbd 2bac d13c b27a ce3d 0756 2fbe
00000320: bda4 843d d153 1e3e ee98 4fbd 8bff 17be
00000330: 8b9a dabd e67c f13d ce03 27bc 479b 14bc
00000340: 381c 043d a094 863d 06de da3d 3c13 213c
00000350: 2885 30be db28 f33d 9849 ed3d e229 483c
00000360: 7d2e c0bd df6c 1ebd d912 a83d 514a 053e
00000370: 37ce 21be 5e5e 033d fb93 a83c 9f5a 283d
00000380: bad5 33bd fc97 51bc e84f 2fbe 93b7 74bc
00000390: a2bd 1abe 11b4 183e 0cef 873d 6500 8a3d
000003a0: 3a81 b7bd b052 99bd 5b02 b33c 91dc eebc
000003b0: b0c3 8cbb 8c25 523c f499 213b 6c76 1cbe
000003c0: b604 2a3e 57a0 9ebd 3a5d bb3c 7d39 ecbd
000003d0: dcf3 213e 97aa acbd 32b3 be3d 4968 8d3d
000003e0: f326 0dbd 6857 243d fbc9 08be 426b 23be
000003f0: e09e cd3d 5c66 de3d 13d0 18be 4c88 70bd

model.4.bias f4 [64]
0.10586573 0.08468805 0.083941475 -0.16841996 -0.032578643 -0.17865857 -0.03337908 0.10319941
-0.02682166 0.17815126 0.15573405 -0.034890544 0.024260307 0.10967244 -0.0021881056 -0.019276794
0.1399097 -0.1365441 -0.07090117 -0.038003612 0.16575477 -0.15609497 -0.11170948 -0.07211229
-0.058669157 -0.16190377 -0.13576084 0.02468692 0.14252922 0.03547738 0.030278612 0.15040082
0.004620625 0.097781375 0.03904758 -0.08599072 0.106051624 0.029903017 -0.0050920257 0.13606757
0.09305043 0.05510499 -0.10232725 -0.00675359 -0.09669745 -0.04791035 -0.061645456 0.032136396
0.0077509005 0.05560087 -0.13641776 -0.033761274 -0.02083971 0.1291735 -0.07072881 0.09627116
0.009831896 0.15264896 -0.15770403 0.10310789 -0.05411319 -0.097651735 -0.122263014 -0.0014582326
00000000: 22d0 d83d ee70 ad3d 82e9 ab3d 4876 2cbe
00000010: 2f71 05bd 46f2 36be 81b8 08bd 365a d33d
00000020: 19b9 dbbc 496d 363e bf78 1f3e 63e9 0ebd
00000030: 8dbd c63c f29b e03d 5266 0fbb 5eea 9dbc
00000040: 7d44 0f3e 37d2 0bbe a234 91bd ada9 1bbd
00000050: 9ebb 293e 5cd7 1fbe f1c7 e4bd 9caf 93bd
00000060: 124f 70bd 1aca 25be e404 0bbe 393c ca3c
00000070: 2ef3 113e bb50 113d da0a f83c ac02 1a3e
00000080: 9d68 973b 9a41 c83d 5bf0 1f3d e71b b0bd
00000090: 9831 d93d 2cf7 f43c 02db a6bb 4c55 0b3e
000000a0: 3991 be3d c5b5 613d f390 d1bd 384d ddbb
000000b0: 5009 c6bd a53d 44bd f27f 7cbd 74a1 033d
000000c0: 44fb fd3b bdbd 633d 19b1 0bbe 4349 0abd
000000d0: 0ab8 aabc 0f46 043e 44da 90bd d029 c53d
000000e0: f615 213c 0250 1c3e 2a7d 21be 3b2a d33d
000000f0: cba5 5dbd a2fd c7bd 0865 fabd 2b22 bfba

model.7.weight f4 [1, 64]
0.029358124 -0.055989616 -0.03372657 -0.0076353843 -0.043382667 -0.0021266327 0.0998857 -0.11092527
-0.06957746 0.045569986 -0.05942405 0.009146473 0.11967039 -0.08838625 -0.12104501 0.047068983
0.12521727 -0.10314989 0.104055144 -0.032764595 -0.048486184 0.07657118 0.1196694 0.027514085
-0.042343777 -0.043163475 -0.03171904 -0.12268723 0.027815344 0.057394166 -0.012251387 0.027273957
0.052083455 0.062449608 0.026878104 0.08915957 -0.08016104 0.04801654 0.055809386 -0.10380198
0.066204 -0.100166954 -0.06506209 -0.06045212 -0.04354215 0.07312201 -0.022478858 0.051662914
-0.075907916 -0.061353937 -0.110077895 0.07168426 -0.082181506 -0.108852595 -0.07330017 -0.11108915
-0.06551098 0.060037553 0.048204638 -0.09164325 0.05915524 0.051082917 0.0018915241 0.11715462
00000000: 7380 f03c 5e55 65bd df24 0abd 3f32 fabb
00000010: 06b2 31bd fa5e 0bbb e090 cc3d ca2c e3bd
00000020: a17e 8ebd 98a7 3a3d a266 73bd 17db 153c
00000030: c015 f53d da03 b5bd 72e6 f7bd 68cb 403d
00000040: f538 003e 4040 d3bd dd1a d53d 2b34 06bd
00000050: 7399 46bd 5ad1 9c3d 3b15 f53d 3865 e13c
00000060: ab70 2dbd 2fcc 30bd d3eb 01bd 7143 fbbd
00000070: 01dd e33c 2516 6b3d 0bba 48bc a26d df3c
00000080: 7655 553d 29cb 7f3d 782f dc3c 4b99 b63d
00000090: 792b a4bd feac 443d 6298 643d 2296 d4bd
000000a0: f695 873d 5524 cdbd 463f 85bd a49c 77bd
000000b0: 4159 32bd fec0 953d 9525 b8bc 7e9c 533d
000000c0: 9c75 9bbd 444e 7bbd 8570 e1bd 33cf 923d
000000d0: c74e a8bd 1cee debd 661e 96bd b582 e3bd
000000e0: 9f2a 86bd f0e9 753d 3a72 453d 75af bbbd
000000f0: c44c 723d 523c 513d 04ed f73a c3ee ef3d

exp_avg f4 [1024]
-0.00027444257 -0.00017214772 0.00020178375 -1.3063282e-05 -0.00013982927 0.0001616396 -0.00014148954 -0.00019244301
3.9514052e-05 -4.718801e-05 8.068202e-05 5.902634e-05 -0.0003512147 -0.0004187662 0.0001418093 -7.541756e-05
0.00035818774 -0.00035948236 -0.00017433094 1.228429e-05 -0.00045280057 -5.3595784e-05 0.00019174824 -4.2059753e-05
7.799038e-05 0.00016520437 3.5060442e-05 -0.00028668917 -0.00015712621 -5.366478e-05 -0.0004010614 9.9293095e-05
-0.00022114387 -0.00046823948 4.5982746e-05 3.0559433e-05 -0.00030942296 -0.00024437375 -4.66107e-05 -1.8245417e-05
-0.0001555047 -0.00020961027 2.202089e-06 0.00020167773 -3.9754697e-05 0.00015839568 -0.0002839981 0.0001240686
-0.00017720899 0.00010923718 -0.00023431344 4.920457e-05 -0.00011434866 0.0003086684 -0.00015896623 0.0003770329
-2.0429019e-05 -2.8693856e-05 -0.00024481563 0.00018968605 0.00024037075 3.7035217e-05 -0.00024514337 7.7601277e-07
-9.333484e-05 -2.8564355e-05 0.0001505078 -0.00012978923 7.896304e-05 0.00013211487 1.3385192e-05 0.00014812402
-7.507149e-05 5.5591798e-05 -2.1344833e-05 -0.00013995706 -8.8996996e-05 0.0001931916 -3.2449876e-05 -3.4098968e-05
8.4079795e-05 0.00016338458 -0.00018711532 -0.000363778 -0.0002488883 -0.0001269165 -0.00043541164 -0.00039289356
-0.00021575336 -0.00026559696 0.00021244679 -0.00020004791 -0.00021726197 0.00032504604 -0.00020870876 -0.0004848364
-0.0007343296 -0.0003555432 7.3041956e-06 5.944318e-05 -0.00013029073 -0.00028897554 6.0981863e-05 -0.0002854199
-0.00022501608 -7.6031276e-05 3.0804872e-06 -0.00013032086 -4.4780427e-05 -6.8092115e-05 0.00026923063 -7.790969e-06
0.0001302944 -8.727684e-05 1.0896083e-05 3.1715972e-05 -0.00012244636 0.00014272366 6.8544556e-05 -3.1062526e-05
-4.5684023e-06 3.4483005e-06 -0.00039805184 -9.328994e-05 -0.0009608243 5.673889e-05 -0.0001753945 -0.00021445668
1.044915e-05 1.5004898e-05 -0.00036608163 0.0001536803 4.508764e-05 3.7635793e-05 -0.00032058702 0.00017235329
-0.00020405295 2.906726e-07 -0.0005169173 -0.00020837625 0.00019778358 -8.955776e-06 -0.00013857479 0.00039887652
-0.0002218644 0.00021122293 -0.00015674384 -0.0001276437 2.7531445e-05 -0.00020574311 9.4870426e-05 8.577105e-06
0.00014632169 -8.5266845e-05 -9.764933e-05 -3.5717327e-05 -0.00042121462 -0.00014044593 0.00013777537 -0.0002407643
-0.00017965217 0.00019432006 6.011016e-05 -6.09621e-05 2.2486265e-05 6.5675646e-05 -0.00016537281 -0.00014305416
-0.00027664748 -0.0002980379 -5.0692943e-05 -0.00017203862 0.00028739002 0.00010279822 -0.00045520905 -2.399837e-05
0.00030077036 3.155513e-05 -0.00024420724 -6.0566705e-05 -0.0001925951 -5.0072835e-05 -1.0584248e-05 -2.3999562e-05
-0.00028345 -3.2750544e-05 -0.00026448644 -0.00024981995 -0.0001637 0.00028290623 -0.00022027746 -0.00013570781
-5.7602905e-05 0.00010370842 7.930673e-05 6.414692e-05 -6.755159e-05 -0.0007055384 0.00025725606 0.00033080933
6.376862e-05 -0.00026930126 -0.00010532511 2.6271291e-05 -0.00039161768 4.2028383e-05 -0.0001341732 -0.0003882825
-0.00010377261 -0.00017487783 4.8151374e-05 4.664328e-05 -0.00020838287 -4.3613785e-05 -0.0004344536 -0.00043339853
-3.1297313e-05 -0.00025431954 0.00014665669 -3.3346823e-05 9.719151e-06 -0.0004745186 -0.0002287382 0.00018646926
1.4528191e-05 -0.00016380847 -0.0001406376 -0.000336495 1.580085e-05 -0.00040171723 -4.377679e-05 -0.0003109675
-5.3096614e-05 -5.6848807e-05 -0.00047219588 -0.00013986055 4.61526e-05 -0.00025124874 -0.0005462066 0.00023318313
6.0584694e-06 -5.2340612e-05 7.431636e-05 -1.5301277e-05 7.1279464e-05 -0.0002045663 2.0830264e-06 1.4796622e-05
0.0002178295 0.00012779405 -3.393321e-05 -0.0001497708 -7.400424e-05 0.00014407674 -0.0005988569 0.00024672024
00000000: 0fe3 8fb9 8d82 34b9 ea95 5339 5e2a 5bb7
00000010: 229f 12b9 cd7d 2939 cf5c 14b9 87ca 49b9
00000020: e4bb 2538 bdeb 45b8 d433 a938 0d93 7738
00000030: 3d23 b8b9 d98d dbb9 a5b2 1439 7f29 9eb8
00000040: 25cb bb39 e878 bcb9 9bcc 36b9 a018 4e37
00000050: dd65 edb9 09cc 60b8 0710 4939 5169 30b8
00000060: c48e a338 b63a 2d39 dd0d 1338 c54e 96b9
00000070: 3fc2 24b9 1e16 61b8 8d45 d2b9 933b d038
00000080: dbe2 67b9 0a7e f5b9 99dd 4038 f12c 0038
00000090: 0c3a a2b9 4a1f 80b9 dc7f 43b8 bc0d 99b7
000000a0: fa0e 23b9 d4ca 5bb9 9ac7 1336 7479 5339
000000b0: 48be 26b8 0417 2639 94e5 94b9 6918 0239
000000c0: 2dd1 39b9 4416 e538 09b2 75b9 0161 4e38
000000d0: 78ce efb8 c5d4 a139 2cb0 26b9 80ac c539
000000e0: fc5e abb7 96b3 f0b7 995a 80b9 76e6 4639
000000f0: 080c 7c39 4356 1b38 9686 80b9 314f 5035
00000100: c3bc c3b8 7c9d efb7 a1d1 1d39 0818 08b9
00000110: f698 a538 5188 0a39 f690 6037 bd51 1b39
00000120: b36f 9db8 3d2b 6938 ae0d b3b7 70c1 12b9
00000130: e6a3 bab8 7a93 4a39 ca1a 08b8 7d05 0fb8
00000140: ff53 b038 3752 2b39 6334 44b9 75b9 beb9
00000150: 397d 82b9 e314 05b9 f647 e4b9 48fd cdb9
00000160: da3b 62b9 d23f 8bb9 40c4 5e39 f4c3 51b9
00000170: d1d0 63b9 f16a aa39 d5d8 5ab9 a431 feb9
00000180: 0680 40ba 3368 bab9 9016 f536 a152 7938
00000190: a79e 08b9 a481 97b9 c7c6 7f38 69a4 95b9
000001a0: 4bf2 6bb9 fb72 9fb8 5eba 4e36 bda6 08b9
000001b0: 9ed2 3bb8 adcc 8eb8 8627 8d39 f5b5 02b7
000001c0: a39f 0839 6608 b7b8 52ce 3637 c406 0538
000001d0: f264 00b9 17a8 1539 94bf 8f38 2249 02b8
000001e0: 474a 99b6 5a69 6736 9db1 d0b9 a8a4 c3b8
000001f0: d4df 7bba ebfa 6d38 1aea 37b9 c7df 60b9
00000200: c24e 2f37 8cbd 7b37 a5ee bfb9 3e25 2139
00000210: 7c1c 3d38 20db 1d38 7614 a8b9 bcb9 3439
00000220: 0cf7 55b9 bd0d 9c34 bc81 07ba 937f 5ab9
00000230: 2064 4f39 c440 16b7 634e 11b9 4d20 d139
00000240: 45a4 68b9 b97b 5d39 9b5b 24b9 18d8 05b9
00000250: 54f3 e637 bfbc 57b9 2cf5 c638 63e6 0f37
00000260: ee6d 1939 4ad1 b2b8 16c9 ccb8 30cf 15b8
00000270: 78d6 dcb9 ab44 13b9 cb77 1039 ad75 7cb9
00000280: 0361 3cb9 65c2 4b39 cb1e 7c38 8eb1 7fb8
00000290: e3a0 bc37 58bb 8938 ed67 2db9 cf00 16b9
000002a0: ff0a 91b9 f841 9cb9 229f 54b8 4465 34b9
000002b0: d6ac 9639 6095 d738 20a9 eeb9 1b50 c9b7
000002c0: b7b0 9d39 105a 0438 f108 80b9 0109 7eb8
000002d0: 5af3 49b9 4c05 52b8 0093 31b7 ab52 c9b7
000002e0: 049c 94b9 a15d 09b8 c5aa 8ab9 44fa 82b9
000002f0: e2a6 2bb9 0853 9439 48fa 66b9 ca4c 0eb9
00000300: a69a 71b8 097e d938 7a51 a638 9e86 8638
00000310: 7caa 8db8 e1f3 38ba 53e0 8639 7a70 ad39
00000320: 84bb 8538 0131 8db9 fde1 dcb8 2b61 dc37
00000330: 0952 cdb9 a247 3038 d8b0 0cb9 6592 cbb9
00000340: 7fa0 d9b8 695f 37b9 25f6 4938 d7a2 4338
00000350: 5a81 5ab9 f2ed 36b8 60c7 e3b9 c439 e3b9
00000360: 3c45 03b8 3156 85b9 dbc7 1939 e1dd 0bb8
00000370: 700f 2337 cfc8 f8b9 71d9 6fb9 f686 4339
00000380: 1bbe 7337 00c4 2bb9 1e78 13b9 986b b0b9
00000390: 118c 8437 939d d2b9 f89c 37b8 5a09 a3b9
000003a0: 0eb4 5eb8 f170 6eb8 0f91 f7b9 88a7 12b9
000003b0: fa93 4138 09ba 83b9 4e2f 0fba 9f82 7439
000003c0: db49 cb36 4e88 5bb8 4bda 9b38 3e5b 80b7
000003d0: df7b 9538 d980 56b9 1fca 0b36 023f 7837
000003e0: 2969 6439 7400 0639 8253 0eb8 cb0b 1db9
000003f0: b932 9bb8 4e13 1739 9bfc 1cba 3b5a 8139
