lightning_logs/version_9/checkpoints/epoch=199-step=1600.ckpt (torch, 464377 bytes, 23 tensors)

model.0.weight f4 [1024]
00000000: 0fef 7f3f d9e5 7e3f 90e9 7f3f fb0a 803f
00000010: 8001 7f3f e87f 803f d74d 803f 0160 803f
00000020: 461a 803f e135 803f 761e 803f fae3 7e3f
00000030: dbd3 7e3f d947 803f f621 803f 20d9 7f3f
00000040: c433 803f fc2d 803f 0876 803f dd0b 803f
00000050: 1d35 803f 0da2 7f3f 8440 803f fd46 803f
00000060: e047 803f 0606 803f ce3e 803f 2c71 803f
00000070: 19d3 7f3f fd7c 7f3f 912b 803f 059b 7f3f
00000080: 7271 803f 5c17 803f 4a47 803f 9215 803f
00000090: 3ab1 7f3f a70b 803f ccf6 7e3f 3442 803f
000000a0: 711b 803f 9baf 803f 4383 803f a246 7f3f
000000b0: 2c01 803f 01d0 7e3f beeb 7f3f cc23 803f
000000c0: 242b 803f fdf1 7f3f f5d6 7f3f 7159 803f
000000d0: 2114 803f b2df 7f3f 30dc 7f3f 21f6 7f3f
000000e0: 47f8 7f3f 99b7 7f3f ca81 803f df9e 7f3f
000000f0: 665f 803f 18d4 7f3f f230 7f3f 6c46 803f
00000100: 70b7 7f3f a413 803f ff15 803f ec46 803f
00000110: c4d0 7f3f cd12 803f ebb7 7f3f a113 803f
00000120: 7ea3 7f3f 012b 803f bc47 803f 7c4c 803f
00000130: 4312 803f bc81 7f3f fa3a 803f bb01 803f
00000140: 5524 803f b713 803f 0e20 803f 2944 803f
00000150: c870 7f3f 298c 803f 60ce 803f 11e5 7f3f
00000160: e9fa 7f3f 1538 803f 4731 803f 0f3f 803f
00000170: acdf 7f3f fb46 7f3f 6d37 803f 25db 7f3f
00000180: 15d7 803f 18c4 7f3f f719 803f 264d 7f3f
00000190: 4404 803f 3023 803f a6ba 7f3f d5cc 7f3f
000001a0: 3b63 803f 3d0a 803f 633e 803f 0722 803f
000001b0: 78ed 7f3f 840f 803f bd61 803f 4bc3 7f3f
000001c0: 50f1 7f3f 322f 803f ab42 7f3f 8037 803f
000001d0: d4de 803f a08f 7f3f cc19 803f 9d76 7f3f
000001e0: 08b5 7f3f 3591 7f3f 0917 803f 5456 803f
000001f0: d2cf 803f 3bb8 7f3f fd2f 803f 094a 803f
00000200: 3427 803f b51a 803f f545 803f 13da 7f3f
00000210: 8487 7f3f 1250 7f3f 108f 7f3f 0074 803f
00000220: 2b4c 803f cdc4 7f3f 113d 7f3f 2b26 803f
00000230: 8309 803f 0c5e 803f f554 7f3f 3115 803f
00000240: ba17 803f aa0e 803f 6561 803f 121a 803f
00000250: 5988 7f3f 6321 803f 4dd1 7f3f 7b32 803f
00000260: 1443 803f 7864 7f3f 1520 803f bf9e 7f3f
00000270: 5f3d 803f 11a6 7f3f 642b 803f 3d22 803f
00000280: b640 803f bd59 803f 28c9 7f3f 442f 803f
00000290: 2027 803f 4146 803f 0926 803f ccb2 7f3f
000002a0: d174 7f3f d737 803f 03f6 7f3f 347d 803f
000002b0: 0a26 803f 039c 7f3f d963 7f3f 8a37 803f
000002c0: 402a 803f 481d 803f 59d6 7f3f 3af5 7f3f
000002d0: 7450 803f 9654 7f3f 6b49 803f c831 7f3f
000002e0: 5aaa 7f3f 84da 7f3f 54f0 7f3f 6e1b 803f
000002f0: 824d 7f3f 6013 803f e315 803f 8bb7 7f3f
00000300: 632b 803f db1c 803f 9a30 803f cf95 7f3f
00000310: 07a2 7f3f efe8 7e3f 7edc 7f3f 1a23 803f
00000320: 2b95 7f3f 464d 7f3f c588 803f 3635 803f
00000330: a522 803f 67c8 7f3f ba93 7f3f 94d9 7f3f
00000340: d677 803f 8604 803f 1d9c 7f3f d66f 7f3f
00000350: 4c78 7f3f b348 803f 9183 803f 1def 7f3f
00000360: 63a3 803f 5c60 803f 85ee 7f3f 7f4c 7f3f
00000370: 2e52 803f 5b51 803f 70ca 7f3f b428 803f
00000380: fac6 7f3f c334 7f3f 6920 803f 6a8d 7f3f
00000390: b034 7f3f d2f5 7f3f 974f 803f 8575 7f3f
000003a0: d89e 7f3f 39db 7f3f 8a3e 803f 6f4d 803f
000003b0: cf72 7f3f 93dc 7f3f a633 803f 471b 803f
000003c0: 9572 803f 0243 803f ddbb 7f3f 4f1a 803f
000003d0: 5342 803f 8b35 803f 2bc2 7f3f 08ec 7f3f
000003e0: 7d0c 803f 9e12 803f fefc 7f3f bed4 7f3f
000003f0: 73fe 7f3f 9624 803f 38dd 7e3f b434 803f
0.9997415 0.9956947 0.99965763 1.0003351 0.99611664 1.0039034 1.0023755 1.0029298
1.0008018 1.0016443 1.0009296 0.99566615 0.99542016 1.0021926 1.0010364 0.9994068
1.0015798 1.0014033 1.003602 1.000362 1.0016209 0.99856645 1.0019689 1.0021664
1.0021935 1.0001838 1.0019166 1.0034537 0.99931484 0.9980009 1.0013295 0.99845916
1.0034621 1.0007129 1.0021756 1.0006583 0.998798 1.0003556 0.9959533 1.0020204
1.0008374 1.005359 1.0040058 0.9971715 1.0000358 0.9953614 0.9996909 1.0010924
1.0013165 0.9997862 0.99937373 1.0027295 1.0006143 0.99950707 0.99945354 0.9998494
0.99988216 0.9988952 1.0039608 0.99851793 1.0029113 0.99933004 0.9968406 1.0021491
0.9988928 1.0005994 1.0006713 1.0021644 0.99927926 1.0005738 0.9989001 1.000599
0.99858844 1.0013124 1.0021892 1.0023341 1.0005573 0.99807334 1.0017998 1.0000528
1.0011088 1.0006016 1.0009782 1.0020801 0.99781466 1.0042773 1.0062981 0.999589
0.99992234 1.0017115 1.0015038 1.0019244 0.9995067 0.9971768 1.0016915 0.99943763
1.0065638 0.9990859 1.0007924 0.99727094 1.0001302 1.0010738 0.9989418 0.99921924
1.0030283 1.0003124 1.0019039 1.0010384 0.99971724 1.0004735 1.0029827 0.9990737
0.9997759 1.0014403 0.997111 1.0016937 1.0068002 0.9982853 1.0007873 0.99790365
0.99885607 0.99830943 1.000703 1.0026345 1.0063422 0.9989049 1.0014645 1.0022594
1.0011964 1.000815 1.0021349 0.9994213 0.99816155 0.9973155 0.9982767 1.00354
1.0023245 0.9990967 0.99702555 1.0011648 1.0002903 1.0028701 0.9973901 1.0006467
1.0007241 1.0004475 1.0029722 1.0007956 0.99817425 1.0010189 0.9992874 1.0015405
1.0020471 0.9976268 1.0009791 0.998516 1.0018729 0.9986277 1.0013242 1.0010449
1.0019748 1.0027386 0.99916315 1.0014424 1.001194 1.002144 1.0011607 0.998822
0.9978762 1.0017041 0.9998476 1.0038209 1.0011609 0.9984743 0.9976173 1.0016949
1.0012894 1.0008936 0.99936444 0.9998356 1.0024552 0.9973844 1.0022405 0.99685335
0.9986931 0.99942803 0.99976087 1.0008371 0.9972764 1.0005913 1.0006679 0.9988944
1.001324 1.0008806 1.0014832 0.99837965 0.9985661 0.9957418 0.9994582 1.0010712
0.9983699 0.99727285 1.0041739 1.0016239 1.0010573 0.99915165 0.9983479 0.9994137
1.0036571 1.000138 0.99847585 0.99780023 0.99792933 1.0022186 1.0040151 0.9997423
1.0049862 1.0029407 0.99973327 0.997261 1.0025079 1.0024828 0.9991827 1.0012422
0.9991299 0.99689883 1.0009891 0.99825156 0.9968977 0.9998447 1.0024289 0.99788696
0.9985175 0.9994388 1.0019085 1.0023631 0.9978456 0.99945945 1.0015762 1.0008324
1.0034968 1.0020449 0.9989603 1.0008029 1.002024 1.001634 0.9990565 0.9996953
1.0003811 1.0005682 0.9999541 0.99933994 0.99997634 1.0011165 0.99556303 1.0016084

model.0.bias f4 [1024]
00000000: a862 8539 7765 6d3a f7ef 2ebb 17de 503a
00000010: 8d05 8b3b f42b 873b a1e1 913b 33dd caba
00000020: 479f f6ba 2481 7f3a 785d fb3a 32b2 42bb
00000030: d361 9e3b 133f 9b3a 25f6 533b cf7e 0fbb
00000040: 9f21 32bb 81b1 9aba 1dac 1cba f730 bb3a
00000050: 975a f03a 0f19 13bb ef8a cfba 9bb5 d33a
00000060: 5047 3cba 2161 79ba 9c17 7039 d4e3 3a3b
00000070: 6e41 fbba 6ef3 0dbb 20f4 9139 caa7 2dbb
00000080: 8920 8539 58af 353b 97ce 48ba 3527 61ba
00000090: 2414 d33a 1312 7bba b9d3 933a 7d25 08bb
000000a0: 4e1c 633b 503c 95bb e283 ce3a b8f9 4dba
000000b0: 86bc b239 2728 fcba 6cec f73a 01d3 70bb
000000c0: 12d7 28ba a845 4a3b 5f34 4ebb 73e1 08bb
000000d0: d2b3 ae3a 7ff8 82ba f863 c8ba 4307 caba
000000e0: 914b bfb9 f30d 3d3b a1b7 4aba 403f 8fba
000000f0: 9990 8b3a d954 50b9 53ac 533b 052c 8d3b
00000100: ae90 cb3a d1fb 043b 387c 01b8 05e9 2b3b
00000110: d08d 2a3a 4fc9 d539 303d d63a 7406 463b
00000120: 4f24 a03b 5cf6 70bb 9f33 bbba 8f61 60bb
00000130: 560f 5dbb a400 b93a d3c5 013b 250e 7d3a
00000140: 2c3c c23a 88c0 16bb 679d 283b d7ca 8ab8
00000150: aac0 d33a 5500 953a 0992 abba 9545 043b
00000160: a6ad 823a 041a 023a 0854 ab3a 92cb 573a
00000170: 192b d43a ad7e 963a 4ed9 ec3a 590f 82ba
00000180: 96fb 42b9 aadb a53a 7833 c5ba d1fd 9ebb
00000190: 8e01 853a 6465 453a 2caa e4b9 2ce3 58bb
000001a0: ba5f 6cba c0f4 ae3a 1287 28bb 833c f83a
000001b0: f4be 0abb 8d89 38bb b69c f6ba 1d1a d4ba
000001c0: 9fe4 91ba 49b0 52ba 1bfd 893b 71bc 973a
000001d0: c5f4 343a f922 183b 5e70 b4ba 5df8 6fbb
000001e0: 8095 733b da82 57bb fd10 97bb e428 7bba
000001f0: 6e49 04bb d064 003a ed42 593a 8a49 a2b9
00000200: 9a58 523a 6882 0abb d24f b7ba a133 f7ba
00000210: 549e dcb9 e76a 353b 9027 04ba 1de2 80bb
00000220: 2e99 653b 5a96 58ba 9e8d 3dbb e0c5 d4b9
00000230: ee47 5db9 9508 8db9 314e dc3a 461f db39
00000240: 551c 113b 6ef2 ef3a 9426 d03a 1e37 903b
00000250: 3ac5 fdba 687e 42bb d905 8e3b a2c6 08bb
00000260: f42a d5ba e064 80bb 7ed5 95ba c354 163a
00000270: 8312 f03a 977a daba 036a d33a cf51 6bba
00000280: 5617 45bb c80a da3a 82cd 16ba 0c64 1fba
00000290: 11cd 6739 f29e c43a dfd4 233b ccd1 29ba
000002a0: f896 dcba ad9a eaba 97a1 3e3a b369 ceba
000002b0: 3381 02ba 5eb5 2a3b 4e53 d1b9 931d 51ba
000002c0: d071 75bb a7c0 e6b9 a5ea 8e3b ab41 24bb
000002d0: e7df b53a 2e50 e8b9 37f8 9b3a 4fca 983a
000002e0: 085e 963b 120b 4339 41c8 223a 8567 d53a
000002f0: 3ba0 8d3a b673 14bb 936e 9cba 7008 23bb
00000300: 2a9a ec37 a841 f73a 91d2 5fbb c304 e0ba
00000310: 8d91 31bb cd9e d7ba 8c45 19ba 3f72 01b8
00000320: 8290 c3b9 fc04 d53a ef34 d53a c310 91ba
00000330: ad06 4c3a 6d35 0ebb 5137 5ebb ccd1 d8ba
00000340: c93d 6eb8 f27d 9c39 35ac 70bb 2958 483a
00000350: 3cf5 c63a 6238 fcba 3e71 08bb f64b 5fba
00000360: 489e b23b 1e1f 15bb 7ed5 00bb 3580 fcba
00000370: f298 5fba e0df 1c3b ddf0 78ba 221c 833a
00000380: 3bdf 9b39 5598 ca3a 6662 ca3a 50a5 05bb
00000390: 4348 6f38 5232 bbba 3d68 9cbb 046f adba
000003a0: 0023 113a 5c45 c7ba 1ac0 61b9 12ed d1ba
000003b0: 7a52 82bb 73bb c6b9 028a 3bbb fbd4 b3b8
000003c0: 64d6 263b 19f2 cb38 1197 173b 6917 6d3b
000003d0: 17fb 6cbb 6722 783a cbb2 23bb ec28 363b
000003e0: a74b b4b9 e921 d0ba 902b 8f39 63fc e2ba
000003f0: 2039 d03a 9523 583a 6641 c53a 08ae c7ba
0.0002544124 0.0009055952 -0.0026693323 0.0007967664 0.004242605 0.0041251127 0.004451946 -0.00154773
-0.0018815779 0.00097467215 0.0019177636 -0.0029708263 0.004833439 0.0011844359 0.0032342758 -0.0021895652
-0.0027180684 -0.0011802168 -0.00059765746 0.001428156 0.0018337545 -0.0022445356 -0.0015834252 0.0016152145
-0.0007182257 -0.00095130695 0.00022896979 0.0028517144 -0.001916928 -0.0021659988 0.00027838442 -0.0026497715
0.00025391977 0.0027722921 -0.0007660179 -0.0008588911 0.0016104025 -0.00095775834 0.0011278308 -0.0020774298
0.0034654322 -0.004554309 0.0015755857 -0.00078573404 0.00034091267 -0.001923804 0.0018915064 -0.0036746862
-0.00064407394 0.0030864272 -0.003146432 -0.0020886331 0.0013328737 -0.000999227 -0.0015288582 -0.0015413541
-0.0003648666 0.0028847426 -0.00077330513 -0.0010928884 0.0010647952 -0.00019868034 0.0032298758 0.004308226
0.0015530789 0.0020291696 -3.0871684e-05 0.002623142 0.0006506117 0.00040776512 0.001634514 0.0030216249
0.004887141 -0.0036767935 -0.0014282352 -0.0034237837 -0.0033731065 0.0014114571 0.001980175 0.0009653292
0.0014818958 -0.002300294 0.0025728585 -6.618135e-05 0.0016155441 0.0011367897 -0.0013089787 0.0020183076
0.0009969964 0.0004962983 0.0013071308 0.00082319335 0.001618716 0.0011481844 0.0018070133 -0.0009922787
-0.00018595005 0.0012653966 -0.0015045246 -0.0048520346 0.0010147558 0.0007530062 -0.00043614337 -0.003309439
-0.000901695 0.0013348088 -0.0025715274 0.0018938932 -0.0021170946 -0.0028158159 -0.0018815014 -0.0016182099
-0.0011130756 -0.0008037133 0.0042110807 0.0011576546 0.00069029286 0.0023214205 -0.0013766398 -0.0036616542
0.0037167966 -0.003288439 -0.0046101795 -0.00095809833 -0.002018537 0.0004897835 0.0008287866 -0.0003095384
0.0008024067 -0.0021134857 -0.001398558 -0.0018859991 -0.00042079634 0.0027682127 -0.00050412957 -0.003933205
0.003503393 -0.000826215 -0.0028923522 -0.0004058322 -0.00021102998 -0.0002690001 0.0016807971 0.00041794236
0.0022142131 0.0018306503 0.0015880638 0.0044011017 -0.0019361146 -0.0029677395 0.004334193 -0.0020870348
-0.0016263411 -0.0039182752 -0.0011431423 0.00057346764 0.0018316064 -0.0016668615 0.0016129616 -0.0008976729
-0.0030073724 0.0016635293 -0.0005752669 -0.0006080277 0.0002210627 0.0015000983 0.0024998707 -0.00064781005
-0.001682966 -0.001789888 0.00072720036 -0.0015748054 -0.00049783586 0.0026048045 -0.00039925653 -0.0007977124
-0.003745187 -0.00044012556 0.004361468 -0.0025063555 0.0013875932 -0.00044310227 0.0011899535 0.0011656972
0.004588846 0.00018600773 0.000620965 0.0016281462 0.0010805199 -0.0022651977 -0.0011934809 -0.0024876855
2.820518e-05 0.0018864172 -0.0034152607 -0.0017091263 -0.0027094812 -0.0016450525 -0.000584685 -3.0862397e-05
-0.00037300965 0.0016252096 0.0016266386 -0.0011067617 0.0007782977 -0.0021699325 -0.0033907483 -0.0016542017
-5.6801164e-05 0.00029848475 -0.0036723737 0.00076425314 0.0015179287 -0.0019242878 -0.002081945 -0.0008518094
0.0054509975 -0.0022754143 -0.0019658501 -0.0019264283 -0.00085295655 0.002393715 -0.00094963406 0.0010002891
0.00029730223 0.0015456775 0.0015440702 -0.0020392723 5.704934e-05 -0.0014281964 -0.0047731684 -0.0013231938
0.00055365264 -0.0015203166 -0.00021529236 -0.0016016087 -0.003977117 -0.00037905163 -0.0028616195 -8.575056e-05
0.0025457377 9.7248885e-05 0.0023130814 0.0036177284 -0.0036160403 0.00094655756 -0.0024978395 0.0027795387
-0.0003438864 -0.0015879247 0.00027307542 -0.0017317649 0.0015886165 0.0008245048 0.0015049397 -0.001523436

model.0.running_mean f4 [1024]
00000000: 777f 68bd 4b24 89bc 6b8a f63b 2b9b dbbc
00000010: 1d00 303b b3e3 68bc 0674 223d 31f9 98bb
00000020: ed26 8bbb 3788 043d e0b4 3ebc a931 9a3b
00000030: deb9 36bb 73cb 50bc 0108 833b 677e 333c
00000040: 9780 10bd 5556 c6bc dd91 56b9 ede5 0d3c
00000050: 8730 733c c8e1 c9b9 398c a43c 3706 923d
00000060: 106c a13c b495 f33c d99f d0bc ac20 313c
00000070: 51bb c1bb 0aac 35bc e267 d73c 852d 79bc
00000080: 86e8 11bc 2c36 213c 46df 5ebb f6cb 753c
00000090: fa16 2cbc dd20 cd3b 0a54 e0bc 68bb abbb
000000a0: ac31 403c 1a6b d43c 251e deb9 4cfe 39bd
000000b0: 2a87 c7bc 593e 463b 819e 3eba f597 c5bc
000000c0: abc3 2ebc 3d3c aa3d 23a9 c9bc 76a5 88bc
000000d0: faed 9ebc 99e5 1b3c 13ea 223c 1b24 12bc
000000e0: a07b 053d 383e 1c3c b089 e4bb 6cfb 2ebc
000000f0: 809c 213c de5d afbc 62bb 32bc 13ca bb3c
00000100: 1ece 963a 4b47 69bc 0864 a63b fa2e c53b
00000110: 85ab 863a a4e5 bd3b cc07 173d b471 3c3c
00000120: 314b 81bc b008 2e3d 6dcd f63c cc44 37bc
00000130: 14fe ce3c 1096 8cbc 55a3 8c3c 8e9e 8fbc
00000140: 7a7f 06bc 94a8 e43c d00b 55bd 9d47 ac3c
00000150: fc06 87bc 8e6b 27bd 1eab b43c 4c5e 93bc
00000160: 8871 373c 4ef3 b23c f173 b7bc 6d38 a3bb
00000170: ef25 42bc 1cc1 523c c904 513c eaf5 983c
00000180: 9d06 073c 51a2 6d3d 1a49 f3bb 37b1 b83c
00000190: 8311 543c 2969 db3c 0ee5 f1ba 8cd3 413c
000001a0: f365 993d 8d29 863c fea4 4b3b e892 b6bc
000001b0: 3928 f6bc 1c4c 4b3d e14a 34bc ab0e 2e3b
000001c0: 5a08 863d 7a65 4bbb 1c0e a0bb 68d9 933c
000001d0: 0eed e0ba 8aa3 ebbb 48f2 e539 fc83 bbbb
000001e0: d418 b3bc cb5c 07bc 58f5 8bbc 0141 42bc
000001f0: 5bc7 49bd 362e babc fc40 32bc 2c2a a6bc
00000200: ee38 aa3c 7aff a1bc bff3 82bd 9d6e 70bc
00000210: f1ad 8f3c 432f 56bb a4ef 85ba 4ab1 e0bc
00000220: d07f 2b3d 65bf bc3c d4d0 40bb 510a b8bc
00000230: c41a 0d3b b626 2dbd ffe8 2abc 39ce adbb
00000240: ec92 40bb 37d3 1dbc 873e 3c3d 318e b7bc
00000250: 0389 0bbd 7605 213a 55d0 06bc 480c a639
00000260: 3b94 dd3b 6ae6 4eba e138 853c 4041 d33c
00000270: 54a2 e23c 20b3 febb d5b4 59bb 259c fd3b
00000280: 017c c73a b6b0 e93c 0b08 843c 864f 5d3b
00000290: 132d a1bb bde7 a3bb ebd3 61bd 2abd c3bb
000002a0: db4e 1cbd 20f0 e23c d568 e63c 7aad f83c
000002b0: d515 d13c 4ea1 06bc 8568 bc3c 1ac4 343c
000002c0: 02af 43bc 27ec 51bc 07bf 9bbc 600c 2cbb
000002d0: ef63 05bd c4f4 8bbc dfb9 cebb 1ed0 383c
000002e0: c5a3 30bc b0cc d03c 7a50 3f3d e522 78bc
000002f0: ae08 75bc fad3 06bd 7ced 1b3d 84c0 4e3c
00000300: 1847 6d3c d413 033d d3fa 3f3c 1af7 443c
00000310: 6fed 3dbc e779 50bb 3131 a33c a4ba 043d
00000320: 84b6 c93b dcf0 44bc 92f6 6b3a 4358 d6bc
00000330: 7a28 c7bc 3e4b 113c 1638 42bc df44 5bbc
00000340: 6fbd 8b3c 59b3 1dbc 234c 09bd ee37 b0bc
00000350: ff86 613c ecce ca3c 42be c83b 7acd 77bc
00000360: ba07 523c 5622 d93c c6d1 f5bb f1e4 babb
00000370: bfd0 253c ee29 9dbc bea9 44bd 74b2 aebc
00000380: 5394 af3c 6374 4b3c b282 653b c4b8 a6bc
00000390: 1b0e 373b 2721 a2bc 980e 24bc 1211 03bd
000003a0: 2726 9cbb c56d f1bc e007 49bc dc76 8cbc
000003b0: 204f f0bc 7c89 103d 999c b13c e8ff 8cbc
000003c0: b46b 073d fdcf c2ba f16c cbbb 0ebd ca3c
000003d0: 2216 c4bc 1bcb 3d39 7691 3e3c e83f ba3c
000003e0: b230 4f3a cb5d e13c 659c 88bc 2f3b c73c
000003f0: c73e 9a3c 41cb d43a a093 793c f222 bd3c
-0.056762185 -0.016740939 0.007523825 -0.026807388 0.0026855536 -0.014214444 0.03966143 -0.004668378
-0.0042465837 0.032356467 -0.011639804 0.004705627 -0.0027881782 -0.012743819 0.003998757 0.01095543
-0.035278883 -0.024211088 -0.00020462969 0.008660776 0.014843113 -0.00038505928 0.020086395 0.07130092
0.019704849 0.02973447 -0.025466846 0.010811012 -0.0059122224 -0.011088381 0.026294652 -0.015208607
-0.008905536 0.009839576 -0.0034007593 0.015002241 -0.010503525 0.006260021 -0.027383823 -0.0052408464
0.011730593 0.025929976 -0.000423656 -0.045408532 -0.024356443 0.0030249564 -0.0007271544 -0.02412031
-0.010666768 0.08312271 -0.024616783 -0.01668046 -0.019400585 0.00951519 0.009943503 -0.008919741
0.0325886 0.0095363185 -0.0069744214 -0.010680061 0.009863973 -0.021407064 -0.010908933 0.022923505
0.001150552 -0.014238189 0.0050778426 0.006017563 0.0010274505 0.0057951976 0.03687267 0.011501718
-0.015782924 0.042488754 0.030127252 -0.011185836 0.025267638 -0.0171614 0.017167727 -0.01753166
-0.008209104 0.027912416 -0.05201322 0.021030242 -0.016482823 -0.040874057 0.022054251 -0.0179893
0.011196502 0.021844532 -0.022394152 -0.0049810917 -0.011849864 0.012863424 0.0127574885 0.018671948
0.008241323 0.058016125 -0.007424486 0.02254544 0.012943628 0.026783543 -0.0018455104 0.011830222
0.074901484 0.016377235 0.0031073685 -0.022286847 -0.030048477 0.04963313 -0.011004181 0.0026559036
0.06544562 -0.0031035827 -0.0048844945 0.018048003 -0.0017160492 -0.0071911262 0.00043858797 -0.005722521
-0.021862425 -0.00826187 -0.017084762 -0.011856318 -0.049262386 -0.022727113 -0.010879751 -0.020283781
0.0207791 -0.019775141 -0.06394147 -0.01467481 0.017538996 -0.0032681979 -0.0010218513 -0.027428288
0.04186994 0.023040483 -0.0029421346 -0.022465857 0.0021530846 -0.042273246 -0.010431527 -0.0053041247
-0.0029384447 -0.009632877 0.04595807 -0.02240667 -0.03406621 0.00061424763 -0.008228381 0.00031671138
0.006762055 -0.0007892611 0.016262474 0.02578795 0.027665295 -0.007772818 -0.0033219357 0.007739561
0.0015219451 0.028526645 0.016117116 0.0033769323 -0.0049187033 -0.0050019906 -0.05513374 -0.005973478
-0.03816114 0.027702391 0.02812616 0.030356158 0.025523106 -0.008217169 0.022999058 0.011033082
-0.011943581 -0.012812651 -0.019011987 -0.0026252493 -0.032566007 -0.017084487 -0.0063087787 0.011280088
-0.010781233 0.025488228 0.046707608 -0.015145038 -0.014955683 -0.032917 0.03806828 0.0126191415
0.014482282 0.03200133 0.011717516 0.012021804 -0.011592253 -0.003181094 0.019920917 0.032404557
0.0061557908 -0.012020316 0.00090012804 -0.026165133 -0.024311293 0.008868037 -0.011854192 -0.013383119
0.017058102 -0.009625279 -0.033519875 -0.021511044 0.013765096 0.024756871 0.006126196 -0.015124673
0.012819225 0.02650563 -0.0075018136 -0.0057035615 0.01012057 -0.019185033 -0.04801344 -0.021325327
0.021433031 0.0124178855 0.0035020527 -0.020351775 0.0027931991 -0.019791199 -0.010013245 -0.0319987
-0.0047652903 -0.029471288 -0.012269944 -0.01714652 -0.029334605 0.035287365 0.021681117 -0.01721187
0.033061698 -0.0014863011 -0.006208055 0.024748351 -0.023936335 0.00018100107 0.01163136 0.022735551
0.00079036795 0.027510544 -0.016676137 0.024320213 0.018828763 0.0016234891 0.01523295 0.023087952

model.0.running_var f4 [1024]
00000000: 1256 0c39 afc8 3239 6381 1d39 531a fe38
00000010: 819a 3039 086f 4739 d9fb 1039 725a f538
00000020: 1d7e ee38 7be3 2b39 0c5f 5539 03f3 4c39
00000030: c134 3d39 6dee 0839 2b6d 1639 c40b f738
00000040: 3609 ec38 6395 2c39 4df7 5739 6289 1739
00000050: 76ca 2a39 6118 2039 4ff6 0239 dbd6 5b39
00000060: b2f1 0b39 a857 3339 ac31 4b39 9d38 f938
00000070: 2897 3039 811f c839 303b 8339 96ce 4b39
00000080: 02b3 4039 4b8e ee38 c517 5839 44fb 5139
00000090: 8a2b f838 6c4a a538 9515 0e39 88a1 7d39
000000a0: 3c6c 8a39 199f 3639 9508 5e39 383f 0a39
000000b0: 39e8 4539 fa0c 7c39 c385 7539 ba00 6239
000000c0: 332d 0339 6944 ba39 4636 7439 81e1 8a39
000000d0: f6b9 3e39 ee8f 5d39 b88e 1339 2739 0a39
000000e0: 73d8 8a39 e02d c538 c7b0 1239 f3b6 1b39
000000f0: dd5a 4f39 1736 4e39 85cf 8e39 a821 4939
00000100: a50c 0c39 97ff cc38 e86b 5339 37f0 1439
00000110: e322 1739 0af3 4b39 f7a9 7239 26dc 6739
00000120: 1793 6e39 6ed8 3e39 6217 3a39 ef79 4239
00000130: 9f14 d338 8420 4639 dd72 2939 9556 6139
00000140: 73f3 5839 883c d738 b7f8 4a39 4e62 1239
00000150: cfaf f138 33f5 b039 deac 1639 df8b 8839
00000160: 9cf1 fc38 ef67 8839 ebb4 bf39 6185 4f39
00000170: 41bd 1539 4219 7439 90a1 2839 ec5a 3739
00000180: a249 4239 69f9 3639 3329 2b39 8aaf af39
00000190: 2a7a 1a39 e3e5 f838 8e2b 5539 b529 ef38
000001a0: 2856 1a3a c160 3939 3b4d 2639 0f1b 6a39
000001b0: 8b26 1239 5218 2c39 8e76 3739 c620 0039
000001c0: f78d 4539 3387 6939 8761 7839 51f9 9339
000001d0: 84ac fd38 ad3a 3539 fc30 6a39 3f3c 9839
000001e0: b004 6739 7539 1b39 3da0 3039 c2f0 3f39
000001f0: fef8 1139 cd25 cc38 81de d438 4628 fa38
00000200: cffd 5a39 096a 9a39 30b2 3039 cc1c ea38
00000210: fb80 4939 2ebe 0239 9474 0f39 cecd 5439
00000220: ce3c 8739 c2f0 1639 6abf 2d39 d9b0 3639
00000230: abc0 0439 3f8a 2339 c78b 2439 560e 3039
00000240: 30c5 a939 39d4 7939 bf8d 3839 4a9d 2739
00000250: c5ac 8539 25ec 3b39 c41e 6c39 831d 2839
00000260: 28ca 0739 872f 8539 63c7 f638 7df4 2c39
00000270: c6b4 1039 c3d7 2539 ef4b 9d39 455a 3039
00000280: cc26 1b39 85f4 0b39 c6c3 0639 dbe8 1b39
00000290: db44 0239 adf4 e038 456a 393a ef1b 0e39
000002a0: 6af8 4139 c295 3839 0c14 1839 2386 3b39
000002b0: 1258 3d39 9e10 ef38 09d2 8539 8e58 5c39
000002c0: c0ed 0139 30d5 1f39 4929 0839 170e 8e39
000002d0: 7c9e 4539 6f92 7539 bdb6 6f39 70ba 4d39
000002e0: d15a 1739 0818 1139 d5c8 8539 363a 2939
000002f0: edd1 3639 051d 2b39 1e48 8539 b6d6 2a39
00000300: 27a8 8039 fc9f 1239 60ff 1a39 5c9f 7c39
00000310: 1b8d 6139 1ade 3839 3049 3e39 8d7c 2539
00000320: a377 1d39 ec8f 3a39 f308 4739 2a49 0239
00000330: dd58 1739 0d3e 1f39 3cc7 1039 894b 2839
00000340: c6cc 1d39 862e 2939 3954 4e39 188d 1839
00000350: b03c 1939 cb3b 3639 faff 203a ba15 c538
00000360: 5793 0839 2f63 1d39 2b18 ea38 5171 2b39
00000370: b5c0 2539 9bea 0d39 e726 0c39 670c 4039
00000380: bf52 5b39 6274 2439 b67d f738 4025 ff38
00000390: 9b8d c638 d21d 1339 f27d 0f39 8e59 c339
000003a0: 3a11 3e39 5b2a 3e39 9da5 e538 faa4 da38
000003b0: d750 4339 7bef 1139 ab88 0339 ef1d 1139
000003c0: 0cdf 1639 fdc4 1f39 7c55 5339 517b 4139
000003d0: 3954 5139 6197 003a d1b5 0839 5e6b 0239
000003e0: b0f5 0d39 3791 0d39 26e2 2039 92bc 1439
000003f0: c57a 5039 db71 e838 a518 1b39 d830 0939
0.00013383504 0.00017050163 0.00015020887 0.00012116567 0.00016842225 0.00019019481 0.0001382673 0.00011699357
0.00011372215 0.00016392574 0.0002034867 0.00019545485 0.00018044097 0.00013058791 0.00014345783 0.00011780069
0.000112550726 0.00016458849 0.00020596125 0.00014451661 0.00016287886 0.00015267871 0.00012489523 0.00020965507
0.00013346112 0.00017103425 0.00019378093 0.0001188379 0.00016840978 0.00038170445 0.00025030365 0.00019436548
0.00018377232 0.000113752285 0.0002060822 0.00020025397 0.00011833671 7.881675e-05 0.00013550215 0.00024188135
0.00026402052 0.00017416141 0.00021174767 0.00013184256 0.00018873894 0.00024037427 0.00023414851 0.0002155331
0.00012509972 0.00035527654 0.00023289872 0.00026489425 0.00018189088 0.0002112982 0.0001407218 0.00013181996
0.00026482678 9.402237e-05 0.000139895 0.00014850106 0.00019774908 0.00019665841 0.00027238965 0.00019181392
0.00013356151 9.775085e-05 0.00020162726 0.00014203867 0.00014413478 0.00019450128 0.00023142235 0.00022111888
0.00022752244 0.00018200438 0.00017747053 0.00018546706 0.00010065105 0.00018894864 0.00016159886 0.00021489926
0.00020690057 0.00010263274 0.00019356875 0.00013960266 0.000115245224 0.00033752024 0.00014369513 0.00026044153
0.000120613 0.00026017378 0.00036565153 0.00019790746 0.0001428025 0.00023279063 0.00016081915 0.00017486111
0.00018528712 0.00017449785 0.00016323179 0.00033509388 0.00014732094 0.00011868381 0.00020329488 0.000114041766
0.0005887472 0.00017679018 0.00015859764 0.00022326059 0.00013938003 0.00016412258 0.00017496405 0.0001221924
0.0001884027 0.00022270977 0.00023687455 0.0002822378 0.00012096114 0.00017283364 0.00022334227 0.00029036586
0.00022031623 0.00014803356 0.00016844361 0.00018304869 0.00013921034 9.734519e-05 0.00010150392 0.000119284305
0.00020884651 0.0002945217 0.00016851048 0.00011163353 0.00019216903 0.00012468614 0.00013680971 0.00020294564
0.0002579451 0.00014394804 0.00016569873 0.00017422753 0.00012660275 0.00015596392 0.0001569233 0.00016790009
0.00032381108 0.0002382555 0.00017600412 0.00015984956 0.0002549646 0.0001792168 0.00022518175 0.00016032722
0.00012949912 0.00025403147 0.00011767333 0.00016494277 0.00013800254 0.00015816004 0.00030001948 0.00016818296
0.00014796405 0.00013347164 0.00012852167 0.00014868697 0.00012423417 0.00010726727 0.00070730253 0.00013552581
0.00018498456 0.00017603397 0.00014503318 0.0001788368 0.00018057253 0.00011399503 0.00025524225 0.00021013824
0.00012390967 0.0001524284 0.0001298535 0.00027094848 0.00018846424 0.00023419572 0.00022860891 0.00019619777
0.00014434314 0.0001383723 0.00025517368 0.00016138781 0.00017435076 0.00016318641 0.00025421468 0.0001629245
0.00024539346 0.00013983244 0.00014781719 0.00024091959 0.00021510238 0.00017630347 0.00018147076 0.00015782025
0.00015017255 0.00017791957 0.00018981453 0.00012425022 0.00014433586 0.00015186537 0.00013807131 0.00016049868
0.00015048971 0.00016134427 0.00019677066 0.00014548411 0.00014613825 0.00017379147 0.0006141659 9.397739e-05
0.00013024859 0.00015009636 0.00011162491 0.00016350044 0.00015807415 0.00013534205 0.00013365933 0.00018315167
0.00020916293 0.00015683615 0.00011801293 0.00012166286 9.467752e-05 0.00014030121 0.00013684461 0.00037260022
0.0001812623 0.0001813559 0.00010950419 0.00010425779 0.00018626764 0.00013917491 0.00012544046 0.00013839429
0.00014388206 0.00015236805 0.00020154373 0.00018451853 0.00019963169 0.000490537 0.00013037703 0.00012437764
0.00013538334 0.00013500905 0.00015343036 0.00014184628 0.00019882161 0.00011083829 0.00014791133 0.00013083534

model.1.weight f4 [32, 1024]
00000000: 81ee edbc 5706 c73c ae0e 2dbc 44e2 a33c
00000010: 16ca a6ba 4b5d cc3c b760 84bb 6ff8 0ebc
00000020: 7570 ddba 62e8 d93c 86ae 4b3c 9b7f 493c
00000030: ec1e 8e3c f5f4 abbb d99b 003d 0a1f 5b3c
00000040: fbc7 2cbc 85d9 ba3b 68b0 043d a641 963c
00000050: 7c49 0bbc 14c2 90bc 286e f23c f9bc c4bc
00000060: 0cce 36bc c09c 2b3c 815a 5e3c cdfd 9dbb
00000070: 7c74 aebc e9c9 c13a c51b 333c e40e 89ba
00000080: 84df 473b 6113 f839 8548 8f3c 5ad1 9639
00000090: 8523 1a3b 8b4f d8bb 7a7d e33b 35b1 ac3a
000000a0: a901 18bc 9c14 d4bb 9103 06bc 330d 1e3c
000000b0: 890e a43c a99c a23c bb0b a93c dcaa b4bc
000000c0: bc7b a3bc 5b0a 9e3c 4d47 e13c 64df b63a
000000d0: 65d5 9d3b bb82 c0bc ad97 adbc 9f67 453c
000000e0: b92f b3bc 6a6c 8fba 08ae 04bd 5b67 a3bc
000000f0: 36a3 5a3c 966b 88bc 1cf5 c63c 1ea9 82bb
00000100: 817e ee3c 74ee e3bb 2252 20bc 36fc 8bbc
00000110: 7491 913c e5a0 1bbc 8758 8d3b 8109 003d
00000120: 4929 b53c 8672 8ebc 1d81 23bc c066 64bc
00000130: a6d7 8e3c 3b7a aa3c 5394 0abc 7ae9 1f3c
00000140: 5af5 a73c 0e29 c4bc 9102 fbbc bc7f 9e3c
00000150: 48dc aabc 85ec e83c d1bc 44bc 2ab6 8e3c
00000160: e8d2 4fbb 2c0e e23b e4c9 c8bc e6cc 64bc
00000170: 94d4 12bb 1ed9 873c 06d6 453b ee25 adbc
00000180: bf5f dfbc fcda a6bb 340e a63b 195f bc3c
00000190: 8f08 0d3c 8e52 413b 41d8 5b3c 322a d0bc
000001a0: 011c ae3b 2d3d a8bc 6eb8 babc 5cce d43c
000001b0: 3d78 343c af28 abbc 8b23 15bc 38bb 17bc
000001c0: ae44 423c f6f1 cebc 75a2 d23c 36bd c83a
000001d0: c38b adbb 3bfa d3bc d031 ec3c f116 49bb
000001e0: ece7 03bc 0a08 f23b 426c 7abc 6479 c2bc
000001f0: ce7e d3bc b29b 0bbc c7d6 debc 467e 14bc
00000200: bdde 583c e20c 6bbc f312 eb3c 3225 b9bc
00000210: c367 c4bc 2df8 4abb ef55 c8bc 253c a3bc
00000220: 7be4 213c ec2b a5b9 676c fdbc c11b d3bb
00000230: c5b4 f83b 911a 5bbc b797 69bc 65be 0c3c
00000240: 9eb4 883c 4638 91bb 8175 0a3d 5d9e cd3c
00000250: cb0e a83c d1b1 dfbc 3859 2fbc 6dac d93b
00000260: 6f35 24bc 467b c5bc 8a91 99bc 2707 013d
00000270: 0110 c63c f491 9abc 8cbf ea3b 749d e2bb
00000280: c9bc 403b e3ba 5e3c b257 bbbc 7a2c 04bb
00000290: 161c 193d 7c8d b5bc 44f5 b4bc c634 12bc
000002a0: 037c 85bc 7656 23b9 d0d6 47bc 824b e9bc
000002b0: 0372 503c cdd2 c03b c53d be3c d324 83bb
000002c0: d762 a0bb efb8 753b c722 2bbc edc2 07bc
000002d0: 6ad4 babc 3781 cc3c 9a76 033c bcc0 16bb
000002e0: bee2 963c 6f0a ebbc a74f 94b9 42f1 c53c
000002f0: 1563 203b f68e abbc 6b04 11bc 9ad9 78bc
00000300: 3972 3cbc d06d c6ba 4ffe cdbc f80b 8c3b
00000310: 2c54 11bc cb0b 78bc 9195 9cbc b4dc 9fbc
00000320: 66ab b2bc f7f9 bebb 4eb1 833c f39d a2bc
00000330: f63b 96bc e48d bdbc f6f5 2c3b e653 4e3a
00000340: 8757 cfbc 6e3b 55bc 62eb b4bc 7b0f 853b
00000350: 014b d6bc e8d2 393b cd27 02bd 6cf5 68bb
00000360: 0d7a 7e3c e379 78bc 587b 8b3c e18f 5ebb
00000370: f990 59bc a5cd 72bc b343 78bc 5ab3 e93c
00000380: 134a 213c 33ad 583c 1c3b 2b3c 0972 f4bc
00000390: 2a49 603c 7085 2cbb cf69 81bc d0bb 95bb
000003a0: 60ac 7cbc db69 36bb 626b ca3b 432c ae3c
000003b0: 79f4 4f3c 2f4e d5bb 0bd2 ce3c 1f2c 1dbc
000003c0: ecab 583c 1f7a 973c 5f2d 3a3c 9218 bd3b
000003d0: 2679 c7bb ecac 0c3c 3a62 493a 3af5 adbc
000003e0: 8bde c03c 4654 b9bc 3edd 653b bbd6 78bc
000003f0: 6d45 1bbc 7838 f83c 9999 913c 8377 87bb
-0.029044392 0.024295015 -0.010562582 0.020005353 -0.0012725021 0.02494683 -0.0040398496 -0.008726223
-0.0016894477 0.026600067 0.012431746 0.01229849 0.01734873 -0.005247707 0.031398628 0.0133740995
-0.010545726 0.0057022 0.032394797 0.01834185 -0.008501407 -0.017670669 0.029593542 -0.02401589
-0.011157524 0.010474384 0.0135713825 -0.004821515 -0.021295778 0.0014784905 0.010931914 -0.0010456708
0.0030498216 0.00047316685 0.017490635 0.0002876621 0.0023519706 -0.006601279 0.006942448 0.001317537
-0.00927774 -0.0064721834 -0.008179561 0.009646702 0.020026462 0.019850092 0.020635476 -0.022054128
-0.019956462 0.019292047 0.02749982 0.0013952074 0.0048166984 -0.023499837 -0.021190489 0.012048631
-0.021873342 -0.0010942344 -0.03239253 -0.019946745 0.013344577 -0.016652863 0.0242868 -0.0039874455
0.029113056 -0.006955916 -0.009785207 -0.017088037 0.017769553 -0.009498809 0.004313532 0.031259064
0.022114413 -0.017388593 -0.0099795135 -0.013940513 0.017436814 0.020810237 -0.008458215 0.009760255
0.020502735 -0.023945358 -0.030640872 0.019348018 -0.020856991 0.028433094 -0.012007908 0.017420847
-0.0031711403 0.006898662 -0.024510331 -0.013964867 -0.0022404538 0.016583022 0.0030187382 -0.02113625
-0.027267335 -0.005092023 0.005067611 0.022994565 0.008607998 0.002949867 0.013418258 -0.025410745
0.005313397 -0.020536983 -0.022793021 0.025977306 0.011014995 -0.020893423 -0.009102712 -0.009260945
0.011857195 -0.02526186 0.025712231 0.0015315178 -0.005296202 -0.025876155 0.028832346 -0.003068384
-0.0080509 0.0073862122 -0.0152846 -0.023739524 -0.025817301 -0.008521007 -0.027202023 -0.009063309
0.013236699 -0.014346333 0.02869556 -0.022600744 -0.023975259 -0.0030970678 -0.024455039 -0.01992614
0.009881134 -0.00031503977 -0.03093548 -0.0064425175 0.007589909 -0.013373033 -0.014257363 0.0085903155
0.016687687 -0.004431757 0.033803467 0.025099928 0.020514866 -0.02730647 -0.010702424 0.006642869
-0.010022505 -0.024106633 -0.018746156 0.03150096 0.024177553 -0.018868424 0.0071639474 -0.0069157425
0.00294094 0.013594362 -0.022868965 -0.0020168112 0.0373803 -0.022162192 -0.022089608 -0.008923715
-0.016294485 -0.000155771 -0.012197211 -0.028478388 0.012722495 0.0058845044 0.023222813 -0.0040021925
-0.004894595 0.0037494262 -0.010445303 -0.00828622 -0.022806365 0.024963958 0.008023882 -0.0023003062
0.018418666 -0.028691499 -0.00028288105 0.024162892 0.002447312 -0.020942193 -0.008851151 -0.015188599
-0.011501842 -0.0015138928 -0.025145678 0.0042738877 -0.008870166 -0.01513953 -0.019114288 -0.01951442
-0.021810245 -0.005828138 0.016075756 -0.019850707 -0.018339138 -0.023138948 0.0026391721 0.0007870778
-0.025310291 -0.013014657 -0.022084896 0.0040606833 -0.026158812 0.002835447 -0.03177624 -0.0035546673
0.015532029 -0.015165779 0.017026588 -0.003396027 -0.013279193 -0.014819537 -0.0151528595 0.028527904
0.009844321 0.013224888 0.0104511045 -0.029839532 0.013689319 -0.0026324652 -0.015797524 -0.004569508
-0.015421957 -0.002783409 0.006177352 0.02126134 0.012692564 -0.0065095644 0.02524664 -0.009593039
0.013224583 0.018490849 0.011363356 0.0057707513 -0.00608744 0.00858615 0.00076821784 -0.021235097
0.023543617 -0.022623193 0.0035074498 -0.0151879145 -0.009477002 0.030300364 0.017773436 -0.00413412

model.1.bias f4 [32]
00000000: ac97 c9bc bf30 bf3a 3bba 97bc b2d5 503a
00000010: 752d a4bc 9942 3b3c 1ad3 39bc d510 55bb
00000020: b7ea 01bb 6a8f bb3c 1432 f53c 7fa6 793c
00000030: 91e3 533c 5899 e23b eb52 e13c 9727 373c
00000040: bdd0 083c a825 14b9 a4af ffba 6111 473c
00000050: 5fc6 e03c b730 e13c 50fd 703c 048d 083c
00000060: 2231 6fbc 39fb 05bd 0918 8d3c 6293 ad3b
00000070: e426 76bc 29a9 b8bc aeae 96bc 1073 93bb
-0.024608456 0.0014586671 -0.018521419 0.00079664134 -0.020041207 0.011429452 -0.011341834 -0.0032511253
-0.001982374 0.022895534 0.029931106 0.01523745 0.012932674 0.0069152527 0.027505359 0.011178873
0.008350548 -0.00014128408 -0.0019507301 0.01215014 0.02743834 0.02748905 0.014708832 0.008334402
-0.0145991165 -0.032710288 0.017223375 0.0052971104 -0.015023921 -0.0225416 -0.01839384 -0.0044998005

model.4.weight f4 [64, 32]
00000000: d3be 203e 9ae6 8f3c 461c 2abe f296 16be
00000010: 9b64 e03d 0452 e33d 6bb3 2abe 0aa4 14be
00000020: 3f13 84bd b839 1fbe 9bc3 053e ac17 433d
00000030: 515a babb d8cd 973d c337 0fbe 3a0f 56bd
00000040: 53a3 2abe 49fc b4bd bdde 783d 6f8b 0fbe
00000050: 57ee c73d 31e4 f93c f746 27bb 9e47 28be
00000060: c112 343d fe15 1bbe 2dc0 d1bd f54b 2ebe
00000070: 5ceb a83d 0a43 0a3c bb7d 6ebd 7a8a 5c3d
00000080: 3ab8 24be 2e77 b13d f34c e5bd 2c08 1dbe
00000090: 69ff 133e 353c 8dbd 3c7b f4bd 3f17 af3d
000000a0: 45bb ab3d 1ba8 b23d 33e1 443d 6adc a23d
000000b0: 60be 34bd c6ef dbbd c8a9 043e 8d42 51bd
000000c0: 27d1 713b 2b8c 0cbe 2f44 33be 0d10 523c
000000d0: 9157 8b3d 5b26 903c f0f2 4dbd 2ad9 8cbd
000000e0: 831c 883d 878f 0abe f2ba c53d e523 82bd
000000f0: ad88 f2bc a211 1e3d c167 0c3e 88da 70bc
00000100: 9e63 99bd c89e 313e b906 cfbd 6e9f c73d
00000110: dbb0 abbd dc54 353e 25aa 8cbc 8745 efbd
00000120: 2d0a 0e3e f9cf 86b6 9570 9d3d 3425 09be
00000130: 1251 3bbc c646 2ebe 2de2 b3bd fa8f c0bc
00000140: 5826 f13d dfd2 e6bd 0112 11bd 2f1b 313e
00000150: 43b9 29be 1e08 aabc 0a93 3a3c 6d9b b9bd
00000160: 80d3 31bd 3264 6a3d 6714 3a3d f5cf 0dbe
00000170: 2f9f 063d 0ad2 9fbd 5bc4 5d3d 97b7 b63d
00000180: 85e1 a83d 142e 9f3d 5ce0 f33d 679a 173e
00000190: 7a4e 083e a3bd ab3c 0290 4bbd 8858 c5bc
000001a0: ff1c a63d 90a0 dfbd bc58 dbbd dd45 443d
000001b0: 6a8a bd3d 813c febd e32e 10be 37f5 8abd
000001c0: 66a9 66ba 7a03 9fbd 7d00 ca3d 0393 263e
000001d0: f83f 863d 5bcf 16be 7203 66bd ae14 bcbc
000001e0: b69e 6a3d 03a5 223e 296b e83d c919 2dbe
000001f0: 9aca 28be 6de3 33be 7a9b 143e 7bd8 febd
00000200: 0015 e33d b9b8 efbd 3b89 043e 2809 703d
00000210: c618 f73c 7d7a 263e 8d04 613c 801e 0d3e
00000220: 3fe3 b13c a6e2 31be b9ff 7dbc 994f 203d
00000230: b613 4abd db30 e7bc ec92 a7bd 6ee9 82bd
00000240: 5f71 20be 3323 28bb d5d6 883b a5fa 19bd
00000250: aa30 d93c efb3 19be c79b 67bd a707 b3bd
00000260: 967b ad3c 4e26 673d 8007 b3bd 593b b73d
00000270: 7853 093e b01a 53bd d152 1ebe 3e4d 5bbd
00000280: c559 2c3e 0eb9 a8bc 6d1d d03d 2a5c 033e
00000290: 708c a53b 21c7 ccbc 968b 9f3d 9530 d33d
000002a0: 6097 07bd 7237 ecbd 9293 103e 3fce 0d3d
000002b0: 5ad4 f0bc 7148 f03d ced8 e03c 8b17 3fbc
000002c0: d0a4 ccbc e439 06be 000c b2bd d343 22be
000002d0: 071e f0bd bd6d a13d ffb4 f33d d89d 2b3e
000002e0: 61a9 83bd ab58 ee3d 8018 7a3d 663c bbbd
000002f0: 0392 1abe 4e5b e63c 2c8b 3abd 26a1 0c3e
00000300: 0b8f 333e 7f10 f2bd 148b 1ebe 117f 5e3d
00000310: e687 da3b dcc3 043e 5e56 b63d 615a eb3c
00000320: 1f1b 37be 9bb5 0abe 9be2 d53d 5397 803d
00000330: c231 09be 3fe5 443c c773 273e d255 17be
00000340: f148 f63c ac8d d0bd 68de be3d e5c7 efbc
00000350: fff0 48bc 3e1c 42bd 0a6c 94bd 9159 d9bd
00000360: 6891 a4bc 53dd 06be 8649 05be c01f 08be
00000370: 0cbd 49bd e51a b23d ac24 2a3e 6450 e53d
00000380: aa4f 1a3e be0d 933d 2610 66bd 4204 f2bd
00000390: eef4 11be 7c25 f7bd 5d12 8a3d 4d25 02be
000003a0: e4a9 8d3c 20c6 6bbd fe25 87bd 556f 523d
000003b0: 455c febd dccf 01be dfb7 c8bd 3675 363e
000003c0: 2c20 173e 41ac 2c3e 398a 8dbc 7010 4e3d
000003d0: a2ff 0a3e d932 07be 2200 fd3c 3fd2 1b3e
000003e0: ef61 223e d85a 4e3d 8316 8e3d 63e9 073e
000003f0: a667 0abe 298d 24be ba4f 0fbe 821e 013e
0.15697794 0.017566014 -0.16612348 -0.14706019 0.10956689 0.110996276 -0.16670005 -0.14515701
-0.064489834 -0.15549362 0.13062899 0.047629997 -0.005687036 0.074123085 -0.13986115 -0.052260615
-0.16663866 -0.08837182 0.060759295 -0.14018033 0.097622566 0.030504318 -0.0025524476 -0.1643357
0.043963198 -0.15145108 -0.10241733 -0.17021163 0.08248016 0.008438835 -0.058225375 0.053843
-0.16085902 0.0866531 -0.111963175 -0.15335149 0.144529 -0.06896249 -0.119375676 0.08549356
0.08385328 0.0872347 0.04806633 0.07952197 -0.04412687 -0.107390925 0.12955391 -0.05108886
0.0036898346 -0.13725345 -0.17506479 0.01282121 0.06803811 0.017596414 -0.05028051 -0.06877358
0.06646063 -0.13531314 0.096547976 -0.063545026 -0.029606188 0.038591035 0.13711454 -0.014700539
-0.074897036 0.17345726 -0.10108704 0.09747206 -0.08383342 0.17708153 -0.017170975 -0.11683183
0.13871069 -4.0177224e-06 0.07687489 -0.13393098 -0.011432903 -0.17019185 -0.08783374 -0.023506153
0.117748916 -0.11270689 -0.03541756 0.17295526 -0.16574578 -0.020755824 0.011387596 -0.09062848
-0.043414593 0.05722446 0.045429613 -0.1384886 0.032866653 -0.07803734 0.054142337 0.08921736
0.082461394 0.077724606 0.119080275 0.14804994 0.13311186 0.02096445 -0.049697883 -0.024090067
0.08110999 -0.10919297 -0.10710284 0.04791819 0.09254916 -0.12413884 -0.14080386 -0.06785052
-0.0008799046 -0.07764335 0.098633744 0.16267018 0.0655517 -0.14727537 -0.05615563 -0.02295908
0.057280265 0.1588326 0.11348564 -0.16904368 -0.16483536 -0.17567225 0.14512435 -0.12443634
0.1108799 -0.11705155 0.12942974 0.058602482 0.03016318 0.16257663 0.013733995 0.13781166
0.021714805 -0.17371616 -0.015502864 0.03913841 -0.049335204 -0.028221538 -0.0818232 -0.063921794
-0.15668248 -0.0025655746 0.0041760006 -0.03759255 0.026512463 -0.15010045 -0.056545045 -0.08741694
0.021177094 0.056433015 -0.08741665 0.089468665 0.13410747 -0.051539123 -0.1546128 -0.05354046
0.1683112 -0.020596053 0.101618625 0.12828127 0.005052142 -0.024997296 0.07790296 0.10312001
-0.033103347 -0.11534013 0.14118794 0.03462052 -0.029398132 0.11732567 0.02744713 -0.011663328
-0.024980932 -0.13108021 -0.08693695 -0.15846185 -0.11724477 0.07882259 0.11899757 0.16759431
-0.06428791 0.11638006 0.06105852 -0.091423795 -0.15094762 0.02811971 -0.04554288 0.13733348
0.17535035 -0.11819553 -0.15482742 0.0543204 0.0066690324 0.1296534 0.08903192 0.02872962
-0.1788144 -0.1354584 0.10443612 0.06278863 -0.13397887 0.012017547 0.1635276 -0.14778832
0.030064078 -0.10183272 0.093197644 -0.029270122 -0.012264489 -0.047390215 -0.07247169 -0.106127866
-0.020088866 -0.13170366 -0.13016328 -0.13293362 -0.049252555 0.08696536 0.16615552 0.11196974
0.15069452 0.071803555 -0.056167744 -0.11817218 -0.1425359 -0.120676965 0.06741784 -0.12709542
0.017292924 -0.057561994 -0.06599043 0.051375706 -0.12419943 -0.12676948 -0.09800696 0.1781815
0.14758366 0.16862585 -0.017277824 0.050308645 0.13574079 -0.1320299 0.030883852 0.15216921
0.15857671 0.050379604 0.069378875 0.13272624 -0.13516101 -0.16069473 -0.13995257 0.12609294

model.4.bias f4 [64]
00000000: 6bb8 14be 8b68 11be c641 f9bc 5c6b 9c3d
00000010: f634 8cbd eff8 9c3d 0375 97bd 1161 1bbe
00000020: f73a a23d 9160 b43d bfd7 223e 154a 91bb
00000030: b4fa dc3d 8231 f0bd 9ec1 10be e9ae 08be
00000040: 9822 07bd 0452 c3bd a94f b43d 51ce 38bd
00000050: dcdd 103e 88d8 a83d a4c3 d33c 168e 87bd
00000060: aa6e 273e f913 223e 882f 74bd c880 283e
00000070: 1992 163c 0603 dabc f6bb 383d 796d 6abc
00000080: e4a6 253e d037 94bd 6fcf 23be 28ec 2cbe
00000090: f0d7 853c c1ce eebc 0101 b1bd 0c13 953d
000000a0: 5083 1cbb a6f3 1f3e 6de9 6f3d bb2d de3d
000000b0: dd97 10be d59f d6bd 0ae6 48bb 962c bdbd
000000c0: 170b a2bd 7e5b b63d af15 133e fdd0 b8bc
000000d0: 9463 b73d b0df 2fbe 9cbf debd 5540 1a3e
000000e0: 005f 1abe 6f4b d9bd 51a2 093e fda8 003d
000000f0: 912d 6abd ae9c 2dbe cb92 ebbd 806e ea3c
-0.14523475 -0.14200036 -0.030426871 0.07637665 -0.06846039 0.07664668 -0.07395365 -0.15173747
0.07921403 0.08807481 0.15902613 -0.00443388 0.10790005 -0.11728193 -0.14136359 -0.13347973
-0.032991976 -0.095371276 0.088042565 -0.045118634 0.14147133 0.08244425 0.025850125 -0.066188976
0.16350809 0.15827931 -0.05961564 0.16455376 0.009190106 -0.02661277 0.04510113 -0.014308327
0.16176945 -0.07237208 -0.15997098 -0.16886961 0.016338319 -0.029151322 -0.086427696 0.072790235
-0.002388198 0.15620288 0.05857222 0.10848566 -0.14120431 -0.10479704 -0.0030654692 -0.0923702
-0.079122715 0.089041695 0.1436374 -0.02256059 0.0895454 -0.17175174 -0.1087639 0.15063603
-0.15075302 -0.10610091 0.13440825 0.03141116 -0.05717236 -0.169543 -0.11502608 0.028617144

model.7.weight f4 [1, 64]
00000000: f352 c03d 1d14 323d cc17 d1bd 1ff4 263b
00000010: 3fa6 f8bd 9d69 983d 8171 153d fd88 cc3d
00000020: 2ca5 9a3d 17e5 6abd 67fc 4dbd 1a79 b4bc
00000030: 9a38 ef3c dfe1 91bc 3ca5 ab3c e34b 80bc
00000040: 3348 0d3d d985 94bd 5611 2a3c cca4 563d
00000050: 181c 9fbd 0cf6 c03d f23e fb3d d62c 6f3d
00000060: 8e2c dabd 2b37 ee3d e4e4 813b 2a46 b9bd
00000070: fe18 9f3d 5514 fb3d d56d 8a3d 4adc 4a3d
00000080: 2a93 ae3d 2186 e33c 03e9 3ebd 4f1a b6bd
00000090: 2042 733d 94ce 293c 11f9 c83d 6152 973c
000000a0: 54cb 9ebd 30b4 aebb bbe6 253d 051f 643d
000000b0: 847d ce3d 4c41 a23d 6187 fd3b 72ce e53d
000000c0: f01e ce3d 2a9c b0bd d570 f4bb fcec 4e3d
000000d0: 4b5c a13d 0177 efbd ded2 f73d 5ca5 6e3b
000000e0: 1031 e3bd 187c 943c 3ef0 c43d 160f ccbd
000000f0: 671f 9d3c d6f0 da3c 69e2 c5bd 371a fcbd
0.09390821 0.043476213 -0.10209617 0.0025475097 -0.12141084 0.07442019 0.0364852 0.09987066
0.07551035 -0.057347383 -0.050289538 -0.022030402 0.029201794 -0.017807899 0.020952813 -0.015661186
0.034492683 -0.07252092 0.01038011 0.052403256 -0.0776903 0.0942193 0.12267865 0.05839237
-0.106530294 0.11631616 0.0039640535 -0.09046586 0.07768439 0.122597374 0.0675923 0.04952649
0.08524163 0.027773919 -0.046608936 -0.08891737 0.059389234 0.0103641935 0.09813131 0.018471899
-0.077536255 -0.0053315386 0.040503245 0.055693645 0.10082534 0.07922611 0.0077370857 0.11221017
0.100644946 -0.08623536 -0.0074597397 0.050518975 0.078789316 -0.1169262 0.121007666 0.003641448
-0.11093342 0.018125579 0.09616135 -0.09963815 0.019180013 0.026726168 -0.09662325 -0.123096876

exp_avg f4 [1024]
00000000: fe21 2938 7ae1 013a 8a14 3a39 debc 0cba
00000010: 903d d838 2d0f 4739 11f4 dbb9 7edd 4dba
00000020: b385 ba39 f786 53ba 1a7d bf38 9f5a 8638
00000030: 60bd e1b6 ae27 31ba f81a 51b8 fc2b dab9
00000040: 86b8 90ba c6b1 3139 035c 61ba c8b3 7139
00000050: ead7 25ba 1aee 61b7 1b1d 3d3a 26b0 64ba
00000060: 7a1c 2538 1a81 c7b9 7a9b 8d37 d031 1fb7
00000070: 9934 07b9 a08f 023a 9c9b 69ba 53e5 04ba
00000080: 93ee 36ba 6cf3 a6b9 1c26 f9b9 b7c2 e5b9
00000090: 9715 d0b9 bf7c 0cb9 289f 643a 5d6c 09b9
000000a0: a03b 0b38 8620 06bb 126a a8ba f487 e0b8
000000b0: 1ffe 88b9 ed60 283a 640e afb8 9d04 18b8
000000c0: 276a 01b9 64b5 56ba c46b c7b8 704f 64ba
000000d0: a2cd 1eba 7483 bfb9 7815 85b8 1280 3b38
000000e0: 706b 9a38 74fb d439 177b b2ba c3bf 8db9
000000f0: 0d58 46ba 6adf 473a 400c 43b8 b801 10b9
00000100: 02e2 7239 fe1b 46b9 246a a0b6 0436 9db9
00000110: 22a8 8339 8303 abba bf3d 23ba ecdf 14ba
00000120: 6ef7 c6b8 314b 22ba e1f2 0fba faf3 91b9
00000130: e28d 9339 ac91 4738 7c34 84ba 86e2 46ba
00000140: 6082 e739 e2d0 bfb9 202e a638 6660 45ba
00000150: d9bf 123a 2642 a8ba bedb 89ba be52 c439
00000160: b890 3b38 5834 4eb8 1598 143a 9005 43b8
00000170: b2d6 39b9 6ff0 503a 4a47 11ba 60cb 6b3a
00000180: 25a9 98ba ea07 dab8 20c4 b337 508b 4d38
00000190: 82db a9b9 5d83 c739 0000 4fb7 b97b 54b9
000001a0: fb1a 61ba 6e63 b839 0ee4 fd38 e8c7 8639
000001b0: 460a f8b8 b547 e8b9 8723 89ba b0fb fc38
000001c0: 7546 3239 44f5 32ba 8ae9 113a 39e0 9ab9
000001d0: 4131 44ba a906 9bb9 fd4b 463a a3e9 f238
000001e0: d692 cdb9 54ed 4038 1df0 5f39 652a a4b9
000001f0: 8d18 83ba 5ea4 6a39 d896 a6b8 92f5 1aba
00000200: 7bcc ee39 ef3a d639 14f7 1e3a f516 48ba
00000210: 0bb5 2d3a 48f1 07b9 0642 8439 8c79 2aba
00000220: 0a59 a638 04dd 4f3a 549d 4038 c242 3bb9
00000230: 7597 173a b8f2 d839 e45b 76b6 2445 9eb9
00000240: aa52 f1b8 9989 b9b7 33f2 92b9 d0d3 8037
00000250: 0b41 aa3a 7cbd c8b7 5bbd aa39 d203 fab9
00000260: 1a87 f138 d0ae a238 6ea4 10ba 9c5a 04ba
00000270: 6a2f 3aba 53c2 2d3a 52b6 253a eea7 f1b9
00000280: 4567 9d39 1e89 34ba 6757 0b3a db8e d6b9
00000290: a092 bbba c84e f6b9 a4ce d0b9 263e 243a
000002a0: 5053 3e3a 4566 2dba 015f 3cba 29df b8ba
000002b0: e7a3 87b9 6afc 513a 0c1e e239 aa23 98ba
000002c0: dab9 67ba 1ef6 09b9 40d2 a3ba fc19 ee39
000002d0: 683e 07ba a240 32b9 18b2 043a fafa d839
000002e0: 68cd 6739 ee12 cdb9 6c0f 1e3a 1097 24b8
000002f0: 5d3a 223a f8c6 9bb9 7ab8 0eba 94c9 11b9
00000300: 5583 a9ba 0425 b6b8 702a 133a 1fa3 5ab8
00000310: 14a2 c6b9 ac48 5b3a 4ee1 0bba c82f 8cb9
00000320: f639 113a 2df2 223a 1c18 deb9 0328 c7b9
00000330: d623 8cba 788b e039 44f1 c8b8 eb14 4cb9
00000340: d5ca 51ba 01bf 1f39 5654 9939 f8b9 7737
00000350: c41e 0339 cb3b dbb9 c1ae 5bba 5874 19b8
00000360: 15f9 29ba 52e6 36ba 063b 54ba 0fe4 8339
00000370: 897a 18b9 f035 f8b9 a8ba c6b6 3bee 22b9
00000380: 2a72 403a 6aa9 7a39 04bb 4eb9 d88a 063a
00000390: 1729 9539 23fa 80ba 7450 9eb7 e01a b4b8
000003a0: 6d22 d639 329e 5a39 485e 4bba 6844 eab8
000003b0: 51b7 7db9 d13b 14b9 8ece 03ba e01f 2ab6
000003c0: 7bf4 68ba 7b0a 5d39 1c20 413a c486 0dba
000003d0: 7efc 99ba ae63 3239 8e5e 5738 c070 2bba
000003e0: d5a5 15ba 5886 96b9 0136 c9b9 b094 9c38
000003f0: 0b4a b139 4eb1 1e39 1f56 173a 1f64 9db9
4.0324398e-05 0.0004954558 0.00017745994 -0.00053687196 0.000103111495 0.00018983772 -0.0004195278 -0.00078531343
0.00035576298 -0.00080691226 9.130892e-05 6.4064974e-05 -6.7275687e-06 -0.0006757927 -4.98546e-05 -0.0004161297
-0.001104132 0.00016946261 -0.00085967797 0.00023050525 -0.0006326424 -1.3466482e-05 0.0007214115 -0.0008723758
3.9365586e-05 -0.00038052426 1.688091e-05 -9.488736e-06 -0.00012894197 0.0004980508 -0.0008911432 -0.00050695724
-0.00069782994 -0.0003184335 -0.00047521375 -0.00043823358 -0.00039688937 -0.00013397912 0.0008721226 -0.00013105707
3.3195713e-05 -0.0020466163 -0.0012848994 -0.000107064756 -0.00026129276 0.00064231345 -8.347331e-05 -3.624392e-05
-0.00012341944 -0.00081904815 -9.509132e-05 -0.0008709347 -0.00060578634 -0.000365283 -6.345933e-05 4.470355e-05
7.363304e-05 0.00040623138 -0.0013617006 -0.0002703649 -0.0007566221 0.0007624539 -4.650303e-05 -0.0001373355
0.00023163113 -0.0001889318 -4.780728e-06 -0.00029985618 0.00025111536 -0.0013047311 -0.00062271574 -0.0005679119
-9.487463e-05 -0.0006191014 -0.0005491209 -0.00027838332 0.00028143736 4.7580965e-05 -0.0010086442 -0.0007586855
0.0004415689 -0.0003658599 7.924088e-05 -0.0007529318 0.00055980455 -0.0012837097 -0.0010517759 0.0003744568
4.4719054e-05 -4.9162976e-05 0.0005668414 -4.6496803e-05 -0.00017722955 0.0007970398 -0.0005541934 0.0008994844
-0.0011647089 -0.00010396524 2.142979e-05 4.9005554e-05 -0.00032397738 0.0003805411 -1.23381615e-05 -0.00020263986
-0.0008587089 0.00035169296 0.000121064586 0.00025707413 -0.00011827475 -0.00044303914 -0.0010462858 0.00012063177
0.0001700165 -0.00068267086 0.0005566111 -0.00029540228 -0.0007484146 -0.00029568866 0.0007564424 0.000115829775
-0.00039210048 4.5997396e-05 0.00021356386 -0.00031312104 -0.0010001824 0.0002237721 -7.943594e-05 -0.00059112266
0.00045547247 0.0004086117 0.0006064039 -0.00076328154 0.0006626404 -0.00012964488 0.00025226193 -0.0006503097
7.932082e-05 0.0007929357 4.592289e-05 -0.00017858579 0.0005782762 0.0004137957 -3.6710344e-06 -0.00030187622
-0.00011507173 -2.2117792e-05 -0.00028027743 1.5357422e-05 0.0012989355 -2.3930093e-05 0.00032566008 -0.00047686562
0.0001151694 7.757323e-05 -0.0005517666 -0.0005048902 -0.0007102402 0.0006628383 0.00063214183 -0.0004609222
0.00030022315 -0.0006886887 0.0005315453 -0.00040923696 -0.0014310665 -0.00046979473 -0.0003982681 0.00062653644
0.00072603393 -0.00066146656 -0.00071857875 -0.0014104593 -0.00025871323 0.000801033 0.00043128466 -0.0011607308
-0.0008839645 -0.00013157024 -0.0012498572 0.00045414257 -0.00051591406 -0.0001699948 0.00050619384 0.00041385723
0.00022106397 -0.0003911475 0.000602952 -3.9241335e-05 0.00061885064 -0.00029712147 -0.0005444359 -0.00013903371
-0.0012932817 -8.685331e-05 0.00056139287 -5.212717e-05 -0.0003788626 0.0008365016 -0.0005336002 -0.0002673848
0.0005539948 0.00062158966 -0.00042361103 -0.0003798605 -0.0010691832 0.00042828522 -9.5816824e-05 -0.00019462749
-0.00080029416 0.00015234576 0.0002924527 1.47656465e-05 0.00012504595 -0.00041815484 -0.00083802274 -3.6586396e-05
-0.00064839545 -0.00069770694 -0.00080959534 0.00025156184 -0.00014541498 -0.00047342433 -5.9225895e-06 -0.00015538272
0.00073412305 0.0002390497 -0.0001971536 0.00051323837 0.0002845011 -0.0009840172 -1.8872532e-05 -8.588075e-05
0.0004084291 0.00020849032 -0.00077578845 -0.00011170731 -0.00024196251 -0.00014136663 -0.00050280325 -2.5350528e-06
-0.0008886528 0.00021080107 0.00073671504 -0.0005398805 -0.0011748222 0.00017012536 5.1348055e-05 -0.00065399334
-0.000570861 -0.00028710323 -0.00038377944 7.466355e-05 0.00033815237 0.00015134105 0.0005773026 -0.0003001997
