lightning_logs/version_25/checkpoints/epoch=299-step=2400.ckpt (torch, 464377 bytes, 23 tensors)

model.0.weight f4 [1024]
000000 10 56 80 3f 26 0d 80 3f 27 2e 7f 3f d3 b4 80 3f
       1.0026264 1.0004013 0.996798 1.0055183
000010 10 6e 80 3f 10 0d 80 3f b9 de 7f 3f ee c7 7f 3f
       1.0033588 1.0003986 0.9994922 0.99914443
000020 3f fd 7f 3f 8c b0 7f 3f 49 fc 7f 3f 76 44 7f 3f
       0.999958 0.99878764 0.9999433 0.9971384
000030 ab 01 81 3f 26 fa 80 3f 31 69 80 3f 96 38 80 3f
       1.0078634 1.0076339 1.0032102 1.0017269
000040 ac 83 7e 3f 66 63 80 3f 4b 40 80 3f 68 86 80 3f
       0.99419665 1.0030334 1.0019621 1.0041018
000050 44 18 80 3f da ab 7f 3f 25 69 7f 3f 07 39 80 3f
       1.0007405 0.998716 0.9976981 1.0017403
000060 96 25 80 3f 84 13 80 3f 3f e4 7f 3f 86 72 80 3f
       1.001147 1.0005956 0.9995765 1.003495
000070 d1 5a 80 3f 72 19 80 3f 51 7f 80 3f 38 a4 80 3f
       1.0027715 1.0007765 1.0038854 1.0050116
000080 87 27 80 3f d9 22 81 3f fc 04 80 3f 94 d8 7f 3f
       1.0012063 1.008876 1.0001521 0.99939847
000090 7b 82 81 3f d6 82 80 3f a7 96 7f 3f b5 25 80 3f
       1.0117944 1.0039928 0.9983925 1.0011507
0000a0 17 e0 80 3f 61 f1 7f 3f 10 cf 7f 3f 06 34 80 3f
       1.0068387 0.9997769 0.9992533 1.0015876
0000b0 bb 03 80 3f c7 c8 7e 3f 7b 34 80 3f 87 61 7f 3f
       1.0001138 0.9952511 1.0016016 0.9975819
0000c0 0d 74 80 3f a8 50 80 3f 02 6a 80 3f b0 18 80 3f
       1.0035416 1.0024614 1.0032351 1.0007534
0000d0 c3 86 7f 3f ec 66 7f 3f ff 2d 80 3f 7e 18 7f 3f
       0.99815005 0.9976642 1.0014037 0.9964675
0000e0 e8 3a 80 3f 25 aa 80 3f ca 5f 80 3f a7 9d 7f 3f
       1.0017977 1.0051924 1.0029233 0.99849933
0000f0 8b 53 7f 3f 93 51 80 3f e6 9d 80 3f 80 6b 80 3f
       0.9973685 1.0024894 1.0048187 1.0032806
000100 fb 84 7f 3f 97 e2 7f 3f 6f 21 80 3f 9f 5e 80 3f
       0.9981229 0.99955124 1.0010203 1.0028876
000110 8d 01 80 3f 76 b9 7f 3f 33 78 7f 3f 54 dd 7f 3f
       1.0000473 0.99892366 0.99792784 0.99947095
000120 5c 13 80 3f 5b e5 7f 3f b0 33 80 3f a9 11 80 3f
       1.0005908 0.99959344 1.0015774 1.000539
000130 c8 47 80 3f cf 49 7f 3f f5 49 80 3f 53 13 80 3f
       1.0021906 0.99722 1.002257 1.0005897
000140 46 df 7f 3f 4c 11 80 3f 82 ec 7f 3f 22 c8 80 3f
       0.99950063 1.0005279 0.9997026 1.0061076
000150 a1 06 80 3f c5 86 80 3f 78 80 80 3f ff 02 80 3f
       1.0002023 1.0041128 1.0039206 1.0000914
000160 12 cf 7f 3f 47 36 80 3f ae 0d 80 3f 72 53 80 3f
       0.9992534 1.0016564 1.0004175 1.0025465
000170 59 92 80 3f 94 ab 7f 3f 13 ef 7f 3f fb a6 80 3f
       1.0044662 0.9987118 0.99974173 1.0050958
000180 f9 39 81 3f 17 d7 7f 3f 30 1c 7f 3f fc ca 7f 3f
       1.0095817 0.99937576 0.99652386 0.99919105
000190 49 69 7f 3f 9e 3e 80 3f c9 23 80 3f 24 c2 80 3f
       0.9977003 1.0019109 1.0010921 1.0059247
0001a0 5d 85 7f 3f e4 77 80 3f 6e 15 80 3f f8 22 80 3f
       0.9981287 1.0036588 1.000654 1.0010672
0001b0 73 f9 7f 3f 6f 62 80 3f c8 b2 7f 3f 2e 08 80 3f
       0.99990004 1.003004 0.99882174 1.0002496
0001c0 16 57 7f 3f 8a 66 80 3f 84 ec 7f 3f 01 f2 7f 3f
       0.9974226 1.0031292 0.9997027 0.99978644
0001d0 93 f0 80 3f a6 30 80 3f da 31 7e 3f 90 70 80 3f
       1.0073417 1.0014846 0.9929482 1.0034351
0001e0 5b 12 80 3f 84 a9 7f 3f 4b 37 81 3f 28 7b 80 3f
       1.0005602 0.99868035 1.0094999 1.0037584
0001f0 38 fe 81 3f f0 cb 80 3f 75 c4 80 3f 90 2e 80 3f
       1.0155706 1.0062237 1.0059954 1.001421
000200 69 2d 80 3f 4c 8d 7f 3f 03 75 80 3f 49 05 80 3f
       1.0013858 0.99824977 1.0035709 1.0001613
000210 a4 78 80 3f ad 31 80 3f 54 1f 80 3f 88 4c 80 3f
       1.0036817 1.001516 1.000956 1.0023355
000220 30 a1 7f 3f f7 6d 80 3f b0 e3 80 3f 12 db 7f 3f
       0.9985533 1.0033559 1.0069485 0.9994365
000230 4e 67 7f 3f 62 40 80 3f de 3a 80 3f 7d c8 7f 3f
       0.99767005 1.0019648 1.0017965 0.99915296
000240 df 1c 80 3f 9a 13 80 3f 7b 8d 80 3f 99 1f 80 3f
       1.0008811 1.0005982 1.0043176 1.0009643
000250 05 b5 7f 3f 69 39 80 3f 77 b4 7f 3f 12 2c 80 3f
       0.9988559 1.001752 0.9988474 1.0013449
000260 4b e4 7e 3f 29 e0 7f 3f c6 f5 7f 3f 71 02 80 3f
       0.995671 0.99951416 0.99984396 1.0000745
000270 c9 73 80 3f f3 0b 80 3f 2d ef 7f 3f c8 04 81 3f
       1.0035335 1.0003647 0.9997433 1.0079584
000280 95 63 7f 3f 07 2b 80 3f 9e b7 7f 3f 82 05 80 3f
       0.99761325 1.0013131 0.9988955 1.0001681
000290 62 c1 80 3f 21 88 7f 3f c0 5f 80 3f 60 1a 80 3f
       1.0059016 0.9981709 1.002922 1.0008049
0002a0 d3 31 80 3f 1e 94 80 3f 63 2a 80 3f e2 13 80 3f
       1.0015205 1.0045202 1.0012935 1.0006068
0002b0 21 b0 7f 3f 1c 44 7f 3f 11 5b 80 3f ee 81 7f 3f
       0.99878126 0.997133 1.0027791 0.9980763
0002c0 89 e3 7f 3f 8c 26 80 3f 85 1b 80 3f 7e bf 80 3f
       0.99956566 1.0011764 1.0008398 1.0058439
0002d0 27 3e 80 3f 51 6e 80 3f 30 3a 80 3f 8f 3b 80 3f
       1.0018967 1.0033666 1.0017757 1.0018176
0002e0 cc 7c 80 3f 9b 9c 7f 3f fb 29 80 3f 5b 60 80 3f
       1.0038085 0.99848336 1.0012811 1.0029405
0002f0 0b 49 7f 3f b2 ff 7e 3f 7a 33 80 3f b8 2d 7f 3f
       0.9972083 0.9960891 1.0015709 0.99679136
000300 dd 37 80 3f 09 0d 80 3f e6 a8 7e 3f 95 ec 7f 3f
       1.0017048 1.0003978 0.9947647 0.9997037
000310 d9 2a 80 3f ae 1c 81 3f bb af 7f 3f 4d 14 7f 3f
       1.0013076 1.0086877 0.9987752 0.9964035
000320 8b 18 80 3f b2 d2 80 3f 3a 23 81 3f 92 23 80 3f
       1.000749 1.0064299 1.0088875 1.0010855
000330 12 40 80 3f ad 95 80 3f f9 37 80 3f fe 15 80 3f
       1.0019553 1.0045677 1.0017081 1.0006711
000340 7e 15 80 3f a6 a9 7f 3f cf 13 80 3f 1a a7 7f 3f
       1.0006559 0.9986824 1.0006045 0.9986435
000350 ea d2 7f 3f 0e 8e 80 3f ad 38 80 3f 1c 73 81 3f
       0.99931204 1.0043352 1.0017296 1.0113254
000360 ef ee 7f 3f dc 6c 80 3f c7 3f 80 3f 42 3e 80 3f
       0.9997396 1.0033221 1.0019463 1.0019
000370 d3 6b 7f 3f 99 3f 80 3f 58 0b 80 3f ef 22 80 3f
       0.997739 1.0019408 1.0003462 1.0010661
000380 20 ec 7f 3f ea 91 7f 3f c6 15 80 3f bc 2a 81 3f
       0.99969673 0.9983202 1.0006645 1.0091166
000390 a6 8e 7f 3f 6f ae 80 3f f6 1b 81 3f 71 41 7f 3f
       0.9982704 1.0053233 1.0086658 0.9970923
0003a0 11 22 80 3f 3a 13 81 3f 54 4f 7f 3f d7 39 80 3f
       1.0010396 1.0083992 0.9973042 1.0017651
0003b0 79 94 7f 3f 79 4c 80 3f 4a 89 81 3f 4d 54 7f 3f
       0.99835926 1.0023338 1.0120022 0.9973801
0003c0 fc 01 80 3f 72 d7 7f 3f 1b 60 80 3f 89 d1 7f 3f
       1.0000606 0.9993812 1.0029329 0.999291
0003d0 92 46 80 3f bc 2b 80 3f 53 07 7f 3f be 10 80 3f
       1.0021536 1.0013347 0.9962055 1.0005109
0003e0 9b b9 7e 3f 7c b1 7f 3f c1 66 80 3f f9 11 80 3f
       0.9950196 0.99880195 1.0031358 1.0005485
0003f0 45 4d 80 3f 84 76 7e 3f 5c 13 81 3f 67 75 7f 3f
       1.0023581 0.9939959 1.0084033 0.99788517

model.0.bias f4 [1024]
000000 a0 f4 4a bb b2 e5 d4 bb be 71 4f ba 35 48 98 3a
       -0.0030968562 -0.0064971084 -0.0007913372 0.0011618199
000010 a5 e6 90 3b b2 5b 21 b8 80 71 c8 b9 a9 c3 20 3b
       0.004422026 -3.847079e-05 -0.00038231537 0.0024530685
000020 1a 8b 1b 3b ed 7d 94 bb c3 d9 97 bb 3b de 71 3b
       0.0023734034 -0.004531613 -0.0046341135 0.0036906141
000030 5b 95 1a bb df 4c f1 bb 01 ac 9d bb 4c 2e 38 ba
       -0.0023587558 -0.0073639 -0.004811764 -0.0007025942
000040 23 6b ae ba ab 24 97 3b e7 5b 51 bb 5e 7d d7 ba
       -0.0013307076 0.0046125255 -0.0031945647 -0.001644056
000050 8a 3b 20 bb e7 e7 44 bb d4 b7 e0 bb 5e c3 db bb
       -0.002444955 -0.003004545 -0.0068578515 -0.006706639
000060 14 80 e9 bb e0 8b 2a 3b c9 64 ff 3b 10 43 b6 3b
       -0.007125864 0.0026023313 0.007793997 0.0055621937
000070 67 a1 d7 bb 9e ca f0 3b b0 2e 9a 3a 9f 91 00 3b
       -0.00658052 0.0073483726 0.0011763182 0.0019618047
000080 32 35 ed b9 36 23 5e ba 6e dc 0e bb f6 7b 56 bb
       -0.00045243796 -0.0008473875 -0.0021798867 -0.0032727695
000090 dc 77 03 3b ef 6d 59 ba 05 31 ab ba 32 8e 3a 3b
       0.0020060455 -0.00082942744 -0.0013060874 0.0028466103
0000a0 73 7e fb 3a cf 63 ed bb 26 11 37 3b 36 02 28 3b
       0.0019187465 -0.007244564 0.0027933805 0.0025636083
0000b0 e0 d2 70 bb 2f b9 04 bb cf 66 ce bb bf 62 17 bb
       -0.0036746785 -0.002025198 -0.006298877 -0.0023099629
0000c0 e4 1e 07 bc 46 c8 0c bb 03 2a 09 bc 55 71 02 bc
       -0.008247111 -0.0021481677 -0.008371833 -0.007961591
0000d0 25 88 f1 b9 39 99 8e 3b 55 d1 f0 bb 48 05 d1 bb
       -0.00046068538 0.0043517617 -0.007349173 -0.0063788034
0000e0 c3 c9 bb 3a d5 c8 49 bc 77 ba da ba 0b 49 04 bb
       0.0014327097 -0.0123159485 -0.0016687651 -0.0020185139
0000f0 eb c8 cd bb 0e c5 75 3b 09 f0 08 3c 29 8c 24 bb
       -0.006280055 0.0037501487 0.00835801 -0.0025107956
000100 62 d4 c5 ba 64 aa c2 bb 59 52 c6 3b 9f 61 80 bb
       -0.0015093202 -0.0059407223 0.006052297 -0.0039178873
000110 35 ab 32 ba 54 15 1a bc 7a 49 63 bb 93 0b 75 3b
       -0.0006815673 -0.009404499 -0.0034681247 0.0037390932
000120 60 3b 16 b9 26 7c 01 bb 93 51 34 3c 50 3a ac 3b
       -0.00014327234 -0.0019757836 0.011005777 0.005255975
000130 73 0b fb 3a 49 04 1d 3c 4d a9 9e bb e3 7f 04 bb
       0.0019153192 0.009583541 -0.0048419596 -0.0020217828
000140 4c 33 85 bb 76 f6 7c 3b b2 e7 33 3b ba 9c 21 bb
       -0.004064953 0.003859905 0.0027451334 -0.0024660067
000150 51 bc 78 bb 47 de c3 ba 59 6d b2 3a 7d c1 c2 bb
       -0.0037954042 -0.0014943563 0.001361291 -0.0059434758
000160 73 9c a3 bb ea cf 99 3b 0a bc e0 bb 68 ce 71 bb
       -0.0049930154 0.0046939747 -0.0068583535 -0.003689671
000170 8a a7 14 bb 96 98 04 3c 6e d5 2a b7 b6 56 12 bc
       -0.002268287 0.00809302 -1.0182483e-05 -0.008931806
000180 05 31 d8 ba b3 19 e5 ba a2 87 d7 3a 6c 61 af 3a
       -0.0016494101 -0.0017478972 0.001644362 0.0013380474
000190 f2 af a7 bb 3e 9f 90 bb 18 fe e1 b9 12 26 b8 3b
       -0.00511741 -0.0044135144 -0.0004310466 0.0056197727
0001a0 02 b1 e7 bb 01 d8 f0 3a ea fa e8 3a 1f 1e a1 bb
       -0.0070706615 0.0018374921 0.0017774974 -0.004916921
0001b0 11 fd 34 3a 99 7a 1e bb 96 b7 6c 3b 35 ce b0 bb
       0.0006904165 -0.002418196 0.0036120168 -0.0053956755
0001c0 92 15 93 3b 99 d6 a8 bb 6b 17 76 bb 42 9b 52 3b
       0.0044886554 -0.005152535 -0.003755058 0.0032135998
0001d0 fb 31 78 3b d1 29 73 bb 92 50 b9 b9 94 fd cf 3b
       0.0037871588 -0.0037103782 -0.0003534598 0.0063473675
0001e0 12 fe 20 bb 15 c6 66 3b 38 9a ae bb 32 ba fd ba
       -0.00245655 0.003521328 -0.005328443 -0.0019357859
0001f0 a7 cf 55 bb 45 96 b0 3a 27 7f 90 3b c6 12 93 ba
       -0.003262499 0.0013472518 0.004409689 -0.0011220805
000200 d3 04 85 bb 0c c9 59 3b d8 7a 46 b9 c2 d6 49 bb
       -0.004059413 0.0033231406 -0.00018928514 -0.0030798172
000210 2c 93 79 ba fa 1a 2c bb 2b c5 3c 3a 30 53 d4 ba
       -0.00095205265 -0.0026261196 0.0007201011 -0.0016199108
000220 41 91 56 bb ad 9a 89 bb 3f e8 bb 3b c8 6c b7 38
       -0.0032740387 -0.004199347 0.005734473 8.746382e-05
000230 c6 10 f5 bb c6 ad 00 bb a7 1d 13 bb f2 c9 77 bb
       -0.007478806 -0.0019634827 -0.0022448094 -0.0037809578
000240 70 50 02 3c 7d ee 03 bc 16 eb 4f 3b 0c 8d b1 3b
       0.007953748 -0.0080524655 0.0031725815 0.0054184254
000250 39 f5 f9 3a 12 75 8f ba 16 cf 5c 3b b5 00 eb 3a
       0.0019070274 -0.0010944924 0.0033692769 0.0017929288
000260 8d 53 cb bb 77 90 db ba 97 55 ad 3b 2c f7 dc bb
       -0.0062050284 -0.0016751428 0.005289744 -0.0067433324
000270 c4 15 ce ba 45 fd 10 3b f9 12 2c 3b d3 43 19 bb
       -0.0015723039 0.0022123617 0.0026256426 -0.0023386374
000280 fa ac 17 3c 5e c9 01 bb c8 e2 35 bc 7d fa 25 3b
       0.009257549 -0.0019803862 -0.011101432 0.0025326305
000290 bc 9c b1 bb de 68 51 bb 4e 19 51 ba 73 1e 88 bb
       -0.0054202955 -0.0031953375 -0.0007976488 -0.0041540205
0002a0 35 c3 7c 3b 92 c2 bc 3b e3 f7 ca b9 63 90 53 bb
       0.00385685 0.0057604993 -0.00038713132 -0.0032282106
0002b0 3a 0b 38 bc 01 3c 94 3b 93 17 4f 3b 59 1f 7d bb
       -0.011233145 0.0045237546 0.0031599745 -0.003862342
0002c0 a1 f1 39 3c d5 89 c9 3a 1f a7 ed ba 87 8c 4a b9
       0.011349113 0.001537616 -0.0018131471 -0.00019316572
0002d0 64 e6 35 bb 32 ba cd bb b2 ff 3f 3b a4 21 85 3b
       -0.0027755732 -0.0062782997 0.0029296693 0.004062848
0002e0 e7 7c 10 39 f2 cf fe ba d2 df 6d 3a 72 19 70 ba
       0.0001377944 -0.0019440635 0.00090741843 -0.0009159065
0002f0 a1 49 e1 3b 90 05 0f bb ec ad 0d bc 71 34 98 3b
       0.0068752323 -0.0021823384 -0.008647423 0.0046449234
000300 7b 15 06 bc 79 5c 1e 3b 63 ca 4a 3b 58 66 28 3b
       -0.008183832 0.0024164005 0.0030943386 0.0025695767
000310 c6 31 96 ba e6 8c 03 3b 1b cb 28 ba 39 55 b4 ba
       -0.0011458925 0.0020072996 -0.00064389565 -0.0013758308
000320 74 82 da ba dc c4 0c bc dc f1 72 bb 55 ac 78 3b
       -0.0016670958 -0.008591857 -0.003707043 0.0037944515
000330 4f a8 4a 3b 4e 37 96 3b e4 24 ef 3b 02 9f 53 3b
       0.0030923074 0.0045842296 0.007298099 0.003229082
000340 fd 37 e6 b9 81 f4 17 3b 0c 3e a5 ba 11 c3 a7 3b
       -0.00043910733 0.0023186507 -0.0012606992 0.0051196893
000350 54 c1 d5 3b 11 8f 9b bb b1 f3 94 b9 ca 77 91 bb
       0.0065232906 -0.0047472795 -0.00028410324 -0.004439329
000360 20 a2 14 bb d6 dc ec 3b 24 88 65 b9 34 23 6c bb
       -0.0022679642 0.007228474 -0.00021889858 -0.0036031725
000370 04 7d fe bb 23 fd 2c 39 ee 04 06 bb 3c 66 53 bb
       -0.007766368 0.00016497499 -0.0020449716 -0.0032256981
000380 3d e3 be 39 85 84 43 ba 1d f6 11 b8 cc 56 78 3b
       0.0003640893 -0.00074584066 -3.4799905e-05 0.0037893532
000390 f4 d7 eb 3a 84 be e3 3b d5 44 9a bb 4b 8e bb bb
       0.0017993436 0.0069502015 -0.0047079124 -0.0057237498
0003a0 1b d2 f3 3a b1 8c 91 ba 6e 65 26 bb 67 c5 29 bb
       0.0018602045 -0.0011104551 -0.0025390047 -0.0025905014
0003b0 ab 0b ab 3b 39 e3 c2 bb 8b 14 a6 bb 50 ea ba 3a
       0.005219897 -0.005947497 -0.005068367 0.0014260504
0003c0 7d f1 1e bc 15 e1 4b ba 77 84 fb bb 0c cd 8c 3b
       -0.00970113 -0.0007777375 -0.007675703 0.0042969044
0003d0 89 f3 c7 ba f3 1b 0f b9 48 cf 27 bc b7 d3 83 bb
       -0.0015255074 -0.00013647955 -0.010242291 -0.004023041
0003e0 ef 7e 37 3b 07 28 66 3b 2f 8e 38 bb 58 e9 d7 b9
       0.0027999242 0.0035119073 -0.002816092 -0.0004118185
0003f0 5b bd d4 3b 52 dc 93 bb f8 16 06 3c af f1 81 b9
       0.0064922995 -0.004512348 0.008184187 -0.00024784866

model.0.running_mean f4 [1024]
000000 59 7b 6b bd ae 73 89 bc 45 73 ef 3b ba 2d da bc
       -0.05749068 -0.016778793 0.0073074424 -0.026633132
000010 6f f6 21 3b 14 65 66 bc bb 38 24 3d 7a 9e a3 bb
       0.0024713536 -0.014062185 0.040093165 -0.004993257
000020 31 c7 80 bb 50 a7 06 3d 2e f5 3b bc 47 05 a7 3b
       -0.0039299955 0.032874405 -0.01147203 0.0050970647
000030 01 33 86 bb a7 fa 43 bc 33 46 8e 3b 81 b5 32 3c
       -0.0040954356 -0.011961616 0.0043418645 0.010907532
000040 ed d5 12 bd cc 91 d0 bc e1 2c 02 ba f8 8d 00 3c
       -0.035848547 -0.025460146 -0.0004965794 0.007846348
000050 1f e3 82 3c f0 04 05 ba 6b d2 9b 3c bb 3f 92 3d
       0.01597744 -0.0005074283 0.019021234 0.07141062
000060 4f 68 9c 3c 3f 85 f0 3c 7c e1 cc bc 6a e6 3c 3c
       0.019092707 0.029360412 -0.025009863 0.011529544
000070 a0 98 c1 bb e8 03 31 bc 36 4a cf 3c db 1d 83 bc
       -0.005908087 -0.010804154 0.025303941 -0.016005447
000080 c2 b8 f6 bb 65 45 23 3c f4 83 56 bb f8 06 77 3c
       -0.007529349 0.009965275 -0.0032732459 0.015077345
000090 07 fe 28 bc 19 8a d4 3b 56 aa e5 bc 0a 22 94 bb
       -0.010314471 0.006486189 -0.028035324 -0.0045206593
0000a0 37 0b 28 3c fe 22 ce 3c 95 ef 7e b9 f0 24 3c bd
       0.01025658 0.02516317 -0.00024312579 -0.045933664
0000b0 ff e3 c3 bc 17 a6 37 3b 71 b3 45 b9 cb ef c5 bc
       -0.023912428 0.0028022581 -0.00018854231 -0.024162194
0000c0 d5 c7 46 bc a8 8f a9 3d 8e c2 d0 bc 41 f4 90 bc
       -0.012132605 0.082793534 -0.025483396 -0.017694594
0000d0 55 7d 9a bc 91 dc 14 3c 8e 02 1b 3c fd 2c 17 bc
       -0.018858591 0.00908579 0.009461058 -0.009227035
0000e0 85 3d 05 3d 09 74 1b 3c 72 f3 cb bb f2 b2 35 bc
       0.032529373 0.009488114 -0.0062240893 -0.011090027
0000f0 de d0 2b 3c c9 fc b6 bc 4b f6 42 bc e0 5d bc 3c
       0.01048681 -0.022337334 -0.011899541 0.022993982
000100 ae 23 f4 39 6e da 6e bc a4 49 9e 3b 37 a4 dd 3b
       0.0004656589 -0.014578445 0.004830556 0.0067639607
000110 5e 04 19 3a 9c 24 ce 3b a6 25 18 3d f2 2d 37 3c
       0.00058371376 0.0062909853 0.03714528 0.011180388
000120 d8 53 85 bc dc 69 2f 3d 84 de f0 3c fa a7 23 bc
       -0.016275331 0.042825565 0.029402979 -0.009988779
000130 34 2d d7 3c 4d 1f 95 bc 6a 2c 8a 3c b1 17 8f bc
       0.026266672 -0.018203402 0.016866881 -0.017467352
000140 e8 98 10 bc 2c 6a e2 3c b3 18 51 bd a6 92 ae 3c
       -0.008825518 0.027638517 -0.051048946 0.021310162
000150 62 f0 86 bc e2 06 22 bd 56 82 c1 3c 16 94 8f bc
       -0.016472045 -0.039557345 0.02362172 -0.017526668
000160 8f ef 47 3c 42 2f b8 3c c9 f0 b8 bc ba c3 bf bb
       0.012203111 0.022483472 -0.022575753 -0.00585219
000170 27 56 40 bc c7 9c 58 3c 42 42 49 3c 80 97 a1 3c
       -0.01173929 0.013220972 0.0122838635 0.019725561
000180 a5 7e 1c 3c cd f6 6c 3d ff 8f 07 bc 1c 3a bd 3c
       0.009551679 0.057852555 -0.008274077 0.023098998
000190 5f f5 63 3c f2 66 d3 3c 00 48 17 bb e0 f6 40 3c
       0.0139134815 0.025805924 -0.0023083687 0.01177761
0001a0 c8 83 9a 3d 66 23 84 3c a9 b3 36 3b 1c c5 bb bc
       0.075446665 0.01613016 0.0027878082 -0.022921138
0001b0 5b 2e fa bc 93 2f 4e 3d 8f d0 31 bc 46 0a 19 3b
       -0.030539682 0.05033834 -0.010852947 0.002335207
0001c0 7e 02 86 3d 03 a3 83 bb 8f 1b af bb 8f 0a 90 3c
       0.06543444 -0.0040172352 -0.0053438614 0.01758316
0001d0 b6 4c ce ba 84 3c d6 bb 13 bb c8 39 f1 8b dc bb
       -0.0015739414 -0.0065379757 0.00038286354 -0.0067305495
0001e0 b8 5b af bc a4 21 0d bc 3c d4 83 bc 6b 0a 53 bc
       -0.02140604 -0.008613978 -0.016092412 -0.012880902
0001f0 a4 d0 4a bd 6e 87 b1 bc aa 46 2a bc ef 65 a8 bc
       -0.04951538 -0.021671023 -0.010392824 -0.020556418
000200 e7 b1 ac 3c eb 8a a2 bc f5 f7 83 bd af bd 69 bc
       0.021080924 -0.019841632 -0.064437784 -0.0142664155
000210 5c 7b 87 3c 2e d4 88 bb 3c 26 ef b9 4e 7e e4 bc
       0.016538315 -0.0041756844 -0.0004561412 -0.027892258
000220 f9 dc 2e 3d 7b 32 b6 3c b9 b9 3d bb 2b 8c b3 bc
       0.042691205 0.022240868 -0.002894981 -0.021917423
000230 3a 7b 5f 3b 55 ac 2a bd fc 6b 2b bc aa e0 d6 bb
       0.0034100548 -0.041668255 -0.010462757 -0.0065575438
000240 04 40 55 bb 06 f7 1a bc 93 97 36 3d d3 2d bb bc
       -0.0032539377 -0.009458309 0.044578146 -0.022849
000250 b2 86 06 bd 94 69 c9 3a 96 68 13 bc 2a a4 69 39
       -0.0328433 0.0015366548 -0.008997103 0.00022281767
000260 0a 2b e4 3b 33 ae a5 b9 9c 2d 82 3c e4 f5 da 3c
       0.0069631385 -0.0003160104 0.015890889 0.026728578
000270 ee 35 e2 3c 91 fa 06 bc 09 cf 93 bb 45 1b eb 3b
       0.027613606 -0.008238451 -0.0045107645 0.0071748816
000280 98 4e d4 3a a4 63 e1 3c 76 66 80 3c 42 00 90 3b
       0.0016197739 0.027513333 0.015673857 0.004394562
000290 a7 73 a7 bb ff cf b1 bb 74 b3 65 bd 79 32 e4 bb
       -0.0051102224 -0.0054264064 -0.056079343 -0.0069640246
0002a0 31 11 1b bd 22 a8 d6 3c f2 16 e9 3c 1d bd fa 3c
       -0.037858192 0.026203219 0.028453324 0.030607754
0002b0 87 c9 d1 3c a6 d2 00 bc 2d 0e b7 3c 39 1a 38 3c
       0.025608791 -0.0078627225 0.022345627 0.011236721
0002c0 54 04 40 bc 7c c5 55 bc 38 21 94 bc 53 8b fa ba
       -0.011719782 -0.013047572 -0.018082246 -0.0019115008
0002d0 89 b7 01 bd ef f3 80 bc 5d 36 c5 bb b4 13 32 3c
       -0.031669173 -0.015741317 -0.0060184435 0.010868955
0002e0 bc 05 3a bc f9 18 ca 3c 57 eb 41 3d 39 25 81 bc
       -0.011353906 0.024670111 0.04734358 -0.01576482
0002f0 d8 b5 80 bc a4 72 07 bd 78 ba 17 3d 99 a9 3b 3c
       -0.01571171 -0.033068314 0.037043065 0.011454009
000300 ce 8b 61 3c f9 68 03 3d 35 73 39 3c c2 3b 42 3c
       0.013766242 0.03208253 0.011318971 0.011855068
000310 a1 79 19 bc e7 51 83 bb 80 8e a7 3c f9 78 01 3d
       -0.0093673775 -0.0040075663 0.020453691 0.03160951
000320 cd c2 d4 3b ec 4e 4e bc 5c cf e1 3a bf 71 cf bc
       0.0064929486 -0.012592059 0.0017227936 -0.025322793
000330 7a 3d c7 bc 44 3b 13 3c e1 74 4c bc e1 c2 5b bc
       -0.024321306 0.008986298 -0.012479038 -0.013413162
000340 67 e3 8e 3c 4e 96 10 bc 08 b2 06 bd 6b 46 b3 bc
       0.017442418 -0.008824898 -0.032884628 -0.021884164
000350 ee e0 63 3c a7 66 d0 3c 75 52 e7 3b ff dd 75 bc
       0.013908608 0.025439573 0.00705939 -0.015006541
000360 5e 22 4b 3c b7 2f e0 3c a0 b5 fb bb 88 d8 e7 bb
       0.0123983305 0.027366502 -0.0076815635 -0.007075373
000370 0b d0 18 3c 96 f4 9a bc 64 4c 4a bd 74 4c b6 bc
       0.009326945 -0.018915456 -0.049389258 -0.022253253
000380 69 2a b2 3c fc 2a 5f 3c f1 30 51 3b f6 cd a0 bc
       0.021748738 0.013621088 0.003192004 -0.01962946
000390 bd 5f 09 3b 5c 70 a0 bc a8 5c 10 bc a1 a7 03 bd
       0.0020961605 -0.019584827 -0.0088111535 -0.032142285
0003a0 d1 24 9b bb 3c 28 ef bc 78 f2 3c bc 30 e2 93 bc
       -0.0047346135 -0.02919399 -0.011532418 -0.01805219
0003b0 f7 22 f8 bc 3d d2 0d 3d b3 0e ad 3c 58 2b 8c bc
       -0.03029011 0.034624327 0.021125173 -0.017110512
0003c0 5c 9c 04 3d 44 75 bd ba 46 70 bc bb 71 ec c9 3c
       0.03237568 -0.0014454504 -0.0057506887 0.024648877
0003d0 8a b1 bc bc 16 60 a5 b9 a1 48 44 3c ff 14 b4 3c
       -0.023033876 -0.00031542842 0.011980207 0.021982668
0003e0 90 f0 14 3a 4b 2c dc 3c b9 88 8e bc bc 78 c9 3c
       0.00056815986 0.02687659 -0.017399179 0.024593703
0003f0 2e 1a 9e 3c fc 71 bd 3a 26 21 7f 3c d1 b4 b6 3c
       0.019299593 0.0014453526 0.015571868 0.022303017

model.0.running_var f4 [1024]
000000 78 c1 1d 39 37 a4 23 39 7a 54 11 39 8a 21 07 39
       0.0001504476 0.00015606066 0.00013859748 0.00012887098
000010 b9 11 22 39 33 a8 38 39 48 ce 22 39 b9 2c fd 38
       0.00015456126 0.00017610267 0.0001552637 0.0001207231
000020 48 a3 f5 38 d1 58 29 39 26 dd 3b 39 4f 52 45 39
       0.00011712924 0.00016150183 0.00017916094 0.00018818046
000030 03 a7 33 39 4c 21 08 39 fa f8 21 39 63 c3 07 39
       0.00017132987 0.00012982375 0.00015446907 0.0001294739
000040 ce a5 e1 38 14 fe 25 39 f7 9f 4f 39 ea b6 1b 39
       0.000107597196 0.00015830278 0.0001980065 0.00014850093
000050 97 74 2b 39 fa 20 1c 39 5a 01 f9 38 24 2c 46 39
       0.00016351264 0.00014889604 0.00011873497 0.00018899195
000060 97 c0 07 39 22 62 22 39 06 36 3b 39 cf d0 fa 38
       0.00012946349 0.00015486081 0.00017853835 0.000119598226
000070 bf 4a 27 39 6f 17 bf 39 87 9e 83 39 40 8f 41 39
       0.00015954206 0.00036447818 0.0002510438 0.00018459279
000080 c7 ab 44 39 ac c8 f6 38 d5 be 49 39 7f 27 5c 39
       0.00018756009 0.00011767572 0.00019239944 0.00020995548
000090 73 47 04 39 ec b4 b3 38 2a 8f 0d 39 c4 32 8a 39
       0.00012615118 8.5690845e-05 0.0001350014 0.00026359234
0000a0 e9 01 8c 39 a5 72 34 39 88 7f 44 39 89 67 0d 39
       0.00026704304 0.00017208846 0.00018739526 0.00013485378
0000b0 a2 02 4a 39 b9 b1 6b 39 0a 86 83 39 7e a9 5b 39
       0.00019265202 0.00022477553 0.00025086134 0.00020948608
0000c0 1a ed 0a 39 81 32 b8 39 86 1d 7a 39 4b 2c 83 39
       0.00013249033 0.00035132843 0.00023852856 0.00025019268
0000d0 17 73 39 39 bb 13 5a 39 26 fe 0f 39 6f 86 03 39
       0.00017685849 0.0002079745 0.0001373222 0.00012543214
0000e0 0a 1a 78 39 f4 a1 ce 38 98 6e 0b 39 d7 6b 16 39
       0.00023660823 9.8530116e-05 0.00013297272 0.00014345288
0000f0 71 ef 5e 39 ff 89 5c 39 7c ff 89 39 5f 55 46 39
       0.00021260769 0.00021032243 0.00026321027 0.00018914555
000100 93 ec 04 39 4a 66 df 38 b6 5a 5d 39 c8 0d 19 39
       0.00012676632 0.000106525215 0.00021109995 0.00014596351
000110 41 21 0c 39 a5 f9 31 39 31 62 60 39 3c 00 5a 39
       0.00013363828 0.00016973035 0.00021398884 0.00020790187
000120 98 bf 5b 39 1e 24 49 39 cb cf 42 39 40 cf 4b 39
       0.00020956842 0.00019182308 0.0001857869 0.00019436795
000130 92 4c dd 38 56 2a 3c 39 86 3a 25 39 fb 57 58 39
       0.000105523635 0.00017944849 0.00015757428 0.0002063214
000140 48 05 57 39 fd a8 e2 38 bd e1 53 39 09 db 13 39
       0.00020505965 0.00010807996 0.00020206622 0.0001410061
000150 cb a4 01 39 1a 31 aa 39 8c b1 31 39 b5 c1 7e 39
       0.00012363789 0.0003246151 0.00016946177 0.00024295489
000160 6f c8 fb 38 8f 14 82 39 f0 6e cb 39 56 9f 47 39
       0.00012005946 0.0002481085 0.00038801832 0.00019037476
000170 f4 16 07 39 6b cf 63 39 a2 44 2c 39 71 b5 44 39
       0.00012883154 0.00021725676 0.00016428766 0.00018759609
000180 4d c3 26 39 e1 19 2f 39 e8 69 3d 39 d1 c4 a5 39
       0.00015903749 0.00016698941 0.00018063898 0.00031617892
000190 0a 4a 20 39 b5 0b 08 39 f1 c3 52 39 27 c7 ff 38
       0.00015286371 0.00012974332 0.00020100155 0.000121964425
0001a0 5e 87 31 3a 42 2e 31 39 31 e7 45 39 d0 d1 73 39
       0.00067721854 0.00016897268 0.0001887351 0.00023252447
0001b0 27 e3 23 39 a0 42 28 39 30 11 2c 39 d8 1a fc 38
       0.00015629512 0.00016046548 0.00016409601 0.000120212964
0001c0 5c b1 3c 39 d1 22 51 39 21 55 78 39 fc b9 88 39
       0.00017995149 0.00019944763 0.00023682836 0.0002607851
0001d0 38 7c f9 38 34 53 3a 39 2f 62 5d 39 a5 48 9e 39
       0.00011896383 0.00017769338 0.00021112779 0.00030190233
0001e0 50 4b 6e 39 d7 f6 1f 39 bf e5 38 39 1b e2 48 39
       0.00022725505 0.00015255377 0.00017633195 0.00019157717
0001f0 f9 0c 1f 39 ee 8e e0 38 7c 30 c7 38 e7 6f ef 38
       0.00015168254 0.00010707775 9.4980904e-05 0.000114172515
000200 27 00 47 39 3c a2 9b 39 e8 09 22 39 91 5c c7 38
       0.00018978176 0.00029684778 0.00015453214 9.506301e-05
000210 03 ac 52 39 44 41 03 39 d0 7c 05 39 7e ff 42 39
       0.0002009124 0.00012517447 0.00012730365 0.0001859646
000220 7a d0 78 39 78 1d 11 39 c5 a9 32 39 bb 04 3b 39
       0.00023728787 0.00013839256 0.00017038647 0.00017835472
000230 3b 57 0a 39 02 f5 22 39 41 a5 27 39 c7 68 28 39
       0.00013193201 0.00015540796 0.00015987923 0.00016060761
000240 4e 0c b9 39 39 75 6d 39 9d e7 51 39 23 46 0d 39
       0.00035295117 0.0002264575 0.00020018076 0.00013472936
000250 ef 6d 90 39 34 6f 57 39 73 51 74 39 78 ea 2e 39
       0.00027547727 0.00020545424 0.00023299996 0.0001668128
000260 3a f2 0d 39 85 98 71 39 4a ce f9 38 08 e6 1f 39
       0.00013537044 0.00023040369 0.000119116696 0.00015249115
000270 11 0b 21 39 8f d3 0f 39 d4 17 a2 39 ae af 38 39
       0.00015358279 0.00013716354 0.000309168 0.00017613053
000280 10 73 1e 39 f1 a9 1d 39 04 ec 03 39 a6 15 1a 39
       0.00015110918 0.00015035995 0.00012581056 0.00014694649
000290 92 62 07 39 a3 21 e0 38 bc 5f 0f 3a 82 69 15 39
       0.00012911324 0.00010687418 0.00054692826 0.00014249052
0002a0 0f af 4e 39 d0 dd 45 39 52 da 1b 39 e2 fc 2a 39
       0.00019710905 0.00018870016 0.00014863283 0.0001630667
0002b0 c5 1c 3b 39 ca 56 f3 38 a6 1c 81 39 18 ee 57 39
       0.00017844427 0.00011603309 0.00024626142 0.00020592695
0002c0 48 0d f8 38 dc 5a 15 39 eb e6 f6 38 cd e6 88 39
       0.00011828035 0.00014243595 0.00011773206 0.000261119
0002d0 96 f9 31 39 59 9c 6c 39 b4 5a 89 39 05 19 4a 39
       0.00016973013 0.00022564958 0.00026198255 0.00019273542
0002e0 b0 84 2a 39 b4 c1 13 39 b4 bd 65 39 e8 34 2a 39
       0.00016261893 0.00014091172 0.00021909812 0.00016232172
0002f0 14 24 34 39 f4 cd 28 39 5c ac 91 39 13 3e 41 39
       0.00017179578 0.00016098452 0.00027784973 0.00018429039
000300 ae 6a 77 39 70 f4 14 39 96 d5 16 39 89 5f 6c 39
       0.00023595497 0.0001420544 0.00014384682 0.00022542303
000310 51 50 3e 39 7c 6d 2e 39 86 32 37 39 6e 37 3a 39
       0.00018149732 0.00016634719 0.00017471061 0.00017758991
000320 91 94 1b 39 71 dc 2c 39 d0 2c 45 39 32 02 0b 39
       0.00014837297 0.00016485319 0.00018804078 0.00013256891
000330 3f ec 14 39 90 d6 23 39 fd ce 16 39 a1 90 11 39
       0.00014202388 0.00015624822 0.00014382224 0.00013882156
000340 01 4f 1c 39 92 1e 1b 39 da c9 38 39 17 9e 0c 39
       0.0001490675 0.0001479334 0.00017622803 0.00013410333
000350 9d 83 05 39 66 d3 3a 39 15 58 13 3a 6a 94 e1 38
       0.00012732898 0.00017817094 0.000562073 0.0001075648
000360 4b a0 ff 38 b0 88 10 39 be 8e d8 38 9c 5b 59 39
       0.000121892044 0.0001378383 0.000103262704 0.0002072886
000370 42 04 17 39 92 a2 17 39 45 1e 17 39 62 45 53 39
       0.00014402068 0.00014461044 0.00014411758 0.00020148375
000380 64 b2 4a 39 9f 66 1e 39 d9 60 e2 38 4b 02 d1 38
       0.00019330677 0.00015106284 0.00010794559 9.966324e-05
000390 3b 7a ea 38 cc 31 1a 39 d5 a5 0f 39 c8 52 ce 39
       0.00011180757 0.00014705135 0.0001369932 0.0003935306
0003a0 df 7a 2b 39 1e 38 51 39 4e 43 d6 38 90 7e f8 38
       0.00016353604 0.00019952698 0.00010216852 0.000118491356
0003b0 95 bd 39 39 ea dc 1a 39 fc 96 20 39 d9 14 06 39
       0.000177136 0.00014768881 0.00015315035 0.00012787002
0003c0 61 f8 09 39 1b 23 13 39 c2 c8 51 39 ec fc 56 39
       0.00013157866 0.0001403209 0.00020006581 0.00020502851
0003d0 d6 d6 64 39 84 05 fd 39 01 18 10 39 b8 0c f8 38
       0.00021823807 0.0004826003 0.00013741852 0.000118279306
0003e0 87 f2 2d 39 5b d5 fb 38 5e 42 2f 39 59 91 16 39
       0.00016588914 0.00012008353 0.00016714024 0.00014359261
0003f0 1c 24 3f 39 88 c1 e8 38 4b e1 22 39 0e 12 0f 39
       0.00018228631 0.0001109867 0.00015533452 0.00013644269

model.1.weight f4 [32, 1024]
000000 5d ac b6 bb 60 ec 73 3c c6 39 57 bc 88 1c 4e 3c
       -0.0055747465 0.014887899 -0.013136333 0.012580045
000010 e8 b4 f5 3c 8a 84 92 bc 8d 64 dc 3c 3a 80 94 3b
       0.02999349 -0.017885465 0.026903415 0.0045318874
000020 1c d4 bf 3c 5c 8e 4c 3b a0 50 90 3c d8 63 97 3b
       0.023416571 0.0031212782 0.01761657 0.0046200566
000030 a7 69 00 3d f3 98 07 3c 11 94 33 bc 6b bc 22 3c
       0.031350758 0.008276212 -0.010960595 0.009932618
000040 6e a1 1b bc 1f 82 c9 bb b3 3c 84 bc 6d 0d 97 3c
       -0.009498937 -0.006149545 -0.016142225 0.01843902
000050 9a 86 b1 bc 6f ea ca bb 2d 7f 69 bc fc 86 87 bc
       -0.021670628 -0.0061924974 -0.0142515125 -0.016543858
000060 10 9e 03 3b 1b 85 ed bc c5 30 a4 3c 25 5b 01 bd
       0.0020083226 -0.028994134 0.020042786 -0.031581063
000070 8c 15 cc 3c 3d cf 39 3b 72 49 43 bc 0e 06 c2 3c
       0.024912618 0.0028352283 -0.011919366 0.023684528
000080 7f 36 c4 3b e2 2a 05 3d 30 e2 49 3b 84 5f 58 bc
       0.0059879418 0.0325116 0.0030804984 -0.013206366
000090 59 65 9a 3c 02 56 7c bc fa 51 6d 3c b9 4e d8 3c
       0.018847154 -0.015401365 0.014484877 0.026404725
0000a0 b8 cf ad 3c 03 39 51 bc 96 e7 8a 3c 37 8c db 3b
       0.021217212 -0.01276994 0.016956132 0.0067000645
0000b0 78 0d 58 3c 21 4c 9f bc 68 53 0e bd 61 af 23 bc
       0.013186805 -0.01944548 -0.03474751 -0.009990544
0000c0 e7 c1 b5 bc 2d 39 f2 3c 37 c4 0a 3c 4a 3c 49 3c
       -0.022187186 0.02956828 0.008469633 0.01228244
0000d0 a8 ac 79 3c 90 ab 66 ba db 95 e7 3c 09 50 98 bc
       0.015238918 -0.00087993685 0.028269699 -0.018592851
0000e0 e3 4b a0 3b 0e 64 9f bc a0 c8 73 3c cd 99 01 bc
       0.004891859 -0.01945689 0.014879376 -0.007910204
0000f0 f0 06 40 3c 82 96 f3 ba e8 d3 dc 3c 1e 6a a9 bc
       0.011720404 -0.0018584284 0.026956514 -0.020680483
000100 e7 3d 52 bc e7 bc b2 bc 51 ea d0 3c f8 74 c7 3b
       -0.0128321415 -0.021818591 0.025502356 0.006086942
000110 25 f5 f5 3c 71 a4 af bc 98 6e e3 bc d2 64 c0 bc
       0.03002412 -0.021440716 -0.027762696 -0.023485575
000120 45 99 b9 bc e6 77 1c 3c e6 54 aa 3c 83 f2 c7 3c
       -0.022656092 0.00955007 0.020792436 0.02440763
000130 c5 f1 32 bc 52 3c 9e bc d2 f5 83 3c be fe 85 bc
       -0.0109219 -0.019315872 0.016108427 -0.016356822
000140 53 fd 8b 3c e6 8a fe bb 89 25 b3 3c 25 b5 d4 bc
       0.017088568 -0.007768023 0.021868484 -0.025965283
000150 ab af 55 bc bb bc 45 3b 74 40 b0 3b 68 ca 7d bb
       -0.013042371 0.0030172307 0.005378777 -0.003872538
000160 af 73 13 3c 76 84 b1 3c ac fc c8 bc d6 19 85 bc
       0.008999749 0.021669608 -0.024534546 -0.016247671
000170 70 39 fd 3c ce b0 0c bc 8e 61 b3 bb 2b bd 0d bd
       0.030911177 -0.008587075 -0.005474276 -0.034604233
000180 c7 2b 7a bc c7 48 40 3c 44 b5 ba 39 26 97 ae bc
       -0.015269226 0.0117361015 0.00035611738 -0.021312308
000190 79 af 00 bb ff 3e 6f bc b4 9d f2 bc d0 59 94 bc
       -0.001963584 -0.014602422 -0.029616214 -0.018109232
0001a0 1d 6b c5 bc 1d ab bb bc a1 4c 05 3d 49 c4 be 3b
       -0.024098927 -0.022908742 0.032543782 0.005821739
0001b0 b7 09 8a 3b 90 cc 0c bd 3b da b8 bc b1 15 75 bc
       0.004212584 -0.034374774 -0.022564998 -0.014958785
0001c0 33 68 b5 3b 44 36 f6 bc 2f 55 44 bc 14 1b 92 bc
       0.005536103 -0.030055173 -0.0119832 -0.017835177
0001d0 1c 60 dd 3b 7a 20 8c bc c4 f6 1f b9 3d c9 ba bc
       0.006755842 -0.01710533 -0.00015255349 -0.022801036
0001e0 97 da 93 bc cf 1e 88 bc 3c 3d 77 bc 8b 6e c2 bc
       -0.018048568 -0.016616253 -0.015090283 -0.023734352
0001f0 8d 9e 17 3d 58 2a 34 bc 08 b7 0a 3d da c0 50 3c
       0.03701644 -0.010996424 0.03386596 0.012741292
000200 ca 74 f4 bc af d3 da 3c 30 cd 0a bc 6d 3a a9 bc
       -0.029840846 0.026712267 -0.008471772 -0.020657742
000210 76 8a d3 bc 56 73 da bc 3d e5 27 3c 40 f8 5c ba
       -0.02582286 -0.026666325 0.010247526 -0.0008429326
000220 d6 d9 3b 3c 1d 52 f0 bc e8 82 b2 3c 93 2b bb bc
       0.01146551 -0.02933603 0.021790937 -0.022847926
000230 80 a6 6e bb a8 6b b3 3b 0a 98 71 3c af 8c c3 3c
       -0.003641516 0.00547548 0.014745722 0.023870794
000240 74 ac eb 3c 54 18 cd bc 43 e5 1c 3c 25 70 8a bc
       0.028768755 -0.025036015 0.009576145 -0.016899178
000250 aa 88 24 ba a3 bc c2 bc ec 9b ed 3c ef 4b d3 bc
       -0.0006276468 -0.02377159 0.029005013 -0.025793044
000260 65 90 5f 3c 3d 6f 29 3c 6c 29 57 3c 98 b7 9e bc
       0.013645266 0.010341463 0.013132434 -0.019374654
000270 70 37 d9 3c 7f 0d 9a 3b 72 18 e5 3b 86 7f dc bc
       0.026515692 0.004701316 0.0069914395 -0.026916277
000280 f6 43 61 3c 57 a8 c3 bb c2 fe 88 bc 75 95 cc 3c
       0.013749113 -0.0059709954 -0.01672304 0.02497361
000290 6d 03 f4 3b 7a 2b 98 bc 5d 66 8f bc 80 a2 50 b9
       0.0074466974 -0.018575419 -0.017504865 -0.00019896962
0002a0 e0 1e 9c 3c 25 d5 2b bc dd c5 87 bc 29 27 95 bb
       0.019057691 -0.010487829 -0.01657384 -0.0045517874
0002b0 82 fc b0 bc 05 75 4f 3c 51 ab b9 3c 2a b8 f6 bc
       -0.02160478 0.012662177 0.022664698 -0.030117113
0002c0 50 4d 35 3c 14 aa 71 3c 0d 1a e0 3b 67 68 34 bc
       0.011065796 0.014750022 0.006839043 -0.01101122
0002d0 ba db 6f 3c 87 55 ab 3c d2 b3 35 3c ab 26 3b 39
       0.014639789 0.020914806 0.011090236 0.00017848115
0002e0 77 8a a0 3a 5e da ff 3a d4 1f 90 bb a4 3d c8 bb
       0.0012248297 0.0019520035 -0.0043983255 -0.0061108638
0002f0 4c a7 75 3c 15 6f d8 3c 06 2a a6 ba cd 2d 07 bc
       0.0149935 0.026420156 -0.0012677319 -0.008250666
000300 f3 d8 a4 3b 36 1d 80 3a 45 cb ed 3a c8 4b 6d 3c
       0.005030745 0.000977433 0.0018142244 0.0144834
000310 a7 04 f9 bc 31 3c 94 bc d1 2e cf 3c 10 b3 30 3c
       -0.030397726 -0.018095108 0.025290878 0.010784879
000320 22 f2 26 bc b5 94 28 bc 3d ff d1 bc 23 5f 00 bd
       -0.010189565 -0.010289361 -0.025634402 -0.03134073
000330 ab 23 df bb 8d 8d 37 3c 9c 46 44 3c 80 27 66 3c
       -0.006809672 0.011203182 0.011979725 0.0140475035
000340 f0 40 f9 bc b7 29 ae bc 40 d4 2a bc 7f c0 00 3d
       -0.030426472 -0.021260126 -0.010426581 0.03143358
000350 af 9f bb 3b 3c dc 2a bc 1d 11 8d 3c 59 20 99 bc
       0.005725823 -0.0104284845 0.017220074 -0.018692182
000360 fd 62 93 bc 92 36 e7 3c a3 ad 81 bc 29 e5 61 bb
       -0.017991537 0.028224263 -0.015829867 -0.0034468865
000370 70 20 db bc 24 80 ad 3c cc 2c d6 3c 66 08 7b 3c
       -0.026748866 0.021179266 0.026144408 0.015321827
000380 f5 ff bf bc c2 aa f2 bc 1b 1e d8 bc ae 02 cd 3c
       -0.02343748 -0.02962244 -0.026381543 0.025025692
000390 aa 35 79 3c 7d 8f d2 3c 48 b0 bc 3c ae fa a8 3b
       0.015210548 0.025703186 0.023033276 0.0051568365
0003a0 13 75 1e bb 57 ad ff bc 59 7a b6 bc 1c 21 eb bc
       -0.0024178668 -0.031210585 -0.022275137 -0.028702311
0003b0 73 29 52 3c a4 9d 82 bc ac 82 85 3a c2 d6 cd bc
       0.012827265 -0.01594431 0.0010186038 -0.025126819
0003c0 3e 31 94 bb 34 7a 9a bc b4 0c a3 bc 68 0c 45 3c
       -0.0045224717 -0.0188571 -0.019903518 0.012026884
0003d0 f9 d7 2e bc 58 a7 99 3c f0 65 88 bc db 5c bb bc
       -0.010671609 0.018756554 -0.01665017 -0.022871425
0003e0 4b be 74 bb 34 ae 5e bc ff 1c 0c bc 54 44 c5 bc
       -0.0037344869 -0.013591338 -0.008551835 -0.024080433
0003f0 c5 6a 82 3c 33 e8 a9 bc a5 14 81 3c ef 55 50 3c
       0.015920052 -0.020740604 0.015756914 0.012715801

model.1.bias f4 [32]
000000 93 c8 6a 3b b1 c2 aa 3c 03 6d a5 bc c0 7e c6 3b
       0.0035825118 0.02084479 -0.020193582 0.0060575902
000010 bf eb c5 bb e5 fc 86 bb d4 df 06 39 b0 75 14 3d
       -0.006040066 -0.004119503 0.00012862618 0.036245048
000020 22 66 1e bc 2b 0e e2 bc e9 27 50 bc 80 09 11 bc
       -0.009667905 -0.027594646 -0.012704828 -0.008852363
000030 e3 a9 c6 3c 64 37 80 3c bb 98 a1 bc 30 75 5c 3b
       0.02425093 0.015651412 -0.019726148 0.0033639185
000040 02 6e 67 3c e4 70 d0 3b 96 7e a4 3b 0c 7e c6 bc
       0.014125349 0.006361114 0.005019973 -0.024230026
000050 d6 26 b6 3b 2c 57 cd bc 77 ce 99 bb fe 60 67 3c
       0.005558829 -0.02506598 -0.004693802 0.014122246
000060 a2 d4 3b 3c 7f 5d be bc e4 e9 88 3a d5 ac a9 3c
       0.01146427 -0.023237942 0.0010445681 0.020712296
000070 e7 a0 01 3d 16 bd fd bb f6 0b 56 3c 1f 51 bc 3b
       0.03164759 -0.007743488 0.013064375 0.005746975

model.4.weight f4 [64, 32]
000000 9f d6 f1 bd 7b 66 40 3c 39 b6 eb bd 0a e0 1e bc
       -0.11808514 0.011743183 -0.115093656 -0.00969697
000010 b1 94 0e be f8 48 c3 bd aa f7 50 bd 29 9c a5 bc
       -0.13923909 -0.09535402 -0.05101744 -0.020216065
000020 18 a6 13 be 38 f3 80 bd 0a f4 33 be b2 c8 0d be
       -0.14418828 -0.0629639 -0.17573562 -0.1384609
000030 dd d1 26 be 9a 60 ec bd 0d 77 6b bc 99 05 e6 3d
       -0.16290994 -0.11541863 -0.014371646 0.112315364
000040 22 f1 16 3c 6c bf 2c be f9 68 16 3e fa 55 ef bd
       0.009212764 -0.16869897 0.14688481 -0.116863206
000050 6c 74 9f bd 5b 1e 20 3d 9f 04 62 bd 84 d3 56 3c
       -0.077858776 0.03909145 -0.05518019 0.013111953
000060 58 65 3f bd 25 42 42 bc 47 88 2c be 34 55 c5 ba
       -0.04672751 -0.01185659 -0.1684886 -0.00150553
000070 7e 2c 4b 3c f3 c6 d8 3d 80 f7 24 ba b3 5f cb 3d
       0.0124007445 0.105848216 -0.0006292984 0.099303626
000080 06 20 3f 3c 70 85 c6 3d cf 3a 81 bd 92 01 70 3c
       0.01166535 0.0969342 -0.06310045 0.014648812
000090 25 e4 84 bb 68 39 06 be f3 e5 2f 3e d6 e2 04 3e
       -0.0040555173 -0.13107836 0.17177562 0.12977156
0000a0 c5 53 c0 3d 54 c1 0d be 6d 46 36 3e dd a8 37 3e
       0.09390978 -0.1384328 0.17800303 0.1793551
0000b0 a3 4b 70 bc ec ef d2 bc f4 f7 17 3e d5 42 12 be
       -0.014666471 -0.02574917 0.1484068 -0.14283307
0000c0 44 29 27 3e 0d 0c 5f bd 99 ae ad bd d7 25 6a 3c
       0.16324335 -0.054454852 -0.084805675 0.014291248
0000d0 be 56 6c 3d 20 11 b2 3c bd d4 d7 3d cb 2d 0a be
       0.05769991 0.021736681 0.105386235 -0.13494031
0000e0 89 45 9e bc 70 50 07 bc a1 ce 01 be c0 d2 02 be
       -0.019320266 -0.008258924 -0.12676479 -0.12775707
0000f0 ca 35 6b bd c4 38 70 bd 31 ae 03 3c 44 90 88 bd
       -0.057424344 -0.058647886 0.008037136 -0.066681415
000100 75 d1 30 3e 8a ea 9b 3d 36 fb 9e bd b6 e1 ad bc
       0.17267402 0.07613094 -0.077627584 -0.021225791
000110 1b e4 1c be 34 20 bb 3d ab 8b ae bd 20 fd 18 3e
       -0.1532139 0.09137002 -0.08522733 0.1494031
000120 19 55 dc 3d 2f a4 49 bd 96 cf 12 3d 36 ce 51 bc
       0.107584186 -0.049228843 0.0358425 -0.012805512
000130 1d 32 16 be 8a 5f fd bd c4 68 b4 bd 5c f4 35 3e
       -0.14667554 -0.12371738 -0.08809045 0.17768997
000140 0f bc f2 bd b5 b5 91 3d 97 4b 8e bd b4 28 8f 3d
       -0.118522756 0.07114736 -0.06948011 0.069901854
000150 26 2a 09 3e e0 ba 04 3e 85 97 16 be 73 fc a6 3c
       0.13394985 0.12961912 -0.14706238 0.020384049
000160 f3 6e 2f 3d 08 8c 03 3d b3 ac 2a 3c 68 00 3f 3e
       0.04283042 0.032115966 0.010417151 0.18652499
000170 c0 0c 02 be 96 8b 27 3d 6a cd 14 3d f8 42 24 3e
       -0.12700176 0.040904604 0.03632871 0.16041172
000180 bc e6 c6 3d 2d ad 6f bd b4 da 12 bc 94 70 07 be
       0.09711978 -0.058514763 -0.008963276 -0.13226539
000190 7f e5 15 3c 7c 9d bb 3c ab 48 19 3e ea d4 27 3e
       0.009148954 0.022902243 0.14969127 0.16389814
0001a0 b2 75 f0 bd 43 74 35 3e 74 ee 18 be 05 cb 61 3d
       -0.117411986 0.17720132 -0.14934713 0.055125255
0001b0 b1 8a a6 3d b7 eb b2 3d 87 0e 0b 3e 3f 19 35 bd
       0.08131922 0.08736365 0.1357976 -0.04421353
0001c0 63 8c 14 3e 19 2e 1b 3c 68 c1 a8 ba 40 59 64 bd
       0.14506678 0.00947144 -0.0012875022 -0.055749178
0001d0 61 cb 15 be 1a 42 3a bd 2c 2b 32 bc 37 3d e7 3c
       -0.14628364 -0.045473196 -0.010874551 0.028227432
0001e0 52 55 01 bd 5c b2 74 bb 0e 44 8e 3b 39 65 c0 bd
       -0.03157551 -0.0037337756 0.004341609 -0.09394307
0001f0 c1 03 b9 bb fd 11 19 be b2 14 91 3b 38 db 29 3e
       -0.0056461995 -0.14948268 0.004427516 0.16587532
000200 8f 96 a9 bd a1 97 e8 3d 4a bb 6a bd 44 d9 a0 bd
       -0.0828067 0.11357046 -0.05730752 -0.0785394
000210 34 86 9f 3d b9 32 32 be e1 d3 de 3d bb 87 f8 3d
       0.07789269 -0.17402162 0.108802564 0.121352635
000220 f7 0e 87 3d 5f 44 90 bb cf a2 a5 bd 42 24 e2 bd
       0.06594651 -0.0044026817 -0.08087694 -0.11042072
000230 39 cc 1b 3e 8a 3b 96 3d e1 38 c0 3d d8 6b e7 bd
       0.15214624 0.07335575 0.09385849 -0.112998664
000240 44 44 ce 3d 5f ea ec bd 33 82 04 3e 17 37 0e 3e
       0.100716144 -0.1156814 0.12940292 0.13888203
000250 81 86 22 be 19 31 2a be 1b d8 23 be b4 89 9e bd
       -0.15871622 -0.16620292 -0.16000406 -0.077411085
000260 9d 10 2e 3d f3 3a 20 be b9 38 11 3e 32 7a e3 bd
       0.042496312 -0.15647487 0.14181794 -0.11107291
000270 6b 0c 5e bd aa ce 1f 3d 03 22 d5 bd b7 4e 65 bb
       -0.05421106 0.03901545 -0.10406878 -0.0034989545
000280 67 db 19 be 33 09 20 be a9 d2 61 3c 32 b6 94 bd
       -0.15025102 -0.15628509 0.013783135 -0.072613135
000290 cd c6 fb 3d fd 35 cd bd e9 69 c9 3d d0 82 0a 3e
       0.122937776 -0.10020063 0.09834654 0.13526464
0002a0 e0 87 34 bd eb a4 01 bd d7 9d 79 3d a4 42 bf bd
       -0.044074893 -0.03165142 0.060941543 -0.093388826
0002b0 b4 78 3a 3d d2 74 66 bd 7d d3 34 bd 74 e6 10 be
       0.045525268 -0.056263752 -0.044147003 -0.14150411
0002c0 44 cd 0e 3e 42 38 20 be 0d 44 13 bd dc 59 9b 3d
       0.1394549 -0.1564646 -0.03595357 0.07585499
0002d0 57 af f5 bd a6 8d 6c 3c 8a 6a 28 3e cd 07 65 3d
       -0.11996334 0.0144380685 0.16446891 0.055915643
0002e0 dd f7 ee 3d 30 9d 07 be d6 f0 b3 3d 0f 09 55 3c
       0.1166837 -0.13243556 0.0878617 0.013002648
0002f0 0c 4d bf 3c 88 e8 85 bd 31 df 2c bd 38 31 e9 3d
       0.023352169 -0.065384924 -0.04220504 0.11386341
000300 7b 8a cf 3d 09 95 12 be 8b a1 18 3e 28 26 32 3e
       0.10133835 -0.14314665 0.14905374 0.17397368
000310 36 2c 5a bd 2f 9e a0 3c 6a 68 cb 3d 3b f0 35 be
       -0.05326482 0.019606678 0.09932025 -0.17767422
000320 2e 40 75 3d 40 63 15 3e da 19 79 bd 72 42 1b be
       0.05987566 0.14588642 -0.06081567 -0.15162066
000330 86 f7 ce bd fd d6 fa 3d db 0e 2d bc 61 1e 6d bc
       -0.10105805 0.12248037 -0.010562624 -0.014472575
000340 5b 65 0b 3d 40 90 95 3d e3 ab dc 3d dd a1 47 3b
       0.034032207 0.07302904 0.10774972 0.0030461468
000350 ca a1 34 be 82 5c e3 3d 1d 89 f6 3d 69 d1 b6 3b
       -0.17639843 0.11101629 0.12037871 0.005579163
000360 0e 00 b9 bd 57 0f 2e bd 77 09 ad 3d c2 96 fa 3d
       -0.090332136 -0.042495098 0.08449071 0.12235786
000370 9e f8 24 be 97 df fd 3c db 5c af 3c fb 3f 01 3d
       -0.16110465 0.030990405 0.021406582 0.031555157
000380 75 25 14 bd 86 fd ec bb 9e 75 2b be c3 da 83 bc
       -0.036168534 -0.007232371 -0.16744086 -0.016095525
000390 6d 9e 1a be ed 5b 23 3e e7 89 8b 3d e0 76 96 3d
       -0.15099497 0.15953036 0.06813412 0.07346892
0003a0 02 09 aa bd 38 31 8f bd 54 d2 ed 3c d0 b0 bc bc
       -0.08302499 -0.069918096 0.029030956 -0.02303353
0003b0 99 3e 13 bc f2 1f 16 3c 10 ca 76 3b fc 67 1a be
       -0.008987092 0.00916289 0.003765706 -0.1507873
0003c0 53 33 29 3e 5f 69 a3 bd fe 8d b0 3c 0c 5b e6 bd
       0.16523485 -0.07979082 0.021552082 -0.112478346
0003d0 df 60 26 3e 1a 07 a5 bd 06 fe b8 3d 0f 53 a1 3d
       0.16247891 -0.08057995 0.09032826 0.0787717
0003e0 af fa 0b bd a9 5e 34 3d 0f ce 08 be b5 cb 1c be
       -0.034174617 0.044035587 -0.13359855 -0.15312083
0003f0 63 69 d8 3d 48 2b e2 3d ff ed 14 be 1a 16 51 bd
       0.10566976 0.110434115 -0.14543913 -0.05104647

model.4.bias f4 [64]
000000 24 54 d0 3d d5 95 b1 3d e2 67 c7 3d 80 89 2a be
       0.101722986 0.08671156 0.09736611 -0.16654015
000010 2d da 11 bd 24 5e 36 be 34 28 03 bd 51 82 da 3d
       -0.03560846 -0.1780935 -0.032020763 0.10669387
000020 61 59 a0 bc 22 23 39 3e 84 59 24 3e d6 82 f3 bc
       -0.01957387 0.18079808 0.16049773 -0.029725473
000030 3b 20 a5 3c ab 3b f0 3d 4f 27 90 3b 0a 45 c5 bc
       0.02015697 0.11730131 0.004399217 -0.024080772
000040 6f 3f 07 3e 11 de 02 be c9 1c 91 bd 36 85 00 bd
       0.13207792 -0.12780024 -0.070855685 -0.03137704
000050 a5 f7 2e 3e aa 08 1b be 7e 18 f4 bd 7c 59 87 bd
       0.17086656 -0.15140024 -0.11918734 -0.06608865
000060 a3 66 5b bd 04 44 1c be 79 0b 0b be 5d f5 0f 3d
       -0.05356468 -0.15260321 -0.13578595 0.035146106
000070 25 d7 0a 3e 35 e1 06 3d c0 8a 19 3d c7 b4 1d 3e
       0.13558634 0.032929618 0.037485838 0.15400992
000080 c9 37 c3 3b d4 5b d4 3d 27 d2 1c 3d 2b 2c b2 bd
       0.005957578 0.10369077 0.038286354 -0.086998306
000090 b2 0c e0 3d 94 e1 de 3c 7b e2 78 ba 05 24 13 3e
       0.109399214 0.027207173 -0.00094941974 0.14369209
0000a0 c2 1d c8 3d 16 f0 62 3d 53 2d cd bd 7a 19 80 bb
       0.09771301 0.055404745 -0.100184105 -0.003909287
0000b0 46 ca c1 bd 30 99 41 bd d8 bf 64 bd 22 4c ec 3c
       -0.09462409 -0.04726523 -0.05584702 0.028844897
0000c0 05 95 33 3c 38 63 88 3d c8 06 09 be 93 62 29 bd
       0.010960822 0.066595495 -0.13381493 -0.041353773
0000d0 6f 4f 8d bc e1 7c 02 3e 0b 27 91 bd 69 ec c5 3d
       -0.017249791 0.1274295 -0.07087525 0.09664232
0000e0 63 73 85 3c 14 4e 19 3e 7e 47 27 be 4c e2 de 3d
       0.016290372 0.1497119 -0.16335866 0.108830065
0000f0 05 3a 61 bd 8a c4 c9 bd cf a6 f4 bd 03 42 eb 3b
       -0.054986972 -0.0985194 -0.11945879 0.0071795

model.7.weight f4 [1, 64]
000000 73 e6 c7 3c a9 a6 80 bd b5 b8 4b bd 9c 02 23 bc
       0.024401879 -0.06281788 -0.049736697 -0.009949353
000010 70 1a 23 bd f1 33 53 ba 70 17 d1 3d c8 b9 ed bd
       -0.039820135 -0.0008056751 0.102095485 -0.116077006
000020 d6 91 a1 bd e5 83 4e 3d d8 4d 86 bd 6c a7 52 3c
       -0.07889144 0.050418753 -0.06557816 0.012857299
000030 f0 bc f1 3d 01 a8 cb bd e1 8f 03 be 15 9b 37 3d
       0.11803615 -0.099441536 -0.12847854 0.044825632
000040 89 2c ef 3d 9e 74 e4 bd b0 cc d9 3d 8f 72 21 bd
       0.11678416 -0.111550555 0.10634744 -0.039415892
000050 b4 b7 6c bd 8e 19 aa 3d e0 c1 e4 3d ef e3 0c 3d
       -0.05779238 0.083056554 0.11169791 0.034397062
000060 54 41 49 bd 0a 9e 5e bd 85 58 ff bc 10 a6 0c be
       -0.049134567 -0.054349937 -0.03117014 -0.13735223
000070 ed c0 94 3c 79 11 5f 3d 4c 64 ad bc c4 0e fa 3c
       0.0181584 0.054460023 -0.02116599 0.030524619
000080 f0 c2 5c 3d 34 8e 90 3d 2b 2e e5 3c 83 87 b7 3d
       0.053896844 0.07058373 0.027976116 0.08961394
000090 a7 54 b5 bd 07 64 3c 3d a3 ef 74 3d 09 20 e7 bd
       -0.08854037 0.04599383 0.059798848 -0.11285407
0000a0 34 bc 94 3d 8d 5a ce bd cd 71 92 bd 51 f5 88 bd
       0.072624594 -0.10075865 -0.07150612 -0.066874154
0000b0 44 c2 3f bd 5e 06 9e 3d 7c 08 ef bc 45 47 45 3d
       -0.046816126 0.07716058 -0.02917885 0.04816367
0000c0 84 7c a1 bd ae 47 9b bd b2 8f ec bd f8 da 83 3d
       -0.078850776 -0.07582031 -0.11550845 0.06438249
0000d0 47 3c b1 bd 5a ca d8 bd bd 71 99 bd 7e 11 e8 bd
       -0.08654075 -0.105854705 -0.07492397 -0.11331461
0000e0 2e 28 a0 bd a7 88 78 3d 2a cf 1c 3d 9b bc c9 bd
       -0.07820164 0.060677197 0.038283505 -0.09850427
0000f0 b0 05 70 3d b6 b3 4c 3d 25 e9 9f 3b fa 16 03 3e
       0.058599174 0.049976073 0.004880088 0.12801734
