lightning_logs/version_18/checkpoints/epoch=199-step=1600.ckpt (torch, 464377 bytes, 23 tensors)

model.0.weight f4 [1024]
000000 15 19 80 3f 81 c8 7e 3f 2b 03 80 3f 56 11 80 3f
       1.0007654 0.99524695 1.0000967 1.000529
000010 a6 b8 7f 3f ac a2 7f 3f 3f 44 80 3f 4f 11 80 3f
       0.99891126 0.9985759 1.0020827 1.0005282
000020 7c 14 80 3f 39 83 7f 3f d1 88 80 3f 5b 45 80 3f
       1.0006251 0.99809605 1.0041753 1.0021166
000030 43 7d 80 3f 2a 1f 80 3f cb eb 7f 3f 61 6b 7f 3f
       1.0038227 1.000951 0.99969167 0.9977322
000040 ad 29 80 3f 2a 9a 7f 3f 95 c3 7f 3f 49 00 80 3f
       1.0012718 0.9984461 0.9990781 1.0000087
000050 1f 01 80 3f 03 49 80 3f 5a 14 80 3f 1d 0b 80 3f
       1.0000342 1.0022281 1.0006211 1.0003392
000060 a8 a9 7f 3f 39 44 80 3f a3 3d 80 3f b7 4b 80 3f
       0.9986825 1.002082 1.001881 1.0023106
000070 99 42 80 3f 90 0c 80 3f 74 b5 7f 3f 6a 08 80 3f
       1.0020324 1.0003834 0.9988625 1.0002568
000080 86 46 7f 3f b3 85 7f 3f f9 bd 7f 3f 7c e8 7f 3f
       0.99716985 0.99813384 0.9989925 0.9996412
000090 bf 3a 80 3f 93 10 80 3f e8 12 80 3f bb 13 80 3f
       1.0017928 1.0005058 1.000577 1.0006021
0000a0 30 a2 7f 3f 1d 14 80 3f a9 db 7f 3f db ab 7f 3f
       0.99856853 1.0006138 0.9994455 0.99871606
0000b0 f7 02 80 3f 37 b3 7f 3f aa 1f 80 3f 0f 55 80 3f
       1.0000905 0.99882835 1.0009663 1.0025958
0000c0 b6 69 7f 3f ba a9 7f 3f 73 5a 80 3f 4c db 7f 3f
       0.9977068 0.9986836 1.0027603 0.99943995
0000d0 fc 82 80 3f 22 5a 7f 3f f8 dc 7f 3f 74 2d 80 3f
       1.0039973 0.99746907 0.99946547 1.0013871
0000e0 e4 e8 7f 3f cb 37 80 3f bc 39 80 3f 95 6f 80 3f
       0.9996474 1.0017027 1.0017619 1.0034052
0000f0 f3 b5 7f 3f 6f 0b 80 3f 01 6c 80 3f 5b e5 7e 3f
       0.9988701 1.0003489 1.003296 0.9956872
000100 51 48 80 3f b6 cd 7f 3f dd 3f 80 3f 67 16 80 3f
       1.0022069 0.99923265 1.001949 1.0006837
000110 19 6b 80 3f a1 8b 80 3f 55 e4 7f 3f e2 9e 7f 3f
       1.0032684 1.0042611 0.9995778 0.9985181
000120 cd 68 80 3f 16 57 80 3f f4 8c 7f 3f cb ed 7f 3f
       1.0031983 1.0026577 0.9982445 0.9997222
000130 cc c8 80 3f d7 0c 80 3f 22 a7 7f 3f 0c ef 7f 3f
       1.0061278 1.0003918 0.998644 0.9997413
000140 b0 2f 80 3f 8c 42 80 3f a5 28 80 3f c0 1a 80 3f
       1.0014553 1.0020308 1.0012404 1.0008163
000150 fb 51 80 3f 4b 37 80 3f 54 fb 7f 3f a8 21 80 3f
       1.0025018 1.0016874 0.9999287 1.0010271
000160 a7 63 7f 3f 5b 2e 80 3f 9c 34 80 3f 20 04 80 3f
       0.9976143 1.0014147 1.0016055 1.0001259
000170 bc b8 7f 3f fd de 7f 3f bc 43 80 3f 3e 13 80 3f
       0.9989126 0.9994963 1.0020671 1.0005872
000180 78 7b 80 3f 9e 69 80 3f 74 01 80 3f e9 06 80 3f
       1.003768 1.0032232 1.0000443 1.0002109
000190 30 12 80 3f d4 ed 7f 3f 95 10 80 3f 93 21 80 3f
       1.000555 0.9997227 1.000506 1.0010246
0001a0 42 32 80 3f 1e ec 7f 3f c0 cd 7f 3f 84 12 80 3f
       1.0015337 0.9996966 0.99923325 1.000565
0001b0 1b 5f 7f 3f de a4 80 3f f3 2e 80 3f 91 29 80 3f
       0.99754494 1.0050313 1.0014328 1.0012685
0001c0 a6 e0 7f 3f fe 0d 80 3f 5c 16 80 3f 32 33 7f 3f
       0.9995216 1.000427 1.0006824 0.9968749
0001d0 6c ac 80 3f b2 f1 7f 3f ab 3f 80 3f 56 67 80 3f
       1.0052619 0.9997817 1.001943 1.0031536
0001e0 d9 50 80 3f 85 9e 7f 3f 8d b8 7f 3f 58 08 80 3f
       1.0024673 0.99851257 0.9989098 1.0002546
0001f0 23 84 7f 3f 29 5a 80 3f c7 cb 7f 3f 67 e7 7f 3f
       0.99811 1.0027515 0.99920315 0.99962467
000200 bf 01 80 3f 58 65 80 3f 5f 77 7f 3f 1e 6e 7f 3f
       1.0000533 1.0030928 0.9979152 0.997774
000210 a6 1c 80 3f 59 03 80 3f 8c 1f 80 3f 4a 18 80 3f
       1.0008743 1.0001022 1.0009627 1.0007412
000220 aa c3 7f 3f ce 25 80 3f fe 17 80 3f 41 e9 7f 3f
       0.99907935 1.0011537 1.0007322 0.9996529
000230 09 7b 7f 3f b8 f0 7f 3f 7f 2b 80 3f 67 1d 80 3f
       0.9979711 0.9997668 1.0013274 1.0008973
000240 76 14 80 3f f5 08 80 3f f4 6b 7f 3f 6d 33 80 3f
       1.0006244 1.0002733 0.997741 1.0015694
000250 17 c0 7f 3f bc e7 7f 3f d1 9f 7f 3f 46 25 80 3f
       0.9990248 0.99962974 0.99853235 1.0011375
000260 9f 39 80 3f c4 d7 7f 3f 22 2f 80 3f 7c df 7f 3f
       1.0017585 0.9993861 1.0014384 0.99950385
000270 3b 1a 7f 3f 10 d8 7f 3f 8e 28 80 3f ee 17 80 3f
       0.996494 0.9993906 1.0012376 1.0007303
000280 e9 ad 7f 3f 26 26 80 3f b9 07 80 3f b3 2e 80 3f
       0.9987474 1.0011642 1.0002357 1.0014251
000290 27 31 80 3f 4e 6f 7f 3f 61 f7 7f 3f b5 4a 80 3f
       1.0015 0.9977921 0.99986845 1.0022799
0002a0 a9 98 7f 3f 8b f4 7e 3f dc 26 80 3f d1 1d 80 3f
       0.99842316 0.9959189 1.0011859 1.0009099
0002b0 16 11 80 3f c7 a2 7f 3f 56 fc 7f 3f 62 1b 80 3f
       1.0005214 0.99857754 0.9999441 1.0008357
0002c0 fd 39 80 3f 87 48 80 3f bf fb 7e 3f ed 59 7f 3f
       1.0017697 1.0022134 0.99602884 0.9974659
0002d0 17 b2 7f 3f 48 2a 80 3f 4e 56 80 3f fc cf 7f 3f
       0.9988112 1.0012903 1.0026338 0.99926734
0002e0 80 66 80 3f d2 61 80 3f 22 3c 80 3f 31 fa 7f 3f
       1.003128 1.0029852 1.0018351 0.99991137
0002f0 ee f8 7f 3f 0d eb 80 3f a4 4c 80 3f c4 22 80 3f
       0.9998921 1.0071732 1.0023389 1.001061
000300 30 f7 7f 3f f0 2d 80 3f ba 4d 7f 3f de 08 80 3f
       0.99986553 1.0014019 0.99727976 1.0002706
000310 73 1e 80 3f f8 f3 7f 3f ce 15 80 3f 3b 25 80 3f
       1.0009292 0.9998164 1.0006654 1.0011362
000320 e5 37 7f 3f 19 17 80 3f 5d e0 7f 3f fc 54 80 3f
       0.99694663 1.0007049 0.99951726 1.0025935
000330 61 a4 7f 3f eb 9e 80 3f 3e 58 80 3f 3b de 7f 3f
       0.998602 1.0048498 1.0026929 0.9994847
000340 1e 41 80 3f 8c fc 7f 3f 6a 80 7f 3f 3f dd 7f 3f
       1.0019872 0.9999473 0.9980532 0.9994697
000350 a0 f5 7f 3f 69 76 7f 3f 3f 96 7f 3f 32 03 80 3f
       0.9998417 0.99790055 0.9983863 1.0000975
000360 b4 01 80 3f 65 6e 80 3f c7 5f 80 3f 49 c2 7f 3f
       1.000052 1.003369 1.0029229 0.9990583
000370 f1 2f 80 3f cb 22 80 3f 61 d9 7f 3f 55 3d 80 3f
       1.001463 1.0010618 0.9994107 1.0018717
000380 89 ce 7f 3f 96 ca 7f 3f 1b 1c 80 3f c0 08 80 3f
       0.9992452 0.99918497 1.0008577 1.000267
000390 6b d5 7f 3f 15 cb 7f 3f c9 b4 7f 3f 58 2e 80 3f
       0.99935025 0.99919254 0.9988523 1.0014143
0003a0 16 cf 7f 3f 10 18 80 3f 89 3b 80 3f db 1c 80 3f
       0.99925363 1.0007343 1.0018169 1.0008806
0003b0 48 7b 7f 3f 27 7b 7f 3f 54 ed 7f 3f 93 c5 7f 3f
       0.9979749 0.9979729 0.9997151 0.9991085
0003c0 bd a8 80 3f 7d 3b 80 3f 01 25 80 3f 93 e8 7f 3f
       1.0051495 1.0018154 1.0011293 0.99964255
0003d0 71 20 80 3f fc c8 7f 3f 68 90 7f 3f 06 1e 80 3f
       1.00099 0.9991605 0.9982972 1.0009162
0003e0 23 92 80 3f 0b 7e 7f 3f 8b 39 80 3f e7 18 80 3f
       1.0044597 0.998017 1.0017561 1.00076
0003f0 5d cc 7f 3f bf 14 80 3f 86 02 80 3f ce 15 80 3f
       0.9992121 1.0006331 1.000077 1.0006654

model.0.bias f4 [1024]
000000 7b 0b e8 ba f2 8e 6e 3a 59 c4 dc ba 1a ed 5c bb
       -0.0017703617 0.000910028 -0.0016843184 -0.003371066
000010 34 e0 20 39 68 9d 51 3b 07 08 03 3b 5f 16 a5 b8
       0.00015342311 0.003198469 0.0019993798 -7.87198e-05
000020 30 cc c5 3a af a6 c0 ba 20 fd de ba 67 34 21 bb
       0.001509076 -0.0014698113 -0.0017012693 -0.0024597885
000030 de 1f a4 ba c0 2e 80 3a 6d c9 c2 ba d6 26 8e 3a
       -0.0012521704 0.0009779558 -0.0014861055 0.0010845314
000040 52 c0 b9 b8 36 d7 be 3a 88 a3 84 39 33 1f 84 b9
       -8.85731e-05 0.0014559987 0.00025298842 -0.00025200247
000050 63 56 0d bb de e5 a7 3a 54 e5 d2 3a 77 65 0f bb
       -0.0021566383 0.0012809595 0.0016090074 -0.0021880546
000060 5a 2a ae bb 7d d3 25 b8 86 64 b4 3b bc d8 3c 3b
       -0.0053151073 -3.953603e-05 0.0055051474 0.0028815707
000070 8a 45 e3 3b 8e 78 88 3a 93 af 2a 3a 07 2e d8 ba
       0.00693578 0.0010411905 0.0006511148 -0.0016493209
000080 8a 40 0a bb 27 04 ab ba e3 b5 39 bb 97 e7 91 3b
       -0.0021095597 -0.0013047502 -0.0028337173 0.0044526565
000090 b5 9e 04 3b fc bf 67 3b 7a 4c f3 b8 4d b6 c2 ba
       0.0020236198 0.0035362234 -0.00011601388 -0.0014855355
0000a0 16 b2 ac 3a fb e9 30 3b 68 21 c7 b8 9f 93 5d 3a
       0.0013175632 0.0026994932 -9.495282e-05 0.0008452478
0000b0 fe 82 4d 3b 86 e4 64 bb 2d cb 9d 3b 6e 3a a1 39
       0.0031358595 -0.003492625 0.00481548 0.00030751846
0000c0 14 d2 d9 3a 35 1e 00 3b 88 7e 78 bb e3 ad d9 3a
       0.0016618394 0.0019549255 -0.0037917215 0.0016607608
0000d0 3e 45 a2 bb e6 1a 1e 3b 38 59 11 ba f8 5e 42 3b
       -0.004952102 0.002412492 -0.00055446057 0.0029658657
0000e0 4c e5 48 3b 86 bd b9 3b 65 ad a0 3b ae 92 01 ba
       0.003065425 0.005668345 0.0049034827 -0.00049428164
0000f0 4f 3a 57 ba 62 53 99 bb 27 6a ab 3b 14 7d 8a bb
       -0.0008210288 -0.0046791295 0.00523116 -0.0042263363
000100 dc 60 a4 3a db 56 24 bb f2 f6 15 bb dc 51 ad 3a
       0.0012541073 -0.0025076184 -0.0022882787 0.0013223249
000110 6b 6e 1f bb 1a 5d bc b9 b8 27 b4 3a 1d 72 97 3b
       -0.002432729 -0.0003592752 0.0013744747 0.0046217577
000120 27 be 90 bb bd 53 38 3b 98 df 32 bb 6f 7e 51 3b
       -0.004417199 0.0028126084 -0.0027293917 0.003196623
000130 d9 ac 30 bb 29 fd 01 3a 23 67 09 3a fa 54 ae 39
       -0.0026958494 0.0004958683 0.0005241504 0.0003325118
000140 e3 5a 07 3b ef c6 ae 3a db cb 01 3a b5 01 42 3b
       0.0020653538 0.0013334433 0.00049513363 0.0029603068
000150 dd 6b 11 bb 2f d0 7f 3b 15 4b a0 38 a9 fe 2a bb
       -0.0022189536 0.0039034 7.64338e-05 -0.002609173
000160 38 48 ca b6 da 0f fb 38 fb 41 12 3b e5 3f 63 ba
       -6.0284765e-06 0.00011971565 0.002231716 -0.0008668884
000170 06 2d a4 3a 62 63 01 3b e2 ed c2 bb f6 c7 c6 3a
       0.0012525625 0.0019743075 -0.005948768 0.0015165794
000180 c0 0a f5 3a bb 36 7b 3b 93 82 65 ba 51 47 99 bb
       0.001869522 0.0038332182 -0.0008755114 -0.004677691
000190 64 34 3f 3b e7 7c fc 3a ac e8 55 bb 8c a6 15 3b
       0.0029175514 0.0019263298 -0.0032639904 0.0022834865
0001a0 9d dd fd ba cc ec e7 3a 84 df 0c bb 41 19 8e bb
       -0.0019368414 0.0017694472 -0.002149553 -0.0043365066
0001b0 04 a7 89 ba 39 a3 25 39 26 67 70 ba 8a b3 e2 ba
       -0.0010502045 0.00015796431 -0.0009170644 -0.0017295938
0001c0 26 2d 7e ba ed 9f 97 bb 85 1c 15 bb fb ab 18 3b
       -0.00096960587 -0.004627219 -0.0022752595 0.0023295868
0001d0 c4 b5 41 3a af 25 17 ba c2 b9 29 bb ea 55 8e bb
       0.0007389451 -0.0005765808 -0.0025898074 -0.004343738
0001e0 42 b0 03 ba 93 63 49 3b 03 2d 2a bb 36 28 96 3b
       -0.0005023518 0.0030729517 -0.002596677 0.0045824302
0001f0 c0 c2 3b 39 c0 b3 7b bb 43 30 2d bb 88 da 0a 3b
       0.0001790626 -0.00384067 -0.0026426471 0.0021187384
000200 45 61 36 3a c3 36 ae 39 6e 87 22 3b 6d 24 a4 ba
       0.00069572433 0.00033228667 0.002479996 -0.0012523063
000210 1e 05 18 b9 8f b3 d3 39 25 f0 3b bb 37 3e 8a 3b
       -0.00014497756 0.00040378838 -0.0028677073 0.0042188424
000220 76 a6 41 ba bf 96 77 3a f0 14 84 bb 8a 23 1d bb
       -0.00073871703 0.0009444765 -0.0040308163 -0.0023977482
000230 2c fb ea b9 4f 4b 8f ba 93 de 9a b9 4c 55 3c ba
       -0.00044819096 -0.0010932478 -0.00029539 -0.0007184341
000240 bd e1 dd ba 61 46 40 3b 73 32 f7 3a f6 a1 3f ba
       -0.0016928237 0.0029338824 0.001885964 -0.0007310206
000250 76 f1 97 3a cf 2a 7b b9 40 72 6b 3a d7 2c d6 ba
       0.0011592347 -0.00023953173 0.0008981563 -0.0016340268
000260 0b de 94 3a c8 3b a7 3a fc c7 18 bb 37 92 43 3b
       0.0011357678 0.0012758905 -0.002331256 0.002984179
000270 94 b7 01 bb 8e 3c 30 3a 3f ca 75 3b d8 a2 62 bb
       -0.001979326 0.00067228905 0.0037504581 -0.0034581926
000280 76 42 5c 3a 64 f8 47 3b 1e b2 54 bb 45 ec 25 bb
       0.00084022374 0.0030513043 -0.00324548 -0.002531783
000290 6a b4 b5 ba da ae 8b ba 65 83 e7 3a f7 3e 93 37
       -0.0013862972 -0.0010656968 0.001766306 1.7553086e-05
0002a0 d8 1b 80 3a 98 51 80 3a 6c 3e 4c ba 3d cb 0a ba
       0.0009773923 0.0009789942 -0.0007791284 -0.0005294567
0002b0 48 4e a9 3b 9b d1 81 3b ff da a7 ba 84 20 8b 3b
       0.0051668026 0.0039617545 -0.0012806355 0.0042458195
0002c0 87 af a2 3a da f9 44 ba 3a 32 df ba a1 62 66 3a
       0.001241193 -0.00075140374 -0.0017028518 0.00087885006
0002d0 77 c9 a0 ba 7e 91 07 ba e4 95 47 3b 2a 4c fb 3a
       -0.0012267072 -0.00051715213 0.0030454332 0.0019172479
0002e0 8f c8 96 3b 95 bd 91 3b 32 25 af bb 7e 6a 58 3a
       0.004601545 0.004447649 -0.00534501 0.00082556147
0002f0 06 fe 96 b9 d0 db 3c bb f5 f6 8b ba 43 96 11 bb
       -0.00028799492 -0.0028817542 -0.0010678457 -0.0022214807
000300 86 b9 d1 3a 5d af 8f 3b 50 b4 36 3b b1 43 99 3a
       0.0016000725 0.0043849186 0.002787847 0.0011693147
000310 72 65 0b bb 1b 90 62 3b 18 49 a2 3a 30 c3 3c 3b
       -0.0021270183 0.0034570757 0.0012381403 0.0028802864
000320 47 69 6c 3b a2 0c d6 3a 35 c7 95 3a 48 35 b4 3a
       0.0036073492 0.0016330669 0.0011427166 0.0013748789
000330 04 48 6d 3a 34 1b 1c ba 26 46 65 b9 9d 95 99 bb
       0.00090515637 -0.00059549813 -0.00021865274 -0.0046870247
000340 9c a3 c7 3b 66 cc 2e bb ca d3 d1 3b 0c 1c 41 bb
       0.006092502 -0.0026672124 0.006403421 -0.002946618
000350 55 8c 40 3b 3f f3 a6 b9 82 93 02 bb f8 3c 5c 3b
       0.002938052 -0.0003184322 -0.0019924347 0.0033605676
000360 7b 11 67 bb 95 81 7a 3b 5b 61 3a 3a 0f 61 58 ba
       -0.0035258222 0.003822421 0.0007109844 -0.0008254209
000370 7a 11 58 bb 4d 1b e5 3a 80 40 31 bb 7c a7 ba ba
       -0.0032969401 0.001747945 -0.0027046502 -0.0014240588
000380 7f 5a c2 3a db 5c 6d b9 fc 9f 5c bb 3d 99 8d 3a
       0.0014827995 -0.00022636673 -0.0033664694 0.0010803115
000390 ad 6d 5f bb d0 dd 81 b9 e5 7b 22 b9 74 55 0d ba
       -0.0034092471 -0.0002477006 -0.00015495678 -0.00053914567
0003a0 90 b3 38 ba 44 92 85 bb ce 0d 46 ba 31 e0 cf 3a
       -0.00070458 -0.004076274 -0.00075551576 0.0015859661
0003b0 3d cb a2 3b 67 1f 1b 3b 0f 29 10 3b dd d8 be 3a
       0.0049680755 0.002366984 0.002199713 0.001456048
0003c0 83 78 01 3b 38 24 5e 3a 5b 5c 92 ba 74 4e 66 bb
       0.0019755668 0.0008474025 -0.001116644 -0.0035141977
0003d0 38 6e 9f 3a bc fe 45 bb 22 80 9a 3b 85 d6 64 3b
       0.0012163585 -0.0030211648 0.0047149817 0.0034917903
0003e0 cf 94 80 3a d9 fd 12 ba 8d 58 25 bb 0f b2 39 bb
       0.0009809973 -0.0005607284 -0.0025229782 -0.002833489
0003f0 4c 6f bc bb 39 40 b9 ba ed bf 68 3a b7 fb df ba
       -0.0057505723 -0.001413352 0.0008878697 -0.0017088567

model.0.running_mean f4 [1024]
000000 bc 7a 67 bd fe a4 86 bc 46 36 f1 3b 7e 36 d4 bc
       -0.056513533 -0.016436096 0.007361206 -0.02590489
000010 77 ab 2d 3b 77 49 61 bc b7 87 20 3d c6 ba 91 bb
       0.0026499906 -0.013750426 0.039191928 -0.004447314
000020 ba 9a ad bb f5 f4 03 3d 45 2b 29 bc 27 46 a7 3b
       -0.005297986 0.03221603 -0.010325258 0.0051047984
000030 62 32 92 bb e8 2d 4f bc 4c 22 92 3b a6 a0 30 3c
       -0.0044615725 -0.012645222 0.004459655 0.010780489
000040 25 19 0f bd 32 0d d2 bc 48 58 6d b9 49 24 16 3c
       -0.03493609 -0.025641058 -0.00022634969 0.0091639245
000050 24 32 74 3c 84 d1 3c 39 f6 09 99 3c 58 a0 93 3d
       0.014904533 0.00018007128 0.018681508 0.072083175
000060 72 9a 9d 3c 48 6d f4 3c 88 64 d4 bc 49 c3 3e 3c
       0.019238684 0.029837266 -0.025926843 0.011643239
000070 59 89 b8 bb 41 f2 46 bc 1c ac c7 3c 35 32 76 bc
       -0.0056316075 -0.012142719 0.02437406 -0.015026619
000080 2e e0 02 bc 27 86 16 3c 2b ef 0f bb 7c b8 80 3c
       -0.007988019 0.009187258 -0.0021962624 0.015712969
000090 19 a5 35 bc 4d fd d7 3b 8a 3e e3 bc 5a 4b 8f bb
       -0.011086726 0.006591475 -0.027739782 -0.0043729963
0000a0 c8 40 36 3c 91 8e d4 3c 96 42 8c ba b2 6b 3c bd
       0.0111238435 0.025946887 -0.0010700996 -0.046001144
0000b0 a2 1b c6 bc cd 4e 6d 3b 32 4a 9f ba 3e c5 c7 bc
       -0.024183098 0.00362103 -0.0012152849 -0.024386045
0000c0 54 6b 3d bc e3 b3 a8 3d f8 ab c1 bc ef 01 8f bc
       -0.011561234 0.08237436 -0.023641571 -0.017456977
0000d0 b3 a3 9d bc ad bc 13 3c 5b a0 22 3c 57 61 0d bc
       -0.019243097 0.009017152 0.009925927 -0.008629165
0000e0 17 23 08 3d aa 15 14 3c 6f d2 c9 bb 50 a4 2b bc
       0.03323659 0.009038368 -0.006159119 -0.010476187
0000f0 00 6a 39 3c ac 88 ab bc 28 4a 3e bc da b3 bc 3c
       0.011316776 -0.020939194 -0.01161436 0.023034979
000100 ee 69 0f b9 f0 f2 71 bc b0 09 b2 3b e4 64 da 3b
       -0.00013677005 -0.0147673935 0.0054332837 0.006664859
000110 0d 91 b1 3a ae 4f cc 3b 64 06 1f 3d ae 7e 37 3c
       0.0013547257 0.0062350845 0.038824454 0.011199636
000120 fb 70 86 bc 88 32 2f 3d 7c b5 f1 3c 14 8e 44 bc
       -0.016411295 0.0427728 0.029505484 -0.011996765
000130 f6 b3 cc 3c d9 59 8d bc d2 27 87 3c 1a f8 99 bc
       0.024988156 -0.017254757 0.01649848 -0.018795062
000140 32 cd 08 bc 0c a7 e0 3c 12 a8 55 bd 1a 5a ae 3c
       -0.008349704 0.027423404 -0.052162237 0.021283198
000150 6d 85 8d bc 35 89 27 bd eb 83 bf 3c 2a 08 97 bc
       -0.017275536 -0.040902335 0.023378333 -0.01843651
000160 1e cb 36 3c 6b ad bb 3c e6 b2 c8 bc bb d1 a3 bb
       0.011156825 0.02290984 -0.024499368 -0.004999367
000170 a3 60 3e bc 14 48 5b 3c 1a c1 3e 3c 04 8a 98 3c
       -0.01161972 0.013383884 0.011642719 0.018620498
000180 df a2 0e 3c 05 5c 6a 3d 42 77 18 bc cd d1 ba 3c
       0.008705824 0.057216663 -0.009305777 0.022805119
000190 46 43 64 3c 02 89 d7 3c 5e 2e 0a ba f8 7e 48 3c
       0.013932055 0.026310448 -0.00052711915 0.012237303
0001a0 65 06 93 3d ab 4c 82 3c 82 19 19 3b 68 77 c3 bc
       0.07178954 0.015905699 0.002336115 -0.023860648
0001b0 cd fb f4 bc 30 1a 4e 3d 0e 84 3e bc ec f6 2f 3b
       -0.029905224 0.050317943 -0.011628164 0.0026850058
0001c0 9a eb 85 3d 94 7a 6d bb 4c a0 97 bb f6 bf 96 3c
       0.06539078 -0.0036236392 -0.004627263 0.018402081
0001d0 f6 fa 7b ba 47 4b eb bb 8a e2 ec 3a 9e 38 d5 bb
       -0.0009612286 -0.0071806046 0.0018072885 -0.0065069934
0001e0 7e ac a7 bc 72 f7 0a bc 81 b2 87 bc 9f d5 47 bc
       -0.020467993 -0.008481847 -0.01656461 -0.012196927
0001f0 6d a7 45 bd 29 60 bb bc 30 89 21 bc 24 30 ad bc
       -0.048255373 -0.022873001 -0.009859368 -0.02114112
000200 00 d4 a6 3c ab b2 9a bc 2c 1b 85 bd da 8c 72 bc
       0.020364761 -0.018884024 -0.06499323 -0.014804089
000210 ce d2 84 3c 3f 17 4f bb 8d 04 83 ba 7c 50 e5 bc
       0.0162138 -0.003159955 -0.0009995863 -0.02799248
000220 e6 23 2f 3d d7 b5 ba 3c 92 07 59 bb 82 ce b7 bc
       0.042758845 0.022791786 -0.0033116085 -0.022437338
000230 00 c6 3c 3b c9 fe 24 bd 02 67 27 bc cb 3f c3 bb
       0.002880454 -0.040282045 -0.01021743 -0.0059585324
000240 45 af 04 bb 04 e9 23 bc 41 21 34 3d d0 d9 bd bc
       -0.002024607 -0.010004286 0.043977026 -0.02317515
000250 0b 30 05 bd 96 5b 15 3b c9 cc 05 bc ac 1c fd b9
       -0.03251652 0.0022790185 -0.0081665 -0.00048277283
000260 a2 5e e0 3b 83 ef c9 ba 3a 10 85 3c c1 b4 cf 3c
       0.0068472186 -0.0015406463 0.016243089 0.025354745
000270 b9 be df 3c 2a eb 16 bc 8e 83 8f bb 86 0b e1 3b
       0.027312623 -0.009211341 -0.004379696 0.006867829
000280 b1 e3 96 3a d9 d7 df 3c a0 7f 7a 3c 0b 32 6d 3b
       0.0011511949 0.027324604 0.015289217 0.0036193158
000290 76 6c a5 bb ac c4 97 bb 0b 8c 66 bd cb 0a f4 bb
       -0.00504833 -0.0046315994 -0.0562859 -0.0074475757
0002a0 f8 e9 1a bd ab 12 db 3c 92 1e e1 3c cd 96 f6 3c
       -0.037820786 0.0267423 0.027480397 0.030101204
0002b0 17 ed d0 3c e5 25 04 bc fd 03 c1 3c 9e 9b 39 3c
       0.025503678 -0.008065675 0.023561472 0.011328606
0002c0 a8 e5 34 bc d6 e8 49 bc 15 18 96 bc f5 4b 10 bb
       -0.011041082 -0.012323579 -0.01832203 -0.002201793
0002d0 3c 34 fe bc 2e db 8f bc c6 28 c8 bb da a5 45 3c
       -0.031030767 -0.017560568 -0.006108376 0.012063468
0002e0 6e 08 30 bc 73 17 ca 3c fe 04 41 3d 14 e9 5e bc
       -0.010744197 0.024669385 0.0471239 -0.013605375
0002f0 8f 8b 73 bc 63 84 06 bd 9f fd 1d 3d 9a cc 52 3c
       -0.014864816 -0.032841098 0.03857195 0.012866164
000300 76 e0 71 3c fe fb fc 3c 42 68 3f 3c 43 e4 36 3c
       0.014762988 0.030881878 0.011682572 0.01116282
000310 5b da 2d bc 55 3e 29 bb b1 d1 a9 3c fa 45 01 3d
       -0.010611142 -0.0025824506 0.020729871 0.031560875
000320 02 af b8 3b de 88 43 bc 83 f6 2b 3b 21 7f d6 bc
       0.005636097 -0.011934487 0.0026239462 -0.026183667
000330 8e ac ca bc 7b 90 09 3c 31 1c 4f bc 4e bb 65 bc
       -0.024740484 0.008396263 -0.012640999 -0.014021708
000340 e3 8c 85 3c 21 1c 1e bc 12 5e 05 bd 47 37 b2 bc
       0.016302532 -0.009650261 -0.032560416 -0.021754874
000350 2d 17 65 3c b7 89 d0 3c 33 15 cc 3b 1a 42 77 bc
       0.013982576 0.025456293 0.006228113 -0.015091443
000360 1a 70 55 3c 50 da dc 3c c9 bf eb bb 3e 3f d8 bb
       0.013027215 0.026959568 -0.0071944934 -0.006599336
000370 92 86 30 3c 07 cc 97 bc 29 32 45 bd 00 df a6 bc
       0.010774272 -0.018529905 -0.04814354 -0.020370007
000380 7e c1 b5 3c 05 97 4e 3c 2a eb 83 3b 8d 30 a6 bc
       0.02218699 0.012609248 0.0040258365 -0.020286823
000390 b3 f3 36 3b c7 a0 a8 bc 9b 5d 12 bc 4c 2c 00 bd
       0.0027916252 -0.020584477 -0.00893345 -0.031292245
0003a0 c1 ac 8a bb 6a ae e6 bc a5 06 46 bc 2f 45 8f bc
       -0.0042320197 -0.028159339 -0.012086545 -0.017489044
0003b0 ed 76 ee bc 99 a9 0c 3d db c8 a4 3c f4 2e 86 bc
       -0.029109443 0.03434143 0.020115307 -0.01637981
0003c0 23 1c 04 3d 49 2b 40 ba 2c 62 cb bb 74 6e d3 3c
       0.032253396 -0.0007330669 -0.0062067714 0.025809504
0003d0 22 b9 b1 bc 77 3e aa ba 2d 45 3a 3c 6c b2 b0 3c
       -0.021694724 -0.0012988587 0.011369032 0.021569453
0003e0 d7 c5 8d 39 ab 6a dc 3c ff c7 8e bc f4 27 c6 3c
       0.00027041018 0.026906332 -0.01742935 0.024188973
0003f0 5d f3 96 3c 50 71 15 3b 01 c4 72 3c 82 7e ad 3c
       0.018426592 0.0022803135 0.014817239 0.021178488

model.0.running_var f4 [1024]
000000 25 ad 2f 39 b1 de 18 39 15 f5 1c 39 7f 1e 0e 39
       0.00016753802 0.00014578809 0.0001496862 0.00013553536
000010 3f fb 23 39 9e 88 3c 39 93 8e 22 39 30 86 ea 38
       0.00015638488 0.00017979971 0.00015502637 0.00011182984
000020 c5 a9 0d 39 ef 1d 37 39 8a fe 2c 39 89 f0 50 39
       0.00013510052 0.00017463391 0.00016498021 0.00019926032
000030 67 b7 34 39 f1 a8 19 39 1f 0e 17 39 13 f2 09 39
       0.0001723446 0.00014654153 0.00014405743 0.00013155518
000040 cb 05 00 39 5f d4 2e 39 05 5f 61 39 1d 94 1e 39
       0.0001220919 0.00016673048 0.0002149307 0.0001512323
000050 63 1a 39 39 73 1a 23 39 3b 07 07 39 d4 1f 5c 39
       0.00017652805 0.00015554744 0.00012877297 0.00020992692
000060 d3 a8 17 39 45 e7 2d 39 68 96 4c 39 b9 d8 fb 38
       0.00014463374 0.0001658472 0.00019510987 0.000120089804
000070 8f 2d 2f 39 ce 54 c6 39 1d 14 67 39 a0 d1 51 39
       0.00016706272 0.00037828687 0.0002203737 0.00020009885
000080 c3 4e 48 39 1b a8 e8 38 c8 99 44 39 44 d5 5b 39
       0.00019102827 0.00011093934 0.00018749305 0.00020964915
000090 67 23 fc 38 f9 2c ac 38 b4 aa fc 38 65 82 8d 39
       0.000120228906 8.209976e-05 0.00012048092 0.00026990767
0000a0 49 da a0 39 fc 18 3f 39 c5 62 43 39 46 b5 20 39
       0.00030680213 0.00018224487 0.00018633444 0.00015326319
0000b0 eb be 51 39 f5 0f 78 39 ea fc 6d 39 55 4c 5c 39
       0.00020002916 0.00023657068 0.00022696299 0.00021009271
0000c0 12 9b 10 39 63 2a e2 39 47 56 87 39 1e da 99 39
       0.00013790678 0.0004313766 0.00025813488 0.00029344944
0000d0 2d 06 3e 39 b0 d3 65 39 82 4c 0e 39 f0 13 0c 39
       0.00018122113 0.00021918002 0.00013570677 0.00013358868
0000e0 34 13 8a 39 bf d9 b9 38 27 db 02 39 fc 0a 25 39
       0.0002633572 8.862046e-05 0.00012479407 0.00015739718
0000f0 02 db 62 39 e5 3f 57 39 74 0c 8f 39 2c 3d 3e 39
       0.00021634626 0.000205278 0.00027284364 0.000181426
000100 f4 51 21 39 7a b2 c6 38 cc 58 38 39 34 d9 07 39
       0.00015384686 9.4746196e-05 0.00017580687 0.00012955518
000110 bc 93 14 39 be 96 37 39 a5 78 5c 39 66 81 69 39
       0.00014169415 0.00017508396 0.00021025779 0.00022268816
000120 1e a7 57 39 b6 a8 4b 39 c1 36 55 39 2d 63 4b 39
       0.00020566254 0.00019422438 0.0002033366 0.00019396534
000130 f3 33 e5 38 60 69 43 39 82 57 24 39 f5 02 77 39
       0.00010929247 0.00018635904 0.00015672858 0.00023556857
000140 ac 98 4c 39 10 a6 f8 38 bf 7e 5d 39 9f 9e 0b 39
       0.00019511831 0.00011856493 0.00021123419 0.00013315164
000150 88 5d f5 38 1d d9 c1 39 8d 24 1e 39 04 75 75 39
       0.00011699932 0.0003697359 0.0001508167 0.00023408612
000160 90 58 08 39 c1 0e 90 39 f2 a1 b7 39 d4 41 54 39
       0.00013002963 0.00027476813 0.0003502514 0.00020242418
000170 04 24 09 39 2f 34 7d 39 0b 50 26 39 74 2f 38 39
       0.00013078755 0.000241474 0.00015860812 0.00017565285
000180 42 3a 24 39 4e 54 40 39 2e 0b 3e 39 14 af ad 39
       0.00015661962 0.00018341953 0.00018123977 0.00033127575
000190 04 5c 1b 39 b9 24 08 39 1d 93 43 39 db 6a f3 38
       0.0001481623 0.00012983651 0.00018651453 0.00011607046
0001a0 cd 3d 3c 3a d8 ed 37 39 9d ae 41 39 1c 18 60 39
       0.000718084 0.00017540844 0.00018470963 0.00021371286
0001b0 86 e7 3a 39 03 37 32 39 ac 32 45 39 6b 68 0a 39
       0.00017824591 0.00016995896 0.00018806261 0.00013199604
0001c0 ab 43 36 39 ab 75 66 39 78 61 73 39 66 98 8f 39
       0.00017382081 0.00021978344 0.00023210596 0.0002738863
0001d0 63 34 fb 38 35 04 3a 39 c0 17 67 39 f2 ac 8d 39
       0.000119783705 0.0001773991 0.00022038724 0.0002702247
0001e0 e2 b7 6c 39 7b 40 1c 39 01 02 29 39 9a a8 40 39
       0.00022575216 0.0001490134 0.00016117842 0.00018373356
0001f0 f8 ac 1c 39 88 6e cc 38 45 60 e5 38 e4 d2 f9 38
       0.00014941755 9.748066e-05 0.000109375025 0.00011912527
000200 d2 e8 4e 39 a6 f8 9a 39 67 9c 72 39 5b 79 f6 38
       0.00019732423 0.00029558426 0.00023137183 0.00011752798
000210 99 ad 41 39 25 e5 1a 39 48 40 f8 38 a7 c5 44 39
       0.00018470584 0.00014771947 0.00011837535 0.00018765648
000220 e2 c3 8b 39 b2 e8 18 39 3c f6 30 39 bd 34 2a 39
       0.0002665809 0.00014582535 0.00016876397 0.0001623211
000230 01 9f 08 39 4f 3f 14 39 1e 67 2c 39 c8 28 2b 39
       0.00013029204 0.00014137964 0.00016441612 0.00016323023
000240 59 7c ae 39 12 5b 67 39 c1 10 61 39 64 d6 21 39
       0.00033280512 0.00022063803 0.00021463913 0.00015434023
000250 21 5c 84 39 63 6f 2f 39 0f 98 81 39 6a 3d 24 39
       0.00025245643 0.00016730795 0.0002471809 0.00015663137
000260 8a 08 0e 39 48 ca 81 39 c5 af 02 39 ae 45 3c 39
       0.00013545356 0.0002475551 0.00012463245 0.00017955035
000270 21 3b 02 39 a2 c8 22 39 76 80 9a 39 59 0e 1c 39
       0.00012419793 0.00015524265 0.0002946888 0.00014882664
000280 11 3e 20 39 cb a6 12 39 14 f3 04 39 4f 8f 1a 39
       0.0001528191 0.0001398578 0.00012679055 0.00014739971
000290 dd e1 0a 39 93 83 de 38 d9 c4 75 3a 72 bc 10 39
       0.00013244846 0.000106102925 0.0009375341 0.00013803112
0002a0 b0 09 48 39 39 e1 3e 39 19 e1 2b 39 e8 7d 35 39
       0.00019077095 0.00018203714 0.00016391686 0.00017308409
0002b0 88 85 2d 39 59 b9 ef 38 da 15 88 39 4e 72 57 39
       0.0001654831 0.00011430932 0.00025956222 0.0002054658
0002c0 07 0a 00 39 b8 03 25 39 7e 47 01 39 e9 12 86 39
       0.00012210767 0.00015737012 0.00012329032 0.0002557256
0002d0 d3 11 57 39 b5 d4 81 39 b9 30 8a 39 73 b8 43 39
       0.00020510638 0.00024763276 0.00026357712 0.00018665362
0002e0 bd 34 36 39 b5 4c 15 39 13 7c 77 39 7f b0 20 39
       0.00017376519 0.00014238323 0.00023601977 0.00015324539
0002f0 2a cc 22 39 2e 0d 29 39 4d 8e 81 39 56 7f 2c 39
       0.00015525581 0.00016122006 0.0002471082 0.00016450635
000300 fd d5 7f 39 ef f9 15 39 2b 29 19 39 57 db 61 39
       0.00024398412 0.00014302855 0.00014606553 0.00021539383
000310 4f 0c 51 39 b8 35 30 39 e3 91 3f 39 1d 46 4a 39
       0.00019936379 0.0001680468 0.00018269526 0.0001929034
000320 6a 27 20 39 1b 51 3e 39 39 58 25 39 93 2d 12 39
       0.00015273472 0.00018150026 0.00015768492 0.00013940623
000330 05 e9 1d 39 0f 62 25 39 e8 07 0e 39 45 9f 28 39
       0.00015059493 0.00015772156 0.0001354512 0.00016081061
000340 4b fe 22 39 f2 5c 2d 39 53 58 41 39 61 a9 1a 39
       0.00015544255 0.0001653319 0.00018438818 0.00014749683
000350 25 50 28 39 93 f5 3e 39 c1 9f 29 3a 17 2f e9 38
       0.00016051585 0.00018211296 0.00064706436 0.00011119077
000360 4d 92 ff 38 cc 42 0b 39 94 a3 ff 38 61 19 47 39
       0.00012186598 0.00013280957 0.00012189816 0.00018987573
000370 bf 7a 40 39 a9 69 32 39 c7 65 15 39 b3 09 4b 39
       0.00018356273 0.00017014764 0.00014247662 0.00019363202
000380 cd 50 61 39 54 a5 33 39 05 1e f2 38 33 9a f6 38
       0.00021487773 0.0001713236 0.00011545051 0.00011758916
000390 cf e3 dd 38 e8 ec 1e 39 68 77 0b 39 ee d0 d9 39
       0.00010580534 0.00015156309 0.00013300555 0.0004154513
0003a0 c6 0f 39 39 77 98 57 39 fe f9 ec 38 97 6d ee 38
       0.00017648851 0.00020560795 0.000112999216 0.00011369137
0003b0 a0 4c 3d 39 bc 6b 1d 39 28 31 11 39 f8 50 04 39
       0.0001805299 0.00015012821 0.0001384659 0.00012618664
0003c0 20 93 1e 39 32 8f 16 39 14 f7 55 39 83 c0 48 39
       0.00015122863 0.00014358459 0.00020405307 0.00019145203
0003d0 fd 15 49 39 f3 5f ff 39 04 6b 01 39 44 39 07 39
       0.00019177045 0.00048708878 0.00012342265 0.00012895936
0003e0 98 54 28 39 6c 11 0b 39 03 73 2d 39 ca e8 18 39
       0.00016053242 0.00013262563 0.00016541411 0.0001458257
0003f0 b5 07 34 39 0a 81 da 38 3b 93 12 39 38 39 11 39
       0.00017169009 0.000104190854 0.00013978493 0.00013849593

model.1.weight f4 [32, 1024]
000000 12 6e 60 bb 20 fd 42 3c b5 b4 4c bc b9 26 c7 bb
       -0.0034245295 0.01190117 -0.012494256 -0.006077614
000010 a3 e5 a7 3c 88 d0 8a ba 31 ef ce 3c 47 94 cd ba
       0.020495242 -0.0010590712 0.02526054 -0.0015684449
000020 48 92 c5 3c 8a 29 72 bc 3e 8e 72 3c c5 0d 5f 3c
       0.024117604 -0.0147804115 0.014804421 0.013614123
000030 0e f4 9b bb 2a 56 00 3d 95 8e 76 bc 0e f0 9b bc
       -0.004759318 0.031332172 -0.015048643 -0.019035365
000040 a2 a9 c1 3c f1 1a 59 bc ac 57 b2 3c fb d5 18 bc
       0.023640458 -0.013251052 0.02177032 -0.009328361
000050 a2 73 47 bb 75 3c 33 bc 10 65 5d bc 0f 71 d2 bc
       -0.0030433913 -0.010939707 -0.013512865 -0.025688676
000060 74 5e 9a bb d7 41 b8 bc 50 f5 fd 3c 53 6b 0f 3c
       -0.0047109667 -0.022492332 0.031000763 0.008753615
000070 f7 ee fa 3c cf b5 bd 39 02 96 8f 3b 12 e5 6e bc
       0.030631525 0.00036184347 0.004381896 -0.014580982
000080 83 5b 08 3c 5a 45 2f bc 7b 88 24 3c 77 1e d4 ba
       0.008322599 -0.010697687 0.010042305 -0.0016183396
000090 9c e6 32 3c 9f d1 ce 3c 35 ae 43 3c db ec 98 3c
       0.010919239 0.02524644 0.01194339 0.018667629
0000a0 24 e4 88 bc 64 6b 89 3c dd 78 e3 bc cc d5 1c bc
       -0.016710348 0.01677484 -0.027767593 -0.0095724575
0000b0 35 53 fb bb 73 8a 3d bb fe 4f 79 bb 81 09 79 3b
       -0.007669831 -0.0028921633 -0.0038042064 0.003800005
0000c0 5a 92 c1 3c af 20 1a 3c 4f a9 f6 3c e1 b6 bd bc
       0.023629356 0.009407206 0.03011003 -0.023158493
0000d0 64 e1 2a bc 6a 1b 86 3c 7d 7b 8a bc 1f e1 14 3c
       -0.010429714 0.016370494 -0.016904587 0.009086876
0000e0 a8 42 d2 bb 3f 1f b9 3c dc 31 64 3c c7 56 97 bc
       -0.0064166375 0.022597907 0.013927903 -0.018473996
0000f0 f4 a7 37 3c ef 57 58 3c cd a4 74 3c a1 a9 18 3b
       0.011209477 0.013204559 0.01493187 0.0023294466
000100 bd 17 05 3b 55 cf 9e bc 3d 96 a8 bc aa 19 c4 3c
       0.0020308339 -0.019385973 -0.020579452 0.023938019
000110 41 c5 7b bc 36 b4 c8 bc ed 6e 32 3c b8 39 fc 3c
       -0.015366853 -0.024499994 0.010890705 0.030789241
000120 6c 06 b8 3b 7e 6d 8f bb 80 35 89 bc 85 b8 4b bc
       0.005616 -0.004377066 -0.016749144 -0.01243413
000130 ab 11 a4 3c a6 5f d5 3c a7 a5 01 bd c4 c8 c0 bc
       0.020027956 0.026046585 -0.03165212 -0.023533233
000140 6e 0c 88 3c 0f 07 bf bc 0c 4f ac bc d1 98 35 bc
       0.01660749 -0.023318795 -0.021033786 -0.011083798
000150 7b d1 08 bc 59 e6 ce 3c fc 0e 98 bc 9a 7a c0 3c
       -0.008350725 0.025256323 -0.018561833 0.023495961
000160 9e 54 b7 3c ec b0 9e 3c 52 28 f6 bc 7b be d7 bc
       0.022379216 0.019371472 -0.030048523 -0.026335945
000170 aa fb e4 3b 77 83 a5 bc 20 0e 66 bb 2f 2b 86 3c
       0.0069880085 -0.020204289 -0.0035103634 0.016378013
000180 5d 9e ae ba 24 5e 5f bc 24 45 60 3c b3 de 84 bc
       -0.0013322342 -0.013633285 0.013688359 -0.016219473
000190 b0 fd c3 3c 22 6c cf bc 07 c8 8c bc 69 68 df 3c
       0.023924679 -0.025320116 -0.017185224 0.027271466
0001a0 e9 af 01 bd 64 e5 ed bc 2b d9 30 bc 03 49 cd bc
       -0.0316619 -0.029040046 -0.010793964 -0.025059229
0001b0 c5 aa 6f bb fb 60 16 bc f4 43 98 bc e6 6b d3 bc
       -0.0036570292 -0.009178395 -0.01858709 -0.025808286
0001c0 76 c4 87 bc e2 98 4e 3c a5 15 75 bc 1b 2e 85 3c
       -0.016573172 0.012609692 -0.014958774 0.016257336
0001d0 b8 bb 84 3c 24 e9 45 3c e2 5d df bc 1c f0 f3 bc
       0.016202793 0.012079511 -0.027266447 -0.029777579
0001e0 76 e9 3e bc f7 66 fe bc 24 a5 d0 3c 3e 38 89 3c
       -0.011652341 -0.031054957 0.02546937 0.016750451
0001f0 65 a2 ed bb 10 4b 62 bc fc 42 e4 3b 59 6e 83 bc
       -0.007252025 -0.013811842 0.006965993 -0.016043829
000200 6a 93 44 3c ea d9 d4 3c b3 fd 95 3c 60 09 95 bc
       0.011998037 0.025982816 0.01830945 -0.018192947
000210 37 6a 69 bc 1c e8 9a bc bb a3 ab 3c c9 73 cf 3c
       -0.014246515 -0.018909506 0.020952096 0.025323765
000220 6a f8 f7 3c e3 5e c8 bc 47 6e c2 3c c2 4f a7 bc
       0.03026982 -0.024459308 0.023734225 -0.020423774
000230 ed 80 83 3c c3 31 c5 ba 7e 15 d1 bc d6 05 30 bc
       0.016052688 -0.0015044737 -0.025522944 -0.010743579
000240 22 de 14 bc 2d a0 67 3b d2 0f a9 3c a8 a7 eb bc
       -0.009086164 0.0035343275 0.020637427 -0.028766468
000250 81 68 04 bb 25 75 7f bc 1d 2b 31 3c 7c a0 9c 3c
       -0.002020389 -0.015591894 0.010813502 0.019119494
000260 3d 31 87 bb 98 92 01 3d 92 59 2c bc ec 4d df 3c
       -0.0041257427 0.031633943 -0.010519402 0.027258836
000270 17 18 7a 3c 48 dc de 3c 5f 8e 55 3c 15 95 bd bb
       0.0152645325 0.027204648 0.013034432 -0.005785594
000280 37 ab a3 3b f7 51 61 3c 79 ff ef 3c c6 82 00 bc
       0.0049947756 0.013752452 0.029296624 -0.007843679
000290 fc 69 2a 3c b7 f9 7f bc 28 d8 95 bc f2 31 a3 3c
       0.010401245 -0.0156235015 -0.018291548 0.019921277
0002a0 e7 69 4d bc c1 03 fa ba 28 17 b5 3c 66 73 e7 bc
       -0.012537456 -0.0019074605 0.022105768 -0.028253268
0002b0 11 02 e1 3c a1 53 d1 3b 01 d7 e4 bc 88 3a eb 3c
       0.027466806 0.006388143 -0.027934553 0.028714433
0002c0 8d a0 03 bd 86 25 13 bc 1e 69 5c bc 6d 77 05 3d
       -0.032135535 -0.008981114 -0.013452796 0.032584596
0002d0 53 9f 9a 3c 94 12 08 bd 92 14 4d 3c b9 18 11 bc
       0.0188748 -0.033220842 0.012517111 -0.008855992
0002e0 ca 1a d9 3c a6 27 f7 3c e5 39 a6 bc b2 c9 84 3b
       0.026502032 0.030170273 -0.020291278 0.0040523643
0002f0 30 4e b3 3c b1 d2 2d 3c c4 31 99 3c 39 b0 a4 bc
       0.021887869 0.010609315 0.018700488 -0.02010356
000300 0d 00 0c 3c f8 1b 0b 3c dd 2b 14 bc eb 08 9a 3c
       0.008544934 0.008490555 -0.009043661 0.01880308
000310 9f 0b e2 bc d9 aa 99 bb d0 f5 f8 3c d2 2b 8c bc
       -0.027593432 -0.004689556 0.03039065 -0.017110739
000320 04 19 8d 3c fc 3c a9 3b d3 28 81 3c 02 1f a4 bc
       0.017223842 0.0051647406 0.015766537 -0.020034317
000330 e1 e1 24 3c b7 c8 e7 3c 0c 28 87 bc 9f 5a cb bc
       0.010063619 0.02829395 -0.016498588 -0.024823485
000340 1a 69 59 3b 2f 79 cf bc 4a bf 9b bc f4 b9 85 3a
       0.0033174218 -0.02532634 -0.019012112 0.0010202513
000350 db 64 31 bc b7 fe 4b 3b fb 82 e1 3b 93 fb c0 b9
       -0.0108272685 0.0031127164 0.006882069 -0.0003680853
000360 c4 1a 2a bc 6a ce 19 3c 8a b9 af 3c 66 31 d5 3c
       -0.010382358 0.009387592 0.021450777 0.026024532
000370 10 58 c6 bc fd 4f 4b bc 1f 79 e6 bc 07 e4 87 bc
       -0.024211913 -0.012409207 -0.028133927 -0.016588224
000380 07 67 f4 3c 3b d0 cd bc c2 6d 35 3c 9e 87 ba bc
       0.029834284 -0.025123706 0.011073532 -0.022769745
000390 62 05 6a bc 0b ca c4 bc d9 c6 b8 3c a6 d0 3e 3c
       -0.01428351 -0.024022123 0.022555755 0.011646425
0003a0 be 11 b8 3b 5f ca b2 bc 44 a2 bf 3c e0 88 87 bc
       0.0056173494 -0.021825014 0.023392804 -0.01654476
0003b0 e1 aa 60 3c 37 ca 94 3c 0e d6 8f 3c 20 1d df 3c
       0.013712616 0.01816283 0.017558124 0.027235568
0003c0 6d 25 8c ba e2 a1 f2 3b 50 41 82 bc 5d 2b 46 3b
       -0.0010692306 0.007404552 -0.015900284 0.003023825
0003d0 6c 59 3e 3c f4 b2 b7 bc 7e 51 8e 3c 95 7a 0c 3c
       0.0116179995 -0.022424199 0.017372843 0.008574148
0003e0 a1 f6 fa bb 00 56 c1 3c 30 f8 c1 bc 7a e0 b0 3c
       -0.007658795 0.023600578 -0.023677915 0.021591414
0003f0 67 4b 12 3b 50 a2 21 bc f0 83 80 3c 5d 8d 9e 3c
       0.0022322775 -0.0098653585 0.015687913 0.019354517

model.1.bias f4 [32]
000000 c5 be cb 3c 30 2f 25 bc 5b 8b a4 bc 30 a1 a0 3c
       0.02487124 -0.010082051 -0.020085981 0.01960811
000010 28 b0 ef bc 8a eb eb bb d4 02 c5 bc bf 6a 4d bc
       -0.029258803 -0.0071997093 -0.0240492 -0.012537657
000020 c6 8d 08 bc f4 ab 07 3d b8 dc 88 bc f5 a3 32 bc
       -0.008334583 0.03312297 -0.01670681 -0.010903348
000030 f4 eb e5 3c d3 27 db 3b 4d fa 6a 3c 8d 90 a9 3c
       0.028066613 0.006688097 0.014341903 0.02069881
000040 8a d8 81 bc 5c 44 98 bc b8 55 8f 3c 1c 18 f5 bb
       -0.015850324 -0.018587284 0.017496929 -0.0074796807
000050 ed 5d 89 3a ea 5f c8 bc e2 6f ec bb 44 4e 4b 3c
       0.0010480263 -0.024459798 -0.007215486 0.012408797
000060 c1 83 d3 bc 64 0d 4e bc e1 01 80 bb 79 2f 48 bc
       -0.025819661 -0.012576435 -0.003906474 -0.01221835
000070 52 ef 89 ba f7 95 04 3c 40 72 79 3c 62 49 a1 bb
       -0.0010523594 0.008092395 0.015224993 -0.004922078

model.4.weight f4 [64, 32]
000000 5b 7a c7 3c 65 0a d8 3b fc 31 d6 bc 64 7f aa bd
       0.024350336 0.006593036 -0.026146881 -0.08325079
000010 6b 46 04 3c 17 59 14 3e ad 71 4d 3d 6c 66 e0 bb
       0.00807343 0.1448711 0.050157238 -0.006848147
000020 f5 02 eb 3d af 52 bd bd 28 54 ee 3d 39 c1 a6 bd
       0.114751734 -0.09244286 0.11637145 -0.08142323
000030 cf 3a 18 3e 0b cf ca 3d e5 f6 bf bd 4d 8c e6 3d
       0.14866184 0.099027716 -0.09373263 0.11257229
000040 66 98 2b bd 00 65 9d bd d8 cd 05 be a8 3d 31 be
       -0.041893385 -0.0768528 -0.13066804 -0.17308676
000050 01 af 8b bc a0 99 ea 3c 0c 2f 30 3e f4 f0 07 bd
       -0.017051222 0.028637707 0.17205447 -0.033188775
000060 95 68 2e 3e 23 de 20 3e 3e 79 ba 3d d4 8a 15 3e
       0.17032082 0.15709738 0.09105156 0.1460374
000070 23 4a ea bd 24 c9 15 3e d1 05 c8 bd 02 3c 30 3e
       -0.11439922 0.1462751 -0.097667344 0.17210391
000080 20 6a 1c 3e a8 74 6b 3c d1 af db bd b8 bd 59 bc
       0.15274858 0.014371075 -0.10726894 -0.013289861
000090 8a f8 21 bd c1 6b 00 3e 7e 39 0e be 01 c8 63 bd
       -0.039543666 0.12541105 -0.13889119 -0.05561066
0000a0 ee de 18 be cb a7 05 3e 9a 6c 08 be f5 25 fa bd
       -0.14928791 0.13052289 -0.13322678 -0.12214271
0000b0 dc 1d 8a 3d 78 a9 9d 3d d3 e4 25 be 36 f5 e6 bb
       0.067439765 0.07698339 -0.16200571 -0.0070482744
0000c0 44 2b 45 3c 79 d5 89 3d 8c 00 47 3d 2f d1 16 be
       0.012034241 0.0673017 0.048584506 -0.14728235
0000d0 14 03 f9 bd a6 57 bb 3c 54 21 7b bc 0f d1 a5 bd
       -0.1215879 0.022868942 -0.01532777 -0.080965154
0000e0 13 ea da bd 27 87 01 bd c7 3b a9 3d 04 6b 86 bd
       -0.10689177 -0.031623032 0.08263355 -0.0656338
0000f0 9f bb 1a be cb a6 9c bd 2a c5 16 3e a5 8f 06 3e
       -0.15110634 -0.07649001 0.1472365 0.13140734
000100 1b 29 2a 3e 86 38 0f be 4d 19 ac 3d fa 64 82 3c
       0.16617243 -0.13986406 0.08403263 0.01591729
000110 54 02 ce 3d 2c fe 10 3e a9 6d 26 bd ba 1b 8a bc
       0.10059038 0.14159459 -0.040631924 -0.016858924
000120 40 b8 93 3d 46 86 8d bc a7 99 b6 3d d2 67 ed 3d
       0.07212877 -0.01727594 0.089160256 0.11592068
000130 5e 3a 9b bd 92 4c 93 bd 2f 5d c1 bd 6d 74 78 3d
       -0.07579492 -0.07192339 -0.094416015 0.060657907
000140 7f 7a 2b 3d 8f a8 fd bd 5f 12 74 3d f9 48 ef bd
       0.04186487 -0.123856656 0.059587833 -0.1168384
000150 6f 39 24 be 75 87 b2 bd db 8b b8 bc 7d 7b 28 be
       -0.16037534 -0.08717243 -0.022527626 -0.16453357
000160 ec 3b c6 bd 18 d4 4e bb c8 75 b5 3c e4 f0 5b bd
       -0.09679398 -0.0031559523 0.022150889 -0.053696528
000170 75 e7 69 bd e2 61 f5 bd 4c d8 89 bd 94 b4 2d be
       -0.0571055 -0.1198156 -0.067307085 -0.16963416
000180 e7 14 f8 bd 95 f9 42 bd 31 6e 08 3e e1 39 20 3c
       -0.12113362 -0.0476013 0.13323285 0.009779424
000190 24 7a 29 be 20 ae b2 3c 91 3d 22 bd 7c 2d 4a 3d
       -0.16550499 0.021811545 -0.039609496 0.049359784
0001a0 e5 58 17 be f8 16 1e be 71 22 f4 3d ea ac 04 be
       -0.14780004 -0.1543845 0.11920632 -0.12956586
0001b0 4c 65 ac 3d ab 27 92 3d 9c 18 03 be 3b c8 26 3e
       0.08417758 0.07136472 -0.12802356 0.1628732
0001c0 0d 15 ab 3d 4c f3 1e be ed 33 22 3e 88 61 08 3e
       0.083536245 -0.15522498 0.1584012 0.13318455
0001d0 9f b6 26 be de c9 d1 3d d3 d6 a3 bd ae 0e 0f 3e
       -0.16280602 0.10243581 -0.07999959 0.13970444
0001e0 87 45 97 bd ac 84 d2 bd 78 c2 4d bb 28 e3 05 3e
       -0.07386308 -0.102792114 -0.003139643 0.13074934
0001f0 94 de c8 3d 05 97 6b bd 2f 5a 33 3e 7d 26 a6 3d
       0.098080784 -0.05751707 0.17514871 0.0811281
000200 cc b4 bc bd 1e 11 c5 bd 9c 26 10 be cc 90 ba bd
       -0.09214172 -0.096224055 -0.14077228 -0.09109649
000210 51 f0 4d bc da 9b 24 3e a6 55 03 be 7d d0 fc bd
       -0.012569503 0.16075078 -0.12825641 -0.123444535
000220 b9 e0 41 bd 05 58 97 3d 98 88 11 3e 93 c5 9f 3d
       -0.047333453 0.07389835 0.14212263 0.07801356
000230 cb d2 25 3b 3c cc 1a be 16 2c d9 bd ef c8 d8 3d
       0.0025302644 -0.15116972 -0.10604112 0.105852
000240 86 40 0f be b4 c2 6b 3d 16 79 24 3e c4 85 28 3d
       -0.13989457 0.05755873 0.16061816 0.041143194
000250 15 0e c4 39 38 33 9f 3b c9 67 52 3d fe 8f fa bd
       0.00037394525 0.0048584007 0.05136851 -0.122344956
000260 8a ee 08 3e 5b 5a da bc 3f 7d 92 3d ad ac 0d be
       0.13372245 -0.026654413 0.07152795 -0.13835402
000270 9c 41 1e be c7 9b a6 bd bc 12 5d bd 13 3b a2 3d
       -0.15454715 -0.08135181 -0.053972945 0.07921424
000280 bf bc 29 be 97 74 19 be c5 ce 05 3e d9 e3 a5 bd
       -0.16575907 -0.14985882 0.13067158 -0.08100099
000290 ff 6c 5e bd f6 65 30 be b2 9b b7 bd 6d c4 88 bd
       -0.054303166 -0.17226395 -0.089652434 -0.0667809
0002a0 16 91 28 be 5a eb d4 bd 31 4b aa bc 46 a5 14 3e
       -0.16461596 -0.10396452 -0.020787807 0.14516172
0002b0 79 0b 7f bd 2b f1 f7 bd cf 8e 30 be 7c 60 8b 3d
       -0.0622668 -0.12106546 -0.17241977 0.06805512
0002c0 3a 15 13 be 0a 9c ca 3d d0 80 d8 3d 0c 57 93 bc
       -0.14363566 0.09893043 0.10571444 -0.017985843
0002d0 be 52 02 3e 06 b5 92 bd 65 d9 ce bc c4 14 80 3c
       0.12726876 -0.07163434 -0.025250146 0.015634902
0002e0 ae c6 64 bc cc e1 05 be 30 1e b2 bd fa 84 20 3e
       -0.013963385 -0.13074416 -0.08697164 0.15675727
0002f0 1a 40 2a be fd ea 1d bd 22 2d 2a be 91 6e 0a 3e
       -0.16626015 -0.03855418 -0.1661878 0.1351874
000300 35 7b 80 bd c8 8f 10 be 8e ad e4 bd cb 2d cb bc
       -0.062735 -0.14117348 -0.111659154 -0.02480211
000310 e5 86 d9 bd 2a 10 e5 bb c4 60 cf bd 29 d3 e4 bd
       -0.10621432 -0.0069904523 -0.101258785 -0.11173088
000320 47 ea f5 bd f9 e4 1f be 61 fe 7f bc f5 54 ab 3c
       -0.120075755 -0.1561469 -0.0156246135 0.020914534
000330 35 20 18 3e 7e 67 1f 3d 13 77 b4 bd 35 bd a2 bd
       0.14856036 0.038917057 -0.08811774 -0.079462446
000340 2a 3c 13 3e 35 64 b4 bc 8a 8e c0 3d b2 ec b0 bd
       0.1437842 -0.022020439 0.09402187 -0.08638896
000350 42 2a 27 be ff 05 8e 3d 1e 40 d6 bd 9f a7 2e be
       -0.16324714 0.069347374 -0.10461448 -0.1705613
000360 aa 0a b7 bd ed 2a 18 3d 07 22 d0 bc 06 16 b6 bd
       -0.08937581 0.037150312 -0.02540685 -0.088909194
000370 54 82 c5 3d c0 4b d4 bd 8c 3d d6 3d ee a1 15 be
       0.09643999 -0.10366011 0.10460958 -0.14612553
000380 64 c1 01 be 65 5c 15 be f2 3d 10 be bf c2 c2 3c
       -0.12671429 -0.14586027 -0.1408613 0.023774503
000390 33 9d ee 3b 20 f8 1c 3e be 3d 5b bd 07 fa 07 3e
       0.007281923 0.15329027 -0.05352568 0.13278972
0003a0 20 59 eb bd 15 4b 3d bc 44 e8 31 be bf 7f cb bd
       -0.114916086 -0.0115535455 -0.17373759 -0.09936475
0003b0 13 0b ef bd e5 ed 82 3d 97 30 ce 3c bf 18 39 3d
       -0.11672034 0.06393031 0.025169654 0.045189615
0003c0 50 cb 85 bd 56 04 17 3d 5b 3b 00 3e a0 a2 31 3d
       -0.065329194 0.03686937 0.12522642 0.043367982
0003d0 e2 a5 2c 3e 78 de 83 bd 34 25 29 3e a9 ac b6 bd
       0.16860154 -0.06438917 0.16518098 -0.08919651
0003e0 57 1d 09 3c 6a b4 e7 bc 3d 9c ba 3d f6 b5 26 be
       0.008368812 -0.02828427 0.09111831 -0.1628035
0003f0 07 3e 17 be 8b cf 58 3c 72 c8 21 be 37 ac 87 bd
       -0.14769755 0.013233076 -0.1579912 -0.06624644

model.4.bias f4 [64]
000000 8f a1 18 3e 58 40 54 bd 36 97 5c bd e2 e0 25 be
       0.1490538 -0.051819175 -0.053855143 -0.16199067
000010 8b cb 54 3d 63 35 ab 3b bf 0f 40 3d a5 e8 ae 3d
       0.051951926 0.00522487 0.046890017 0.08540467
000020 ec 95 eb 3d 46 3a 5c 3c da d5 2b bd e4 14 df 3d
       0.11503205 0.013441628 -0.04195199 0.108926564
000030 08 40 47 bd 55 d1 c1 bd 03 5e 84 bd 34 10 b1 3d
       -0.04864505 -0.09463755 -0.06463244 0.086456686
000040 46 9c ba bd 37 54 09 3d 7e f9 24 3e 7e d5 0c 3e
       -0.09111838 0.03352758 0.16110799 0.13753316
000050 29 2c e2 bd 31 68 37 bc fa 48 00 be 1d 9f 87 3d
       -0.11043579 -0.011194275 -0.12527838 0.06622145
000060 7c 15 09 be 61 30 2d be c6 14 d4 bb 4a c8 53 3d
       -0.13387102 -0.16912986 -0.006472203 0.051704682
000070 d3 cb 1d be 46 32 8f bd 14 6d a4 3d 2d 92 d5 3d
       -0.15409784 -0.06992011 0.080286175 0.104282714
000080 57 5e 1a 3e b8 0a 30 3d da 8e e1 3b e7 aa 0c be
       0.1507505 0.042978972 0.0068834843 -0.13737069
000090 45 61 b7 bd d3 75 f5 3d b5 b1 e4 3d d2 58 09 3e
       -0.089540996 0.11985364 0.111667074 0.13412789
0000a0 4e 1d 02 be 62 3f 86 3c e7 e8 d6 bd 06 21 12 3c
       -0.12706491 0.016387645 -0.10493641 0.008919006
0000b0 f8 3a af 3d 52 41 8c bb c1 62 04 bd 5c 73 bd bd
       0.08556169 -0.0042802477 -0.03232074 -0.09250519
0000c0 e3 bd e6 3d 3b cd 49 bd c4 15 d3 3d 2a 78 c9 3d
       0.11266687 -0.04926799 0.10306886 0.098373726
0000d0 a9 5c 20 be bb 2c 86 3d 25 35 1a be 16 cd 18 3d
       -0.15660347 0.065515004 -0.15059336 0.03730496
0000e0 a6 9b 11 3e 1b 48 83 3d c9 c3 0d be 18 f3 05 be
       0.14219531 0.064102374 -0.13844217 -0.13081014
0000f0 29 b6 ce 3d 1c 94 93 bd 41 c8 c8 3d 20 c8 4a 3c
       0.10093338 -0.07205984 0.098038204 0.012376815

model.7.weight f4 [1, 64]
000000 ab a6 8f bd e2 4b d6 bd 58 fe 82 3d c2 bf f7 bc
       -0.07014211 -0.10463692 0.063961685 -0.030242804
000010 b2 e9 e0 bd c6 e4 1b bc 76 11 3d 3c 82 58 02 bd
       -0.10982074 -0.009514993 0.011539808 -0.03182269
000020 ab 39 47 bc 24 95 72 3c 3d 2d ce 3c 68 2b fd ba
       -0.012159745 0.014806066 0.025168056 -0.0019315304
000030 76 0d 01 3e 67 ac cd bd aa 69 53 bc 58 0e f3 3d
       0.12602791 -0.10042649 -0.01290361 0.1186797
000040 7c 1d f6 bd 6d c7 85 bd a4 f4 b6 bc da 56 3a 3d
       -0.120173424 -0.06532178 -0.02233345 0.045492984
000050 f9 79 4a 3d 30 be 9f 3d 17 12 db 3d 24 a5 87 bc
       0.04943273 0.07799947 0.1069681 -0.016558237
000060 ec 94 d4 bd 6b b5 dc 3d e1 dc 6f bc 06 e3 9f 3c
       -0.10379967 0.1077679 -0.014640064 0.019517433
000070 d5 0a 96 3d 76 32 ec 3c ae c8 fa bd 0e bf 9c bd
       0.07326285 0.028832655 -0.12245308 -0.07653628
000080 2c c7 ac 3c 23 a1 6a 3d 30 24 bc 3d 1d 99 ce bd
       0.021091066 0.05728258 0.0918659 -0.10087798
000090 41 a7 f6 bd 53 9a 42 3d bb c3 be bd 5e 3f 07 3d
       -0.1204362 0.047510456 -0.093146764 0.033019416
0000a0 09 13 42 bd 11 b3 26 bc 26 12 89 bd 80 42 f7 3d
       -0.047381435 -0.010174529 -0.06692915 0.12073231
0000b0 fe af 8f 3d 34 b0 03 3e 8e bb d5 bc 6a f7 66 bd
       0.0701599 0.12860185 -0.02609041 -0.056388296
0000c0 6e 13 26 3d af b7 c2 3c d9 a1 96 bb 13 d6 c4 bd
       0.040545873 0.023769228 -0.0045969305 -0.09611144
0000d0 67 80 5b 3d be 92 73 bd c1 20 b1 3d 26 0e e4 bd
       0.05358925 -0.059466116 0.086488254 -0.11135511
0000e0 53 be 41 bd d3 9a 93 3c df 48 c6 3d 78 b9 49 3c
       -0.047300648 0.018018162 0.09681868 0.012312286
0000f0 66 46 b6 bc 33 1d 4f 3c 05 9a 3c bd e3 93 04 be
       -0.022250365 0.012641239 -0.046045322 -0.1294704
