lightning_logs/version_1/checkpoints/epoch=199-step=1600.ckpt (torch, 464377 bytes, 23 tensors)

model.0.weight f4 [1024]
00000000: 8c5c 833f 8512 7f3f a621 813f 6aaa 823f
00000010: df94 803f fdc0 813f b87c 833f de4d 803f
00000020: 6f46 843f 6116 803f 6994 813f 8f33 813f
00000030: 7ace 813f 40c7 813f 1756 813f c04c 823f
00000040: e75d 833f 6ad4 813f db4f 823f 2afc 803f
00000050: 31ad 7f3f 3269 803f 6ab7 823f 04ab 813f
00000060: 29ba 803f 94d2 803f cc83 803f 5332 823f
00000070: e6d3 803f 27a1 813f 6129 813f f7c7 803f
00000080: f4b0 7f3f e993 7f3f ce80 7e3f b43b 823f
00000090: db59 823f fd78 843f 5bd3 813f 2383 833f
000000a0: f0d3 7d3f 6822 803f 7d28 813f e2d0 7f3f
000000b0: 84f7 803f 984d 823f d107 813f 4f08 813f
000000c0: 0399 813f 48b9 823f 6ac4 803f 0f9e 833f
000000d0: 3f09 833f 1740 803f 32db 7f3f 3098 813f
000000e0: aba9 803f 97fd 7e3f 2133 803f 3209 813f
000000f0: 2c8e 7f3f 560a 7f3f 129b 7e3f 8625 7e3f
00000100: 4750 833f bd7f 823f fc9d 843f 1d5f 803f
00000110: 9543 833f 02ac 813f 2bb8 813f ba16 813f
00000120: 156f 833f d725 823f cb8f 7e3f c228 823f
00000130: f1c2 803f b4c3 803f 859f 7f3f de01 823f
00000140: d9c3 803f c0b7 813f 8809 813f 0580 813f
00000150: a1aa 813f dbe0 7e3f 85ee 803f 5057 823f
00000160: a25e 823f e4cf 7e3f b613 823f 65e0 7e3f
00000170: dd5e 833f 70c0 813f e5ab 803f 5f35 803f
00000180: 9414 823f 30b6 7e3f b32b 803f fe7b 7f3f
00000190: 2833 833f 3f52 813f e7f1 7e3f 7537 813f
000001a0: d803 803f 5f5a 803f f208 813f 1875 803f
000001b0: 088e 833f 34ab 7f3f 20b5 813f 00c4 813f
000001c0: e670 803f 60ff 803f 4e3c 823f d6d4 803f
000001d0: d6a0 843f 8bc0 813f 0c66 813f 2a12 813f
000001e0: 5c08 803f c290 843f 9065 803f a1b9 813f
000001f0: b6d2 833f cc13 7e3f d1dc 823f 618e 813f
00000200: 0e97 803f 1daf 803f 6d6d 813f 9856 833f
00000210: ef73 803f e8bf 803f 3279 823f 74ad 853f
00000220: f060 813f e459 803f bdbc 803f 02dd 803f
00000230: 10b5 813f cf29 803f dd24 813f 3c26 803f
00000240: 9fbf 7f3f c8fe 7e3f db78 813f c228 813f
00000250: 8f5a 823f bff3 813f 13f5 7f3f 29c8 7f3f
00000260: c70c 7d3f 1a07 803f d16d 813f bb7d 823f
00000270: 43e9 803f e29e 7f3f 486b 813f 3337 823f
00000280: 7e7c 803f e507 823f fe6f 813f bd1a 813f
00000290: 1f4a 7e3f 0ea3 813f 995d 7f3f 4c92 813f
000002a0: ce4b 813f 82c3 803f e296 803f d5e9 7f3f
000002b0: 3886 813f 9c39 823f 72b6 803f fd68 823f
000002c0: 50df 813f 9b0a 813f dc5e 823f bf55 7e3f
000002d0: 5003 803f b1b5 7d3f 7454 803f 46f5 7e3f
000002e0: 43e1 803f d471 7f3f 49a9 803f b6ec 803f
000002f0: dd9c 7f3f ccce 813f dcbc 813f 8fc6 803f
00000300: 35c7 7e3f d85f 823f 711d 823f 0427 823f
00000310: aeb7 803f d03d 813f 21f4 803f 3ae0 7c3f
00000320: 246e 803f d55f 803f 6668 803f c302 7d3f
00000330: 6673 803f a241 843f 4570 813f bfee 823f
00000340: 1a3e 803f 920d 853f fe97 803f aa98 7f3f
00000350: 68e0 803f c52a 7c3f 7c99 823f c4be 813f
00000360: 32b6 823f dba2 813f c878 803f ab15 803f
00000370: 266f 813f 6904 833f 8ae0 823f 7c5a 7f3f
00000380: 2fd8 823f 40cd 833f 0611 823f 0d60 813f
00000390: e910 803f 6061 813f 0d01 7e3f d223 803f
000003a0: ef42 7f3f 3c4e 813f 2021 853f e93b 813f
000003b0: e047 7c3f a522 803f 8fe2 803f 1ab2 813f
000003c0: 1f05 803f 0922 803f bdbd 803f e8b5 7d3f
000003d0: 5315 7f3f 897a 7e3f 38ea 823f 5a99 823f
000003e0: 630a 813f f4e1 7d3f 378c 803f 8740 803f
000003f0: c9bc 803f 75c5 803f 289d 813f 2301 823f
1.0262618 0.99637634 1.0088394 1.0208256 1.0045432 1.013702 1.0272436 1.0023763
1.0333995 1.000683 1.0123416 1.009386 1.0141137 1.0138931 1.0104398 1.0179672
1.0263032 1.0142949 1.018062 1.0076954 0.99873644 1.0032103 1.0212224 1.0130315
1.0056812 1.0064263 1.0040221 1.0171608 1.0064666 1.0127305 1.0090753 1.0061024
0.99879384 0.9983507 0.9941529 1.017447 1.0183672 1.0349423 1.0142626 1.0274395
0.99151516 1.00105 1.0090481 0.99928105 1.0075536 1.017993 1.008051 1.008066
1.012482 1.0212793 1.0059941 1.0282611 1.0237197 1.0019559 0.9994384 1.0124569
1.0051779 0.996057 1.0015603 1.0080931 0.9982631 0.99625146 0.9945537 0.99276006
1.0258874 1.0195233 1.0360713 1.0029026 1.0254999 1.0130618 1.0134329 1.0085061
1.0268275 1.0167798 0.9943816 1.0168688 1.0059491 1.0059724 0.9985278 1.015682
1.0059768 1.0134201 1.0081034 1.0117193 1.0130197 0.9956185 1.007279 1.0182896
1.018513 0.99535966 1.0162265 0.9956115 1.0263325 1.0136852 1.0052458 1.0016288
1.016253 0.99496746 1.0013336 0.9979857 1.0249987 1.0103225 0.99587864 1.0095049
1.0001173 1.0027579 1.0080855 1.0035734 1.027772 0.9987061 1.01334 1.013794
1.0034454 1.0077934 1.0174654 1.0064952 1.0361583 1.0136884 1.0109267 1.0083668
1.0002551 1.0356677 1.0030994 1.0134774 1.0298679 0.9924896 1.0223638 1.0121576
1.0046098 1.005344 1.0111519 1.0260801 1.003538 1.0058565 1.0193236 1.0443559
1.0107708 1.0027432 1.0057598 1.0067446 1.0133381 1.0012759 1.0089375 1.0011668
0.99901766 0.99607515 1.0115007 1.0090563 1.0183886 1.015251 0.9998333 0.99914795
0.9884762 1.0002167 1.0111638 1.019462 1.0071186 0.9985181 1.0110865 1.0173095
1.0037992 1.0158659 1.0112302 1.0086285 0.9933185 1.0127885 0.99752194 1.0122771
1.0101259 1.0059664 1.0046046 0.99966174 1.0119085 1.0173831 1.0055678 1.018829
1.0146275 1.0081362 1.0185199 0.9934959 1.0001011 0.99105364 1.0025773 0.9959301
1.0068744 0.9978306 1.0051662 1.0072238 0.9984873 1.0141234 1.013576 1.0060595
0.99522716 1.0185499 1.0165235 1.0168157 1.0056055 1.0096989 1.0074502 0.9877964
1.0033612 1.0029246 1.003186 0.9883234 1.0035217 1.033253 1.0112387 1.022911
1.0018952 1.0394766 1.0046384 0.9984232 1.0068483 0.9850276 1.020309 1.0136342
1.0211852 1.0127825 1.003686 1.0006613 1.0112045 1.0235721 1.0224774 0.99747443
1.0222224 1.0297012 1.0161445 1.0107437 1.000516 1.0107841 0.99220353 1.0010931
0.9971151 1.0102 1.0400734 1.0096408 0.9854717 1.0010573 1.006914 1.0132477
1.0001563 1.0010387 1.0057904 0.9910569 0.99641913 0.99405724 1.0227728 1.0203049
1.0081295 0.991729 1.004279 1.0019692 1.0057613 1.0060259 1.0126085 1.0156597

model.0.bias f4 [1024]
00000000: c41d 36bd 0986 a9bc e8b8 523c 98a9 a2bc
00000010: 08be e1ba 8371 a5bb c1ce 7bbc b4db b3bc
00000020: 8e34 093d d2b7 313c 98d9 a6bb e18f 9d3c
00000030: fe77 223d 7a41 14bc ce5c 8e3c 5f56 303c
00000040: ebfe 173d 237f 18bd e509 523c 2c0b 7dbc
00000050: 9987 35bd e585 92ba 406e 24bd e15c 8abc
00000060: 5daa 04bc 18db aabc 19eb f8bc d1f8 8ebc
00000070: abc0 32bc 9a66 623b be92 47bc 4bd2 23bc
00000080: 50ae 0a3c 5e38 243d ab77 503b 7fbb 5a3b
00000090: c77c 123d 86f6 77bd 2f1c a73b 0c9d e23c
000000a0: 190a 8f3c 52cd 683c b249 5ebc 78a7 1abc
000000b0: c6dc 443c 28f7 84bb 6bbc 313d a4f1 103d
000000c0: 7e36 16bd c1aa 503c f28a b2bc bdfc 383d
000000d0: f2b1 123d 2ed1 ef3c 50fe 53bc c1da 153d
000000e0: db8b 4cbc 233f f9bc 3ae2 b43c f121 6dbc
000000f0: 4d85 973c 6c44 7c39 d9fe a9bc f3a4 c03c
00000100: 814e 183c bf4c e1bc 623d 55bb e1a4 fe3b
00000110: 16f3 f13c 5cb7 f43c 4410 5a3c 477b a7bc
00000120: 48f7 5dbd fd79 dd3c 1588 b43a 2add 6d3c
00000130: 12ba f23c 8fcc 6dbc 719a b43c 7b3f ccbc
00000140: eab5 d5ba f29f 363b 59c8 123d 37f3 3bbc
00000150: 4447 ce3c 6070 feba f0fa 98bc 641d 53bc
00000160: f820 acbc 862a 8d39 d41a 73bc 4e5f 5a3c
00000170: f7ab 35bd 4f29 0c3d 284d 203c 37d3 1abd
00000180: 1ccc fc3c db2f 043c fd88 aa3c 9c77 033d
00000190: 2883 123d ecae a3bc cb33 3b3c c01c fcba
000001a0: 16e1 bbbb 79a2 87bc cf55 00bc fd51 c73c
000001b0: bc58 5bbd 60cd 0abd e491 d5bb 7599 4cbd
000001c0: 31fc c5bc 8088 00bb 7125 1ebb 58a3 c53c
000001d0: 00ce 3d3d b57b 9f3c f4c9 413c 6e66 493b
000001e0: 6e79 e53b 3b5e 123d 591e c7bc 1b76 a7bc
000001f0: 666b 6e3d 6c38 22ba 50dd 513d 3c69 9a3c
00000200: 212a 8d3b 9788 e4bc ebf4 78bc d18b e7bc
00000210: 98ff 623c 158e e2bb c43e ee3c af41 363d
00000220: 029e 663c e54e 313c dc40 05bd 369c b93b
00000230: 9dc7 a73b 3caf de3b 50d9 2dbb aae1 80bb
00000240: 3906 8abb 23c0 a0bb 966f 44bc 8b29 cbbb
00000250: 3316 bc3c 1d85 fe3c 294f 93bc 10a0 473c
00000260: 95b7 0e3b 49a8 b3bb 02a8 92bc 8a89 6f3a
00000270: d2a2 20bc 1703 eb3c 1aef 553c ed69 213d
00000280: 59ed 69bc a39e a2bc a897 01bd 264b 1c3d
00000290: 26a2 fb3c ca1f bb3b 0561 453c f259 133c
000002a0: 4de4 92bc 182d c2bc c3de 513b 0b91 af3b
000002b0: f005 c03c 2585 243d 9de0 a43c 88b9 38bd
000002c0: 2cb2 da3b 9927 52bc 776d 06bd f804 96b9
000002d0: d687 b23c 2d0e 303c ce29 a63a ee17 e6ba
000002e0: c13c 9f3c 3593 7eba 87cb 96bc 437a f6bb
000002f0: 31ea 0f3d 75ce 2b3d 3b08 3abc 1cb3 f03c
00000300: 5a75 28bc 2bf8 33bb 125b c5bc 711c 58bd
00000310: 977b 253c d6cd dc3c b960 973c a652 903c
00000320: c382 bebc 2b47 adbb 54ab 21bb b25b 3abc
00000330: 2c7b b6bc 5259 17bd 98b4 9ebc d81a 50bd
00000340: 81bd 40bc 70b9 3cbd edfc e03c 393b 8f3c
00000350: 7b7f ff3c 58c1 1dba a749 0b3d aa06 ebbc
00000360: 45e5 08bd 8bc0 173d d6f4 2b3d c866 e2bb
00000370: 3b94 963b 1f55 73bb 8b0e 96bc 973c b0bc
00000380: d61f 0a3d f838 fc3c 04f0 bc3c 9415 2d3d
00000390: bc2d 813c 35e2 e83c 0799 873c f6b9 5f3c
000003a0: abf0 b1bb 14cf e6bc 4342 3c3d f801 403c
000003b0: 2c8e fa3a 3cb0 0cbd 8c05 ff3c a10e 81bb
000003c0: cc0c d23c 61bd 0bbb 03d1 16bc 0f36 213d
000003d0: a522 d83b 547b fe3b 61b7 d3bc acef 043d
000003e0: 90ed f5bc e111 653c 397c 143c 3bb6 e13b
000003f0: 62a8 14bc 034e 2dbc f1fa bebc 0637 7b3c
-0.04446198 -0.020693796 0.012861468 -0.01985626 -0.0017222771 -0.005048932 -0.015369118 -0.021955349
0.033497386 0.010847049 -0.005091857 0.019233646 0.039665215 -0.009048814 0.017378237 0.01076278
0.037108343 -0.037230622 0.012819742 -0.015444558 -0.04431877 -0.001117882 -0.040144205 -0.016889991
-0.008097258 -0.020856425 -0.03038554 -0.01745263 -0.010910193 0.0034546019 -0.012180982 -0.009998868
0.008464411 0.04009282 0.003180961 0.0033375917 0.03576353 -0.060537837 0.0050997953 0.027662776
0.01746087 0.014209108 -0.013567375 -0.009439342 0.012015527 -0.0040577836 0.04339258 0.035386696
-0.03667306 0.012736023 -0.02179477 0.045162905 0.035814233 0.02927455 -0.012939051 0.036585573
-0.012484516 -0.030425614 0.02208053 -0.014473424 0.01849618 0.00024058082 -0.020751404 0.023516154
0.009296061 -0.027502416 -0.0032537808 0.00777112 0.029534858 0.029872589 0.013309542 -0.020444525
-0.054190904 0.027035708 0.0013773466 0.014518062 0.02962974 -0.014514103 0.0220463 -0.024932614
-0.0016304825 0.002786633 0.035835598 -0.011471561 0.025180466 -0.0019412152 -0.018674344 -0.012885425
-0.021011814 0.00026925298 -0.014837939 0.0133283865 -0.04435345 0.034219082 0.0097840205 -0.037799086
0.030859046 0.00806805 0.020817274 0.03209649 0.03576961 -0.01998087 0.011425923 -0.0019234642
-0.0057336194 -0.016556965 -0.007832958 0.024331087 -0.05355142 -0.033887267 -0.0065176357 -0.049951036
-0.024168106 -0.001961261 -0.0024131204 0.02412574 0.046339035 0.019468168 0.0118279345 0.003073122
0.007003001 0.035734396 -0.024306463 -0.02044206 0.058207892 -0.0006188217 0.05123645 0.018849008
0.0043080007 -0.027897162 -0.015195112 -0.028264912 0.013854884 -0.00691391 0.029082663 0.044496235
0.014075758 0.010822033 -0.032532558 0.0056643737 0.0051202313 0.006795792 -0.0026527233 -0.0039331513
-0.0042121676 -0.004905717 -0.011989495 -0.0062000207 0.022959804 0.031069333 -0.017982082 0.012184158
0.0021776904 -0.0054827076 -0.017902378 0.00091376214 -0.009804444 0.028687997 0.013057495 0.03940766
-0.0142777795 -0.019851035 -0.03163877 0.038157605 0.030716967 0.0057105767 0.012047057 0.008993613
-0.017931128 -0.023703143 0.0032023645 0.0053578666 0.023440331 0.04016604 0.020126635 -0.04509881
0.006674072 -0.012826824 -0.032819238 -0.00028613931 0.021793287 0.010745567 0.0012677254 -0.0017554739
0.01943815 -0.00097112666 -0.018407596 -0.007521899 0.03513545 0.04194494 -0.011354501 0.029382281
-0.010281885 -0.0027461152 -0.024091277 -0.0527615 0.010100267 0.026953619 0.018478738 0.017617535
-0.023255711 -0.005288025 -0.002466877 -0.011374401 -0.02227553 -0.036950417 -0.019373223 -0.05080685
-0.011763931 -0.046075284 0.027464354 0.017484294 0.031188717 -0.0006017885 0.034005787 -0.028689701
-0.033421773 0.037048858 0.04198154 -0.006909225 0.004595307 -0.0037129594 -0.018317482 -0.021513266
0.033721767 0.030788884 0.023063667 0.042256907 0.015768878 0.028428176 0.016552461 0.013655176
-0.005430301 -0.028174914 0.04596163 0.011719219 0.0019115857 -0.034347758 0.031130575 -0.0039385115
0.025640868 -0.0021322595 -0.009205106 0.039358195 0.006595927 0.0077661667 -0.025844278 0.03245513
-0.030020505 0.013981313 0.00906282 0.0068881786 -0.009073349 -0.0105776815 -0.023313018 0.015332943

model.0.running_mean f4 [1024]
00000000: ae4b 6abd 6d49 84bc ee34 d63b 7a86 d2bc
00000010: 1a63 6b3b e90c 6cbc 056b 243d 7f85 90bb
00000020: 2323 76bb 3248 063d 8782 2fbc 4af1 953b
00000030: 2c40 52bb b64e 4cbc 4121 8d3b 9a32 3b3c
00000040: 31fb 12bd a377 d1bc 2264 a439 64e2 073c
00000050: db00 813c 545d 85ba 6151 a43c 639e 913d
00000060: 8a2e a33c 5ffa f23c 7987 d0bc a88b 2d3c
00000070: 17ca b1bb 74da 30bc 54ad d33c ff87 83bc
00000080: bd92 02bc 69f9 1d3c e1bb 5ebb d3fc 6d3c
00000090: 30c1 33bc e871 eb3b 5b9c debc edf4 b1bb
000000a0: c2b2 3a3c b4a0 cc3c 4a18 7cb8 d2ff 38bd
000000b0: 9359 ccbc 6a99 873b 305a 87b9 580b cabc
000000c0: d1c1 44bc 6e5d a83d c3c6 c9bc ebc6 93bc
000000d0: b332 a6bc 2025 193c 227f 193c bf30 18bc
000000e0: bb62 053d 56dc 153c 2638 d1bb 028d 2bbc
000000f0: 1c93 313c 8b04 b1bc bb3f 39bc 479b bb3c
00000100: 8563 bf3a 7f64 65bc 0b6f b63b 00c2 e33b
00000110: 1408 e93a 4f71 c13b 18ba 193d 6ae3 3c3c
00000120: 021b 88bc 5645 343d 98d7 f33c f94b 42bc
00000130: 1963 d03c d024 8ebc 9ba2 8c3c 392b 8ebc
00000140: 2ddb 07bc 3f7c df3c 7073 58bd 428a b33c
00000150: 970b 8abc 3a66 25bd 8cad c33c 63ee 8fbc
00000160: 6af1 363c 9cad b23c 58c5 b4bc f234 b9bb
00000170: 2470 41bc 6c2b 543c ca30 543c c50a a13c
00000180: fc61 fe3b 3378 6c3d 457b 07bc 2ea0 b53c
00000190: 665d 683c 35ba d83c a98d 0ebb cb77 423c
000001a0: faee 993d 1ab2 863c 3597 543b db9b b6bc
000001b0: a853 fcbc 2630 4f3d 1c3f 33bc 7352 a73a
000001c0: d564 853d c82c 88bb 6cac c4bb 796c 853c
000001d0: 9325 d0ba 08f1 d2bb f760 043a c36e aebb
000001e0: fbfe b1bc 1736 15bc bf5c 84bc 88cc 4fbc
000001f0: e81b 49bd d24d b6bc 1285 2ebc 4d7a a8bc
00000200: 2e7a a93c 2e93 a1bc c530 83bd af8a 68bc
00000210: 519d 8b3c b8be 6abb 243b 55ba 2245 eabc
00000220: b2af 303d 82a8 c03c d959 37bb 5103 b6bc
00000230: 7511 353b f6d6 2abd 72dd 37bc 2258 a1bb
00000240: 96fb 51bb 0084 1fbc 7ad6 383d 7ccb bebc
00000250: 6d54 0bbd 57bc 2f3a 13d3 07bc e6bb 543a
00000260: 3022 d93b 545a 4c39 138e 843c c0c7 dd3c
00000270: ad72 e33c dab1 01bc 564b 93bb e581 ec3b
00000280: ba49 ae3a d4f1 ef3c 2b30 8c3c 00c5 763b
00000290: b73e 8bbb 6318 acbb e409 60bd f86b ccbb
000002a0: 88fa 17bd ff9c dc3c ccaa f13c 1df3 f03c
000002b0: 4498 cd3c e559 edbb 0a88 b13c c231 2e3c
000002c0: e8c2 47bc c86d 4fbc 9f6f 99bc 19ac 1cbb
000002d0: c293 01bd 2be6 89bc 4c85 b3bb 714f 3e3c
000002e0: 8bd5 3fbc ab15 d13c 9ef1 413d e664 80bc
000002f0: b49d 78bc 2286 04bd 79f3 143d 0b48 4f3c
00000300: a6c8 733c 6933 fe3c 0372 463c ddf4 473c
00000310: 33e1 26bc 9000 85bb 3be0 a43c 45c5 023d
00000320: 58c5 e43b 4934 52bc 4446 223b b237 d3bc
00000330: 9700 c6bc 24e8 023c 3ef2 3abc 4c15 56bc
00000340: 4f7a 933c d010 18bc c9e6 0abd d867 b5bc
00000350: afa2 613c be0a cc3c 7405 ad3b a321 61bc
00000360: 2538 493c 639c db3c a61d f6bb 411f f9bb
00000370: 82fe 1c3c 64c3 9abc daea 45bd 52eb b2bc
00000380: 2f5b af3c 22e9 533c 6d23 5f3b fd3b a8bc
00000390: 9518 2d3b 0f57 a9bc c04d 20bc 4dd8 febc
000003a0: ef33 a8bb 67e5 f4bc 949a 45bc 570e 90bc
000003b0: 75a9 f3bc ba81 0f3d 7dbe af3c 97d9 8ebc
000003c0: c617 063d 74d4 0dbb d232 c9bb 7081 d43c
000003d0: 46cf bbbc 0075 75ba 46b3 433c 4a3b b83c
000003e0: ac1b 85b9 b45e e03c daf0 85bc 32d7 c53c
000003f0: d9fc 953c 49e8 673a fa2a 803c 8da8 ba3c
-0.05720108 -0.016148293 0.0065370714 -0.025698889 0.0035917223 -0.014407375 0.040141124 -0.004410445
-0.0037557564 0.032783695 -0.0107122725 0.004575883 -0.0032081706 -0.012469938 0.0043069427 0.011425639
-0.035884086 -0.025569743 0.00031355122 0.008293722 0.015747478 -0.0010174909 0.020058336 0.07110288
0.019919652 0.029660402 -0.025455223 0.010592379 -0.0054257023 -0.010794271 0.025839485 -0.016056059
-0.007969555 0.009641984 -0.0033986496 0.01452561 -0.010971352 0.0071852095 -0.027174165 -0.0054308088
0.011395158 0.024978973 -6.0104103e-05 -0.045165844 -0.024945056 0.0041381614 -0.00025816401 -0.024663612
-0.0120091 0.08220945 -0.02463091 -0.018039187 -0.020287847 0.00934723 0.00936869 -0.009288966
0.03256486 0.00914677 -0.0063848672 -0.010470631 0.010838296 -0.021608612 -0.011306698 0.02290119
0.0014601803 -0.014001011 0.0055674366 0.006950617 0.0017778897 0.0059034 0.03753099 0.011528829
-0.01661444 0.044011436 0.029765889 -0.011858934 0.025437878 -0.017351538 0.01716738 -0.017354595
-0.008292002 0.027280925 -0.052844465 0.021916512 -0.01685123 -0.040380694 0.023886465 -0.017569726
0.011165956 0.021811299 -0.022066757 -0.0056520635 -0.011806522 0.012949806 0.012951085 0.019658456
0.0077631455 0.05773182 -0.008269136 0.022171106 0.014182424 0.026455978 -0.0021751917 0.011869381
0.07516284 0.016442347 0.003243876 -0.022291115 -0.03080161 0.050583027 -0.010940339 0.0012765661
0.06513373 -0.004155729 -0.0060019996 0.016287075 -0.0015880339 -0.0064374246 0.0005049849 -0.0053232624
-0.02172803 -0.009107134 -0.016157506 -0.012683041 -0.04909888 -0.022253904 -0.010651844 -0.02056613
0.020688143 -0.019723501 -0.064057864 -0.014193221 0.017042788 -0.0035819244 -0.0008134118 -0.028597418
0.043136306 0.02351785 -0.0027977137 -0.022218378 0.0027628813 -0.04170891 -0.01122223 -0.0049238363
-0.0032040826 -0.009736061 0.045126416 -0.023290388 -0.03401606 0.0006703785 -0.00829007 0.0008115157
0.00662639 0.00019488606 0.016181028 0.027072787 0.027764643 -0.007915938 -0.0044950647 0.007217633
0.0013297119 0.029290117 0.017112812 0.0037654042 -0.0042494196 -0.0052519306 -0.054696932 -0.006238457
-0.03710416 0.02693033 0.029500388 0.0294128 0.02509702 -0.0072433823 0.021671314 0.01063198
-0.012192465 -0.012660451 -0.018729983 -0.002390629 -0.031635053 -0.016833385 -0.0054785367 0.01161562
-0.011708627 0.025523027 0.047349565 -0.015673112 -0.015174318 -0.03235448 0.036365006 0.012651454
0.014879381 0.031030374 0.012112143 0.012204376 -0.010185528 -0.004058905 0.020126453 0.031926412
0.006981533 -0.012829849 0.002476112 -0.025783394 -0.024170203 0.007989917 -0.011410294 -0.013066601
0.018002657 -0.009281352 -0.0339115 -0.022144243 0.013771697 0.024907466 0.005280191 -0.01374093
0.012281452 0.02680797 -0.0075108586 -0.0076026027 0.009582164 -0.018891998 -0.048319675 -0.021840725
0.021405784 0.012934001 0.0034048215 -0.020536417 0.0026412357 -0.020671396 -0.009784162 -0.031109
-0.005133144 -0.029894544 -0.01206078 -0.017584963 -0.02974389 0.035035826 0.021453137 -0.01743774
0.032737516 -0.0021641525 -0.0061400915 0.025940627 -0.022925984 -0.00093634427 0.011944598 0.022489209
-0.00025388354 0.027388908 -0.016350199 0.024150465 0.018309044 0.0008846564 0.015645493 0.02278545

model.0.running_var f4 [1024]
00000000: 1e34 1b39 bdbe 2639 04fc 1839 12f7 0b39
00000010: d106 2939 54ad 3b39 d6ea 2339 9c90 e238
00000020: 751b 0a39 5929 4239 bc6a 3639 6237 3f39
00000030: 7d83 3239 59d3 1539 0292 2a39 86d7 ff38
00000040: c397 d838 ef8a 2939 3cf3 5d39 339f 0939
00000050: b1df 2d39 483d 1539 ff17 0539 8d94 4d39
00000060: ff2a 1b39 5045 2e39 f392 3839 717d e638
00000070: 13ab 4939 e58e b939 67b7 7e39 cd3c 3a39
00000080: 9fd8 3739 dcdb ef38 5e64 5a39 0a35 5f39
00000090: b7fe f938 ed05 ac38 475a 0339 76d8 8b39
000000a0: c857 8639 1eb6 2139 c455 4939 034c 0839
000000b0: eebc 3c39 5dbb 6139 8156 6539 c4b5 5d39
000000c0: 19ac 0139 f482 a839 445a 8539 eebc 8e39
000000d0: 6681 4139 9e26 7d39 2e0d fa38 498b 0639
000000e0: 53bc 7239 515c e238 ce39 1539 ec18 3339
000000f0: a520 4f39 6907 5239 795c 8b39 7447 4e39
00000100: 75e7 0739 b8e2 ea38 3b6f 4639 a093 1339
00000110: c9f5 0739 787f 2839 e987 6339 344c 6239
00000120: b069 4e39 57b1 4239 98c7 4d39 6b72 5a39
00000130: 2a10 e438 06b0 4039 96a6 1e39 3052 5a39
00000140: 8f97 4439 ca30 dd38 20d7 4239 86bf 0d39
00000150: b8b0 0639 bfae a839 cb94 3339 574a 8039
00000160: b39e 0239 b83d 7c39 b4fc ca39 8a90 5239
00000170: c79b 0639 027e 7c39 7eb4 2239 bc4f 2739
00000180: 82f1 3639 0a53 4539 2bfa 2f39 3ffb 9c39
00000190: ac39 1e39 721d 0439 f106 3f39 1ce1 f438
000001a0: 9c9f 353a 20b6 2d39 4dbc 4139 6be7 5d39
000001b0: 5891 1d39 3cea 2739 bee8 4639 1d7b ff38
000001c0: 89ff 4b39 3e90 4d39 d596 8039 00ef 9239
000001d0: c3b3 eb38 d9d3 3139 4824 4239 5dd1 9039
000001e0: 518e 6939 bf92 2939 b7ec 2c39 54e5 4839
000001f0: 1a62 0e39 d2ba ed38 09e9 d038 d496 ef38
00000200: 3f3b 5039 723d 9a39 c7cc 2339 6fff c738
00000210: 0d7f 5039 f92c 0c39 bc77 df38 f0c9 5539
00000220: afd9 7c39 e964 2839 fcfa 3339 0be7 2f39
00000230: aea9 f638 7693 1739 99c4 1e39 1ae0 2d39
00000240: 2fa1 ad39 b227 6d39 9a0b 3939 97e6 0c39
00000250: c6d3 9c39 3f10 4e39 dddf 7e39 422f 2c39
00000260: 31eb 1c39 bac3 8739 2586 ff38 3ec2 1e39
00000270: 0904 1539 ff11 1e39 0139 9e39 88cc 3039
00000280: 15fa 1e39 5eea 0c39 cafb fe38 5ec1 0d39
00000290: 2d81 0c39 1f17 0239 e7ce 0b3a e567 0639
000002a0: 8e56 3e39 c05e 3339 f272 2139 6fbd 2539
000002b0: 35fe 3839 583e e238 3c2e 8139 ffb4 4e39
000002c0: 0f8f fb38 6944 2439 8fc9 f438 3d1a 8439
000002d0: 29c3 3b39 3377 5739 91df 8739 d01b 4b39
000002e0: 87e6 1339 195a 0639 00b3 6239 5840 1b39
000002f0: d5a3 3039 dfee 2c39 acc3 5b39 de8c 1c39
00000300: 7b7a 7039 45ca 1039 cb1d 0a39 a931 8739
00000310: 6da8 5939 c296 2b39 1db7 3639 f4d4 3939
00000320: 14b9 1939 dc55 2e39 46ac 4239 9418 0439
00000330: df37 1c39 843d 1f39 d6d3 0439 4b10 2e39
00000340: ef9c 0b39 3f89 1c39 175b 4239 fa5f 0f39
00000350: e16f 1239 5deb 3039 fae9 213a d871 d838
00000360: 737f 0439 5a79 1a39 fb34 fb38 9441 4b39
00000370: 1d91 4439 7c9c 1839 b65f 1e39 5863 5339
00000380: f964 4b39 7ba9 2639 a19a df38 3b70 ea38
00000390: acac dc38 96c5 0a39 2776 0539 cc92 d039
000003a0: ab76 3839 4749 5239 3c61 f538 3f12 da38
000003b0: 9d46 3239 900a 1d39 be73 1439 b767 1039
000003c0: 4bdb 1a39 4d6a 0b39 7fdf 4c39 171e 3439
000003d0: 2199 7239 eca7 053a 9626 0d39 ce8f e938
000003e0: 77d8 0f39 9b5e ec38 9282 2b39 2190 0c39
000003f0: d19a 3c39 45dd e338 32f8 2139 d6d1 f838
0.00014801367 0.00015902049 0.00014589733 0.00013348114 0.00016119635 0.0001789828 0.00015632375 0.000108034554
0.00013170934 0.00018516685 0.00017396634 0.00018235811 0.00017024386 0.0001428848 0.00016266856 0.00012199492
0.000103279504 0.00016168853 0.00021166814 0.00013124644 0.00016581897 0.00014232576 0.00012692808 0.00019605663
0.00014797969 0.00016619754 0.0001760235 0.0001099062 0.00019232584 0.00035392414 0.0002429165 0.00017760992
0.00017532938 0.0001143736 0.0002082749 0.00021286696 0.000119206896 8.202703e-05 0.00012526764 0.00026673422
0.00025623874 0.00015422 0.00019200804 0.00012998287 0.00017999459 0.0002152747 0.00021871367 0.00021143915
0.0001236651 0.00032141025 0.0002543499 0.00027225114 0.00018454119 0.00024142346 0.00011923384 0.00012831124
0.00023149075 0.00010793715 0.00014231281 0.00017080054 0.0001975322 0.00020029921 0.00026581043 0.0001967231
0.00012960828 0.00011200219 0.00018924188 0.00014074007 0.00012966165 0.00016069214 0.00021699037 0.00021581427
0.00019685063 0.00018567346 0.00019624678 0.00020832724 0.00010874898 0.0001837612 0.00015130112 0.00020820717
0.00018748477 0.00010547189 0.00018581422 0.00013518156 0.00012845069 0.00032173653 0.000171262 0.0002446945
0.00012456886 0.00024055585 0.0003871672 0.00020081006 0.00012837267 0.00024079534 0.00015516763 0.00015956064
0.00017446841 0.00018818318 0.00016782495 0.00029941832 0.00015089539 0.0001259947 0.00018217765 0.000116767565
0.00069283857 0.00016566413 0.00018476062 0.00021162412 0.00015026832 0.0001601362 0.00018969455 0.00012182279
0.00019454783 0.00019604058 0.0002452644 0.0002802536 0.000112391564 0.00016958955 0.00018514798 0.00027621808
0.00022273629 0.00016171763 0.00016491381 0.00019158918 0.00013578721 0.00011335839 9.961619e-05 0.00011424502
0.00019858497 0.0002941895 0.00015621177 9.536638e-05 0.00019883756 0.00013368194 0.00010655771 0.0002038849
0.00024113686 0.0001605932 0.00017164269 0.00016775371 0.000117617994 0.00014455416 0.00015141293 0.0001658205
0.00033117222 0.00022616869 0.00017647297 0.00013437342 0.00029912422 0.00019651743 0.00024306723 0.00016420803
0.00014964935 0.00025895034 0.00012184334 0.00015140415 0.0001421125 0.00015074758 0.0003017858 0.00016860862
0.00015161217 0.00013438749 0.00012158563 0.00013518843 0.00013399562 0.0001240638 0.000533326 0.0001281794
0.00018152056 0.00017106067 0.00015396977 0.00015806196 0.00017642307 0.00010788132 0.00024639245 0.00019713117
0.000119952594 0.00015665744 0.0001167237 0.0002519655 0.00017906413 0.00020548403 0.00025915776 0.0001936995
0.0001410489 0.000128128 0.00021619722 0.00014805922 0.000168457 0.00016492185 0.00020958361 0.00014929796
0.00022933811 0.00013808261 0.00013171804 0.00025786206 0.00020757476 0.00016363992 0.00017425088 0.00017722306
0.00014660164 0.00016625918 0.00018565459 0.00012597657 0.00014898133 0.00015186338 0.00012667416 0.00016600003
0.00013314535 0.00014928447 0.00018535215 0.00013673297 0.00013965323 0.00016872348 0.0006176528 0.00010320888
0.0001263598 0.00014731791 0.00011978481 0.00019384018 0.00018746076 0.00014554145 0.0001510371 0.00020159537
0.00019397204 0.0001589413 0.000106622705 0.00011178894 0.0001052258 0.00013234312 0.00012727884 0.00039782224
0.00017591815 0.00020054459 0.00011700622 0.00010398449 0.00017001708 0.00014976622 0.00014157497 0.00013771547
0.00014768277 0.00013295673 0.00019538215 0.00017177347 0.00023135963 0.00050985697 0.00013461182 0.000111370915
0.00013718182 0.000112709786 0.00016356472 0.00013405133 0.00017986751 0.00010865418 0.00015446616 0.000118646465

model.1.weight f4 [32, 1024]
00000000: 1802 8bbc a15f 5bbc 09e5 1b3c 7517 1fbd
00000010: f7b0 1f3d c488 6c3c 9c47 aa3b f561 11bd
00000020: 1b3d 123c 01f4 dd3a 5dad 1e3d fe6f 8f3c
00000030: 71ae 46ba 8a30 623c a0f6 fd3b 1697 233c
00000040: 2282 f03c 8d6e fdbc 3bb2 9cbc 5963 80bc
00000050: f329 5fbc c1c1 8ebc 74ca e1bc 5d2f 7dbc
00000060: 689d e2bc 1094 fdbc bb57 1fbd 29df 863c
00000070: 925f 42ba 5527 20bc 0a20 813c f1a8 1f3c
00000080: 3cc4 e23c 8371 a43c ea10 df3c fbc7 91bc
00000090: abc7 513c fe7e 18bd 4e3d aebb acef 983c
000000a0: 7d65 ea3c ad46 8cbc 3e6b b4bc 160c e83a
000000b0: 0134 983c 7f6a 72bc e786 60bc 063d 68bc
000000c0: 46ce c3bc 6dbc 003c f1ff bcbc a796 ddbb
000000d0: e74c 813c a4bc 1cbc be66 07bd 16da fd3c
000000e0: 199d cfbc 800b c4bc cc38 383c 4f16 413a
000000f0: 3c69 ad3c 025a 97bc 8f3b 08bc ba1a e93c
00000100: eec1 aabc ae8d af3c 2301 aebc e615 caba
00000110: ee2b f5bb 8c58 e03c 158d 3b3d 9d23 343c
00000120: 46de 8c3b 4212 8839 b13f bbbc d13d adbc
00000130: e782 19bb be0d 103d b98f 473c 83af 83bc
00000140: 0be0 083c eaab ac3b 1350 a83c 6fc2 24bd
00000150: 9c4f 81ba c98d 43bc d2ed c93c 10fe 8d3c
00000160: 7352 3f3c 5e4d efbb 8217 d3bc 7817 fd3b
00000170: 4490 eabc 6c45 58bb 9f36 053c a696 48bc
00000180: d282 1d3d c61b cb3c 4d20 343d fd75 de3c
00000190: 8b29 1f3c e4a1 17bc 2bf5 da3c 5d51 b0bc
000001a0: 95d1 653b adff 1bbc 4aad c6bc 1f05 e2bc
000001b0: 371c 54bd 00cb 7fbb 9986 9c3c e171 43bc
000001c0: cc65 7fbc abec 803b ccb9 043b 1d2a 0cbc
000001d0: 3014 ce3b 6186 bfbb 8c91 c5bc a44b 573c
000001e0: 856f 22bb f479 6c3d 55d2 073c 1e1a 27bc
000001f0: a0ec 0a3d 727c 39bb 69b6 773b 1767 bbbb
00000200: 7059 b83c 82ea 2dba 53cb 4c3b e72b b93b
00000210: b82b 393c 7730 c8bb 2f9d b3bc bba7 b03c
00000220: 656c f53c b5d0 f33c 0f4e aa3c 5e7f b23c
00000230: 4d40 bf3c a090 cc3c 84b4 a6bb 2999 2e3c
00000240: 0048 653b d948 a53c 246e de3b 7657 a8bc
00000250: 6f64 d0bc 5d52 043c 40a9 bb3b d56b 393b
00000260: 8530 d63c 0975 e93b f437 4abc f546 5abc
00000270: a42d f23c 1da4 003d 77d0 733c a647 64bb
00000280: 6cac 33bc 20ac e0bc d672 d8bb c1a6 7e3c
00000290: 423b 103d 266d 283d 8b5b 9b3c dfd3 7f3c
000002a0: 68ae c03b 5a9a bbbc 4301 323c fa74 a0bb
000002b0: 67b7 02bc 9c98 a6bc b3a1 963c cfe5 24bd
000002c0: 08b7 d23c 85c4 b03b 56b9 0c3c 0b81 193c
000002d0: f5c9 41ba 129d 1d3c f6ec c13b 76b4 4e3b
000002e0: b5f8 7d3c 7e8c 09bd c961 92bc 1edb 0abd
000002f0: 3d1b 81bc f248 f0bc 4260 0f3c 15e9 603c
00000300: d435 b33c 5beb e93a 136a 7abc a09b 873c
00000310: 4a68 36bc c1f3 733c 68e1 143c 0960 a33c
00000320: 41a6 ccbc 9d7e dcbb b0d0 44bd 52ac 43bc
00000330: 97e2 04bc 06c4 07bd f6d5 313c 4b44 23bd
00000340: 2df1 9dbc c0f1 38bd 3a54 d23c 0f6b 763b
00000350: 7813 af3c 5c42 c93b 37f9 e23c 4faa 99bc
00000360: d462 883c f094 2d3d 6b51 2bbc 51d4 96bc
00000370: 92c9 45bc 85db 9dbc 6357 df3c 5ec8 68bc
00000380: ada9 cc3c 0eef 073b 2609 efbb de73 cc3c
00000390: 19f6 bb3c beca 5b3c 0642 b7bb ff31 a5bb
000003a0: 4fc2 c2bc 3f5a a1bc 9466 bc3c b2a6 aabc
000003b0: 45e1 d6bc a7c7 c9bc 5860 bd3c e05c e8bc
000003c0: 050f 9ebb 7781 213c a8d1 ae3c 9d1e 483c
000003d0: 2658 91bc ae5a cdba e012 243c 5291 143c
000003e0: e6e1 b63c fa26 973c 103d 873b db74 5f3c
000003f0: bdf9 dcbc a8a3 f4bc b57b 17bc cd26 9d3c
-0.016968772 -0.013389499 0.009515055 -0.03884073 0.038987126 0.014436904 0.005196525 -0.03549381
0.0089257015 0.0016933681 0.03873955 0.017509457 -0.00075790944 0.013805518 0.0077503473 0.009984752
0.029358927 -0.030936504 -0.019127956 -0.015672373 -0.013620841 -0.017426373 -0.027562357 -0.015453187
-0.027662948 -0.03095439 -0.038902026 0.016463833 -0.0007414754 -0.0097750025 0.015762348 0.009744869
0.027681462 0.020073658 0.027229745 -0.017795553 0.012803952 -0.037230484 -0.0053173667 0.018668972
0.028612847 -0.017123545 -0.022023793 0.0017703797 0.018579485 -0.014795898 -0.013704038 -0.014174705
-0.02390207 0.007857424 -0.023071261 -0.006762344 0.01578374 -0.00956646 -0.033056967 0.03098778
-0.025343465 -0.023931265 0.01124401 0.000736569 0.021168344 -0.018475536 -0.008314981 0.028455127
-0.020844426 0.021429863 -0.021240776 -0.0015417903 -0.0074820435 0.027385972 0.045788843 0.010994819
0.004298958 0.00025953545 -0.022857519 -0.02114764 -0.002342397 0.035169356 0.012180262 -0.016074901
0.008354197 0.005269517 0.020545995 -0.04022449 -0.0009865644 -0.01193566 0.024649534 0.01733306
0.011677372 -0.007302924 -0.025768045 0.007723745 -0.028633244 -0.0033000363 0.008130698 -0.012242949
0.038454838 0.024793517 0.043976117 0.02715587 0.009714494 -0.009254906 0.026728233 -0.021523172
0.0035067548 -0.009521407 -0.024252553 -0.027590333 -0.05178472 -0.003903091 0.01910715 -0.011929006
-0.015588235 0.003934463 0.0020252345 -0.008554962 0.0062890276 -0.0058448766 -0.024117254 0.013140593
-0.002478571 0.05773349 0.008289893 -0.010199098 0.03391707 -0.0028302935 0.0037797934 -0.0057190764
0.022503585 -0.00066343707 0.003124912 0.0056509855 0.011301927 -0.006109293 -0.021925537 0.021564355
0.029958913 0.029762605 0.020789174 0.021789249 0.02334609 0.024971306 -0.005087437 0.010656633
0.0034985542 0.020176338 0.006788032 -0.020549517 -0.025438515 0.008076278 0.0057269633 0.0028293033
0.026146183 0.0071245474 -0.012342442 -0.013322582 0.029562779 0.03140651 0.014881245 -0.0034832745
-0.010966402 -0.027425826 -0.0066054864 0.015542687 0.035212763 0.041119717 0.01896455 0.015614479
0.005880166 -0.022900749 0.010864559 -0.004896757 -0.007978297 -0.020336442 0.018387651 -0.040258225
0.025722042 0.0053945207 0.008589109 0.009369145 -0.00073924597 0.009619968 0.0059181405 0.0031540669
0.015501191 -0.03358125 -0.017868893 -0.033900373 -0.015760059 -0.029331658 0.008750977 0.013727446
0.021876253 0.0017846631 -0.015284079 0.0165537 -0.011133263 0.014889658 0.009086944 0.019943254
-0.02498162 -0.0067289607 -0.048050582 -0.01194294 -0.008110664 -0.033145927 0.010854235 -0.03986005
-0.01928004 -0.045152426 0.025674928 0.0037600433 0.021371588 0.006141944 0.027706726 -0.018757967
0.016648687 0.042378366 -0.010456423 -0.018411787 -0.012071984 -0.019269714 0.027263349 -0.0142079275
0.024983251 0.0020741853 -0.0072947918 0.024957594 0.022944497 0.013415037 -0.0055925874 -0.0050413604
-0.023774294 -0.019696353 0.022998132 -0.02083144 -0.026230464 -0.024631334 0.02311723 -0.028364599
-0.004823568 0.009857527 0.021340206 0.01221433 -0.017742228 -0.0015667283 0.010014266 0.00906785
0.022324514 0.018451203 0.0041271523 0.0136387 -0.026974553 -0.029863194 -0.009245803 0.01918354

model.1.bias f4 [32]
00000000: 2cb0 473c 86d2 08bd 3293 09bc 36dd 83bc
00000010: 1119 ef3c 7030 a73c c79a d43c a2d0 e83c
00000020: 66cb 013d de6f 943c 8b38 91bc 4e4b 203c
00000030: f5a8 53bc 3a57 a33c 9ace f7bb 9104 123d
00000040: c8a9 3fbd 08cc b1bc 3f4d 803c f09e 20bd
00000050: 4346 343b 56c9 b73c 78c0 d73b 5a22 1b3d
00000060: 65b7 29bd 9af5 c6bc 0c81 08bd 3f47 bd3c
00000070: 9070 163d 1402 38bd 6ff4 193b 6022 a1bb
0.012187999 -0.033403896 -0.0083969105 -0.016096693 0.029186757 0.020408839 0.02595271 0.028419796
0.031688116 0.018119749 -0.017727157 0.009783579 -0.0129187 0.019939054 -0.0075624706 0.035648886
-0.046792775 -0.021703735 0.015661834 -0.039214075 0.00275077 0.022434872 0.0065842234 0.037874557
-0.041434664 -0.024287034 -0.033326194 0.023105262 0.03672844 -0.044923857 0.002349164 -0.004917428

model.4.weight f4 [64, 32]
00000000: 497d d83d e399 bebd 0da4 ec3d fa55 febc
00000010: 6848 4c3e 8c8f 1ebb 3a8f 353e 8100 e4bd
00000020: 1c7f 393e 6a88 bfbc 034b 2dbe 1657 de3c
00000030: c74a 9abd 92e7 503e 5053 eb3d 90d4 39bd
00000040: 930f 16bd 84c5 db3d 411a 073e 8802 88bd
00000050: 4181 2b3e 4d6e 513d a74a 45bd d132 afbd
00000060: 2af0 16be 9dc7 9e3d 5b9b 30be f785 403e
00000070: a092 ea3b 1a0c c93d 701c 83bc 6bb6 a6bc
00000080: 8fea c3bd 5484 233e cd9b d7bd 4f8d 083d
00000090: b2e2 8c3c 3061 84bd 874c 2fbe 4901 14bd
000000a0: 1d50 4fbe de60 eebd e200 343e cce0 233d
000000b0: afa8 96bd f592 ba3c b1a6 8fbd 7ea7 383d
000000c0: 3402 2e3e f8b6 9a3d 21ad c5bd b689 803d
000000d0: 8942 0b3d 4c49 ee3d f8e4 b8bd 009b 00be
000000e0: 0226 01be 0ed0 3e3e 6c6f bfbb f080 ad3a
000000f0: 2432 2b3d 818b 323d f910 17be ae7f 433e
00000100: 889d 37bc e025 ce3c caf0 c1bd 195c 493d
00000110: 5a1a 0bbe c390 ccbc 9190 06be 4a3b 8fbd
00000120: 7f85 093d 3836 543d fa24 91bd b333 ce3d
00000130: 04ad bf3c 788c 703d bda9 3abd 3929 0cbe
00000140: c114 1f3d 9602 e83d 4202 783b 0985 113e
00000150: 9744 273d 3bc7 b7bc fef4 a03d 7bb6 abbd
00000160: 4cd2 503e c830 383d 367b 023e 7ad6 4e3d
00000170: 0ef6 48be cfa2 003e d81b 913c 458c f6bc
00000180: 6336 4b3e 32f3 0ebe 4927 b1bd 5af2 a537
00000190: af2c cd3d 22b4 aabd 15a0 7f3c e5df 573e
000001a0: a8c2 213e ebe0 0f3e f454 16bd d5d5 0c3d
000001b0: 0f80 bf3c 161b c43d d255 c13d 80b9 4b3d
000001c0: 2b44 0c3e 3476 7fbd 7fa7 0cbe b1e9 1fbc
000001d0: 8161 583d 38b9 103d fc9d 513e 1be4 5e3e
000001e0: b70a 1bbd 3cbe bbbd 59a2 9dbd de64 f63b
000001f0: 0ccc 17bd 29af 683d 3d25 adbd dca7 9fbd
00000200: 817e eabd e1c8 e93d 563b e03d 7e98 233e
00000210: 7f6c e5bb ae29 003e 8f6a 10be 9a32 13be
00000220: edf6 ae3d 3ac9 2fbe 8ca6 e33d ed96 343e
00000230: 5716 323e ef41 10be 7d9b 49be 9e81 26be
00000240: b27c 023e aff2 cabd 1ee9 c43d 917f c7bd
00000250: 9fdf ba3d 3d9f db3d 5783 9aba 0717 bfbd
00000260: 10c0 173e d0c0 cd3d ff2e c23d edab 823d
00000270: 020d 33be 8a3e 163e fc00 25bd 2c58 223d
00000280: 1b15 2ebe 6095 75bd c3bb 293e a3a1 b43d
00000290: 5b2f 1dbc 1eae 083e 89ca 4dbe bc8d c0bd
000002a0: c8b9 a0bd f657 f2bd d634 153e a94d 2e3e
000002b0: 4534 aa3d 4c83 923d dca9 fdbc 97be 2dbe
000002c0: cfc4 05bd d723 633d b058 373e 9826 473d
000002d0: bce2 953d 8ee1 233e 4971 b9bd 01e3 f73c
000002e0: b06d 263d 0c76 de3d dd36 22bd 4865 dc3d
000002f0: db4c edbd b5d4 a83d 4885 a03d 73e7 acbc
00000300: 20c1 3f3d 640f c0bd cbc6 fbbd 4654 693d
00000310: fb96 243e 5b3c 723d 3153 913d fc80 e33d
00000320: 5f3d c0bd b5df 2d3e f3c3 cfbc 9e7c 86bd
00000330: 5684 12be 895a 2c3e cf40 cd3c ae40 b23d
00000340: 9f8a efbc 05fd 023d 0808 5fbd 861f 13be
00000350: a332 253d 119e af3d 6602 9bbc abb9 763e
00000360: 4cc7 babd 305d bd3c 8757 993d ee81 213e
00000370: a666 283d e4d9 d53d 3a95 82bd 2dd6 8c3d
00000380: 0b01 593e 8d73 6abd 91ef 8fbd 5c65 253e
00000390: 7509 563e 7ed2 b43c 861f 713e 814e 4fbd
000003a0: d063 963d d427 f03d 85e9 4bbd c916 e7bc
000003b0: c373 9bbd 8b01 563e 9c3d 563e 6bf3 3c3e
000003c0: b70f 9f39 9da1 193d d150 85bd 4623 8abd
000003d0: 5698 78bd 3ac7 cdbd 1229 2cbd fa3c 1bbd
000003e0: 63ac a63c e23a 033d 6006 c8bd ead3 a03d
000003f0: 4e6b 363d 9fb2 f73a 3a4c 1b3c 59a1 11bd
0.10570771 -0.09306695 0.11554728 -0.031046856 0.19949496 -0.0024194447 0.17730418 -0.111329086
0.18114895 -0.023380477 -0.16923146 0.027141135 -0.07533794 0.20400837 0.114905 -0.04536873
-0.036635946 0.107310325 0.13193609 -0.06641108 0.16748525 0.05113058 -0.048166897 -0.08554614
-0.14740053 0.07752917 -0.17246763 0.18801104 0.0071585923 0.09816761 -0.016004771 -0.020350656
-0.09566223 0.15968448 -0.105277635 0.033337887 0.01719794 -0.064638495 -0.17119037 -0.036134038
-0.20245405 -0.1163957 0.17578462 0.040009305 -0.073563926 0.022775153 -0.07014216 0.045081608
0.16993028 0.0755443 -0.09652162 0.06276266 0.033999 0.11635074 -0.09028047 -0.12559128
-0.12612155 0.18634054 -0.00584214 0.0013237279 0.041795865 0.043590073 -0.14752568 0.19091675
-0.011206992 0.025164545 -0.09469755 0.049160097 -0.13584271 -0.024971372 -0.13141085 -0.0699373
0.033574577 0.05180952 -0.07087131 0.100684546 0.02339793 0.05872771 -0.04557203 -0.136876
0.03883815 0.11328618 0.0037843143 0.14210905 0.040836897 -0.022433868 0.078592286 -0.08384415
0.20392722 0.044968396 0.12742314 0.05049751 -0.19625112 0.12562107 0.017713472 -0.030096183
0.19844966 -0.13959959 -0.08650071 1.9782387e-05 0.10018288 -0.08335139 0.015602131 0.21081503
0.15796912 0.14050643 -0.03670211 0.034383614 0.023376493 0.09575479 0.09440197 0.049737453
0.13697879 -0.062368587 -0.1373577 -0.009760306 0.052827362 0.03533289 0.20470423 0.21766703
-0.037852015 -0.09167144 -0.07696981 0.0075193485 -0.03705983 0.05680767 -0.08454368 -0.077956885
-0.1144991 0.11415268 0.109488174 0.1597614 -0.007001459 0.125159 -0.14103149 -0.14374772
0.08543191 -0.17166606 0.11115751 0.17635699 0.17391334 -0.14087652 -0.1968822 -0.16260383
0.1274288 -0.099095695 0.09614776 -0.09741128 0.091246836 0.10723732 -0.001178841 -0.09330564
0.1481936 0.10046542 0.0948162 0.063804485 -0.17485431 0.14672294 -0.040284142 0.03963487
-0.17000239 -0.05995691 0.16575532 0.08819892 -0.00959381 0.1334767 -0.20096792 -0.09402034
-0.07847935 -0.118331835 0.14570937 0.17021812 0.08310751 0.07153949 -0.030964784 -0.16967236
-0.032658394 0.0554541 0.17904925 0.04862079 0.07318637 0.16004011 -0.090548106 0.030259611
0.04063195 0.108623594 -0.039603103 0.10761505 -0.11586925 0.08243696 0.078379214 -0.021106457
0.046815038 -0.093779355 -0.12293776 0.056965135 0.1607322 0.05913959 0.070959456 0.11108586
-0.093867056 0.16979869 -0.02536199 -0.065667376 -0.14308295 0.16831411 0.025055317 0.08703743
-0.029240904 0.03197958 -0.05445102 -0.14367494 0.040331494 0.08575071 -0.018922042 0.24094264
-0.09120044 0.023115724 0.07487398 0.1577222 0.04111352 0.1044195 -0.06376119 0.06876788
0.21191804 -0.057239104 -0.070281155 0.16151947 0.20902045 0.022073027 0.23547181 -0.050611977
0.073432565 0.117263466 -0.04978325 -0.028209107 -0.07590439 0.20899026 0.2092194 0.18452232
0.00030338552 0.037507642 -0.06509555 -0.06745009 -0.060692154 -0.10047765 -0.042031355 -0.03789995
0.020345872 0.032038577 -0.09766841 0.078529194 0.044535927 0.0018897838 0.009478623 -0.035554264

model.4.bias f4 [64]
00000000: 713a 993c 403e f53d 3f95 37bd 5cf6 873c
00000010: 37de a43d a1c1 f6bd 7cbc 5b3e 9371 fc3d
00000020: f60a 693d b9a7 553d 7229 3abe 5c8f c1bc
00000030: 3e86 95bd 6795 9dbc 816a 1bbe 1531 d83d
00000040: ab58 e43d 5f99 e13d 3690 723e 2a7c 383c
00000050: b218 ac3d 74fb f0bd 7590 893d a529 20bd
00000060: 38dc 923b 6504 663d 5bf2 fdbd 1826 2dbe
00000070: d0ab ae3c e1c7 2e3e b396 323d 1f21 ae3d
00000080: 9d0b f83d 5c4a 9e3d 91d2 1abe 2d6e f93d
00000090: f612 193c ba41 0fbd f220 173e 8dc7 c03d
000000a0: 3948 95bd 4e48 993d 9278 e23d 1941 93bd
000000b0: 64b3 2b3e 0e03 18be 3c02 97bd 8a4e f4bd
000000c0: 597d eabd 8022 7f3d eeeb 863d beff b33d
000000d0: d54a 563d c70a 8c3c e939 e5bb b792 e5bd
000000e0: 700b ddbd fc8c f93d 3281 093d 210c b5bd
000000f0: f55b fcbd c717 32be 0d6b 463c a93d a03d
0.018704625 0.11974764 -0.044820067 0.016596965 0.080501966 -0.120486505 0.2145862 0.1232635
0.05689522 0.052161906 -0.18179873 -0.02362793 -0.07300995 -0.01923628 -0.15177347 0.10556237
0.111497246 0.11015581 0.23687825 0.011260072 0.08403148 -0.11766711 0.06717006 -0.039102215
0.0044818185 0.056156535 -0.12399741 -0.16909063 0.021322161 0.17068435 0.04360075 0.08502411
0.1211159 0.07729027 -0.15119387 0.121792175 0.0093429 -0.03497479 0.14758661 0.09413061
-0.07289166 0.07484494 0.11058153 -0.07190151 0.16767651 -0.14844915 -0.07373473 -0.11929043
-0.114496894 0.06228876 0.06587969 0.08789013 0.05231746 0.017094983 -0.006995429 -0.11209624
-0.10793197 0.12185094 0.033570476 -0.08840204 -0.12322227 -0.17391883 0.012110484 0.07824261

model.7.weight f4 [1, 64]
00000000: 9597 5bbd 3f90 de3d 19e6 0c3e f872 f7bd
00000010: 79b4 283e 879c 043e ea30 1abd cf61 9cbd
00000020: 4281 f5b9 53c6 e8bd 1806 9abd 18b6 b7bd
00000030: f559 a0bd d67b b93d ef68 e8bc 5a1f 6ebd
00000040: dfaf 1ebe c49e c0bd 8cb8 81bd bdd7 063e
00000050: dfa0 26be 0c91 11be c442 8e3d af96 37bd
00000060: 020b 02be 5fa1 e43c d792 353d c119 023e
00000070: beac e3bc 038e b6bd 8d0d 12bd c387 e6bd
00000080: 5103 173e fa59 f83a 4102 1ebd ba76 eb3d
00000090: ba41 013e 5ade 813d b366 b03d a221 bc3d
000000a0: 941c 323d 3ca4 a4bd d586 c7bd d456 bbbd
000000b0: 6c2e e93d 303a e63d 9ba5 073e 509b c73d
000000c0: 1bf3 163d b055 063d f332 0b3d 04d5 5ebd
000000d0: 07ef 083d ec53 d33d e4ff e2bd af81 bfbd
000000e0: 1771 1bbe 805e d83d bba6 b3bd 6dce 213e
000000f0: 6f43 55bd 0664 5bbd e445 0dbe 232e e5bd
-0.053611357 0.108673565 0.1375965 -0.120824754 0.16475095 0.12950335 -0.037644304 -0.07635843
-0.00046826346 -0.11365952 -0.075206935 -0.089702785 -0.07829658 0.09056823 -0.028370349 -0.058135368
-0.15496777 -0.09405282 -0.06334028 0.13168235 -0.16272305 -0.14215487 0.06946328 -0.044821437
-0.12699512 0.027908979 0.04432949 0.12705137 -0.02779233 -0.08913805 -0.035657454 -0.11256363
0.14747359 0.0018947714 -0.03857637 0.11497255 0.12622729 0.06341238 0.08613338 0.091861024
0.043484285 -0.08039138 -0.09742514 -0.091474205 0.113858074 0.11241567 0.13246767 0.097464204
0.036852937 0.03279656 0.033984136 -0.054402366 0.03343108 0.10318741 -0.110839635 -0.09350907
-0.15179859 0.105648994 -0.08772036 0.15801401 -0.052066263 -0.053562187 -0.13796192 -0.111904405

exp_avg f4 [1024]
00000000: dc50 a03b 33e7 4ebb 293c d8b9 a8ba 193b
00000010: e367 013b 76f1 26bb 714e c23a 38f2 b5ba
00000020: f61e 59ba ac60 c6ba 50cc 163b 707e 9f3a
00000030: 2a68 52bb dc12 81bb 90d0 03bb 6ebe 85ba
00000040: a83f 93bb 5bfa f83a 60bc 1abc 063f 03bb
00000050: 60af b7ba 8120 3bba 463a 5b3a 4542 313a
00000060: 8adb 31bb 03b4 bdb9 ba72 04bb d089 ebbb
00000070: ccc0 29ba cff0 b839 5406 80ba dbe7 70ba
00000080: 42d1 efb9 eabb 8db9 0c8e c43a 047d 5bbb
00000090: 20dd b73b 5ef5 5cba 3419 59ba 9354 1cbb
000000a0: 6e39 e639 5d3a 42ba f57e 65b9 ef11 0f3b
000000b0: 165b afb8 e1a3 273b 84c6 ddba 38e7 a33b
000000c0: 0899 083b fc09 f1ba 6d18 72ba f6ca 9e3b
000000d0: 7259 233b 6acf 0ebb 222c b73a b458 153b
000000e0: f234 aeba 4eda 7dba c6ed ab3a 0a38 75ba
000000f0: d0b7 903a 6e29 77b9 0316 93b9 c231 103a
00000100: 7bbb a4b9 63a7 603a e263 0f3b cde6 863a
00000110: fd90 c63b 08fa 41bb b9e9 6fba be7c 02ba
00000120: 9acb 9ebb 4c15 c5ba 341c a939 4467 c53a
00000130: 38eb d8ba 9e99 a23b 58f9 963a 6c9f 223b
00000140: 4e0c 1dbb a468 4c3b b7d3 0cbb f560 f5ba
00000150: d4c1 9f3b de18 93b9 54fe 273b 6322 213a
00000160: 0834 aebb e302 3d3a b468 c2ba 3abb c1ba
00000170: a525 643a 4a37 853b f2e2 ba39 7b98 c2ba
00000180: d6f3 2b3b dfdd 19b9 923f e3b8 12e7 0f3a
00000190: 4874 6d3a d2b2 a93a 5189 383a 2a72 27bb
000001a0: 98a6 2639 38a7 1b39 d9de 9cba fb22 86ba
000001b0: 1941 37bb 4669 1039 1e72 69ba 30ef 65bb
000001c0: ac28 85ba 669d a639 0a6b 93bb 1739 95ba
000001d0: d4fe 30bb a05f b3b7 725d ccba a59e 7cba
000001e0: 80a3 97b9 f9a5 53bb 9424 c2ba 4618 d3ba
000001f0: 1c21 2a3a e307 efb9 8195 42ba 7dd7 8a39
00000200: b2f6 2cba 9861 5639 bfbf a0ba 79fa 8e3b
00000210: 28e3 7839 6324 1d3a 5dbe 2e3b 913f 75b8
00000220: 8cca 173b b909 b63a a06b e838 0a2e 8cbb
00000230: 1a5a 81bb 63c4 80b7 d475 aa3a c08e a4ba
00000240: 7ca6 b63a 6cce 9aba be9e bf3a efe9 d6ba
00000250: 7e13 94bb e26e cdbb 1cd6 00bb fb8f 953a
00000260: 9c01 1eb9 4784 35ba 74bd 2fba f754 9cba
00000270: 658a 39ba 01ad a73a 60c8 0638 52e8 b2ba
00000280: 5376 2b39 02a9 8d39 dbb0 963b 9c0f 3bba
00000290: 1e26 c839 eb8e e239 089b 0bba b048 eab8
000002a0: c603 99ba 5613 eb3b 3f26 8e3a bb44 cfba
000002b0: fa97 ffba 8f98 85ba 9407 d338 2c38 3f3a
000002c0: 1dbc e2ba 7ee4 f9ba c036 023b a272 02bb
000002d0: 564d 293b 1e4e bfba ae96 af3a c0dc 643a
000002e0: e172 52ba f285 073b 1e70 183b ff16 133b
000002f0: b766 173a c305 cfba ce54 54bb 7875 5c39
00000300: 7842 1aba 75ec 09ba d2e5 6ebb 77ce 37bb
00000310: 7ec4 9b3a bc46 18bb d23c c6ba 82b6 9639
00000320: 4edb 7dba 5143 1dbb b203 e6ba e22c 01ba
00000330: 6e79 ffba 2d86 b9bb 9ca4 083b 1530 3f3a
00000340: 65e0 1ebb 1def e1ba b983 4a3a 2e10 06bb
00000350: 7a46 0e3b d0d4 8839 c2c0 a73a be4a 033b
00000360: ab16 18ba ba68 5a3a 041b caba 341a 1cba
00000370: eacf 0bba 7cd6 253b 0e72 d53a 4b3d 79ba
00000380: 56f9 dd3a 9c6c 69bb be5e 9bb9 b39d 873a
00000390: fcfa 25bb 7e35 72b9 3a56 81b9 d84a f0ba
000003a0: ef00 103a 9d27 1bbb 50be 8939 0a0c a4b9
000003b0: 4cf2 f83a 2a9a 0aba 997d 073b 6991 baba
000003c0: f29e 66b9 b84d 4d38 1a6b a3bb 54fe d53a
000003d0: 79a8 64ba c35d 303b 6981 90bb cf29 0b3b
000003e0: 19fa 753a 7f12 1e3a f2c3 71bb 82c3 63bb
000003f0: 4136 fd39 7e82 2cbb 3b37 343b 00e7 3bb9
0.0048924517 -0.003157091 -0.00041243553 0.0023457203 0.001974576 -0.0025473512 0.0014824403 -0.0013881391
-0.00082825066 -0.0015135012 0.0023009963 0.0012168419 -0.0032105544 -0.003939016 -0.0020113327 -0.0010203847
-0.0044936724 0.001899551 -0.009444326 -0.0020026579 -0.0014014058 -0.00071383273 0.00083628704 0.0006761889
-0.0027138912 -0.00036183008 -0.0020209984 -0.0071880594 -0.00064755674 0.0003527463 -0.0009767511 -0.00091898226
-0.00045741542 -0.00027033623 0.0014995947 -0.0033491263 0.005611077 -0.00084288965 -0.00082816486 -0.002385412
0.00043911807 -0.00074092095 -0.00021886437 0.0021830758 -8.361616e-05 0.0025579857 -0.0016920124 0.0050019287
0.0020843167 -0.0018389816 -0.0009235207 0.004845972 0.002492514 -0.002179111 0.0013974945 0.0022788467
-0.0013290925 -0.0009683714 0.0013117127 -0.0009354359 0.0011041109 -0.0002357119 -0.00028054425 0.00055005786
-0.000314202 0.00085698644 0.0021879603 0.0010292173 0.0060597644 -0.0029598493 -0.0009151954 -0.00049776945
-0.0048460485 -0.0015036254 0.00032255205 0.0015060683 -0.0016549593 0.0049621603 0.0011518402 0.002481426
-0.0023963633 0.00311903 -0.0021488497 -0.0018720912 0.004875401 -0.00028056552 0.002563377 0.00061467866
-0.005316261 0.0007210208 -0.0014832229 -0.0014780529 0.0008703119 0.004065429 0.00035645772 -0.0014846468
0.0026237867 -0.0001467387 -0.000108360444 0.0005489449 0.000905816 0.0012946969 0.00070395047 -0.0025550225
0.00015893055 0.00014844246 -0.0011968269 -0.0010233814 -0.0027962385 0.00013772128 -0.00089052494 -0.0035085194
-0.0010159216 0.00031779258 -0.004498844 -0.0011384812 -0.0027007358 -2.1382992e-05 -0.0015591814 -0.0009636677
-0.0002892278 -0.0032294972 -0.0014811927 -0.0016105257 0.0006489919 -0.00045591508 -0.00074227905 0.00026481962
-0.000659804 0.00020444987 -0.0012264176 0.0043633548 0.00023735745 0.0005994497 0.0026663758 -5.8471753e-05
0.0023161499 0.0013888396 0.00011082669 -0.004277949 -0.0039475085 -1.5350239e-05 0.0013005086 -0.001255475
0.0013935114 -0.0011810786 0.0014619452 -0.0016396622 -0.004518925 -0.006269322 -0.001965887 0.0011410707
-0.00015068654 -0.0006924313 -0.0006703951 -0.0011927177 -0.00070778123 0.0012792648 3.2134703e-05 -0.0013649559
0.0001635191 0.00027019536 0.0045987195 -0.000713581 0.00038175372 0.0004321256 -0.00053255307 -0.000111715286
-0.0011674098 0.007173936 0.0010845138 -0.001581333 -0.0019500249 -0.0010192561 0.000100626756 0.0007294442
-0.0017298494 -0.0019065288 0.001986906 -0.0019904752 0.002583345 -0.0014595424 0.0013396346 0.0008730404
-0.00080279825 0.0020679203 0.0023260186 0.0022444127 0.00057754986 -0.0015794564 -0.003239918 0.00021024595
-0.00058845384 -0.000526137 -0.0036452902 -0.0028046647 0.0011884121 -0.002323552 -0.0015124327 0.00028746208
-0.0009683863 -0.0023996423 -0.0017548709 -0.00049276475 -0.0019491145 -0.005661747 0.0020850068 0.00072932366
-0.0024242636 -0.0017237399 0.00077253167 -0.0020456421 0.0021709488 0.000260985 0.0012798535 0.0020033563
-0.00058017176 0.00083316455 -0.0015419428 -0.00059548323 -0.0005333411 0.0025304845 0.0016284601 -0.00095077296
0.001693527 -0.0035617715 -0.00029634492 0.0010346681 -0.00253266 -0.00023098846 -0.0002466904 -0.0018332852
0.0005493303 -0.0023674734 0.0002627247 -0.00031289487 0.0018993109 -0.00052872545 0.0020674227 -0.001423401
-0.00021993721 4.894819e-05 -0.0049871327 0.0016326406 -0.0008722614 0.0026911355 -0.004409958 0.0021234637
0.0009383276 0.0006029978 -0.0036890474 -0.0034753983 0.00048296343 -0.0026322897 0.002749874 -0.00017919764
