lightning_logs/version_5/checkpoints/epoch=199-step=1600.ckpt (torch, 464377 bytes, 23 tensors)

model.0.weight f4 [1024]
00000000: d4f7 843f e298 833f 3b66 7f3f f6a3 843f
00000010: 00d5 813f 3b93 7b3f b125 8b3f 9062 813f
00000020: 821d 7c3f 31b9 623f 2331 7a3f 74d7 853f
00000030: cc6e 763f c44a 703f fefd 903f cc1b 873f
00000040: b698 913f 1259 913f 4e9b 7f3f 75d6 8d3f
00000050: 02e1 613f ebc3 8b3f 3bde 843f 6c0c 8e3f
00000060: c607 793f c2ac 5b3f 8f8d 6d3f 890d 803f
00000070: 91d9 903f e4f6 833f 5d4c 7f3f 468a 813f
00000080: 92ea 803f 3018 703f 2f31 723f 8427 7e3f
00000090: 6d29 843f 4e67 8c3f 7937 763f 496f 6e3f
000000a0: fdbd 743f 569b 6d3f 8375 6a3f d614 7f3f
000000b0: 9cf9 813f 1a82 833f e269 5b3f 24a6 723f
000000c0: a9d1 713f 6979 823f d83d 823f 2b09 6e3f
000000d0: 8b61 6d3f 2bf5 8a3f 5c8d 8a3f ce73 803f
000000e0: 336b 703f 6c0b 9b3f 9e12 7e3f 6a9c 713f
000000f0: fa31 823f 3730 763f ad6b 833f 593d 7d3f
00000100: 7b93 683f 03aa 8a3f c0f6 893f 2980 7c3f
00000110: da63 7b3f a7df 7a3f 99fa 5c3f 7a87 813f
00000120: f332 703f 78b7 6c3f 59e2 873f 2e39 833f
00000130: 2ea3 8e3f a5d3 8b3f a280 553f f67e 6f3f
00000140: 47ec 953f f525 813f 77f9 883f 07d7 7d3f
00000150: 76a4 733f 36c2 773f ff85 713f bf40 5f3f
00000160: 4e22 833f 937c 623f e0cf 603f 2b3e 6e3f
00000170: 2af4 803f 0d84 5f3f 1a7f 793f c0e1 6c3f
00000180: ae1e 713f 0f69 863f 8257 613f 1b54 5c3f
00000190: 4d3a 853f eec9 5e3f e07e 6b3f f716 843f
000001a0: f85e 7f3f 22f0 7a3f 066f 7b3f 08f4 6d3f
000001b0: a4af 953f 8a14 823f 6303 623f d84c 833f
000001c0: 0ae8 593f 2bc5 7c3f 388c 743f cff5 6d3f
000001d0: f148 973f c56b 8c3f b1e5 6e3f 7f5c 643f
000001e0: 8e27 643f 9075 793f f3ad 6f3f 9af8 6f3f
000001f0: 8a0c 833f 3781 6f3f 1f20 7a3f 37ec 7e3f
00000200: 0f61 763f 4190 8d3f 9fd8 703f abf8 8a3f
00000210: 1c7a 6f3f f9f9 803f f722 8c3f af83 603f
00000220: 54d0 693f bc01 853f a2f5 713f 67d8 7b3f
00000230: a639 7c3f 5a14 833f f4df 743f f263 853f
00000240: 5c2f 743f 9430 763f 43c5 793f b1f7 723f
00000250: df3d 803f 0da9 723f d8a0 843f 1fc7 623f
00000260: 8cbb 733f e68e 653f 93e2 603f 742d 813f
00000270: 423d 8d3f 21ad 833f f763 813f 099f 8e3f
00000280: f941 783f 5c23 703f 6591 6d3f 9d54 6a3f
00000290: a925 823f 370e 833f b790 823f 9ff8 893f
000002a0: 1b82 823f 1571 6f3f 577b 723f e032 733f
000002b0: f81a 6f3f a63a 783f 55b4 653f c42c 823f
000002c0: aeaa 8a3f 7261 843f e426 8a3f e1fc 5b3f
000002d0: 5c90 853f 90aa 823f 7fff 5d3f 32f5 673f
000002e0: b173 6e3f 0072 713f 331b 843f e841 8e3f
000002f0: 3be6 5c3f 97dd 903f cd73 773f 667c 8b3f
00000300: 8400 723f bd60 833f c223 883f e2d5 5d3f
00000310: 68c9 833f 1363 683f 7c65 6f3f fe1b 7a3f
00000320: 23ee 873f 89c3 793f c104 9d3f e05f 7d3f
00000330: e725 723f e02f 8d3f 4dac 973f c14d 803f
00000340: e2ef 803f fed5 783f 15e6 6a3f d3e8 8f3f
00000350: 7794 813f 7c2c 703f 4d21 5d3f c9fd 863f
00000360: 6be6 5a3f c3af 9f3f 0e21 7a3f 4ad3 813f
00000370: b8dd 6f3f 48ca 863f 8f1a 803f f0cc 7b3f
00000380: 0f01 813f 256d 853f 6d43 7d3f 5056 693f
00000390: 76a0 8d3f 8033 763f d7be 7c3f 93ed 6d3f
000003a0: d319 763f 27d4 923f fc14 813f e339 863f
000003b0: 1291 633f 682f 783f 32f7 953f 931a 7c3f
000003c0: 67aa 6d3f 4da9 7b3f 0074 593f 157c 6a3f
000003d0: eff4 713f 516d 803f e532 823f e8bc 833f
000003e0: e763 963f 3f42 813f df1f 663f 4c5e 853f
000003f0: 1436 723f c022 843f 3d44 773f 1506 763f
1.0388131 1.0281031 0.99765366 1.0362537 1.0143127 0.9827153 1.0870878 1.0108204
0.98482525 0.8856383 0.97731227 1.0456376 0.9626281 0.93864083 1.1327512 1.0555358
1.1374729 1.1355307 0.9984635 1.1081072 0.8823396 1.0919164 1.0380319 1.1097541
0.97277486 0.8581048 0.92794126 1.0004131 1.1316396 1.030972 0.99725896 1.0120323
1.0071585 0.9378691 0.946063 0.99279046 1.0325142 1.0969026 0.96178395 0.9313856
0.956024 0.9281515 0.9158556 0.9964117 1.01543 1.0274079 0.8570844 0.9478476
0.9446054 1.0193301 1.0175123 0.9298274 0.92726964 1.0856069 1.082439 1.0035341
0.93913573 1.2112861 0.9924716 0.94379294 1.0171502 0.9616732 1.0267235 0.98921734
0.9085004 1.0833133 1.0778427 0.98633057 0.98199236 0.97997516 0.8631988 1.0119469
0.9382774 0.9246745 1.0615951 1.0251825 1.1143548 1.0923964 0.83399403 0.935531
1.1712731 1.0089709 1.0701131 0.9915623 0.9517282 0.9678072 0.94345087 0.8720817
1.0244844 0.88471335 0.8781719 0.9306361 1.0074513 0.8731087 0.97459567 0.9253197
0.9418744 1.0500811 0.8802415 0.86065835 1.0408417 0.8702687 0.9199047 1.0319508
0.99754286 0.98022664 0.98216283 0.9295049 1.1694226 1.0162518 0.8828642 1.0257826
0.8511969 0.98738354 0.95526457 0.929532 1.1819135 1.0970389 0.9331923 0.8920364
0.89122856 0.9744501 0.936248 0.9373871 1.0238202 0.9355654 0.9770526 0.99579185
0.9624185 1.1059648 0.9408054 1.0857137 0.935457 1.0076286 1.094817 0.87700933
0.9133351 1.0391154 0.9451543 0.9837708 0.98525465 1.0240586 0.95654225 1.0421126
0.95384765 0.96167874 0.9756662 0.949092 1.0018882 0.947892 1.0361586 0.88585085
0.9520805 0.8967117 0.87845725 1.0091996 1.1034319 1.028721 1.0108632 1.1142284
0.96975666 0.93803954 0.9279998 0.9153536 1.0167743 1.0238713 1.0200413 1.0778998
1.0195955 0.93531924 0.9471945 0.94999504 0.93400526 0.9696449 0.8972829 1.0169911
1.0833337 1.0342238 1.0793118 0.8593274 1.043468 1.0208302 0.8671798 0.90608513
0.9314528 0.94314575 1.03208 1.1113863 0.86288804 1.1317624 0.9666107 1.0897338
0.94532037 1.0263897 1.0635912 0.86654484 1.0295839 0.90776175 0.9351423 0.9769896
1.0619549 0.9756399 1.2267076 0.9897442 0.94589084 1.1030235 1.1849457 1.0023729
1.0073206 0.97201526 0.9175733 1.1242927 1.0123433 0.9381788 0.8637894 1.0546199
0.8550784 1.2475513 0.9770669 1.0142605 0.9369769 1.0530481 1.0008105 0.98359585
1.0078448 1.0423933 0.9893101 0.9114733 1.1064594 0.9617233 0.987287 0.92940634
0.96133155 1.1470994 1.0084529 1.0486416 0.88893235 0.96947336 1.1716063 0.9847805
0.9283814 0.9830521 0.84942627 0.91595584 0.94514364 1.0033361 1.0171782 1.0292025
1.1749238 1.0098342 0.8989238 1.0419402 0.94613767 1.0323105 0.965885 0.9610303

model.0.bias f4 [1024]
00000000: a26a e63d 626f 413d 02f7 013e e074 c6bd
00000010: 22bb df3c ea89 183c c34c 2fbe 03b9 b6bd
00000020: f52c b5bd 670c 59be 1736 ca3d b8f1 7bb9
00000030: 91ff a43d 764e 7e3d 0470 f43a 119c e93c
00000040: 8b18 a63e a49c bcbd 974c ed3d cc1a 40bc
00000050: 8b71 80bb 65ee 8c3d 10d9 80bd 546a c73d
00000060: 3b84 bf3d 2cd6 78bd 9900 ee3d f138 b0ba
00000070: 1591 df3d cae3 10bc 5306 98bd b28c 873c
00000080: 99d1 f73d 6d6a b73d 4bd0 eebc 1e5b 2bbd
00000090: 78e9 3b3e 7408 c53c dfe6 d63d d409 9f3e
000000a0: d82a 1bbe b868 293e d7b5 e53d 433c 7abd
000000b0: ea93 00be fdee d83c 9846 33bd cb4b 2c3e
000000c0: 23a9 a2bd 2755 54be 83ee 5bbd ff01 273e
000000d0: c837 b9bd ce26 ef3d 294a 143d 130d af3d
000000e0: 4ab7 39be 2305 24bd 6ea2 383d cf01 9c3b
000000f0: cd00 0e3e bde0 1a3e a792 fc3c 620e d73d
00000100: 255f f23c 93a2 eebd 7b7b c13d b54b 6abe
00000110: acdf d93c 1f12 543d 257a f5bc 6dea 1e3d
00000120: aad3 1e3d 5007 8cbc 5576 ecbc 0161 303e
00000130: f211 a3bd fa4b abbd d19a c7bd 4206 cebc
00000140: 7200 b7bc 3564 48bd 4aca 833e c3b4 26bd
00000150: 5d52 be3d 9294 9f3c a347 c03b 17c6 093e
00000160: 8ebe b0bd cfd1 77be 0b37 ae3d 1ac2 2b3d
00000170: ef50 b7bc 8d91 18bd 3a23 b7bd 23f5 d43d
00000180: 7185 86bc 0577 d0bd 236d 49bd e9c7 c83d
00000190: f9be 3cbc 05a8 ed3b 8f6d d8bd f1fd bb3d
000001a0: 9398 fdbb f1d0 073e 3dc7 2d3e 5786 7e3d
000001b0: dd73 e5bd b590 24be 64c8 6e3d 2851 e439
000001c0: 1938 99bd f789 1d3e 93bf 63be a6ac a93c
000001d0: 8b52 9d3c 466c cebd 7475 e5bd 69f2 bcbd
000001e0: 7fe1 693d eaae 38bd c3f2 133d eeca b2bd
000001f0: 4f89 05bd 9175 3fbe 4c18 163e 32ba 98bb
00000200: b673 07be d9a5 c2bd 071b 5ebe 6bdc f8bd
00000210: 5cee 9abd c828 36bd 0392 da3d 6b51 4fbd
00000220: 416a 83bd 914b 8e3c 5afe 0f3d 0c92 dfbd
00000230: 0cb8 003e 9cc4 ea3d 4066 d43d 2bdf 79bd
00000240: ef5e 6c3d 4771 80bd 35e4 90be 7428 ba3d
00000250: e965 023e de0f 613e 9d87 0bbe fac7 bdbd
00000260: ea82 26be ee72 293e b903 643d 01be 4e3e
00000270: 3e74 2b3e 75d5 793d 38fa 183d c8c6 713d
00000280: 4866 883d ca52 7ebd 3ad8 1dbd 2602 4c3c
00000290: d637 3dbd 8f43 23bd 1e65 2fbd 7e44 f1bd
000002a0: fa41 1a3d 3232 70be d638 293e 5514 16bd
000002b0: eb10 b13d 974b 333e 81a0 92bd 5192 28bd
000002c0: 6aca a43d 70ba 483e 1da6 babd 7aad c3bc
000002d0: b5b9 213e e6cd a03d ac8e 73bd 5485 24be
000002e0: b4da 053c 7389 9a3d b588 823d 35f6 223e
000002f0: a63a e3bd 7e08 fb3d 8132 3bbc b2f1 b83d
00000300: 18e9 18bc b4a3 a9bd 44e1 7b3c 312d 88bd
00000310: 9df2 af3d 6fd5 8f3d 5604 e23d 640a 493b
00000320: d0fe e3bd dc32 913e 7a35 d7bd 9e1f 30bc
00000330: 1237 383e a550 46be 3edf f2bc f652 0ebe
00000340: 8a3c 4e3e 72f8 91bd 1898 e53c 0856 883d
00000350: dae8 54bd f497 4abe ce50 443e db14 26bd
00000360: 86ef 623d 2501 c63c 8a96 9e3d d577 47be
00000370: efb6 ae3d 9cba c53d 11e2 9ebd 2273 57be
00000380: 98a8 103e 0782 043e ed31 8a3e 9d6a 593d
00000390: c3ed cf3d f26e 8f3d 7c83 1d3e f0e6 a8bd
000003a0: e4c1 c43d 2dab 013c b03c 813d 798c 75bc
000003b0: 66d5 d7bb 5943 aebd 963b ee3c bc5e 433d
000003c0: 7cf2 cc3d 4807 e03d 4434 e13d b4f5 4bbc
000003d0: 4926 c53d 1e95 253e 39fc 54be 87db 4a3e
000003e0: c906 183e 6a4f 03be 9f8f 603d 7471 3c3d
000003f0: 5718 54be 2945 ec3d e9c9 46be 13b4 1c3e
0.11250807 0.047225364 0.12691882 -0.09690261 0.027310912 0.009310225 -0.17119126 -0.08922007
-0.088464655 -0.21196137 0.09873598 -0.00024027273 0.08056558 0.062086545 0.0018649106 0.028516801
0.324406 -0.09209564 0.11586874 -0.011725139 -0.0039197854 0.06881408 -0.062914014 0.09737077
0.09351393 -0.060751125 0.11621208 -0.0013444704 0.10916344 -0.008843372 -0.07423081 0.016546581
0.121005245 0.08955846 -0.029152056 -0.041834943 0.1835078 0.024051882 0.10493254 0.31062186
-0.15153062 0.16543853 0.11216324 -0.061092626 -0.12556425 0.026481146 -0.043768495 0.16825788
-0.079424165 -0.20735608 -0.05369426 0.16309355 -0.090438426 0.11677323 0.036203537 0.085474156
-0.18136325 -0.04004396 0.04507678 0.004760958 0.13867493 0.15124793 0.030831648 0.1050079
0.029586384 -0.11652102 0.0944738 -0.22880442 0.026595913 0.051775094 -0.02996547 0.038797785
0.038776077 -0.01709333 -0.028865019 0.17224504 -0.07962407 -0.08364101 -0.09746326 -0.025149468
-0.02233908 -0.04892369 0.25740272 -0.04069973 0.09293053 0.019480024 0.0058679148 0.13454472
-0.086300954 -0.2420113 0.08506592 0.041933157 -0.02237746 -0.037248183 -0.08942266 0.103983186
-0.016421052 -0.10178951 -0.049176347 0.09803755 -0.011520141 0.0072526955 -0.10567772 0.09179295
-0.0077391355 0.13263299 0.16970535 0.062139835 -0.1120374 -0.16070826 0.058296576 0.00043548015
-0.07481403 0.1538466 -0.22241049 0.020712208 0.019204399 -0.10079245 -0.11204043 -0.092259236
0.057099815 -0.045088686 0.036120187 -0.08730112 -0.03260165 -0.18697192 0.14657706 -0.004660868
-0.13227734 -0.09504289 -0.21689998 -0.121514164 -0.07564995 -0.044472486 0.10672381 -0.050614756
-0.06416751 0.017370017 0.035154678 -0.10916528 0.12570208 0.114632815 0.10371065 -0.061003845
0.057707723 -0.06271606 -0.28299108 0.09089747 0.12734188 0.21978709 -0.13625951 -0.09266658
-0.16260877 0.16547748 0.055667613 0.20189668 0.16743562 0.060994584 0.037348002 0.059027463
0.066601336 -0.062090673 -0.038536288 0.012451684 -0.046195827 -0.03985935 -0.042821042 -0.11780642
0.037660576 -0.23456648 0.16525587 -0.036640484 0.08645805 0.17509304 -0.0715952 -0.041155163
0.0804642 0.1960237 -0.09113715 -0.023886431 0.15793498 0.07851772 -0.059462234 -0.16066486
0.008169819 0.075457476 0.06373731 0.15914233 -0.11095171 0.12257479 -0.011425615 0.09030475
-0.009332918 -0.08283177 0.015373532 -0.066492446 0.08591197 0.07023131 0.11035983 0.003067636
-0.11132586 0.28359115 -0.10508247 -0.010749726 0.17989758 -0.19366701 -0.029647466 -0.13898835
0.20140281 -0.07127465 0.028026626 0.06657034 -0.051979877 -0.19784528 0.1917145 -0.040547233
0.05540421 0.024170468 0.07743557 -0.19479306 0.085309856 0.096547335 -0.077579625 -0.21040013
0.14126813 0.12940226 0.26991215 0.05308019 0.10152771 0.07003583 0.15382189 -0.08247173
0.09607294 0.007914347 0.06310403 -0.014987105 -0.0065867184 -0.08508939 0.029081147 0.047697768
0.10007188 0.10938889 0.10996297 -0.012448717 0.09626443 0.16170165 -0.2079934 0.19810306
0.14846338 -0.12823263 0.054824468 0.046006635 -0.2071241 0.11536629 -0.1941296 0.15303068

model.0.running_mean f4 [1024]
00000000: cc7f 69bd 31d2 88bc 7897 eb3b 7eab d8bc
00000010: b19b 173b 71c7 64bc 9cc1 213d 4106 9bbb
00000020: 4b19 7fbb eece 083d a510 34bc 4edf b33b
00000030: 526c 76bb 422e 51bc 18e4 553b 990b 343c
00000040: bf4b 11bd d965 c8bc 415c bcb9 7228 093c
00000050: 7769 833c 3934 0cba 4b1f 9d3c 7e37 933d
00000060: 97af 9d3c de0f f43c a03d d0bc ac01 383c
00000070: ed44 acbb 140b 47bc 7ae1 cd3c 0649 81bc
00000080: 75c7 efbb e742 193c d68c 12bb 7ce8 873c
00000090: f6b8 2ebc 6dfc c63b 7453 e4bc ad9d b8bb
000000a0: f618 233c 5be4 ce3c 8deb b9b9 0dbe 3cbd
000000b0: c63f c5bc 71c1 453b 986a 0e39 90ae cabc
000000c0: 846a 41bc 4930 a73d 2901 d1bc d10b 8abc
000000d0: ae3c a2bc e00b 153c 6da9 1d3c 96b6 1abc
000000e0: e44a 073d 0037 143c 4cd5 bfbb a7c0 30bc
000000f0: 8d07 2c3c 679e b4bc d97c 41bc 419e b53c
00000100: 2a94 8f3a 9b6b 79bc 692e c03b 27b8 e33b
00000110: 35d6 773a dc25 da3b 18b6 1c3d 78b2 323c
00000120: 5842 89bc 6e85 293d 938a ef3c 3d53 3dbc
00000130: f079 cd3c 4e49 8dbc 64fe 8e3c d02e 98bc
00000140: 923a 05bc 63ce e33c 341a 56bd d2f5 b73c
00000150: bf66 94bc 083b 25bd c122 c03c 315b 9dbc
00000160: c117 473c 336c ac3c 099b bdbc b9b0 b4bb
00000170: a540 3cbc 804e 543c 884f 4a3c 474f 9f3c
00000180: 7b6e 133c 3d3a 693d 0c48 0fbc 0390 bc3c
00000190: 288f 6b3c f8c9 cc3c 73cf e2ba ee36 443c
000001a0: 54b8 963d 9005 843c ce5d 313b 1027 bfbc
000001b0: 2114 fdbc 0b16 4f3d b26e 43bc 2c8a 203b
000001c0: df77 863d 592f 69bb 364f 97bb 92d3 953c
000001d0: 516a 16bb 76f9 ecbb d0ff 393a 8e08 d6bb
000001e0: 172e aabc 821f 0cbc 9da0 7cbc cb5c 42bc
000001f0: 38c4 4abd 3b59 b8bc 3e65 26bc 3e00 a3bc
00000200: 80e9 a03c 45bf 9fbc af65 84bd 64fc 68bc
00000210: 227e 823c 53b4 4abb dcb7 c9ba f267 e3bc
00000220: a9fd 333d 90cd bd3c 6b1d 0cbb 2b7c b9bc
00000230: befd 2a3b 2a84 29bd fee0 32bc 88c4 bbbb
00000240: 06c9 17bb 837b 33bc 7eb6 343d ecd8 b3bc
00000250: eab8 07bd 756a a23a b946 04bc ed38 74b9
00000260: 18b8 ea3b a590 7cba 4347 8a3c 1718 de3c
00000270: 9356 df3c 5968 0bbc c182 61bb f6e8 e43b
00000280: c892 fc3a e215 e23c 60e2 843c bcfa 593b
00000290: 5ffa a0bb 4d93 93bb d074 66bd 2d65 e2bb
000002a0: 077d 19bd 0069 dd3c ac25 e73c 73c5 f13c
000002b0: ea68 d43c 7028 fabb 2bf4 bf3c a4a8 193c
000002c0: 7f8e 37bc d019 53bc 0420 95bc 7646 b5ba
000002d0: 5a31 01bd db3e 90bc 814e e2bb 77d5 363c
000002e0: 1a6e 37bc 23d2 cf3c 1382 403d dc1b 78bc
000002f0: ed58 76bc 2e0d 07bd 250f 1a3d d0da 533c
00000300: 86e5 663c 8404 013d 24f2 3f3c b0bc 2e3c
00000310: 2fd6 0ebc d893 82bb 68f5 a83c f12c 043d
00000320: 132e cd3b 0a03 4bbc 8a84 003b 5888 cdbc
00000330: b848 c5bc 2b56 0b3c 6674 38bc 1fc7 5dbc
00000340: 248c 933c a13b 1abc de98 05bd 7f0a b0bc
00000350: 3d90 5a3c 48f7 cb3c 1f16 ef3b 1554 7abc
00000360: 0a2c 483c f8b1 dd3c adfc 02bc 8448 ddbb
00000370: 2de2 283c b7e9 95bc 7a2b 47bd fd00 acbc
00000380: 8e63 b23c 3a2e 4a3c 28dd 703b 78ba a1bc
00000390: fcf3 173b 5793 a7bc 5846 1fbc 8218 02bd
000003a0: 3514 6fbb f970 f1bc 8c9f 45bc 7cda 8dbc
000003b0: 9a7b f0bc 5e96 103d 6a23 a93c bf87 86bc
000003c0: aa94 033d ea8b d6ba 2428 cdbb 216f cf3c
000003d0: cf7d b7bc 4882 e1ba 803e 353c ec54 b63c
000003e0: 1c41 26b9 90d7 db3c 6413 88bc 1b30 c23c
000003f0: f05b 953c 70d4 c73a 0b96 7c3c 1de2 ba3c
-0.057006642 -0.01670179 0.0071896873 -0.026448961 0.002313357 -0.013963566 0.03949128 -0.00473097
-0.0038924988 0.03340047 -0.0109902965 0.0054892665 -0.0037601185 -0.012767376 0.0032637175 0.010989093
-0.035472628 -0.024462627 -0.0003592689 0.008371459 0.0160415 -0.0005348358 0.01917996 0.07188319
0.019248767 0.029792722 -0.02542001 0.011230867 -0.00525724 -0.012148637 0.02513193 -0.01578189
-0.0073174783 0.00935433 -0.0022361777 0.01659035 -0.010664215 0.006072572 -0.027871825 -0.005634031
0.009954682 0.025255373 -0.0003546145 -0.046079684 -0.024078261 0.0030175115 0.00013581885 -0.024741441
-0.01180518 0.081635065 -0.025513249 -0.016851338 -0.019804325 0.0090970695 0.009622914 -0.009442946
0.033030406 0.009046316 -0.0058542844 -0.010788119 0.010499847 -0.022048188 -0.011809551 0.022170188
0.001095419 -0.015223409 0.0058649075 0.006949443 0.00094542216 0.006657345 0.038259596 0.010906808
-0.016755268 0.041387014 0.029240882 -0.01155549 0.025082558 -0.017246868 0.017455287 -0.01857701
-0.00813164 0.027808374 -0.052271083 0.022456083 -0.0181154 -0.0403395 0.023454072 -0.019208523
0.0121516595 0.021047687 -0.023145216 -0.005514231 -0.011490022 0.012958169 0.012348063 0.019446982
0.008998509 0.056940306 -0.008745205 0.023017889 0.014377393 0.02499865 -0.0017304256 0.011975987
0.073593765 0.016115934 0.0027063969 -0.023334056 -0.030893387 0.05055813 -0.011928247 0.002449642
0.06565832 -0.00355812 -0.004617597 0.018289361 -0.0022951553 -0.0072318865 0.0007095309 -0.0065317815
-0.02077393 -0.008552434 -0.015419153 -0.011862944 -0.049503535 -0.022503486 -0.010155974 -0.019897576
0.019642591 -0.019500384 -0.06464707 -0.014220331 0.015929285 -0.0030930236 -0.0015389877 -0.027759526
0.04394308 0.023169309 -0.002137984 -0.022642216 0.0026091184 -0.041385807 -0.0109179 -0.0057302155
-0.002316059 -0.01095474 0.04411935 -0.021954022 -0.033135332 0.0012391346 -0.008073502 -0.0002329086
0.007163059 -0.0009634591 0.016879683 0.027111096 0.027262961 -0.008508765 -0.003441021 0.006985779
0.0019269818 0.027598325 0.016221225 0.0033261022 -0.004912659 -0.0045036436 -0.056263745 -0.0069090337
-0.03747275 0.027027607 0.028216206 0.029513096 0.025928933 -0.007634215 0.023431858 0.009378586
-0.011203407 -0.012884572 -0.018203743 -0.0013830203 -0.031541206 -0.017608097 -0.006906331 0.011159292
-0.011195684 0.025368756 0.04699905 -0.015143361 -0.01503585 -0.032971554 0.0376121 0.012930587
0.014092809 0.031498447 0.011715446 0.010665104 -0.008718058 -0.0039849095 0.020624831 0.032269422
0.006261596 -0.012390861 0.001961025 -0.025089428 -0.024082527 0.008504431 -0.01125822 -0.013536244
0.01801116 -0.009413631 -0.03261649 -0.02148938 0.013340053 0.024898186 0.007296338 -0.015278836
0.012217531 0.027062401 -0.007994813 -0.0067530293 0.010307831 -0.01829992 -0.048625447 -0.020996565
0.021775987 0.012340123 0.0036752913 -0.019742236 0.0023186198 -0.020456 -0.009721361 -0.031761654
-0.003648055 -0.029472815 -0.012061965 -0.017316096 -0.029355813 0.03529965 0.02064677 -0.01642215
0.0321242 -0.0016368602 -0.0062608887 0.025321545 -0.022398857 -0.0017204965 0.011062264 0.02225729
-0.00015855249 0.026836187 -0.016610809 0.02370458 0.018232316 0.0015245806 0.015416632 0.022812897

model.0.running_var f4 [1024]
00000000: feec 1739 fd57 1e39 b6ae 0d39 7f75 0a39
00000010: effa 3339 e98c 4439 5d51 0d39 6bd5 f538
00000020: 690e 0839 d380 3639 ae76 4f39 4b60 3539
00000030: c762 4a39 befc 1739 a22e 1d39 397a ff38
00000040: 7bf0 d138 74f3 2539 835a 6939 bffd 0e39
00000050: 3a22 1839 39db 1c39 c473 0c39 aa96 5939
00000060: 95f2 0739 6fe5 2939 2bbf 3d39 e492 0139
00000070: 2dac 2839 3722 ba39 1f7e 7c39 4313 5939
00000080: 3ad1 2f39 deed f238 49e0 4939 0590 3b39
00000090: 098d 0039 8fc9 a538 065f 0a39 3e96 9039
000000a0: c591 9039 3433 3d39 a47e 4839 0c08 1e39
000000b0: 89fe 3539 c2a8 6a39 4042 6339 2350 6f39
000000c0: 6305 0f39 c12f d539 b631 8439 088b 9639
000000d0: 2fed 2e39 dc00 7439 9953 1439 a3b4 0b39
000000e0: 2445 7439 6190 c138 620d 0839 4924 2e39
000000f0: 6158 7539 648c 4339 0f46 8739 71f1 4e39
00000100: 4604 1039 f06b db38 07d3 5839 fcc5 1039
00000110: bf0b 2139 7227 2439 28ea 6a39 d461 6739
00000120: 2566 6539 c256 4639 35b1 4539 c21e 6439
00000130: fab7 f838 62c9 4639 b11f 2c39 27bf 4839
00000140: 983e 5539 fa66 0439 5b97 4f39 95be 1039
00000150: aaaa fb38 47f6 b939 429b 2d39 f137 8239
00000160: 55c3 ec38 c01b 9839 703b b739 566a 5039
00000170: 7da8 0f39 8bb8 6b39 8146 3639 fcc0 3239
00000180: 08e3 3639 0b9b 4139 9873 3c39 0bc4 b839
00000190: 46c4 1339 75ee 0139 9453 4e39 5182 fb38
000001a0: 3d38 463a fc41 3439 31d0 3139 adb1 6739
000001b0: a593 2439 8afb 3839 12f1 4439 f403 0539
000001c0: 7839 3e39 07df 5639 b78f 5d39 8736 8439
000001d0: 236c fe38 c151 2939 899d 6639 8bdb 8b39
000001e0: 879d 6c39 a8ec 1339 c595 2539 d981 4639
000001f0: 1485 0e39 9326 e338 df60 d838 5fe3 f538
00000200: 3aa7 5439 7426 9839 facd 5339 1b91 c738
00000210: e068 5139 a41b 1539 b563 0339 49e0 5039
00000220: fc90 8139 c6a4 1a39 d0eb 3339 e735 3539
00000230: 27f0 0939 c4b7 1a39 9242 2d39 b75e 1439
00000240: 5d01 bd39 0421 7039 275f 6739 f898 2a39
00000250: 5cb0 8a39 e3d0 4639 fec5 8039 fef6 2039
00000260: 2a47 0739 7283 7039 d03b 0b39 fc51 3839
00000270: a0b7 1039 6c97 0b39 4b3a a539 f41c 3939
00000280: 9e36 1c39 6b10 0739 d6eb 1139 0e71 0d39
00000290: 55a1 fe38 dfc1 ed38 b549 4c3a 7c24 0239
000002a0: b08d 4939 5018 3239 748a 3a39 bf61 2c39
000002b0: 22e5 3939 8aec 0d39 9516 8339 bdbb 4b39
000002c0: c873 0839 fd03 2139 fe9e e238 f65c 8a39
000002d0: 6a96 5639 f560 8339 8cc4 8639 7ffe 4339
000002e0: 371e 2039 cd9c 1e39 680d 6a39 f472 2139
000002f0: c796 3439 1379 2a39 b22b 8a39 3ab4 3a39
00000300: b53d 8039 bce7 0e39 06e4 1839 3385 7739
00000310: e8d4 6339 63ed 3839 57ef 4e39 5712 3339
00000320: cb70 2239 5b9e 2f39 5789 4839 11df fe38
00000330: 3040 1839 7e77 2839 da3f ff38 87f5 1c39
00000340: 2c4b 1e39 1a34 2239 4bea 3339 6875 0b39
00000350: f2e5 1e39 71e5 3e39 6935 113a 5b77 e838
00000360: 0e57 fd38 a8aa 1c39 b90a ee38 d51d 4939
00000370: 925b 2739 c27a 1b39 0daa 2739 da60 5439
00000380: be44 7339 18ad 1d39 d512 f738 f726 e438
00000390: ce07 ed38 ed93 1839 95cf 1139 626d d639
000003a0: a36b 5239 dd81 4939 3736 ec38 24e1 e938
000003b0: 66d5 4239 d866 1039 b3b2 1039 7c78 1739
000003c0: d27d 1739 e33b 2139 e6c1 5f39 cf9c 3939
000003d0: 5755 6d39 c80c fb39 eb62 0539 040d fe38
000003e0: 7792 2239 5319 0b39 37db 3639 7880 1539
000003f0: 0985 4d39 efb2 e538 16ce 1939 f039 0f39
0.00014488769 0.00015100832 0.00013511893 0.00013204476 0.0001716425 0.0001874451 0.00013477118 0.000117222626
0.00012975339 0.00017404863 0.0001978527 0.00017297377 0.00019301019 0.00014494636 0.00014990059 0.00012182113
0.000100106896 0.0001582632 0.0002225433 0.00013636703 0.000145086 0.00014958986 0.00013394566 0.0002075086
0.00012964972 0.00016202567 0.0001809566 0.0001235712 0.00016085869 0.00035502177 0.00024079577 0.00020701908
0.00016767244 0.000115837654 0.00019252406 0.00017887361 0.00012259571 7.905356e-05 0.00013196105 0.0002757776
0.00027574427 0.00018043519 0.00019120664 0.00015071052 0.00017356327 0.00022378846 0.00021673087 0.0002282267
0.0001363955 0.00040662105 0.0002521404 0.00028713816 0.00016682291 0.00023269973 0.00014145522 0.00013323365
0.0002329541 9.22985e-05 0.00012974956 0.0001660745 0.00023397944 0.00018648949 0.00025801404 0.00019735635
0.00013734502 0.00010462839 0.00020677979 0.00013806665 0.00015358532 0.00015654953 0.00022403209 0.0002206632
0.00021877194 0.00018915071 0.00018853399 0.00021755233 0.0001185983 0.00018957772 0.00016415004 0.00019144696
0.00020336581 0.00012626863 0.00019797443 0.00013803907 0.00012000401 0.0003546944 0.00016556404 0.00024837212
0.0001128974 0.00029012375 0.00034948764 0.00019876039 0.0001370031 0.00022480094 0.00017383137 0.00017047295
0.00017441448 0.00018463672 0.00017972139 0.00035241278 0.0001409213 0.00012391231 0.00019676826 0.00011992886
0.0007561481 0.00017190719 0.00016957593 0.00022096066 0.0001569526 0.00017641313 0.00018781822 0.00012685341
0.00018141221 0.00020491715 0.0002112974 0.00025217628 0.00012131806 0.00016147552 0.00021993196 0.00026675718
0.00022565397 0.00014107174 0.0001579142 0.00018931123 0.00013591751 0.000108313885 0.00010317726 0.000117248615
0.00020280192 0.0002902035 0.0002019926 9.5160874e-05 0.00019970862 0.00014220044 0.00012530277 0.00019919979
0.0002471282 0.00014747967 0.00017158617 0.00017281585 0.00013154802 0.00014755043 0.00016523365 0.00014149664
0.00036049905 0.00022900483 0.00022065324 0.00016269449 0.0002645281 0.00018960568 0.00024561578 0.00015350801
0.00012901114 0.00022937151 0.00013278355 0.00017578149 0.00013801316 0.00013312482 0.00031514684 0.00017653761
0.00014897666 0.0001288072 0.00013916133 0.00013488924 0.00012141714 0.00011337152 0.00077929656 0.00012411358
0.00019221636 0.0001698446 0.0001778992 0.00016439611 0.00017728333 0.00013534926 0.00025003092 0.00019429527
0.00013013103 0.00015355642 0.000108061344 0.00026390672 0.00020464664 0.00025058506 0.0002570491 0.00018691456
0.00015270045 0.00015126467 0.00022320973 0.0001539698 0.00017222307 0.00016257567 0.00026353967 0.00017805482
0.00024460038 0.00013628503 0.00014580795 0.00023605376 0.00021727721 0.00017636041 0.00019734852 0.00017077602
0.00015491543 0.00016748293 0.0001912465 0.00012153213 0.00014519761 0.00016066243 0.00012171241 0.00014968785
0.00015096058 0.00015468933 0.00017158051 0.0001329981 0.00015153716 0.00018205286 0.000553927 0.00011084854
0.00012080195 0.00014940894 0.000113507216 0.00019179967 0.00015960474 0.00014827683 0.0001598971 0.00020253976
0.00023199894 0.00015037169 0.000117813855 0.00010879145 0.000113024944 0.00014550956 0.00013905608 0.00040898757
0.00020067258 0.00019217232 0.00011263455 0.000111522415 0.00018580779 0.00013771222 0.00013799481 0.00014445366
0.00014447354 0.00015376466 0.0002133917 0.0001770139 0.00022633873 0.00047883973 0.00012720718 0.00012114088
0.00015504086 0.00013265507 0.00017438536 0.00014257606 0.00019599883 0.000109529 0.0001466799 0.00013659126

model.1.weight f4 [32, 1024]
00000000: 7901 2a3d 8f5d e1bc b8f4 263d 3cce 20bd
00000010: a194 8cbc 0df4 863d 358f d4bd 4f22 2fbd
00000020: 0b68 5dbd 4dee cf3c e936 c4bd 55a9 2d3d
00000030: 81b9 1bbc 702f 4f3c 91ac b53d b046 b5bd
00000040: 89d5 febc 88da 5abd 0a4d 85bc 1aeb 8abd
00000050: 4af6 223d 272c b93d 0bdb 7bbb a64c 753d
00000060: dfed fd3c c0bc 963b 273f 51bc e5d9 313d
00000070: af84 463d ceda ae3d c3c8 163d 8596 523d
00000080: 9239 393c 2f78 90bc 8dc2 e1bc 5c67 043a
00000090: 2a97 aa3d 1459 68bc 57f8 7c3d 925f f73b
000000a0: 124a 623d f028 553c 0a01 eb3c 6e8f 1dbd
000000b0: 4899 5abd 5883 723b 25fa 33bb 212b 163d
000000c0: 2504 123d 0938 553d 196f 07bd e261 61bc
000000d0: b5c7 af3d c15e 3e3d 40e6 203d 87d4 143c
000000e0: 6bf5 bebc 15dc 66be eb5b 66bd dca1 5d3b
000000f0: a27b 3d3c b808 56bc eccf 413d 27a9 093d
00000100: f2c7 a1bc edfc efbd 3247 8bbd 211c 3a3d
00000110: 5c17 20bb 313e 55bd 34aa 7abc 2657 38bc
00000120: 07ab 483b 3ddb 4f3d 6551 d53d f125 8fbc
00000130: af90 253d 291b 853d 4e60 863c eac6 01bd
00000140: c56b c3bd e1ca f23c 9517 22bd aa9c 3fbd
00000150: 9ad7 003d d1ab 2abd ecbf 553d c6d5 06bd
00000160: 81d3 64bc 1f05 813c 32c9 74bc e2c1 02bd
00000170: a380 10bc 586f 2abd 9919 1a3d 381e 26bd
00000180: 0453 6f3d 79fe bb3d 3ee0 453d 461b 89bd
00000190: a917 b2bd 430c d63b a2f3 673b 24e3 e43c
000001a0: 4fcd f6bb d6f8 2bbc d6cd 08bd 71a9 8abc
000001b0: 332e b5bd 7607 61bd f029 b7bc eac0 973d
000001c0: 5d52 e8bc 50a6 253c 0654 c5bc 2c52 d3bc
000001d0: ba3f 4e3d a928 043d efcd b9bc 74f9 123d
000001e0: 297c f9bc 6568 d0bc f6d0 b13c 7035 473c
000001f0: bf75 cf3d 49f3 4cbc 6a12 d1bd d8d0 b53d
00000200: 54a0 ebbc 2929 d2bd d82c 083d 476c 7bbd
00000210: 3dfb f23c 79ee 84bd 23a9 113e 7ead e63c
00000220: 53ab 693c 4131 75bd 0b8f 88bd cfad 5bbd
00000230: 9710 b9bb 9298 613a 2241 17bd 45cb dabd
00000240: 0e5a 023d 39fc 8cbd f0d5 2e3d 54cc 82bd
00000250: ea26 1bbe 26bd 08bd b0f6 5abc ee62 a1bc
00000260: aaf9 ccbc c5dd 163c d9ec 893d 7b7a 65bd
00000270: fb14 443d 0287 0b3d e64c 063d 3ca6 a23d
00000280: 0799 e43c 93c7 01bd 2815 d1bc 11be 31bc
00000290: 59f5 46bd 2d42 78bb 1f9b 2d3c 24b8 c93b
000002a0: c84c 47bd ab92 4bbd 1e8a b6bc 7ca3 bcbc
000002b0: f5d8 023d 2e5a 50bd 180f 7cbc 9a07 85bd
000002c0: d0cd a53d 5c27 75bd 3460 3e3c d132 a83c
000002d0: 81d5 0c3d f92a b63b 0715 093b 0c4d d6ba
000002e0: 8b31 303d 3872 ebbc 55be a23d cfb4 acbd
000002f0: ac20 ed3b 3913 90bd c46e 9cbc 4537 8cbd
00000300: 3c23 a0bc 549a 0c3c 8d87 acbd d0b5 223d
00000310: 0fab 32bd 3923 61bc e657 56bd 3ccc 363d
00000320: eb11 303d ade6 bbbb f231 30be e27b ca3c
00000330: d134 773c d1d3 6a3c a08f 85bd b15e a63d
00000340: 0539 663d 7121 0fbc 8264 51bd 87d2 f83c
00000350: d72f 6f3d bbe9 823c cd87 f4bc 804e a4bd
00000360: 0b70 2fbd e5e6 bc3d 5ae6 293c 5150 babc
00000370: 1108 42bd a073 c1bd 07b9 503d bc07 fe3b
00000380: 9dab b33c d3f4 d03c dfc6 c43c 0632 bbbb
00000390: 806d 363d 5230 cd3c b4fb 233d 4637 d9bc
000003a0: c584 463d 7e37 f4bd 6f77 6b3d 8f3b ecbc
000003b0: 6d37 5abc dbed a7bc acd4 0c3e cbfb 843c
000003c0: 0696 d3ba dab9 5dbd 296e 44bc ed82 a0bc
000003d0: 9554 21bd 7074 353d 7f7f 7ebc d7aa cfbb
000003e0: 265b 323e d3c5 c1bc 0abe 17bc 8d9d 7cbb
000003f0: 9d9c 03bc 4d82 10bc 6165 7b3d f755 343d
0.04150531 -0.027510433 0.040760726 -0.03925918 -0.017160716 0.06589518 -0.10378877 -0.04275733
-0.0540543 0.025382185 -0.09580786 0.042397816 -0.009504677 0.012645587 0.08870805 -0.08851373
-0.03110768 -0.053431064 -0.016272087 -0.06783123 0.03978566 0.090416245 -0.003843012 0.05988755
0.030997215 0.0046001375 -0.012771404 0.04342069 0.04846638 0.085378274 0.036812555 0.051413078
0.01130523 -0.017635433 -0.02755859 0.0005050802 0.083296135 -0.014181394 0.061760273 0.0075492347
0.05524642 0.013010249 0.028687019 -0.038466863 -0.053368837 0.0037004557 -0.002746233 0.036662225
0.035648484 0.052055392 -0.033064935 -0.013756247 0.08583013 0.046477083 0.039282084 0.009083874
-0.023310384 -0.22544892 -0.056240004 0.00338184 0.011565121 -0.013063602 0.04731743 0.033608582
-0.019748662 -0.11718164 -0.06800689 0.045436982 -0.0024427986 -0.052061263 -0.015299369 -0.011251247
0.0030619518 0.05074619 0.104159154 -0.017474147 0.040421184 0.06499321 0.016403344 -0.03168384
-0.0954204 0.029637756 -0.03957327 -0.046780266 0.031455614 -0.041667763 0.052184984 -0.032918714
-0.013966442 0.015749512 -0.014940547 -0.031923182 -0.008819732 -0.041610092 0.037622068 -0.040556163
0.05842878 0.09179396 0.048309557 -0.06694655 -0.08695919 0.0065322234 0.003539302 0.02794034
-0.007531799 -0.010496339 -0.033399425 -0.0169265 -0.088467024 -0.054938756 -0.022358865 0.07409842
-0.028359586 0.010110453 -0.024087917 -0.025796019 0.050353743 0.03226534 -0.022681205 0.03588243
-0.030454712 -0.025440404 0.021706086 0.012158737 0.1012988 -0.012509176 -0.1020859 0.088777244
-0.028762974 -0.10261757 0.03324589 -0.06138256 0.029660815 -0.064907975 0.14224677 0.0281589
0.014262038 -0.059861425 -0.06667908 -0.053632554 -0.0056477296 0.00086058036 -0.03692735 -0.10683302
0.031824164 -0.06884045 0.042684495 -0.06386629 -0.15151563 -0.03338351 -0.013364479 -0.019700494
-0.025021393 0.009208147 0.06734628 -0.05602501 0.04787157 0.0340643 0.03278818 0.07941863
0.027905 -0.03168447 -0.025522783 -0.010848538 -0.048573826 -0.003788124 0.010596066 0.0061559845
-0.04865721 -0.04970042 -0.022282656 -0.023027174 0.031945188 -0.050867252 -0.015384458 -0.064955905
0.08095896 -0.05985199 0.011619616 0.020532044 0.0343833 0.005559322 0.0020917074 -0.0016349866
0.043015998 -0.028740987 0.07946459 -0.08432924 0.007236561 -0.070349164 -0.019095786 -0.06846479
-0.019548051 0.008581717 -0.08424292 0.03972417 -0.043620165 -0.013741308 -0.05232992 0.044628367
0.042985838 -0.005734286 -0.17206553 0.024717275 0.015088276 0.0143327275 -0.06521535 0.0812353
0.05620672 -0.008736 -0.051121242 0.030373825 0.058395233 0.015980592 -0.029849911 -0.08022785
-0.042831462 0.09223727 0.0103698615 -0.022743376 -0.047370974 -0.09445882 0.050957706 0.007752387
0.021932418 0.025507366 0.02402061 -0.0057127504 0.04453802 0.025047455 0.040034965 -0.026515614
0.048466463 -0.11924647 0.057486948 -0.028836994 -0.013318879 -0.02049916 0.13753003 0.016233345
-0.0016142733 -0.05413232 -0.011989155 -0.01959368 -0.039387304 0.044300497 -0.015533327 -0.0063375044
0.17417583 -0.0236539 -0.009261617 -0.0038546056 -0.008032945 -0.008820129 0.06137598 0.044027295

model.1.bias f4 [32]
00000000: 2fdb f93c 61f6 4f3c 4317 1fbe 769f 8cbd
00000010: 34d2 eebd 8069 c5bd a0f4 d6bd 5144 ddbd
00000020: 5fe2 b1bd a79f 8d3c 602a 86bd 335d b1bd
00000030: f130 45bd 3b77 b63d da18 b5bd d6de b4bc
00000040: 8f1f 7bbd ab85 82bd 87c1 e9bd cf0a aa3c
00000050: 41a8 19be 318f 6dbd 13ce 98bd 6378 72bd
00000060: 47f6 0bbe f2cd 18be aa58 81bd ff65 8dbd
00000070: 73bc 4dbc 49ac 8fbd 28f3 12be 0d9e fcbd
0.030500023 0.012693019 -0.15536217 -0.06866352 -0.11661187 -0.09639263 -0.10495877 -0.10804046
-0.08685755 0.017288042 -0.06551051 -0.086603545 -0.048142377 0.0890946 -0.08842631 -0.022078913
-0.061309393 -0.063731514 -0.114138655 0.020757107 -0.1500559 -0.057997886 -0.074611805 -0.05919684
-0.13668166 -0.14922312 -0.063157395 -0.0690422 -0.012557137 -0.07015283 -0.14350569 -0.12334833

model.4.weight f4 [64, 32]
00000000: 1ace 4fbe bed3 2abe f381 523d 08f4 033e
00000010: 35f2 9abd bba8 553e e3fe e73c e5c8 a4bd
00000020: 4683 efbd 6ef9 76bd 7c0d 37bc 3f53 9dbd
00000030: 75f6 4f3c fea6 f6bd bd96 273e 5870 633d
00000040: 52b7 b5bd eadf 963c 18a5 903d f798 f4bd
00000050: 2dc3 1cbe 44b6 683e bf7b ffbd 844a a8bd
00000060: cc4f 8f3d 8ba7 db3d 38eb a0bd 2e5a 0a3e
00000070: b316 a5bd a925 4dbe a998 4b3d 7221 f63d
00000080: c12d 5abe b84d 56bd ae35 263e 71dd 13be
00000090: 7fd0 3a3e 87dd 2c3e af8f cfbd 533a 87bc
000000a0: bfb5 c2bd 5a53 a9bd e659 bdbd ccee 813a
000000b0: 7892 44be 65e5 acbc 404b 04be cce6 fe3d
000000c0: 1f12 1abe e01c 053e fe8d cbbd 9983 56be
000000d0: 7bce 1fbe c67f db3d bb65 133d de1a 08be
000000e0: b44c e9bd 2495 22be ecbb abbc fa16 e93d
000000f0: b8f6 98bd e2b2 f6bc 1c2b 1cbe 9aaf 2d3e
00000100: c91f 973d 82a8 09be 8182 b33b 6d0c ffbd
00000110: e525 773e 6ee8 9dbc 90ef 35bd f3c6 15be
00000120: 7795 1abe 8cc2 f3bd 3fda e6bd 572c 42be
00000130: f736 4c3d c6d0 2cbe 9e60 653e 19cc 56bd
00000140: 9941 7f3d d0a9 5ebc 4c37 8dbc 9427 00be
00000150: 7fce 1cbb 47ca 17be c7ab fcbd a093 b9bd
00000160: 01c6 2e3e 9e03 81bd 2ae2 933d 8f5d b93d
00000170: 9ad2 94bd b928 35be 0b1f 143e b1b5 933d
00000180: 322e 623e f62b a33e 2f05 8e3d a5b4 623d
00000190: c5e0 e2bd 9c79 80bd 5e90 783e 0420 09bd
000001a0: 21c7 2cbe ff7f 7e3e 1c8d aebd 78db 0a3e
000001b0: 6993 053e 563f 6a3e 71b2 2ebc fb7a fabc
000001c0: 5b66 d6bc f11e c1bc 5eed 033d a840 8d3d
000001d0: 241f 41bd e468 39bb ab82 e4bd c0eb b33d
000001e0: d615 70bd 58be 8cbd 919d b13d 6bf1 753c
000001f0: 7282 b03e ac52 9a3e 2ce5 5cbd a557 16bd
00000200: 3629 ccbd b592 f5bc f7c3 ecbd 0900 cd3d
00000210: 83aa 96bd 9d3e a0bd 94d0 b3bc 3f8f 1ebd
00000220: 98dd 393e 1b55 08be a773 fb3b b7b6 a2bd
00000230: ed94 12be a2fb eebd b5f1 d13d f6a1 0e3e
00000240: 083f 893d 5d1f 2bbc ba64 9cba b377 9abd
00000250: 7c5d f9bd 58ee 94bd 31ea 3b3e 9b30 f6ba
00000260: d069 24be 708a 81bc 2c76 dfbc 2bae db3d
00000270: d826 91bd e9ed c8bd c81b 04be 208e 15bd
00000280: f0f0 94bd 70f6 acbd f63c 67bd 8340 7b3b
00000290: 348d 4f3e 194f fe3d 370f a4bd 2dc4 44bc
000002a0: 6ee9 873d 7c0e 413d b28e 51be 1afe 0dbd
000002b0: ad0b e1bd b78f e0bd 21df 143e 4739 e53c
000002c0: bc0e 3e3e acc0 513d 8c89 5f3d 69d0 c83c
000002d0: 8e67 21bc 4ee9 b7bd 06a0 3f3d a91a d4bd
000002e0: f256 c63d 6b82 683e 0b98 083d 41ca 0b3e
000002f0: 9862 1abe 0927 40bd 3b75 c13d 09c1 b7bd
00000300: 076f 38be 862f 053c 49c0 3a3d 5f5c 04be
00000310: ead1 71bd 0dd4 1d3e 8779 f3bd 8969 a1bd
00000320: 624b eabd a3f7 c5bd 2450 df3d 69e1 eebd
00000330: a073 c8bd 0517 32be 12b8 2b3e 329b ab3d
00000340: 0893 153e 707a 5fbd b98d 01be 9ed0 933c
00000350: 9dec 65bd 2088 393d e32a 293e 485a 7dbc
00000360: 94a6 ecbd 4bdb 85bd cd28 1cbe 6e2b 01bd
00000370: 3499 d0bd e833 e0bd 2923 053e 6426 ce3d
00000380: 70d7 c1bd 06a7 a1bd 1275 bbbc 3cb6 f03c
00000390: 5b53 223e e4cc 27bd ddb8 ccba 2651 ecbd
000003a0: a8df 1c3e b77f 36be 16a4 c83d 4d25 f8ba
000003b0: e3b6 12bb 3657 40be bf3d 41bd c74e 173d
000003c0: 7e2f 35be 17bd 96bd 3ce6 14be acaa 3f3b
000003d0: ac58 af3d ab9c 53be ab20 cf3d 0bf5 cbbd
000003e0: ed95 3ebd 66c2 2b3e 1824 d43c b86e ed3c
000003f0: 64a8 ffbd 7848 593d 9742 58be 783a c0bb
-0.20293465 -0.16682336 0.05139346 0.1288606 -0.075657286 0.20865147 0.028319782 -0.0804613
-0.1169496 -0.06029647 -0.0111726485 -0.076818936 0.012693037 -0.1204357 0.16366096 0.05552706
-0.08872856 0.018417317 0.07062739 -0.11943238 -0.15308829 0.22725779 -0.124747746 -0.08217338
0.06997642 0.10725316 -0.078573644 0.13510963 -0.0806097 -0.20033897 0.049706135 0.12018098
-0.21306516 -0.052320212 0.16231415 -0.14439942 0.18243597 0.16881381 -0.10134827 -0.016507303
-0.095073216 -0.08267851 -0.092456624 0.0009913086 -0.19196498 -0.021105478 -0.1291933 0.12446365
-0.15045975 0.12999296 -0.09939192 -0.20948638 -0.1560611 0.1071773 0.03598569 -0.13291499
-0.11391583 -0.15877205 -0.020963632 0.113813356 -0.07468933 -0.030114595 -0.1525082 0.16961518
0.073791094 -0.13443187 0.0054782038 -0.12453542 0.2413555 -0.01927587 -0.044417918 -0.14626674
-0.15096079 -0.11902341 -0.11272096 -0.18962227 0.049857106 -0.16876516 0.22400138 -0.052440736
0.06231842 -0.013590291 -0.017238282 -0.12515098 -0.0023926792 -0.14823256 -0.123374514 -0.0906136
0.1706772 -0.06299518 0.07220872 0.09051048 -0.072667316 -0.17691316 0.14464967 0.07212389
0.22087935 0.31869477 0.069345824 0.055348057 -0.11078028 -0.06273195 0.24273822 -0.033477798
-0.16872837 0.24853514 -0.08523008 0.13560283 0.13044514 0.22875723 -0.010662661 -0.03057622
-0.026171854 -0.023574324 0.032208793 0.06897098 -0.04714884 -0.002829128 -0.111577354 0.087852
-0.058614574 -0.06872243 0.086726315 0.015011172 0.34474522 0.301412 -0.053929493 -0.036704678
-0.09968798 -0.029977182 -0.11560815 0.10009772 -0.07356741 -0.078244425 -0.021950044 -0.03871083
0.18150938 -0.13313715 0.007673699 -0.07945006 -0.14314623 -0.11669089 0.1025118 0.1392897
0.067014754 -0.010444489 -0.0011931874 -0.07542362 -0.12176034 -0.07272023 0.18351056 -0.0018782796
-0.1605599 -0.015813082 -0.027278028 0.10726579 -0.07087487 -0.09811003 -0.12901223 -0.036512494
-0.07272518 -0.08445442 -0.05645462 0.0038338013 0.20268708 0.124174304 -0.080107145 -0.012009663
0.0663632 0.047132954 -0.2046459 -0.03466616 -0.10988555 -0.109649114 0.14538242 0.027981414
0.18560308 0.051209137 0.054574534 0.02451344 -0.0098513495 -0.08980046 0.04678347 -0.103566475
0.09684552 0.22706 0.033348124 0.13651372 -0.15076673 -0.046912227 0.09446188 -0.089723654
-0.18011104 0.008129006 0.045593534 -0.12925862 -0.05903808 0.15412922 -0.11888414 -0.07881457
-0.114401594 -0.096663736 0.109039575 -0.11664087 -0.09787679 -0.17391594 0.16769436 0.083792105
0.14606869 -0.054560125 -0.12651719 0.018043812 -0.056133855 0.045295835 0.16520266 -0.015463419
-0.1155521 -0.065359674 -0.1524994 -0.03153556 -0.10185471 -0.109474 0.13001694 0.10065916
-0.094649196 -0.07893185 -0.022882972 0.029383771 0.1585211 -0.040966883 -0.0015619058 -0.11538915
0.15319693 -0.17822157 0.09796922 -0.0018932015 -0.002238684 -0.18783268 -0.047178026 0.036940362
-0.17693898 -0.07360285 -0.14540952 0.0029246015 0.08561835 -0.20665233 0.10113653 -0.099588476
-0.0465297 0.16773376 0.025896117 0.028983459 -0.1248329 0.053047627 -0.21119152 -0.005866345

model.4.bias f4 [64]
00000000: 79c6 003e 387a d4bc bff9 ccba ab58 69bd
00000010: bed8 9d3d 10fe 1c3c 0129 1a3e b6c9 1fbd
00000020: 8df5 2b3e 0c07 313e 2e71 49bc f920 f53d
00000030: 0024 b43d b6e5 a03b 85e0 97bd f779 863e
00000040: cc6c a4bd 6699 43be c0ed 78bc 9425 5cbd
00000050: d37e 5abd 8a6a 513b 811b f2bd 15e8 553e
00000060: 1a5b 3abd c790 cabd 849d cebb 2439 753c
00000070: c774 2dbe c786 1e3e 4a27 8f3e 8f1d e9bc
00000080: a621 c0bc 98ae a9bd bbca 8d3c 0a1a 0ebd
00000090: 85bd 863e 7218 8ebd 2953 653d df7c 16be
000000a0: ebfb a8bd 4ee6 debd 699f 403e 945e 623e
000000b0: ff84 0abc 6ceb 87bd 7c6f 39be f6f1 8dbd
000000c0: 57e7 453d c7fb 19bd 4155 01bb 55a7 3abd
000000d0: 3f32 f33d 0ac7 a93e e23a d7bb cf3a 33be
000000e0: 68ff d2bd 456f 04be ddb9 21bc 089d 9d3e
000000f0: 82c7 cbbc 7b48 10be 7d07 233d 0eda 0bbd
0.12575711 -0.025937185 -0.0015638395 -0.056969326 0.07707356 0.009582058 0.15054704 -0.039010726
0.16792889 0.17287844 -0.012295051 0.1196918 0.08795929 0.004910196 -0.074158706 0.26264927
-0.08028564 -0.19101486 -0.015193403 -0.053746775 -0.053343605 0.0031954371 -0.11821652 0.20889314
-0.045497037 -0.09890895 -0.0063053984 0.014967237 -0.16939078 0.15481101 0.27959663 -0.028456477
-0.023453545 -0.08285254 0.017308583 -0.0346928 0.26316467 -0.06938256 0.05598751 -0.14696072
-0.082511745 -0.10883771 0.1881081 0.22106391 -0.00845456 -0.066367 -0.18108934 -0.06930916
0.048316326 -0.03759363 -0.0019734653 -0.045569737 0.11874818 0.33159667 -0.0065682987 -0.17502902
-0.10302621 -0.12933071 -0.009870973 0.30783868 -0.024875406 -0.14090149 0.039802063 -0.0341435

model.7.weight f4 [1, 64]
00000000: ebcd 9f3d eebd c83d 556f 003e eb8e 11be
00000010: 73a0 bc3d cfef bd3d 918e a83d 22e5 d03d
00000020: c495 9cbd 02ed 49bd a6b2 d73d 4454 d0bd
00000030: 1a24 babd 6c6d bd3d 6cda 2fbe a8f7 53be
00000040: e17d b93d 0f77 a63d 6dfb 813d 7750 f53d
00000050: c7f5 e1bd 7a34 ae3d e4b8 003e ec97 f6bd
00000060: a908 143e c2a6 37be 4360 f03d 028f f03d
00000070: 149d 103e eaab 40be 630f 84be 46e3 d73d
00000080: 0d42 973d edf9 dd3d e1bd a73d 0c9b 9b3d
00000090: b5bc 67be 0291 2b3d cd8f 863d 9b06 9f3d
000000a0: c97f 813d 4bea 4fbe 5440 86be 5982 f8bd
000000b0: 8408 d63d 562c d6bd e694 25bd 9986 dd3d
000000c0: ef76 ef3d 2809 d63d 5df9 e93d 5464 09be
000000d0: d33f 60be 63c7 92be 2730 af3d 9a71 1a3e
000000e0: 66d5 963d a34f 6cbe 8f01 db3d 5acb 5abe
000000f0: e1d0 723d 76de 953d 5edd 323c f4ad aa3d
0.078029476 0.09801851 0.1254247 -0.14214675 0.09210291 0.092742555 0.082303174 0.101999536
-0.07645753 -0.049298294 0.10532121 -0.101723224 -0.09088917 0.09249386 -0.17173165 -0.20699942
0.090572126 0.081281774 0.06346784 0.11978238 -0.110332064 0.08506103 0.1257053 -0.120406955
0.14456429 -0.17934707 0.117371105 0.117460266 0.1412242 -0.1881558 -0.2579299 0.10541396
0.07385645 0.10838685 0.081905134 0.07597932 -0.2263058 0.041886337 0.065703966 0.07764932
0.06323201 -0.2030422 -0.26220953 -0.12134237 0.10450843 -0.10457675 -0.040425204 0.10816688
0.11692607 0.10450965 0.114245154 -0.13417178 -0.21899347 -0.28667745 0.08554106 0.15082398
0.07364921 -0.23077254 0.10693657 -0.21366635 0.059281234 0.07317822 0.010917036 0.0833396

exp_avg f4 [1024]
00000000: 3807 0fba 9944 87bb 8730 163b 6edc 79ba
00000010: e4c2 bd3a 7311 de3b 4a23 5639 4dc2 b23b
00000020: 20b5 5137 ad21 1c39 0f70 a4b9 d0bc 67ba
00000030: a312 a2ba 2560 b23a deae 1c3c 4221 7e3a
00000040: c9db b4bb 5da8 c0b9 bc91 bdb9 346c 873a
00000050: d87f 403a b04a deba 7e43 6cba 7ec7 d83a
00000060: 434f a0bb 2e88 a4ba db6b 5839 fc3b 96ba
00000070: e5b0 0cbb 748b d23a 6590 f8b9 413f 8d3a
00000080: 7834 febb 4dd9 8dbb c05d 063b 78d3 7b3a
00000090: 534d 973b 921c 6eba c281 693a 1258 62bb
000000a0: e8cf b439 85c3 333a cd15 09ba 9653 1b3b
000000b0: 9539 60bb ea38 a9ba 9358 4c38 4bd8 bdba
000000c0: 4b6f a0bb 9dac 39bb 8803 02bb c376 353b
000000d0: 9a3c 0bbb 5474 1bb8 9d3a 17bb cce6 883a
000000e0: be2a d63a 2706 98bb 019c 523a a43f 35ba
000000f0: bd90 91ba 36e3 6bba f252 463b 70a0 3dbb
00000100: 264b efba 7ded b5ba 54e0 0bbb 61e0 733b
00000110: f20c df3a 894d 27bb dbf3 973a 83b2 97ba
00000120: 6ee0 123b 64d9 a437 0589 013b 8b1c 26bb
00000130: 1513 1ebb 6abb d3ba 3eca beba 47ee 1b3a
00000140: 3751 b5ba 5c56 3b3b 23bd 683b 5c70 303b
00000150: 1276 40ba 0459 91ba ef8c e63a 0641 bfba
00000160: 0288 323b b30b e93a d314 0539 9bc5 c539
00000170: b538 8ebb 2d39 bb3a f3f9 af3a 185e 87b9
00000180: 969a e7ba 0c13 9b3a d934 963a 1b91 733a
00000190: 5571 743b 94de 6dba 3c14 0a3a ce12 bdb9
000001a0: 710a 9eb8 3208 f5b9 3e3c c2ba bcd1 acba
000001b0: 3113 813a 9736 b63a 0f5d 1fbb 9542 82ba
000001c0: ba27 72b9 7a99 753b d2e6 89bb f3ad 103b
000001d0: 4317 f03b fc68 a63a 0df7 3cba 4426 fc39
000001e0: 5d81 723b f8cf d23b 8cda ceba 404f 43ba
000001f0: 541a a13a f5f1 7a3b e3a7 01bb af5c 8eba
00000200: a696 5b39 105d 0238 1df5 61ba f7c4 7cba
00000210: d0d2 2338 03e3 0b3a 3ee3 16bb ad86 cab9
00000220: 1d79 4aba 77c2 14ba 2cdc af3a 90f6 b63a
00000230: 8f79 2e3a 8634 a6ba 79d0 ec38 97f9 85bb
00000240: aa6a 7c3b 3f89 c73a 348f 91bb d177 7d3a
00000250: fd47 21ba 93f4 ae39 dfc4 00ba 4f92 e43a
00000260: 19bf 0b3b 3d97 133a 6d47 913a 882e d83a
00000270: 1c1a 233a fe4a ae39 9cf8 613b b97a 153b
00000280: 47a5 74ba f183 e93a fc8b b8b8 59b1 303a
00000290: 38d5 b9b8 02e7 103b 0efe 15ba 0584 0f3b
000002a0: d8da ad3a a20f 4abb f4af 863a ece7 9cb9
000002b0: af08 453b 4ab8 0b3b a7e4 9bba 0f85 23bb
000002c0: 021c d6bb b9f7 593a 1eaa 443b 2698 2e3b
000002d0: ad3a 62bb 58d4 d4bb 2414 82b9 2de3 733b
000002e0: 3281 daba d29b 3e39 fe93 ee3a 0e6c d8bb
000002f0: b284 93b9 244c 0bbb d839 d0ba 2c79 60bb
00000300: 8f1b e53a 6807 e3ba 0261 953b acd5 70ba
00000310: ad27 0a3b fdeb 013b efd4 453b 034e 2aba
00000320: 8b19 ce39 26c8 cf3a 5a48 883b 60e3 a4b9
00000330: b002 a3ba 5481 8cba e613 17bb 5636 e93a
00000340: d887 dab9 4c45 d6ba 1d0f cf3a 3eec b8bb
00000350: 89f9 45b8 3d3d 6b3b 601b cd3a 5ef5 6c3b
00000360: 7f0f 2b3a 54fd f3ba 038c dd3a cb50 453b
00000370: 0661 e33a c12c a83a 1cb5 4f39 b6dd b7bb
00000380: 89dc fd3a c77a 81ba b2d2 e33a 18ed f338
00000390: e443 863b 9b96 45bb fe32 ddba d5f9 21ba
000003a0: 7115 933b 2574 70bb ea6b 73b9 003f 93bb
000003b0: fd42 e73a 33e0 ebba ba5e e3bb 347e 533b
000003c0: 7c49 09bb 44d0 f8b9 e8f5 863a 5a05 a83a
000003d0: 36ce 303a 5e23 c4ba 07a6 ed3b 52c4 ef3a
000003e0: a91e 933b ce33 7d3b 100f 64bb 8bc5 d2bb
000003f0: d839 47bb abe6 a43b e9be a8ba 6d28 573a
-0.0005456093 -0.0041280505 0.0022917108 -0.0009531443 0.0014477638 0.0067769825 0.00020421777 0.0054552914
1.2499542e-05 0.00014889865 -0.00031364008 -0.0008840086 -0.0012365173 0.0013608976 0.009563176 0.0009694287
-0.0055193645 -0.00036746534 -0.0003615747 0.001033193 0.0007343269 -0.0016959514 -0.00090127427 0.0016538945
-0.0048922612 -0.0012552792 0.00020639545 -0.0011461969 -0.0021467742 0.0016063289 -0.00047409828 0.0010776297
-0.0077577196 -0.004328883 0.0020502657 0.00096064014 0.004617372 -0.0009083237 0.000890758 -0.0034537357
0.00034487178 0.0006857443 -0.0005229384 0.0023700944 -0.003421401 -0.0012910638 4.871988e-05 -0.0014484016
-0.0048960797 -0.0028331645 -0.001983853 0.0027689196 -0.0021245838 -3.706322e-05 -0.0023075708 0.0010444759
0.0016339642 -0.0046394053 0.00080341107 -0.0006914085 -0.0011105757 -0.00089983956 0.0030261842 -0.002893474
-0.0018256649 -0.0013879981 -0.0021343427 0.0037212598 0.0017017408 -0.0025528392 0.001159306 -0.0011573586
0.0022411603 1.9651554e-05 0.0019765508 -0.0025346603 -0.002412026 -0.0016153876 -0.0014556122 0.0005948287
-0.0013833408 0.002858541 0.0035513125 0.002692244 -0.00073418126 -0.0011089151 0.0017589609 -0.0014591522
0.0027241712 0.0017779976 0.00012691626 0.00037721996 -0.004340256 0.0014284007 0.0013425931 -0.00025819312
-0.0017669972 0.0011831238 0.0011459842 0.0009291337 0.0037298996 -0.0009073999 0.00052672974 -0.000360629
-7.535972e-05 -0.00046736147 -0.0014818979 -0.0013185064 0.0009847638 0.0013901767 -0.0024316942 -0.0009938056
-0.00023093718 0.0037475512 -0.004208424 0.0022076338 0.0073269918 0.0012696083 -0.00072084443 0.00048093696
0.0037003376 0.006433483 -0.0015781685 -0.0007450469 0.0012291172 0.003829119 -0.0019783906 -0.0010861362
0.00020941588 3.1081086e-05 -0.00086195936 -0.0009642387 3.9058563e-05 0.00053362566 -0.002302363 -0.00038628784
-0.0007723736 -0.00056747295 0.0013417057 0.0013958979 0.0006655687 -0.0012680448 0.00011292188 -0.0040885913
0.0038515725 0.0015223398 -0.00444212 0.0009669038 -0.00061523897 0.00033370088 -0.00049121486 0.0017438623
0.002132362 0.0005630141 0.0011083909 0.001649336 0.0006221847 0.0003324374 0.0034480458 0.0022808744
-0.00093324896 0.0017815811 -8.799878e-05 0.0006740294 -8.8612025e-05 0.0022110348 -0.0005721756 0.0021898758
0.0013264073 -0.0030832072 0.0010275827 -0.00029927434 0.003006499 0.0021319562 -0.0011893705 -0.0024951135
-0.0065341005 0.00083148066 0.0030008624 0.002664098 -0.0034519837 -0.00649504 -0.00024810538 0.0037214265
-0.0016670583 0.0001817786 0.0018202064 -0.006604678 -0.0002813689 -0.00212551 -0.0015886379 -0.0034251912
0.0017479527 -0.0017320933 0.0045586834 -0.0009187113 0.0021080778 0.0019824498 0.0030186733 -0.000649661
0.00039310413 0.0015852496 0.0041590156 -0.00031449925 -0.0012436714 -0.0010719695 -0.0023052632 0.0017792683
-0.00041681412 -0.0016347556 0.0015797351 -0.0056433966 -4.7200858e-05 0.0035894655 0.0015648417 0.0036156992
0.00065254414 -0.0018614926 0.0016902689 0.003010797 0.0017347641 0.001283072 0.00019808527 -0.005611147
0.0019368093 -0.000987851 0.0017381518 0.00011631305 0.0040974487 -0.0030149582 -0.0016876159 -0.00061788905
0.00448864 -0.0036690321 -0.00023214487 -0.004493594 0.0017643865 -0.0017995894 -0.0069387825 0.0032271268
-0.002094834 -0.00047457416 0.0010296674 0.0012818978 0.0006744595 -0.0014964154 0.007252458 0.0018292761
0.004489739 0.0038635614 -0.0034799017 -0.0064322404 -0.0030399468 0.0050323806 -0.0012874278 0.0008207623
